Auxillary_Code/LCNN/project/03-asvspoof-mega/spec2-lcnn-attention-p2s/01/__pretrained/trained_network.pt (torch, 760388 bytes, 35 tensors)

m_transform.0.0.weight f4 [257, 60]
00000000: 4a37 df3c 3ad5 4fbc 3072 80bc bbfe e63c
00000010: 57a6 ee3b e3f5 86bc 8885 c13c bbbc a13c
00000020: ab51 983b 996f 8fbc 90cf 6d3c a97f c03d
00000030: 6b1e 0b3d 1a7c 813d b2a7 0f3d 9698 be3c
00000040: 46ed 533c 3ee1 b83c 12f6 563d 34dc 9abc
00000050: ef2e ba3c 215b a83c fc52 c3bc 11c2 443c
00000060: 145b 793c 498e 373d a8d0 af3b 81af 903c
00000070: 4ae9 843c 08ad d73c 7c8a 8dbc ee57 34bc
00000080: 9475 893b 5f30 e3b8 7a64 8dbb 0a87 f1bb
00000090: c1f0 1b3c bd48 0f3c 308e 8fbc 93b7 10bc
000000a0: 321b 3d3c a494 b4bc 9b87 5f3d aaa7 f83b
000000b0: 445a 103d 96d6 2d3d cba8 553c 1272 833c
000000c0: b835 153d faf6 0ebd 44a1 b4bc 7115 ab3b
000000d0: c246 063a 3980 a4bc b7f6 51bc 9d13 d53c
000000e0: 098e a13c acfb 0a3d 5a7c ecbc 2bc5 f43c
000000f0: f3b9 ad3e 2a4a 353c 4c7c f4bc b9dc c63c
00000100: 47e7 7c3c 17af 96bc 71b9 f13c ae72 f93b
00000110: e42b 203d 4f1e 64bb a39f 1f3d 2497 af3d
00000120: 0e78 e63c e5d1 593d 7862 353d 3ee7 b83c
00000130: 2efc 3d3d 344c 163c 1f36 663d 0ddf 4dbc
00000140: 1a8a d13c 6d6f 893c fcf7 71bb ae9e 363b
00000150: 000b 073d bba2 4c3d 8899 993c 4ed4 fb3c
00000160: e49f 993c d4d8 c4bb c905 8b3b 1017 0cbd
00000170: 089d 1d3c 3f85 5abb a91f ed3b 94aa 593c
00000180: aa96 f93c 619a 63bc a767 1a3c 34ad 6bbc
00000190: 9815 b139 f8ea c13c 3d71 023d 73cb 593c
000001a0: db61 ed3c c67e 863d d325 5a3b c49e 013c
000001b0: 8cef 0fbc 2377 43bd c933 81bc 2fa2 3dbd
000001c0: e632 3dbc 3629 4ebb 7bee 113b 88ad 393d
000001d0: 99a4 c33c d801 eb3c 112a 82bc 7314 ad3c
000001e0: 7026 143f c908 b1bb 6810 f1bc e445 013c
000001f0: dfde aa3b 9be6 b8bb 383f af3c e3d3 db3b
00000200: 7365 133d abde 29bc 82da 0e3d 3808 093d
00000210: d7fc 583c 3c2e 383d de9f 1f3d 3d16 973c
00000220: e9cb ca3c da07 c4bb 5167 a63c 5f23 c3bb
00000230: 0ba6 8f3c 1521 853c 6e82 893c a0c8 6f3c
00000240: 933d 113d 7515 f53c e437 af3c 0c94 1f3c
00000250: b399 853c be2b 6cbc 4e00 9abb 13a4 8fbc
00000260: 2e97 8d3c 4d5a c13b e286 00bc b64e 1d3c
00000270: 3c71 a93c 24dd cbbc e1e4 733b 150f 7bbc
00000280: 46b9 febb b67a fa3c c725 a13c 8cef 813c
00000290: a0ec ad3c 02ff 423d bd4d 09ba 2f0b 403c
000002a0: f899 87bc 4815 03bd c2bd 79bc 3868 36bd
000002b0: 26e2 09bc 9123 843c abc9 a13c ed68 f43c
000002c0: f251 dd3c 8123 973c e631 5bbc db2a 4dba
000002d0: c8c6 483f fc17 82bc b981 8abc dbf3 37bb
000002e0: 5948 52bb 3485 04bb 9fbc fd3b d6a9 77bb
000002f0: b8a7 aa3c 66ad e0bb 6768 a93c d28a 003c
00000300: adf7 f63b 8a41 223d 5d13 263d fbbf 6b3c
00000310: 5c9c fd3b 4c0f 35ba 53b2 d1ba d2d8 1ebb
00000320: 6b04 6d3c ca5e 743c 2929 093d 8c62 f53c
00000330: d00d 0b3d 76e3 113c f233 f23c 4f0f e4bb
00000340: b2ed b93b 29c2 b6bc ec65 07bc 98bc 3fbb
00000350: 2e4c d53c 3976 ba3c af8c 97bc fa57 d23a
00000360: 540d 993c 1ff7 e0bc 14c8 bcbb 1cd7 36bc
00000370: b879 34bc 8b2a f43c f197 423c 524f 443c
00000380: d620 c93c ebbe fa3c ced3 06bc e893 783c
00000390: c9bd 4fbc eddf 60bc 5044 51bc 84af 11bd
000003a0: 854a d3bb 3311 193d 6c16 fc3c 63d4 933c
000003b0: 0c5e a73c 7f86 3b3c 2a15 b4bb ad55 55bc
000003c0: 36b2 7d3f 93cd b43b 65d2 953c ba10 8a38
000003d0: 2b7c 003b 1d6d 10b8 0362 f9bb 7546 8fbc
000003e0: 2e9c edbb 57b3 ccbb a243 a73a 6820 cb3b
000003f0: c501 8a3c e96c a53c ab17 033d 3f18 893c
0.027248044 -0.0126851145 -0.015679449 0.028197637 0.007283013 -0.01647467 0.023623243 0.019743314
0.0046484075 -0.017509269 0.014514819 0.09399349 0.033964556 0.063224986 0.035072036 0.023266118
0.012934988 0.022568341 0.052480765 -0.01890383 0.022727458 0.020551266 -0.023843281 0.01200916
0.015219469 0.044813428 0.00536545 0.017661812 0.016224522 0.026327625 -0.017277949 -0.011007292
0.0041949246 -0.00010833213 -0.0043149563 -0.0073708342 0.009517849 0.0087453695 -0.017523855 -0.00883283
0.011542128 -0.022043534 0.054572683 0.0075883465 0.035242334 0.042440973 0.013040732 0.016045604
0.036428183 -0.034903504 -0.022049554 0.005221062 0.0005122238 -0.020080673 -0.012815169 0.026010329
0.019721048 0.03393142 -0.02886789 0.029879173 0.3393093 0.011065045 -0.029844426 0.02427517
0.015436 -0.018394036 0.02950737 0.007612548 0.039104357 -0.0034808104 0.0389706 0.0857375
0.028133418 0.053178687 0.04428336 0.022571202 0.046383075 0.009173442 0.056203958 -0.0125653865
0.025578547 0.016776765 -0.0036921492 0.0027865577 0.032969475 0.04995988 0.018749967 0.030740883
0.018753 -0.0060072932 0.004242633 -0.03420168 0.009619959 -0.003334358 0.00723644 0.013285298
0.03046735 -0.013891787 0.009424127 -0.014384557 0.0003377616 0.023671612 0.031846274 0.013293135
0.028977325 0.06567149 0.0033286705 0.007911388 -0.00878514 -0.04772104 -0.015771763 -0.04629725
-0.01154778 -0.003145767 0.002226739 0.045331508 0.023882197 0.028687403 -0.0158892 0.021127915
0.5787115 -0.0054026586 -0.029426768 0.007890198 0.0052145566 -0.0056427247 0.02139245 0.0067086085
0.03598542 -0.01036803 0.034876354 0.033455104 0.0132438755 0.044965968 0.03897082 0.018443221
0.024755435 -0.0059823813 0.020312937 -0.0059551443 0.01753523 0.016251126 0.016785827 0.014635235
0.035459112 0.029917458 0.021388955 0.009739887 0.016308641 -0.014414726 -0.0046997434 -0.017534291
0.017284002 0.0059006573 -0.007844659 0.009601286 0.020683877 -0.024885722 0.003721528 -0.01532342
-0.007773551 0.030576091 0.019671334 0.015861295 0.021230996 0.047606476 -0.0005237719 0.011721416
-0.01655291 -0.032002717 -0.015242996 -0.044532984 -0.008415734 0.01613024 0.019749483 0.029835189
0.027016614 0.018449547 -0.013378596 -0.00078265154 0.78428316 -0.015880577 -0.01690756 -0.0028068933
-0.003208658 -0.0020220997 0.0077434327 -0.003779044 0.020831928 -0.006856608 0.020679666 0.007845597
0.0075368495 0.039613284 0.04054581 0.014389033 0.0077395868 -0.00069068815 -0.0015998579 -0.0024238122
0.014466385 0.014915178 0.03348652 0.029954217 0.03394872 0.008904329 0.029565785 -0.0069598327
0.0056740874 -0.02230938 -0.008264046 -0.0029256698 0.026037302 0.022761451 -0.0184997 0.0016047948
0.018683113 -0.027461587 -0.005761156 -0.0111596845 -0.011015348 0.029805442 0.011877046 0.011981802
0.02455179 0.030608615 -0.008229209 0.015171982 -0.012679526 -0.013725263 -0.012772635 -0.035567775
-0.0064480924 0.037369918 0.03077241 0.01804561 0.020430587 0.011445641 -0.005495687 -0.013020915
0.99100053 0.0055176704 0.0182888 6.583468e-05 0.001960526 -3.4433895e-05 -0.007610561 -0.017489651
-0.007251284 -0.006246965 0.0012761245 0.0061989315 0.016846547 0.020193534 0.032004993 0.016735194

m_transform.0.1.weight f4 [64, 1, 5, 5]
00000000: d5e2 fc3d 077e 9cbd 1d39 05bd 153c c93d
00000010: 2ba4 5ebe a486 143e a2cb 25bd c11f c13d
00000020: f36a bc3c 90c4 4bbd 995f b83d 4357 b13c
00000030: 13ee a83d d9f5 96bd 716b babc 4e34 90bb
00000040: 8509 c03c e704 2cbc 4184 1d3e 6856 213d
00000050: e841 89bd e35d 03be 5aef 11bd 28f9 d0bd
00000060: 4738 90bd e064 81bc 0251 1b3e 051e 0c3e
00000070: 6130 6cbe bd0a 453d ee50 debc 91d1 603e
00000080: 21ba 3a3e 4653 67be 9cb7 6abe 4489 31be
00000090: d93b 3e3e dc92 bd3c d955 5b3d 2eb0 10be
000000a0: 61d2 043e 2b1b c5bd 2b35 5e3e 52ef 863c
000000b0: ccc5 dbbd 8ff9 933d 1567 f7bd 0fc6 d33d
000000c0: 8d7b dabc 7dcb aabc 0aba 72be ea7e 40be
000000d0: 0446 9a3d 09ee 13bd ee98 463e 41fe f73d
000000e0: c4db 7bbd 01bc 09be 9912 183e 0ba1 c23d
000000f0: 34e6 02be 2f84 2e3e 4a8d 213e 1cc2 363e
00000100: fea4 fabd ba1c bbbb 14f3 323d c094 cc3a
00000110: 4438 62be 95e5 3dbe f5e8 1d3e d943 613c
00000120: 9cd8 833d 339d 673c 5fc5 ca3d 342a 553d
00000130: 3761 a43d d78c de3d 8de1 33be 1908 d53d
00000140: a7a2 0ebe c398 1cbe 214b 8f3b 2635 1bbd
00000150: b96e e73d 62f6 f4bd ff66 30be aac6 123e
00000160: 61f2 debc 6c5c ec3d 2c0d 883d 2279 0abe
00000170: c187 543d b145 5a3d d414 02be 901e aabd
00000180: 0a4e b83d 9b04 683d 09d1 9dbd 2150 3dbd
00000190: 7588 0b3e 58d1 5dbd d674 e73d 850c 9d3d
000001a0: 5586 24be 9125 64be e4ff 453e 04b2 863c
000001b0: 2a26 c63d c9da c0bc 1504 ccbb 036d 2b3e
000001c0: 6081 633e 0132 2cbe 0ef8 bdbc 1e4e f53d
000001d0: b810 3a3e 7cbf 343e a44f 1bbe 844f 2abe
000001e0: 06a8 f5bd 5f00 5b3d 275b 5c3e d698 20be
000001f0: 5303 3c3d f432 e0bd 50c4 57be bf10 53bd
00000200: 3a14 db3d b62b 173e 7301 f7bd 1269 1c3c
00000210: 59d9 393e d55d 183e 8859 c43d cff5 0e3e
00000220: c006 da3d 80e2 4f3d ad14 1bbe 8114 40be
00000230: 058a aebd d658 69bd ffad 0abe d164 5d3d
00000240: 3ad3 f03c 4a3d 40bd 081c 1d3d 0811 453d
00000250: cf0a f73d 8547 f23d c7b7 93bd e9e6 463e
00000260: 6c94 dbbc 5191 423c 0481 41be 7ca5 f0bd
00000270: 2440 cbbd 09c6 ccbd acfe 1e3e 0834 9abd
00000280: 9a35 13be 7769 963d 5294 4e3d f6a8 123e
00000290: e05b e6bd 3057 703d 401e 93bd 2231 20bd
000002a0: 6da8 10be ea9c bcbd 42d1 16bd dea8 c93d
000002b0: 0342 4d3d ac5e 863d 9159 523e e1e9 593e
000002c0: b467 013e eb65 163c 10b7 0bbe 547b 233e
000002d0: 5bc7 a1bc 23db 9cbc 4ebc 20be db9d 87bd
000002e0: e6b6 debd db14 7e3e 3777 10be 9dd7 fcbd
000002f0: 81ff 9ebc da66 9ebd e1ba d93d b923 49bd
00000300: 4dc8 83bd d7f0 a7bb 093d 033e dc8c 17be
00000310: 5fbe e13d 8939 343e 826c 353e 3806 27be
00000320: 32bd 3a3c f77c 2dbe e0f7 213e 0a5c 3dbd
00000330: dcc3 bc3d 3d90 2abc 97d3 4abd 0583 f0ba
00000340: 8cf8 933d 9741 c33d d940 fe3c 614d e63c
00000350: 10ab 20be 4273 333e 63c5 3d3e 6d9e 133e
00000360: 2aa1 d43d 3563 10be f3be 84bd d44e 3a3e
00000370: f397 16be fa73 183e 3b9f 06be b78f 06be
00000380: c6be da3d fc46 1bbe 9f6d 94bd 9a24 313e
00000390: 101a 2c3e e898 283e 9ed1 3ebd e7c5 34be
000003a0: 619c 713e 5cb5 b3bc 91ee 97bd 30d9 183d
000003b0: c6bd 26be a9ab 323e db0b 303e 45cb 04be
000003c0: 06be 27be 239a 2cbd 35a5 e33d 80e9 b93c
000003d0: 5d06 9bbd df53 b43a 2fea 3fbe 6437 e5bd
000003e0: 4194 f0bd 4b35 3c3e e62f 2d3e c955 56bd
000003f0: 7fab b1bb 66d3 a63d b6f6 de3c 0713 bebd
0.12347952 -0.07641225 -0.03252517 0.09825913 -0.21742313 0.14504486 -0.040477403 0.09429885
0.023000216 -0.049748003 0.09002609 0.021648055 0.08248534 -0.073711105 -0.02275631 -0.0044007665
0.02344204 -0.010499216 0.15382482 0.039389044 -0.06702024 -0.12828784 -0.035628654 -0.10203773
-0.07041984 -0.015795171 0.15167621 0.13683327 -0.2306533 0.048105944 -0.0271382 0.21954943
0.18235065 -0.2259036 -0.22921604 -0.17337519 0.18577518 0.023141317 0.053548668 -0.14129707
0.12970878 -0.096243225 0.2169997 0.016471539 -0.10731086 0.07225334 -0.12080208 0.10340511
-0.026670242 -0.020848984 -0.23703781 -0.18798414 0.07532886 -0.03611568 0.19394276 0.12109042
-0.06148888 -0.13450624 0.14850844 0.09503373 -0.12783128 0.17042612 0.15776554 0.17847484
-0.12238501 -0.0057102116 0.04368885 0.0015608296 -0.22091776 -0.1854461 0.15420897 0.013749086
0.06437799 0.0141366 0.09900927 0.0520422 0.08026355 0.10866707 -0.1756651 0.10401935
-0.13929234 -0.15292649 0.0043729697 -0.037892483 0.113004155 -0.11961056 -0.1722679 0.14333597
-0.027215185 0.115410656 0.06643137 -0.13522771 0.051887278 0.05328912 -0.12703258 -0.083066106
0.0899926 0.056645017 -0.07705886 -0.046218995 0.13626273 -0.054154724 0.113015816 0.076684035
-0.16066869 -0.22279955 0.19335896 0.016442306 0.09675248 -0.023541825 -0.0062260726 0.16740803
0.22217321 -0.1681595 -0.02318957 0.1197779 0.1817044 0.1765117 -0.15167099 -0.16631895
-0.119949386 0.05346715 0.21519147 -0.15683302 0.045901608 -0.109472185 -0.21070981 -0.051529642
0.10697217 0.14762768 -0.12060823 0.009546535 0.18149318 0.14879544 0.09587389 0.13960956
0.10645819 0.050753117 -0.15144606 -0.18757822 -0.08522419 -0.056969486 -0.13542937 0.054051224
0.029397596 -0.04693345 0.03835681 0.048111945 0.120626085 0.118300475 -0.07212787 0.19424023
-0.026804172 0.011875466 -0.18896872 -0.11750314 -0.09924343 -0.0999871 0.15526837 -0.075294554
-0.14375916 0.073443346 0.050434418 0.14322266 -0.112479925 0.0586769 -0.07183504 -0.039109357
-0.1412675 -0.092096165 -0.036820658 0.09846662 0.05011178 0.06561026 0.2054198 0.21280624
0.12637216 0.009179573 -0.13644052 0.15965015 -0.01974838 -0.019147461 -0.15696833 -0.066219054
-0.10874729 0.24812643 -0.14107977 -0.123458125 -0.019408943 -0.07734461 0.106313474 -0.049106333
-0.06434689 -0.005125146 0.12816252 -0.14799827 0.110226385 0.17600073 0.17717174 -0.16310966
0.011397647 -0.16942202 0.15817213 -0.046230353 0.09217045 -0.010410366 -0.049518194 -0.0018349594
0.07225141 0.09533995 0.031036781 0.028113069 -0.15690255 0.17524436 0.18532328 0.14415903
0.10382302 -0.14100344 -0.06481733 0.18194133 -0.14706402 0.14887992 -0.13146679 -0.1314076
0.106809184 -0.15163797 -0.07247471 0.17299119 0.16806817 0.16464579 -0.046586625 -0.17653619
0.2359481 -0.021937065 -0.0741855 0.0373165 -0.1628333 0.17448296 0.17192023 -0.12968166
-0.16381082 -0.042139184 0.11115495 0.02269435 -0.07569573 0.0013757906 -0.18741678 -0.111922055
-0.11747027 0.18379705 0.16912803 -0.052327905 -0.0054220553 0.0814579 0.02721725 -0.09280973

m_transform.0.1.bias f4 [64]
00000000: 8971 f1bc 1f86 123d d7e2 78bd e2ee 183e
00000010: 6a1b 1c3e 3b85 cbbd dac0 1a3e a93f 633e
00000020: d780 45be 056b 0b3d 67f0 0a3e 17b8 1cbe
00000030: 48b4 24bc cb16 ffbd 596a ce3d 0cfc 27bc
00000040: 127f 6e3d 2ead 153d 8255 78bc e8bd 84be
00000050: 426d f03c 8489 8f3c 0635 c43d 2d72 0f3d
00000060: 0abf 10be 4d52 b6bd ce38 e13d 19e7 0c3d
00000070: ea4e ba3d 20be c83d ab9c cc3d 6808 2bbe
00000080: e630 ddbb 1d23 91bc b924 5abe fa63 d63c
00000090: 29a5 f13a 39ed 0d3e 0b68 52be 4a5d 3c3e
000000a0: c165 b7bd 2deb 863d 7953 623e ee62 0bbc
000000b0: 67a2 fbbd 64a4 adbc 69a8 ccbd 85e5 613d
000000c0: 4fe0 b73d ea09 0a3e 956b 26be 6ad1 f83d
000000d0: ba07 0b3e bcfe bcbd 1d96 fd3d 2743 163d
000000e0: d59b cb3d 5478 fabd 23cc 0cbe 0583 31bd
000000f0: b012 70be 5d96 763d 9c0a 153e 0eab 17bd
-0.029473083 0.03577244 -0.060763206 0.14934877 0.15244833 -0.09937521 0.1511263 0.22192253
-0.1928743 0.03403761 0.13568269 -0.153046 -0.010052748 -0.12455519 0.10078878 -0.010252964
0.058226652 0.03654211 -0.015157105 -0.25926137 0.029348973 0.017521627 0.09580426 0.035020996
-0.14135376 -0.089024164 0.10997163 0.03440008 0.09097083 0.098018885 0.099908195 -0.16702425
-0.006750214 -0.017716939 -0.21303071 0.02617072 0.0018436062 0.13860025 -0.20547502 0.18394962
-0.08954955 0.06587825 0.22102155 -0.008507473 -0.12286835 -0.021196552 -0.09993059 0.055150528
0.0897833 0.13480344 -0.16251977 0.121493176 0.13577166 -0.09228274 0.123821475 0.036685135
0.09941832 -0.12229982 -0.13749747 -0.04333784 -0.23444629 0.06020199 0.14554828 -0.037028365

m_transform.0.4.weight f4 [64, 32, 1, 1]
00000000: 618e 15bc b65d 553c 0020 c2bd 95a8 b8bc
00000010: c280 0e3d 7d38 f93d a32b 2bbe 3a13 7cbc
00000020: 6e19 1fbe 2389 f5bc 3f19 babc 79d9 b5bd
00000030: dcf9 b43d 9c72 d53d 9185 afbd fab0 2abd
00000040: a571 8fbd 769b 51bb 389b 413d da97 183e
00000050: 5c18 3cbe 2faa 573d 2dc4 febd 64fa 24be
00000060: fe56 f83d bcca 8ebd 1d71 f7bd 4509 163d
00000070: d28b 4bbd d490 38be 2593 e2bd 9136 b5bd
00000080: fabb 35bc 2392 03be 5aac 31be d23c cb3d
00000090: 206f 30be 590f 9f3c 293c 283e e636 c1bc
000000a0: 9cbc 15be 8271 aa3d de1e 073e f701 403d
000000b0: c04b 3f3c 35fc 863d 47e2 2b3c 67c3 393d
000000c0: 2a6f 8b3d dab0 f13d cc23 f0bd 54b8 2abd
000000d0: 0bf5 f13d cf6f fcbb 6234 e03c 8237 4e3e
000000e0: 0f8e 963d 64e2 d83d 434c 363e 42ee 30be
000000f0: 50ff 033e 6a45 a43c ff53 23bd cc4d eebd
00000100: 8e7c 083d 08d8 09be a7e6 72bd 036c 163e
00000110: d73b a3bd 9e6b 8bbd 99ee 223d 7337 77bd
00000120: 8d18 693d fbb1 35be f5f9 163e 8944 58be
00000130: 966b 02bc 70ff 12be 2342 11be 47ac e63d
00000140: 5e59 20be 1b46 a5bb 5759 d2bc a932 223e
00000150: f06b 9b3d f7d3 e43d dabc 3bbd 49d5 fabc
00000160: 27e8 003e 0c70 ce3d a5db 493d a012 d2bd
00000170: abb9 38be 6034 9b3c 934e 03be 2b87 0c3e
00000180: e6e0 193e 9c68 b2bd 1a0e 06be 443a 113e
00000190: 62b8 b8bd c0e1 1abe 4c2f 07be 80a6 55bb
000001a0: d992 5d3c b8b8 e53d 5ca4 f83d 3fba d43c
000001b0: 4ba8 ce3c 4f37 023e 8b2a cebd 4441 f5bc
000001c0: cdbe 083e 7c84 a2bd b57d e53d 1dc0 a33d
000001d0: 8e93 413d a790 64bd 48ab 35be df83 d73d
000001e0: 6b32 063e 3469 2fbe 85ea adbd 5d34 123c
000001f0: febe 653d b98d 20bd e038 06be 082d 053e
00000200: 4782 dfbd f058 4c3e 2416 b5bc bb83 793d
00000210: b2a7 ad3c 7ba4 723d 758a 263e 95a7 05bd
00000220: a7d8 b63d a0a5 4a3d 9432 07be 42fe 1e3e
00000230: be32 bbbd 3bcf 8f3d f22a 3fbd 0614 223d
00000240: 0629 41bd 6bd8 953c 9e2c b8bc 2020 293d
00000250: edc6 c03d 3461 3fbe 4d24 063e 5ce4 11be
00000260: c697 d8bd 6653 673d d305 143e 824c ff3c
00000270: 55da d6bd 03f2 4b3d 6036 bebd bf54 9a3d
00000280: 4ccb 043d ebc3 173d 77b2 dbbd 5e3f db3d
00000290: 30a8 273e 6bfe 0dbe 49e7 a03d 6ff8 b1bd
000002a0: 6fe4 93bc 4434 193e 742c 0dbe 294f 9bbd
000002b0: 6fed 7e3d fc7e b93d 1695 44bd 25b9 c0bd
000002c0: ce61 843d ebf3 12be 050c fb3c 67cf 8bbd
000002d0: bf7c c4bb b541 443e ef8c 0fbe 00eb b6bd
000002e0: 3e22 eebd 7de4 0c3e aab5 2e3e 3b9a 90bd
000002f0: 3e3e cc3d dd0f fa3d a9dc 24be ebe3 9a3d
00000300: 5ef6 b83d c1e6 1fbd 52fe ed3d 01f6 acbc
00000310: ef7d eb3c 812f c13d d3c4 37be 4e73 3fbe
00000320: 2e9f 733c ccad 44bb 58a5 a83b 55f8 01be
00000330: 332c 283e d8b3 febd 99e7 bcbd feaf 04be
00000340: 0f3d 47be 51f5 b93a c0bb 66bd b595 0d3e
00000350: d659 223e 2417 313d 691e 0e3e 079a 0bbe
00000360: 9830 9d3d 6fae ef3d 1abd bcbd 8558 aabc
00000370: 9e4d e8bd e38b 9c3c 7c0a 45be 0099 ccbd
00000380: 369a 0dbe d140 5dbd 8f61 353c 56c2 14be
00000390: e19a 6bbd e686 b63d dcad 9dbc cb13 22bc
000003a0: e437 e3bd 3571 96bd 9ef6 36be de03 fc3d
000003b0: e6f9 b7bc 2d3e 8f3d 8f2e b13d f57b 1f3e
000003c0: 9278 05be c8d3 cd3c 429f 39be 96ea 8d3d
000003d0: a6b6 d5bd 4409 5e3d e745 1dbe f194 b73d
000003e0: 5950 d83d 9f7c 9e3d 151b 27be 0842 df3d
000003f0: b7b7 e5bd 6b64 42be 8620 aa3d 7bfb 193c
-0.009128184 0.013022831 -0.0947876 -0.022541324 0.03479076 0.121689774 -0.16715865 -0.015385443
-0.15537044 -0.029972618 -0.022717116 -0.0887937 0.088367194 0.10422251 -0.08570398 -0.041672684
-0.07004098 -0.003198353 0.04726717 0.14901677 -0.18368667 0.052652534 -0.12439761 -0.16111141
0.121259674 -0.06972262 -0.120821215 0.036629934 -0.04969389 -0.18023998 -0.11063222 -0.08848298
-0.01109218 -0.12848715 -0.17350903 0.0992371 -0.17229891 0.019416498 0.164292 -0.023585748
-0.1462273 0.08322431 0.13195369 0.046876874 0.011675775 0.065910734 0.01049096 0.045352366
0.06808312 0.1180131 -0.11725578 -0.041679695 0.11814316 -0.0077037583 0.027368728 0.20138362
0.07351314 0.105900556 0.17802529 -0.17278388 0.12890363 0.02005263 -0.039875027 -0.11635932
0.03332191 -0.13461316 -0.059302 0.1468964 -0.07970398 -0.06807636 0.039778326 -0.060355615
0.05690818 -0.17743675 0.14743789 -0.21119894 -0.007960221 -0.14355254 -0.14185385 0.11263328
-0.15659091 -0.0050437576 -0.025677366 0.15839638 0.07588947 0.111732416 -0.0458344 -0.03061928
0.12588559 0.10079965 0.049281735 -0.10257459 -0.18039577 0.018945873 -0.12822942 0.13723437
0.15027198 -0.08711359 -0.13091317 0.14182383 -0.09019543 -0.1512518 -0.13201636 -0.0032600462
0.013523781 0.11216873 0.12140724 0.025967715 0.025226733 0.12716411 -0.10066708 -0.029938348
0.13354035 -0.07935426 0.11205617 0.07995627 0.04725986 -0.055802014 -0.1774112 0.10523199
0.1310517 -0.17129976 -0.08491997 0.008923617 0.056090347 -0.039197657 -0.13107634 0.1300546
-0.1091352 0.19955802 -0.022105284 0.060916644 0.021198127 0.059238892 0.16263755 -0.03263052
0.08928042 0.04947436 -0.13202888 0.15526679 -0.09140538 0.07021948 -0.046671815 0.039569877
-0.047158264 0.018291673 -0.022482213 0.041290402 0.09412942 -0.18689424 0.13099785 -0.14247268
-0.105758235 0.05647602 0.14455347 0.031164411 -0.10490862 0.049791347 -0.09287715 0.07535695
0.03242044 0.037052076 -0.10727399 0.10705446 0.16372752 -0.13866584 0.07856614 -0.08689963
-0.018053262 0.14961344 -0.13786489 -0.07583458 0.062238153 0.090574235 -0.047993742 -0.094103135
0.06463967 -0.1435086 0.03064538 -0.06826668 -0.005996316 0.1916569 -0.14018606 -0.089315414
-0.11627625 0.13759036 0.17061487 -0.07060667 0.09972809 0.12210057 -0.160998 0.07563003
0.09031366 -0.039038423 0.116207734 -0.021113398 0.028746573 0.09432889 -0.17946176 -0.18696329
0.014869494 -0.0030010818 0.0051466636 -0.12692387 0.1642311 -0.12436646 -0.09223861 -0.1295776
-0.19456886 0.001418749 -0.056331396 0.1382664 0.15854582 0.04323496 0.13878788 -0.13632976
0.07675284 0.117031924 -0.09215756 -0.020794163 -0.11342929 0.019109672 -0.1924228 -0.0999012
-0.13828358 -0.054016892 0.011070623 -0.14527258 -0.05752075 0.089124486 -0.019247942 -0.009892414
-0.11094645 -0.07345811 -0.17867514 0.12305425 -0.022458028 0.06994281 0.086514585 0.1557463
-0.13034275 0.0251254 -0.18127158 0.06929509 -0.10435228 0.054208055 -0.15358697 0.08963955
0.105622 0.07738613 -0.16318925 0.10901266 -0.112166815 -0.18983619 0.083069846 0.0093983365

m_transform.0.4.bias f4 [64]
00000000: dd09 b93c 24da 293e 5724 f63d 02b0 5cbe
00000010: 358c cdbd 0e53 953d 750a 41bd 870c b1bd
00000020: d66f 7dbc 5128 10be a8fd 253c 6313 443d
00000030: 9a89 32bd fe30 ecbd 33a8 e2bd 9dfa 2b3e
00000040: 178a 2d3e 5a18 a9bd 894d eebd cca1 1dbd
00000050: 4fb1 8ebd ebd6 58be 84bb 11be 07fd 433e
00000060: 4b74 4bbd 7606 e33d 31dc 643d 2d2e 18bd
00000070: 571f a6bd 5f81 a23d 197e 58bd f28a e3bd
00000080: 3342 b53d 7a48 d1bd e5cc 643d b6c9 dd3d
00000090: bb16 25be 456e b5bd 073a dd3b 4ca8 1b3d
000000a0: b0ac 91ba 0b83 64bc 3601 74bd 68e7 21bd
000000b0: 7eac cc3d 49ca 8ebd 1daa 8ebd 9c0c 103e
000000c0: f370 163e edcd 013e e9ff 163e 26a4 ebbd
000000d0: d5f4 a4bd c843 b9bd 5825 82bd f7c9 563d
000000e0: 5eb3 2e3e ac42 14be 1e9b 0b3e fee1 3cbd
000000f0: 9e61 213e 3faa a23d 4ef9 d2bd c0c5 e13d
0.022587711 0.1658712 0.1201865 -0.21551517 -0.10036508 0.07291232 -0.047129113 -0.086449675
-0.015468558 -0.1407788 0.010131277 0.04787005 -0.04358826 -0.11532782 -0.11067238 0.1679482
0.16947208 -0.08256598 -0.116358824 -0.03848438 -0.06967413 -0.21175735 -0.14231688 0.19139491
-0.049671452 0.11085217 0.055874053 -0.03715341 -0.08111446 0.07934832 -0.05285463 -0.11110486
0.08850517 -0.10218902 0.055859465 0.10829489 -0.16121952 -0.08858923 0.006751302 0.038002297
-0.0011114087 -0.013947259 -0.059571467 -0.039527327 0.09993838 -0.069721766 -0.0696604 0.1406731
0.14691524 0.1267621 0.1474606 -0.11505918 -0.080545105 -0.09046131 -0.06354779 0.052438702
0.1706061 -0.14478558 0.13633391 -0.04611396 0.15759894 0.07942628 -0.10301457 0.11024046

m_transform.0.6.running_mean f4 [32]
00000000: 6e0a 913f 1030 883f beab 83be 4155 303e
00000010: 6bd0 4d3f 0865 653f 4d1c 9a3d c4b3 5e3e
00000020: a083 b1bf fe78 893f f734 9c3e 9791 373f
00000030: 5f76 f23d d9f9 8dbe b7a8 893e 612b f33e
00000040: 337a d0bd 0161 4e3e eeba 183e 4bff 373e
00000050: 5089 be3b 3008 383f a059 b4ba 8493 563f
00000060: a213 cabe acee c0bd 2a63 adbe 14ae 9c3d
00000070: ef3a 113f 492e 503f 23f4 823e 3a0a cb3f
1.1331308 1.0639668 -0.25716966 0.17220022 0.80396146 0.89607286 0.07524929 0.21748263
-1.3868294 1.0740049 0.3050916 0.7170653 0.11838984 -0.2772968 0.26886532 0.47494033
-0.10179558 0.20154192 0.14915058 0.1796848 0.005814709 0.71887493 -0.001375962 0.8381884
-0.39468104 -0.09420523 -0.3386472 0.0765039 0.5673055 0.81320626 0.25576887 1.5862496

m_transform.0.6.running_var f4 [32]
00000000: 5279 d03e e085 923e e74c 4c3e f993 e33d
00000010: 06e1 423e 499c 453f 32d6 123e 0675 1a3e
00000020: d489 623e df6a 9d3f 27d5 e13d b42c af3d
00000030: fc23 df3e a23c 833d 29c9 993d 797d 693e
00000040: ea17 8f3d b4cb 663d 497a f53d ed88 653d
00000050: 33be 8b3d b116 983e a56f e63d 2bf0 043e
00000060: 252e bb3d d72f a63d de60 cb3d c33a 533e
00000070: a5ef 113f 5bb2 263e 8e4c df3d 25da ba3e
0.4071756 0.28617764 0.19951211 0.11112208 0.19031152 0.771916 0.14339522 0.15083703
0.2212289 1.229824 0.11026984 0.08553448 0.4358214 0.06408049 0.075090714 0.2280177
0.06986983 0.05634661 0.11986215 0.056038786 0.06823387 0.29704812 0.11251763 0.12982242
0.09139661 0.081145935 0.09930585 0.20627885 0.57006294 0.16278975 0.109032735 0.36494556

m_transform.0.7.weight f4 [96, 32, 3, 3]
00000000: d56f 5fbd a365 9c3b 58d3 0ebd c004 4fba
00000010: 67a2 4b3d 9855 79bc cc96 f5bc e4a3 e83c
00000020: f622 513d eeda 2d3d 8a29 7ebd ca49 c83c
00000030: 1cd4 32bd 979b e2bc 2229 24bd 19dc 81bd
00000040: c24d 0b3d c613 7ebd 5dad 64bc ff7b 9dbc
00000050: 9dd7 b33c 712d 343c 7958 ac3b 688e b33c
00000060: 8e83 38bc a7ee e6bc 6db3 333d 8c71 283c
00000070: a3a5 5cbd cd91 0fbd 183d babc cf3b 27bd
00000080: 3e0c 94bc 640a 153d c9f1 3bbd 47d4 913d
00000090: 4f05 143d ef0f 2bbd 249e 273d f537 71bd
000000a0: 2ff7 6fba 2dc5 6cbd 6e88 c1bc 09a6 803d
000000b0: 2b56 3d3c 8464 b6bc f443 bebc 0a6a 813b
000000c0: e8c5 81bd 7c6d 89bc 7746 9fbd b1b2 c8bb
000000d0: 8165 763d 9536 52bc 832e 1bbd 20df 8dbd
000000e0: 9c05 b8bb 9be4 123b 5476 8abd 2004 f3ba
000000f0: f708 813d 86ff b8bd bde9 0b3d ee6b 9cbc
00000100: 0ec5 d7bc 0eeb 04bc 11ad 3d3d d875 a9bd
00000110: b497 a6bc 6094 1abd 0184 14bd 2418 5ebc
00000120: 708b 0c3d 2a7c ccbc 87d3 e6bb 3771 24bd
00000130: c462 bfbc 1308 84bd cbc7 3abc 4a83 ba3c
00000140: ce61 70bd 26d3 cfbc e918 1d3b 9de5 65bc
00000150: b0cb aa3c c031 18bd 9d3b 133d 2aaa 60bd
00000160: d9b8 7bbd 85b8 1bbd 4e0c 663c d6f9 193c
00000170: 8461 17bd 79a3 81bc e77c 94bc 12be 9fbb
00000180: 6d8c 123d 7bb6 8abc 3444 dcbc 96b8 c2bb
00000190: 282f 913d 2576 1d3a 0bbe acbd 0704 f93d
000001a0: 2551 8f3a e1dd 5f3a 62f9 913d bb21 73bc
000001b0: 812f 5fbc 2ff5 543c bf8c 813d 5ce0 ebbc
000001c0: 1514 10bd d3a4 6b3c 6e88 193d 7320 95bc
000001d0: fa8b 30bd 3b97 22bc 3730 67bd 0941 cc3b
000001e0: d337 843c 6b72 f5bc 7ccb a73c 0ef5 983d
000001f0: 79f2 cb3c 5009 1e3d d2b2 683c e85b d53c
00000200: 84a3 8e3c d99b bebc ace0 6d3a 744f cfbc
00000210: 0de6 7ebc 3e61 41ba 036b 533d 3a6a 443d
00000220: f75b b6bd 6947 11bc 2647 393d d296 443c
00000230: 5a95 16bd a2ba 80bd 8890 8dbb 66f2 a3bc
00000240: c285 113d 3e74 52bd 2e82 d43a a6c9 7cbd
00000250: 0422 52bd 3429 6bbd 4724 8eba 7595 c2bc
00000260: 311c f3bc 6f20 c63d 7bd0 013c 752a 923d
00000270: bd52 1d3b f962 823b 548f 07bd 1762 de3c
00000280: 45c5 663d bb76 51bd 819f 5ebd f5ee 6a3d
00000290: 9b3c c1bb 86aa 93bd 27f9 b2b7 df6a b83c
000002a0: b767 97bc 9923 debc a02c 123d 6d52 233d
000002b0: 5850 d4bb 8394 b93c 05a6 88bc 3404 723d
000002c0: 5015 a3bd da43 e6bc 2174 8b3d ae0e 60bd
000002d0: c0a3 23bd 8465 a93d f6e6 503d 2c32 7bbd
000002e0: 3c07 873c 684a ad3d c5d1 5d3c 1c7c 533d
000002f0: 1afb a3bc 1848 7138 432b 17bc 44a9 78bd
00000300: 235f 44bd 5a47 f4bb f505 5fb9 a12b 8bbd
00000310: ed74 a2bd 31ed 03bd 8a7c c33b 222f 3d3d
00000320: 98ab 64bd 9159 f23c 17d6 2e3d 9ffa b2ba
00000330: c8f5 49bd 2715 4ebc 4e01 5dbc 10a0 afbd
00000340: 0baa 523c 511e 08bd fccf cc3c ad05 33bd
00000350: 43db e33c 64fa 613d a457 f13c 4480 2ebc
00000360: 6b79 433c 0065 11bd 50aa 95bd 4f40 b43c
00000370: 4512 1a3c df61 913c 479d f6bc e889 6dbd
00000380: 5700 1b3d ceee 64bd 8191 b7bc b466 87bc
00000390: 354d 053d c15a 203c b550 1ebd 8ad6 86bd
000003a0: 5deb 803d fbda 8dbd 186f 813c a86c b1bc
000003b0: 92fb 0ebd 76cb a63d 7fd0 73bd c2dc 37bd
000003c0: 1128 32bd a2fe babd 07e0 c0bd 76cc 72bd
000003d0: da6b c8bd 2bda 603b 4c9f af3c 6dd2 cdbd
000003e0: 5cd0 9bbc c603 a33c 8d28 84bd 3c56 953c
000003f0: 286a 95bd 28ae debc 5c83 1b3d c8b4 16bb
-0.05455001 0.004772858 -0.03486952 -0.0007897131 0.049715426 -0.015218161 -0.029979132 0.028398462
0.051058732 0.042445116 -0.062051333 0.024449248 -0.043659315 -0.027662082 -0.04007829 -0.063408084
0.034009703 -0.062030576 -0.013957349 -0.019224165 0.021953398 0.010997162 0.00525957 0.02191849
-0.011261834 -0.02818997 0.043872286 0.010280978 -0.0538689 -0.035051156 -0.02273421 -0.040828522
-0.018072244 0.036386862 -0.04588488 0.07120567 0.036137875 -0.041763242 0.0409223 -0.058891255
-0.00091539597 -0.05780523 -0.023624625 0.06281669 0.011556189 -0.022264726 -0.023225762 0.0039494084
-0.06336576 -0.016775839 -0.07777112 -0.0061248173 0.060155395 -0.012830396 -0.037886154 -0.06927323
-0.005615903 0.0022414092 -0.067608505 -0.0018540658 0.06300538 -0.09033112 0.034158457 -0.019094434
-0.02633908 -0.008112682 0.046307627 -0.0827443 -0.02033601 -0.037739158 -0.0362587 -0.01355556
0.034312665 -0.02496155 -0.007044259 -0.040147033 -0.023362525 -0.064468525 -0.011400173 0.022767682
-0.058687024 -0.025369238 0.0023971146 -0.014031795 0.020849079 -0.03715682 0.035945524 -0.05484978
-0.06145558 -0.03801777 0.01404102 0.009397944 -0.036958233 -0.01582502 -0.018125964 -0.004874953
0.03577845 -0.016932717 -0.02688799 -0.0059424145 0.070890725 0.00060066796 -0.08434685 0.12158971
0.0010934217 0.00085398374 0.07127644 -0.014839585 -0.013622166 0.012997909 0.06325673 -0.028793506
-0.0351754 0.014382559 0.037483625 -0.01820395 -0.043102242 -0.0099237515 -0.056442466 0.0062333387
0.0161399 -0.029961785 0.020482771 0.074686155 0.024895893 0.0385831 0.01420279 0.0260448
0.017411955 -0.023267673 0.0009074311 -0.02530644 -0.015557778 -0.0007376856 0.051615726 0.047952868
-0.0890426 -0.008867123 0.045233868 0.011998849 -0.036763526 -0.062855974 -0.004320208 -0.020013046
0.035527952 -0.05138039 0.0016213113 -0.061715744 -0.05130197 -0.05741234 -0.0010844552 -0.023752907
-0.029676529 0.09674155 0.007923241 0.07137004 0.0024005615 0.0039790836 -0.033095673 0.027146382
0.056340475 -0.05113862 -0.054351334 0.057356793 -0.0058971173 -0.07210259 -2.1335274e-05 0.022511898
-0.018482072 -0.027116584 0.03568709 0.03987353 -0.0064793043 0.022653824 -0.016680727 0.05908604
-0.079630494 -0.028108526 0.06809259 -0.0547015 -0.039951086 0.08271316 0.05100151 -0.061327145
0.016482942 0.084614575 0.0135387825 0.05163203 -0.020017195 5.752602e-05 -0.009226623 -0.0607083
-0.047942292 -0.007454795 -0.00021269156 -0.06795431 -0.07932458 -0.032208625 0.005965774 0.046187527
-0.055827707 0.029583724 0.04268464 -0.0013655013 -0.04930666 -0.012578285 -0.013489081 -0.085754514
0.012857924 -0.033232037 0.025001518 -0.043706585 0.027814513 0.05517043 0.029460736 -0.010650698
0.011930804 -0.03549671 -0.07307875 0.022003321 0.00940377 0.017746864 -0.030104293 -0.057992846
0.03784212 -0.055891804 -0.022408249 -0.016528465 0.032544333 0.009787262 -0.038651187 -0.06583889
0.06294892 -0.06926533 0.015800044 -0.021658257 -0.034907885 0.08144276 -0.05952501 -0.044888265
-0.04349524 -0.091305986 -0.0941773 -0.05927702 -0.09786196 0.0034309726 0.021438263 -0.10049901
-0.019020252 0.01989926 -0.06453047 0.018229596 -0.07295638 -0.027182654 0.03796707 -0.0022995938

m_transform.0.7.bias f4 [96]
00000000: 3e08 7b3d 4800 233d acde e3bc 31b1 e0bb
00000010: fe55 36bd e025 d83c deb9 183d 2092 15bb
00000020: 2e87 bdbc 5f8f 28bd 8e39 40bc 140b d5bd
00000030: 1251 823d 2b12 883b dc90 233d a141 51bd
00000040: fe08 9a3c fb78 3fbd 4f6b d83c 5180 ff3b
00000050: caec a0bc 5c19 3f3d 3d6e c83c fbed 633d
00000060: 4708 603d 6d88 893b 0905 943b 906e 6bbc
00000070: 58c5 45bd d1d2 5dbd 5af2 163c c043 a33b
00000080: 68fc 2d3d 62d7 f03c 90be 8dbb f5bc 0b3d
00000090: e2da 743c 43e8 46bc 40fa 73bc 820f e6bb
000000a0: c344 9d3c 830a 4fbd 91d9 d8bc 1b88 303b
000000b0: b021 ae3c bdb6 a6bc 2f3e 71bd 6b73 f7bc
000000c0: e9cc 00bd 7f96 403d dbda 0b3d 2863 843c
000000d0: 1550 ae3b 27b9 8ebc 9b6b a3bc aafd 2a3d
000000e0: e916 d33c a5a3 073d 609e 00bd 4b4c e93d
000000f0: 6da7 a23c a280 8bbc 2215 4d3d ec6d 25bc
00000100: afa3 043d f604 633c 70dd 5bbd 9f7f 0abd
00000110: 7620 89bd b076 80bd 26f6 d23c 9377 dc3c
00000120: ed16 65bd e357 a8bc 59f6 ed3c 71df 7fbc
00000130: e796 033d b0a0 1e3c 0a48 9dbd 63d0 66bb
00000140: d34b 61bd 7390 86bb 5c1c 3c3d 71e4 45bd
00000150: 9248 f6bc 873a c63c 4edb 25bd d4b0 00bd
00000160: c6e3 863d 29e0 e03c 438e 52bd 4f57 32bd
00000170: d21a 4fbd 512d 233d 0330 7c3c 1acf 7a3d
0.061287157 0.03979519 -0.02781614 -0.0068570604 -0.044515602 0.026385248 0.03728663 -0.0022822693
-0.023135748 -0.041152354 -0.011732472 -0.104025036 0.06363119 0.0041525564 0.03993307 -0.05108798
0.018803116 -0.046746235 0.026418356 0.007797279 -0.01964416 0.046655044 0.024466628 0.055646878
0.054695394 0.0041971714 0.004517202 -0.014369622 -0.048283905 -0.05415613 0.009213055 0.0049824417
0.04247704 0.029399578 -0.0043256953 0.03411575 0.014944764 -0.012140336 -0.014891207 -0.0070208916
0.019197827 -0.050547134 -0.026470931 0.0026936594 0.021256298 -0.020350808 -0.058897194 -0.030206403
-0.031445418 0.047018524 0.034144264 0.016160563 0.005319605 -0.017422272 -0.019948771 0.04174582
0.02576776 0.033115048 -0.03140104 0.11391505 0.019855225 -0.01702911 0.050068982 -0.010097008
0.032382663 0.013856163 -0.053677976 -0.033813115 -0.066956446 -0.06272638 0.025752138 0.026912486
-0.055930067 -0.02054972 0.029048132 -0.015617237 0.032126334 0.009681866 -0.07679756 -0.0035219423
-0.055003952 -0.004106575 0.045925483 -0.04831356 -0.030063901 0.02419783 -0.04049235 -0.031418636
0.06586413 0.027450638 -0.051405203 -0.043540295 -0.050562687 0.03983814 0.015392306 0.061232664

m_transform.0.10.running_mean f4 [48]
00000000: 0a9e 8f3f 69d1 d03f 4637 dd3f 5f3b a03f
00000010: 4e0c 6d3f b4fa 733f 55af 863f f673 983f
00000020: 9266 763f 6817 a53f 51fe ce3f 939b 6f3f
00000030: 4482 a33f 71ed c03f 92b0 eb3f 2e22 683f
00000040: 7325 c73f 81ef be3f f134 c83f 4fcc c43f
00000050: 110f a03f 185d 873f 3f4e 9c3f a8e9 c73f
00000060: 7861 9e3f d2f3 913f 65a1 bd3f 1d8a 943f
00000070: 065a 0940 eea5 c43f b35d bc3f 63f0 e23f
00000080: 57f5 9c3f 5ac5 bb3f be70 713f 256c 9a3f
00000090: 7416 a73f fe35 0d40 c33d 9e3f 28a9 913f
000000a0: ae04 873f ea41 c73f 367c ad3f 5aef cb3f
000000b0: 1017 0740 92b9 853f ad4f d73f ef46 cb3f
1.1220105 1.6313907 1.7282493 1.2518119 0.925969 0.9530442 1.0522257 1.1910388
0.9625026 1.2897768 1.6171361 0.9359676 1.2774129 1.5072461 1.841326 0.90677154
1.5558304 1.4916841 1.5641156 1.537485 1.2504598 1.0575285 1.2211379 1.5618181
1.2373495 1.1402533 1.4814879 1.1604649 2.1461196 1.5363138 1.4716095 1.772961
1.2262372 1.4669602 0.94312656 1.2064253 1.3053727 2.2064204 1.2362598 1.1379747
1.0548303 1.556699 1.3553531 1.5932419 2.1107826 1.0447257 1.682119 1.5881022

m_transform.0.10.running_var f4 [48]
00000000: 9574 b63f 5cac 473f e824 543f a02a 353f
00000010: 2d13 983f c378 a93f a978 193f cb35 143f
00000020: c5e1 953f fe80 ce3f d38a 273f f722 963f
00000030: 49b0 863f 5c01 143f c06d 8a3f 93b2 5b3f
00000040: 494f 473f 5aa4 883f 518f 4b3f a53b 333f
00000050: f407 8a3f c10a 783f b23c f63e 08b0 1b3f
00000060: c2e0 3a3f 2eac 6c3f cbbe 963f 79c5 bc3e
00000070: 4b87 403f 00c5 183f abd3 5d3f aab8 2a3f
00000080: 73f4 1c3f ad08 403f cf47 fb3f 874a 963f
00000090: 3f34 5e3f 5d5b 793f 83ed 763f 3074 063f
000000a0: 3dd5 fa3f 9ced 713f 0a20 123f 3aa3 0740
000000b0: a395 f93f 333f a83f b5e2 a93f df4a 253f
1.4254328 0.77997375 0.82868814 0.70768166 1.1880852 1.3239979 0.5994974 0.5789458
1.1709524 1.6133115 0.65446204 1.172942 1.0522548 0.57814574 1.0814743 0.8581936
0.77855355 1.0675156 0.7951556 0.70012885 1.0783677 0.9689141 0.48093182 0.6081548
0.72999203 0.92450225 1.1776975 0.3686941 0.7520644 0.596756 0.86651105 0.66688025
0.613105 0.7501324 1.9631289 1.1741494 0.8679847 0.97405034 0.96456164 0.5252104
1.9596325 0.9450319 0.5708014 2.1193376 1.949879 1.3144287 1.327231 0.6456737

m_transform.0.11.weight f4 [96, 48, 1, 1]
00000000: c804 26bd 1a77 d5bd 8f66 86bd c5ae 91bd
00000010: acfd 0b3e 0fc2 31bd 11cf 393c 8c62 203e
00000020: e92f 043d f818 debd fe5a 2e3e 2659 e7bc
00000030: ea09 9dbd fb5f 303e 2430 04bd 1f3c 1fbe
00000040: 5c3f 5a3d f5f0 da3c d133 033e 25bf b03d
00000050: f26f 84bc caf4 a9bc dacf e93c b1a1 7e3d
00000060: 5893 f93c 41b8 983d 61d7 d9bc 9bdb 853d
00000070: ccb5 203e de17 b53d 506c 203d 6907 bf3c
00000080: 8eb8 8dbd 744a e13b cc16 cebd d3a4 28bd
00000090: f560 37be 24aa 8cbd 92d9 1c3d e401 723c
000000a0: fd1c 133e 42ad 223e 8dde ddbd f284 5d3d
000000b0: 8b3e f73d b69d b73c 3954 0e3e 9cf8 1ebe
000000c0: c68a 983c 56dc 723d 78b1 62bd 8499 b1bd
000000d0: ae65 233d c731 2ebe bafe a0bd 6968 d3bc
000000e0: f8e1 19bd 501d ff3b efa7 e13d 36bc df3d
000000f0: 3f69 38bc 225b 26bd 0d95 0b3d c966 21bd
00000100: 5f36 f63d a65c 17be e6d1 cdbd ffd5 cabd
00000110: e309 54bd a05e afbd 3365 f63c c731 5dbd
00000120: 244e 063e 34a5 c03a abf6 513d 8ed9 143e
00000130: 619b ddbd a759 4e3d 3751 23bd 9ac4 aa3d
00000140: 3afe 823d 7ec9 473d fe2f 97bd 41a3 6fbd
00000150: 4995 bf3b f544 0fbd 64df ccbd 20a2 423d
00000160: 5659 03bc 2934 cdbd 512a ecbd ed33 91bd
00000170: ff10 8c3d e3aa 9a3d 7566 0b3e 1f6b e43c
00000180: dc24 d23d f689 17be 768d e0bd 639c 7abd
00000190: 53ff 023d a11d b83d 73bf a7bd 172b 41be
000001a0: d06d 65bd 90f2 a1bd 6889 1bbd 85fc 94bc
000001b0: beac 9ebd 1016 f63d f558 f73b 587b 2a3e
000001c0: 54a0 6bbd 7908 053d 8342 cb3c 8ae4 09bd
000001d0: 2d66 3f3d 23cc 11be f098 50bd 2543 53bd
000001e0: d3a2 afbd 182e 183e 6eb7 a23d db07 563c
000001f0: 5e91 293d e8e4 5bbd c84a 88bc eae8 00be
00000200: 0691 c33d 2fd5 1a3d a3eb 933d 97c3 13bd
00000210: 9c2c a2bd 6d32 11bc 746f babd efc9 d13d
00000220: 4373 33bd f1f1 df3d cfce 24bb 7b37 68bd
00000230: 8d9e a03d 0706 1a3d 4595 e8bd f90b 083d
00000240: a55d 103e 186d d8bd b71f 243e 342b 313e
00000250: 9782 e7bd 4932 a8bd 2803 83bc d8d6 b33d
00000260: 5532 e1bc 3db7 173e 5850 bdbd b803 a03d
00000270: 5da0 653c 1c3a 4f3d 0a78 643d 81b2 783b
00000280: 18d7 d53b 9c61 55bc 03b7 72bc e702 90bd
00000290: ae34 913d 5c37 f8bd 0b7e e6bb 1db6 8cbd
000002a0: 8dfe f4bd 33a2 08bd 3fcf 9b3d 4feb abbd
000002b0: b042 42bc e017 173e ddd5 523d c188 2d3d
000002c0: 908d 45bd d42e f43d 54d9 d4bd b3a3 d83c
000002d0: 14a6 e5bd 211b d63c a863 243d 2859 25be
000002e0: 8b27 9f3c 8e50 253d 4029 1b3e e92f 1abd
000002f0: 4639 a43d cc6b d1bd ed6e 5f3d 3edc ce3d
00000300: 8390 a73d cc01 80bd eb1e a9bd 60a4 ff3d
00000310: 2854 03be 4bc5 d03c c00b 35bc 66aa a93d
00000320: 032a 3cbd 9427 123e 2e98 c03c 7bc1 62bc
00000330: 04c0 febc 237b 05be 418f aebd 5e7b 61bd
00000340: 2ada b33d 1c6f 8cbd 23f8 8ebd f8b3 c8bd
00000350: ebd2 07be 72bd e9bd 1cc5 abbd 0a43 9d3d
00000360: 2028 883d ce78 02bd decd 8e3d da53 753c
00000370: 099a 373e 8c42 1f3d 421d d3bc a6d2 c33d
00000380: a69f bcbb 3687 ec3d dbd0 80bd f39a 953c
00000390: b6bf a3bd 1b2b cd3d 893c a23d 05d2 22bd
000003a0: 4786 06be 3ec2 cf3d baef 18bc 7f5f 9f3d
000003b0: 5aea 3c3d 1930 693d ef3f 04bd 64ca 29be
000003c0: 1266 353d ddf7 afbc 63fc b3bd 90f7 bf3d
000003d0: fc46 72bd 7d6f 703d 6d0a 263d 978e cd3d
000003e0: 369a 583d 89b1 02bd 3268 e13c 07c1 c1bd
000003f0: 7f0f d33d cbff 463d a4bc 83bd 82c0 3e3c
-0.040531904 -0.104231074 -0.0656253 -0.07113413 0.13670987 -0.04339796 0.011340872 0.15662593
0.032272253 -0.10844606 0.17026898 -0.028240751 -0.076679066 0.17224114 -0.032272473 -0.15550278
0.05328308 0.026726225 0.12812735 0.08630208 -0.016166661 -0.020746607 0.028541494 0.06216592
0.030465767 0.07457019 -0.026591958 0.06536027 0.1569435 0.08842443 0.039165795 0.023318963
-0.06919967 0.0068753306 -0.10062942 -0.041172814 -0.1790808 -0.06868389 0.03829343 0.014770959
0.14366527 0.15886405 -0.10833464 0.054081865 0.12072476 0.02241407 0.13899316 -0.15524524
0.01862086 0.05929216 -0.05534503 -0.08671859 0.03989189 -0.17011176 -0.07861085 -0.025806623
-0.037569016 0.0077854767 0.11018359 0.1092457 -0.011255561 -0.040614255 0.034077693 -0.039404664
0.12022089 -0.14781436 -0.100498006 -0.09904098 -0.05176724 -0.0856297 0.030077552 -0.05400255
0.13115746 0.0014697672 0.05126063 0.14536116 -0.10820652 0.050378468 -0.039872374 0.0833828
0.06396146 0.048776142 -0.07382201 -0.0585053 0.0058466536 -0.034977872 -0.10003546 0.047517896
-0.008016905 -0.100197144 -0.11531509 -0.07089982 0.06839179 0.07552125 0.13613303 0.02788311
0.102609366 -0.14798722 -0.109644815 -0.0611843 0.031981777 0.08990026 -0.08190813 -0.18864094
-0.05601293 -0.07907593 -0.037972838 -0.018186817 -0.07747792 0.12015927 0.0075484463 0.16648614
-0.057525948 0.032478783 0.024811989 -0.033665217 0.0467283 -0.14238028 -0.050927103 -0.051577706
-0.08575978 0.14861333 0.07945143 0.013063396 0.0413984 -0.0536851 -0.016637221 -0.1258885
0.095491454 0.037800964 0.072226785 -0.0360752 -0.07918665 -0.00886212 -0.09103289 0.10243594
-0.043811094 0.109348185 -0.0025147682 -0.056693535 0.07842741 0.037603404 -0.11356596 0.033214543
0.14098223 -0.10567683 0.16027723 0.17301637 -0.11304205 -0.08212716 -0.015992716 0.087812126
-0.02748982 0.14815994 -0.0924384 0.07813209 0.014015284 0.050592527 0.05577854 0.0037948193
0.0065258853 -0.01302376 -0.014814141 -0.070318036 0.07090126 -0.12119934 -0.0070340685 -0.06870673
-0.11962614 -0.03335781 0.076078884 -0.08394491 -0.01185672 0.14755201 0.051473487 0.042366747
-0.048230708 0.11922994 -0.103930146 0.026445245 -0.112133175 0.026135983 0.040134102 -0.16147292
0.019428035 0.040360026 0.15152454 -0.037643347 0.080187365 -0.10225639 0.054549146 0.101006016
0.0818186 -0.06250343 -0.0825785 0.12482524 -0.12825072 0.025484702 -0.011050165 0.08284454
-0.045938503 0.1427291 0.023510065 -0.013840075 -0.03109742 -0.13035254 -0.08523417 -0.055049293
0.08781846 -0.0685713 -0.06980922 -0.09799951 -0.13264053 -0.11413087 -0.08387205 0.07678802
0.06648278 -0.03185349 0.0697286 0.014973605 0.17929853 0.038881823 -0.025770787 0.095616624
-0.0057563363 0.11549227 -0.06289836 0.018262362 -0.0799555 0.10017987 0.079217024 -0.03975107
-0.1313716 0.10144471 -0.009334499 0.07781886 0.046121933 0.056930635 -0.032287534 -0.16581112
0.044286795 -0.021480495 -0.08788373 0.09373391 -0.059149727 0.058700074 0.040537287 0.100369625
0.052881442 -0.031907592 0.027515505 -0.09460645 0.1030569 0.048583787 -0.06432465 0.011642577

m_transform.0.11.bias f4 [96]
00000000: c582 0abd 54c1 23bd 67af ef3d e418 59bc
00000010: 9811 d03d 55dc 98bd b619 923d 9f77 19be
00000020: d8a4 b938 6435 3d3d f6e5 c1bc 5619 ae3d
00000030: 6879 133e 1b90 0a3e be59 04be cc82 163e
00000040: 28b5 1ebd a23e 3abd b9e3 393d 8a46 ba3d
00000050: 4695 0ebe deb6 d53d 0ba6 233e 9d6f 0f3e
00000060: f0b7 813c 5ad6 68bd 7777 503d b937 533c
00000070: 710a 933d f70f f63d ea2b 653d 0350 cbbd
00000080: 73f1 cf3d 731d eabc 38fd af3d 37cd f0bd
00000090: 1033 ab3d 34e3 58bc 6d12 a03d e819 fcbd
000000a0: d250 c33d 7350 0dbe f057 693d d608 92bd
000000b0: 513e 8f3d ac4f 1c3e 4e71 e5bd 3c9d e43d
000000c0: 0055 ce3d c105 b63d 9c57 01be 1207 0e3d
000000d0: 5170 8dbd 4149 0c3e 1d25 8c3d 43c9 1fbd
000000e0: d641 633d 02b0 1e3d 8d68 e73c 148a a1bd
000000f0: abfb ffbd c64e 1bbe 279e c93c 2b51 4ebd
00000100: e0a4 b4bd 40c3 ae3d 5a94 96bc 4b8a 9f3d
00000110: 6754 ecbc d478 a43c f508 e43d 704e eebc
00000120: 74dc 353d df23 803d 6727 b63d 5624 ca3d
00000130: 6a24 413d aec7 2abe ca25 b3bd 5fa0 c93d
00000140: 5da5 f7bc 3e4a ee3d d2d9 adbc 12ee d1bd
00000150: aa85 0d3d 4429 833d 529b a6bb cdc5 a43d
00000160: 145d e7bd 3fa1 07bd 813e 8bbc 0e78 bd3c
00000170: 81bd 84bd 6397 dd3d 24d0 a23d 820f f93d
-0.033816118 -0.039979294 0.11703377 -0.013250563 0.10159606 -0.074639 0.0713381 -0.14987038
8.852192e-05 0.046193495 -0.023669224 0.08500926 0.14401782 0.13531534 -0.12924859 0.14698333
-0.038746983 -0.045469888 0.04538319 0.090954855 -0.13924131 0.1043527 0.15981309 0.14007421
0.015834779 -0.056845047 0.05089518 0.012891703 0.07179726 0.12014764 0.055950083 -0.099273704
0.10153475 -0.028578496 0.085932195 -0.117578916 0.08359349 -0.013237763 0.078160144 -0.12309629
0.095368996 -0.1380022 0.05696863 -0.071305916 0.06994308 0.15264767 -0.11203252 0.111628026
0.10074806 0.08887816 -0.12631077 0.03467471 -0.06906188 0.13699819 0.06843016 -0.039010298
0.055482708 0.038742073 0.028248096 -0.078876644 -0.12499174 -0.15166768 0.024611546 -0.050370377
-0.0882051 0.08533335 -0.018381286 0.07790049 -0.02884884 0.020077147 0.11134521 -0.029090136
0.044399694 0.06256842 0.08894234 0.09870212 0.047153868 -0.16677734 -0.08747442 0.098450415
-0.030230219 0.11635254 -0.021222029 -0.102504864 0.0345513 0.06404355 -0.0050844336 0.0804554
-0.1129705 -0.03311276 -0.016997578 0.023128536 -0.064814575 0.1081989 0.07949856 0.12161161

m_transform.0.13.running_mean f4 [48]
00000000: 0fef d83e f6ec c93e 3ece 263f f06a c93e
00000010: 9d3c a03e 475c e63e af0e 383f a2ac c13e
00000020: 9cfc ab3e b99e bc3e 8ccc 9e3e b9c2 ab3e
00000030: ff76 063f a8b7 853e e844 403e 9b8f fe3e
00000040: 2035 b73e 68ef ab3e c27b c93e 201a d53e
00000050: be1c 8d3e 9523 063f 0377 293f d422 b83e
00000060: 6a08 ee3e f6aa be3e cebc 193f 4da5 0f3f
00000070: 98f9 a63e 3079 c93e 3eab af3e 0ba2 c03e
00000080: 6090 cd3e 91b1 e93e 497c bd3e 4b99 b03e
00000090: 4e91 e33e 00b1 fd3e b980 df3e 5542 d63e
000000a0: f1b5 113f d2d5 9c3e 8f3a c63e ab1f e93e
000000b0: 0bc1 c63e e908 de3e c6d3 a23e f731 273f
0.42369887 0.394386 0.6515845 0.393394 0.31296244 0.44992277 0.71897405 0.3782702
0.33591163 0.36839846 0.31015432 0.33547 0.52525324 0.2611668 0.18776286 0.49718937
0.3578272 0.3358109 0.39352232 0.41621494 0.2756099 0.52398044 0.6619722 0.35964072
0.46490794 0.37239808 0.6005372 0.56111604 0.326123 0.3935027 0.34310335 0.3762363
0.40149212 0.45643285 0.37008885 0.34491953 0.44446796 0.49549103 0.43652895 0.41847482
0.56918246 0.30631882 0.38716552 0.45531973 0.38819155 0.43366173 0.31802195 0.65310615

m_transform.0.13.running_var f4 [48]
00000000: af59 693e 8d32 373e 3ece 6b3e 16cd 3e3e
00000010: 9754 683e e7d3 4a3e 3712 af3e ef6d 493e
00000020: 5930 483e ddbc 443e 54c9 483e 3730 fa3d
00000030: f731 163e b334 803e 7ca2 353e 2ee3 693e
00000040: 4bf8 1f3e a857 3b3f a30b 313e f0e9 0f3e
00000050: c324 103e 0c37 603e 6ef4 343e e837 253e
00000060: cb42 853e 381e 0c3e 31c5 5c3e 06ac ad3e
00000070: ff63 3d3e 69f1 8c3e 1fd5 4d3e 97ed 4b3e
00000080: 8247 4d3e 78c4 363e 9d67 443e 6bdf 323e
00000090: 4f71 173e a57b 8d3e 30ff 383e 60d2 7d3e
000000a0: c46f a03e a483 243e dab4 4b3e 179f 503e
000000b0: 1c7f 653e e1f5 153e 5ba4 553e 2790 653e
0.22788118 0.17890377 0.23027894 0.18632922 0.22688518 0.19807397 0.34193584 0.19670843
0.19549693 0.1921267 0.1960805 0.122162275 0.14667498 0.25040206 0.17737764 0.22840568
0.1562206 0.7318063 0.17289595 0.14054084 0.14076523 0.21895999 0.17671368 0.16134608
0.26027521 0.13683403 0.21559598 0.33920306 0.18495177 0.2752793 0.2010083 0.19914852
0.2004681 0.17848384 0.1918015 0.1746804 0.14789318 0.27633396 0.18066096 0.24787283
0.3133527 0.16065842 0.19893208 0.20373188 0.2241177 0.14644577 0.20863478 0.22418271
