Auxillary_Code/LCNN/project/03-asvspoof-mega/lfcc-lcnn-attention-oc/06/__pretrained/trained_network.pt (torch, 720973 bytes, 35 tensors)

m_frontend.0.lfcc_fb f4 [257, 20]
0.0 0.0 0.0 0.0 0.0 0.0 0.0 0.0
0.0 0.0 0.0 0.0 0.0 0.0 0.0 0.0
0.0 0.0 0.0 0.0 0.08203125 0.0 0.0 0.0
0.0 0.0 0.0 0.0 0.0 0.0 0.0 0.0
0.0 0.0 0.0 0.0 0.0 0.0 0.0 0.0
0.1640625 0.0 0.0 0.0 0.0 0.0 0.0 0.0
0.0 0.0 0.0 0.0 0.0 0.0 0.0 0.0
0.0 0.0 0.0 0.0 0.24609374 0.0 0.0 0.0
0.0 0.0 0.0 0.0 0.0 0.0 0.0 0.0
0.0 0.0 0.0 0.0 0.0 0.0 0.0 0.0
0.328125 0.0 0.0 0.0 0.0 0.0 0.0 0.0
0.0 0.0 0.0 0.0 0.0 0.0 0.0 0.0
0.0 0.0 0.0 0.0 0.41015625 0.0 0.0 0.0
0.0 0.0 0.0 0.0 0.0 0.0 0.0 0.0
0.0 0.0 0.0 0.0 0.0 0.0 0.0 0.0
0.49218747 0.0 0.0 0.0 0.0 0.0 0.0 0.0
0.0 0.0 0.0 0.0 0.0 0.0 0.0 0.0
0.0 0.0 0.0 0.0 0.57421875 0.0 0.0 0.0
0.0 0.0 0.0 0.0 0.0 0.0 0.0 0.0
0.0 0.0 0.0 0.0 0.0 0.0 0.0 0.0
0.65625 0.0 0.0 0.0 0.0 0.0 0.0 0.0
0.0 0.0 0.0 0.0 0.0 0.0 0.0 0.0
0.0 0.0 0.0 0.0 0.73828125 0.0 0.0 0.0
0.0 0.0 0.0 0.0 0.0 0.0 0.0 0.0
0.0 0.0 0.0 0.0 0.0 0.0 0.0 0.0
0.8203125 0.0 0.0 0.0 0.0 0.0 0.0 0.0
0.0 0.0 0.0 0.0 0.0 0.0 0.0 0.0
0.0 0.0 0.0 0.0 0.90234375 0.0 0.0 0.0
0.0 0.0 0.0 0.0 0.0 0.0 0.0 0.0
0.0 0.0 0.0 0.0 0.0 0.0 0.0 0.0
0.98437494 0.0 0.0 0.0 0.0 0.0 0.0 0.0
0.0 0.0 0.0 0.0 0.0 0.0 0.0 0.0
00000000: 0000 0000 0000 0000 0000 0000 0000 0000
00000010: 0000 0000 0000 0000 0000 0000 0000 0000
00000020: 0000 0000 0000 0000 0000 0000 0000 0000
00000030: 0000 0000 0000 0000 0000 0000 0000 0000
00000040: 0000 0000 0000 0000 0000 0000 0000 0000
00000050: 0000 a83d 0000 0000 0000 0000 0000 0000
00000060: 0000 0000 0000 0000 0000 0000 0000 0000
00000070: 0000 0000 0000 0000 0000 0000 0000 0000
00000080: 0000 0000 0000 0000 0000 0000 0000 0000
00000090: 0000 0000 0000 0000 0000 0000 0000 0000
000000a0: 0000 283e 0000 0000 0000 0000 0000 0000
000000b0: 0000 0000 0000 0000 0000 0000 0000 0000
000000c0: 0000 0000 0000 0000 0000 0000 0000 0000
000000d0: 0000 0000 0000 0000 0000 0000 0000 0000
000000e0: 0000 0000 0000 0000 0000 0000 0000 0000
000000f0: ffff 7b3e 0000 0000 0000 0000 0000 0000
00000100: 0000 0000 0000 0000 0000 0000 0000 0000
00000110: 0000 0000 0000 0000 0000 0000 0000 0000
00000120: 0000 0000 0000 0000 0000 0000 0000 0000
00000130: 0000 0000 0000 0000 0000 0000 0000 0000
00000140: 0000 a83e 0000 0000 0000 0000 0000 0000
00000150: 0000 0000 0000 0000 0000 0000 0000 0000
00000160: 0000 0000 0000 0000 0000 0000 0000 0000
00000170: 0000 0000 0000 0000 0000 0000 0000 0000
00000180: 0000 0000 0000 0000 0000 0000 0000 0000
00000190: 0000 d23e 0000 0000 0000 0000 0000 0000
000001a0: 0000 0000 0000 0000 0000 0000 0000 0000
000001b0: 0000 0000 0000 0000 0000 0000 0000 0000
000001c0: 0000 0000 0000 0000 0000 0000 0000 0000
000001d0: 0000 0000 0000 0000 0000 0000 0000 0000
000001e0: ffff fb3e 0000 0000 0000 0000 0000 0000
000001f0: 0000 0000 0000 0000 0000 0000 0000 0000
00000200: 0000 0000 0000 0000 0000 0000 0000 0000
00000210: 0000 0000 0000 0000 0000 0000 0000 0000
00000220: 0000 0000 0000 0000 0000 0000 0000 0000
00000230: 0000 133f 0000 0000 0000 0000 0000 0000
00000240: 0000 0000 0000 0000 0000 0000 0000 0000
00000250: 0000 0000 0000 0000 0000 0000 0000 0000
00000260: 0000 0000 0000 0000 0000 0000 0000 0000
00000270: 0000 0000 0000 0000 0000 0000 0000 0000
00000280: 0000 283f 0000 0000 0000 0000 0000 0000
00000290: 0000 0000 0000 0000 0000 0000 0000 0000
000002a0: 0000 0000 0000 0000 0000 0000 0000 0000
000002b0: 0000 0000 0000 0000 0000 0000 0000 0000
000002c0: 0000 0000 0000 0000 0000 0000 0000 0000
000002d0: 0000 3d3f 0000 0000 0000 0000 0000 0000
000002e0: 0000 0000 0000 0000 0000 0000 0000 0000
000002f0: 0000 0000 0000 0000 0000 0000 0000 0000
00000300: 0000 0000 0000 0000 0000 0000 0000 0000
00000310: 0000 0000 0000 0000 0000 0000 0000 0000
00000320: 0000 523f 0000 0000 0000 0000 0000 0000
00000330: 0000 0000 0000 0000 0000 0000 0000 0000
00000340: 0000 0000 0000 0000 0000 0000 0000 0000
00000350: 0000 0000 0000 0000 0000 0000 0000 0000
00000360: 0000 0000 0000 0000 0000 0000 0000 0000
00000370: 0000 673f 0000 0000 0000 0000 0000 0000
00000380: 0000 0000 0000 0000 0000 0000 0000 0000
00000390: 0000 0000 0000 0000 0000 0000 0000 0000
000003a0: 0000 0000 0000 0000 0000 0000 0000 0000
000003b0: 0000 0000 0000 0000 0000 0000 0000 0000
000003c0: ffff 7b3f 0000 0000 0000 0000 0000 0000
000003d0: 0000 0000 0000 0000 0000 0000 0000 0000
000003e0: 0000 0000 0000 0000 0000 0000 0000 0000
000003f0: 0000 0000 0000 0000 0000 0000 0000 0000

m_transform.0.0.weight f4 [64, 1, 5, 5]
0.046215132 0.03167302 -0.103287205 0.006368999 -0.009344228 0.13576408 -0.14190966 0.18841484
-0.099283546 0.15967046 -0.12454833 0.11037645 0.17360963 0.03951404 -0.12408525 0.11519476
0.18647143 -0.17267157 -0.10763229 -0.053384818 -0.10353215 -0.019488981 -0.141674 0.1114279
0.20325649 -0.013110287 -0.068833716 -0.16847543 0.07671757 -0.08029241 0.0021238413 0.0031757874
0.060328405 -0.0758052 -0.09981477 -0.14122216 -0.11972493 0.07337877 0.13368559 0.0036392212
0.11299473 0.054650106 0.17044328 0.0644078 0.11300089 0.101865485 -0.068927966 -0.10323063
0.13207833 0.05581506 0.008449549 0.018092973 0.04758189 -0.007368613 0.07633783 0.0470758
0.01621568 -0.16296203 -0.0047424017 0.06848032 0.08227425 -0.15976074 -0.042872485 0.17891453
0.10189354 0.13385662 0.20198487 0.11037928 0.15309526 0.21167748 0.14874393 -0.027829556
0.16944748 -0.10081131 0.11862354 0.09299197 0.1455672 -0.08782818 -0.18902019 -0.06253591
-0.018037746 -0.21295533 0.019726202 -0.18285188 -0.010738583 -0.047661025 0.06626583 -0.1608866
-0.11068973 -0.19351016 0.110360414 -0.14722787 0.015396717 0.05261867 -0.08823333 -0.032641143
0.18996632 -0.114233695 -0.20491834 -0.07857849 0.04603777 -0.033167996 -0.007879137 -0.06415106
-0.11149584 -0.043180168 -0.16803806 0.11443706 0.17624535 0.12641086 -0.042951375 0.10926541
0.119292855 -0.043580826 -0.08224138 0.018174473 0.055649504 0.08690151 0.027531352 -0.15298298
0.03859233 0.13855878 0.03565394 -0.06138614 -0.12700722 0.038846847 0.1267701 -0.191574
0.10156472 -0.2016376 0.111595295 -0.15341683 -0.0013482843 0.023623172 0.025902783 -0.16190994
-0.050345633 -0.16883852 0.010923208 0.035071503 -0.053847477 0.044733427 0.07621519 0.11978127
-0.06662308 -0.0043860343 -0.011426179 -0.024792321 -0.018811733 -0.109488286 0.19837645 0.10215545
-0.1683555 -0.13270418 -0.061128356 0.13301276 -0.026990058 0.094912075 0.05937867 0.026170498
-0.040530864 0.05942942 -0.004380052 -0.009489475 0.021011213 -0.004430125 -0.07379737 -0.018438747
-0.027091615 0.07392288 0.08668277 0.1907783 -0.065727055 0.19189614 0.08627535 0.06507401
-0.1142097 -0.18975791 -0.14237899 -0.017118137 0.07705856 0.12920244 -0.1022445 0.005216585
0.05230746 0.13871317 -0.082766056 -0.055206493 0.03667554 0.11847369 -0.13510107 -0.20282188
0.009555392 -0.169866 0.1765179 0.15159279 0.0719092 -0.120730676 -0.19273289 0.14193133
0.048765015 -0.19595492 -0.12563866 -0.14559473 0.16337882 0.040827643 -0.057233687 0.023444168
0.18150881 -0.14291699 0.01649409 0.09566628 -0.0008721951 -0.119847246 0.04348886 0.108055696
0.019584084 -0.14905594 0.08406665 -0.15777458 -0.06607062 0.08319771 -0.015556193 0.006948044
0.07878304 0.20318277 0.058525812 0.16592117 -0.2197367 -0.018429039 0.16366038 -0.01380741
0.05897494 -0.19029519 0.15479456 0.16919844 0.033639103 -0.04421403 -0.052643318 -0.14709336
0.06968043 0.1704445 0.17039052 -0.022277419 -0.14063701 0.035933696 -0.008705541 -0.106380865
-0.06097024 -0.23669684 -0.16139896 0.17095953 -0.00849503 -0.21344335 -0.19310533 0.10981991
00000000: 144c 3d3d 92bb 013d 3e88 d3bd 09b3 d03b
00000010: 8818 19bc bd05 0b3e c450 11be d2ef 403e
00000020: 2c55 cbbd a780 233e 3213 ffbd 0c0d e23d
00000030: b9c6 313e 79d9 213d 6820 febd 3beb eb3d
00000040: 5ef2 3e3e d1d0 30be 516e dcbd 0aaa 5abd
00000050: aa08 d4bd 5ba7 9fbc fd12 11be 5034 e43d
00000060: 7822 503e 87cc 56bc b1f8 8cbd d384 2cbe
00000070: 1a1e 9d3d 5970 a4bd 2530 0b3b df20 503b
00000080: eb1a 773d c23f 9bbd b06b ccbd 8b9c 10be
00000090: 5832 f5bd 9c47 963d e0e4 083e 0080 6e3b
000000a0: c869 e73d cad8 5f3d af88 2e3e 3de8 833d
000000b0: 036d e73d da9e d03d 1b2a 8dbd 956a d3bd
000000c0: 8b3f 073e 559e 643d fa6f 0a3c b737 943c
000000d0: 3ae5 423d 6874 f1bb 0257 9c3d 8ed2 403d
000000e0: bfd6 843c 85df 26be 2666 9bbb 693f 8c3d
000000f0: 677f a83d 5298 23be 0f9b 2fbd 5f35 373e
00000100: 8fad d03d b611 093e 1fd5 4e3e 880e e23d
00000110: 01c5 1c3e fbc1 583e 5450 183e cffa e3bc
00000120: a483 2d3e 2976 cebd e6f0 f23d 9372 be3d
00000130: 910f 153e 43df b3bd 828e 41be d412 80bd
00000140: e5c3 93bc f610 5abe d898 a13c 863d 3bbe
00000150: e2f0 2fbc 3538 43bd 61b6 873d 75bf 24be
00000160: 4cb1 e2bd 8727 46be a404 e23d e7c2 16be
00000170: 8342 7c3c ad86 573d adb3 b4bd b8b2 05bd
00000180: 8886 423e 5bf3 e9bd 1dd6 51be c2ed a0bd
00000190: 1a92 3c3d 2adb 07bd 7f17 01bc a261 83bd
000001a0: ee57 e4bd b0dd 30bd 2b12 2cbe fa5d ea3d
000001b0: a979 343e d971 013e c8ed 2fbd 8bc6 df3d
000001c0: d04f f43d cf81 32bd 2b6e a8bd a2e2 943c
000001d0: bcf0 633d 6bf9 b13d 6e89 e13c 92a7 1cbe
000001e0: fe12 1e3d 5ae2 0d3e de09 123d 0870 7bbd
000001f0: 2e0e 02be df1d 1f3d 05d0 013e fa2b 44be
00000200: 2a01 d03d 167a 4ebe 138c e43d 4d19 1dbe
00000210: eab8 b0ba 6285 c13c 1332 d43c b8cb 25be
00000220: 3937 4ebd 01e4 2cbe 41f7 323c 23a7 0f3d
00000230: 2c8f 5cbd 663a 373d b616 9c3d e24f f53d
00000240: ae71 88bd b9b8 8fbb de34 3bbc 4419 cbbc
00000250: 101b 9abc 653b e0bd 3223 4b3e e036 d13d
00000260: 6265 2cbe 9be3 07be ba61 7abd 7f34 083e
00000270: 411a ddbc 4361 c23d 0c37 733d 8363 d63c
00000280: b103 26bd 436c 733d 8a86 8fbb be79 1bbc
00000290: b51f ac3c 952a 91bb 1323 97bd db0c 97bc
000002a0: 3cef ddbc e164 973d bc86 b13d 635b 433e
000002b0: e89b 86bd 6c80 443e 21b1 b03d 8645 853d
000002c0: c6e6 e9bd e64f 42be cccb 11be 563b 8cbc
000002d0: e1d0 9d3d a54d 043e 9065 d1bd e3ef aa3b
000002e0: 5940 563d d30a 0e3e 4081 a9bd 3420 62bd
000002f0: 1739 163d 55a2 f23d ef57 0abe 8ab0 4fbe
00000300: 388e 1c3c 5af1 2dbe 1cc1 343e 243b 1b3e
00000310: 2145 933d a541 f7bd c55b 45be 7256 113e
00000320: d3bd 473d 68a8 48be 6ca7 00be c916 15be
00000330: c74c 273e e33a 273d df6d 6abd fc0d c03c
00000340: 72dd 393e d558 12be 9d1e 873c afec c33d
00000350: 06a4 64ba 7972 f5bd 6021 323d 4e4c dd3d
00000360: cd6e a03c 1fa2 18be 232b ac3d a98f 21be
00000370: 0950 87bd 9063 aa3d 67df 7ebc 6bac e33b
00000380: 0159 a13d 250f 503e c3b8 6f3d 3de7 293e
00000390: a802 61be 7ff8 96bc 9696 273e 7a38 62bc
000003a0: b58f 713d bedc 42be 7782 1e3e 5b42 2d3e
000003b0: 28c9 093d c519 35bd 85a0 57bd a49f 16be
000003c0: 9db4 8e3d 0189 2e3e da7a 2e3e 227f b6bc
000003d0: 2603 10be 362f 133d afa1 0ebc 36de d9bd
000003e0: eebb 79bd a860 72be c545 25be 0410 2f3e
000003f0: bd2e 0bbc e590 5abe 67bd 45be 43e9 e03d

m_transform.0.0.bias f4 [64]
0.09690775 -0.20065817 0.029105753 -0.15296692 -0.1728631 -0.01023407 -0.11204906 0.0082089035
0.22024377 0.06494126 -0.04781511 -0.13229781 -0.036793746 -0.016204283 -0.11911378 -0.08740815
0.083183125 -0.07757023 0.060109593 0.07391668 -0.06893878 -0.10571816 -0.008175973 -0.07679945
-0.1090368 -0.19586594 0.014014235 -0.11194286 -0.15999976 0.14512762 -0.062236134 -0.22096695
-0.19004764 -0.09205754 0.18606803 -0.17362668 -0.0013364257 -0.049287908 -0.03799068 0.034431163
-0.07118225 0.0047032596 -0.1396522 0.122289486 0.16998786 -0.17998596 0.15568304 0.11086092
-0.17876291 0.08654724 -0.15496674 0.09475895 0.15856786 -0.07179534 -0.17135786 -0.09949661
-0.104768924 -0.07908803 -0.077351324 0.014166939 0.107038885 0.104994774 -0.12513581 0.00051435357
00000000: 9277 c63d 5679 4dbe 306f ee3c 5ca3 1cbe
00000010: 0603 31be cdac 27bc fa79 e5bd a37e 063c
00000020: 9587 613e ecff 843d c7d9 43bd 1479 07be
00000030: 0ab5 16bd d8be 84bc edf1 f3bd 0b03 b3bd
00000040: ea5b aa3d 24dd 9ebd 7a35 763d a161 973d
00000050: c62f 8dbd c382 d8bd 84f4 05bc 0849 9dbd
00000060: b04e dfbd 1591 48be f69b 653c 4c42 e5bd
00000070: fad6 23be 569c 143e 51eb 7ebd 2945 62be
00000080: d99b 42be aa88 bcbd 9e88 3e3e 31cb 31be
00000090: 012b afba 1ee2 49bd 1e9c 1bbd b107 0d3d
000000a0: 00c8 91bd cd1d 9a3b fc00 0fbe e972 fa3d
000000b0: 4c11 2e3e 3d4e 38be 606b 1f3e 0d0b e33d
000000c0: a00d 37be ae3f b13d 9aaf 1ebe fb10 c23d
000000d0: 9d5f 223e 6f09 93bd 6f78 2fbe e1c4 cbbd
000000e0: 1791 d6bd e8f8 a1bd 5f6a 9ebd 731c 683c
000000f0: 3437 db3d 8007 d73d 9a23 00be afd5 063a

m_transform.0.3.weight f4 [64, 32, 1, 1]
0.16219324 -0.10029389 0.062874384 0.11898243 -0.1469569 0.10886838 0.07853014 -0.059494607
-0.19889116 -0.023009617 -0.078318514 -0.15334699 0.14243288 0.13706449 -0.059296157 -0.004073183
-0.15473416 -0.0077184867 0.12854202 -0.10583353 0.1597211 -0.011883735 0.11822216 -0.20165539
0.17613818 -0.08764033 -0.047496244 -0.1155771 0.03330769 -0.0021820953 -0.040960867 0.08972414
-0.11466664 -0.031034796 0.15704815 0.13015719 0.12389259 0.074188165 0.05739131 0.15306528
-0.08534381 -0.12124437 0.031156981 -0.027690575 -0.13820724 -0.057895403 0.0933769 0.11390248
-0.16048773 -0.14152433 -0.04024164 -0.11270255 -0.17288317 0.15959181 -0.11608883 0.04804085
0.09173754 0.06167972 -0.007290307 -0.13389476 0.020018507 -0.15527926 0.17311361 0.06151494
-0.11517197 0.12475771 -0.019590393 0.094208315 0.07278577 0.14865655 0.16267431 -0.13351832
0.11267885 -0.12962393 0.043026187 0.047165524 0.12447258 -0.1124211 0.15351662 -0.12807347
0.15632468 0.16149916 -0.15186097 -0.11010307 -0.18023394 0.094595425 0.063877426 -0.03975957
-0.105069585 0.028926583 0.0047785053 -0.005965704 -0.06271684 -0.1598727 -0.07077554 -0.06526119
0.119622484 0.14851165 0.12466418 0.021397948 0.059358437 0.049793147 -0.11894921 -0.039961062
-0.10055035 0.04876419 0.1367671 0.16153148 0.12420657 -0.08183269 -0.011699594 0.056798406
0.12862185 0.18058284 0.018956423 0.14107844 -0.060868207 -0.07179209 -0.048192482 -0.10363251
0.009284032 -0.14948538 0.11172029 0.05713962 0.05888692 -0.007479127 -0.06703871 -0.015765393
-0.056997813 0.07662943 0.009351804 0.0699091 -0.018516677 -0.10956615 0.0069468166 0.1425605
-0.11590883 0.1589742 -0.13018839 -0.14752325 0.011759211 -0.090165116 0.09350348 -0.14785488
0.023796016 0.15902066 -0.00028662587 -0.14037792 -0.08548 0.081111066 -0.056220666 -0.046099696
0.06301935 0.08888937 0.061892603 0.110581264 0.1196758 0.070783645 -0.06559948 0.11250914
0.011430228 -0.14636764 0.05612561 -0.17685458 -0.11964497 0.014278575 -0.0669195 -0.035117336
0.037104443 -0.11952449 0.05150424 0.12232305 -0.12499274 0.01792031 0.013091952 0.054607887
0.023678666 0.13533227 0.10502796 -0.13271184 -0.14983106 -0.12922823 -0.004537351 0.0784088
0.15924229 -0.08371282 0.17260121 0.08121932 -0.14505933 0.06299895 0.028512951 0.012543968
-0.13429865 0.073801965 -0.11225638 0.11733419 0.03616457 -0.008284164 -0.121738255 -0.1606277
-0.15085039 0.08536564 -0.005697594 0.09868723 -0.010002558 0.0015232818 -0.07227801 -0.1579834
-0.024075009 0.01334709 0.061702546 0.050611466 0.13628177 0.10695934 -0.00837465 -0.0033089612
-0.10011831 0.15274893 -0.047367197 5.8405105e-05 0.14616053 0.036222834 -0.024459112 0.06500839
-0.015618098 0.08588105 0.16943733 -0.11908334 -0.046243537 -0.0898708 0.15671225 0.17127362
0.07189372 -0.15274376 0.084386334 -0.13060737 -0.04256711 -0.13198487 -0.15301907 0.09806246
-0.043440368 -0.029201316 -0.06394206 0.13785258 -0.059157435 -0.033971608 -0.017628824 -0.041511428
0.064306885 0.15403947 0.0052842065 -0.14414538 -0.0754376 -0.03572355 -0.09819943 0.1464435
00000000: fc15 263e e266 cdbd 49c4 803d 0fad f33d
00000010: df7b 16be 63f6 de3d 69d4 a03d 9eb0 73bd
00000020: 20aa 4bbe aa7e bcbc 7565 a0bd fe06 1dbe
00000030: edd9 113e a25a 0c3e 87e0 72bd 5678 85bb
00000040: a272 1ebe 5ceb fcbb 85a0 033e 40bf d8bd
00000050: ee8d 233e ffb3 42bc 761e f23d c07e 4ebe
00000060: 915d 343e c67c b3bd 6c8b 42bd b0b3 ecbd
00000070: a56d 083d 7c01 0fbb 95c6 27bd 4ac1 b73d
00000080: 58d6 eabd af3c febc 3bd1 203e ed47 053e
00000090: 66bb fd3d f7ef 973d 2613 6b3d 25bd 1c3e
000000a0: bcc8 aebd f84e f8bd ed3c ff3c 58d7 e2bc
000000b0: 3386 0dbe bb23 6dbd 633c bf3d b445 e93d
000000c0: e556 24be c1eb 10be 6bd4 24bd 98d0 e6bd
000000d0: 4908 31be 096c 233e fbbf edbd 7bc6 443d
000000e0: e4e0 bb3d e0a3 7c3d 87e3 eebb b51b 09be
000000f0: dafd a33c 8701 1fbe b244 313e 17f7 7b3d
00000100: 48df ebbd f880 ff3d 087c a0bc 4af0 c03d
00000110: b510 953d 6c39 183e 1894 263e 07b9 08be
00000120: 2bc4 e63d 23bc 04be 3a3c 303d a330 413d
00000130: 7beb fe3d 093d e6bd 7633 1d3e b125 03be
00000140: 9413 203e 0960 253e 7181 1bbe b87d e1bd
00000150: 3f8f 38be 3fbb c13d 2bd2 823d eeda 22bd
00000160: b92e d7bd 71f7 ec3c 0295 9c3b f47b c3bb
00000170: b071 80bd abb5 23be c4f2 90bd a9a7 85bd
00000180: a2fc f43d 7013 183e ef4f ff3d c04a af3c
00000190: d521 733d e6f3 4b3d a59b f3bd 36ae 23bd
000001a0: 58ed cdbd f6bc 473d ad0c 0c3e 8268 253e
000001b0: 0460 fe3d e697 a7bd a7af 3fbc 72a5 683d
000001c0: 72b5 033e b5ea 383e 804a 9b3c de76 103e
000001d0: f150 79bd bb07 93bd 7b65 45bd 483d d4bd
000001e0: 0d1c 183c b212 19be 9bcd e43d 3c0b 6a3d
000001f0: 6933 713d 7713 f5bb 974b 89bd 6d26 81bc
00000200: 8a76 69bd e4ef 9c3d 4f38 193c 812c 8f3d
00000210: 49b0 97bc 3864 e0bd 1fa2 e33b 61fb 113e
00000220: 9c61 edbd 22ca 223e 1b50 05be 5610 17be
00000230: b5a9 403c 7da8 b8bd c17e bf3d 4567 17be
00000240: ddef c23c 50d6 223e 4646 96b9 3bbf 0fbe
00000250: 2310 afbd 8f1d a63d a447 66bd 09d3 3cbd
00000260: 4a10 813d a10b b63d 1983 7d3d 6e78 e23d
00000270: 9618 f53d 04f7 903d 0559 86bd 316b e63d
00000280: da45 3b3c 66e1 15be f8e3 653d 5e19 35be
00000290: 6c08 f5bd aff0 693c 170d 89bd 32d7 0fbd
000002a0: d4fa 173d 41c9 f4bd 1cf6 523d 8284 fa3d
000002b0: 32fc ffbd 9dcd 923c a07f 563c 85ac 5f3d
000002c0: c3f9 c13c 8b94 0a3e e618 d73d 9de5 07be
000002d0: 506d 19be 6854 04be 0fae 94bb cb94 a03d
000002e0: 6910 233e a171 abbd 5fbe 303e 5156 a63d
000002f0: 6f8a 14be 9805 813d fe93 e93c 3785 4d3c
00000300: 9685 09be 7c25 973d ace6 e5bd e84c f03d
00000310: 4d21 143d 4dba 07bc e851 f9bd 967b 24be
00000320: 8678 1abe 2ed4 ae3d e2b2 babb 881c ca3d
00000330: c5e1 23bc dba8 c73a 7e06 94bd 67c6 21be
00000340: f438 c5bc c1ad 5a3c cfbb 7c3d f84d 4f3d
00000350: 738d 0b3e 800d db3d d435 09bc 28db 58bb
00000360: d40a cdbd 376a 1c3e 1b04 42bd 01f8 7438
00000370: 1bab 153e 655e 143d 7a5e c8bc 1e23 853d
00000380: 0de3 7fbc 67e2 af3d fb80 2d3e f7e1 f3bd
00000390: dd69 3dbd 2f0e b8bd 2d79 203e 5a62 2f3e
000003a0: 043d 933d dc68 1cbe bed2 ac3d f0bd 05be
000003b0: da5a 2ebd 0b27 07be 08b1 1cbe f9d4 c83d
000003c0: 87ee 31bd 9937 efbc 0ef4 82bd 3a29 0d3e
000003d0: 114f 72bd d025 0bbd 536a 90bc e307 2abd
000003e0: 54b3 833d 86bc 1d3e 2327 ad3b d99a 13be
000003f0: 077f 9abd db52 12bd c81c c9bd 49f5 153e

m_transform.0.3.bias f4 [64]
-0.05361025 -0.15017939 -0.087684385 -0.103850275 -0.014207402 -0.016768033 -0.0975255 -0.15472624
0.025816789 0.08509336 -0.14139558 0.06015941 0.086837694 0.014341424 -0.052606054 0.06697705
0.116465054 -0.15038309 0.1687362 -0.0321186 0.13569167 -0.17929295 0.10340109 -0.027672816
0.18761256 0.14419883 -0.146515 -0.0018537017 0.16481265 0.10120737 0.12036747 0.15748821
0.12416111 -0.03143164 -0.13203895 -0.029646534 -0.15296252 0.14345345 0.0466232 -0.03414275
0.098257005 0.15637279 -0.0071332175 0.048120093 0.15783384 -0.07236884 0.039512172 0.019657182
0.10070482 -0.054443613 0.033414055 0.03243203 -0.0040070987 -0.1419862 0.060010016 0.08606203
-0.13369167 -0.11145018 -0.0039528324 -0.086525686 -0.0128091 -0.038911816 0.116499834 -0.12139983
00000000: 6c96 5bbd a0c8 19be df93 b3bd 74af d4bd
00000010: 2ac6 68bc 1d5d 89bc 73bb c7bd 8e70 1ebe
00000020: bb7d d33c 6d45 ae3d 01ca 10be b769 763d
00000030: f6d7 b13d 4bf8 6a3c 7279 57bd 432b 893d
00000040: 3b85 ee3d 06fe 19be 2fc9 2c3e cb8e 03bd
00000050: c2f2 0a3e 9298 37be f3c3 d33d 1ab2 e2bc
00000060: 821d 403e dca8 133e 0708 16be e8f7 f2ba
00000070: a6c4 283e cf45 cf3d 3883 f63d 9744 213e
00000080: 2e48 fe3d 77be 00bd 3835 07be 4add f2bc
00000090: 35a2 1cbe 76e5 123e f8f7 3e3d 45d9 0bbd
000000a0: f83a c93d 3020 203e c4bd e9bb 9319 453d
000000b0: 329f 213e 1d36 94bd 84d7 213d 1908 a13c
000000c0: 543e ce3d 4400 5fbd 2ddd 083d 73d7 043d
000000d0: fb4d 83bb d564 11be 10cd 753d 4a41 b03d
000000e0: 78e6 08be fe3f e4bd c386 81bb 6134 b1bd
000000f0: 42dd 51bc ff61 1fbd 7797 ee3d 79a0 f8bd

m_transform.0.5.running_mean f4 [32]
0.16714579 -0.14058077 -0.14940028 0.6213605 0.031151965 0.0874323 -0.050093766 0.07470702
0.12625574 0.606149 -0.25220117 0.020268945 0.25956815 0.13461216 0.1966098 0.2113109
0.1416955 -0.0017607026 0.43617034 0.2900974 0.08245447 -0.1862268 0.36261043 0.18022807
0.22344176 0.06786066 -0.06301913 0.11472285 0.58583 0.26180437 0.14133406 0.29762593
00000000: 4428 2b3e 68f4 0fbe 63fc 18be 7b11 1f3f
00000010: 6832 ff3c b50f b33d 1f2f 4dbd feff 983d
00000020: 2f49 013e 952c 1b3f 8320 81be 0f0b a63c
00000030: 1ee6 843e c5d7 093e 1454 493e e261 583e
00000040: a018 113e 60c7 e6ba b851 df3e a587 943e
00000050: e4dd a83d 3db2 3ebe 13a8 b93e b58d 383e
00000060: ebcd 643e 88fa 8a3d 2c10 81bd d0f3 ea3d
00000070: f4f8 153f 390b 863e e0b9 103e 6d62 983e

m_transform.0.5.running_var f4 [32]
0.034155913 0.029697562 0.04754768 0.32992515 0.034286417 0.021465631 0.016641965 0.039573994
0.036045324 0.17163527 0.09766389 0.027470512 0.02159183 0.049957633 0.10104287 0.044872962
0.017919052 0.04255199 0.09472445 0.12081047 0.027177 0.014767696 0.12382934 0.027969345
0.049385957 0.016411358 0.022968918 0.029118259 0.20977888 0.07583166 0.018670103 0.03178072
00000000: 12e7 0b3d 4d48 f33c 5bc1 423d f3eb a83e
00000010: ea6f 0c3d b1d8 af3c bb54 883c 5718 223d
00000020: 43a4 133d 28c1 2f3e 0104 c83d d709 e13c
00000030: 59e1 b03c 60a0 4c3d 90ef ce3d b6cc 373d
00000040: faca 923c ff4a 2e3d e4fe c13d 7b6b f73d
00000050: 4da2 de3c 35f4 713c 3d9a fd3d f81f e53c
00000060: ee48 4a3d 1d71 863c 5029 bc3c 6a89 ee3c
00000070: 46d0 563e a14d 9b3d 0bf2 983c 802c 023d

m_transform.0.6.weight f4 [96, 32, 3, 3]
-0.034697622 -0.041154247 -0.035758786 -0.020636758 -0.0023853804 0.06361349 0.059882164 -0.030987775
0.034170482 0.024090296 0.04281333 0.024226058 0.026856871 0.004017872 -0.0328949 -0.010189269
-0.04812927 0.05877706 -0.049431633 -0.06883401 -0.03919902 -0.016915793 -0.068771176 0.011776088
-0.07320655 -0.0450099 0.00847208 0.028623713 -0.076770514 -0.057109777 -0.046405457 -0.014979249
-0.04487648 -0.040933944 -0.030636383 0.065622814 0.037147358 -0.034931753 -0.010519142 -0.033910796
-0.054984584 -0.046962187 -0.046416692 0.023493746 0.059067823 0.05466321 0.023352623 0.028073315
0.017809276 0.024311753 0.03507473 -0.01953253 0.05754786 0.06268656 0.013710915 -0.01302676
-0.019101085 -0.012978592 0.016949693 -0.04772393 0.043509774 -0.023307959 -0.07198488 -0.041018873
0.0064589437 -0.023115737 -0.036121536 0.020330226 -0.027824342 -0.008427698 0.041420657 0.03613938
-0.060077652 0.06652192 -0.0173096 -0.031161975 0.07526467 -0.040605895 0.032876432 0.020108394
0.027547607 -0.06985875 -0.018283539 -0.07046493 -0.03240588 -0.038912937 -0.016053425 -0.042123344
-0.020644447 0.04300903 -0.019235715 -0.036156204 -0.02711053 -0.016951432 -0.015010126 -0.04670893
-0.05774987 0.0013984598 -0.07240217 -0.013912035 -0.02723773 0.0013964756 0.053542655 -0.0023593116
0.01235437 -0.025399072 0.014247003 -0.06143219 0.039428454 -0.049679767 -0.03223649 0.05875586
0.07120713 -0.081822686 -0.029659918 0.026435057 0.010991796 -0.0040853876 0.019503158 0.03152229
-0.061115846 -0.031086281 -0.039651096 0.044236176 -0.0002386767 0.014191419 0.025132256 -0.036760386
-0.023125445 -0.05553673 -0.0058687814 -0.05725424 -0.04594392 -0.0021297208 0.040940158 0.028871942
-0.018176693 -0.05772901 -0.041805413 0.011705127 -0.05343846 -0.047065172 -0.022181654 -0.033189535
0.0519022 -0.0469338 -0.035487648 0.046397585 -0.057455808 -0.0117099555 0.055254374 -0.022947336
-0.08580914 -0.014209288 0.008468078 -0.022727259 -0.0038114332 -0.008599311 -0.047972035 -0.047016017
0.034480546 0.010091266 0.03201528 0.027994696 0.036198318 -0.054237373 -0.04829922 -0.0077942014
-0.011735342 0.06595728 0.049858853 -0.049889684 0.019973189 -0.0031502636 -0.04155511 0.03400211
0.050114524 -0.02505832 -0.024604699 -0.019223748 0.0034983035 -0.04545051 0.020696435 0.023664882
-0.015777072 -0.0071875844 -0.03610691 0.020996874 -0.03800651 0.013966862 0.025069525 0.045323506
-0.011165058 0.040284645 0.029547121 -0.007927807 -0.033487216 -0.023394372 -0.023178117 -0.04617211
0.004364019 -0.029567327 -0.06366096 0.0077357194 0.015165802 0.0006806639 -0.0042665945 -0.050136045
-0.044823434 -0.046182763 -0.025500659 -0.025084207 -0.06331666 0.0012966753 -0.032199077 0.031773873
-0.04342003 -0.028480506 -0.009679453 -0.019446196 0.038669728 -0.05494621 -0.009515014 -0.014699344
0.036347523 0.031186981 -0.028021427 -0.029407077 0.033578593 0.014040555 0.04706493 0.06079653
0.035584472 0.062940866 -0.074364305 -0.081654266 0.0049721706 -0.0843284 0.02604179 0.040024232
-0.039458442 0.05372012 -0.0038809155 0.027029505 -0.019726627 0.01647962 0.026563467 0.058501624
-0.03655334 0.024931284 0.028258508 0.04780603 -0.04984478 0.0021755132 -0.058328744 0.005081933
00000000: 181f 0ebd 5b91 28bd ce77 12bd 6b0e a9bc
00000010: 0b54 1cbb ca47 823d 0047 753d 13da fdbc
00000020: 59f6 0b3d 0359 c53c 085d 2f3d ba75 c63c
00000030: f102 dc3c 5aa8 833b cdbc 06bd e4f0 26bc
00000040: 3323 45bd 37c0 703d d378 4abd d8f8 8cbd
00000050: 278f 20bd fd92 8abc e7d7 8cbd 7ef0 403c
00000060: 51ed 95bd 4d5c 38bd 7bce 0a3c 477c ea3c
00000070: dc39 9dbd f1eb 69bd a613 3ebd 866b 75bc
00000080: 66d0 37bd 5aaa 27bd 27f9 fabc 4165 863d
00000090: d427 183d 9914 0fbd 7b58 2cbc 0ce6 0abd
000000a0: 8437 61bd 6c5b 40bd 6e1f 3ebd f575 c03c
000000b0: 1af1 713d 88e6 5f3d 004e bf3c 02fa e53c
000000c0: c2e4 913c 7129 c73c 85aa 0f3d af02 a0bc
000000d0: 4eb7 6b3d d061 803d bfa3 603c 316e 55bc
000000e0: e179 9cbc 29a4 54bc 15da 8a3c 2b7a 43bd
000000f0: 4e37 323d 55f0 bebc cf6c 93bd 6803 28bd
00000100: 8ca5 d33b 375d bdbc 2df4 13bd 938b a63c
00000110: e0ef e3bc 5414 0abc b5a8 293d e306 143d
00000120: fc13 76bd a53c 883d ddcc 8dbc 6647 ffbc
00000130: 5d24 9a3d 5e52 26bd 70a9 063d 5cba a43c
00000140: 85ab e13c 1b12 8fbd 5cc7 95bc eb4f 90bd
00000150: 07bc 04bd 2c63 1fbd 7982 83bc 8789 2cbd
00000160: 8b1e a9bc 3d2a 303d 3894 9dbc 8718 14bd
00000170: e716 debc bbdd 8abc 08ed 75bc dd51 3fbd
00000180: 218b 6cbd 864c b73a 9747 94bd 4eef 63bc
00000190: a921 dfbc f209 b73a 8b4f 5b3d ae9e 1abb
000001a0: fc69 4a3c b711 d0bc 436c 693c 52a0 7bbd
000001b0: bb7f 213d 037d 4bbd 690a 04bd fca9 703d
000001c0: 0bd5 913d a792 a7bd 5bf9 f2bc 558e d83c
000001d0: ef16 343c b7de 85bb 16c5 9f3c 841d 013d
000001e0: 9c54 7abd a8a8 febc 3069 22bd fe30 353d
000001f0: 4a45 7ab9 2083 683c 29e2 cd3c 0f92 16bd
00000200: 9371 bdbc 7b7a 63bd e84e c0bb 6c83 6abd
00000210: b12f 3cbd c992 0bbb deb0 273d da84 ec3c
00000220: 4ae7 94bc 4175 6cbd 273c 2bbd dcc6 3f3c
00000230: 49e2 5abd 69c7 40bd 4db6 b5bc c0f1 07bd
00000240: 6797 543d a83d 40bd 7f5b 11bd 650b 3e3d
00000250: c856 6bbd 1ddb 3fbc 6952 623d 0dfc bbbc
00000260: b4bc afbd 13ce 68bc b2bd 0a3c 842e babc
00000270: 3dc9 79bb 20e4 0cbc 537e 44bd de93 40bd
00000280: 793b 0d3d d655 253c 7422 033d 2255 e53c
00000290: b044 143d 0228 5ebd 67d5 45bd 8066 ffbb
000002a0: 9845 40bc 9c14 873d cc38 4c3d 2059 4cbd
000002b0: d09e a33c a774 4ebb b135 2abd cc45 0b3d
000002c0: e344 4d3d 1b47 cdbc cb8f c9bc 1f7b 9dbc
000002d0: cb43 653b 502a 3abd 928b a93c dbdc c13c
000002e0: eb3e 81bc d485 ebbb d7e4 13bd a301 ac3c
000002f0: b7ac 1bbd 44d5 643c 9b5e cd3c 24a5 393d
00000300: a6ed 36bc 8301 253d ce0c f23c a2e3 01bc
00000310: e429 09bd 8ea5 bfbc 09e0 bdbc f71e 3dbd
00000320: 0b00 8f3b 2e37 f2bc ad60 82bd eb7b fd3b
00000330: fc79 783c 956e 323a cace 8bbb 745b 4dbd
00000340: c798 37bd 232a 3dbd c2e6 d0bc 657d cdbc
00000350: 2aac 81bd 34f5 a93a 2ee3 03bd 5225 023d
00000360: 34d9 31bd f34f e9bc 9296 1ebc a14d 9fbc
00000370: 2664 1e3d 470f 61bd dce4 1bbc 84d5 70bc
00000380: 24e1 143d d77b ff3c 318d e5bc 1ce7 f0bc
00000390: b589 093d 5b0a 663c 28c7 403d c805 793d
000003a0: 06c1 113d 24e7 803d 504c 98bd 5a3a a7bd
000003b0: 97ed a23b 5eb4 acbd 9855 d53c 73f0 233d
000003c0: 2d9f 21bd a109 5c3d f556 7ebb fb6c dd3c
000003d0: bc99 a1bc 4500 873c a19b d93c 669f 6f3d
000003e0: f4b8 15bd b13c cc3c 637e e73c 41d0 433d
000003f0: 0a2a 4cbd 0e93 0e3b 1fea 6ebd 5886 a63b

m_transform.0.6.bias f4 [96]
0.035554916 0.030777786 -0.031770516 -0.0136303175 0.024583066 0.05241565 0.00062635454 -0.013781309
-0.031328697 -0.034001227 -0.06466478 -0.016111564 -0.021113418 -0.03201284 -0.017000558 0.05339513
-0.041909445 0.046402566 -0.05481059 0.0069356575 0.044092167 -0.032102797 -0.021396603 -0.029645791
-0.04222212 0.016820846 0.049777213 -0.04901006 0.034932874 -0.0054870034 -0.04217515 -0.06695041
-0.033470973 -0.044568207 -0.042128444 -0.013752754 -0.013250736 -0.05190091 -0.0018262132 0.022428555
-0.05153734 0.056254223 0.036974996 0.029287554 -0.014163647 -0.0439402 0.032348465 0.08320148
0.04357811 -0.052274093 -0.05528479 -0.07693627 -0.03508391 -0.044335146 -0.012892834 -0.030204447
-0.0019680476 0.007993748 -0.027075673 -0.040854096 0.061421562 -0.0040830704 0.040683288 -0.03334657
-0.0065404978 -0.050666302 -0.056011662 -0.007918763 0.023838283 -0.02949625 -0.023645524 -0.013489474
-0.007386466 -0.048982628 -0.04543874 0.009303293 -0.040175945 -0.024585642 -0.0005237623 0.032730613
-0.035440627 0.05704928 -0.030421903 -0.068379715 -0.031195324 -0.0481772 -0.05766233 0.002506752
0.011163498 -0.03612518 -0.031944674 -0.0086278245 -0.06395516 -0.030860001 -0.08208339 0.016656643
00000000: 08a2 113d b221 fc3c cd21 02bd b251 5fbc
00000010: 6d62 c93c cbb1 563d f131 243a 00cb 61bc
00000020: 8552 00bd df44 0bbd f86e 84bd 66fc 83bc
00000030: 0cf6 acbc e51f 03bd c144 8bbc dab4 5a3d
00000040: 3da9 2bbd 9e10 3e3d 1281 60bd 8344 e33b
00000050: fd99 343d 397e 03bd ee47 afbc bbdb f2bc
00000060: 1af1 2cbd dfcb 893c 31e3 4b3d c6be 48bd
00000070: c615 0f3d 52cc b3bb dabf 2cbd 4c1d 89bd
00000080: dc18 09bd 278d 36bd e08e 2cbd 3b53 61bc
00000090: 9d19 59bc 0c96 54bd 8c5d efba 17bc b73c
000000a0: d118 53bd d46a 663d 1873 173d 74ec ef3c
000000b0: a40e 68bc a4fa 33bd d37f 043d 8a65 aa3d
000000c0: f67e 323d 5c1d 56bd 4e72 62bd c390 9dbd
000000d0: 25b4 0fbd c598 35bd 773c 53bc 516f f7bc
000000e0: 5cfa 00bb 36f8 023c cdcd ddbc a056 27bd
000000f0: 2d95 7b3d 47cb 85bb 85a3 263d 6a96 08bd
00000100: ac51 d6bb 7887 4fbd 7c6c 65bd b3bd 01bc
00000110: 8148 c33c 1fa2 f1bc 42b4 c1bc f402 5dbc
00000120: 2b0a f2bb 02a2 48bd f91d 3abd d76c 183c
00000130: 888f 24bd d467 c9bc 184d 09ba 8910 063d
00000140: 312a 11bd 81ac 693d 5b37 f9bc aa0a 8cbd
00000150: 568d ffbc 7555 45bd 562f 6cbd 5248 243b
00000160: 1be7 363c fff7 13bd 6bd8 02bd b85b 0dbc
00000170: ecfa 82bd 1dce fcbc 561b a8bd 8373 883c

m_transform.0.9.running_mean f4 [48]
1.0308608 1.2056559 0.8706053 0.81566167 1.0209 1.0207529 0.87286973 1.5230377
0.837043 0.9041427 0.9866695 0.82359195 0.91379964 1.3076043 1.0480354 1.079247
1.0020069 0.93766874 1.0072664 1.2473017 0.97174215 0.9048816 0.9376123 1.267191
0.8328433 0.8422151 0.76664394 0.9704731 1.6010989 0.84648794 1.1067612 0.8440892
0.8894388 0.7855803 1.0177219 0.89667547 0.86980605 0.74801 0.8325971 1.0145502
1.0882016 0.91340965 0.98953956 1.2756829 0.9336044 0.9127092 0.6541464 1.2109709
00000000: 3ff3 833f ef52 9a3f fddf 5e3f 34cf 503f
00000010: daac 823f 08a8 823f 6474 5f3f e6f2 c23f
00000020: 7348 563f e575 673f 5f96 7c3f ecd6 523f
00000030: c6ee 693f 945f a73f 0626 863f c424 8a3f
00000040: c341 803f 0f0b 703f 1bee 803f 95a7 9f3f
00000050: 18c4 783f 52a6 673f 5c07 703f 5133 a23f
00000060: 3835 553f 699b 573f c742 443f ed70 783f
00000070: cff0 cc3f 6fb3 583f 5aaa 8d3f 3b16 583f
00000080: 43b2 633f ca1b 493f b644 823f 868c 653f
00000090: 9cab 5e3f 957d 3f3f 1525 553f c8dc 813f
000000a0: 314a 8b3f 37d5 693f 7752 7d3f 9449 a33f
000000b0: b300 6f3f 4fa7 693f 2376 273f 1801 9b3f

m_transform.0.9.running_var f4 [48]
0.66060555 0.94720787 0.4012281 0.33400148 0.5314102 0.7263686 0.55645704 0.46573448
1.4121034 0.6561657 0.50129086 0.44966257 0.48814568 0.76119006 0.7606332 0.34034467
1.2870282 0.49895 1.138066 0.43442404 0.62044245 0.5893598 1.0758061 0.8697393
0.16554162 1.577509 0.5753499 0.9311861 0.41084778 0.56002957 0.9324283 0.62835157
0.46193558 0.5752581 0.89639413 0.58755594 1.0027583 2.1196444 0.51025325 0.44172794
0.54906136 1.1583518 1.3310561 0.34598976 0.56780225 2.123561 0.8059971 0.35004368
00000000: 721d 293f 377c 723f c56d cd3e 3e02 ab3e
00000010: 800a 083f 4bf3 393f f873 0e3f c074 ee3e
00000020: cebf b43f 7afa 273f 9954 003f 2c3a e63e
00000030: 3bee f93e 5add 423f dbb8 423f a841 ae3e
00000040: 57bd a43f 6076 ff3e 26ac 913f d46c de3e
00000050: 51d5 1e3f 49e0 163f 04b4 893f 3ca7 5e3f
00000060: be83 293e d1eb c93f 224a 133f 3662 6e3f
00000070: a45a d23e 195e 0f3f 9fb3 6e3f a6db 203f
00000080: d282 ec3e 1d44 133f 167a 653f 116a 163f
00000090: 625a 803f 41a8 0740 f59f 023f 2a2a e23e
000000a0: 498f 0c3f df44 943f 0c60 aa3f 9225 b13e
000000b0: 7d5b 113f 6ce8 0740 d355 4e3f ed38 b33e

m_transform.0.10.weight f4 [96, 48, 1, 1]
0.11591716 0.114837125 -0.061870307 -0.108098574 -0.09916788 0.10831433 0.07174553 -0.038177885
0.07474099 -0.09555359 -0.095371276 0.11144775 0.11545662 0.07730412 -0.0806439 0.011142769
0.058517303 0.07312093 0.04357224 -0.04534139 0.14020045 0.08825175 0.09927047 0.024779025
-0.077839404 0.11388796 0.13540672 0.022559093 -0.13456991 0.028696112 0.1533746 0.100726366
-0.1004116 0.14246823 -0.04349666 -0.07058248 0.07075125 -0.13471282 0.09639567 0.112850405
0.0055013048 -0.10302268 -0.07344403 0.070712864 -0.12789091 0.024658976 0.12323348 -0.0147482045
0.028120534 -0.068828344 -0.10519914 -0.00045581348 -0.022077033 0.119839884 -0.02283702 -0.07424709
-0.09290367 0.06617609 0.15385637 0.06085255 0.03754671 -0.064545944 0.018093022 -0.0684294
-0.04286063 -0.010891567 0.06815237 -0.03739022 0.14492369 0.018158522 0.067577146 -0.068411484
-0.081075676 0.06508835 -0.014303065 0.056038138 0.04069042 0.005766032 -0.02153921 -0.060840555
-0.0343007 -0.12947597 0.051498212 0.008065857 -0.10206809 -0.009897556 0.008911729 -0.09036934
-0.067184545 0.0638377 0.02180622 -0.062375467 0.047844037 -0.044817623 -0.08469779 0.1096444
0.044424992 0.09359074 -0.04473189 -0.040353596 -0.00087477604 -0.09638172 0.11122489 -0.0021403837
0.04670622 0.026436048 0.070769764 -0.075655155 -0.13864602 0.08843156 -0.010701281 -0.017165126
0.1262516 -0.12927298 0.044801172 -0.029804625 0.083667256 0.07307227 0.13647518 -0.098672636
0.022498576 -0.09535984 -0.010140799 0.12487466 0.10139417 -0.13796683 0.058353767 -0.023348264
-0.041800577 -0.05779895 -0.111228 -0.042067338 0.05310469 -0.017906139 -0.04195836 0.071593784
-0.1382846 -0.07011297 -0.084546275 0.07609924 0.0026481343 0.009156849 0.12016768 -0.12912421
-0.019633103 0.040103428 -0.033432268 0.08084815 -0.090765975 -0.04822438 0.10210543 0.021434907
-0.0007136035 0.14560004 -0.09632542 0.15501723 -0.031459957 -0.053241897 0.07755419 0.0073429258
-0.026863031 -0.0933476 0.08522406 -0.088983744 -0.06872797 0.12209697 0.037083637 -0.013641191
-0.1491727 -0.094936885 0.063556656 0.056755964 0.063883364 0.12959938 -0.03399856 -0.016869806
0.10628887 0.13463028 -0.15825489 -0.07385133 -0.06795731 0.03821403 0.10119681 -0.021154156
-0.011952476 -0.080358736 -0.062152144 0.0035348763 0.10828619 -0.0011818138 0.038169913 -0.17675075
-0.01746989 -0.11993471 -0.08065713 -0.08281147 0.012772332 -0.1309567 -0.058448114 -0.011637214
-0.007011713 0.1519524 -0.11114922 0.030469682 0.043454487 0.13228567 0.087740384 -0.062206645
0.013185239 -0.038849104 0.098829366 -0.06963718 0.10562375 -0.04997845 0.07280665 0.072018
0.10261424 -0.07602619 0.0030017172 0.05289711 0.13854152 -0.06566695 0.043524995 -0.066964015
-0.03164268 -0.09766265 -0.024228739 0.03997112 -0.0633308 -0.10248514 -0.110243686 0.12814397
0.09958961 0.002625618 -0.068501 -0.07600948 -0.081383534 0.012187588 0.13983984 0.08823864
-0.050302293 0.09750491 0.021390276 0.13352525 -0.11045676 0.05428002 0.01888432 -0.1603717
0.033448648 0.06455328 0.09579919 -0.090528324 -0.09513459 0.10347574 0.11501332 -0.115147255
00000000: fa65 ed3d ba2f eb3d b86b 7dbd c962 ddbd
00000010: 8818 cbbd e7d3 dd3d 52ef 923d 6a60 1cbd
00000020: ce11 993d 9ab1 c3bd 0452 c3bd b83e e43d
00000030: 8574 ec3d 9f51 9e3d a128 a5bd 2990 363c
00000040: d7af 6f3d 6dc0 953d ce78 323d e5b7 39bd
00000050: b590 0f3e 55bd b43d 514e cb3d 62fd ca3c
00000060: 446a 9fbd 173e e93d 0fa8 0a3e d9cd b83c
00000070: b2cc 09be 1c14 eb3c 3b0e 1d3e a049 ce3d
00000080: 99a4 cdbd 31e3 113e 8e29 32bd 8c8d 90bd
00000090: 08e6 903d 28f2 09be 186b c53d 1d1e e73d
000000a0: 4a44 b43b 8efd d2bd d369 96bd e8d1 903d
000000b0: d6f5 02be 9f01 ca3c d661 fc3d 74a2 71bc
000000c0: 095d e63c e0f5 8cbd a672 d7bd 40fa eeb9
000000d0: e5da b4bc 9d6e f53d b414 bbbc dc0e 98bd
000000e0: 4844 bebd 5487 873d 868c 1d3e 8640 793d
000000f0: 94ca 193d aa30 84bd d137 943c b724 8cbd
00000100: a18e 2fbd 8b72 32bc 7893 8b3d 7d26 19bd
00000110: e066 143e 2ec1 943c e365 8a3d 521b 8cbd
00000120: 010b a6bd 0a4d 853d 6757 6abc 3f88 653d
00000130: ffaa 263d fbf0 bc3b ff72 b0bc f233 79bd
00000140: e47e 0cbd 5995 04be caef 523d a826 043c
00000150: 1309 d1bd 5c29 22bc 8002 123c 8f13 b9bd
00000160: 0d98 89bd 57bd 823d f5a2 b23c 6b7d 7fbd
00000170: 1cf8 433d af92 37bd 0976 adbd 3e8d e03d
00000180: fbf6 353d 80ac bf3d c938 37bd d049 25bd
00000190: 3a51 65ba c763 c5bd e0c9 e33d ae45 0cbb
000001a0: 054f 3f3d 6990 d83c bdef 903d 17f1 9abd
000001b0: 39f9 0dbe 9b1b b53d 6d54 2fbc e19d 8cbc
000001c0: 1948 013e 2360 04be 6f81 373d d428 f4bc
000001d0: bd59 ab3d eaa6 953d 26c0 0b3e e114 cabd
000001e0: ef4e b83c 054c c3bd 9825 26bc 49be ff3d
000001f0: bfa7 cf3d 2d47 0dbe 5c04 6f3d dc44 bfbc
00000200: 1537 2bbd 97be 6cbd 81cb e3bd cd4e 2cbd
00000210: 4e84 593d e5af 92bc 87dc 2bbd c39f 923d
00000220: 7a9a 0dbe 6497 8fbd 9926 adbd ebd9 9b3d
00000230: 528c 2d3b 9c06 163c 791a f63d 2339 04be
00000240: 9ad5 a0bc 7e43 243d 46f0 08bd b793 a53d
00000250: 83e3 b9bd ed86 45bd a71c d13d 4298 af3c
00000260: 1f11 3bba 2d18 153e 4346 c5bd d6bc 1e3e
00000270: 28dc 00bd 2d14 5abd bbd4 9e3d ed9c f03b
00000280: dc0f dcbc 072d bfbd f489 ae3d 1c3d b6bd
00000290: 40c1 8cbd fa0d fa3d 03e5 173d 4d7f 5fbc
000002a0: bac0 18be 456e c2bd fe29 823d f178 683d
000002b0: 48d5 823d b3b5 043e 1342 0bbd 8c32 8abc
000002c0: fbad d93d 85dc 093e 920d 22be 5e3f 97bd
000002d0: 342d 8bbd 5186 1c3d 4640 cf3d 7b4b adbc
000002e0: 51d4 43bc 1f93 a4bd 3f93 7ebd 62a9 673b
000002f0: 26c5 dd3d 17e7 9aba 0e58 1c3d 26fe 34be
00000300: 041d 8fbc 54a0 f5bd 912f a5bd 0f99 a9bd
00000310: 0b43 513c 8319 06be 4a67 6fbd 03aa 3ebc
00000320: 83c2 e5bb 6999 1b3e 34a2 e3bd 8e9b f93c
00000330: 55fd 313d e575 073e 3bb1 b33d 65cc 7ebd
00000340: e706 583c 3d20 1fbd 0d67 ca3d f09d 8ebd
00000350: 4451 d83d 34b6 4cbd a71b 953d 2c7e 933d
00000360: 6a27 d23d 9eb3 9bbd 75b8 443b a4aa 583d
00000370: d4dd 0d3e 657c 86bd 4447 323d 6e24 89bd
00000380: c19b 01bd 5b03 c8bd 597b c6bc c2b8 233d
00000390: 94b3 81bd bbe3 d1bd 71c7 e1bd 2c38 033e
000003a0: a3f5 cb3d 8f12 2c3b 414a 8cbd dcaa 9bbd
000003b0: 69ac a6bd 73ae 473c 2d32 0f3e 76b6 b43d
000003c0: c709 4ebd a7b0 c73d a93a af3c d8ba 083e
000003d0: 2737 e2bd ba54 5e3d 4ab3 9a3c 7b38 24be
000003e0: 7301 093d 8334 843d 5e32 c43d ea66 b9bd
000003f0: edd5 c2bd 17eb d33d 1b8c eb3d 53d2 ebbd

m_transform.0.10.bias f4 [96]
-0.054994036 0.07432604 0.09822815 0.045533106 -0.110357486 -0.12537573 -0.076057404 -0.05201524
0.055532478 0.13903114 0.078710176 -0.070086226 0.024346724 0.0035046623 -0.115320496 0.036479454
-0.08126089 -0.10710325 -0.011570166 -0.030314807 0.012368486 -0.041759077 0.11925099 0.055515032
-0.086325295 -0.12017661 0.102474295 0.055049017 -0.09241848 -0.06604617 -0.1278422 -0.060096208
-0.0070934636 -0.07162428 0.10653864 -0.05310084 0.0028843796 -0.006155139 0.020216508 -0.060822755
-0.12066312 -0.041209675 -0.03317212 0.12997444 0.014757714 0.023134455 -0.12003377 -0.10890358
-0.085229516 -0.06726588 0.05445894 -0.074733704 -0.12387245 0.07957792 -0.059049185 -0.017573865
0.14839529 -0.030473324 0.12737574 -0.014633054 0.022852724 -0.16092491 0.02530327 -0.12361291
-0.06392359 0.04148532 -0.07403937 0.089825995 -0.0151577 0.024537034 -0.080564976 -0.06597299
-0.084976576 -0.15850446 -0.06077994 0.05629799 0.045235172 0.1218761 0.11325721 -0.1430325
0.1421042 -0.023196809 -0.12090542 0.008227662 0.08712077 0.065201975 0.12830575 -0.040084887
-0.024434488 0.14398701 0.087835744 -0.11939231 -0.076365 0.030869003 0.07273579 0.03494455
00000000: 6d41 61bd 4038 983d d72b c93d ec80 3a3d
00000010: 1b03 e2bd 7f62 00be fcc3 9bbd ef0d 55bd
00000020: 0676 633d 2e5e 0e3e cd32 a13d 5e89 8fbd
00000030: c872 c73c 7aae 653b 272d ecbd 7b6b 153d
00000040: 1c6c a6bd f358 dbbd cb90 3dbc c256 f8bc
00000050: 31a5 4a3c 910b 2bbd dd39 f43d bb63 633d
00000060: 51cb b0bd 281f f6bd 0bde d13d 147b 613d
00000070: e645 bdbd 3743 87bd 11e9 02be 7127 76bd
00000080: 4970 e8bb c0af 92bd ee30 da3d 4480 59bd
00000090: dc07 3d3b 0cb1 c9bb 179d a53c 4821 79bd
000000a0: 3a1e f7bd 7acb 28bd 7ddf 07bd 0518 053e
000000b0: 57ca 713c 7884 bd3c 44d4 f5bd d708 dfbd
000000c0: d08c aebd b2c2 89bd 5610 5f3d fc0d 99bd
000000d0: d7b0 fdbd c0f9 a23d 8fdd 71bd 11f7 8fbc
000000e0: eff4 173e 31a3 f9bc c96e 023e 7abf 6fbc
000000f0: a335 bb3c 80c9 24be ce48 cf3c c428 fdbd
00000100: 5fea 82bd 83ec 293d f4a1 97bd b1f6 b73d
00000110: 0058 78bc e401 c93c 40ff a4bd d91c 87bd
00000120: 3308 aebd fe4e 22be 63f4 78bd b998 663d
00000130: 8448 393d 2d9a f93d 65f3 e73d 1d77 12be
00000140: c383 113e 3c07 bebc 439d f7bd 51cd 063c
00000150: 606c b23d 9d88 853d 9562 033e 0d30 24bd
00000160: d62a c8bc 5571 133e 3ae3 b33d f583 f4bd
00000170: 4165 9cbd fee0 fc3c 80f6 943d 0422 0f3d

m_transform.0.12.running_mean f4 [48]
0.3664963 0.49723542 0.40058187 0.26685917 0.13300738 0.26383388 0.20031989 0.4258648
0.3758841 0.52537036 0.5921743 0.23779868 0.5185261 0.3229193 0.18311656 0.33170617
0.21756284 0.2558495 0.24524127 0.41391915 0.2659963 0.45418474 0.3515134 0.6117303
0.34670284 0.28757352 0.31356665 0.34622785 0.4168066 0.4159925 0.3545195 0.15226063
0.3063503 0.24563946 0.328072 0.29840624 0.25451338 0.46079552 0.27760074 0.305263
0.31435528 0.4774337 0.46887124 0.3877845 0.50958776 0.44986492 0.20652121 0.33855084
00000000: 67a5 bb3e a495 fe3e 1119 cd3e c4a1 883e
00000010: 1633 083e 3c15 873e a820 4d3e f30a da3e
00000020: e173 c03e ac7e 063f bc98 173f 7f81 733e
00000030: 20be 043f ae55 a53e e882 3b3e 64d5 a93e
00000040: cbc8 5e3e b5fe 823e 8720 7b3e 36ed d33e
00000050: ab30 883e e78a e83e 90f9 b33e 5b9a 1c3f
00000060: 0983 b13e d63c 933e cf8b a03e c744 b13e
00000070: ad67 d53e f8fc d43e 9483 b53e 36ea 1b3e
00000080: f2d9 9c3e e988 7b3e 0ef9 a73e b4c8 983e
00000090: 944f 823e 64ed eb3e af21 8e3e 6f4b 9c3e
000000a0: 2df3 a03e 3172 f43e e40f f03e b18b c63e
000000b0: 5874 023f b254 e63e 4c7a 533e 8956 ad3e

m_transform.0.12.running_var f4 [48]
0.7337044 0.18683204 0.2050175 0.21146022 0.20171028 0.32391748 0.1751146 0.19590503
0.2932442 0.19763312 0.59454495 0.115310274 0.14174886 0.18416493 0.16871125 0.20962411
0.22565313 0.3009738 0.23184948 0.13120203 0.20250946 0.30427682 0.17930269 0.1973987
0.4097558 0.5643204 0.15748015 0.20027441 0.4887397 0.12812477 0.2790604 0.26169735
0.5992653 0.46723184 0.24043372 0.1591814 0.21904813 0.14112733 0.7429345 0.25085762
0.20676987 0.29332858 0.24636558 0.31040975 0.26319227 0.16850372 0.13215567 0.4224363
00000000: 0dd4 3b3f e650 3f3e 1cf0 513e 0789 583e
00000010: 248d 4e3e 83d8 a53e 3e51 333e 549b 483e
00000020: 1b24 963e 5660 4a3e 1934 183f cb27 ec3d
00000030: 9d26 113e bb95 3c3e a4c2 2c3e b4a7 563e
00000040: 9d11 673e 3d19 9a3e f369 6d3e d359 063e
00000050: a45e 4f3e 2cca 9b3e 209b 373e e322 4a3e
00000060: 83cb d13e 4d77 103f 7a42 213e bc14 4d3e
00000070: 173c fa3e 2433 033e 01e1 8e3e 32fd 853e
00000080: 7369 193f 0339 ef3e 4234 763e 7300 233e
00000090: 274e 603e af83 103e f530 3e3f 6970 803e
000000a0: 7bbb 533e 2a2f 963e 4247 7c3e 07ee 9e3e
000000b0: 23c1 863e 3d8c 2c3e d153 073e 9249 d83e

m_transform.0.13.weight f4 [128, 48, 3, 3]
0.00037161732 0.037033334 -0.020407185 -0.021435877 -0.035995346 0.02082007 -0.039761644 -0.03385511
0.022108389 0.031598177 -0.01792657 0.00040758282 0.02010309 0.019220313 0.04946931 0.0247795
-0.0037054718 -0.0123123815 -0.00082241645 0.009305097 -0.026951058 -0.016091323 0.0392424 -0.04443703
0.036167696 0.007956767 -0.04917672 0.029075641 -0.07802653 -0.028357673 0.0353922 0.018338779
-0.0037462735 -0.057515472 -0.014144232 -0.045607254 -0.0065252637 0.027432984 -0.042941056 0.0025150666
0.023713792 0.025747914 -0.019820707 -0.017783005 0.0067137172 0.065157145 0.013209107 -0.062479928
0.03146699 -0.01582503 -0.026668984 -0.015109478 -0.05594874 -0.0483955 -0.0040613646 0.0066873245
0.0047622696 0.048777506 -0.015478274 0.0205768 0.0076803537 -0.029535932 -0.018754771 -0.0029552279
-0.0017486437 0.032245375 0.039177224 -0.004748669 -0.0077140164 -0.02992254 -0.009550355 0.001844823
0.041544348 -0.02232438 -0.01816244 0.024065224 0.033961833 0.009253403 -0.03161194 -0.038066383
-0.066933125 0.07222914 -0.0030780518 0.05656739 0.018077193 -0.0031368092 -0.037181962 0.0020112123
-0.0623585 -0.01705251 0.025653515 -0.0034093326 0.044834096 -0.020872023 0.041953262 0.021996925
-0.036452074 0.03372607 -0.015514066 0.012938348 0.03852086 0.0042910646 0.029785598 -0.0136431055
-0.017978527 -0.018037602 0.059720356 0.0002028504 -0.0026810528 0.004428127 0.033244908 0.051702272
0.024286065 0.015837999 0.07402457 -0.053227067 -0.0086513115 -0.061817635 0.009667888 -0.0066761575
-0.05765497 -0.0034734758 -0.023136027 -0.06934682 -0.01413175 -0.046332136 0.0120215425 0.0032425178
-0.0020102116 0.022606464 -0.008459078 0.007083631 -0.03648947 -0.03574537 0.024403824 -0.032432627
-0.048102617 0.061304566 -0.041050404 -0.042074002 0.06712476 -0.019270694 -0.013191553 0.013567046
-0.012183997 -0.0111820465 -0.0050692465 0.045348205 0.02387553 -0.021352481 -0.004245879 0.039267458
0.014314845 0.0040385355 0.024429169 -0.018940933 -0.04802836 -0.020761777 0.027715953 -0.034836266
-0.029637584 0.019044153 -0.004322279 -0.02859742 -0.0067913127 0.034190126 0.03837177 -0.0374587
-0.028197633 -0.021150721 0.026664427 -0.039549235 0.028758597 0.044986762 0.008080305 -0.049320094
0.010421071 -0.029560648 0.0052138036 -0.035084113 0.047854673 0.026109943 -0.022713978 0.052321017
-0.028752228 0.030300764 0.050538346 0.0361725 0.000232467 0.029950796 -0.017322738 0.026365008
-0.012193665 0.021400278 0.018272314 0.04232333 0.02956146 0.033542067 -0.001696539 -0.0013988542
-0.019298963 -0.03430864 -0.018219799 -0.035780136 -0.0142741185 -0.03440906 0.02960188 -0.04119748
-0.03329458 0.03390604 0.025851395 0.056318328 0.05042164 -0.019144595 0.006971165 0.05920795
-0.008862049 -0.00868256 0.055032235 -0.009197491 -0.04128913 0.047642462 -0.03347289 -0.03148302
0.025909198 0.04248477 -0.06079246 -0.026612706 0.054293618 -0.056105815 -0.025226586 -0.05039529
0.038286068 0.04752432 0.043662343 -0.027824929 -0.010562895 -0.015939461 0.018002959 -0.037809756
-0.012442877 -0.0161927 0.016174525 -0.03480917 -0.014508386 0.014711634 -0.029308496 0.0063081407
-0.017879838 0.010914298 0.055605356 0.008512299 -0.053383846 0.033888575 0.012634725 -0.056976125
00000000: a2d5 c239 44b0 173d f82c a7bc 4b9a afbc
00000010: db6f 13bd da8e aa3c 1bdd 22bd a8ab 0abd
00000020: a71c b53c 176d 013d beda 92bc d7b0 d539
00000030: 3caf a43c eb73 9d3c 55a0 4a3d 61fe ca3c
00000040: 80d7 72bb dfb9 49bc 6f97 57ba 6874 183c
00000050: 77c8 dcbc f3d1 83bc a4bc 203d 9a03 36bd
00000060: 9424 143d 1a5d 023c 876d 49bd 0a30 ee3c
00000070: 60cc 9fbd 5a4e e8bc 69f7 103d 353b 963c
00000080: 0a84 75bb 5895 6bbd 35bd 67bc acce 3abd
00000090: e1d1 d5bb 23bb e03c f6e2 2fbd d1d3 243b
000000a0: 6d43 c23c 4aed d23c 095f a2bc aaad 91bc
000000b0: befe db3b 1c71 853d 036b 583c f4ea 7fbd
000000c0: 88e3 003d 7ea3 81bc ea78 dabc be8d 77bc
000000d0: 822a 65bd 5c3a 46bd 3215 85bb 5821 db3b
000000e0: d00c 9c3b ecca 473d 9698 7dbc ad90 a83c
000000f0: 7aab fb3b 57f5 f1bc 9ba3 99bc 7fac 41bb
00000100: bf32 e5ba ba13 043d 4c78 203d b99a 9bbb
00000110: dcc5 fcbb 1d20 f5bc 1879 1cbc fdcd f13a
00000120: 682a 2a3d 9ee1 b6bc 66c9 94bc 6f24 c53c
00000130: 901b 0b3d 969b 173c 867b 01bd 7feb 1bbd
00000140: 3c14 89bd dfec 933d 24b9 49bb 35b3 673d
00000150: 9f16 943c ed92 4dbb 1d4c 18bd 8bce 033b
00000160: a06b 7fbd b5b1 8bbc 5227 d23c 1c6f 5fbb
00000170: f5a3 373d cefb aabc 2fd7 2b3d e532 b43c
00000180: c54e 15bd 5924 0a3d b62e 7ebc 5dfb 533c
00000190: 0dc8 1d3d 0f9c 8c3b ed00 f43c 5587 5fbc
000001a0: b447 93bc 98c3 93bc 559d 743d 3db4 5439
000001b0: 9ab4 2fbb d219 913b d02b 083d c3c5 533d
000001c0: 92f3 c63c b1be 813c 329a 973d a004 5abd
000001d0: 3bbe 0dbc 7d34 7dbd 1066 1e3c abc3 dabb
000001e0: 9e27 6cbd 41a3 63bb c487 bdbc b505 8ebd
000001f0: db88 67bc c4c6 3dbd 01f6 443c 6c80 543b
00000200: c1bd 03bb 3131 b93c f297 0abc ce1d e83b
00000210: fc75 15bd bd69 12bd 87ea c73c 13d8 04bd
00000220: 4007 45bd 7f1a 7b3d 7824 28bd ca55 2cbd
00000230: b578 893d 93dd 9dbc 6221 58bc 5148 5e3c
00000240: 639f 47bc e734 37bc ec1b a6bb 0abf 393d
00000250: 9e96 c33c 66eb aebc 0421 8bbb ead6 203d
00000260: d088 6a3c b155 843b ae1f c83c 042a 9bbc
00000270: 63b9 44bd 9a14 aabc 910c e33c 79b0 0ebd
00000280: 85ca f2bc 7c02 9c3c e7a1 8dbb 2345 eabc
00000290: a989 debb f20a 0c3d b82b 1d3d 4b6e 19bd
000002a0: b9fe e6bc 4744 adbc 5b6f da3c 61fe 21bd
000002b0: 2697 eb3c 0a44 383d 4163 043c de03 4abd
000002c0: 24bd 2a3c 2c29 f2bc 8ed8 aa3b 5cb4 0fbd
000002d0: 4303 443d 85e4 d53c aa12 babc 904e 563d
000002e0: cb89 ebbc 4f39 f83c 4c01 4f3d 9e29 143d
000002f0: 63c2 7339 5f5b f53c 6ae8 8dbc 6efb d73c
00000300: f0c7 47bc a34f af3c d2af 953c 3a5b 2d3d
00000310: e02a f23c 6863 093d 675e deba c259 b7ba
00000320: dc18 9ebc 3787 0cbd b041 95bc 318e 12bd
00000330: fedd 69bc 84f0 0cbd a47f f23c b0be 28bd
00000340: e65f 08bd 0fe1 0a3d 4ec6 d33c 0cae 663d
00000350: ec86 4e3d 20d5 9cbc 5f6e e43b 0984 723d
00000360: 2132 11bc 4c41 0ebc 7b69 613d 13b1 16bc
00000370: ca1e 29bd be24 433d de1a 09bd 57f4 00bd
00000380: 873f d43c 8304 2e3d 8401 79bd e402 dabc
00000390: fc62 5e3d 36cf 65bd fca7 cebc 4b6b 4ebd
000003a0: dad1 1c3d dda8 423d 49d7 323d 1bf1 e3bc
000003b0: fe0f 2dbc 7993 82bc f17a 933c 67de 1abd
000003c0: 35dd 4bbc 8ea6 84bc 7080 843c 0f94 0ebd
000003d0: 95b4 6dbc 1109 713c 5f18 f0bc 85b4 ce3b
000003e0: bd78 92bc e2d1 323c 71c2 633d 2b77 0b3c
000003f0: 05a9 5abd bfce 0a3d e101 4f3c cc5f 69bd
