Auxillary_Code/LCNN/project/03-asvspoof-mega/lfb-lcnn-attention-p2s/04/__pretrained/trained_network.pt (torch, 775181 bytes, 35 tensors)

m_frontend.0.lfcc_fb f4 [257, 60]
00000000: 0000 0000 0000 0000 0000 0000 0000 0000
00000010: 0000 0000 0000 0000 0000 0000 0000 0000
00000020: 0000 0000 0000 0000 0000 0000 0000 0000
00000030: 0000 0000 0000 0000 0000 0000 0000 0000
00000040: 0000 0000 0000 0000 0000 0000 0000 0000
00000050: 0000 0000 0000 0000 0000 0000 0000 0000
00000060: 0000 0000 0000 0000 0000 0000 0000 0000
00000070: 0000 0000 0000 0000 0000 0000 0000 0000
00000080: 0000 0000 0000 0000 0000 0000 0000 0000
00000090: 0000 0000 0000 0000 0000 0000 0000 0000
000000a0: 0000 0000 0000 0000 0000 0000 0000 0000
000000b0: 0000 0000 0000 0000 0000 0000 0000 0000
000000c0: 0000 0000 0000 0000 0000 0000 0000 0000
000000d0: 0000 0000 0000 0000 0000 0000 0000 0000
000000e0: 0000 0000 0000 0000 0000 0000 0000 0000
000000f0: 0000 743e 0000 0000 0000 0000 0000 0000
00000100: 0000 0000 0000 0000 0000 0000 0000 0000
00000110: 0000 0000 0000 0000 0000 0000 0000 0000
00000120: 0000 0000 0000 0000 0000 0000 0000 0000
00000130: 0000 0000 0000 0000 0000 0000 0000 0000
00000140: 0000 0000 0000 0000 0000 0000 0000 0000
00000150: 0000 0000 0000 0000 0000 0000 0000 0000
00000160: 0000 0000 0000 0000 0000 0000 0000 0000
00000170: 0000 0000 0000 0000 0000 0000 0000 0000
00000180: 0000 0000 0000 0000 0000 0000 0000 0000
00000190: 0000 0000 0000 0000 0000 0000 0000 0000
000001a0: 0000 0000 0000 0000 0000 0000 0000 0000
000001b0: 0000 0000 0000 0000 0000 0000 0000 0000
000001c0: 0000 0000 0000 0000 0000 0000 0000 0000
000001d0: 0000 0000 0000 0000 0000 0000 0000 0000
000001e0: 0000 f43e 0000 0000 0000 0000 0000 0000
000001f0: 0000 0000 0000 0000 0000 0000 0000 0000
00000200: 0000 0000 0000 0000 0000 0000 0000 0000
00000210: 0000 0000 0000 0000 0000 0000 0000 0000
00000220: 0000 0000 0000 0000 0000 0000 0000 0000
00000230: 0000 0000 0000 0000 0000 0000 0000 0000
00000240: 0000 0000 0000 0000 0000 0000 0000 0000
00000250: 0000 0000 0000 0000 0000 0000 0000 0000
00000260: 0000 0000 0000 0000 0000 0000 0000 0000
00000270: 0000 0000 0000 0000 0000 0000 0000 0000
00000280: 0000 0000 0000 0000 0000 0000 0000 0000
00000290: 0000 0000 0000 0000 0000 0000 0000 0000
000002a0: 0000 0000 0000 0000 0000 0000 0000 0000
000002b0: 0000 0000 0000 0000 0000 0000 0000 0000
000002c0: 0000 0000 0000 0000 0000 0000 0000 0000
000002d0: 0000 373f 0000 0000 0000 0000 0000 0000
000002e0: 0000 0000 0000 0000 0000 0000 0000 0000
000002f0: 0000 0000 0000 0000 0000 0000 0000 0000
00000300: 0000 0000 0000 0000 0000 0000 0000 0000
00000310: 0000 0000 0000 0000 0000 0000 0000 0000
00000320: 0000 0000 0000 0000 0000 0000 0000 0000
00000330: 0000 0000 0000 0000 0000 0000 0000 0000
00000340: 0000 0000 0000 0000 0000 0000 0000 0000
00000350: 0000 0000 0000 0000 0000 0000 0000 0000
00000360: 0000 0000 0000 0000 0000 0000 0000 0000
00000370: 0000 0000 0000 0000 0000 0000 0000 0000
00000380: 0000 0000 0000 0000 0000 0000 0000 0000
00000390: 0000 0000 0000 0000 0000 0000 0000 0000
000003a0: 0000 0000 0000 0000 0000 0000 0000 0000
000003b0: 0000 0000 0000 0000 0000 0000 0000 0000
000003c0: 0000 743f 0000 0000 0000 0000 0000 0000
000003d0: 0000 0000 0000 0000 0000 0000 0000 0000
000003e0: 0000 0000 0000 0000 0000 0000 0000 0000
000003f0: 0000 0000 0000 0000 0000 0000 0000 0000
0.0 0.0 0.0 0.0 0.0 0.0 0.0 0.0
0.0 0.0 0.0 0.0 0.0 0.0 0.0 0.0
0.0 0.0 0.0 0.0 0.0 0.0 0.0 0.0
0.0 0.0 0.0 0.0 0.0 0.0 0.0 0.0
0.0 0.0 0.0 0.0 0.0 0.0 0.0 0.0
0.0 0.0 0.0 0.0 0.0 0.0 0.0 0.0
0.0 0.0 0.0 0.0 0.0 0.0 0.0 0.0
0.0 0.0 0.0 0.0 0.23828125 0.0 0.0 0.0
0.0 0.0 0.0 0.0 0.0 0.0 0.0 0.0
0.0 0.0 0.0 0.0 0.0 0.0 0.0 0.0
0.0 0.0 0.0 0.0 0.0 0.0 0.0 0.0
0.0 0.0 0.0 0.0 0.0 0.0 0.0 0.0
0.0 0.0 0.0 0.0 0.0 0.0 0.0 0.0
0.0 0.0 0.0 0.0 0.0 0.0 0.0 0.0
0.0 0.0 0.0 0.0 0.0 0.0 0.0 0.0
0.4765625 0.0 0.0 0.0 0.0 0.0 0.0 0.0
0.0 0.0 0.0 0.0 0.0 0.0 0.0 0.0
0.0 0.0 0.0 0.0 0.0 0.0 0.0 0.0
0.0 0.0 0.0 0.0 0.0 0.0 0.0 0.0
0.0 0.0 0.0 0.0 0.0 0.0 0.0 0.0
0.0 0.0 0.0 0.0 0.0 0.0 0.0 0.0
0.0 0.0 0.0 0.0 0.0 0.0 0.0 0.0
0.0 0.0 0.0 0.0 0.71484375 0.0 0.0 0.0
0.0 0.0 0.0 0.0 0.0 0.0 0.0 0.0
0.0 0.0 0.0 0.0 0.0 0.0 0.0 0.0
0.0 0.0 0.0 0.0 0.0 0.0 0.0 0.0
0.0 0.0 0.0 0.0 0.0 0.0 0.0 0.0
0.0 0.0 0.0 0.0 0.0 0.0 0.0 0.0
0.0 0.0 0.0 0.0 0.0 0.0 0.0 0.0
0.0 0.0 0.0 0.0 0.0 0.0 0.0 0.0
0.953125 0.0 0.0 0.0 0.0 0.0 0.0 0.0
0.0 0.0 0.0 0.0 0.0 0.0 0.0 0.0

m_transform.0.0.weight f4 [64, 1, 5, 5]
00000000: 26d5 8bbd 02e4 4f3d c891 963c 2d9c 98bd
00000010: fdee adbd f0b9 553d fdb1 b4bc a03d 9ebc
00000020: a0b0 41bd 56f2 1d3d f484 7dbd 43b3 30bc
00000030: 46bc 07bb 1da0 10be 0894 8b3d 64db 39be
00000040: 46c2 883d cf86 19be 3570 d4ba 34e5 43be
00000050: 2f7b 4bbe 64be d23d 9d41 0abe 664e 15be
00000060: 8d74 25bd 0fe6 d1bc 788e 5c3d b12e 36bd
00000070: d16b bbbd 7ff6 343d fed6 003e 86f9 e9bd
00000080: edc9 3e3d 57aa 2a3e f9f5 063e 4d77 4b3e
00000090: 2fb3 62bd df57 e93c 69bc cabd ccc2 a33b
000000a0: 68cb efbc 5c12 4ebe 312c 4bbd abbd 1e3e
000000b0: 5232 1c3e 9070 563d f93c 253e cbda 49be
000000c0: 4128 b63c a6d0 9dbd e9b8 3f3e b938 ad3d
000000d0: 7f44 243e 2a4d ae3d 1678 e5bd 940f 0dbe
000000e0: 8a67 5ebe 08a4 8a3d 59fd 053e 7c91 123e
000000f0: 988d 1a3d c489 c1bd e1a9 72b5 bc70 45be
00000100: 04d1 823d ccc2 f23c bf0f 36be dd67 7fbc
00000110: 51e3 4d3d f688 d73b bd95 0cbe c6a9 e0bc
00000120: 5136 b53d 9ad5 943c d45a 363e 65e2 f73d
00000130: 067c 47be 8c63 6b3d a9da 88bd a38a 753d
00000140: 3f87 b53d cbc2 2abe fe29 943d 938e 003e
00000150: 3d63 47be 6d0f 55bd a969 00be 38fc 1f3e
00000160: 5ccc 0a3e 0f43 9ebb 65db f4bd 0936 60be
00000170: 9d0d 26be 7f93 48bd e760 bb3d 3629 44be
00000180: 7f5a fd3c 75d3 ee3d 6d8c bbbd 2816 493e
00000190: d616 48be b7d5 2a3e 438c 9bbc aaba b93d
000001a0: b4b0 a03c 29dd e23c 9e29 adbb a4ae 1ebd
000001b0: 0d21 52be d29d 9dbc f98c 1a3e b58a ab3c
000001c0: 3582 3f3e 2087 d63d 32e2 0bbe 685c 233d
000001d0: a4a2 823d dc91 e53d f926 20be c8dd 61bd
000001e0: f85f 193b a019 71bd b186 2b3e 784a 40be
000001f0: 3905 44be 3cdf d4bc cd23 193e 8717 b2bd
00000200: 3d8f 11be e5b7 95bc 0a77 f1bc 0a1c ccbd
00000210: 5613 dfbd 2e7d 07bd 606a d33a 7e63 76bc
00000220: 2d27 393e 9a54 c3bd 4449 083d b588 003e
00000230: a941 5d3e 47ab 1fbe 8628 f23d 61bd 8f3d
00000240: 4afb 1c3e aabc 313e c084 f83d 25db 8dbd
00000250: 7bb5 eabd 376f 23bd 51db 013d 1ac8 dc3d
00000260: 55ed afbc b231 b9bd a468 1b3e c161 e03d
00000270: 0e15 fbbc 33f3 413e 19f0 063e 179b 38be
00000280: b2de 19be 7af7 0bbe ad88 e9bc aac0 44be
00000290: e7c2 473e df91 ca3d 8b54 18be 9e0b 323d
000002a0: 5a23 333e eed6 063d 948d d03d 7cee 383e
000002b0: 5e4e 17be 820c 263d 3232 8a3d 2131 17be
000002c0: efbd 3b3d f386 bdbd 92d1 e83d db50 74bd
000002d0: aa4f f4bd 8a74 223e 78ca 6d3e 6b2f c2bd
000002e0: f00d 26be 4dd9 2c3d 1f80 a23c 1577 7ebd
000002f0: 3e67 ee3d 62d0 e0bd 3e5c 7a3c ff9b 373e
00000300: 4046 72bd d25f bcbd 112c 933d 33eb f93d
00000310: e072 0d3e 51ec 0a3e 3ba3 bbbc 0a19 24be
00000320: 29a1 12be 0a4b 113d f1ce 393e ccc8 ccbd
00000330: dbfd ba3d 6824 b9bd f50b 343e 755c bf3d
00000340: 5bf7 053d 60aa a6bc 7a21 93bd bef3 c3bd
00000350: 3db9 a1bd b698 083d fbae 99bd 938a e13d
00000360: 8321 e9bd 1cd5 363d 55d3 b83d faf0 0d3c
00000370: f74e 173d bc2e 0cbe 3ef0 953c 2a64 c13c
00000380: 305d 4b3e 10c8 203d 9b4b 0abe 83cd b6bc
00000390: 43c7 223e 04b1 d5bd 1648 dcbd 4c00 b9bb
000003a0: adf9 103e 9769 b73c 05e0 003e 6819 a1bd
000003b0: c078 c6bd bcd3 393c 2e43 49be 6193 1bbe
000003c0: 10c3 43bd 46c4 21bd 5703 993d ecc0 18be
000003d0: e061 50be 5860 3ebe b587 033e 948d 2a3e
000003e0: b8be 573d 7608 15be 7258 5abe 03fc d6bd
000003f0: 39aa c0bd 3093 06bd 1876 c9bd 37c0 6f3e
-0.06827764 0.050754555 0.01838006 -0.07451663 -0.08492849 0.052179277 -0.022057528 -0.019316494
-0.047287583 0.038561188 -0.061894372 -0.010784927 -0.0020711585 -0.14123578 0.06815344 -0.18150097
0.0667768 -0.14992832 -0.0016207757 -0.19130403 -0.1987121 0.102902204 -0.13501592 -0.14580688
-0.040394355 -0.025622396 0.053846806 -0.044478122 -0.09151424 0.04418039 0.12582013 -0.11424546
0.04657929 0.16666542 0.13179769 0.19869728 -0.055346664 0.028484283 -0.09899218 0.004997587
-0.029271796 -0.20124191 -0.04960269 0.1550204 0.1525357 0.05235344 0.1613654 -0.19712369
0.022235991 -0.07705812 0.18722881 0.084580846 0.16041754 0.085108116 -0.11204545 -0.13775474
-0.21719185 0.06769568 0.13084926 0.1431331 0.03773269 -0.09450105 -9.039923e-07 -0.19281286
0.06387523 0.029633902 -0.17779444 -0.015588728 0.050265614 0.0065776063 -0.13728996 -0.027424704
0.08848251 0.01816826 0.17808086 0.12103728 -0.19480905 0.057467982 -0.06682331 0.059946667
0.08863687 -0.1667587 0.07234572 0.12554388 -0.1947145 -0.052016664 -0.12540306 0.15623558
0.1355452 -0.0048297714 -0.11955909 -0.21895613 -0.1621613 -0.04896879 0.09149342 -0.19156346
0.030926941 0.11661426 -0.091576435 0.19637358 -0.19539961 0.16683088 -0.01898778 0.090688065
0.019615509 0.027693348 -0.005284502 -0.03874077 -0.2052042 -0.019240294 0.1509284 0.020940164
0.18702014 0.10474992 -0.13660505 0.039883047 0.063786775 0.11209461 -0.15639867 -0.055143148
0.002340315 -0.05886233 0.167506 -0.18778408 -0.19142617 -0.025985353 0.14955063 -0.08695894
-0.14214797 -0.018276164 -0.029475708 -0.099662855 -0.1089236 -0.033078365 0.0016129725 -0.015038369
0.1808135 -0.09537621 0.033272997 0.1255215 0.21607079 -0.15592681 0.118241355 0.07018543
0.15330234 0.17357126 0.12134695 -0.06926564 -0.11460396 -0.039900985 0.031703297 0.10780354
-0.021475473 -0.09042682 0.15176636 0.10956145 -0.030649688 0.1894043 0.13177527 -0.18027912
-0.15026358 -0.13668624 -0.028507555 -0.1921412 0.19507943 0.09891104 -0.14876 0.04346811
0.17493954 0.032919817 0.10183254 0.18059725 -0.14775988 0.040539272 0.06747855 -0.14764835
0.04583543 -0.09254255 0.11368097 -0.059647422 -0.11929257 0.15864769 0.23221767 -0.094817005
-0.16216254 0.04219942 0.019836484 -0.062125284 0.11640786 -0.10977246 0.015280781 0.17930602
-0.059149027 -0.09197964 0.071861394 0.12203064 0.13813353 0.1356671 -0.022904983 -0.16025177
-0.1431929 0.035471953 0.18145348 -0.099992365 0.0913045 -0.09040147 0.17582686 0.09343807
0.0327066 -0.020344913 -0.071841195 -0.095679745 -0.078966595 0.03334876 -0.07504078 0.11012759
-0.11383345 0.04463683 0.090246834 0.00866341 0.03694054 -0.13689703 0.018303033 0.023607332
0.19859767 0.039253294 -0.13505404 -0.022314792 0.15896325 -0.10434154 -0.10755937 -0.0056457873
0.14157744 0.022389216 0.12585457 -0.07866174 -0.09691 0.011341985 -0.19654533 -0.1519294
-0.047793448 -0.03949382 0.0747134 -0.14917344 -0.20349836 -0.1859144 0.12844737 0.1665557
0.052672118 -0.14554009 -0.21322802 -0.10497286 -0.094074674 -0.032855213 -0.09836978 0.23413168

m_transform.0.0.bias f4 [64]
00000000: d58c d83c f6fa dabd 4549 21bd 57cb 253e
00000010: 1c11 c1bc cc00 2abe 69b1 9b3d 9716 bbbd
00000020: 5e54 4dbe 10ef cebd 05db ec3d 0925 083e
00000030: be8a 413e e332 8fbd c8e3 39be a1c8 553e
00000040: c70a 943d 4b24 c83c 4f6d dc3d 6cd7 13bd
00000050: 8cef eb3d d93b 2a3d c0cb 4ebc c8b3 09bd
00000060: af17 0e3e 05b2 c8bd 0c6e f4b9 2f42 7538
00000070: a8b2 e43b b595 353e 1745 143e 7803 403d
00000080: 855b af3d 4e0b e8bd 8364 3bbe 05ad 833d
00000090: cecf 29be bec0 7d3d b2bd 9d3d 22a7 72bd
000000a0: d42b 993d b69c 023b 1a8b a5bd 7084 003e
000000b0: 7779 1e3e cd1d e6bd 8726 4bbd 6e0c 43be
000000c0: e64a 32be 9281 8cbd f008 30bd 5f03 04bd
000000d0: f383 3f3e d8b9 933d 534b 4cbd 6876 d3bd
000000e0: f743 c53d 7485 5d3d c323 593c 9106 063d
000000f0: 14bf 273e 1e3a b9bc 9db7 a43d 1ff2 1c3e
0.026434341 -0.10692398 -0.039376516 0.16190849 -0.023567729 -0.16601866 0.07602198 -0.09135168
-0.20051715 -0.10104191 0.11565212 0.13295378 0.18900582 -0.06992128 -0.18153298 0.20877315
0.07228618 0.024431368 0.107630365 -0.036094114 0.11520299 0.04156098 -0.01262182 -0.03361872
0.13876222 -0.097995795 -0.00046621298 5.847419e-05 0.0069793053 0.1773289 0.1447948 0.046878308
0.08562378 -0.11330281 -0.18300061 0.06429485 -0.16583177 0.06195139 0.07702197 -0.05924142
0.07479063 0.0019929833 -0.08083172 0.12550521 0.15476023 -0.11236153 -0.04959729 -0.1904771
-0.17411384 -0.06860651 -0.042977273 -0.032229777 0.18702678 0.07213181 -0.049876522 -0.103253186
0.09632104 0.05408235 0.013253155 0.032721106 0.16381484 -0.02261072 0.08042834 0.15326737

m_transform.0.3.weight f4 [64, 32, 1, 1]
00000000: 419c 12be b433 1f3d 2bea 833c abbd ca3d
00000010: c12b df3d ce1c fcbd f5b3 86bd 2a30 f03c
00000020: 8e71 06be a77e 0fbd 5272 243e bf41 02be
00000030: 45ad 03be 77eb b8bc 5fb8 9c3d bd74 003e
00000040: 3427 0d3e 6bbf f3bd b08a f2bd 53d2 203e
00000050: f148 c43d 7f52 f63d c264 09bc c6e3 32be
00000060: f28a 28be 3284 0dbe 0f55 e6bd 0794 61bd
00000070: 7c85 313c 5b59 a0bd 73cc 1f3e 7e7d 2d3e
00000080: 95e5 33be 8db2 c2bd 2d71 223e 927d 763d
00000090: c170 00be 949a 913d 5dd8 f73d cd0b e53d
000000a0: 8ea9 d9bc d413 d23d 8111 c3bd ddf6 8b3d
000000b0: 05d7 8d3d 9f94 fc3d 65ba 0d3e f8d0 9d3d
000000c0: 4d87 293e 5c88 42be 520f a3bd fce8 59bd
000000d0: 3c7d 33be b8e5 4dbd 87fe 1dbe efeb c6bc
000000e0: da73 39bd 8fdf ba3d 2999 823d 1d52 913d
000000f0: d0f3 953d 91d4 a53d f1bb 863b f87e 2b3e
00000100: 49ce 1c3e 8a67 0d3e 54de 763d 7adf db3d
00000110: 4a1e 023e 38f4 253d 9a77 86bd 7b05 993d
00000120: 394b 21be ccf5 87bd 364b 54bd 4c42 c1bd
00000130: 162b 1c3e 660e febd 21bf 0f3d 6748 86bd
00000140: 888b 33bd 8ec8 01be 9af9 ffbd d11d 043e
00000150: 337a 83bc fbf5 753d 666d 22be 6cd4 d23d
00000160: 58ff 843d 24cc 1f3e bd2c 223e 8bd3 423e
00000170: cea3 fa3d 8db8 ca3d 8783 3a3e b464 f0bd
00000180: 47fb 83bd 1d5b 073e 5ad4 10bd ffee f7bd
00000190: a5f6 bb3d d2d0 21be 6d3a ed3d 8adc 613d
000001a0: eb30 9a3b d24a 043e 0dd6 acbd 71dd 6ebd
000001b0: 6f6e 193d 140a d1bd de9d af3d 79d1 56bb
000001c0: edd3 97bd 8cd4 a03c 819e 90bd d804 bb3d
000001d0: a2d1 03be c992 c83d 2d76 bfbd 616a 1dbe
000001e0: 1300 223e a6d3 1f3e cad8 20be c279 6abd
000001f0: 3b58 6a3d e4a0 c0bd 717b 0fbe db40 ed3d
00000200: d814 d33d 091c 033d cfb9 ffbc cf25 1dbd
00000210: 870e b23d bffe 273e 5da4 a0ba e57a 103e
00000220: 812b a7bd f066 c33c 8e0a 88bd 25b3 f1bd
00000230: 0b2c 53bd 67c1 1bbd 88fa a8bd 765d fe3d
00000240: baec e7bd ddb7 d03d eed2 223e 20b2 0bbe
00000250: 014e 73bd e843 ccbb 316c 2c3e 2819 88bd
00000260: b0d9 b5bd 90ba 1fbe b5f0 21be 2f75 0b3c
00000270: bf2d fb3a 1017 79bd ddf6 093e 6117 59bd
00000280: f392 043c b42b d83d 5447 e73d 4943 23be
00000290: f97b 86bb 2c6b b0bd 8293 6ebd 826f 183e
000002a0: f6d1 92bd 704e 21bd 1f06 cfbd b003 253b
000002b0: 2255 0cbe 74fa 063d 5599 2ebe 4fb9 d9bc
000002c0: cb4d 08be a56b 80bd 9cd6 503d 980c 35be
000002d0: bd7c efbd 1379 153e 0540 31bd f35c 90bc
000002e0: c02b 073e 5204 043e e143 febd 72b4 34bd
000002f0: 0f8b debc d929 fd3d 4ab3 2f3d 9c69 1abe
00000300: 485f bc3d 4a0a c1bd fa8b 7fbd 9cc5 f7bd
00000310: 552a 51be e31b c6bd 694f c23d aa4e 34be
00000320: 50b3 bdbc 17aa 1a3e 7233 cb3c 4cdb 2c3d
00000330: 7ee6 cd3d e69e 37be b405 383d 9fc7 32bd
00000340: 0e0e 073e 2372 ce3d 9117 acbd 0f88 723d
00000350: 6ab2 c83d 133e a7bd d49b 3a3d 7c6a f03d
00000360: 62a7 1c3e a03f 24bd c1d0 2dbd b53a 1bbd
00000370: 8d65 b93d 665a 3bbe b994 14be 5093 bbbc
00000380: 2c86 bebd b1af 133e 420a 9ebd 9b7f 1ebe
00000390: dafb 13be 41ee e03c 5908 903d 28b1 f13d
000003a0: 9b82 ef3d 9a4d fd3c 12f9 e53d 8e8b 0bbe
000003b0: f94f 333e 9dfc 2abe 2359 8d3c a07f 023e
000003c0: faa4 fe3d e23a bf3b 33e9 403d 7503 58bd
000003d0: a4a1 a1bd 74f2 57bd e522 f33c 286f 183d
000003e0: 8ba3 bbbd 7c43 9cbd d79b 98bc c72c 82bc
000003f0: 6775 09be 3573 f43d 6cc2 a7bd 2293 0dbe
-0.14317419 0.038867667 0.01610287 0.098994575 0.10897017 -0.123101816 -0.06577293 0.029319841
-0.13129255 -0.035032894 0.16059235 -0.12720393 -0.12859066 -0.022573216 0.076523535 0.12544532
0.13784486 -0.119017445 -0.11842859 0.15705232 0.09584225 0.12027454 -0.008385839 -0.17469701
-0.16459253 -0.1381996 -0.112466924 -0.05507281 0.010835048 -0.07829543 0.15605335 0.16942403
-0.17568047 -0.09506712 0.15863486 0.060178347 -0.12543012 0.071095616 0.12101815 0.111838914
-0.026570108 0.10257688 -0.09524823 0.06834195 0.06925777 0.12333035 0.13840635 0.07705873
0.1655552 -0.1899733 -0.079619065 -0.053200707 -0.17528242 -0.050267905 -0.15429126 -0.024282424
-0.0452765 0.09124672 0.06376869 0.0709574 0.07321894 0.080971844 0.00411176 0.16747653
0.15313067 0.13809028 0.060270622 0.10735984 0.12706867 0.04051611 -0.06565781 0.074717484
-0.15751351 -0.06638679 -0.05182954 -0.09436473 0.15250811 -0.1240509 0.035094384 -0.065567784
-0.04383424 -0.12674162 -0.124987796 0.12901999 -0.01604948 0.06004904 -0.15862045 0.102944225
0.064940155 0.15605217 0.15837379 0.1902601 0.122382745 0.098984815 0.18214236 -0.117379576
-0.06444412 0.1321835 -0.035358764 -0.12106132 0.09177903 -0.15802315 0.115834095 0.055141963
0.0047055385 0.12919167 -0.084392644 -0.05831665 0.037458833 -0.102070004 0.08575033 -0.0032778664
-0.074134685 0.0196326 -0.07061482 0.09131783 -0.12872937 0.09793622 -0.09348712 -0.15372612
0.15820341 0.15608081 -0.15707698 -0.057245024 0.05721305 -0.094056875 -0.14011933 0.11584636
0.1030671 0.03200916 -0.03121653 -0.038366135 0.08694177 0.16405772 -0.0012256015 0.1410938
-0.081625946 0.023852795 -0.06642638 -0.11801747 -0.051555675 -0.03802624 -0.0825091 0.1242017
-0.11324449 0.10191319 0.15900776 -0.13642168 -0.059400562 -0.006233681 0.16838147 -0.06645423
-0.08879411 -0.15598512 -0.15814479 0.008511825 0.0019163414 -0.06081301 0.13473077 -0.05300081
0.008091676 0.10555211 0.11292902 -0.15943636 -0.004104134 -0.086141914 -0.058246143 0.14886287
-0.07168953 -0.039381444 -0.101085894 0.00251792 -0.1370435 0.032953694 -0.17050679 -0.02657762
-0.13310926 -0.062705316 0.050985917 -0.17680585 -0.11693714 0.14596967 -0.043273944 -0.017622447
0.13200283 0.12892273 -0.124152906 -0.0441174 -0.027165918 0.123614974 0.042895593 -0.1507935
0.09197861 -0.094257906 -0.06238935 -0.12098238 -0.20426305 -0.09673288 0.094878025 -0.17608133
-0.023156792 0.15103947 0.024804804 0.042201325 0.100537285 -0.17931709 0.044927314 -0.043647405
0.13188955 0.100803636 -0.084029324 0.059211787 0.09799655 -0.081661366 0.045558766 0.1173906
0.15298226 -0.04009974 -0.04243541 -0.037897784 0.090525724 -0.18296203 -0.14509858 -0.022897393
-0.09302935 0.1442249 -0.077168 -0.15478365 -0.14451542 0.027457358 0.07032842 0.11801368
0.11694833 0.030920792 0.11229147 -0.13627455 0.17510976 -0.16697927 0.017254418 0.12743998
0.124338105 0.005835877 0.047097396 -0.052737672 -0.07892159 -0.052721456 0.029679725 0.03721538
-0.09162053 -0.07630059 -0.018628998 -0.015890492 -0.13423692 0.119360365 -0.0819138 -0.13825658

m_transform.0.3.bias f4 [64]
00000000: 85b5 12be 1da5 e53d 7a7b 35bb 2b0b 89bc
00000010: d5d5 16be aba7 123e 6519 a5bd 5146 bf3d
00000020: a3f9 91bd 2622 0a3e 56c8 11be 17bf c6bd
00000030: 0d26 5ebd f08b 943c d837 2d3e b379 3cbd
00000040: a9da f6bd e3bd 20be b697 2d3e 6f81 f4bd
00000050: 2550 1cbc 91f6 1ebc 9637 343e 264a c1bd
00000060: e8ac 143e 61a7 dabd be84 0bbe 0fed 833d
00000070: 3138 863d a178 cd3d b342 b6bd 7f97 c9bd
00000080: 9254 643d be5a 0ebe 927a 89bd 7cc3 f23d
00000090: 1a06 1cbe 1b07 9f3d 4c7d afbd a7bf cbbd
000000a0: 9b20 20bd ff2e bcbd aecf 2e3e e089 ad3d
000000b0: 212f 1b3e a662 493d 96cf 063d eece 5d3d
000000c0: 8441 34bd 7b15 13bd 7ee5 06be 5184 03be
000000d0: 26e5 323e 3feb 0f3e 82af c9bd 248b a03d
000000e0: a88f 99bb c0ec 27be 2195 883d 7028 2bbd
000000f0: c2fd 293c 5a1b edbc d2ae 8cbb bee3 ae3d
-0.14327057 0.112131335 -0.0027692006 -0.016728958 -0.14730008 0.14321773 -0.08061484 0.09339584
-0.071276926 0.13489589 -0.14236578 -0.09704416 -0.054235507 0.018133134 0.16915834 -0.0460145
-0.12053425 -0.15697436 0.16952404 -0.1193875 -0.009540592 -0.009702341 0.1759933 -0.09437971
0.14519083 -0.10676456 -0.13624856 0.064417 0.065536864 0.10032774 -0.088994406 -0.09843349
0.055744715 -0.13901803 -0.067128316 0.11853692 -0.15236703 0.07765027 -0.0856882 -0.09948664
-0.039093595 -0.09188651 0.17071411 0.08473563 0.15154697 0.049166344 0.032912813 0.05415242
-0.044007793 -0.035909157 -0.13173482 -0.12843443 0.17470226 0.14054583 -0.098479286 0.07839039
-0.0046863146 -0.16398907 0.06669069 -0.04178661 0.010375442 -0.028943706 -0.004293301 0.08539532

m_transform.0.5.running_mean f4 [32]
00000000: 76e7 2e3c ae27 593f 5763 2a40 b9a6 5b3e
00000010: baeb 013f c1e5 3f3b 01bb 293d 1a6f f53e
00000020: a483 2cbe 1840 2f3e 1a8c a93e b918 cf3e
00000030: 782a d53f c72c b43e 4b27 083f 5013 d03f
00000040: 0ac3 14be 816e 99be 5846 3740 5b65 c13d
00000050: 71ca f93c 5bb4 1340 2178 08be 12ea 313e
00000060: b041 3c3f 23da ab3e dcb0 193d d73f 6a3d
00000070: f51b 0d3f 87c9 5a3f 08a1 0c40 f792 593f
0.010675302 0.8482617 2.6623132 0.21450318 0.50750315 0.002928123 0.041438106 0.47936326
-0.16847092 0.17114294 0.33114702 0.4044855 1.6653585 0.35190412 0.53184956 1.6255894
-0.14527526 -0.2996712 2.8636684 0.0944316 0.03049204 2.307883 -0.13327076 0.17374447
0.7353773 0.33564863 0.037522182 0.05718979 0.55120784 0.85463756 2.1973286 0.84989876

m_transform.0.5.running_var f4 [32]
00000000: 9196 e43c 62b2 3b3e 2d81 e63f 5613 7e3d
00000010: 2f74 8a3e 08d0 363d 4cc0 623d 8a45 003e
00000020: 3ce0 e83c 1af5 4d3d a16f c23c 5bca 163e
00000030: 66dc 213f eebe 8f3d 60e2 4d3e 5c5f 633f
00000040: 0713 023d 2409 863d d48e 0a40 cd0d 743d
00000050: 4ef4 413d 4042 a13f 313f 863d e6a7 073e
00000060: 50cd 193e 9908 123e 568a 643d 9de0 b23d
00000070: 0d62 3a3e 1234 133e a61d 923f 7a6b 8f3e
0.027903827 0.18329766 1.8008171 0.06203016 0.27041766 0.044631988 0.05535917 0.12526527
0.028427236 0.050282575 0.02373487 0.1472563 0.63226926 0.07018839 0.20105886 0.8881738
0.031756427 0.06544712 2.1649675 0.059583474 0.047352128 1.2598343 0.065550216 0.13247642
0.15019727 0.14261092 0.05579599 0.08734248 0.18201466 0.14375332 1.1415298 0.28011686

m_transform.0.6.weight f4 [96, 32, 3, 3]
00000000: 0099 51bd 1377 0d3c 48f2 113d 2611 ef3c
00000010: e588 4ebb e1fa 33bc d4b5 153d 56e8 59bc
00000020: 4f3c 923d 8da8 343d f38a 20bd 3dc2 98bc
00000030: fa24 37bd 8ac5 803b aa87 f93b 5474 4e3d
00000040: 11d8 2cbd ade3 ecbc 43d7 773c 45bf 153d
00000050: ce94 51bd 0c34 bc3b 2917 d4bc c031 163c
00000060: 6cca 093d 6dc4 093d 2972 32bd 6bd6 c6bb
00000070: ce3d 5abd dbfe 533c f4db 38bd a3fb 413d
00000080: 523e 403d 81f7 6b3b ef86 1e3d f9bf 2a3d
00000090: c17c eebc 33a9 453a ecbf 3c3d dd3c ffbc
000000a0: 2ee9 073d 9353 863b 6a51 20bb 9541 3b3d
000000b0: 3a43 3d3d aeaf a2bd 4a7c 11bd 027d 4bbd
000000c0: e908 9dbd 84ff cdbc 0bcf 9e3c 181a 79bd
000000d0: cd44 14bb e86c eab9 9e24 f7b8 f298 0d3c
000000e0: a58f ef3b 804e 1fbb 6217 623b 0338 b33c
000000f0: 4a8d 20bc 7914 9fbb ea5b 1cbd 57fb 0cbd
00000100: 6a42 d93b af01 3cbd 9fa2 a63c e92d 1e3d
00000110: e9ab 63bd 67dd 74bd 7be2 2b3d f9c5 e9bc
00000120: e152 483c 6d2e 46bd 5dd6 5b3d 42f8 fd3c
00000130: 1d9e e5bc 2ca2 b6bc a428 543d 172a 273d
00000140: b587 533d 8214 943c 7228 d13c 042e b8bc
00000150: b39a 76bd 6e96 3a3a a393 5bbd 6c31 293d
00000160: 7c98 3abb 4b65 6ebd 4e5a 873d 1ab3 553d
00000170: 7784 f43b 1ff5 5dbc 9503 493d 4f25 87bd
00000180: feab 7f3d 2cda 833d 9ae1 eabc 8968 f6bc
00000190: ff60 47bd c918 77bc c224 c63c 6b5d 3e3c
000001a0: cf32 6e3c 3e81 f4bc 9957 d2bc 63b5 f53c
000001b0: fb92 753d 2a9a 8a3c 15aa 2abd 4997 143d
000001c0: 4ee1 383d c1b4 573c f3c2 17bb ee98 103b
000001d0: 9a84 13bd cb28 cf3c 98a5 4f3d 4e78 1c3d
000001e0: 1099 4c3d c675 8fbc 3e44 17bd 6d6d 9cbc
000001f0: a799 053d 6ce8 d53c 8c66 3ebc e1ec ffbc
00000200: bcb1 753d 1b7a f93b c9c8 3abc 8c48 b23a
00000210: a417 45bd ba89 ea3c 8f83 1f3d 309e 863c
00000220: 1d76 63bd 54b1 103b ca60 473d 1a77 c7bc
00000230: 95fa 28bd e771 55bd 3156 acbc 1142 a93c
00000240: f655 253d 4291 d03d d318 34bd 2e8f 6d3c
00000250: db61 2d3d 47e9 cabb 1cc4 e93c 0da6 953c
00000260: ddc6 7dbd 3389 353c 57b0 df3c 3f57 293c
00000270: b6e6 7bbd f9f5 4f3d 2d24 593d 2010 33bd
00000280: aa6c 1bbd db75 e1bc 49b4 0a3d 7002 5bbd
00000290: 686a 573d 7e51 43bd 622f 123d c85c cdb7
000002a0: 3bfe 2fbd 1383 69bd 19c8 5f3d 5bc9 1d3d
000002b0: c8a6 3bbd 9356 243d 910e a1bc 3400 eabc
000002c0: 04cc 37bd 93f1 f43c 06d2 0ebd 03a3 933d
000002d0: 08f1 f0bc 1c5f b2bd 01e7 d33a bd51 97bc
000002e0: 4b10 31bc ddaa 1f3d 1409 7bbd 42a6 9ebc
000002f0: 0360 613c 2d71 933a 77ea 5e3d 2df6 3abd
00000300: e370 8d3c efcc 063d 2b84 fabb 3deb 203c
00000310: 3cf5 3ebd 3ee8 d7bc 50f5 913d 9b36 80bd
00000320: d19b 7c3d ef16 063d 621c 4bbd bcfd fd3c
00000330: 55d6 70bc b37b 8ebc e654 263d 7925 45bd
00000340: ff16 e7bc fff5 c63c 16ed a8bc 8630 293d
00000350: 5f4e 843d 69e3 663d 8b6a b0bc e101 ecbc
00000360: 3bfd 0dbd 226e 063d ba5e 85bc 7091 e3bc
00000370: 80dd f03c db91 173d 5267 b43c a9ff 3fbd
00000380: a03c 2abd f73a ce3c e889 223a 8e3e 1a3d
00000390: 5f1a 783c b44d 46bd 1f58 02bc 9d7c 1c3d
000003a0: eb3e cebc 5802 d53c 21a7 6ebc e18f 273d
000003b0: a8a3 98bb 7e14 47bd 381a 53bd 322b 0b3d
000003c0: d55d 85bc 9c3b 043d 380d 9ebc 5946 8abd
000003d0: 4f69 89bc 86db 2b3d 6fa6 18bc 5115 e33c
000003e0: 772c 293d 62e0 85bd e84d 45bc a48b 17bc
000003f0: c492 743d e6af 76bc e7c4 ccbc 42e4 02bd
-0.051171303 0.008634347 0.035631448 0.029182982 -0.00315147 -0.010985107 0.036550358 -0.013300022
0.07140409 0.044106055 -0.039195012 -0.018647308 -0.044712998 0.0039297985 0.0076150494 0.050403908
-0.042198244 -0.028917158 0.015127006 0.036559362 -0.0511673 0.005743509 -0.02588995 0.009167135
0.03364031 0.03363459 -0.043565903 -0.006068041 -0.053281598 0.01293918 -0.04513164 0.04735912
0.046934433 0.0036005678 0.0387029 0.041686986 -0.029112222 0.0007540166 0.04608147 -0.031156952
0.03318136 0.0040993183 -0.002446259 0.04571684 0.04620669 -0.079436645 -0.035518922 -0.049679764
-0.07667715 -0.025146253 0.019385835 -0.0608159 -0.0022624016 -0.000447131 -0.00011784698 0.008642422
0.007310825 -0.0024308264 0.00344988 0.021877294 -0.009799311 -0.0048547355 -0.038173594 -0.034419384
0.0066302316 -0.045900043 0.020341216 0.038618002 -0.05558387 -0.05978146 0.041964035 -0.028536784
0.012226791 -0.04838412 0.05367123 0.031002168 -0.028029496 -0.022294126 0.05179657 0.040811624
0.051643092 0.018076185 0.025531981 -0.02248288 -0.060206126 0.00071177527 -0.053607594 0.041306898
-0.0028472235 -0.05820207 0.06609021 0.052172758 0.00746208 -0.013547211 0.04907568 -0.06598913
0.062419884 0.06438097 -0.028672028 -0.030079143 -0.048676487 -0.015081593 0.02418745 0.011618952
0.014538481 -0.029846784 -0.025676535 0.029993718 0.059954625 0.016919214 -0.04166611 0.03627709
0.045136742 0.013165654 -0.002315697 0.002206381 -0.03601513 0.025288006 0.050695032 0.03820067
0.04995066 -0.017512213 -0.036930315 -0.019095147 0.032617237 0.026111804 -0.011621129 -0.031240882
0.059983954 0.007613433 -0.01140041 0.0013601943 -0.04811825 0.028630126 0.038943823 0.016432852
-0.055532563 0.0022078352 0.04867629 -0.024348784 -0.0412546 -0.05211058 -0.021037193 0.020661386
0.040365182 0.10183956 -0.043968987 0.014499469 0.04232965 -0.0061923596 0.028535895 0.018267656
-0.06195723 0.011080074 0.027305765 0.0103357425 -0.06149932 0.050771687 0.053013016 -0.04371655
-0.037945427 -0.027522018 0.03386334 -0.05346912 0.05259171 -0.04768514 0.03568972 -2.4481109e-05
-0.042967062 -0.057009768 0.054634187 0.038522106 -0.045813352 0.040121626 -0.019660266 -0.02856455
-0.0448723 0.029900348 -0.034868263 0.072088264 -0.029411808 -0.08709547 0.0016166867 -0.018471593
-0.010807107 0.038981307 -0.061287954 -0.019366387 0.013755801 0.0011248939 0.05442282 -0.045644928
0.017265743 0.032910284 -0.00764515 0.00982171 -0.046620592 -0.026355859 0.07126868 -0.06260415
0.061672036 0.032736715 -0.049587615 0.031004779 -0.014699538 -0.017392969 0.04060831 -0.04813144
-0.028209208 0.024287222 -0.020620864 0.04130604 0.064602606 0.05636922 -0.021535179 -0.02880949
-0.034665328 0.032819875 -0.01628052 -0.027779311 0.029402494 0.037004333 0.022021923 -0.046874676
-0.041561723 0.025174601 0.0006200359 0.037657313 0.015143006 -0.048413947 -0.00795558 0.038204778
-0.025176486 0.026002094 -0.014566214 0.040908698 -0.004658181 -0.048603527 -0.051538676 0.03397674
-0.016280094 0.03228341 -0.019293413 -0.06751699 -0.016773848 0.0419574 -0.009317025 0.027720125
0.04130217 -0.06536938 -0.0120425 -0.0092496015 0.05971028 -0.015056586 -0.024996234 -0.031955965

m_transform.0.6.bias f4 [96]
00000000: 1512 71bd 7052 35bc b0be dbbb 655c c13c
00000010: 7340 713d c3be a8bc fa69 e33c 05dd 01bd
00000020: 7f80 d73a 9a39 253d 68fa b0bc 7660 00bd
00000030: f63b 4dbd 8013 3ebd 3d15 b23a d42c 413d
00000040: 84d8 093d daae 64bb c059 58bc 84f2 3b3d
00000050: a95c 46bd 91eb 3c3d 54e6 0fbd a153 febc
00000060: 53a6 02bc a15b cb3c 9c7c 05bd 2805 93bd
00000070: 4395 4aba 3779 8f3b 61bb 9fbc 2430 fe3c
00000080: 3ed6 4bbc f770 2fbd 9c27 0c3d dbe3 0f3c
00000090: ac5c 06bc e955 2bbc c103 8e3c d830 05bc
000000a0: 6d56 df3b 6320 9abc 19ca 4dbd c719 473d
000000b0: 3232 1c3c c260 3ebb 1fbd 803d 00a9 fd3c
000000c0: bf59 6e3d 5d25 1f3d e704 5a3c 4ce9 0ebd
000000d0: 30f1 413d b148 cfbc f955 94ba 052a 76bb
000000e0: ee22 383d 3c85 46bd a9eb 91bb e072 e6bc
000000f0: 1e13 02bb 91ed 13bd 43af 5cbd fbc9 5fbd
00000100: 39c0 1dbc 9db9 8dbd be8b 953d 9a17 a1bc
00000110: 7f0a 35bd c092 fc3c c018 803d b1a8 03bd
00000120: d6e2 48bd 6987 62bc 2400 1dbd 9c7d a5bb
00000130: 55c4 48bd 8131 8dbc a1d7 473b 1b9f 373d
00000140: 0ee4 1b3d 961f cc3c e41c e0bc 9f58 593d
00000150: ccdf b3bc eef7 c1bc 7292 13ba f8c5 443d
00000160: 4c52 6dbd 568d a1bc bdb4 a53a 1a10 2abd
00000170: bced 8bba 8da9 a2bc 2d39 043d 337a 5e3c
-0.058855135 -0.011067018 -0.0067060813 0.023603627 0.058899354 -0.020598775 0.027760495 -0.03170492
0.0016441493 0.040338136 -0.021603778 -0.031341992 -0.05010601 -0.046405315 0.0013586652 0.047161892
0.03365375 -0.0034894259 -0.013204992 0.045885578 -0.04842821 0.04612309 -0.035131767 -0.031045737
-0.007974225 0.024823966 -0.03258954 -0.07178718 -0.000772793 0.0043784636 -0.019498529 0.031028815
-0.012441216 -0.04283234 0.034217462 0.008782352 -0.008200806 -0.010457494 0.017335774 -0.008129321
0.0068157227 -0.018814271 -0.050241563 0.048608568 0.009533452 -0.0029049371 0.06286072 0.030964375
0.058191057 0.03885399 0.013306833 -0.034890458 0.047349155 -0.025303217 -0.0011317126 -0.0037561667
0.044955187 -0.048466906 -0.0044531417 -0.028130949 -0.001984782 -0.036115233 -0.05387808 -0.054635983
-0.009628349 -0.069201685 0.07302044 -0.019664574 -0.044199463 0.030831695 0.06254721 -0.0321433
-0.049044453 -0.01382623 -0.038330212 -0.005050374 -0.04901536 -0.01723552 0.0030493515 0.04482947
0.038059287 0.024917405 -0.027357526 0.05306303 -0.0219573 -0.023677792 -0.0005629427 0.04804036
-0.057939813 -0.019720715 0.0012642365 -0.041519262 -0.0010675709 -0.019856239 0.03228109 0.013578939

m_transform.0.9.running_mean f4 [48]
00000000: 0c5a 503f b288 8c3f 2740 903f 68f5 2f3f
00000010: ad09 943f 53a7 d83f 45f6 623f e117 8b3f
00000020: 328a 5b3f 8b05 403f 9b74 6b3f 070c 733f
00000030: 87e0 603f 8dc4 573f 291b 823f 1bcd 953f
00000040: 7680 a73f edbb 5a3f 0e5f 563f 4b5b b43f
00000050: 6a59 623f 1f11 453f 4240 583f 7cf9 693f
00000060: 1a17 523f 7afb be3f 9513 8b3f 5ee5 a53f
00000070: ca10 323f 7165 713f 020e 903f 2b4d 1c3f
00000080: 591d 313f 0e80 3a3f 981c 243f 6cc8 393f
00000090: 2f23 463f 6daf 723f d3f3 843f 54d4 9c3f
000000a0: daf2 8a3f d11f 3e3f c23e 013f 54b7 723f
000000b0: 2e12 793f e4fc a23f 90bf 7d3f ee48 493f
0.813874 1.0979216 1.1269578 0.68733835 1.1565453 1.6926063 0.8865703 1.0866662
0.85757744 0.7500846 0.919748 0.9494023 0.878426 0.8428429 1.0164539 1.1703218
1.3086078 0.85443 0.8373879 1.409036 0.88417685 0.7697925 0.8447305 0.9139631
0.820665 1.4920495 1.0865351 1.2960622 0.6955687 0.9429541 1.1254275 0.6105525
0.69185406 0.72851646 0.6410613 0.72571445 0.77397436 0.9479893 1.0386909 1.2252297
1.0855362 0.742673 0.50486386 0.94810987 0.97293365 1.2733426 0.99120426 0.78626907

m_transform.0.9.running_var f4 [48]
00000000: 5814 bd3e 168c 523f 4ec4 bc3f 7e3f fa3e
00000010: fd29 943e 5ad5 563f 171a 113f a57d de3e
00000020: 8545 923e 24e2 a63e 6e7b 0a3f e8d9 143f
00000030: c74c 0d3f 0c9c 763e 0ef6 943f 129f 863f
00000040: 9962 1c3f 0d3d e13e 446f b63e b028 083f
00000050: a670 ad3f 29dd b53e 0628 783f ef8e 4e3f
00000060: e829 8b3e b17a 483f 2c98 733f 9650 e73e
00000070: ae7a be3f 2eee 1e3f e338 673f e461 953e
00000080: 32fd 283f 98cd 0a3f a357 963e 8d78 e03e
00000090: 5904 eb3e 938d 953e d751 0c3f 33bb 9f3e
000000a0: eec9 1d3f b5d2 763f f35e 003f c26d 023f
000000b0: ee92 243f 7154 bb3e 1408 dc3e 7301 273f
0.36929584 0.82245004 1.4747407 0.48876566 0.28938285 0.839193 0.56680435 0.43455234
0.28568664 0.32594407 0.5409459 0.58145 0.5519528 0.24082965 1.163759 1.0517294
0.6108795 0.4399189 0.35631764 0.53187084 1.3550003 0.35520294 0.9693607 0.8068685
0.2718041 0.7831221 0.9515407 0.4517867 1.4881189 0.62082183 0.9032118 0.29176247
0.66011345 0.5421996 0.29363737 0.43841973 0.45901754 0.29209575 0.5481238 0.3119751
0.61636245 0.96415263 0.5014488 0.5094873 0.64286697 0.3658786 0.42974913 0.65236586

m_transform.0.10.weight f4 [96, 48, 1, 1]
00000000: 68fe 12be 6a4f 533d e0cc 9dbd bb26 7c3b
00000010: 7400 513d d185 4abd 9d3a 11be fb7b 953d
00000020: 45ee 50bd b767 ce3d f280 d13b b9cd 343d
00000030: 3de8 253d 7934 dbbd 7203 083e 7e20 a53d
00000040: 8d74 38bd 731b c13d c307 1e3d ef65 9d3d
00000050: 1c65 b33d e668 a3bd 9645 5c3d fe69 87bd
00000060: 236e 073e db42 223e cdf6 91bd a900 bfbd
00000070: ffae a1bd 010d af3c 23d9 b038 10aa 6d3d
00000080: 430b 863d 01ff 003e 6ed7 f8bd 0601 d63d
00000090: 4af6 86bc ca1e 093e 537d 93bd 6b0c fbbd
000000a0: 4ee9 033d 5e8c 223d 578f fe3d 200f 043e
000000b0: 2b37 dfbd 63bc da3d 5bf4 0fbe 6541 303d
000000c0: 93d0 fbbd 3798 483c 5077 283d 3881 0fbe
000000d0: 90f9 4abd dec9 98bb 27d7 fabd a8f5 afbd
000000e0: 39f0 98bd cd84 15be 1ade fd3c 676e b7bd
000000f0: 9a30 82bc 4785 903d 533e fb3d bc29 b1bd
00000100: a04f b6bd 8443 fbbd fe59 0ebe c2b6 f03d
00000110: 71ea 2bbd a88c d7bc d815 7b3d f51d 003d
00000120: 27fd 05bd 1791 9f3c 3773 0ebe 637f 533c
00000130: 0c85 dabd fdfa 87bd 106e d2bc 63b2 0abd
00000140: 8cf3 cf3d 52aa 27bd 7cb3 6dbc 3151 f93d
00000150: 9c28 9dbd 7a04 19be 8e1e d73d ca3b b33d
00000160: 4c01 80bd aebd 21bd 0942 f0bd 46c8 e2bd
00000170: 5122 abbd 4293 313d 2429 b4ba 10a6 92bd
00000180: c72e 42bd 0137 cf3b 680c a9bd 3a25 d1bd
00000190: 0f64 eebd 32ab 55bc 1ae5 0b3e 4598 713d
000001a0: 39fb d0bd eae4 f3bd 8939 d63c 9c5a fcbc
000001b0: 20e4 f4bd b6b4 0bbe fa72 d6bd 5478 073d
000001c0: e96e 61bd 0712 a4bc 8cc2 39bc 7641 c5bd
000001d0: 2b40 b23d 46db 443d 04d7 e0bc b4f8 07bb
000001e0: 1a1b 083d 632c 0dbe cd6d 96bd cf59 a03d
000001f0: d937 8ebd 49d0 ae3d 29d1 84bd 9b89 f83b
00000200: e7bc 803d c4ec ca3d 4617 4dbc a134 d33d
00000210: 0da0 b93b c4e0 b4bd d11b 78bd 5a07 07bb
00000220: b09c 06be 9176 bcbd d18e f5bd bd6d a63d
00000230: 4948 833d 2a33 2dbd 3403 3e3b 14d5 2abd
00000240: da6e 82bc be1f f4bd 5ab9 b0bd 44c2 443d
00000250: 6ad5 edbd 2e8e 4a3d 8cee 13be e2b0 003e
00000260: 6d4d adbd 15c3 6fbb d17f 883d 5d87 ce3c
00000270: d334 9a3d 27d6 9d3d 2083 8fbd 7459 b1bd
00000280: c740 c13d c517 64bd cfa4 00be 15e7 6c3d
00000290: fc1a fbbd cb80 bc3d f48a 9abd e0db 89bd
000002a0: 649c 2d3c 9097 1cbd a214 993d 3727 593d
000002b0: 6e2f ddbc 1a94 973c 8858 c63d a4c7 cdbd
000002c0: d70f 9abd 9420 dabd 92da 083e 8b54 06be
000002d0: 17da f0bb 847b 0c3e f229 eb3c ffe0 043e
000002e0: 8622 0dbe aaa7 07be ccbd 40bc 2050 c23d
000002f0: ee57 003e 8143 7dbc 01bc c43a e488 d13d
00000300: c501 a5bd b073 08be 5cc5 af3d c759 0f3e
00000310: bac3 033d a477 403c 22f9 aabd 3786 de3d
00000320: 361a c93c 16c3 84bd 187c f83b 69dc a5bd
00000330: c09d 3f3c cdb2 15be 4a9e 093e e1b4 793c
00000340: 2d1a db3d 8fbd 133d 142a 4ebd 4445 d3bd
00000350: fdce dcbd dda2 59bd f244 68bc 173c 993c
00000360: 1bb5 733d cc45 8abd 3f1c 0b3d 2420 74bd
00000370: 4f82 c93d 9745 b9bd 8c87 8f3d ae95 0c3c
00000380: 1d2c 2d3d 20e8 f4bd e790 f9bc bf2f 843a
00000390: d39c a83d 4bbb 2abd afb9 9ebd 504a 203c
000003a0: 5810 e73d 5e84 8abc 9cb7 053e ea0d 0f3d
000003b0: 4ecf e13d a64e 8bbd 3940 14bd 29a6 0b3d
000003c0: 257b 5d3c 9abb 78bb e8d7 babd 02de 2ebd
000003d0: 854b 1f3e 25af e0bd bebd 21bd 7c44 8e3d
000003e0: ea4d 563b 2384 e8bd 5899 303e c8df 803b
000003f0: 9798 833d ab67 d23d c0a1 783c 74f5 763d
-0.14354861 0.051589407 -0.077050924 0.0038475234 0.051025823 -0.049444024 -0.14182515 0.07299038
-0.05100848 0.10078376 0.0063935453 0.044141505 0.040504683 -0.10703368 0.13282564 0.08062838
-0.045033026 0.09429064 0.03858162 0.07685458 0.087595195 -0.07978992 0.0537773 -0.06612013
0.13225608 0.15845816 -0.07127152 -0.09326298 -0.07894706 0.021368505 8.432779e-05 0.058023512
0.06545117 0.12597276 -0.12150465 0.10449414 -0.016474862 0.13390651 -0.07201638 -0.12258228
0.03220492 0.039684646 0.12429684 0.12896395 -0.10899194 0.10680463 -0.14058058 0.043031115
-0.12295642 0.012243322 0.04112941 -0.14014137 -0.049554408 -0.0046627363 -0.12248068 -0.08591777
-0.07467694 -0.1460144 0.030989695 -0.089566045 -0.015892316 0.07056671 0.12267747 -0.08650538
-0.08901906 -0.12268737 -0.13901517 0.11753608 -0.041971628 -0.026312187 0.06130013 0.03127857
-0.032712128 0.019478364 -0.13911138 0.012908789 -0.10669908 -0.06639669 -0.025687248 -0.03386153
0.10153875 -0.040933914 -0.014508124 0.12173689 -0.07673761 -0.14943114 0.10503875 0.08751638
-0.06250247 -0.039487533 -0.11731345 -0.110733554 -0.08356155 0.043353327 -0.0013745171 -0.0716058
-0.04740789 0.0063236956 -0.082543194 -0.102121785 -0.116401784 -0.013041304 0.13661614 0.058983106
-0.10204167 -0.11908896 0.026150482 -0.030804925 -0.11957574 -0.13643155 -0.10471149 0.03307374
-0.055037413 -0.020028127 -0.0113378875 -0.09631626 0.08703645 0.048060678 -0.027446277 -0.0020747604
0.03322897 -0.13786463 -0.073451616 0.0782963 -0.06944246 0.08535821 -0.06485207 0.007584763
0.0628603 0.09908441 -0.012517756 0.103127725 0.0056648315 -0.08831933 -0.060573403 -0.0020603747
-0.13145709 -0.09202302 -0.11990131 0.081264 0.06410272 -0.042285122 0.0028993608 -0.041707113
-0.015921999 -0.11920117 -0.08629103 0.04803683 -0.11612971 0.049452 -0.14446467 0.12567475
-0.084620334 -0.0036584784 0.06665004 0.02521103 0.07529607 0.07706862 -0.07007432 -0.0865964
0.094361834 -0.05568673 -0.1256287 0.057837564 -0.12261006 0.09204253 -0.075460345 -0.06731391
0.010596368 -0.03823048 0.074746385 0.053015914 -0.027000155 0.018503238 0.09684855 -0.10047844
-0.075225525 -0.10650745 0.13364628 -0.13118188 -0.007350217 0.13718992 0.028706525 0.12976454
-0.13782701 -0.13247553 -0.011764001 0.09487939 0.12533543 -0.015457989 0.0015009643 0.10231188
-0.08056978 -0.13325381 0.08582565 0.13999091 0.03216908 0.011747275 -0.083482996 0.10865443
0.024548631 -0.06482522 0.0075831525 -0.080986805 0.011695325 -0.14618988 0.13439289 0.015240879
0.10698352 0.03606945 -0.050333098 -0.10315946 -0.107816674 -0.053133834 -0.014176594 0.01870541
0.059498888 -0.06751594 0.033962484 -0.059600964 0.098393075 -0.09046476 0.070082754 0.008580608
0.042278398 -0.11958337 -0.030464603 0.001008503 0.08233037 -0.041682523 -0.0775026 0.0097833425
0.11282414 -0.01690882 0.13058323 0.03492538 0.11025868 -0.068021104 -0.03619406 0.03409401
0.0135181295 -0.0037953616 -0.09123212 -0.042692192 0.15556152 -0.10970906 -0.039487593 0.06946656
0.003270025 -0.11353328 0.17245996 0.003932927 0.064255886 0.10273679 0.015175283 0.060292676

m_transform.0.10.bias f4 [96]
00000000: bfbf eebd fdcf ac3d 8fd1 1dbd b259 bc3c
00000010: 0f1a 383d 7e50 0cbd 6f41 0e3e e03c 62bc
00000020: 35d1 9d3d 8f5e 073c b55b 04be a044 77bd
00000030: 82fd 763d fd02 d1bd a15c e93d 0c7a 083d
00000040: 79dc 09be 79fc b23d 06d0 cf3d 9e09 a13d
00000050: a1b8 83bd d471 423d da7b c9bd 266b 233d
00000060: c77f 75bd a766 843d baee 19bd 60cf b9bd
00000070: 3907 2d3d bc63 81bd 479c d03d 6f47 193d
00000080: 45c9 aebd d440 ef3d fc2d 27bd b103 14be
00000090: 52b8 863d 5658 d7bd 20a2 97bb a116 86bd
000000a0: 1166 fd3c 1525 0f3d 7726 0fbe 77d9 0f3e
000000b0: 8b57 ff3b 8fe7 3a3d dcae 8ebd 4b3d 963d
000000c0: 2442 83bd 38cb 213d 5d76 1a3d b29a b23d
000000d0: 80f3 26be 7554 403d 4cb7 fc3c 8b27 63bd
000000e0: 8829 eabd fe21 973c cb63 1f3d 05f2 d33d
000000f0: a8fe dc3d 9e0c 883d 3998 26bd 1a5f ebbc
00000100: 15ae 53bd b101 bebc 94dd 363d 22af d93d
00000110: 4c8a 07be a34a a13d 3690 d53d 82c4 fb3d
00000120: 3071 cabd bfb7 94bd 2ff2 edbc 439f ecbc
00000130: 38c8 8c3d acf7 d83d 0f4b 24be 29d3 2ebd
00000140: e817 1e3d 13f1 a93d 6d23 efbc a5f8 2fbd
00000150: 2334 cabd 20ae 863d da0a 52bd b969 013e
00000160: 74c5 603c fb10 24be b172 22bd d32d e53c
00000170: 1ee8 9b3d c015 15be eae8 053e 8571 723d
-0.116576664 0.08438108 -0.03852993 0.022991989 0.044946726 -0.03425645 0.13892148 -0.013808459
0.07705919 0.008262291 -0.12925608 -0.06036818 0.060300358 -0.10205648 0.11394621 0.033319518
-0.1346301 0.087395616 0.10147099 0.078631625 -0.064316995 0.047471836 -0.09838076 0.039897107
-0.05993631 0.06464892 -0.037581183 -0.09072757 0.042243216 -0.06317851 0.101860575 0.03742164
-0.08534483 0.11682287 -0.04081534 -0.14454533 0.06578125 -0.105148956 -0.004627481 -0.06547285
0.030932458 0.034947474 -0.13979517 0.140478 0.0077924184 0.045630988 -0.069669455 0.073359095
-0.064091 0.039500445 0.037710536 0.08720912 -0.16303825 0.046955545 0.030849122 -0.055457633
-0.11433703 0.018448826 0.03891353 0.10348896 0.10790759 0.066430315 -0.040672515 -0.028731871
-0.05167969 -0.023194166 0.044644907 0.10629107 -0.1323635 0.07875564 0.10427897 0.1229334
-0.0988487 -0.07261609 -0.029046146 -0.028884536 0.06874126 0.10594115 -0.16044258 -0.042681847
0.038597018 0.082979344 -0.029191697 -0.042961735 -0.098732255 0.065761805 -0.05127988 0.12637986
0.0137189515 -0.16022103 -0.03966016 0.027975952 0.07612632 -0.14559078 0.13077131 0.059190292

m_transform.0.12.running_mean f4 [48]
00000000: c6b9 933e cef3 133f a39f 0f3f 8359 ae3e
00000010: 5944 cb3e c896 1a3f b471 be3e 1689 bc3e
00000020: 266b a93e 8b1b ad3e bc5b b83e fda5 123f
00000030: 7460 c73e 8199 943e 2cf2 f63e d333 c13e
00000040: d590 8e3e b89d 8d3e b71a f03e 5611 c73e
00000050: a400 943e 741e b53e 8666 863e 3436 0d3f
00000060: f2c2 293e 47f8 b33e 5a16 db3e 745b b43e
00000070: 828f df3e 3cef bc3e 29fe b33e e32e be3e
00000080: ad1a d53e 88c1 bb3e cb21 bf3e 7079 a03e
00000090: 5afd 8d3e 7015 ac3e 24f3 8f3e 9866 043f
000000a0: e6c2 e23e 4352 6c3e 04b3 d63e e06e da3e
000000b0: e4e8 c13e 505a 9e3e 4d7d d83e bb34 f83e
0.2885267 0.5779389 0.5610296 0.34052667 0.39700583 0.60386324 0.37196124 0.36823338
0.3308956 0.33810076 0.36007488 0.5728453 0.38940775 0.29023364 0.48231637 0.3773485
0.27844873 0.27659392 0.46895382 0.38880414 0.2890674 0.35374796 0.26250094 0.5516083
0.16578272 0.35150358 0.4279049 0.35226023 0.43664175 0.3690127 0.35154846 0.37145147
0.41621915 0.3667109 0.3733047 0.3134265 0.27732354 0.33610106 0.2811519 0.51719046
0.4428932 0.23078255 0.41933453 0.42662716 0.37872994 0.30928278 0.42283097 0.4847773

m_transform.0.12.running_var f4 [48]
00000000: 86b4 383e 6532 0a3e 6e2d 653e 4b17 143e
00000010: 563f 493e d0b4 e53e 6ed6 323e 2284 7a3e
00000020: 625a a83e f401 593e 2e14 783e fa38 463e
00000030: be16 263e 781b 3f3e 7873 473e e22b 863e
00000040: f726 323e be0b 623e a219 ed3e aee8 4f3e
00000050: ad81 3c3e d6d3 593e 37df 673e a534 623e
00000060: 318e 443e aeff 803e 5d51 873e 9c3b cf3e
00000070: 5c81 333e 2882 143e b75e 3d3e 3673 3c3e
00000080: 5404 9b3e d6fe 483e 9493 6f3e 7f1f 613e
00000090: 23ad ad3e 84f6 f83d daa2 903e 2ede b23e
000000a0: d7ac 5b3e c632 803e c21f 393e dc2d 763e
000000b0: d1eb a73e b250 5f3e f530 863e e1e2 af3e
0.18037614 0.13495786 0.22380611 0.1446201 0.19653067 0.4486451 0.17464611 0.24464467
0.32881457 0.21192151 0.24226448 0.19357672 0.16219613 0.18662822 0.19477642 0.26205355
0.17397676 0.22074792 0.4630862 0.20303604 0.18408842 0.21272215 0.22643743 0.22090395
0.19194867 0.25195068 0.26429263 0.40475166 0.17529815 0.14502776 0.18493162 0.18403324
0.3027674 0.19628462 0.2339614 0.21984671 0.33921155 0.12156394 0.28249246 0.34935135
0.21452652 0.25038737 0.18078521 0.24040931 0.327971 0.21808127 0.26209226 0.34352782

m_transform.0.13.weight f4 [128, 48, 3, 3]
00000000: 9585 a73c f802 b33b db80 5c3c 4be8 5ebc
00000010: 2ff9 8e3c 42ec 7ebc 671b 923b 6c5c 733c
00000020: ec78 54bd c6da 21bd 1f57 44bd 6dcc 0f3d
00000030: e40a 0cbd cf11 f33c 4126 3dbb 4e1e b2bb
00000040: fd34 dd3c 1421 e93c 56ba f2bc cd73 c43b
00000050: eae9 d9bc 2e78 0a3c c683 633c 578e d0bc
00000060: 90de 29bd 4254 1d3d af1e 073d 933c 6a3d
00000070: 4800 f53c f308 c0bb af4e 0e3d be5c da3c
00000080: 8fb1 543d b65f 73bc 54c0 38bc 15c3 413b
00000090: 1a95 6bbb 2290 053d ba9e 303d 8f49 9a3c
000000a0: ff79 e8bc bfb6 043d 0d6c ecbc 103a 673c
000000b0: 0b89 1a3d 57ea 0abb 05a1 3d3d d970 783b
000000c0: 54ac c23c f764 413d 5ffc 0a3d 12ee 2ebd
000000d0: 3bca d8bc 5fc2 b73a 3098 753d e77b 2b3d
000000e0: 8f9f ad3c 9ce7 c8bc 1fca 84bc fab6 c33c
000000f0: 2f09 25bd 66ba 093c a1ba 013d 7faa a23c
00000100: 31ca fdbc c4b7 6c3c 2333 013c 6b6b 6dbc
00000110: 8377 3d3c a46c c8bc 311a 2c3d 631b 383c
00000120: 4f8e 1b3d b84f 03bc f8f2 f83c e4cb adbc
00000130: d2e1 01bd c507 083d 12a2 94bc 3698 143d
00000140: 2db3 813d 1d25 b8bc d2ff ee3c a571 e8bc
00000150: 7d9f 183d 6e9b 07bd b1e4 313d c603 723c
00000160: d598 673c 0b8e fdbb 06d3 41bd 8077 233d
00000170: 36b0 34bd e911 afbb cce1 1cbc 4331 9dbc
00000180: 6ec5 06bd 7b13 b0bc 9a0a ca3b 446d f13b
00000190: 87d2 6abd 4809 e03c be25 1bbd 783a 22bd
000001a0: ca3a efbc ec31 873c bc38 2ebd 89e6 3d3c
000001b0: c429 be3c 501e 93bc 5fb9 3bbd 21f2 283c
000001c0: 2b1a 023d de4b 1cbd d6c2 e63c e48e ff3c
000001d0: f5f5 efbc daab 8ebc f359 ee3a 5fef 053d
000001e0: b191 89bc c0a5 0d3a 3f81 ffbb 852f adbc
000001f0: 418c 8a3c 7634 883b 38db bebb 8034 333c
00000200: 1247 eaba 4518 77bc 0281 f23b 1f9b 0bbc
00000210: c794 43bd 6d9d 3ebc 21f3 15bd 9dd7 f43c
00000220: ad9c f3ba 02ed 32bd 8bc0 51bd ad7b 933c
00000230: 71b5 33bb 1813 2bbc ba59 9bbc 99c5 3ebb
00000240: b562 ec3c 2fdb aabc c23e cb3b 58ea 7cbb
00000250: 487a 48bb 89f0 83bb 64ef 11bc cabd 853c
00000260: 87dc 93bc fe89 843c 63c8 c8bc 5adb 343c
00000270: 0861 e13b 0a76 153d 6c9e 0d3d 5eeb 0e3d
00000280: e4f1 963c 6878 89bc 14c2 2ebc 791d 03bc
00000290: 5d2f 39bd b465 0a3d 91d9 9f3c 354e 91bc
000002a0: 61ab 00bd f99b 1bbd bf73 c33c 4593 94bb
000002b0: 06f6 e8bb 5e6f 5a3c dd82 df3c 7b83 f9bc
000002c0: 27b3 b93c 3c74 1a3c fba0 35bc b1ac a03c
000002d0: d056 a93c d170 3a3d 78de 963c daf1 543b
000002e0: 79f6 6ebc 73c8 53bc 024c 77bc 3c84 833d
000002f0: 39e6 2e3d ff1b bebb c5e6 0e3d 9a18 063d
00000300: 2269 07bd 51c8 e0bb 4087 e53c 2f66 1bbd
00000310: ad95 96bc c350 14bd 18ee 173d 5690 13bd
00000320: 72c2 8bbb 475b 98bb 3cce 0cbd 7d10 1dbd
00000330: 2467 b8bc 06f7 17bb 6ba9 b43c 9920 c4bc
00000340: 19dc bfbc 413b 2e3d 6718 bd3c 52e4 0abd
00000350: b2fc 923c dc58 a4bb 8f11 043d 8d53 793c
00000360: 61f6 5c3d 9d0b 20b9 922d f2bc f4fc 793c
00000370: 07a7 893c 1348 00bc 75e1 03bd 7489 4c3c
00000380: 3fe8 8dbc 8bb9 0bbd 04b1 3c3d 379f a2bb
00000390: fd98 31bd 507d 9b3c 5e00 b7bc 3959 103b
000003a0: e58d 9bbc 8cc7 e5bc 7434 093d 925a 023d
000003b0: 6161 133d 1c93 033d 293a 40bd 9213 1dbd
000003c0: 4fdc cabc b4c3 383b b2c2 a03c 5ba9 7d3d
000003d0: 25d3 403b b787 103d 0273 343c c7ee 4fbd
000003e0: 4dfb 303d 859c 36bd 92cd cfbc b008 92bb
000003f0: 33f3 d73c f495 163d e4ae 53bb 2e3b ce3c
0.020449439 0.0054630004 0.013458456 -0.013605188 0.017452804 -0.015559258 0.004458833 0.014853578
-0.051873133 -0.03951528 -0.047934648 0.035107065 -0.034190074 0.029671578 -0.0028861912 -0.0054357415
0.027002806 0.028458156 -0.029629868 0.00599525 -0.026600797 0.008451505 0.013886398 -0.025458498
-0.041472018 0.038410433 0.032988247 0.057186674 0.02990736 -0.005860442 0.034743007 0.026655551
0.051927146 -0.014854362 -0.011276323 0.002956574 -0.0035947026 0.03260816 0.043120123 0.018833904
-0.028378485 0.032400843 -0.028860116 0.014112964 0.03772835 -0.0021196806 0.04629614 0.003790906
0.023763813 0.04721543 0.033932086 -0.04270751 -0.026463619 0.0014019719 0.05995959 0.04186621
0.021194248 -0.024524502 -0.01620966 0.023890961 -0.04029196 0.008406257 0.031672124 0.01985669
-0.030980201 0.01444811 0.007885727 -0.0144909425 0.011564138 -0.024465866 0.042017166 0.011236998
0.037977513 -0.008014612 0.030389294 -0.021215387 -0.0317095 0.033210535 -0.018143687 0.036277972
0.06333003 -0.022478634 0.029174719 -0.028374502 0.037261475 -0.033107214 0.043430988 0.0147714075
0.014135559 -0.00773788 -0.04732039 0.039908886 -0.04411336 -0.005342711 -0.009575319 -0.019188529
-0.032903127 -0.021493664 0.0061658146 0.007367762 -0.05732968 0.027348176 -0.03787779 -0.03960654
-0.029202837 0.016503297 -0.042534575 0.011590608 0.023213275 -0.01795879 -0.04583108 0.010311634
0.031763237 -0.03815829 0.028169077 0.031196065 -0.029292086 -0.01741593 0.0018184766 0.032698985
-0.016793104 0.0005403422 -0.0077973898 -0.021140823 0.016912581 0.0041566445 -0.0058244728 0.01093781
-0.0017873964 -0.01508147 0.007400633 -0.0085208705 -0.047749307 -0.011634213 -0.03660882 0.029887969
-0.0018586122 -0.04368306 -0.051209014 0.01800331 -0.002742138 -0.010441564 -0.018963683 -0.0029109477
0.02885566 -0.020856468 0.0062025497 -0.0038591828 -0.0030590463 -0.0040264768 -0.008907173 0.01632585
-0.018049492 0.016179081 -0.024509614 0.011038626 0.006878022 0.036489524 0.03457491 0.034892432
0.01842589 -0.016781047 -0.010666389 -0.008002632 -0.045211185 0.033788398 0.019512923 -0.017737487
-0.03141344 -0.037990544 0.023858903 -0.0045341575 -0.0071094064 0.013332216 0.02728408 -0.030458203
0.022668434 0.0094271265 -0.011085744 0.019613596 0.020671278 0.045517746 0.018416628 0.0032492788
-0.014585131 -0.012926209 -0.015093805 0.06421706 0.042700026 -0.0058016772 0.034888048 0.032738306
-0.033059247 -0.006859817 0.028018594 -0.037939247 -0.018381918 -0.036209833 0.0370923 -0.03602632
-0.004265123 -0.004649553 -0.034376368 -0.038345803 -0.022510119 -0.002318801 0.022053441 -0.023941325
-0.02342038 0.042536978 0.023082925 -0.03390915 0.01794276 -0.0050154757 0.032243308 0.015217674
0.053945903 -0.00015263115 -0.029562745 0.015258063 0.016803278 -0.007829684 -0.032197434 0.012483943
-0.017322658 -0.034112494 0.046067253 -0.0049628275 -0.04335879 0.018980652 -0.022339042 0.0022025837
-0.018988559 -0.028049253 0.03349729 0.031824656 0.03598154 0.032122716 -0.046930466 -0.03834874
-0.024763254 0.002819282 0.019624088 0.061929088 0.0029422727 0.035285678 0.011013748 -0.050764825
0.04320841 -0.044582862 -0.025366578 -0.004456602 0.026361084 0.0367641 -0.0032300288 0.025174703
