Auxillary_Code/LCNN/project/03-asvspoof-mega/lfb-lcnn-attention-am/05/__pretrained/trained_network.pt (torch, 775117 bytes, 35 tensors)

m_frontend.0.lfcc_fb f4 [257, 60]
00000000: 0000 0000 0000 0000 0000 0000 0000 0000
00000010: 0000 0000 0000 0000 0000 0000 0000 0000
00000020: 0000 0000 0000 0000 0000 0000 0000 0000
00000030: 0000 0000 0000 0000 0000 0000 0000 0000
00000040: 0000 0000 0000 0000 0000 0000 0000 0000
00000050: 0000 0000 0000 0000 0000 0000 0000 0000
00000060: 0000 0000 0000 0000 0000 0000 0000 0000
00000070: 0000 0000 0000 0000 0000 0000 0000 0000
00000080: 0000 0000 0000 0000 0000 0000 0000 0000
00000090: 0000 0000 0000 0000 0000 0000 0000 0000
000000a0: 0000 0000 0000 0000 0000 0000 0000 0000
000000b0: 0000 0000 0000 0000 0000 0000 0000 0000
000000c0: 0000 0000 0000 0000 0000 0000 0000 0000
000000d0: 0000 0000 0000 0000 0000 0000 0000 0000
000000e0: 0000 0000 0000 0000 0000 0000 0000 0000
000000f0: 0000 743e 0000 0000 0000 0000 0000 0000
00000100: 0000 0000 0000 0000 0000 0000 0000 0000
00000110: 0000 0000 0000 0000 0000 0000 0000 0000
00000120: 0000 0000 0000 0000 0000 0000 0000 0000
00000130: 0000 0000 0000 0000 0000 0000 0000 0000
00000140: 0000 0000 0000 0000 0000 0000 0000 0000
00000150: 0000 0000 0000 0000 0000 0000 0000 0000
00000160: 0000 0000 0000 0000 0000 0000 0000 0000
00000170: 0000 0000 0000 0000 0000 0000 0000 0000
00000180: 0000 0000 0000 0000 0000 0000 0000 0000
00000190: 0000 0000 0000 0000 0000 0000 0000 0000
000001a0: 0000 0000 0000 0000 0000 0000 0000 0000
000001b0: 0000 0000 0000 0000 0000 0000 0000 0000
000001c0: 0000 0000 0000 0000 0000 0000 0000 0000
000001d0: 0000 0000 0000 0000 0000 0000 0000 0000
000001e0: 0000 f43e 0000 0000 0000 0000 0000 0000
000001f0: 0000 0000 0000 0000 0000 0000 0000 0000
00000200: 0000 0000 0000 0000 0000 0000 0000 0000
00000210: 0000 0000 0000 0000 0000 0000 0000 0000
00000220: 0000 0000 0000 0000 0000 0000 0000 0000
00000230: 0000 0000 0000 0000 0000 0000 0000 0000
00000240: 0000 0000 0000 0000 0000 0000 0000 0000
00000250: 0000 0000 0000 0000 0000 0000 0000 0000
00000260: 0000 0000 0000 0000 0000 0000 0000 0000
00000270: 0000 0000 0000 0000 0000 0000 0000 0000
00000280: 0000 0000 0000 0000 0000 0000 0000 0000
00000290: 0000 0000 0000 0000 0000 0000 0000 0000
000002a0: 0000 0000 0000 0000 0000 0000 0000 0000
000002b0: 0000 0000 0000 0000 0000 0000 0000 0000
000002c0: 0000 0000 0000 0000 0000 0000 0000 0000
000002d0: 0000 373f 0000 0000 0000 0000 0000 0000
000002e0: 0000 0000 0000 0000 0000 0000 0000 0000
000002f0: 0000 0000 0000 0000 0000 0000 0000 0000
00000300: 0000 0000 0000 0000 0000 0000 0000 0000
00000310: 0000 0000 0000 0000 0000 0000 0000 0000
00000320: 0000 0000 0000 0000 0000 0000 0000 0000
00000330: 0000 0000 0000 0000 0000 0000 0000 0000
00000340: 0000 0000 0000 0000 0000 0000 0000 0000
00000350: 0000 0000 0000 0000 0000 0000 0000 0000
00000360: 0000 0000 0000 0000 0000 0000 0000 0000
00000370: 0000 0000 0000 0000 0000 0000 0000 0000
00000380: 0000 0000 0000 0000 0000 0000 0000 0000
00000390: 0000 0000 0000 0000 0000 0000 0000 0000
000003a0: 0000 0000 0000 0000 0000 0000 0000 0000
000003b0: 0000 0000 0000 0000 0000 0000 0000 0000
000003c0: 0000 743f 0000 0000 0000 0000 0000 0000
000003d0: 0000 0000 0000 0000 0000 0000 0000 0000
000003e0: 0000 0000 0000 0000 0000 0000 0000 0000
000003f0: 0000 0000 0000 0000 0000 0000 0000 0000
0.0 0.0 0.0 0.0 0.0 0.0 0.0 0.0
0.0 0.0 0.0 0.0 0.0 0.0 0.0 0.0
0.0 0.0 0.0 0.0 0.0 0.0 0.0 0.0
0.0 0.0 0.0 0.0 0.0 0.0 0.0 0.0
0.0 0.0 0.0 0.0 0.0 0.0 0.0 0.0
0.0 0.0 0.0 0.0 0.0 0.0 0.0 0.0
0.0 0.0 0.0 0.0 0.0 0.0 0.0 0.0
0.0 0.0 0.0 0.0 0.23828125 0.0 0.0 0.0
0.0 0.0 0.0 0.0 0.0 0.0 0.0 0.0
0.0 0.0 0.0 0.0 0.0 0.0 0.0 0.0
0.0 0.0 0.0 0.0 0.0 0.0 0.0 0.0
0.0 0.0 0.0 0.0 0.0 0.0 0.0 0.0
0.0 0.0 0.0 0.0 0.0 0.0 0.0 0.0
0.0 0.0 0.0 0.0 0.0 0.0 0.0 0.0
0.0 0.0 0.0 0.0 0.0 0.0 0.0 0.0
0.4765625 0.0 0.0 0.0 0.0 0.0 0.0 0.0
0.0 0.0 0.0 0.0 0.0 0.0 0.0 0.0
0.0 0.0 0.0 0.0 0.0 0.0 0.0 0.0
0.0 0.0 0.0 0.0 0.0 0.0 0.0 0.0
0.0 0.0 0.0 0.0 0.0 0.0 0.0 0.0
0.0 0.0 0.0 0.0 0.0 0.0 0.0 0.0
0.0 0.0 0.0 0.0 0.0 0.0 0.0 0.0
0.0 0.0 0.0 0.0 0.71484375 0.0 0.0 0.0
0.0 0.0 0.0 0.0 0.0 0.0 0.0 0.0
0.0 0.0 0.0 0.0 0.0 0.0 0.0 0.0
0.0 0.0 0.0 0.0 0.0 0.0 0.0 0.0
0.0 0.0 0.0 0.0 0.0 0.0 0.0 0.0
0.0 0.0 0.0 0.0 0.0 0.0 0.0 0.0
0.0 0.0 0.0 0.0 0.0 0.0 0.0 0.0
0.0 0.0 0.0 0.0 0.0 0.0 0.0 0.0
0.953125 0.0 0.0 0.0 0.0 0.0 0.0 0.0
0.0 0.0 0.0 0.0 0.0 0.0 0.0 0.0

m_transform.0.0.weight f4 [64, 1, 5, 5]
00000000: 613f ed3c 60ab 3dbe 3609 3e3e a19e 42be
00000010: 4020 92bd 4045 4b3d c040 11be f9a2 773d
00000020: 458c d13d 9cc7 cc3b f703 1c3e af31 953c
00000030: 2c03 4ebe 35cd 343e c197 5f3e 842c 773d
00000040: 675f 20be 76f0 073e bbef 9e3d 3cf7 13bd
00000050: d936 3bbd 0de0 c2bd 95b4 74bd c038 273d
00000060: cec9 3c3e 5c79 61bd 7d22 303e c2a4 d63c
00000070: ed68 a8bd 1e2d e8bc 265b 92bd bf34 553d
00000080: 6680 b6bd ec43 313e 871c 37be eeb8 423e
00000090: 5c35 803d 40f7 26be e209 c83d 6425 b93c
000000a0: bfe3 f43d 2ce3 17bd de4b 20be 53cb 863d
000000b0: 0d64 273d df49 993b c5e1 1bbe c03b c9bb
000000c0: 608c bfbd 580b 00be 2920 7bbd a3d5 5e3d
000000d0: 3117 3d3e 770a 3d3e e5c3 023e 1247 ebbd
000000e0: 6de9 0d3e b360 e93b eaee 993d 7f40 023e
000000f0: e9c1 0abe 3b2d 43be 34d0 293e 62e0 23be
00000100: ccbb bdbd c5c0 a2bc ea08 2b3e 4e51 db3d
00000110: 3747 eabd 68e0 573e 2f52 1fbe 318f 2fbe
00000120: f1a7 ca3d d377 3dbd 7b1e c6bd 15ff cfbd
00000130: 9444 39be e47b 253e 4bfe 29be a2f3 463c
00000140: 81d1 bf3d a042 f23d bf50 1d3e f708 103d
00000150: 3cb4 9e3d 5e43 f4bd f76a 33be 182e 39bd
00000160: c84f 923d f91e ebbd 6c1e 0d3a 2fcf 273e
00000170: 1455 bbbd 491c 3a3c 85b3 cfbc 570e 64bd
00000180: d2fb 063e a939 25be fc0d 253e e51d 14be
00000190: 2475 f2bd 9707 f93d b2a4 a8bd 3609 3f3e
000001a0: f6dc 3cbe 650f 9b3d 77c1 393d 45e9 41be
000001b0: 032c bd3d cba7 d1bc 5c0d 1fbd 1bca cbbd
000001c0: 25af 383e 1eca 823d 948c f5bd d367 193e
000001d0: bd64 27be 5ac7 173e 5b2d 233e fc0d 2dbd
000001e0: 204a ecbd b7cd 01be deeb 34be 25a3 c83d
000001f0: 935b b03d 98e7 e2bd 372d 13be adce 473e
00000200: 04a6 1ebe a8a8 a23d ec83 143e 6fe5 093e
00000210: 2590 44be 734a e0bd 945b 753c 0e1c 183e
00000220: fdc2 cd3d ae36 323e b416 143e c158 fd3c
00000230: 2912 81bd 99d7 463d fa2b aa3c 7479 06bc
00000240: a895 0e3e f4ad 893d c968 b7bb 5141 d33d
00000250: 084c 353d 6ea0 2fbe da02 30be 5ab1 e2bc
00000260: d863 edbd 6fbf 293e 6985 253d 9a2a 133e
00000270: efc7 0c3e 642e 003e 5d6c 5fbd bd07 223e
00000280: cef3 9bbd ca19 27bc 16e1 113e 35ce 873d
00000290: 92b0 3abd 282a ef3d c146 3f3d bb36 7a3b
000002a0: 1f1b 85bd 016c d0bb c9cd 273d c1d7 6abc
000002b0: adfa 013e 8ca7 c53d 2d87 f9bd 3722 36bd
000002c0: c2f6 92ba 32ab 4bbe fad4 e93d 1b9e 6abc
000002d0: a7f9 3c3e 3ef3 c83d 4367 39be fbca 11be
000002e0: 3a8f 4f3d 82d0 d5bb b57c 50be a7b1 183d
000002f0: 7c3f 5dbc 6e01 e8bb 1b93 d33d b74c 143e
00000300: b322 e93d c0a0 ff3b e58b 093e 2e2f 28be
00000310: 2654 273e baba f9bd f531 19bd de36 adbd
00000320: 11ab 94bd cc58 17be dd14 4ebd abb7 02bc
00000330: 4179 83bd e69e 4a3e 6454 1f3e b1bf f5bd
00000340: aba9 233d 7d8d 613d 77cd 20bd d43b 3c3e
00000350: 03a7 e4bc f010 3dbe 8460 10be 8b8d 2bbe
00000360: 667c 00bd b6de 683d 5082 16be 1963 0bbe
00000370: 861e 02be 57b4 283d df08 fdbc 3ed9 a0bd
00000380: 815b 4fbd 2c5c d73c 3c62 513c 59e4 173c
00000390: 1b1f f23d 4b2b 7cbd c8be 2f3d 80be f83d
000003a0: 116f e43c 223a aebd f60b e93d 3752 fb3d
000003b0: a487 273d 2ba4 abbd 9f27 de3d 5875 473c
000003c0: f3da bd3b 7a9d 19be d8c6 553d 5946 d1bc
000003d0: 689c d23d f759 0a3e 95e9 0f3e 62b0 e13c
000003e0: 706e 1bbd ffff c03d 6b66 0f3e c617 a33d
000003f0: b9a3 e9bc 5767 bf3d 12f2 aabd e86b 2b3d
0.028960885 -0.18522406 0.18558201 -0.19005825 -0.071350574 0.04962659 -0.14184856 0.060458157
0.102318324 0.006249381 0.15235887 0.018212168 -0.20118397 0.17656405 0.21835233 0.060345188
-0.15661393 0.13275322 0.07760569 -0.036124453 -0.045706604 -0.095153905 -0.05974253 0.040825605
0.18436357 -0.055047378 0.17200656 0.02620161 -0.08223138 -0.028341826 -0.071462914 0.052052256
-0.08911209 0.17311066 -0.17881976 0.19015858 0.062601775 -0.16305256 0.0976751 0.022600837
0.119575016 -0.037081882 -0.15653941 0.0658175 0.0408669 0.0046779956 -0.15222843 -0.006141156
-0.09352946 -0.12504327 -0.061309967 0.05440296 0.18465878 0.18461023 0.1277004 -0.11488165
0.13858576 0.007122123 0.07516272 0.12719916 -0.13550533 -0.19060223 0.1658333 -0.16003564
-0.09264335 -0.01986731 0.16702619 0.10708867 -0.114393644 0.21081698 -0.15558694 -0.17144467
0.098953135 -0.04625685 -0.096737824 -0.10156075 -0.18092567 0.16160542 -0.16600911 0.0121430475
0.093661316 0.11829114 0.15362833 0.0351648 0.07749221 -0.11926912 -0.17521273 -0.045209974
0.07144123 -0.11480517 0.00053832564 0.16387628 -0.09147087 0.011359283 -0.025354156 -0.055677738
0.13182 -0.16135277 0.16118616 -0.14464529 -0.11838749 0.12159651 -0.08234538 0.18655857
-0.18443665 0.07571296 0.045350518 -0.18936642 0.0923691 -0.025592705 -0.0388311 -0.09950658
0.18035562 0.06386207 -0.11989704 0.14981012 -0.16347022 0.1482214 0.1593527 -0.042249665
-0.11537576 -0.1267613 -0.17668101 0.09796742 0.086112164 -0.11079329 -0.14372717 0.19512434
-0.15493017 0.07942325 0.14503449 0.13466428 -0.19195612 -0.109517 0.014975447 0.14854452
0.10046957 0.17403671 0.14461786 0.03092611 -0.06302292 0.048545454 0.020772923 -0.008207668
0.13924277 0.06722632 -0.005597208 0.103151925 0.044261962 -0.17151043 -0.17188588 -0.027672458
-0.11591309 0.16576932 0.040410433 0.1437172 0.13748144 0.12517697 -0.054546703 0.15823264
-0.076148614 -0.01019902 0.1424602 0.06631128 -0.045578547 0.116779625 0.046698336 0.0038179595
-0.064993136 -0.0063605313 0.040967736 -0.014333666 0.12693281 0.09651098 -0.12183986 -0.044466224
-0.0011212456 -0.19889525 0.11417575 -0.014319922 0.1845461 0.0981202 -0.18105797 -0.14237587
0.0506737 -0.0065251 -0.20360072 0.037278797 -0.013503905 -0.0070802486 0.103307925 0.1448239
0.113835715 0.0078011453 0.13432272 -0.16424248 0.16340694 -0.121938184 -0.03740116 -0.08457731
-0.07259191 -0.14779967 -0.050312866 -0.00797836 -0.06419612 0.19787177 0.15559536 -0.11999453
0.03995673 0.055066574 -0.039258447 0.18382198 -0.027911669 -0.18463492 -0.14099318 -0.16753213
-0.031368636 0.05685302 -0.14698148 -0.13612022 -0.12706956 0.04118761 -0.03088802 -0.07853936
-0.050624374 0.026289068 0.012779769 0.009270751 0.11822339 -0.061564725 0.042906553 0.1214571
0.027884992 -0.08507182 0.113792345 0.122715406 0.04090084 -0.08380922 0.10847401 0.012173973
0.005793923 -0.15001479 0.052191585 -0.02554624 0.102837384 0.13510881 0.14053948 0.027549926
-0.03794712 0.094238274 0.14003913 0.07963519 -0.028520452 0.093458824 -0.083469525 0.041850954

m_transform.0.0.bias f4 [64]
00000000: 1a09 3dbc 2731 2abc 4d99 2bbe 6b38 edbd
00000010: 5a48 7bbc 0e9e b4bb d2fe 2d3e 8723 033e
00000020: 1ab0 1d3e 28d3 e43b 5172 be3d fed4 23be
00000030: b26a 343e 2a47 c3bd a2aa 533e 4d44 24be
00000040: dab0 2cbe f136 443d 57d3 edbd 90b4 1e3e
00000050: ca4b b33d 4268 c63d 9d28 49ba c031 c23d
00000060: 04d1 93bd 6412 ef3d 24ae 45be 6dce e4bd
00000070: 048c 253e b994 33be d895 e93d 2263 cabd
00000080: faed 213d 1ad1 133e ef4e 363e d071 2b3e
00000090: 2d60 d2bd a7c4 e7bd 5ec8 bd3c b7b4 9b3d
000000a0: 7272 2c3e 549e d4bc 0dc4 833d 7a7e 0cbe
000000b0: 7d24 3fbc 0552 b4bd 16b5 30be da2d 273e
000000c0: b152 273a 1fb7 f83d 9b36 273d 5559 003c
000000d0: ff4a cabc 2da2 473e d66f 0d3e a28c edbd
000000e0: fac9 9fbd e462 22be ae22 193e b83f 343e
000000f0: 764c 133e 6eb2 d03d 5a90 863d 6d75 143e
-0.0115378145 -0.010387695 -0.16757698 -0.115830265 -0.015337074 -0.0055120056 0.16991737 0.12806521
0.15399209 0.0069831796 0.09299148 -0.15999219 0.17618826 -0.09535058 0.2067056 -0.1604168
-0.16864339 0.04790396 -0.116125755 0.15498567 0.0875469 0.09687854 -0.00076735934 0.09482145
-0.07217601 0.116734296 -0.1930471 -0.11172185 0.16166693 -0.17537202 0.114055336 -0.09882189
0.039533593 0.14435235 0.17803548 0.16742635 -0.1027225 -0.11316805 0.023166832 0.07602828
0.16840532 -0.025954403 0.06433878 -0.13720122 -0.011666414 -0.088047065 -0.17256579 0.16326085
0.00063828664 0.121443026 0.04082356 0.007833798 -0.024693964 0.19495459 0.13812193 -0.11599089
-0.07802196 -0.15858036 0.14954636 0.17602432 0.14384636 0.10190283 0.065705016 0.1449792

m_transform.0.3.weight f4 [64, 32, 1, 1]
00000000: 24c8 573e 2f6d 11be 9aa1 11bc 3971 a43d
00000010: c8de 04be 7cd1 0b3e cd2d 13bd cc58 c73c
00000020: 8d2b 833d 9d42 7b3d df50 8cbd 0c3d 2cbd
00000030: e646 b6bd bb83 4a3c 7e8b acbd 7a98 0c3e
00000040: cc01 7dbb fca6 b4bd d170 58bd 96d0 033e
00000050: 0360 e73d 3d1c 3b3a 9145 ecbd 9677 113e
00000060: 9e4a 8dbc a090 f93d ae04 ff3c 76bd 043e
00000070: 1aa5 03be 25b7 fbbb adde 953d 659f ce3d
00000080: 5266 12be 4e80 29be eb06 36bd 83c1 103e
00000090: 809d d7bd 868a 933d 8ce7 3abe cade 053d
000000a0: 5b5a 1d3c 2d91 fabd 01c5 2dbc 6b7a 8bbd
000000b0: 19be 2cbd 536a 1ebe 849b f23d 5a05 f73d
000000c0: 50dd 93bd 40dd dbbb 062a 05be 2065 e6bd
000000d0: 6ee2 193e 7f7e cb3d d2e6 a2bd 62ae f73c
000000e0: 8489 643d cec7 49bd 584e 01be 7b5b 85bd
000000f0: e109 e13c 63be 0dbe bf9a e63d 6bdd 8dbd
00000100: f1d5 d8bc d5bd bfbd 5c4b ca3d 2c73 29be
00000110: 49d2 77bc 625b c9bd 543e fbbd dc41 ca3d
00000120: b941 37be 46e3 0e3e 28da 7fbc 8496 01bd
00000130: 993a bb3d f4c6 b3bd b7cb 5abd 89ea 6f3b
00000140: 7fe4 0dbe 2bbc 163e 783e 1dbe 4108 d73d
00000150: 7add 143c 63e8 5dbe 651a 1d3d 6750 04be
00000160: 06d5 56be 4110 28be 0144 783c d6c2 44bd
00000170: 7777 c53d 8979 3cbe c930 c63c 84db 36bd
00000180: fdf1 253e 60e5 0b3e 41a4 09be 328e 0a3e
00000190: 9039 d3bd 30ff bf3b 1ebe 1d3e aa8c e03d
000001a0: 5be8 2a3e 16d4 7ebd 7c3e 0f3e 99e3 203e
000001b0: 2fec 103d c7a4 11be e28c 16bc 9a7a afbd
000001c0: 848f ba3d 6e22 953d 6a6c 01be dbf2 2abd
000001d0: a522 603d 2476 15be 1b7f 12be d378 d03d
000001e0: 095e de3d cb89 093e 8a52 f73d f7ae 7b3c
000001f0: 874f 08be d403 07bc 16b1 263e be74 11be
00000200: 84be ed3d 794c b1bd 03c6 e4bd 8ea4 a8bd
00000210: b951 c03d 7ed3 28be 2a5f 183e df75 fc3d
00000220: d293 2f3d c247 0b3e 3373 cf3c 9f0f 3cbd
00000230: 7232 ff3c 8e19 243e fe3c 71bd 6311 f93c
00000240: e428 c4bc 0923 8cbc 914c 253e e5d6 df3d
00000250: 391b 33be efee c93d 1a05 a93c 649a 5a3d
00000260: 9255 06be bb91 173e 9517 cc3c 8fd0 c43c
00000270: 0e8b c7bd a0f0 c13d 31c4 203d 3356 ffbc
00000280: ce1f 5c3d 0556 5a3d 3766 fabd 3ba1 213e
00000290: 88a8 293e 2a6a 8f3c 15cc 81bd 1bcc b83d
000002a0: d394 ecbd 4abe d83d 5560 8fbd 9a45 f23c
000002b0: b418 32be 1ef7 17be 61f6 cbbc 7528 a83d
000002c0: 83e4 28bd 7cf2 82bd 1b14 833c 6c00 213e
000002d0: 8b4c d63d fad9 113e 04a8 c9bc a14e d03d
000002e0: 8e74 46be 7cb6 4bbb 375b ff3d 1805 2d3e
000002f0: 2a09 3c3d 0471 87bd 7427 40bd 8430 68bd
00000300: 37f4 25be 75b9 313d 9d4e 92bc daa6 cebd
00000310: 6878 1cbe e5ae 7e3d 459a 13be 88c8 f0bd
00000320: 1723 f3bd aabe 17be f996 97bd 012d 2d3e
00000330: be37 0bbc 772a db3d eb4b 003e 2e0d e4bd
00000340: fb08 2ebd 923e a0bd 8067 9a3d 5547 1abe
00000350: b589 063e edc6 7b3d 500d 12bc 2ef6 2bbd
00000360: b897 0e3d 962b 823d de4b a53a f6f7 d93c
00000370: eea4 58bd be1a fdbb dd96 25be 6bf8 9cbd
00000380: 73f6 323e 07ec 86bd 26e6 be3d c384 debd
00000390: ed22 18bb d95b d73b 5878 233e a353 f4bd
000003a0: 5f96 843d 1af3 5dbd 79df 87bc fff8 923d
000003b0: 6fa2 d33c 8d96 273d 1374 2f3e a25f 233d
000003c0: 570d a13d 479b 373e f8de e7bd bd48 b53d
000003d0: 0930 2ebe 88f9 e9bb ebfe 263e 9fc2 98bd
000003e0: 9d80 603d fd5f 3f3d 0469 3bbe 8b5b b63c
000003f0: 85d2 003e d5cb 843d 687f 63bd f83f ba3d
0.21072441 -0.14201806 -0.0088886265 0.08029408 -0.1297561 0.1365413 -0.03593235 0.024334334
0.06404791 0.061342824 -0.068513624 -0.042050406 -0.089002416 0.012360509 -0.084250435 0.1373004
-0.0038605807 -0.08820912 -0.052841965 0.12872538 0.1129761 0.0007137692 -0.11536706 0.14205775
-0.017247494 0.12185788 0.031130161 0.12962899 -0.1285595 -0.0076817446 0.07317863 0.10088996
-0.14296845 -0.1655285 -0.04444019 0.14136319 -0.105280876 0.072041556 -0.1825239 0.03268317
0.009604062 -0.12234721 -0.010606051 -0.06810459 -0.04217348 -0.15470247 0.118460685 0.120615676
-0.072199464 -0.0067097247 -0.13004312 -0.11249757 0.15027782 0.099362366 -0.07954182 0.03023452
0.055795208 -0.049262814 -0.12627542 -0.06511589 0.027470531 -0.13842158 0.11259984 -0.06926998
-0.026469203 -0.093623795 0.09877655 -0.16547841 -0.0151258195 -0.09831883 -0.122677475 0.09875843
-0.17896165 0.13953885 -0.015615977 -0.031637684 0.09142036 -0.08778182 -0.053416934 0.00366083
-0.13856696 0.14720218 -0.15355861 0.10499621 0.009086007 -0.2167068 0.03835525 -0.12921296
-0.209797 -0.1641245 0.015152932 -0.048037373 0.09641927 -0.18405737 0.024193184 -0.04464294
0.16205592 0.13661718 -0.13441564 0.13530806 -0.103137136 0.005859278 0.15404555 0.109643295
0.16690199 -0.06221398 0.1398868 0.15711822 0.035381492 -0.14223014 -0.0091888625 -0.08568306
0.09109405 0.072819576 -0.12639013 -0.04173551 0.05472054 -0.14595848 -0.143063 0.101792954
0.108577795 0.1343147 0.1207629 0.015361539 -0.13311587 -0.008240659 0.1627849 -0.1420469
0.116086036 -0.08657164 -0.1117058 -0.08234511 0.09390587 -0.16486928 0.14880052 0.123271696
0.04286558 0.13601592 0.025323486 -0.045913335 0.031151984 0.16025373 -0.058896057 0.030403798
-0.02394528 -0.01710655 0.16142489 0.1092966 -0.17490853 0.09860026 0.020632315 0.053369895
-0.1311858 0.14801686 0.024913589 0.02402523 -0.097433195 0.09469724 0.039249603 -0.031169033
0.05374127 0.05330469 -0.12226527 0.15784161 0.16568196 0.017506678 -0.06337754 0.09023305
-0.115518235 0.1058317 -0.07000796 0.029574204 -0.17392236 -0.14840361 -0.024897756 0.082108416
-0.04123355 -0.063939065 0.016000798 0.15722817 0.10463818 0.14243308 -0.024616249 0.10171247
-0.193804 -0.003108411 0.1246857 0.16896474 0.045907177 -0.06613353 -0.046912625 -0.056686893
-0.16206442 0.043389756 -0.017859751 -0.10090418 -0.15280306 0.06217851 -0.14414318 -0.11756998
-0.11871927 -0.14818826 -0.074018426 0.16911699 -0.008497177 0.10701459 0.1252896 -0.11135326
-0.042489033 -0.07824434 0.07539272 -0.15066274 0.13138469 0.061469007 -0.008914307 -0.041982822
0.03481266 0.063559696 0.0012611111 0.026607495 -0.052891664 -0.007724135 -0.16170831 -0.076645695
0.17476825 -0.065879874 0.09321241 -0.10865166 -0.0023214177 0.0065722284 0.15963876 -0.11930015
0.064739935 -0.054186918 -0.016586052 0.071763985 0.02583429 0.04091506 0.17134123 0.039886124
0.078638725 0.17930327 -0.11321825 0.08851764 -0.17010511 -0.007140342 0.16308181 -0.07458996
0.054810155 0.0467224 -0.18301779 0.022260448 0.12580307 0.064841904 -0.055541426 0.09094232

m_transform.0.3.bias f4 [64]
00000000: 8ba7 54bd 84bf 7b3d 524f 6abd db89 003e
00000010: bd85 ef3d 5eb3 39bd 7e2c 25bc 29d7 17be
00000020: 80c5 f0bd e9bf 17be d06e da3c 4460 f03d
00000030: 0403 e8bc 21a7 6a3c 37ea d5bd f9cf 0b3e
00000040: c5d0 153e 0d78 57bd e725 ddbd f905 163d
00000050: fc48 efbd 3709 9dbc 108c 0e3e 9690 1b3e
00000060: e656 89bd 04b2 c83d b3a8 0d3e 43d8 e83c
00000070: 7725 1abe 9a13 8bbd 4696 2d3e df2a ee3d
00000080: 2e85 153d 9ff0 bebd 8522 c23d 5a04 093e
00000090: 559e 9fbc fbb8 18be 2fa4 623d 1133 03be
000000a0: f094 b23c 73de 88bd c093 2fbe 2642 9d3d
000000b0: 9416 0b3e 6019 46bd d342 0fbe a523 18be
000000c0: 57c9 213e e723 14bd c376 1c3e 29d2 babc
000000d0: e89e d6bd b860 9f3c 99a0 263e 1236 bebc
000000e0: d480 67bd ecfb 18be 6bba a63d b7df aebd
000000f0: 00ef b9bd 787f f83d 04ee 083e 275c fc3d
-0.051917594 0.06146194 -0.057204552 0.12552588 0.116954304 -0.045337074 -0.010081409 -0.14828171
-0.1175642 -0.14819302 0.026664168 0.11737111 -0.02832175 0.014322073 -0.104450636 0.13653554
0.1463042 -0.052604724 -0.10798245 0.03662679 -0.116838425 -0.019169433 0.13920617 0.15191874
-0.06706028 0.09799579 0.13833885 0.028423434 -0.15053354 -0.06790848 0.16951856 0.11629271
0.036503963 -0.093232386 0.0947924 0.13380566 -0.019484678 -0.14914314 0.05533236 -0.12812449
0.021799535 -0.06683054 -0.17146206 0.076786324 0.13582832 -0.048364043 -0.13990335 -0.14857347
0.15799461 -0.03616705 0.15279679 -0.02280529 -0.10479528 0.019455299 0.162722 -0.023219142
-0.056519344 -0.1493985 0.08141025 -0.08538764 -0.09078789 0.12133688 0.13372046 0.12322264

m_transform.0.5.running_mean f4 [32]
00000000: d22d 883f 2bd3 c43e f689 d83c c88c 813e
00000010: c950 b03f 539c b73e 5212 a83e 116e 0a40
00000020: bd39 033f 276c f93f 2ba2 4f3f c594 f93e
00000030: 788d 353e edf8 493f 25a0 153e b3e5 c6bd
00000040: af50 8a3f 8e89 b8bd 7125 813f c268 db3d
00000050: 9ae2 40be e50d 04bd c734 653e 4be3 8a3d
00000060: 8c49 53be dd17 053e d9b3 813f caba 333f
00000070: 60cd 853f 7e1a 44bc 2924 973e a4e9 a5bd
1.0638983 0.38442358 0.026432972 0.2530272 1.3774654 0.35861453 0.32826477 2.162968
0.51259977 1.948613 0.81106824 0.48746315 0.17729747 0.78895456 0.14611872 -0.097117804
1.0805873 -0.090106115 1.0089551 0.1071334 -0.18836442 -0.032239813 0.22383414 0.06781634
-0.20633525 0.12997384 1.013301 0.7020689 1.04533 -0.011969207 0.29519776 -0.08101204

m_transform.0.5.running_var f4 [32]
00000000: 62aa bc3e 0e37 bb3d c140 8f3d b0f0 e33d
00000010: a070 ce3e 5202 613d 6ba4 173d ba57 aa3f
00000020: 2f74 203d d1a5 963f 99c0 213e 43cc 803d
00000030: 9fba 5d3d a776 133e 47e4 db3d de4f b93c
00000040: 0a06 8e3e 7786 6a3c da03 8d3e 63d0 0f3d
00000050: 95e1 653d ce27 c73d 354f 8a3d 9c9e 453d
00000060: 38e2 003d 1018 c33c 5c20 883e 10e1 163e
00000070: 78f4 ca3e 11a5 2c3d 457f 2d3d 0087 3a3d
0.36848742 0.0914136 0.06994773 0.11129892 0.403203 0.054933853 0.037022036 1.3308022
0.0391733 1.1769353 0.15796126 0.0628896 0.054133054 0.14400731 0.107369 0.022621091
0.27738982 0.0143142855 0.27542 0.035110842 0.056123335 0.09724389 0.06753389 0.048246965
0.03146574 0.023815185 0.26587188 0.14734292 0.3963964 0.042149607 0.0423577 0.045538902

m_transform.0.6.weight f4 [96, 32, 3, 3]
00000000: efaa a0bc c431 4cbd 0a64 89bd 4cf1 6dbd
00000010: 7552 13bd aa16 6cbd 7e41 e93c 2158 a9bb
00000020: 0335 463d 8fcd 713d e2e0 543c 02fa 023d
00000030: 9393 65bd c8aa 8cbc 344d 123d 3b54 5fbd
00000040: baf0 cd3c f038 fabc bbde bdbc 7952 8c3d
00000050: badd b0bc 6e18 63bc 0f3b b93c 4a3a e23c
00000060: 7da4 c83b 0384 01bd eb17 ccbc f0d3 82bb
00000070: e9cc 063c 9061 2ebd 0d74 41bd 0252 933c
00000080: 89c3 88bc e64c cabb b5c7 253d 9919 c83c
00000090: 82c5 0e3d 7259 88bc 2ce9 553c 73e9 213d
000000a0: 513c 3bbd cb1d 0abd e418 86bd ae4a 8cbd
000000b0: 5fc5 e6bc 8189 b73c 160e 5abb 618f 8dbc
000000c0: c5b9 9bbd d1c9 57bc ed44 82bd af68 053c
000000d0: 4a0e 663a d816 cebc 2950 86bd e758 29bd
000000e0: 574c 243d 4f67 e1bb 1985 cf3c 3c17 093d
000000f0: afeb d8bc 5f82 d7bc 5d90 9a3d 3c1b 18bc
00000100: 52cd bbbc c828 27bd 81b6 81bd feaa 053d
00000110: 0430 22bc 90cb cfbc a70b 043d ff81 cb3c
00000120: 06a8 a0bc 24bc ebbc ff74 4f3d e2f1 4fbd
00000130: c8f8 e83b 6959 d43b d865 88bc fbe0 733d
00000140: 9536 293d 3538 5ebd 62ba 46ba 63fd 73bd
00000150: d99d 31bc 2525 3bbc 5bc1 46bd 90e8 c23c
00000160: 0c40 74bd 79a6 8abb 3898 633c 11d7 1abd
00000170: 3144 31bd 6431 023d 9ede 79bc 2707 cebb
00000180: 6e5f 153d ebfe a73c 91ad 34bd 3852 8b3c
00000190: bb36 64bd 3550 46bd c936 2e3c cd36 e3bc
000001a0: 1100 3dbd e8d7 0b3d e1f9 2dbd 7d51 41bd
000001b0: 36f8 5ebd 1022 64bc 981c 92bc 65b3 b9bc
000001c0: 702c 323d 3c9b 903c bda1 073c de5b a0bc
000001d0: 02b6 49bd e9d5 32bd 546c 70bd c5ca 12bd
000001e0: c90d 033d 1ad7 82bd 9351 7ebb e0c6 cd3b
000001f0: 9da1 2cbd f422 7a3c 7171 a9bc 1a1f 113d
00000200: 3266 0a3c 46bb 7cbc b79f 8b3c b841 20bd
00000210: 53b7 9f3c 8afb b1bb d2be 25bc 93b2 f6bc
00000220: a531 2dbd 3934 ddbc 1769 073d 877e 5e3c
00000230: 1007 c1bc 2075 fd3c d2d5 c93a 2c8f 293d
00000240: f24a 0bbc 1f1d 1abd a19c 76bd a592 bf3c
00000250: e660 2f3d cc23 28bd 5658 233d 9dc0 31bc
00000260: 01c5 133d 24fa 71bd c002 2fbd c89f 5bbd
00000270: febe 293c 8066 11bd 87e1 133d 579e 193d
00000280: 8657 1abb a779 06ba 1d8b 823c c849 d2bc
00000290: c46a 1e3d 181c c4bc 83e2 61bd 447a f8bc
000002a0: b574 7f3c 30de c7bc 2877 963c d6ed c3bc
000002b0: 3dab 12bd 24a8 e7bb 8b25 48bd 5b8b 673c
000002c0: f48e 903c aa25 723a 8cf1 743d 61f3 bf3c
000002d0: 1e5b 963d 8a52 1b3d 69a6 8bbc bdbb 8dbc
000002e0: 63ce 953d 817c db3c bacc 7d3d 5fef 4a3d
000002f0: 5d76 11bd 4928 b3bc d93a 67bc 166d 883c
00000300: d08b 52bd 2a6b 6d3d a594 73bd f25a 4f3d
00000310: 2a94 f13c 9122 323c 0983 b13c ba15 393d
00000320: 1429 3c3c 932e f83a a4aa 5fbc a79d f83c
00000330: b2ec 82bd 80c0 603d 2af9 3a3c f8eb 0fbd
00000340: 33ef 783c 0932 e2bc d32b a43c ef8b 973c
00000350: a73b 61bd 0eeb a9bb d6eb 113d 3de7 9e3b
00000360: aba4 983c eb9a 9cbc 2c12 ca3b c35d 82bc
00000370: c93c 943b 8ce6 80bd 58f2 27bd afd7 27bd
00000380: 9b90 ef3c 30f9 09bc e1a5 2abd 18a5 33bd
00000390: 3373 6dbc 8a01 823b f460 223d ff78 a3bd
000003a0: 9fc7 d3bc 7cf9 463d f8bf 813d fcfb 79bd
000003b0: 48e8 06bd c6aa 223b 76b0 34bd 3fdc 65bd
000003c0: 4c07 0f3d 8f50 22bd b28e b53c e037 8bbc
000003d0: 03e7 d3bc 3555 673d b2c1 3fbd cf6e bf3c
000003e0: b163 e83b e870 2ebd 7e5f 88bc 5807 693c
000003f0: 904f d3bb 09df a8bb f1a5 413d d6e3 3e3d
-0.019612757 -0.049852148 -0.06708534 -0.058091447 -0.03596731 -0.0576388 0.028473612 -0.0051679765
0.0483904 0.059033927 0.012993069 0.031976707 -0.05604894 -0.017171279 0.035718158 -0.054523688
0.025139201 -0.030544728 -0.023177495 0.06851668 -0.021590102 -0.013860805 0.02261117 0.027615685
0.006123124 -0.031620037 -0.024913749 -0.00399255 0.008227565 -0.04257351 -0.047229815 0.01798344
-0.0166948 -0.006173718 0.04047366 0.024426268 0.034856327 -0.016644213 0.013056081 0.039529275
-0.04571182 -0.03371982 -0.06547716 -0.068501815 -0.028170286 0.022404434 -0.0033272556 -0.017280282
-0.07603792 -0.013170675 -0.06360803 0.008142634 0.0008775933 -0.025157377 -0.06558258 -0.04134455
0.040111866 -0.0068787704 0.02533202 0.033469424 -0.02647957 -0.026307283 0.07547066 -0.009283837
-0.022925053 -0.040810376 -0.06333638 0.032633774 -0.009899143 -0.02536562 0.032237675 0.02484226
-0.01961137 -0.028776236 0.050648686 -0.050767787 0.007109735 0.006480385 -0.016650125 0.05954073
0.04131182 -0.054252822 -0.0007580874 -0.05956782 -0.0108408565 -0.01142243 -0.048524242 0.023792535
-0.059631392 -0.004231271 0.013891272 -0.03780276 -0.043277923 0.031785384 -0.01525083 -0.0062874737
0.036467962 0.020507297 -0.04411084 0.017006978 -0.055716258 -0.048416335 0.010633179 -0.027736092
-0.04614264 0.03414145 -0.04247463 -0.047196854 -0.05443593 -0.013924137 -0.0178359 -0.02266855
0.04349941 0.017652147 0.0082783075 -0.019575056 -0.04924584 -0.043661032 -0.05869706 -0.035837907
0.03199557 -0.063886836 -0.0038805946 0.0062798113 -0.042146314 0.015267123 -0.020683976 0.03543005
0.008447217 -0.015425509 0.017043931 -0.039125174 0.019496595 -0.005431597 -0.010116296 -0.030114448
-0.042283673 -0.02700244 0.033059206 0.013579971 -0.023562938 0.030939639 0.0015398806 0.041396305
-0.008501755 -0.03762543 -0.060207967 0.023385355 0.04281702 -0.041049764 0.039879166 -0.010849145
0.03607655 -0.059076443 -0.042727232 -0.053619176 0.0103604775 -0.035498142 0.03610375 0.03750452
-0.0023550703 -0.0005129822 0.015935475 -0.025669947 0.03867604 -0.023939177 -0.05514766 -0.030331738
0.01559179 -0.02439794 0.018367365 -0.02391712 -0.035807837 -0.0070696045 -0.04886393 0.014132346
0.01764629 0.000923718 0.05980067 0.023431482 0.07341598 0.037920512 -0.017047124 -0.017301435
0.07314756 0.026792767 0.06196282 0.04954469 -0.03551327 -0.021869795 -0.0141131515 0.016653579
-0.051402867 0.057963528 -0.05946793 0.05062384 0.029489595 0.010872499 0.021668928 0.045186736
0.011484403 0.0018934779 -0.013651524 0.030348612 -0.06392802 0.054871082 0.011411944 -0.035137147
0.015193748 -0.02761175 0.020040428 0.018499343 -0.05498853 -0.0051854914 0.0356253 0.004849343
0.018633207 -0.01911684 0.006166717 -0.01591385 0.0045238477 -0.06293973 -0.0410026 -0.040977176
0.029243758 -0.008421227 -0.0416621 -0.043858618 -0.014492798 0.0039674686 0.039643243 -0.079820625
-0.025852023 0.04857777 0.06335443 -0.061031327 -0.032936364 0.0024821027 -0.0441136 -0.056118246
0.03491907 -0.039627608 0.022162769 -0.016994417 -0.02586699 0.056477744 -0.04681558 0.023368267
0.0070919623 -0.042588145 -0.016647097 0.014222942 -0.0064486936 -0.005153541 0.047277395 0.046604

m_transform.0.6.bias f4 [96]
00000000: 1252 863d a9bd 7e3d 9654 57bd f30e b43a
00000010: aa65 2cbc 0d35 45bd 2ccd 0dbc 8e38 bd3c
00000020: 2b65 d4bc 004f 883d 0c9b 34bc 7208 1d3d
00000030: d668 8b3c 92e8 8abd ad0d f0bc c925 773c
00000040: 96aa 86ba 1f3b d7bc 470b 62bc 7540 4bbd
00000050: 1a92 a7bc 6a4c e73b 930c b63c c203 c3bc
00000060: 2c55 ddbc 76c3 1c3d c5f4 f83c c63b 0bbc
00000070: 1f0f 41bd 4584 ebbc 95af 4cbd 476f c5bc
00000080: 3c29 233d ec92 1cbd 4447 febc 5955 8a3d
00000090: 63e5 e63c 32b3 98bd a750 9fbd 25fe c2bc
000000a0: c3dc a7bd e4f1 c43c cdc6 9a3c 552a 9c3c
000000b0: 34c4 05ba 3ff3 15bd ae9d 72bb a125 bd3c
000000c0: 518b b03c 2516 2fbd 3690 3d3d c663 413d
000000d0: 7877 9b3d 3f42 603c 9ef5 30bd 96b8 debc
000000e0: a2f0 80ba 8786 883c 01bc 433d 726e 5e3d
000000f0: d8ac 333d 058a c6bc 9e8e 98bc 97ce 433d
00000100: f187 543d 2c96 7e3d 950a 1b3d 8aa0 3c3d
00000110: 5441 8cbc 4e52 dfbc c85b 5b3d a968 653d
00000120: cd80 193c b9e8 51bd 2175 633b 3c06 323d
00000130: 873c 013d 64ed 8e3c 3c95 92bc 2cca 45bd
00000140: 5a3e 60bd 36d2 4c3d ffb1 96bb cd93 81bd
00000150: 972c 29bd 4ffe ff3c afaf a3bc a61a 38bd
00000160: 9331 6f3d 3e24 37bd 1c04 0abd 588e d3bc
00000170: 97eb 3cba 32e0 cdbc ae39 75bc 5389 303d
0.065586224 0.062192593 -0.0525709 0.0013737365 -0.0105222855 -0.048146296 -0.008654874 0.023098256
-0.025927147 0.06655693 -0.011023294 0.038338132 0.017017763 -0.067826405 -0.029303396 0.015084692
-0.0010274227 -0.026273308 -0.013796634 -0.049622018 -0.020455409 0.00705867 0.022222793 -0.023805503
-0.027018152 0.038272344 0.030390153 -0.008498138 -0.04713356 -0.028749594 -0.049972136 -0.024100913
0.039834246 -0.038226053 -0.031039841 0.0675456 0.028185552 -0.07456054 -0.07779055 -0.023802826
-0.08196404 0.024041124 0.018893624 0.019063154 -0.0005102784 -0.03660893 -0.0037020254 0.023089232
0.021550806 -0.042745728 0.04628011 0.047214292 0.07591146 0.013687669 -0.04320299 -0.027187627
-0.0009837339 0.01666571 0.047786716 0.054304548 0.04386601 -0.024235735 -0.018622693 0.04780444
0.051887456 0.062154934 0.03785189 0.04605154 -0.017120995 -0.027260926 0.053554326 0.056008015
0.009369087 -0.051247332 0.0034707265 0.043462977 0.031551864 0.017447181 -0.017893426 -0.04828851
-0.054746963 0.05000516 -0.0045988555 -0.06327019 -0.04130229 0.031249193 -0.019981233 -0.04494729
0.058396887 -0.044712298 -0.033695325 -0.02582471 -0.00072067365 -0.025131319 -0.014967365 0.043099713

m_transform.0.9.running_mean f4 [48]
00000000: 131a 803f cf21 de3f 041d 9b3f ff4c 673f
00000010: 30c4 a03f 8466 5d3f 61e7 c83f 2469 3f3f
00000020: f41a 0040 9a2c 883f acec 7f3f 4717 5a3f
00000030: cb1b c33f 4d25 c33f 87cd 333f 8102 7f3f
00000040: f834 953f 9a66 833f 6911 113f ab09 3d3f
00000050: a531 2b3f 02c3 9f3f a13c 823f 4154 483f
00000060: 7dcd 5b3f a987 7a3f 50e1 773f f500 483f
00000070: 0f1a 873f 6623 863f 856f 613f 6117 7e3f
00000080: aa18 d53f 186b 7f3f c541 673f 8df2 933f
00000090: 07f9 653f 3df1 823f 3123 603f 1827 423f
000000a0: aee4 543f a0cf 573f 0877 7b3f 2547 8e3f
000000b0: 6c23 803f 1eef fe3e 3160 513f 2429 aa3f
1.0007957 1.7354068 1.211823 0.9035186 1.2559872 0.8648455 1.5695611 0.74769807
2.001645 1.0638611 0.9997051 0.8519177 1.5242857 1.5245758 0.70235485 0.99613196
1.165679 1.0265687 0.5666719 0.7384288 0.66872627 1.2481387 1.0174752 0.7825356
0.85860425 0.9786325 0.96828175 0.7812646 1.0554827 1.0479553 0.8806079 0.99254423
1.6648152 0.9977279 0.9033473 1.1558396 0.8983311 1.022987 0.875537 0.758409
0.8316144 0.84301186 0.982285 1.1115462 1.001081 0.49791807 0.817874 1.3293805

m_transform.0.9.running_var f4 [48]
00000000: cf59 973f 245f 7d3f f0e5 f93e 4fdf a73e
00000010: 3336 0b3f 7c9f 243f 636e 353f 60c0 003f
00000020: aca0 0240 344a d03e d618 1c3f f11f db3e
00000030: f5b4 983f 41b6 463f 9425 c53e 70ff 8d3f
00000040: adc2 633f 0a62 1140 f383 713e 6595 ca3e
00000050: 9d67 a03f 3726 e73e 3922 8f3e 2a40 063f
00000060: a304 013f 8ae7 7f3f ba55 963e 8f6f 903f
00000070: b06d f13e fde2 373f 5765 273f e481 0b3f
00000080: f3c3 aa3f 4349 0c3f 1bb3 ae3f ca14 193f
00000090: 38ad 303f dc2a 1540 d838 a03f 8df3 1d3f
000000a0: 9eaf 363f 00fa 183f 0367 c03e d65c 813f
000000b0: 7de7 9a3f ffad 873f 904d c13e bc3d fe3f
1.1824282 0.989733 0.4880824 0.32787558 0.54379576 0.64305854 0.7087156 0.5029354
2.0410566 0.40681612 0.60975397 0.42797807 1.1930224 0.7762185 0.38505232 1.1093578
0.88968927 2.2716088 0.23585491 0.39567104 1.253162 0.45146343 0.27955797 0.52441657
0.503977 0.99962676 0.2936228 1.1284045 0.47153997 0.7183073 0.6538901 0.5449507
1.3341049 0.5479929 1.3648409 0.59797347 0.6901431 2.330741 1.2517347 0.61699754
0.7136172 0.5975647 0.37578592 1.0106456 1.2101895 1.0599974 0.37754488 1.986259

m_transform.0.10.weight f4 [96, 48, 1, 1]
00000000: 2161 d93d 683b b53d 8713 403d e91c 67bd
00000010: a1d5 26bd 93f0 cebc ef3b 173e 8d97 07bd
00000020: d674 ce3c dab7 ab3d 0278 5fbd 5c03 88bd
00000030: 31bf 3fbd 7675 143e 979e 2c3d aa5f 973d
00000040: d2cb 0c3e df5f 4a3d bb60 e43d 1ace dbbd
00000050: 7b18 5d3d ed00 d23d 9755 91bd 33e5 b5bc
00000060: d83e 96bd db18 c8bd 6fee 993d 2766 f9bc
00000070: acdd ba3d 93aa 813c e6e0 90bc 3f19 82bd
00000080: f0d2 83bd ca36 9a3d 20b0 a93d e8e0 ac3d
00000090: d116 083e 07ca 94bd b4aa c8bc 7753 47bd
000000a0: 0e02 873d 624a acbd 9343 ff3d 9e29 003e
000000b0: 7679 b3bd 89bc 00bd db7f 523d ee0e b53d
000000c0: 6823 fe3c 753b 0d3e 69bc c93d 3733 58bd
000000d0: 0155 9c3d e246 1e3c f20a a93d d651 963b
000000e0: da08 983d ea50 2c3d faea 773d 9ff2 89bd
000000f0: 34f5 fb3d 6295 d8bb 9889 14bd a192 673d
00000100: f7e6 a83d 3f71 15bd 924c 9d3c 3a24 cb3a
00000110: c7c7 a53d f477 6cbc 6d1d 263c 048a 0ebd
00000120: a420 b63d ebe0 893d cb37 493d bbbf 35bd
00000130: 1653 133e b224 cdbd 9c7b 2cbd f4e8 0fbe
00000140: d201 07be bee2 c73d 5ccb ebbd 12e3 8fbd
00000150: b158 e8bc fd48 033e 322d 7cbd 9ea5 08bd
00000160: 492c b53d 96f1 a8bd c79d fc3d fba6 febd
00000170: d399 553d f84c 723a bb8c 183e 1e24 493d
00000180: 0445 c9bd a958 17be 1f33 81bd 0632 c2bd
00000190: 1c53 813d adde cebd fa79 2abd 51e6 a3bd
000001a0: b551 d1bd 3ec4 96bc 035b 8cbd 3621 113d
000001b0: d75f 6fbd 8735 dfbc fa6b 34bb 139f 03bc
000001c0: b938 503d 793b d43d 56af 58bc b107 7ebd
000001d0: e67c a2bd 5dcd b53c 95d0 e23d 31ed dcbd
000001e0: 4b71 73bd 4f48 eb3d fc7a 883d 19aa 8dbd
000001f0: 30a0 963c fd72 80bd e918 5d3c 508f 403d
00000200: 5891 053e 035e 033d 1acb d2bd e85c c43d
00000210: 2c31 073e 074d b73d b68a 0d3e f6ea 843c
00000220: d441 ef3c 8fbe 1dbd 758c cf3d 9e96 d6bc
00000230: fa39 863d b0b9 45bd 3079 fc3d 4b46 933d
00000240: 2597 c6bd b0fa 9dbd c33b cd3d 6f8f e13d
00000250: d84b 523d 2b98 ffbd 1d7b 003e 4ca8 0e3d
00000260: 77d5 7bbd 008c 89bd 9f8d dfbb 6e4c b8bc
00000270: f587 f1bd d392 8e3d e9f8 c6bd c1e0 04be
00000280: 3292 603c ce50 e6bc 593d 05bd 6133 ca3d
00000290: 9e8c 7fbd 23b6 ba3d 2027 dfbd f586 efbd
000002a0: 4559 10be bb7e de3d 2120 9c3c 393b 03bd
000002b0: 8d26 403d e7c9 1dbd a99b 1fbd cdc6 a8bc
000002c0: 76dd 52bd 571b af3d 3e40 acbd bfbf 34bd
000002d0: 7a21 5fbd dea6 95bd 38f0 c23d 1e92 eb3d
000002e0: 6cfd d5bd b26b 9b3d 807d eb3d 2f24 e639
000002f0: 7bc7 d0bd 5b66 ec3d 9bb2 103e a4ea 20bd
00000300: 723c 1cbd 029d 70bc af19 e2bd e48f 1e3e
00000310: 25ae cb3d 4d65 6d3c b51d eb3c b17f 913d
00000320: 0ac1 25bd 19a2 4a3d 514a debd 560f 0c3e
00000330: 4175 973d 540b 94bd 5a4c ccbd 7e95 b53d
00000340: f42d 62bc 0fa8 da3d feb2 95bc 83d9 67bb
00000350: 67b0 05be 61da 10be 44bf b5bd a6bd aa3d
00000360: 1834 3bbd cb34 b53c 3350 8f3d 8375 97bd
00000370: c233 fdbd 4351 2ebd 039c 173d d7f1 323d
00000380: 779a b33d deb3 bebb dc77 0d3e 1db5 223e
00000390: 490a a7bd 8d4a 35bd 65a7 923d ecfc c9bd
000003a0: 6a1a c63d 8e91 a73b 76cd 873c 7cd2 d83d
000003b0: 94a1 303d f831 fdbc 730b 25bc e556 d1bd
000003c0: 1b90 13bd 60bd 34bd 0d12 3a3d 1ff6 9bbd
000003d0: 97ac a43c 76d4 fc3d 2684 25bb 9a27 9dbd
000003e0: 949f b83d 644c cabb a0ea 01be f273 75bd
000003f0: 0fdb 1c3e 6296 cb3d 0f2e 0d3d 4af2 9a3d
0.10614229 0.088492215 0.046893623 -0.056424055 -0.040731076 -0.0252612 0.14768957 -0.033103514
0.025202196 0.08384676 -0.054557808 -0.06641266 -0.046813194 0.14497933 0.04214343 0.07391293
0.13749626 0.049407836 0.111512624 -0.1073267 0.053978425 0.10254083 -0.07096403 -0.022204017
-0.07336205 -0.09770366 0.07516181 -0.030444218 0.09124312 0.015828406 -0.017685365 -0.063524716
-0.064367175 0.075299814 0.08285546 0.08441335 0.13289954 -0.07265096 -0.02449546 -0.048663583
0.06592189 -0.08412625 0.12464061 0.12515876 -0.08763401 -0.0314298 0.051391464 0.08840738
0.031022742 0.13792212 0.098503895 -0.052783217 0.07633401 0.0096604545 0.08254041 0.0045873923
0.07423563 0.042069353 0.060526825 -0.067357294 0.12302628 -0.0066096047 -0.036264032 0.05653632
0.08247178 -0.036484953 0.01920155 0.0015498467 0.08094745 -0.014432896 0.010138852 -0.03479959
0.088929445 0.06732353 0.049125474 -0.0443723 0.14387164 -0.10016765 -0.04211007 -0.14053708
-0.13184288 0.097600445 -0.11513397 -0.07025732 -0.028362604 0.12820812 -0.06156654 -0.03336107
0.08846337 -0.08249204 0.12334781 -0.12434193 0.05214865 0.00092430366 0.14897434 0.04910671
-0.09827617 -0.14779915 -0.06308579 -0.094821975 0.0631468 -0.10101066 -0.041620232 -0.08002914
-0.102206625 -0.018404122 -0.068532966 0.035432063 -0.05844101 -0.027247204 -0.002753018 -0.008033532
0.050835345 0.10362906 -0.013225397 -0.062019054 -0.07933979 0.022192651 0.1107494 -0.10787428
-0.059434216 0.11488401 0.066640824 -0.06917209 0.01838693 -0.06271932 0.013494709 0.047011673
0.13043725 0.03207208 -0.10292645 0.09588033 0.13202351 0.08950239 0.13822445 0.01622532
0.029206194 -0.03851181 0.10134212 -0.026194867 0.06554027 -0.04827279 0.12327802 0.07191142
-0.09696797 -0.077138305 0.10021164 0.11013686 0.05134186 -0.124801956 0.12546964 0.03482847
-0.061482873 -0.06716156 -0.0068223025 -0.022497382 -0.1179351 0.06961598 -0.097154446 -0.12976362
0.013706731 -0.028114703 -0.03252921 0.09873081 -0.062389962 0.09116771 -0.108961344 -0.11695663
-0.14096554 0.10864016 0.019058289 -0.0320389 0.046911765 -0.038522627 -0.03896681 -0.020602608
-0.051480733 0.085501365 -0.08410691 -0.044128176 -0.054475285 -0.07307218 0.09518474 0.11502479
-0.10448727 0.075889006 0.114985466 0.00043895977 -0.10194298 0.1154296 0.14130633 -0.03928627
-0.038143583 -0.014685871 -0.11040055 0.15484577 0.09945325 0.014489484 0.028700689 0.07104433
-0.0404673 0.049470995 -0.108540185 0.13677725 0.07395411 -0.07228723 -0.099755004 0.08866404
-0.013804901 0.10676586 -0.018273827 -0.003537745 -0.13055573 -0.14145805 -0.08874372 0.08336954
-0.045703977 0.0221199 0.06997719 -0.073954605 -0.12363388 -0.042557966 0.03701402 0.043687668
0.08769696 -0.0058197817 0.13815254 0.15889402 -0.081562586 -0.04426055 0.07160834 -0.09862694
0.09673007 0.005113787 0.016577464 0.10587022 0.043122843 -0.030907616 -0.0100735305 -0.10221652
-0.0360261 -0.044125915 0.04542737 -0.07615303 0.020101829 0.12345211 -0.0025255769 -0.07673569
0.09014812 -0.0061736573 -0.12687159 -0.059925027 0.15317939 0.099407926 0.034467753 0.07565744

m_transform.0.10.bias f4 [96]
00000000: 5654 ea3d ad02 7a3d 01c9 463b e5a6 623d
00000010: 9a04 8b3d 2604 b8bd 96a3 9cbd 4aec 05be
00000020: 8a8e f3bd d57b cdbd c642 d9bd 50bf 9e3d
00000030: b71a bdbc c5d4 0ebe aebb 8f3c 9c89 9d3d
00000040: 117e a73c e749 953d 6ff8 e4bd 8046 993a
00000050: 74de 063e 01c6 77bd f427 9d3d 1350 1c3e
00000060: fb3d 633d af8f b3bd 6d4b 37bd 2725 f13d
00000070: 167d 8f3d 1b24 203e 720b d4bd 48b3 fa3d
00000080: d2f1 36bc bd8a ec3c 8413 f33c c068 64bd
00000090: 2263 cc3d 4055 df3d b1b9 a7bc a379 0b3d
000000a0: 5ee9 06bd e994 99bd 09e6 9fbd 53d6 e2bd
000000b0: a6f0 d53c 7ffa 07be b690 13bc dbb1 0a3e
000000c0: 82c7 82bd cb95 de3c f4d7 da3c 5d29 bd3d
000000d0: 35fb 623d 8c86 84bd ac2b dfbc c311 1abc
000000e0: 4cd1 c73d b1d7 17be be2d e53d 20fb b4bd
000000f0: 75f3 cc3d dfe5 bf3d d126 a03d 6552 2d3d
00000100: 3ab1 bbbc 1769 abbd a151 7bbd daff 443d
00000110: 1f87 af3d ebff c8bd 5dd5 0c3e 78ec cd3b
00000120: 9ce2 823d 0cb1 603d 4fc1 9f3c 29eb 793d
00000130: d28e 0bbe 049b b43d 6395 d03d aa68 fbbd
00000140: c529 dd3d 5704 acbd 93dc 0a3d e53d 683d
00000150: b95d b4bb e1e4 db3d aed9 263e c7df 883d
00000160: a7cb 11bd 756f 133d a63e 96bd c33f e0bd
00000170: c3b3 94bd 5667 acbb d67e cd3d c787 85bd
0.11441867 0.061037708 0.003033221 0.055334944 0.06787987 -0.08985166 -0.07648389 -0.13078418
-0.118924215 -0.10033385 -0.10608439 0.07751334 -0.023084028 -0.13948353 0.017545547 0.076922625
0.020445855 0.072894864 -0.111801974 0.0011693984 0.13170797 -0.060491566 0.07673636 0.15264921
0.05547903 -0.0876764 -0.044749666 0.11774664 0.0700628 0.15638773 -0.103537455 0.122412264
-0.011166053 0.02887475 0.029672392 -0.05576396 0.099798456 0.10904932 -0.020474287 0.03405155
-0.0329374 -0.074991055 -0.078075476 -0.11076035 0.026115727 -0.1327915 -0.00900667 0.13544409
-0.06385709 0.027171036 0.026714303 0.09236405 0.05541535 -0.06470975 -0.027242504 -0.009403649
0.09756717 -0.14828373 0.11190365 -0.08836961 0.10007373 0.09370016 0.07819904 0.042314906
-0.022911657 -0.08369654 -0.061357144 0.04809556 0.08570694 -0.098144375 0.13753267 0.006284293
0.063908786 0.054856345 0.019501356 0.06101528 -0.136287 0.088186294 0.10184743 -0.122758225
0.107989825 -0.08399265 0.033901762 0.056699652 -0.0055043367 0.107370146 0.16293976 0.06683307
-0.03559461 0.035994966 -0.07336168 -0.109496616 -0.07260849 -0.005261342 0.10033958 -0.06520038

m_transform.0.12.running_mean f4 [48]
00000000: eda4 f03e 1d26 aa3e 7f85 c03e 3672 813e
00000010: 4a44 053f 1ef6 5a3e 3767 203f 0442 913e
00000020: 1f6b 493e 1df1 573e c0b9 cb3e b975 073f
00000030: d2cd 993e efdb b33e 4ad5 b73e f07c 073f
00000040: bb65 183f 8bd6 c13e 1fa1 813e 37f9 623e
00000050: 9c40 f93e 4c1f 4e3e caae f23e 5573 a93e
00000060: 0764 de3e 9272 883e 4ad3 923e 221f 303f
00000070: bfe8 9e3e 96d2 d63e 50c4 da3e 5d35 0e3f
00000080: 51cf 173f 8901 a33e 65cb c73e 3643 c03e
00000090: 8e6e fa3e bee7 493f 7319 253f fb36 013f
000000a0: 4c44 083f 0298 093f 118a a13e db06 4e3e
000000b0: 3655 413e cf28 b23e 5ec2 f93e 036f b03e
0.47000828 0.33232203 0.3760185 0.2528245 0.52057326 0.21382949 0.62657493 0.28370678
0.1966977 0.21088071 0.39790154 0.52914006 0.3003984 0.35128734 0.35904914 0.52925014
0.5953023 0.37858996 0.25318238 0.2216538 0.48682106 0.20129126 0.47398978 0.33095804
0.4343569 0.2664991 0.28676826 0.68797505 0.31036946 0.4195754 0.427279 0.55550176
0.59300715 0.3183711 0.39022365 0.37551278 0.48912472 0.78869236 0.6449196 0.5047452
0.5322921 0.5374757 0.3155065 0.20119803 0.18880162 0.3479676 0.48781103 0.34459695

m_transform.0.12.running_var f4 [48]
00000000: 47df 5e3e 86cc 4a3e 03c8 663e f26b 833e
00000010: f7c0 683e 0b6e 3b3e 08e6 9b3e 56b9 393e
00000020: 044f 5f3e 59ca 903e d57e 483e a025 663e
00000030: 7098 393e 85f7 cb3e 0f8c 513e 9687 9d3e
00000040: 9afd 763e dd37 9b3e 9fdb 523e 0064 873e
00000050: 0ea7 543e f5b3 9a3e 37ad a63e 1499 353e
00000060: 4a74 733e af81 783e fb05 8e3e 2976 8c3e
00000070: 909b 0f3e c636 a63e 4947 6f3e 586d b83e
00000080: 472d 6e3e 9123 2c3e 97d3 883e cc1d 683e
00000090: 5842 c33e e07b 6c3e 5f25 5f3e f528 813e
000000a0: 8715 c23e 326b 723e 9b83 2d3e 7638 783e
000000b0: bf9a 533e 0f29 9e3e fb05 893e fc19 c23e
0.21764861 0.19804582 0.22537236 0.25668293 0.2272986 0.18303697 0.30448937 0.18137106
0.21807486 0.2827938 0.19579633 0.2247529 0.18124557 0.3983728 0.20463584 0.30767506
0.24120179 0.30316058 0.20591591 0.2644348 0.20766851 0.3021542 0.32554027 0.17734176
0.2377483 0.2426822 0.27738938 0.274339 0.14024186 0.32463664 0.23367037 0.36020923
0.2325946 0.16810443 0.2672393 0.22667617 0.38136554 0.2309413 0.217916 0.2522656
0.3790705 0.23673704 0.16944735 0.24240288 0.206645 0.308907 0.26762375 0.3791045

m_transform.0.13.weight f4 [128, 48, 3, 3]
00000000: 0181 663c 6e9d 41bd 0cee f4bb 692a 80bb
00000010: bc5f 4dbd abe7 293c 8eac 45bd ade2 013d
00000020: a49a 20bd cd2d 1bbc 4706 403d b3bd bf3b
00000030: 0796 af3c 1e1b 033d f738 fa3c 974d 9fbb
00000040: 8d39 82bc 7913 103c 3829 313c ce9c 4c3c
00000050: da1f babc 0e22 98bc 494e c83c 23d7 e8bc
00000060: 49dc 113d b908 cd3c ba15 7eba 42ba 26bd
00000070: d6f0 61bc 1472 093d 5826 16bd e5c0 72bd
00000080: 1c99 a8bc bdd8 9c3b b6f6 16bc 1d54 32bd
00000090: be93 8c3c 6214 393d 3b81 a03c 2363 b9bb
000000a0: 77de 6b3c 9690 bdbc 1e2e 5f3d 3080 643d
000000b0: 8cc8 07bd a062 2fbc 37f5 953c 5425 9fbb
000000c0: f56b 0d3d e737 b63c f9f6 63bc aac5 0cbd
000000d0: f01c 733c 9556 65bb d02e 1a3d 4090 833d
000000e0: ef85 073d ea87 5c3d 433e a93c 8483 0d3d
000000f0: 3cc5 9b3c cc49 aebb d57f 863c 2aa5 1d3d
00000100: fc41 163d 0951 923c ba98 c13c bb84 95bc
00000110: f119 06bc 9ee8 fa3c 3094 5cbc 19d1 0a3c
00000120: ee42 753b 8c9a 943c 81b4 b6bc c832 403c
00000130: 91c2 52bc d9ce a33b 1844 99bb 5fdd e7bc
00000140: 1211 143d a23f 223d c3af ddbc 73bf 1dbc
00000150: ad77 86bc 11b2 5bbd 9fe9 a33c 190b 9e3c
00000160: e271 183c 7a1f a43c 3de9 223d a9b6 b3bc
00000170: 9ccc 68bb aa55 2c3c 8d17 86bb 956e 133d
00000180: d671 cebc 26da f93c 13da f3bc c5cc 2dbd
00000190: 1d80 35bd 658d 583d 5775 7dbc 520a fd3c
000001a0: 9345 2cbd 5dd5 92bc d488 e5bc c389 d93c
000001b0: 73e1 31bd 7377 44bd eb4a 9dbc 4621 57bb
000001c0: 3d8b 5b3c b158 743c ef8a 12bd 19d1 103c
000001d0: b144 873c fffa 0fbd 3c45 703c 6f20 fcbc
000001e0: d67d 1b3d dbe4 99bc b354 153d 6143 52bd
000001f0: 4666 e93c dab1 583c e35a 31bd 7641 013d
00000200: 7ac5 edbb fd1a 243c 9738 44bc 2b4d 71b8
00000210: 217f 3b3d 2fbb c4bc bed7 343d 35f8 843c
00000220: 3998 1abd 00c9 14bd c16c 353c c900 813c
00000230: 18b9 59bc b656 e1bc e461 683d 378e cd3c
00000240: f680 893a f056 0e3c ae76 2f3d 4490 05bd
00000250: ccc4 073d 2402 cbb8 888b 6dbc 04ee cf3c
00000260: 2dc5 b7b9 d67b 2a3c ef1b 9f3c 1e0e 03bd
00000270: f204 5fbc a5cc 78bc 4e9b 8dbc 7468 063d
00000280: ba31 4b3d 5028 033d b5d2 6bbd a953 0c3c
00000290: 4672 e4bc 0447 4c3c f90f a73c 1143 953c
000002a0: ef2a 46bc a5b3 b9bb 8745 de3c cc20 9ebc
000002b0: 5071 453c d8e8 cbbc 7a9d ab3c 4396 25bd
000002c0: 092e 383d 7308 2fbd 16a2 d1bc 3204 c23b
000002d0: 86ed 593d 0f4a eb3c a92d 573c 8c59 a93c
000002e0: a7f7 20bd 1c58 213d 65f4 6ebc f9c5 a3bc
000002f0: 5660 aabc f428 663d 6814 8bba b715 083d
00000300: b8d8 b5bc 92b6 f43c ccf8 5f3c 0b63 35bd
00000310: 4b9b ccbc 8b39 babc cf64 1a3d 6d27 8d3b
00000320: 5bb1 0b3d da0c e23c ab8d f8bc 2898 17bd
00000330: b6d6 233d d6b7 d9bc be01 e1bc 6d7b a43c
00000340: ae16 0dbd 4757 d53c e31a b2bc 6a71 c6bc
00000350: f904 7b3c 6167 2fbd 74ac 1bbd 0399 0eba
00000360: 608e 293d af13 afbc b2e2 22bd ddd9 283d
00000370: ca78 a1bb f52d df3c 7911 6bbc e53b 6c3b
00000380: 5c7c 6fbc 7fcf b3bb 4823 76bd ab94 86bb
00000390: 3e6e 37bc 98d8 dabb 007e d9bc 57b3 cc3c
000003a0: 0fbf c53b 9a6b 2f3d 38cc 293c 71eb 14bd
000003b0: e72b c1bc 6eb2 b6ba ce37 95bc 806c e23c
000003c0: c2d8 3e3d e838 0fbd a5c4 dbbc f708 3fbd
000003d0: 777e 0c3d 3dfa 483c 3d54 30bc 13ba 97bc
000003e0: e5d4 c8bb f709 ff3c a054 6c3d 8105 b23c
000003f0: f8a3 b73c 18a3 593d 49af 2fbd 4a53 abbb
0.014068843 -0.047269277 -0.0074746665 -0.0039113057 -0.050140128 0.010370175 -0.048260264 0.031710315
-0.039209977 -0.009471369 0.046880987 0.0058514713 0.021433843 0.032008283 0.030544741 -0.0048615444
-0.015896583 0.008793705 0.01081305 0.012488557 -0.022720266 -0.018570926 0.024451392 -0.028422898
0.03561047 0.025028573 -0.00096925686 -0.040704973 -0.01379033 0.03355606 -0.03665766 -0.05926599
-0.02058082 0.0047865794 -0.009214094 -0.043537248 0.017160293 0.045185454 0.019592872 -0.00565757
0.0143963015 -0.023140233 0.05448734 0.05578631 -0.03315024 -0.010704666 0.018305404 -0.004856745
0.034526784 0.022243453 -0.013913863 -0.034368195 0.014838442 -0.0034994234 0.0376423 0.06423998
0.033086713 0.053840555 0.020659572 0.03454925 0.019014947 -0.005318856 0.016418377 0.03848759
0.03668402 0.017860906 0.023632396 -0.018251767 -0.008184896 0.030628499 -0.013463065 0.008472704
0.0037423926 0.0181401 -0.022302868 0.011730857 -0.012863771 0.0049990234 -0.004677307 -0.0283038
0.036149092 0.039611466 -0.027061349 -0.009628165 -0.016414488 -0.053636614 0.02000886 0.019292401
0.0093044955 0.02003454 0.039773215 -0.021937685 -0.0035522347 0.010518471 -0.004092163 0.03599413
-0.025200766 0.03049953 -0.029767072 -0.04243161 -0.04431163 0.05286922 -0.0154698705 0.03088871
-0.04205854 -0.017924005 -0.028019346 0.026554948 -0.043427896 -0.04796548 -0.019200763 -0.003282623
0.013399896 0.014913724 -0.03577703 0.008838915 0.016512247 -0.035151478 0.014664944 -0.030777184
0.037961803 -0.018785885 0.03645773 -0.05133379 0.02849115 0.013225997 -0.043299567 0.03155657
-0.007256207 0.0100162 -0.011976383 -5.7530746e-05 0.045775536 -0.024015037 0.04415106 0.016231636
-0.037742827 -0.0363245 0.011073292 0.015747445 -0.013288759 -0.027507167 0.05673398 0.025092227
0.0010490704 0.00868772 0.04283779 -0.032608286 0.033146665 -9.680193e-05 -0.014498599 0.02538205
-0.00035051387 0.010405501 0.0194225 -0.031995885 -0.013612019 -0.01518551 -0.01728597 0.032814458
0.04960797 0.032020867 -0.057573993 0.008564868 -0.027886521 0.012468103 0.020393359 0.018220456
-0.012095197 -0.0056671673 0.027132763 -0.019302748 0.012050942 -0.024891302 0.020949114 -0.040426504
0.044965778 -0.042732667 -0.025589984 0.0059209103 0.053205036 0.028721837 0.013133445 0.020672582
-0.03929868 0.03939067 -0.014584635 -0.019991862 -0.02079789 0.0561914 -0.001061094 0.033223834
-0.022198066 0.029872213 0.013670158 -0.044283908 -0.024976393 -0.022732517 0.037693795 0.0043076784
0.034104686 0.027594019 -0.03034099 -0.037010342 0.039999686 -0.026576918 -0.027466651 0.020078385
-0.034445457 0.026042594 -0.021741336 -0.024224002 0.01532101 -0.0428232 -0.03800626 -0.00054396706
0.041395545 -0.02137169 -0.039766975 0.041223396 -0.0049277293 0.027243594 -0.0143474275 0.0036046442
-0.014617052 -0.005487382 -0.06009224 -0.004107078 -0.011195717 -0.006678652 -0.02654934 0.02498786
0.006034739 0.042827226 0.010363631 -0.036357347 -0.023580505 -0.0013938674 -0.018215086 0.027639627
0.046593435 -0.03496638 -0.026827166 -0.04663941 0.034300294 0.012266693 -0.0107622715 -0.018521344
-0.0061288946 0.031132681 0.057697892 0.02173114 0.022417054 0.053134054 -0.042891774 -0.0052284347
