Auxillary Code/LCNN/project/03-asvspoof-mega/spec2-lcnn-attention-sig/05/__pretrained/trained_network.pt (torch, 710843 bytes, 33 tensors)

m_transform.0.0.weight f4 [257, 60]
000000 44 a3 73 3c 43 a4 9b ba a9 98 86 3c bc bd c3 3c
       0.0148704685 -0.0011874515 0.016430216 0.023894183
000010 1b af ee 3b 71 a8 ee 3b 9e e9 cb 3c d4 db fa bb
       0.007284058 0.0072832634 0.02489167 -0.0076556
000020 bb a5 4c bc c0 8d 02 bd a0 c3 e8 3b 79 31 9e 3b
       -0.012490685 -0.031873465 0.0071033984 0.004827675
000030 6a cc 9d bc 53 d9 e4 bb c3 a8 08 bc 5b 41 87 bc
       -0.019262511 -0.006983915 -0.008341017 -0.016510656
000040 10 3c 0b 3d 03 05 23 ba 35 0e eb bc 4f 8c 07 3c
       0.033992827 -0.00062187033 -0.028693298 0.008273198
000050 d0 b8 cf bc 3d 64 5d 3c dc 98 57 bd d7 c8 b6 3c
       -0.02535668 0.013512668 -0.052636012 0.022312565
000060 9a 3f bc ba dd f5 06 3c 56 23 d0 bb ba 85 34 3d
       -0.0014362216 0.008237329 -0.0063518686 0.044072844
000070 d0 4a b2 bc f7 a6 0f bb 55 fe 36 bc f1 e4 9a bc
       -0.021764189 -0.0021919587 -0.011169036 -0.018907996
000080 34 7f 39 bd 00 67 98 bc a4 e4 2d bc 6d 92 30 bb
       -0.045287326 -0.018603802 -0.010613594 -0.0026942745
000090 9d 60 8d 3c 5e ee bc 3c 18 56 81 bc 1c 5e bc 3c
       0.017257983 0.023062881 -0.015788123 0.022994094
0000a0 b2 7f e7 3b ab 16 63 bb 90 08 91 bc 9a 4a e1 bb
       0.007064783 -0.0034650962 -0.017704278 -0.0068753483
0000b0 f4 2d 08 bc 49 46 75 3b a1 15 85 3c 1c d3 aa ba
       -0.008311737 0.0037425926 0.016245665 -0.0013032886
0000c0 31 f6 f9 bb 18 1c 88 3c 1e 97 1a bc 01 6b b7 bc
       -0.0076282253 0.016614959 -0.009435443 -0.02238989
0000d0 9c 82 a7 3c 6d 59 3e bb cd 04 34 bc cd c5 50 3c
       0.020448022 -0.0029045 -0.010987473 0.012742472
0000e0 b8 e5 19 bc f5 ce 19 bd 78 af 89 3d 91 d6 87 3d
       -0.009393148 -0.037550885 0.06722921 0.06632722
0000f0 99 ab ae 3e a2 52 97 3c dd ff 43 3c 4c ee 3e bc
       0.34115294 0.01847202 0.011962858 -0.011653494
000100 f9 47 89 3c 73 7c a1 bb 8e d1 05 bc 70 ee 3c 3c
       0.016757952 -0.0049281656 -0.0081676375 0.011531457
000110 6b 68 b2 3c 3a b9 a4 bc 64 e4 de 3b 3d 22 ee 3c
       0.021778306 -0.020107854 0.0068021286 0.02906906
000120 d4 b0 f3 bc 79 06 8e 3b 7d d2 7c 3c 2a f1 71 bc
       -0.029747404 0.0043342677 0.015431044 -0.014766971
000130 7f d3 2c 3d dc cd 7c 3b cd 6a c7 bc 1d e6 9c bc
       0.042193886 0.003857485 -0.024342919 -0.019152695
000140 2b 69 e7 3b cb 48 18 bc e5 2f 32 bd 8f dc 01 3b
       0.0070620975 -0.009294699 -0.043502707 0.00198153
000150 16 18 f6 3b 94 a1 85 3c 1f 4c 8c 3c 6d f7 96 3d
       0.0075101955 0.016312398 0.017126141 0.073714115
000160 1a 72 23 bc a4 ea 15 3c ae dd 05 bc d5 f2 06 bd
       -0.009975934 0.009150181 -0.008170528 -0.032946426
000170 fa ec 75 bc 2c 70 3e bb 1e 08 88 bc 83 3b 1e 3b
       -0.015010113 -0.002905856 -0.016605433 0.0024144358
000180 5c b5 ed 3a 90 58 02 3c 51 69 75 3a e0 e1 bb 3c
       0.0018135714 0.007955685 0.00093617017 0.022934854
000190 b1 ee 8e 3c d9 30 bf ba 51 32 3b bc 85 f7 03 3c
       0.017447801 -0.0014586701 -0.011425571 0.008054619
0001a0 54 e2 3e 3c 8c 52 68 3c 7c 82 21 3d ce 71 b1 3c
       0.0116506405 0.014179837 0.03943108 0.021660712
0001b0 27 b8 9b 3c a5 1e 08 3d dd b5 83 3a 62 c2 33 bd
       0.01900871 0.03323235 0.0010048706 -0.04388655
0001c0 f3 bd b1 3c 99 dc 38 bc fd b7 d4 bc 14 9c 73 bb
       0.02169702 -0.011283063 -0.025966639 -0.0037171887
0001d0 2c 39 9e 3c 6e 4d 00 bd ee e6 b6 3c 4f b7 17 3d
       0.019314371 -0.031323843 0.022326913 0.03704005
0001e0 5c db 11 3f 43 01 9d 3a 5d f2 5e 3c 2a 26 e7 bc
       0.5697534 0.0011978525 0.013607589 -0.02821644
0001f0 85 57 2b 3c e9 ab 38 bc 98 de 60 bc 17 d0 9c 3c
       0.010457878 -0.011271455 -0.0137249455 0.019142194
000200 d0 b5 a0 3c 64 63 23 bc a0 5f 07 3c a2 a0 1b 3c
       0.019617945 -0.009972427 0.008262545 0.009498747
000210 dd cc 12 bd 5a df 05 3c 9b a6 76 3c d9 4d ed bc
       -0.035839904 0.008170927 0.01505437 -0.028967785
000220 7d b2 67 3c 01 30 ad 3a 73 6c 97 bc 17 32 db bc
       0.014141676 0.0013213159 -0.01848433 -0.026757283
000230 d4 a9 c4 3c c7 9a 69 bc ba 4c e8 bc 17 81 8a b9
       0.024006762 -0.014258093 -0.028356899 -0.0002641759
000240 95 e9 65 3c 1f 00 ba 3c 38 8a 24 3c 57 6e 4b 3d
       0.014032741 0.022705136 0.01004272 0.049665775
000250 c2 c7 ad 3a 0a 20 f4 3b 5c 4e 8e bb 42 eb 03 bd
       0.0013258385 0.0074501084 -0.0043428373 -0.03220678
000260 7a 79 f8 ba aa 53 18 3b be 0a 81 bc 13 0c 41 3b
       -0.0018957101 0.0023243227 -0.015752193 0.002945666
000270 7d b9 11 bc 00 9a ee 3b af 88 20 3c 4a 51 c7 3b
       -0.0088943215 0.007281542 0.009798213 0.0060826885
000280 94 49 75 3c 43 0c 17 b9 3a 0d 3d bc 54 aa 31 3c
       0.014971156 -0.0001440505 -0.011538798 0.010843832
000290 60 0b 7d 3b 47 25 9a 3c 52 9c f4 3c 14 a9 47 3c
       0.0038611516 0.018816603 0.029859696 0.012186307
0002a0 c1 5d 37 3c 97 41 d6 3c e0 2b 88 3b 81 de f6 bc
       0.011191786 0.026154323 0.004155621 -0.030135395
0002b0 f3 71 95 3c ec fc 8b bc 37 72 65 bc eb 8c 3d ba
       0.018242812 -0.017088376 -0.014004282 -0.0007230776
0002c0 66 8b 13 3d 69 6a 11 bd 17 ff 1b 3c 59 8d 06 3d
       0.036021613 -0.03550187 0.009521267 0.032849643
0002d0 fe 34 47 3f df df 8a bc 8c 74 11 3c bd cd 30 bd
       0.77815235 -0.016952453 0.008877885 -0.043164957
0002e0 fb 43 04 38 b8 eb 7a bc 5f ed 99 bc 17 63 82 3c
       3.1534564e-05 -0.015314989 -0.018789945 0.01591639
0002f0 9a 4f 9e 3c 88 bb 28 bb ec 69 8e 3c e8 3e 24 bc
       0.019325066 -0.0025746543 0.017384492 -0.010024764
000300 a1 82 e3 bc 56 2c 37 3c 21 bb 51 3c 3e 35 f2 bc
       -0.02777225 0.011180004 0.012800963 -0.029566403
000310 28 cf b0 3b 41 59 bd 3b bf 23 54 bc e1 02 ad bc
       0.0053957887 0.005778462 -0.012947976 -0.021119537
000320 79 d8 c4 3c 81 a3 61 bc a7 4a 31 bc 72 bb 42 3a
       0.024029003 -0.0137718925 -0.010821021 0.0007428444
000330 a6 c2 a5 3c 01 3a e3 3c f5 52 15 3c be 9e 74 3c
       0.020234417 0.02773762 0.009114017 0.014930425
000340 dd 2a 47 38 52 4e 5b 3c 62 62 c8 ba 1b ff 00 bd
       4.7485217e-05 0.013385372 -0.001528811 -0.031493288
000350 ca 2a fe 3b 10 d5 9c 3b cc c4 91 bc e1 ad 6f bb
       0.0077565657 0.004786141 -0.017794035 -0.0036572146
000360 61 8d 4b bc 54 69 58 3c 60 dc 88 3c 91 f7 dc bb
       -0.012423844 0.013208706 0.016706645 -0.0067433794
000370 ba dd 20 3c d5 ff 84 3b 8f 02 1d bc ac 01 09 3c
       0.009818489 0.004058818 -0.00958313 0.008362215
000380 d9 7d 51 3b 92 7c a9 3c ce 16 8c 3c 69 0f 2b 3c
       0.003196588 0.020689283 0.017100718 0.010440686
000390 be 75 1e b8 d3 1b 42 3c 17 d5 0e 3c fb 24 8c bc
       -3.777979e-05 0.011847454 0.008717797 -0.017107477
0003a0 cd 13 b5 3c 27 e0 35 bc 8d 48 21 ba 49 fe 18 3c
       0.022104168 -0.011100805 -0.00061524735 0.00933797
0003b0 c7 eb 3c 3d ad 9c 2e bd 72 8d 20 3c bb 2a e1 3c
       0.046123292 -0.042629886 0.009799348 0.027486196
0003c0 7c 0e 76 3f ad 64 b8 bc 53 e9 09 bc 30 5f 01 bd
       0.9611585 -0.022508943 -0.008417445 -0.03158492
0003d0 40 01 50 bb 12 0e 4c bc 0d b9 ea bc 63 f3 c1 ba
       -0.0031739026 -0.0124545265 -0.028652692 -0.0014797266
0003e0 37 a3 96 3c 6f ab 7e b8 36 a1 ba 3c 3a 25 e1 bc
       0.018388374 -6.071798e-05 0.02278195 -0.027483571
0003f0 65 99 29 ba fa 87 c0 3b d0 65 26 3c 61 28 06 3b
       -0.0006469696 0.0058755847 0.01015611 0.0020470845

m_transform.0.1.weight f4 [64, 1, 5, 5]
000000 15 7d 1a 3d a0 9a 19 be 9d 86 4b 3e ed 96 44 be
       0.037716944 -0.15000391 0.1987557 -0.19198199
000010 8f d2 92 bd 12 9f 50 3d 08 2e f1 bd a7 97 68 3d
       -0.07169067 0.05093295 -0.11776358 0.056785252
000020 f5 da 99 3d 5e 46 e4 bc c8 52 11 3e e1 73 ab 3c
       0.07512466 -0.027865585 0.14191735 0.020929279
000030 bc 45 6c be 74 79 12 3e 06 84 2a 3e 39 5d 74 3d
       -0.23073477 0.14304143 0.16651925 0.059659217
000040 3f 69 21 be d4 da f4 3d 19 d5 71 3d be 32 69 bd
       -0.15762804 0.11955801 0.059041116 -0.056933157
000050 b5 21 17 bd 4f 16 d1 bd 51 54 91 bd 79 cb 98 3c
       -0.03689738 -0.10209333 -0.0709616 0.01865171
000060 d4 2d 28 3e f9 96 86 bd c8 9a 2e 3e cf 7a 46 3d
       0.16423732 -0.065717645 0.17051232 0.048456963
000070 4d 73 e1 bd 2b 05 19 bd 32 8c ac bd a4 a8 33 3d
       -0.1100832 -0.037358444 -0.08425178 0.043862
000080 71 09 9e bd a8 43 f5 3d 2f 11 32 be fe 67 5e 3e
       -0.077166446 0.11975795 -0.17389368 0.21719357
000090 73 60 83 3d b1 b8 1d be 3a 59 60 3d 69 a1 c8 3c
       0.064148806 -0.15402485 0.054772593 0.024491029
0000a0 28 86 12 3e 23 5a 48 bd 11 83 2b be 0e bf 89 3b
       0.14308989 -0.048914086 -0.16749217 0.0042036837
0000b0 1e a3 df 3c d0 45 ee bb d5 51 35 be fa ec a9 bc
       0.02729946 -0.007271506 -0.17706998 -0.020742882
0000c0 fa 61 0c be 2c 4f 03 be 92 03 77 bd 1f 8c 8e 3c
       -0.1370925 -0.1282317 -0.06030614 0.0174008
0000d0 17 e3 5b 3e a2 6e 68 3e 39 34 d5 3d 51 55 f8 bd
       0.21473347 0.22698453 0.10410351 -0.12125648
0000e0 44 be dd 3d 85 e5 81 3d f9 2a 01 3e 05 d4 cb 3d
       0.10827306 0.063426055 0.12614049 0.09952549
0000f0 17 ee 01 be 6e 42 4e be 1e f7 7e 3e 94 39 00 be
       -0.1268848 -0.20142528 0.24898955 -0.12521964
000100 11 db 04 be 0f 74 80 bc 89 ff 29 3e 4e 7f 1e 3e
       -0.12974192 -0.015680341 0.16601385 0.1547825
000110 ed 54 15 be b1 0b 1c 3e 11 73 09 be ef 61 2a be
       -0.14583178 0.15238835 -0.134228 -0.16638921
000120 d3 62 f4 3d 32 39 80 bd d1 2a d9 bd d9 2d a8 bd
       0.11932912 -0.06260909 -0.1060387 -0.0821187
000130 17 a8 26 be ef 57 23 3e 2e 20 32 be cc 4b 29 3d
       -0.16275059 0.15951513 -0.17395088 0.04133205
000140 c6 76 df 3d a0 1d 09 3e 7c 4b 1b 3e e7 a2 19 3d
       0.10911326 0.13390207 0.15165514 0.03750887
000150 0d 5a fd 3d ce a9 f2 bd 63 d9 3d be 87 b3 87 bd
       0.123706914 -0.11848794 -0.18539958 -0.06626039
000160 93 63 8d 3d fb 21 c6 bd 59 64 14 3c f7 77 2c 3e
       0.06903758 -0.0967445 0.009057128 0.16842638
000170 95 67 d1 bd 2b 31 f7 3a a1 9e 17 bc 8a 34 ef bc
       -0.10224835 0.0018859258 -0.009254129 -0.029199857
000180 4f 3c 1f 3e 41 93 1c be d4 4e 25 3e 0f ba 10 be
       0.1555035 -0.15290548 0.16143352 -0.14133476
000190 b9 28 15 be db c4 de 3d d8 2e ab bd 62 a8 45 3e
       -0.14566316 0.10877391 -0.08358544 0.19302514
0001a0 b1 bc 90 be 12 83 91 3d dd 27 4c 3d 4a 6c 2d be
       -0.2826896 0.07105078 0.049842704 -0.1693584
0001b0 4e de 16 3e e3 90 b6 bd dd db 99 bc 38 80 99 bd
       0.1473324 -0.08914354 -0.018781597 -0.07495159
0001c0 8d 35 37 3e 94 d9 f1 3d 83 2e 2c be e3 97 16 3e
       0.17891522 0.11809078 -0.16814618 0.14706378
0001d0 b4 38 17 be fe b2 07 3e f6 c1 53 3e 20 ea 27 bd
       -0.14767724 0.13251874 0.20679459 -0.040994763
0001e0 47 58 dd bd 34 a9 b2 bd 93 36 2d be 0d 7d 28 3e
       -0.10807853 -0.08723679 -0.1691535 0.16453953
0001f0 a8 ec 05 3e 04 6d c2 bd fa ef 14 be 19 f6 49 3e
       0.13078558 -0.09493449 -0.14544669 0.19722785
000200 88 94 15 be 10 55 d0 3d de 1e 2e 3e 31 e1 0c 3e
       -0.14607441 0.101724744 0.17003962 0.13757779
000210 c5 36 2e be 37 f5 d9 bd 86 73 f0 3c 4f db 23 3e
       -0.1701308 -0.10642474 0.02935196 0.16001628
000220 e4 c3 ac 3d eb b9 39 3e fd 5a 1b 3e 20 15 24 3d
       0.08435801 0.18137328 0.15171428 0.04005921
000230 b6 31 cf bc 6e ae 11 3d 2f f2 ef 3c 03 99 d0 3b
       -0.025292259 0.03556674 0.029290287 0.0063658967
000240 66 2d 37 3e f7 09 ad 3d 12 26 63 bc a5 92 d4 3d
       0.17888412 0.08449166 -0.013864057 0.10379533
000250 c5 df 69 3d 8e f8 0c be 3d 61 00 be ce 38 6b bc
       0.05709817 -0.13766691 -0.12537093 -0.014356805
000260 a0 91 2b be ec 73 fa 3d 27 2c 31 3d 05 db 02 3e
       -0.1675477 0.122291416 0.043254998 0.12778862
000270 44 fd 0f 3e 91 28 9c 3d f0 47 e9 bd 94 4f f6 3d
       0.14061457 0.07624925 -0.11390674 0.12026897
000280 4a 60 cf bd 8e 6c 63 3c 90 94 0e 3e 0a ca d9 3c
       -0.101257876 0.013880862 0.1392386 0.026585598
000290 5e 76 64 bd 22 66 ba 3d 01 7d 8f 3d ca 09 e8 3c
       -0.055776946 0.091015115 0.070062645 0.02832498
0002a0 36 ab a9 bd 88 54 97 bc 01 4d 6d 3c 34 35 b0 bc
       -0.08284609 -0.018472925 0.014483691 -0.021509744
0002b0 4b 43 fd 3d 34 ec 29 3d 1b d0 19 be 7e 1d dc bc
       0.12366351 0.041485026 -0.15020792 -0.026869532
0002c0 04 32 67 bb fa ae 37 be 83 76 9b 3d e1 d8 2f bd
       -0.0035277614 -0.17937842 0.07590964 -0.04293144
0002d0 16 4d 71 3e c5 24 dc 3d 16 8b 1e be c7 ae 15 be
       0.23564562 0.10749201 -0.15482745 -0.14617454
0002e0 e9 71 29 3d 8a f4 79 ba b7 22 65 be 0a 49 aa 3c
       0.0413684 -0.00095350354 -0.22376524 0.02078678
0002f0 68 d4 4d bd b0 9b 25 bd 1d 65 22 3e aa 42 3c 3e
       -0.050251395 -0.04043168 0.15858884 0.18384805
000300 eb 1d 0c 3e d1 c4 39 3b 35 2e fa 3d 8f ae 27 be
       0.13683288 0.0028346071 0.122158445 -0.16375183
000310 32 59 23 3e 36 f7 d3 bd d7 8b 72 bd cc c4 db bd
       0.15951994 -0.10349886 -0.059215393 -0.107308954
000320 51 f6 a1 bd 3c 08 22 be 47 57 90 bd 45 73 db bc
       -0.07908309 -0.15823454 -0.07047897 -0.026788363
000330 03 b7 7f bd a8 8c 59 3e fb e2 32 3e 2f 8a f4 bd
       -0.062430393 0.21245062 0.17469399 -0.11940419
000340 5d cc e6 3c e6 d2 2f 3d 8a 34 76 bd 36 ad 44 3e
       0.02817362 0.042925738 -0.0601087 0.192067
000350 b2 24 42 bd b1 2d 43 be fb 1f 14 be ab 3e 3c be
       -0.047398277 -0.19060399 -0.14465325 -0.18383281
000360 37 1b 5b bc 77 ba 88 3d 1c 61 08 be 44 b6 f4 bd
       -0.013373188 0.0667619 -0.13318294 -0.11948827
000370 c4 48 16 be 27 7f 64 3d 62 34 30 bc ee c4 50 bd
       -0.14676195 0.055785324 -0.010754677 -0.050969057
000380 29 90 24 bd b2 e5 a8 3c a2 22 2d 3b a6 dc d4 3a
       -0.040176544 0.02061734 0.0026418348 0.0016240075
000390 b0 e3 6e 3d b2 a5 c6 bd a7 b4 d5 3c 17 bc 15 3e
       0.05832261 -0.096995726 0.026087118 0.14622532
0003a0 9f 54 0a 3d 91 b4 ef bd 64 bc 8e 3d f9 fc d0 3d
       0.033772107 -0.11704362 0.069695264 0.10204501
0003b0 b3 63 9e 3d 53 5c 82 bd 89 9e 88 3d 0a 72 55 bc
       0.0773386 -0.06365266 0.06670863 -0.013027677
0003c0 6e 57 93 bc ac e8 0c be 47 67 ac 3d e2 07 89 bd
       -0.017986026 -0.13760632 0.08418136 -0.06690957
0003d0 d5 69 9d 3d a5 16 d3 3d 32 f0 06 3e 98 44 28 3d
       0.076862015 0.103070535 0.13177565 0.04108104
0003e0 e4 b5 9c bd 6d 28 9d 3d 15 91 1c 3e af 1f 98 3d
       -0.076518804 0.07673726 0.1528972 0.07427918
0003f0 05 bf ed bc fe d3 94 3d bb 83 c5 bd 2e e8 33 3d
       -0.02902175 0.07266997 -0.09644266 0.043922596

m_transform.0.1.bias f4 [64]
000000 dc dc 93 bd aa 05 8a 3c 80 75 20 be 76 42 dd bd
       -0.0721986 0.016848404 -0.15669823 -0.10803692
000010 66 9e 24 3d ff 32 f9 bc 51 52 01 3e 0f 6b 15 3e
       0.040190123 -0.030419825 0.12629057 0.14591621
000020 8d 50 42 3e ae e3 86 bc 6e f7 10 3e 0a 1e 58 be
       0.1897604 -0.016465988 0.14156887 -0.21105209
000030 72 56 4d 3e 0c a1 71 bd 8d 2a 37 3e 5a d8 1c be
       0.20052508 -0.058991477 0.17887326 -0.15316907
000040 2c 22 19 be e6 9c 49 3c cd 98 8e bd ee 4d 20 3e
       -0.14954442 0.012305474 -0.06962738 0.15654728
000050 ce 09 ed 3c 33 ae 02 3e 69 46 f7 3c ea ac 3a 3d
       0.02893534 0.12761764 0.030184941 0.04557506
000060 29 ad 4c bd 8e 67 19 3e 6a 7a 45 be 61 9d 94 bd
       -0.049969826 0.14980909 -0.19284979 -0.0725658
000070 f1 2d 2e 3e b4 70 53 be b6 54 30 3d 6b 1f 14 be
       0.17009713 -0.20648462 0.043049537 -0.1446511
000080 23 5c ef 3d b0 fa f1 3d 15 11 1c 3e 74 08 fe 3d
       0.116874956 0.11815393 0.15240891 0.12403956
000090 41 34 fd bd b9 7d bd bd 81 fb 6a 3d ff b8 91 3b
       -0.12363482 -0.09252495 0.05736876 0.004447102
0000a0 71 34 20 3e fd f0 1f 3d 2c 61 ea 3b 1a 75 e0 bd
       0.15645005 0.039048184 0.007152697 -0.10959835
0000b0 eb 55 31 bd 43 1f c3 bd cd c5 44 be 40 9f 09 3e
       -0.04329483 -0.09527447 -0.1921608 0.13439655
0000c0 ba 20 05 bd 2c ab 2a 3e e2 b0 f8 3c e3 f3 f6 3c
       -0.032501914 0.1666686 0.030357782 0.030145591
0000d0 6f b9 dd 3b f1 27 25 3e 6f f3 14 3e 80 21 89 bd
       0.00676649 0.16128518 0.14545988 -0.06695843
0000e0 a2 ad c7 bd 9b b7 32 be a6 ed 4c 3e ae 81 07 3e
       -0.09749915 -0.17452852 0.2001253 0.13233063
0000f0 80 85 e7 3d 1a e7 01 3e f8 e7 ea 3d 94 3c 1a 3e
       0.1130476 0.12685814 0.11470026 0.15062171

m_transform.0.4.weight f4 [64, 32, 1, 1]
000000 bf f2 66 3e 06 71 1b be 5b b4 57 bb c4 b6 be 3d
       0.22553538 -0.15179834 -0.0032913897 0.093122035
000010 a6 9e f8 bd 9b 33 0f 3e bf 83 04 bd bc b9 ea 3b
       -0.12139635 0.1398453 -0.032352205 0.0071632545
000020 f5 fb 66 3d 63 d0 6b 3d fd b9 64 bd ee b0 9e bd
       0.05639263 0.05757178 -0.055841435 -0.077485904
000030 19 b5 cf bd 9f 11 b0 3b f7 99 e3 bd c3 a1 fc 3d
       -0.101419635 0.0053731943 -0.11113351 0.12335541
000040 72 32 20 3c 4c e1 b8 bd a1 3d 66 bd 22 0f 17 3e
       0.009777652 -0.09027347 -0.056211118 0.14751866
000050 f1 9d c8 3d 42 9e 65 3d ea 60 dd bd 4c fd f8 3d
       0.0979575 0.05605913 -0.108095005 0.121576875
000060 2e 53 4c bd 32 ea 11 3e 0f 6b a1 3c 69 6b f8 3d
       -0.049884014 0.14249495 0.01970437 0.12129862
000070 e6 35 11 be 59 91 88 bb 97 46 8e 3d 5d 54 01 3e
       -0.14180717 -0.0041677174 0.06947058 0.12629838
000080 5c 82 31 be eb 1f 33 be 33 b9 6a bd ab c5 fa 3d
       -0.17334884 -0.17492644 -0.057305526 0.122447334
000090 b8 99 eb bd d5 5b 7a 3d 41 10 40 be 2a 27 40 3c
       -0.11503929 0.061122734 -0.187562 0.011728087
0000a0 c1 ae 83 3b 94 cd 06 be 0d 30 96 bc bf 7c c9 bd
       0.004018635 -0.1316436 -0.01833346 -0.098382466
0000b0 46 f3 57 bd da d4 09 be 4d 31 c8 3d 3b 88 0e 3e
       -0.052722238 -0.13460103 0.097750284 0.13919155
0000c0 c0 f2 8a bd b2 1b 02 3c 99 d7 1f be f1 9b 05 be
       -0.06784582 0.007941173 -0.15609588 -0.13047768
0000d0 31 dc 12 3e 01 15 bf 3d 79 f2 9b bd df 55 59 3c
       0.14341809 0.09330178 -0.07614607 0.013265102
0000e0 45 1f f9 3c 8d 1a a2 bd 6f 4f 13 be c4 29 7c bd
       0.030410418 -0.079152204 -0.1438577 -0.06156327
0000f0 c4 44 aa 3c 51 76 18 be ad 37 d0 3d a5 82 b4 bd
       0.020784743 -0.14888884 0.10166869 -0.08813981
000100 f9 d6 f2 bc 54 39 ad bd 29 cd d4 3d 55 ef 1c be
       -0.029643523 -0.084582 0.10390694 -0.15325673
000110 1f 9a 97 bb e8 9f be bd 60 09 d4 bd 78 d8 f0 3d
       -0.004626527 -0.093078434 -0.10353351 0.11760038
000120 cc e7 39 be ae 59 17 3e ec 4f 75 bc 6f 17 8f bc
       -0.1815483 0.14780304 -0.014972668 -0.017467229
000130 22 3d b2 3d f6 53 a0 bd a3 bf d0 bc 92 ee 1a 3b
       0.087030664 -0.07828514 -0.025482005 0.0023640734
000140 18 54 12 be 16 bf 1b 3e b5 84 0f be 3b f5 f9 3d
       -0.14289892 0.15209612 -0.14015467 0.12204977
000150 4c c7 e6 3c 9e d9 3f be d7 96 0d 3d 3a 0b c1 bd
       0.028171204 -0.18735358 0.03456768 -0.094259694
000160 df 83 7c be f6 14 2b be 28 c3 af 3d fa bc 30 bd
       -0.2465968 -0.16707215 0.08582145 -0.043148972
000170 e1 bc be 3d d3 be 34 be a2 88 21 3b e7 5a 9c bd
       0.093133695 -0.17650919 0.002464809 -0.07634526
000180 5d f3 08 3e 8d 7e f6 3d c5 28 ec bd 6d 85 18 3e
       0.13374086 0.120358564 -0.11531214 0.14894648
000190 1f 94 b9 bd c2 ca 97 bc 66 13 18 3e b4 5c 2d 3e
       -0.09061455 -0.0185293 0.1485115 0.16929895
0001a0 d3 90 2b 3e 20 27 9b bd 9e ee 28 3e aa 3c 1a 3e
       0.16754465 -0.07575822 0.16497275 0.15062204
0001b0 1d ae 0b 3d 6d 49 1c be 78 c5 db bc 87 92 a5 bd
       0.034101594 -0.15262385 -0.026827559 -0.080845885
0001c0 61 6c c1 3d e8 78 cc 3d 91 72 ef bd 38 7f 43 bd
       0.094445 0.099839985 -0.11691774 -0.047728747
0001d0 2a d5 21 3d e9 55 55 be c6 c8 1f be 0f df a1 3d
       0.03950993 -0.20833553 -0.15603933 0.07903873
0001e0 76 99 f7 3d e8 b9 07 3e 93 fe 1b 3d c1 43 3a 3c
       0.12089817 0.13254511 0.038084578 0.011368693
0001f0 95 88 03 be e1 14 09 bd e4 9c 21 3e 2e e9 02 be
       -0.1284507 -0.033467177 0.15782505 -0.12784263
000200 43 33 10 3e 4a 50 f8 bd 63 8f 1f be 8a d3 32 be
       0.14082055 -0.12124689 -0.15582041 -0.17463508
000210 a5 c4 92 3d eb 63 f0 bd 8f 22 e7 3d 42 db b9 3d
       0.07166413 -0.11737808 0.112858884 0.09075023
000220 21 20 0b bc 89 c0 f2 3d c7 31 7e 3c dd 60 03 be
       -0.008491547 0.118531294 0.0155147975 -0.12829919
000230 88 5a 01 bd 0a b5 24 3e d6 b4 8c bd 39 03 34 bc
       -0.031580478 0.16084686 -0.06870429 -0.0109870965
000240 9d 5f 11 3c 80 bc 5b bd b8 64 22 3e 1d ed 48 3d
       0.008872894 -0.053646564 0.15858734 0.049054254
000250 b9 9a 35 be 87 95 75 3d 3e 45 b0 3d 4d df ba 3c
       -0.17734803 0.059957054 0.08606957 0.022811556
000260 6a 03 74 be a3 c2 01 3e ac 60 5a 3d 95 60 31 3d
       -0.23829427 0.12671904 0.05331485 0.043305
000270 d3 d6 01 bd 82 79 0b 3e d4 83 7d 3b 2f ef 89 bc
       -0.031699013 0.1362057 0.0038683312 -0.016837684
000280 ff c6 3f 3d 6b 45 81 3d a3 d8 d9 bd 9f f2 02 3e
       0.046820637 0.063120686 -0.10637023 0.12787865
000290 b4 ab 32 3e 43 1b 9e bb 80 ae 99 bd 64 ff 6c 3d
       0.17448312 -0.004825027 -0.07503986 0.057860747
0002a0 b8 e1 ed bd c2 82 d3 3d b9 47 9a bd 60 e5 ed 3c
       -0.11615318 0.103276744 -0.07533211 0.029040039
0002b0 c0 c6 22 be 2f 4d 0a be 90 b1 60 bd ca d6 c8 3d
       -0.1589613 -0.13506006 -0.054856837 0.09806593
0002c0 ea fe 1a bd 7b d1 92 bd f2 70 09 3c c0 0d 1a 3e
       -0.03784076 -0.071688615 0.008388745 0.15044308
0002d0 35 06 e8 3d 3c 08 0b 3e fe 2d bb bc a7 b6 a5 3d
       0.11329309 0.1357736 -0.02284908 0.08091479
0002e0 5e 61 6b be c5 81 ae bb b8 0d e6 3d 6d 04 38 3e
       -0.22986361 -0.0053255283 0.112330854 0.17970438
0002f0 4c 1d 94 3d 08 92 b1 bd 6c 97 f1 bc 43 37 5e bd
       0.072321504 -0.086704314 -0.029491149 -0.05425192
000300 a6 3e 04 be c0 93 42 3c 37 f0 99 3c f9 57 b3 bd
       -0.12914523 0.011876047 0.018791301 -0.08757014
000310 9c 6b ff bd c5 3a 81 3d 02 f0 00 be 55 d2 16 be
       -0.12471697 0.063100375 -0.12591556 -0.14728673
000320 25 00 af bd fd fd 12 be 59 a4 6a bd a9 94 0a 3e
       -0.085449494 -0.14354701 -0.05728564 0.13533272
000330 d8 b6 61 bc 78 42 33 3e 1f cc 1f 3e 29 9f c9 bd
       -0.0137765035 0.17505825 0.1560521 -0.098448105
000340 2e c0 8d 3c cf 27 60 bd 77 bc 9f 3d 1a bd 20 be
       0.017303552 -0.054725464 0.07799619 -0.15697137
000350 c2 45 26 3e b5 26 91 3d 1f d6 d1 3c 29 c2 62 bb
       0.16237548 0.07087461 0.025614796 -0.0034600592
000360 ca 39 0b 3c 06 c3 71 3d 27 86 83 3d 52 49 5c 3d
       0.008497665 0.05902388 0.06422072 0.05378086
000370 ab bd 89 bc 4d 7c 96 3b 5a eb 0c be a4 ec 07 be
       -0.016814074 0.0045924545 -0.13761654 -0.13273865
000380 37 a9 2e 3e db 3e 93 bd 57 11 a7 3d a7 6f 07 be
       0.17056738 -0.07189723 0.08157604 -0.13226186
000390 37 b2 48 ba ee 39 8b 3c 78 e1 2d 3e 6a 0e f5 bd
       -0.00076559506 0.016995396 0.16980541 -0.1196564
0003a0 1d f9 35 3d a7 eb a1 bd 1c 86 2c ba 8c 42 40 3d
       0.044427026 -0.07906275 -0.0006581263 0.046938464
0003b0 6c c2 9c bb 54 e8 84 3d 91 1e 37 3e 4f 8d 06 3d
       -0.004783919 0.064896256 0.17882754 0.032849606
0003c0 64 ac 83 3d a4 30 2b 3e e5 35 fe bd ac 85 97 3d
       0.06429365 0.16717774 -0.12412623 0.07398543
0003d0 00 00 3a be 53 05 15 bd 48 cb 41 3e 39 c0 bf bd
       -0.18164062 -0.03638203 0.18925202 -0.093628354
0003e0 ab 4d fa 3c 50 c7 25 3d 25 2c 44 be de bc 77 3c
       0.030554613 0.040473282 -0.19157465 0.015120713
0003f0 fe 3e e3 3d 37 40 a5 3d e1 c6 7f bd 12 56 b1 3d
       0.11095999 0.08068889 -0.062445525 0.08658995

m_transform.0.4.bias f4 [64]
000000 e2 53 32 bd 0b d3 40 3d 58 70 3b bd bb 64 f2 3d
       -0.043537028 0.047076266 -0.045761436 0.11835619
000010 c3 64 0e 3e 03 25 f2 bc 79 51 a5 bb fd d6 1e be
       0.13905625 -0.029558664 -0.0050451127 -0.15511699
000020 40 ed f3 bd 34 e8 15 be a0 57 c2 3c 13 a1 0b 3e
       -0.11910486 -0.1463936 0.023723423 0.13635664
000030 19 4a ba bc 10 4f 84 bd e9 93 f2 bd a8 e8 08 3e
       -0.02274041 -0.064603925 -0.11844618 0.13370001
000040 31 95 2a 3e 90 f9 9e bd 48 c2 f0 bd 59 9f f7 3a
       0.16658475 -0.07762444 -0.11755806 0.0018892094
000050 33 5d ca bd 6a 75 ab 3b f5 d9 ed 3d 14 c0 15 3e
       -0.098810576 0.0052325027 0.11613838 0.14624053
000060 4b f1 ac bd 2a 02 11 3e 06 90 38 3e 52 c8 47 3c
       -0.084444605 0.14160982 0.1802369 0.012193756
000070 d0 41 08 be 91 54 a9 bd 05 d1 04 3e 39 87 da 3d
       -0.13306355 -0.08268083 0.1297036 0.10670323
000080 89 67 e6 3c cd 78 a1 bd b9 b3 aa 3d c4 5b 10 3e
       0.028125541 -0.07884369 0.083350606 0.14097506
000090 8e 7a 14 bd 06 e3 28 be 65 18 4e 3d 76 66 f8 bd
       -0.03624969 -0.16492853 0.050316233 -0.12128918
0000a0 4c 34 bf 3c a2 93 8c bd cd 8d 2c be e8 c0 6c 3d
       0.023340367 -0.06864096 -0.16850968 0.057801157
0000b0 db 5c 05 3e 6b 5e fa 3c d8 eb 00 be 5b 3c 15 be
       0.13023703 0.0305626 -0.12589967 -0.14573805
0000c0 f1 04 0d 3e 84 a4 36 bc 9b 41 26 3e 5e 83 43 3c
       0.13771416 -0.011147622 0.16235964 0.011933176
0000d0 b2 8a fb bd 33 1b a2 bb 9c 3f 3e 3e e8 91 8f bc
       -0.122823134 -0.00494709 0.18578953 -0.017525628
0000e0 1d 48 20 bd 39 a6 45 be 48 dc 21 3d a4 a0 8d bd
       -0.039131273 -0.1930169 0.039516717 -0.069154054
0000f0 06 b1 dd bd 31 60 0b 3e 3f b3 31 3e 0f 00 08 3e
       -0.1082478 0.13610913 0.17353533 0.13281272

m_transform.0.6.running_mean f4 [32]
000000 8f 88 2c 3f ab 22 65 3e c1 57 4e be 18 08 19 3f
       0.6739587 0.22376506 -0.20150663 0.59777975
000010 c2 b3 0e 3f 6d a4 aa 3e 70 58 d3 bd 99 58 d4 3f
       0.5574304 0.33328572 -0.103196025 1.6589538
000020 15 51 e8 3e 65 d3 97 3f a6 3a 19 3f 7b 4d cc 3f
       0.4537436 1.1861387 0.59855115 1.5961145
000030 12 1e f4 bd 07 35 59 3e 36 83 8f 3f f8 04 27 bf
       -0.11919798 0.21211635 1.1211917 -0.65241957
000040 f9 65 9c 3f 5a 00 09 3f ea de 88 3e ca 3b a5 3e
       1.221862 0.5351616 0.2673257 0.32272178
000050 93 48 9b 3d cd 90 da 3f 88 72 53 bf f2 a5 b5 3e
       0.07582202 1.707544 -0.82596636 0.3547817
000060 38 d6 87 3e 3e 91 eb 3e 62 df 55 3f 97 24 93 3e
       0.26530623 0.46009248 0.8354398 0.28738853
000070 b1 fa 23 3f 56 74 de bc 0a 3f 25 3f 46 8a e0 3e
       0.640544 -0.027155083 0.64549315 0.43855494

m_transform.0.6.running_var f4 [32]
000000 f8 ee 45 3e 91 b4 3d 3e cd ed 11 3e ce d7 10 3e
       0.1932944 0.18525912 0.1425087 0.14144823
000010 c2 c8 0a 3e 0f b4 82 3d 7c 61 8d 3e b0 c3 63 3f
       0.13553146 0.06382 0.27613437 0.8897047
000020 2e 6d 8e 3d d0 4c b5 3e 70 2d 11 3e 9b a3 89 3f
       0.06954418 0.35410166 0.1417749 1.0753053
000030 33 de 12 3e 29 2e 84 3d 2d f1 9b 3e 6c 95 1e 3e
       0.14342575 0.06454117 0.3045744 0.15486687
000040 78 e0 35 3f 36 ab dd 3d 60 ba 54 3e 56 38 f4 3d
       0.7104564 0.108236715 0.20774221 0.11924808
000050 dd ee 04 3e f0 97 8a 3e 84 8c 72 3e a3 dc e7 3d
       0.12981744 0.27069044 0.23686415 0.1132138
000060 9b 17 8f 3d 75 f0 a2 3d e0 e9 ab 3e 35 7b f3 3d
       0.06986924 0.0795602 0.3357687 0.11888734
000070 f7 e3 91 3e af e7 a0 3d 6a 7c fc 3d 01 e5 26 3e
       0.28494236 0.0785669 0.123284176 0.16298296

m_transform.0.7.weight f4 [96, 32, 3, 3]
000000 eb 80 c5 bc bb 29 32 bd 14 57 b4 bd 0a 88 64 bd
       -0.024109324 -0.04349683 -0.08805671 -0.0557938
000010 da b1 e6 bb 64 be b5 bc 37 66 8b 3c 62 ff fe 3c
       -0.0070402445 -0.022185512 0.017016513 0.031127635
000020 6e c8 93 3d ab cc 35 3d 15 59 2a bb 38 5c 25 3d
       0.07215963 0.04438464 -0.0025993038 0.04037115
000030 d4 93 73 bd c5 92 92 bc b5 2a 9e 3d 54 00 8f bd
       -0.05946715 -0.01789225 0.077229895 -0.069824845
000040 6f 79 98 3b 39 a7 27 bc ab b6 c0 ba 9c e7 a1 3d
       0.004653148 -0.01023274 -0.0014702877 0.07905504
000050 b9 18 4c bb 21 50 35 bb bf 43 cb 3c 15 de e4 3c
       -0.0031142666 -0.0027666169 0.024812577 0.027937928
000060 30 a0 a2 ba 02 df 13 bd aa 67 ce bb 6e 3c e2 bc
       -0.0012407359 -0.03610135 -0.006298979 -0.027616706
000070 44 21 75 3d a9 6d 9a bd 80 eb cd bd 57 f3 4e 3d
       0.059846178 -0.07540447 -0.10054684 0.050525036
000080 6d 54 9c bc c9 ec b9 bc 32 92 8b 3d 83 7c c6 bb
       -0.019083226 -0.022695916 0.06814994 -0.0060573234
000090 e6 18 62 3d bf 54 1a bd 19 1d 2f 3d 52 8e b3 3d
       0.055199526 -0.037678476 0.04275236 0.0876738
0000a0 73 a4 6a bd c2 9c ad bc 7a 38 69 bd 74 d2 97 bd
       -0.057285737 -0.021192912 -0.056938626 -0.074131876
0000b0 80 43 82 bc c0 16 8a 3d 76 51 80 bb 7c 23 b8 bc
       -0.015901327 0.067426205 -0.003915961 -0.022477858
0000c0 c8 a3 51 bd e1 a7 ef bc 01 32 3c bd 99 e0 75 3c
       -0.051181585 -0.029254856 -0.045946125 0.015007162
0000d0 1c 5b b9 bc 45 d4 a8 bc 56 dd 6c bd ea 17 8d bc
       -0.022626452 -0.02060903 -0.05782827 -0.017223317
0000e0 b5 a7 18 3d 95 24 b3 3b cb 2d 8e 3d a7 84 30 3d
       0.037269313 0.0054670074 0.06942328 0.043095257
0000f0 0b 0c ba bb 5f 14 8b bc bd 89 60 3d 30 64 b9 ba
       -0.005677705 -0.016977487 0.054818857 -0.0014144238
000100 36 ef e4 bc 72 10 e6 bc 09 48 1e bd f5 d6 dd 3b
       -0.027946096 -0.028084014 -0.038642917 0.0067700096
000110 3a 81 97 bc f9 96 31 bc e3 3d 03 3d 01 59 08 3d
       -0.018494237 -0.010839217 0.03204144 0.033288006
000120 5e c1 be bd 24 2d 03 bd da ee fa 3c 9d b7 81 bd
       -0.093142256 -0.03202547 0.030631471 -0.063338496
000130 fa 9b 8f bb 0d e6 33 bc fb 71 bd bc 8a 5d 66 3d
       -0.0043826075 -0.010980141 -0.02312564 0.05624155
000140 dc 99 55 3d 6f ad 6a bd 71 f7 f2 3b 6d 41 52 bd
       0.052148685 -0.057294305 0.007414751 -0.051331926
000150 24 c5 da bc b1 06 57 bc 65 e2 4f bd 76 27 c6 3c
       -0.026705332 -0.013124154 -0.050753016 0.024188738
000160 c6 79 d7 bc d3 52 bb 3c e2 0a 03 3b 11 21 9a 3b
       -0.026303183 0.022866642 0.00199955 0.004703649
000170 f7 16 95 bd cf bd 0b 3c ad 79 a2 3c 11 82 3b 3b
       -0.07279771 0.008529141 0.01983341 0.0028611461
000180 01 25 90 3c 87 c5 ff 3c 16 e8 8b bd cc 5d 9b 3c
       0.01759577 0.031222118 -0.06831376 0.018965624
000190 86 09 6d bd f7 7d 3b bd 96 9a 11 3c 18 a4 31 bc
       -0.05787041 -0.045774426 0.008886954 -0.010842346
0001a0 39 b6 29 bd ff 73 e5 3c 9c b6 31 bd 24 8e 69 bd
       -0.041433547 0.028009413 -0.04338704 -0.05702032
0001b0 3b 9e 18 bd 59 99 51 3d 85 5d 39 bd 7e a9 dc bc
       -0.037260275 0.051171634 -0.045255203 -0.026936289
0001c0 28 fa 91 3d fc d9 9c 3b ce a3 e5 bb 7b 58 b6 ba
       0.07127792 0.004786728 -0.0070080524 -0.0013911867
0001d0 76 16 63 bd 8b a4 0f bd 52 83 f1 bc 51 06 9b bd
       -0.055441342 -0.03506903 -0.029481564 -0.07569564
0001e0 06 c1 a3 3c 47 9f 79 bd 17 94 c6 bc ce e4 8f 3c
       0.019989502 -0.060942914 -0.024240537 0.017565157
0001f0 a7 46 1e bd 9f 53 56 3c 84 8d b3 bc 0b eb 5e 3d
       -0.038641598 0.01308146 -0.021918066 0.054423373
000200 12 94 b0 ba 4b 27 f5 bc 13 be e4 3c 50 41 0d bd
       -0.0013471863 -0.029925963 0.027922666 -0.034486115
000210 d0 1e 1a 3c 8e 21 b9 3a ae af 85 3b d6 a8 9c bd
       0.00940676 0.001412438 0.0040797805 -0.076493904
000220 5f ce c0 bd af f4 90 bc de 80 f4 3c 74 a1 b1 3c
       -0.09414362 -0.0176948 0.029846605 0.021683432
000230 f6 5c a3 3c 48 ed 32 3d 5a 24 0a 3c 8b 4b 62 3d
       0.019941788 0.04368332 0.008431518 0.055247825
000240 47 85 ff bb bf 8a fb bc 76 b1 a3 bd 2d 52 a8 3c
       -0.0077978703 -0.030705808 -0.07992832 0.020546997
000250 c9 f4 88 3d 09 03 13 bd 98 45 d3 3c e0 51 42 bb
       0.06687314 -0.035891566 0.02579002 -0.0029650852
000260 13 05 df 3c ba 20 4f bd 9d 48 ad bc 2e a9 89 bd
       0.0272241 -0.05056832 -0.021152789 -0.067217216
000270 aa af f8 3c 37 76 6e bd 7d d9 f9 3c ae 78 5c 3d
       0.0303572 -0.058218207 0.030499214 0.053826027
000280 9f 57 b0 bc b0 a5 f3 3a 0e a3 c1 ba 91 88 28 bd
       -0.021526156 0.0018588807 -0.0014773326 -0.041145865
000290 d2 42 0b 3d fa 9e a5 bc df 73 89 bd 0f 50 df bc
       0.03399927 -0.020217407 -0.06711554 -0.027259855
0002a0 e7 02 0d 3d 92 6d ca bc 40 49 50 3c da 93 95 3c
       0.034426596 -0.02471045 0.012712777 0.018258978
0002b0 0c 3b 02 bd d9 6b e4 bb 8c 3c 22 bd 28 f2 06 3d
       -0.031794593 -0.0069708643 -0.039608523 0.032945782
0002c0 3c d5 ca 3c 7a 1e 71 3c 7a 7b 94 3d 56 10 87 3c
       0.024759881 0.014716739 0.07250114 0.016487282
0002d0 e4 9b 4c 3d 6a 80 fd 3c ba ed f2 bc b8 d6 3b bd
       0.049953356 0.030945022 -0.029654372 -0.04585907
0002e0 a8 87 ad 3d 28 2f 25 3d 77 8a a1 3d e8 8e 50 3d
       0.0847314 0.040328175 0.07887738 0.050917536
0002f0 80 bf 0c bd 98 9e c7 bc 32 a5 cf bc d2 00 cc 3c
       -0.034362316 -0.024367616 -0.025347326 0.024902735
000300 22 6f 3b bd 9b e7 8c 3d 43 13 08 bd ef f2 47 3d
       -0.04576028 0.06880113 -0.033221494 0.048815664
000310 a3 14 cf 3c bd 44 5b 3c d6 46 af 3b 11 42 87 3c
       0.025278395 0.013383088 0.0053490205 0.016510995
000320 8f df 0f 3c 81 8b 04 3c 5f 11 85 bc f1 e4 b0 3c
       0.008781328 0.008089901 -0.016243635 0.021593543
000330 6f d0 52 bd e5 1c 99 3d 90 a4 12 3d 13 6a 0f bd
       -0.05146831 0.07476214 0.03580147 -0.03501327
000340 11 ba 14 bd c5 b8 f7 bb 8a 37 1f 3d 34 b1 6d bc
       -0.03631026 -0.007559868 0.038871326 -0.014507581
000350 27 60 bc bc 3f ef f9 bc 77 2e 4c 3b af 14 dd 3c
       -0.022995068 -0.03050959 0.0031155625 0.026987402
000360 b2 a1 6a 3d 8d 4f ed bc 0d 25 07 3d c0 71 a9 3b
       0.05728311 -0.028968597 0.03299432 0.0051710308
000370 43 d4 f8 3c 3f 83 bf bc 1a a7 0e bc a9 f4 0a bc
       0.030374652 -0.023378013 -0.008706832 -0.008481183
000380 67 cf 2d 3d 49 21 82 bc 06 72 49 bd 86 50 64 bc
       0.042434122 -0.015885012 -0.049181007 -0.013935214
000390 e3 40 b4 3c e5 bc 96 bb f8 e5 4b 3d 6e 74 43 bd
       0.022003597 -0.0046001547 0.049779862 -0.047718458
0003a0 fc 05 a0 bd bc 44 26 3d d1 e0 9f 3d 14 9d 29 bd
       -0.078136414 0.040592894 0.07806552 -0.041409567
0003b0 8f 44 2b bc 34 63 86 3c 04 16 48 bd 0a 3d 5c bd
       -0.010453357 0.016404726 -0.04884912 -0.05376915
0003c0 00 34 63 3d 54 00 b4 bc d5 72 29 3d 24 d2 09 bd
       0.055469513 -0.021972813 0.041369278 -0.03364767
0003d0 19 c5 6f bc 7f ee 94 3d 38 38 6a bd f1 b2 2d 3d
       -0.014634394 0.07272052 -0.05718252 0.04240698
0003e0 3a 48 93 3c 12 24 17 bd ef 60 96 bc ec 30 1a 3c
       0.017978776 -0.036899634 -0.018356768 0.009411078
0003f0 8e f9 ec bb 95 59 60 3d 59 4e 59 3d c9 d3 18 3d
       -0.0072318977 0.054772932 0.053053234 0.03731135

m_transform.0.7.bias f4 [96]
000000 8d d8 7c 3d 0c 02 42 3d 14 b4 23 bd f7 1c 93 3c
       0.061729956 0.047365233 -0.039966658 0.017958147
000010 eb 1d 4b 3c 4e d8 5b bd e8 4e 47 bc b1 d5 75 3d
       0.01239727 -0.05367308 -0.012164809 0.060018245
000020 c4 f0 08 bd be de f2 3c 25 a7 aa bb 13 f0 73 3d
       -0.033432737 0.029647227 -0.0052079135 0.059555124
000030 c4 b0 f4 3b 53 16 8b bd 7c 0c b0 bd 03 da 38 3d
       0.007467361 -0.067913674 -0.08596131 0.045129787
000040 82 93 29 bc 71 0c 1d bd d2 ff 7b bb c7 40 22 bd
       -0.01035011 -0.038341943 -0.0038452041 -0.039612558
000050 75 86 f5 bc 80 7a e0 3c cc 59 0d 3d d4 3e 4d bd
       -0.02997134 0.027402163 0.034509465 -0.050108746
000060 26 00 ae bc 5d 31 b2 3c 85 87 1b 3d be ff c6 bc
       -0.021240305 0.021752054 0.03797104 -0.02429187
000070 7b 50 45 bd 48 3e 84 bd 15 95 4f bd bc 52 98 bc
       -0.048172455 -0.06457192 -0.050679285 -0.018594138
000080 2c 9a f4 3c 8d 51 e4 bc 2f e0 8f bd b6 19 94 3d
       0.029858671 -0.027870918 -0.070251815 0.072314665
000090 36 5b 37 3c 5e d6 a2 bd 34 b3 71 bd c0 9c 06 bd
       0.01119118 -0.079510435 -0.059008792 -0.032864332
0000a0 d7 f0 50 bd 03 7d 03 3d e4 e0 08 3d f8 5f 99 3c
       -0.051010933 0.032101642 0.033417597 0.01872252
0000b0 94 d5 18 bc cc 0c 65 bd 64 9e 1a bd bb 9e cc 3c
       -0.009328265 -0.055920407 -0.03774871 0.024978032
0000c0 ba 28 d0 3c 49 b5 e4 bc bd ef 09 3d 69 ed fa 3c
       0.025410045 -0.027918475 0.033675898 0.030630784
0000d0 56 13 59 3d e0 64 9d 3c e7 94 22 bd d2 4a 83 bd
       0.052996956 0.01921314 -0.039692786 -0.06410755
0000e0 99 b3 d5 3b 44 76 5b 3d 96 e8 2b 3d 9c 86 07 3d
       0.006521654 0.053579584 0.041969858 0.033087358
0000f0 6c cb 5a 3d c5 d5 c5 bc d3 ca 1b 3d 78 7b 91 3c
       0.053416654 -0.024149785 0.038035225 0.01775907
000100 9a b7 7a 3d 77 02 98 3d 5b 90 e4 3c db a0 13 3d
       0.061210252 0.07422345 0.027900865 0.036042076
000110 9d 33 f9 bb c0 fc 42 bd 37 07 29 3d 2f 92 a8 3d
       -0.0076050297 -0.047604322 0.041266646 0.08231007
000120 89 5b 6b 3b d4 3d 0e bd f8 b1 86 bb 3c b7 72 3d
       0.0035912714 -0.034726933 -0.004110571 0.059256777
000130 2b 7e 05 3d 21 31 5a 3d 41 c8 8c bc 50 57 5c bd
       0.032591026 0.05326951 -0.017185332 -0.053794205
000140 0f 62 37 bd f2 67 22 3d e9 c6 0d 3d 13 58 8b bd
       -0.04477125 0.03964991 0.034613524 -0.06803908
000150 64 20 c7 bc 2c 45 14 3d d0 c2 1e bd 81 fd 12 bd
       -0.024307437 0.03619878 -0.038760006 -0.03588629
000160 8c d5 e0 3c 26 29 58 bd 33 81 45 bd 11 c4 d0 bc
       0.027445577 -0.052773617 -0.048218917 -0.025484117
000170 6f aa 04 3c d0 b9 be bb 7e 4c 9c 3c 91 cd 28 3d
       0.008097275 -0.0058204904 0.019079443 0.04121167

m_transform.0.10.running_mean f4 [48]
000000 4a 84 d2 3f 8d 04 a4 3f 50 50 94 3f 51 61 9f 3f
       1.6446621 1.2813889 1.158701 1.2451574
000010 c0 96 88 3f b2 db 79 3f 33 a0 95 3f 27 03 8e 3f
       1.0671005 0.97600853 1.1689514 1.1094712
000020 ac 7c 96 3f 99 2c 74 3f 4d 9e 98 3f 88 01 ba 3f
       1.1756797 0.9538055 1.192331 1.4531717
000030 d9 c4 88 3f 27 a4 aa 3f 5f d9 c2 3f 72 77 a0 3f
       1.0685073 1.3331345 1.5222586 1.2536452
000040 03 98 7a 3f 87 b5 d5 3f 15 c8 a0 3f 92 ad 64 3f
       0.978882 1.6696023 1.256106 0.8932735
000050 e2 7a 51 3f bb 94 eb 3f af 34 ea 3f f0 b3 96 3f
       0.8182813 1.8404764 1.8297328 1.1773663
000060 f8 62 d2 3f b8 21 d5 3f bb bc b2 3f a2 5c a0 3f
       1.6436453 1.6650915 1.3963846 1.2528269
000070 a0 a2 af 3f d2 49 4f 3f dd 61 97 3f 53 11 9d 3f
       1.3721504 0.80972016 1.182674 1.2270912
000080 c4 64 9a 3f b3 c9 a4 3f 3a 4d 95 3f a9 6e c2 3f
       1.2062001 1.2874054 1.1664193 1.5190021
000090 88 31 d6 3f 9e 92 83 3f 9e 92 7f 3f 57 3b c2 3f
       1.6733866 1.0279119 0.99833095 1.5174359
0000a0 05 11 9b 3f f1 0b 0c 40 40 50 99 3f b1 af 00 40
       1.2114569 2.1882288 1.1977615 2.0107234
0000b0 df 66 ad 3f 35 38 84 3f 57 94 e2 3f 6e 83 a5 3f
       1.3547019 1.0329653 1.770152 1.2930734

m_transform.0.10.running_var f4 [48]
000000 4b ee 1b 3f 62 4e ac 3f f7 71 31 3f 86 78 84 3f
       0.6091048 1.346142 0.6931452 1.0349281
000010 d2 59 75 3f f0 a7 d7 3f 36 0e 3e 3f bb e1 31 3f
       0.9584018 1.6848125 0.74240434 0.6948506
000020 43 e1 38 3f 01 fe e1 3e 4c 68 9d 3f 2a 8c 02 3f
       0.7221872 0.44139102 1.2297454 0.50995123
000030 aa c5 aa 3f 4f 84 3f 3f c2 87 28 3f d8 8e e8 3e
       1.3341572 0.7481126 0.6583215 0.4542148
000040 a2 9d a4 3f 11 3b 48 3f 6e 47 47 3f 1d 3c 4f 3f
       1.2860606 0.7821513 0.7784337 0.809511
000050 9a f9 e1 3f 4e cf 38 3f 7b 69 1d 3f e8 33 c8 3f
       1.7654297 0.7219132 0.61489075 1.564084
000060 29 52 8e 3f b0 f2 80 3f f2 4c 24 3f c8 9f 87 3f
       1.1118823 1.0074062 0.6417991 1.0595636
000070 00 94 b2 3f d3 99 0a 3f 11 f7 78 3f 65 87 c7 3f
       1.3951416 0.5414097 0.97251993 1.5588194
000080 41 1b b0 3f 1e 50 07 3f 06 fe 4d 3f 11 db 32 3f
       1.3758317 0.52856624 0.80465734 0.6986552
000090 6f 2d 3c 3f e7 e4 89 3f 45 7e 85 3f aa b3 67 3f
       0.73506826 1.077298 1.0429159 0.9050852
0000a0 2c 45 38 3f 6f 61 55 3f f9 26 52 3f 9f 1e 37 3f
       0.7198055 0.83351797 0.8209072 0.715311
0000b0 97 8f 08 3f 96 57 29 3f 58 9b bf 3f 8f 07 03 40
       0.533441 0.6614927 1.4969282 2.0473363

m_transform.0.11.weight f4 [96, 48, 1, 1]
000000 13 28 4c 3d b5 33 90 3d 6e cd 4e 3d 10 22 6d bd
       0.049842905 0.07041112 0.05048888 -0.057893813
000010 b0 ce cc bc 36 70 e7 bc 64 3a 27 3e a0 b7 38 bd
       -0.0250009 -0.028251749 0.16330868 -0.045096993
000020 d4 a2 2c bd 28 95 de 3d d3 5b 8c bd b1 bc 43 bd
       -0.042147473 0.10868293 -0.068534516 -0.047787372
000030 f7 9e 84 bd e7 f6 13 3e 6e 15 2e 3d c4 e0 6a 3d
       -0.06475633 0.14449655 0.042500906 0.05734326
000040 75 26 20 3e 3d 30 1d 3c fc 85 2d 3e 56 7f a7 bd
       0.1563967 0.00959402 0.16945642 -0.08178584
000050 6c f7 3a 3d 17 30 d9 3d 8f a5 a7 bd 64 d9 45 bd
       0.045646116 0.106048755 -0.08185875 -0.048303023
000060 fd ac 68 bd a1 65 34 be f0 4f af 3d 5b 3e ee bc
       -0.0568056 -0.17616893 0.08560169 -0.029082468
000070 d3 fa db 3d a9 0b 98 3b e0 d9 ef bc 34 d6 a7 bd
       0.107412 0.004640062 -0.029278696 -0.08195153
000080 a3 ab db bd 4c 2b e4 3d 6c d9 b8 3d 10 12 e5 3d
       -0.107260965 0.11141071 0.09025845 0.11185086
000090 60 2b 22 3e 20 6b a0 bd 50 a3 c2 bc 84 b1 e8 bc
       0.15836859 -0.078329325 -0.023759514 -0.028404959
0000a0 13 03 8d 3d 5d d0 b3 bd d3 9e 16 3e 45 54 c2 3d
       0.06885352 -0.087799765 0.14709024 0.094887294
0000b0 50 b6 d1 bd ce ca 11 bd 59 ff 87 3c d6 59 ba 3d
       -0.102398515 -0.0355938 0.016601251 0.09099166
0000c0 40 25 2a 3c ed 0f 04 3e 84 3e 05 3e 16 26 b7 bd
       0.010384858 0.128967 0.13012129 -0.08942811
0000d0 a7 ed 7a 3d e0 1f 8b bc 7d ce 90 3d 07 17 cc 3c
       0.0612618 -0.016982973 0.070706345 0.024913324
0000e0 9c b3 c0 3d ee f4 81 3d 88 9b 6e 3d b7 0f 45 bd
       0.09409258 0.06345545 0.058253795 -0.04811069
0000f0 11 4a bc 3d f8 73 bc bc 3e 10 26 bd 51 87 af 3d
       0.091938145 -0.023004517 -0.040542834 0.085707314
000100 95 c3 da 3d 7a 5f 4a bd 8d c0 8b 3d 32 1f 73 bc
       0.106818356 -0.04940746 0.068238355 -0.0148389805
000110 48 8b 72 3d 26 d2 70 3c 27 82 1f 3d 62 1c dd bc
       0.05921486 0.014698541 0.038942482 -0.026991073
000120 d0 4b c4 3d d8 6f a2 3d 83 48 bb 3d ba 22 69 bd
       0.095847726 0.07931489 0.0914469 -0.056917883
000130 7e 4f 24 3e 4a 94 8c bd f5 f7 11 bd 52 4c fd bd
       0.16045949 -0.068642214 -0.03563686 -0.123680726
000140 a0 ff e2 bd 17 46 83 3d 68 95 dd bd de 80 ac bd
       -0.11083913 0.06409853 -0.108195126 -0.08423017
000150 64 59 38 3c 92 11 28 3e 41 20 a9 bd c0 83 28 bc
       0.011251781 0.16412953 -0.08258105 -0.010285318
000160 76 1f 0f 3e 84 ee a3 bd d4 9d f4 3d b0 25 0e be
       0.13976845 -0.080044776 0.11944166 -0.13881564
000170 1d cf 88 3d e1 fc 15 3d f1 06 11 3e bd 2c 8a 3d
       0.06680129 0.036618117 0.14162804 0.067468144
000180 6c 0f ac bd 74 31 23 be ec a9 01 bd 4a 3b a8 bd
       -0.08401379 -0.15936834 -0.03165619 -0.082144335
000190 b8 0f 6e 3d 18 f6 db bd 52 64 15 bd a1 10 04 be
       0.05812046 -0.10740298 -0.036472626 -0.12896968
0001a0 fd d6 b1 bd 36 f4 4d bc c6 11 95 bd c4 e5 3d 3d
       -0.08683584 -0.012570431 -0.07278781 0.0463617
0001b0 2c 61 2f bd d3 8e 36 bd 00 71 2e 3c 7f 09 81 bc
       -0.04281728 -0.0445698 0.0106470585 -0.015751598
0001c0 88 13 f3 3c 58 e6 c8 3d 7b c8 8f 3c 50 08 e9 bc
       0.0296724 0.098095596 0.017551651 -0.028446347
0001d0 f8 b7 84 bd 24 15 a2 3c 81 d5 ce 3d 5f de f2 bd
       -0.06480402 0.019785471 0.100993164 -0.1185882
0001e0 37 a8 02 bd fd 44 f0 3d e5 c9 23 3d a0 19 50 bd
       -0.031898703 0.117319085 0.039987464 -0.050805688
0001f0 0e b6 ab 3c 02 34 13 bd 5d 77 74 3d f8 29 8e 3d
       0.020960834 -0.03593827 0.059684146 0.06941599
000200 f0 5f 26 3e 12 28 96 3d 8b 09 c0 bd a6 8a 00 3e
       0.16247535 0.073318616 -0.0937682 0.1255289
000210 b4 1c 21 3e 14 e7 a9 3d a8 6e 0b 3e 94 68 af 3c
       0.15733606 0.08296028 0.13616431 0.021412171
000220 cd 8d 90 3c 80 9f 04 bd 3c 93 cf 3d 68 c9 97 bc
       0.01764574 -0.032378674 0.101355046 -0.018528655
000230 81 9f b9 3d 44 17 0c bd 40 9e fc 3d dc 20 a5 3d
       0.09063626 -0.034201875 0.12334871 0.08062908
000240 8b 55 be bd 8a 50 a1 bd 62 e2 d3 3d bd 90 3e 3d
       -0.0929366 -0.0787669 0.103459135 0.046524752
000250 df c9 28 3d e5 79 09 be 39 bf 84 3d d0 a4 55 3d
       0.041208144 -0.13425405 0.06481785 0.05215913
000260 48 e0 4e bd fa f0 fb bd d1 80 2c bc f3 0f 80 bc
       -0.05050686 -0.12301822 -0.010528759 -0.015632605
000270 ec d5 07 be cc 94 e0 3c b5 28 dc bd d9 8c 04 be
       -0.13265198 0.027414702 -0.10749952 -0.12944354
000280 43 f2 84 3b 65 55 06 bd 4c 02 a2 bc bc 9e c7 3d
       0.0040572 -0.032796282 -0.019776486 0.09747073
000290 25 86 bf bd 71 89 ad 3d 47 e9 76 bd 15 74 0f be
       -0.09351758 0.084734805 -0.060281064 -0.14009126
0002a0 e6 dd 01 be 4a f2 b3 3d d8 bb 74 3c 4a ce fb bc
       -0.12682304 0.08786447 0.014937364 -0.030738015
0002b0 2a 29 18 3d ef d7 3e bd b8 1f 20 bd 7a 57 1f bd
       0.037148632 -0.04659265 -0.03909275 -0.038901784
0002c0 51 d4 8c bd c0 e6 87 3d 81 9e c3 bd 3f 4c 0d bd
       -0.06876434 0.06635809 -0.095517166 -0.034496542
0002d0 ba 84 34 bd 99 3b c6 bd 8b e6 98 3d 06 19 df 3d
       -0.04407189 -0.09679336 0.074658476 0.10893445
0002e0 af e9 d5 bd 4c d0 9e 3d f4 0b 0a 3e ab 1e a1 3c
       -0.10444962 0.07754573 0.13481122 0.019667944
0002f0 db c3 e5 bd 44 b9 c6 3d bf 68 03 3e dd 39 1e bd
       -0.11218997 0.09703305 0.12832926 -0.0386294
000300 42 5b 88 bd 2d 34 23 bb 09 85 b7 bd 1b 0c be 3d
       -0.06658031 -0.0024902925 -0.08960921 0.09279653
000310 35 d5 d4 3d 20 d9 8a 3c dd 22 91 3d c7 c9 1a 3e
       0.103922285 0.016949236 0.07086728 0.15116034
000320 14 84 74 bd 3b e8 4c 3d 2d 10 c2 bd eb f3 f3 3d
       -0.059696272 0.05002616 -0.094757415 0.11911758
000330 ae 16 c4 3d f6 ca bf bd 73 2c ed bd 69 ee e8 3d
       0.09574638 -0.093648836 -0.11580744 0.11373598
000340 e8 8a ef 3c bd 72 d8 3d 0c b6 18 bd 88 83 12 bd
       0.02924104 0.105687596 -0.03728299 -0.03576997
000350 04 cb de bd 52 ac 25 be a0 33 9b bd 1a 2c 02 3e
       -0.10878566 -0.16179016 -0.07578206 0.12712136
000360 39 5a 47 bd e2 e1 14 3d df 8d 89 3d ed 44 76 bd
       -0.048670027 0.03634823 0.06716513 -0.060124326
000370 6c e2 b6 bd e9 24 e4 bc 08 72 67 3d d2 f7 8f 3d
       -0.08929905 -0.027849631 0.056505233 0.0702969
000380 e4 f8 ae 3d 1d de 45 3c ab 01 14 3e 1c d7 07 3e
       0.08543566 0.012076882 0.14453761 0.13265651
000390 ba c9 73 bd b1 fc 79 bd a9 58 8f 3d 28 a1 b2 bd
       -0.059518553 -0.061032 0.069993325 -0.08722144
0003a0 95 3c ec 3d 98 f5 3d 3b 5d 7d df 3c d4 32 94 3d
       0.115349926 0.0028985497 0.027281458 0.07236257
0003b0 b4 c7 8a 3c 73 9a 56 bc b7 fd 0d bd 6d 47 d5 bd
       0.016940929 -0.013098347 -0.03466579 -0.10414014
0003c0 64 a1 83 bc 1c 96 0d bd 70 0d 09 3b 24 11 92 bd
       -0.016068168 -0.034566984 0.002091255 -0.071321756
0003d0 0a f5 ac 3c 9d 29 e7 3d 03 db c7 bc c8 56 d4 bc
       0.021112937 0.11287234 -0.024396425 -0.025920287
0003e0 01 cd 56 3d 8d 7c aa 3a d7 4e 16 be d8 c6 1a 3c
       0.0524416 0.001300709 -0.14678513 0.009446822
0003f0 d6 1f 17 3e 11 e9 f6 3d fd e1 6c 3d c8 e5 04 3e
       0.14758238 0.12056173 0.057832707 0.1297828

m_transform.0.11.bias f4 [96]
000000 46 2a fb 3d 2e 28 7d 3d 36 06 44 bd fe 54 11 3d
       0.122639224 0.061805896 -0.047857486 0.035481445
000010 0d 0e 44 3d 12 9b cb bd 08 e0 95 bd 97 0b 09 be
       0.047864962 -0.09941687 -0.07318121 -0.13383327
000020 6e 63 03 be e6 81 df bd 65 52 31 be 9e f5 a9 3d
       -0.12830898 -0.10913448 -0.17316587 0.08298801
000030 94 d0 ea bc 6b e6 00 be 23 61 b6 3b 28 17 cd 3d
       -0.02866391 -0.12587897 0.005565779 0.10014182
000040 81 ae 02 3d 79 b3 df 3d 03 1e a8 bd 49 14 13 bb
       0.0319047 0.109229036 -0.08208849 -0.002244251
000050 15 fb cb 3d 64 d2 34 bd 25 92 a8 3d 5b bc 04 3e
       0.099599995 -0.044145957 0.08231 0.12962477
000060 e3 0f 67 3d 7e cd 01 be 6a 73 66 bd 81 f0 a3 3d
       0.056411635 -0.12676045 -0.05626241 0.08004857
000070 c5 cd 95 3d e3 57 02 3e f7 03 0e be 63 28 1d 3e
       0.07314638 0.12728839 -0.138687 0.15347438
000080 0a c6 3a bd 56 e1 1b 3d af ef f1 3c 5e b3 7f bd
       -0.04559902 0.038056694 0.029533235 -0.062426917
000090 43 d3 05 3e eb e7 c5 3d f1 28 9e 3b 99 5e a1 3d
       0.13068871 0.096633755 0.004826658 0.07879371
0000a0 9d 33 9c bc 5e 79 cc bd fc a5 19 bd 69 87 c9 bd
       -0.01906758 -0.099840865 -0.03751181 -0.098402806
0000b0 2e c2 78 bb c0 92 1c be 9e 44 49 3a 2c 55 16 3e
       -0.0037957537 -0.15290356 0.0007677766 0.14680928
0000c0 42 9d 93 bd aa 4a d8 3c 53 ef 9e 3d 0b d4 e5 3d
       -0.07207729 0.02640279 0.07760491 0.112220846
0000d0 db 7b 9a 3d 8a df 61 bd 09 3b fa bc fa 0d d0 bb
       0.07543155 -0.055144824 -0.030545728 -0.0063493224
0000e0 6f 09 db 3d c0 d7 0e be de 47 37 3e 78 31 c0 bd
       0.10695159 -0.1394949 0.17898509 -0.093844354
0000f0 7a 60 d8 3d a1 07 a4 3d 95 b1 b8 3d 6c 75 9c 3c
       0.105652764 0.080092676 0.09018246 0.01909896
000100 14 c8 0c bd ac d2 f5 bd 29 85 ba bd e0 fa 52 3d
       -0.034370497 -0.12003073 -0.091074295 0.051508784
000110 74 47 f1 3d b0 7a ea bd 98 20 07 3e f5 0c f0 3c
       0.11781207 -0.11449182 0.13196027 0.029303053
000120 ab f8 80 3d 31 65 c0 3d 94 12 fe 3c 51 2b ca 3d
       0.0629743 0.09394301 0.031014718 0.09871543
000130 4e b7 0e be 3a 36 f0 3d ff 48 0c 3e 11 83 1d be
       -0.13937113 0.11729093 0.13699721 -0.15382029
000140 ea d6 11 3e 5c d1 be bd 3e 6e 0b 3d 44 c4 81 3d
       0.1424214 -0.09317276 0.034040682 0.06336263
000150 3e 16 15 bd 4c 52 f5 3d 5f f3 0c 3e a7 fa b4 3c
       -0.036398165 0.119785875 0.13764714 0.022092177
000160 39 9b 4a bd 4b 3d 79 3d b0 51 e9 bd a0 8e f9 bd
       -0.049464438 0.06084947 -0.11392534 -0.12185407
000170 d2 e3 2e bd 74 2a 73 3c f7 78 b9 3d 2a d2 9c bd
       -0.042697735 0.014841665 0.09056275 -0.07657273

m_transform.0.13.running_mean f4 [48]
000000 4a 60 b3 3e 62 98 fc 3e ec 87 ec 3e 18 07 ef 3e
       0.350344 0.4933501 0.4619745 0.466851
000010 03 90 2f 3f b9 b7 7b 3e 65 7f b6 3e 56 53 a6 3e
       0.6857912 0.24581803 0.3564407 0.32485455
000020 43 b9 c7 3e 2b 5d 70 3e 25 9b d4 3e 5c c1 ac 3e
       0.3900853 0.23473041 0.41524616 0.33741271
000030 a2 52 d1 3e 18 04 44 3f 20 b8 e5 3e a6 8d 90 3e
       0.40883356 0.76568747 0.4486704 0.2823307
000040 30 91 b2 3e 58 fd 95 3e 37 4d 8a 3e 8c b2 8f 3e
       0.34876394 0.29294848 0.27012035 0.28065908
000050 6f 8c 0c 3f c5 23 59 3e fe 50 dc 3e 4a cd 00 3f
       0.54901785 0.21205051 0.43030542 0.50313246
000060 23 eb db 3e e5 37 5a 3e d9 60 dc 3e 11 0f 14 3f
       0.42952833 0.21310385 0.4304264 0.5783549
000070 4a 6d 1c 3f 5e c8 3b 3f d2 90 94 3e dd cc 1a 3f
       0.6110426 0.7335261 0.2901674 0.60468847
000080 07 54 ab 3e d8 0a 9d 3e ca 0d 66 3f d4 7c 55 3e
       0.33462545 0.30672336 0.8986479 0.208484
000090 fa 3b f1 3e ba ca 01 3f 13 d2 16 3f 7c e1 ae 3e
       0.4711607 0.5069996 0.589143 0.34156406
0000a0 05 75 bd 3e 38 70 0d 3f 3b d7 be 3e 57 3e 3f 3e
       0.3700334 0.5524936 0.37273583 0.18676125
0000b0 82 0c dc 3e c0 cc 9e 3e 11 4e f3 3e 30 47 ed 3e
       0.42978293 0.31015587 0.47520497 0.46343374
