Auxillary Code/LCNN/project/03-asvspoof-mega/lfb-lcnn-attention-am/04/__pretrained/trained_network.pt (torch, 775117 bytes, 35 tensors)

m_frontend.0.lfcc_fb f4 [257, 60]
000000 00 00 00 00 00 00 00 00 00 00 00 00 00 00 00 00
       0.0 0.0 0.0 0.0
000010 00 00 00 00 00 00 00 00 00 00 00 00 00 00 00 00
       0.0 0.0 0.0 0.0
000020 00 00 00 00 00 00 00 00 00 00 00 00 00 00 00 00
       0.0 0.0 0.0 0.0
000030 00 00 00 00 00 00 00 00 00 00 00 00 00 00 00 00
       0.0 0.0 0.0 0.0
000040 00 00 00 00 00 00 00 00 00 00 00 00 00 00 00 00
       0.0 0.0 0.0 0.0
000050 00 00 00 00 00 00 00 00 00 00 00 00 00 00 00 00
       0.0 0.0 0.0 0.0
000060 00 00 00 00 00 00 00 00 00 00 00 00 00 00 00 00
       0.0 0.0 0.0 0.0
000070 00 00 00 00 00 00 00 00 00 00 00 00 00 00 00 00
       0.0 0.0 0.0 0.0
000080 00 00 00 00 00 00 00 00 00 00 00 00 00 00 00 00
       0.0 0.0 0.0 0.0
000090 00 00 00 00 00 00 00 00 00 00 00 00 00 00 00 00
       0.0 0.0 0.0 0.0
0000a0 00 00 00 00 00 00 00 00 00 00 00 00 00 00 00 00
       0.0 0.0 0.0 0.0
0000b0 00 00 00 00 00 00 00 00 00 00 00 00 00 00 00 00
       0.0 0.0 0.0 0.0
0000c0 00 00 00 00 00 00 00 00 00 00 00 00 00 00 00 00
       0.0 0.0 0.0 0.0
0000d0 00 00 00 00 00 00 00 00 00 00 00 00 00 00 00 00
       0.0 0.0 0.0 0.0
0000e0 00 00 00 00 00 00 00 00 00 00 00 00 00 00 00 00
       0.0 0.0 0.0 0.0
0000f0 00 00 74 3e 00 00 00 00 00 00 00 00 00 00 00 00
       0.23828125 0.0 0.0 0.0
000100 00 00 00 00 00 00 00 00 00 00 00 00 00 00 00 00
       0.0 0.0 0.0 0.0
000110 00 00 00 00 00 00 00 00 00 00 00 00 00 00 00 00
       0.0 0.0 0.0 0.0
000120 00 00 00 00 00 00 00 00 00 00 00 00 00 00 00 00
       0.0 0.0 0.0 0.0
000130 00 00 00 00 00 00 00 00 00 00 00 00 00 00 00 00
       0.0 0.0 0.0 0.0
000140 00 00 00 00 00 00 00 00 00 00 00 00 00 00 00 00
       0.0 0.0 0.0 0.0
000150 00 00 00 00 00 00 00 00 00 00 00 00 00 00 00 00
       0.0 0.0 0.0 0.0
000160 00 00 00 00 00 00 00 00 00 00 00 00 00 00 00 00
       0.0 0.0 0.0 0.0
000170 00 00 00 00 00 00 00 00 00 00 00 00 00 00 00 00
       0.0 0.0 0.0 0.0
000180 00 00 00 00 00 00 00 00 00 00 00 00 00 00 00 00
       0.0 0.0 0.0 0.0
000190 00 00 00 00 00 00 00 00 00 00 00 00 00 00 00 00
       0.0 0.0 0.0 0.0
0001a0 00 00 00 00 00 00 00 00 00 00 00 00 00 00 00 00
       0.0 0.0 0.0 0.0
0001b0 00 00 00 00 00 00 00 00 00 00 00 00 00 00 00 00
       0.0 0.0 0.0 0.0
0001c0 00 00 00 00 00 00 00 00 00 00 00 00 00 00 00 00
       0.0 0.0 0.0 0.0
0001d0 00 00 00 00 00 00 00 00 00 00 00 00 00 00 00 00
       0.0 0.0 0.0 0.0
0001e0 00 00 f4 3e 00 00 00 00 00 00 00 00 00 00 00 00
       0.4765625 0.0 0.0 0.0
0001f0 00 00 00 00 00 00 00 00 00 00 00 00 00 00 00 00
       0.0 0.0 0.0 0.0
000200 00 00 00 00 00 00 00 00 00 00 00 00 00 00 00 00
       0.0 0.0 0.0 0.0
000210 00 00 00 00 00 00 00 00 00 00 00 00 00 00 00 00
       0.0 0.0 0.0 0.0
000220 00 00 00 00 00 00 00 00 00 00 00 00 00 00 00 00
       0.0 0.0 0.0 0.0
000230 00 00 00 00 00 00 00 00 00 00 00 00 00 00 00 00
       0.0 0.0 0.0 0.0
000240 00 00 00 00 00 00 00 00 00 00 00 00 00 00 00 00
       0.0 0.0 0.0 0.0
000250 00 00 00 00 00 00 00 00 00 00 00 00 00 00 00 00
       0.0 0.0 0.0 0.0
000260 00 00 00 00 00 00 00 00 00 00 00 00 00 00 00 00
       0.0 0.0 0.0 0.0
000270 00 00 00 00 00 00 00 00 00 00 00 00 00 00 00 00
       0.0 0.0 0.0 0.0
000280 00 00 00 00 00 00 00 00 00 00 00 00 00 00 00 00
       0.0 0.0 0.0 0.0
000290 00 00 00 00 00 00 00 00 00 00 00 00 00 00 00 00
       0.0 0.0 0.0 0.0
0002a0 00 00 00 00 00 00 00 00 00 00 00 00 00 00 00 00
       0.0 0.0 0.0 0.0
0002b0 00 00 00 00 00 00 00 00 00 00 00 00 00 00 00 00
       0.0 0.0 0.0 0.0
0002c0 00 00 00 00 00 00 00 00 00 00 00 00 00 00 00 00
       0.0 0.0 0.0 0.0
0002d0 00 00 37 3f 00 00 00 00 00 00 00 00 00 00 00 00
       0.71484375 0.0 0.0 0.0
0002e0 00 00 00 00 00 00 00 00 00 00 00 00 00 00 00 00
       0.0 0.0 0.0 0.0
0002f0 00 00 00 00 00 00 00 00 00 00 00 00 00 00 00 00
       0.0 0.0 0.0 0.0
000300 00 00 00 00 00 00 00 00 00 00 00 00 00 00 00 00
       0.0 0.0 0.0 0.0
000310 00 00 00 00 00 00 00 00 00 00 00 00 00 00 00 00
       0.0 0.0 0.0 0.0
000320 00 00 00 00 00 00 00 00 00 00 00 00 00 00 00 00
       0.0 0.0 0.0 0.0
000330 00 00 00 00 00 00 00 00 00 00 00 00 00 00 00 00
       0.0 0.0 0.0 0.0
000340 00 00 00 00 00 00 00 00 00 00 00 00 00 00 00 00
       0.0 0.0 0.0 0.0
000350 00 00 00 00 00 00 00 00 00 00 00 00 00 00 00 00
       0.0 0.0 0.0 0.0
000360 00 00 00 00 00 00 00 00 00 00 00 00 00 00 00 00
       0.0 0.0 0.0 0.0
000370 00 00 00 00 00 00 00 00 00 00 00 00 00 00 00 00
       0.0 0.0 0.0 0.0
000380 00 00 00 00 00 00 00 00 00 00 00 00 00 00 00 00
       0.0 0.0 0.0 0.0
000390 00 00 00 00 00 00 00 00 00 00 00 00 00 00 00 00
       0.0 0.0 0.0 0.0
0003a0 00 00 00 00 00 00 00 00 00 00 00 00 00 00 00 00
       0.0 0.0 0.0 0.0
0003b0 00 00 00 00 00 00 00 00 00 00 00 00 00 00 00 00
       0.0 0.0 0.0 0.0
0003c0 00 00 74 3f 00 00 00 00 00 00 00 00 00 00 00 00
       0.953125 0.0 0.0 0.0
0003d0 00 00 00 00 00 00 00 00 00 00 00 00 00 00 00 00
       0.0 0.0 0.0 0.0
0003e0 00 00 00 00 00 00 00 00 00 00 00 00 00 00 00 00
       0.0 0.0 0.0 0.0
0003f0 00 00 00 00 00 00 00 00 00 00 00 00 00 00 00 00
       0.0 0.0 0.0 0.0

m_transform.0.0.weight f4 [64, 1, 5, 5]
000000 85 c8 9b bd 2e de 39 3d d7 8c 9f bb 88 f2 b8 bd
       -0.076066054 0.045377903 -0.0048690843 -0.09030634
000010 c2 aa c2 bd 7d 12 5e 3d 80 e2 6d bc 6f 94 f9 bc
       -0.09505226 0.05421685 -0.014519334 -0.030466286
000020 d9 f2 44 bd fd ff 1f 3d 6d 16 5e bd ba bf 34 bb
       -0.04808316 0.03906249 -0.054220606 -0.0027580098
000030 a1 3a 3a bc ef e9 0f be 49 4a 96 3d 14 77 38 be
       -0.011366517 -0.14054082 0.073383875 -0.18014175
000040 69 8a 92 3d 2d 49 2a be b4 3e bf ba ab 1d 42 be
       0.07155306 -0.16629477 -0.001459083 -0.1895663
000050 4b 49 49 be 24 5b d2 3d 61 59 1e be b5 7f 1c be
       -0.19656865 0.1027129 -0.15463783 -0.15283091
000060 3c 2d 24 bd 89 ac f5 bc 11 23 5b 3d fd 5f 49 bd
       -0.0400822 -0.029989498 0.05350024 -0.049163807
000070 f1 bd 42 bd b4 fe ae 3d de 91 f8 3d 72 e4 ed bd
       -0.047544423 0.085446745 0.12137197 -0.11615838
000080 5f af 19 3d df e0 53 3e a7 0a 2a 3e 28 27 44 3e
       0.037520763 0.2069125 0.16605626 0.19155562
000090 93 43 75 bd 63 31 8c 3c 39 d4 53 bd 0a c6 22 3d
       -0.059878897 0.017113393 -0.051716063 0.039739646
0000a0 50 e5 25 bd 09 4f 57 be 89 a3 83 bd 73 96 35 3e
       -0.040501893 -0.21026243 -0.06427676 0.17733173
0000b0 0e d8 2a 3e e8 75 1d 3d 29 6b 19 3e 4c f4 59 be
       0.16683981 0.038442522 0.14982285 -0.21284598
0000c0 3c 1b 23 3d 07 47 7e bd 21 2a 52 3e bf e8 8e 3d
       0.039820895 -0.062079456 0.20523883 0.069779865
0000d0 04 f7 26 3e d5 29 b3 3d 5a de e3 bd 31 1e fe bd
       0.16305166 0.08748213 -0.111263946 -0.12408102
0000e0 1c 8b 73 be 70 b1 93 3d 46 b7 0e 3e 6c e2 15 3e
       -0.23783535 0.07211578 0.13937101 0.14637154
0000f0 87 f3 4e 3d 6b 2d f2 bd dc 09 d6 b8 64 64 49 be
       0.050525215 -0.11825069 -0.00010206152 -0.19667202
000100 70 bd 81 3d be 26 29 3d 73 d4 50 be 8a 2f 74 bc
       0.063349605 0.041296713 -0.20393543 -0.014903912
000110 25 1a 47 3d 17 54 df 3a 15 62 05 be 07 fd 61 bd
       0.048608918 0.001703861 -0.13025697 -0.055172946
000120 56 13 ac 3d 10 4f 68 3c af 72 32 3e e5 7c 02 3e
       0.084021255 0.014179006 0.17426561 0.12742956
000130 22 29 48 be 08 5a 68 3d c6 98 9b bd 41 c6 60 3d
       -0.19546941 0.056726485 -0.075974986 0.05487657
000140 69 55 bf 3d e5 5c 2a be b3 e6 8f 3d 87 45 ea 3d
       0.093424626 -0.16636999 0.07026424 0.114390425
000150 31 7c 4f be 69 f4 3e bd 4e 04 02 be 96 5c 1e 3e
       -0.20262219 -0.046619806 -0.12696955 0.15465006
000160 7a cc fb 3d 12 21 77 bc ed 34 df bd 53 b8 5b be
       0.1229486 -0.015083568 -0.10898767 -0.21457033
000170 0d 98 25 be 09 ab 7f bd 77 64 a0 3d 32 62 3a be
       -0.16171284 -0.06241897 0.07831662 -0.18201521
000180 1d 5d ec 3c 93 30 e0 3d be 47 de bd 35 d1 38 3e
       0.028852994 0.10946765 -0.108535275 0.18048556
000190 07 93 4b be d4 f7 2b 3e dc a8 c8 bb 9e a6 ca 3d
       -0.19880305 0.16793758 -0.006123645 0.09895061
0001a0 4c 09 3b 3c aa 05 d2 3c 01 1d ab bb 2b e3 e1 bc
       0.011415791 0.025637466 -0.0052219634 -0.027574142
0001b0 e6 c6 4b be f7 95 f2 bc ee 0a 21 3e da 0b fc 3c
       -0.19900092 -0.029612524 0.15726826 0.03076737
0001c0 cd 66 50 3e 04 cf e7 3d 4c ee 11 be 9d aa 2d 3d
       0.20351715 0.11318782 -0.1425106 0.042399038
0001d0 73 6e 8b 3d 05 a4 00 3e 3a ca 18 be 8b 04 81 bd
       0.06808176 0.12562568 -0.14920893 -0.06299695
0001e0 c5 90 73 3b 6e 25 61 bd 75 53 37 3e da 99 39 be
       0.0037165147 -0.054967336 0.1790293 -0.18125096
0001f0 d8 d8 4a be f5 c9 97 bc ce 97 1f 3e a3 fb 8c bd
       -0.19809282 -0.018528918 0.15585253 -0.068839334
000200 00 7b 00 be 6f d6 97 bb a2 da 10 bd 55 91 eb bd
       -0.12546921 -0.004633717 -0.035364754 -0.11502329
000210 c3 52 cb bd 8d 4b 8f bc 0c 94 38 3c da 8c 28 bd
       -0.09927895 -0.01749208 0.011265766 -0.04114995
000220 53 95 1c 3e a3 f5 c2 bd d2 ad 24 3d 22 e7 00 3e
       0.15291338 -0.09519508 0.04020483 0.1258817
000230 1e d1 3e 3e 09 8f 43 be a6 6a e8 3d 7e c8 9f 3d
       0.1863446 -0.19097532 0.113484666 0.07801913
000240 bd 85 1c 3e 06 1c 1f 3e ce 3e cc 3d 7c d0 92 bd
       0.15285392 0.15538034 0.099729165 -0.071686715
000250 02 ae e2 bd 58 64 2f bd 80 63 66 3d f6 2c fb 3d
       -0.110683456 -0.042820305 0.056247234 0.12264435
000260 11 62 6c 3b fb af 7c bd d5 eb 35 3e 57 82 05 3e
       0.0036069194 -0.061691266 0.17765744 0.13038002
000270 dc 41 30 bc 20 89 58 3e 8b 83 1b 3e d0 8a 17 be
       -0.01075789 0.21146059 0.15186898 -0.14799047
000280 b0 16 01 be 9c 4e f3 bd 21 fb 0b bc 4b cf 37 be
       -0.12606311 -0.11880228 -0.0085437605 -0.1795017
000290 4b 26 59 3e b9 f0 ef 3d 0d 72 02 be 22 f5 7a 3d
       0.21206014 0.11715836 -0.1273882 0.061268933
0002a0 65 1d 32 3e db 6b 20 3d a4 f2 ed 3d 30 df 46 3e
       0.17394026 0.03916536 0.11618546 0.19421077
0002b0 fc fe 01 be f9 d3 28 3d 53 a7 85 3d 5f 1b c0 bd
       -0.12694925 0.041217778 0.06526055 -0.093802206
0002c0 0d 2a 90 3d 63 9f 68 bd 34 f7 0e 3e 40 18 8c bd
       0.070392706 -0.056792628 0.13961488 -0.06840563
0002d0 e0 cb a7 bd 18 b7 28 3e b4 85 7d 3e 0b 9e ca bd
       -0.08193183 0.16476095 0.24758035 -0.098934256
0002e0 cd 4d 38 be c8 99 95 3d fa 11 f4 3c 92 34 36 bd
       -0.17998429 0.07304722 0.029793728 -0.04448373
0002f0 b9 f5 dd 3d 29 1f 09 be 02 cc 46 3d 4e e5 48 3e
       0.108378835 -0.13390793 0.0485344 0.19618723
000300 03 5b 0f bd b5 0f ca bd da 6a 68 3d 71 63 13 3e
       -0.034998905 -0.09866277 0.056742527 0.14393403
000310 52 a0 11 3e 39 2e 20 3e e9 50 04 bd 58 64 33 be
       0.14221314 0.15642633 -0.032303724 -0.17518747
000320 e8 06 13 be 80 60 05 3d 0b 78 38 3e 85 d6 d8 bd
       -0.14358103 0.032562733 0.18014543 -0.10587791
000330 fb c5 ab 3d b6 a7 b8 bd 74 c3 30 3e 40 44 c2 3d
       0.08387371 -0.09016363 0.1726206 0.09485674
000340 3f 23 e1 3c 98 6a e4 bc dc f1 92 bd 9b e7 d4 bd
       0.027482627 -0.02788286 -0.07175037 -0.10395738
000350 21 a5 a9 bd 01 de c3 3c e2 88 b3 bd 9c 43 db 3d
       -0.08283449 0.02390957 -0.08766343 0.10706255
000360 34 44 01 be 05 ed 14 3d ee 48 a1 3d 49 f3 df bb
       -0.12623674 0.036358852 0.07875238 -0.006834422
000370 e0 d0 07 3d 80 e8 19 be 4f ed 03 3c 84 fc 2d 3c
       0.033158183 -0.15030098 0.008052184 0.010619286
000380 6f 8c 3c 3e a3 ff 15 3d b6 0e f5 bd 9d 18 a1 bc
       0.18412946 0.036620747 -0.119656965 -0.019665057
000390 55 8b 24 3e 42 b4 dd bd 64 db d8 bd 3a a8 9c 3c
       0.16068776 -0.10825397 -0.105887204 0.019123185
0003a0 1e 71 1c 3e 29 92 d6 3c 94 bf fa 3d 5b ac 89 bd
       0.15277526 0.026192741 0.12243572 -0.06722327
0003b0 f8 c4 82 bd fa 3d 00 3d eb 16 43 be 3f b0 1b be
       -0.06385225 0.031309105 -0.19051711 -0.15203951
0003c0 de b6 16 bd cf 35 c5 bb dd 80 ca 3d 6b 97 0f be
       -0.03679549 -0.0060183774 0.0988786 -0.14022605
0003d0 cc 19 52 be 40 81 37 be 3d 46 25 3e 5e 18 43 3e
       -0.20517653 -0.17920399 0.16140075 0.19052264
0003e0 4a d0 73 3d 5a 6f 16 be fd 72 70 be 54 7b ed bd
       0.05952481 -0.14690915 -0.23481365 -0.115957886
0003f0 69 ee d6 bd 4d 11 bc bc b7 a9 c5 bd bd 69 42 3e
       -0.10494692 -0.022957468 -0.09651511 0.18985648

m_transform.0.0.bias f4 [64]
000000 70 8e 06 3d 80 bc cd bd d9 1d ee bc 54 04 23 3e
       0.032850683 -0.10045719 -0.029066967 0.1591962
000010 ad df 08 bd 0a 64 44 be a9 01 6f 3d 44 15 b7 bd
       -0.03341644 -0.19178787 0.058351193 -0.08939603
000020 9f 38 5b be a5 52 c2 bd 67 a6 f5 3d 0c 52 18 3e
       -0.21408318 -0.094884194 0.11994629 0.14875048
000030 d1 c1 47 3e 9d 45 8b bd 52 d4 4d be 64 29 46 3e
       0.19507529 -0.06800387 -0.20100525 0.19351727
000040 6a f4 96 3d 40 4e 6d 3d 85 55 dd 3d 89 e3 6c bd
       0.07370837 0.057935953 0.10807327 -0.057834182
000050 39 47 c6 3d 3c 9d bd 3c 51 29 e4 bc 60 e1 11 bd
       0.096815534 0.023146264 -0.027851732 -0.035615325
000060 00 37 17 3e 49 55 e5 bd 72 fa 86 3c d6 25 b7 3b
       0.14767075 -0.111979075 0.016476844 0.005589227
000070 36 5d c3 3c 0d 80 38 3e ac 0f 12 3e ff a8 10 3d
       0.023848157 0.18017597 0.14263791 0.035317417
000080 54 e8 c4 3d 30 7b d1 bd 72 b6 51 be 09 8d 7b 3d
       0.096146256 -0.10228574 -0.20479754 0.0614138
000090 7e d9 19 be 21 3c 88 3d 93 bb 9d 3d cb c9 43 bd
       -0.15024373 0.06652094 0.077017926 -0.047799867
0000a0 7c 51 d9 3d e2 73 0a bd f5 f6 ae bd a4 06 e3 3d
       0.10611245 -0.03380192 -0.08543197 0.11085251
0000b0 59 97 18 3e 2f ed d4 bd c3 d5 29 bd e0 71 5a be
       0.14901485 -0.10396802 -0.041463625 -0.21332502
0000c0 f4 e1 28 be 73 d2 94 bd 78 92 55 bd 1c e3 29 bd
       -0.16492444 -0.072667025 -0.052141637 -0.041476354
0000d0 56 5f 3f 3e ac bd 2e 3d e3 8c 49 bd ed 18 af bd
       0.18688712 0.042661354 -0.049206626 -0.08549676
0000e0 9e fc 8d 3d 81 99 99 3d 27 22 02 ba 16 86 a0 3c
       0.069329485 0.07499982 -0.00049641955 0.019595187
0000f0 a2 0b 31 3e 3e 20 dc bc f1 93 ae 3d 98 c3 39 3e
       0.17289594 -0.026870843 0.08524311 0.1814102

m_transform.0.3.weight f4 [64, 32, 1, 1]
000000 70 9a 1f be 71 69 08 3d 3b fb 03 3c 6e f8 af 3d
       -0.15586257 0.03330368 0.0080555035 0.08592306
000010 50 1c e8 3d 57 14 07 be 75 4e ac bd f2 fa 01 3d
       0.11333525 -0.13191353 -0.08413402 0.03173346
000020 29 47 1c be b8 a7 1d bd 6d a7 1e 3e fc 7f f0 bd
       -0.1526152 -0.038490027 0.15493555 -0.11743161
000030 c1 c8 05 be 96 d1 11 bd d2 83 8e 3d 18 a8 f0 3d
       -0.13064863 -0.035600267 0.069587365 0.11750811
000040 ee 42 09 3e 63 02 f8 bd b3 10 f3 bd c7 b9 1b 3e
       0.13404438 -0.1210983 -0.118684195 0.15207587
000050 b0 fd bf 3d a8 44 ea 3d d4 15 af 3b c4 6d 27 be
       0.09374559 0.114388764 0.0053431783 -0.16350466
000060 68 7b 23 be ad 0c 23 be 1b 89 fd bd 89 45 67 bd
       -0.15965044 -0.15922804 -0.123796664 -0.0564628
000070 9e 8d 2d 3c b3 c4 be bd 34 b7 1c 3e 25 ac 19 3e
       0.010592846 -0.09314861 0.15304261 0.15007074
000080 96 e0 24 be 29 cb f3 bd 94 5d 24 3e 01 51 72 3d
       -0.16101298 -0.11903984 0.16051322 0.059159283
000090 c2 51 18 be 42 87 3e 3d af 2c 06 3e 8c fe ba 3d
       -0.14874938 0.04651571 0.13102983 0.09130582
0000a0 f7 9e 71 bd 43 82 a7 3d 85 c2 db bd 17 52 be 3c
       -0.05898949 0.08179142 -0.10730461 0.023232503
0000b0 24 ac 83 3d 98 b3 05 3e 10 fb cf 3d fa 05 b2 3d
       0.064293176 0.13056791 0.10155308 0.08692546
0000c0 0a 0e 23 3e 51 15 3d be b4 d2 c2 bd 9f 7c 37 bd
       0.15923324 -0.18465163 -0.09512845 -0.044796582
0000d0 98 80 36 be fb f1 6f bd 3b 26 17 be 8a 8f 0e bd
       -0.17822492 -0.05858038 -0.14760678 -0.03480486
0000e0 0f 1e 60 bd 02 1b f2 3d 94 97 80 3d fe 3a b9 3d
       -0.054716166 0.118215576 0.06278911 0.09044455
0000f0 5a df 61 3d c9 2d 9b 3d 97 27 05 b9 68 b2 26 3e
       0.055144645 0.07577092 -0.00012698617 0.16278994
000100 5f 15 11 3e 87 d0 dd 3d 17 c6 e9 3c 1a 9b a5 3d
       0.14168309 0.10830789 0.02853684 0.08086224
000110 ad 76 00 3e 38 22 cb 3c 4b b3 9e bd 0d f7 85 3d
       0.12545271 0.02479659 -0.07749041 0.06541262
000120 0f c4 0f be cf 8a c3 bd 76 26 89 bd 5d 6e 8f bd
       -0.14039634 -0.0954796 -0.06696789 -0.07003472
000130 ce 80 0e 3e 8a b6 22 be c1 8d 37 3d 62 46 c4 bd
       0.13916323 -0.15889946 0.04481292 -0.09583737
000140 ac df 48 bd 1e f1 03 be ca 68 f4 bd 7f bb b2 3d
       -0.049041435 -0.12884948 -0.119340494 0.08727168
000150 f6 3d c1 bc d3 1d 41 3d ad b7 2a be 0a 38 bc 3d
       -0.023589116 0.047147583 -0.16671629 0.09190376
000160 e2 78 6a 3d 75 15 0a 3e 9c 35 1a 3e 48 c8 26 3e
       0.05724419 0.13484748 0.15059513 0.16287339
000170 25 14 09 3e 73 25 c0 3d d5 2f 35 3e 20 05 29 be
       0.13386591 0.09382143 0.17694028 -0.16505861
000180 59 fd 21 bd 6e b5 14 3e b6 0a 0a bd 82 41 d1 bd
       -0.03954825 0.14522335 -0.03370162 -0.10217573
000190 e3 97 ce 3d a1 5b 0c be 3b 12 0e 3e c8 a8 82 3d
       0.10087564 -0.13706829 0.13874142 0.06379849
0001a0 85 68 86 3c 1b f0 20 3e c5 82 8b bd 6f 65 99 bd
       0.01640726 0.15716593 -0.06812052 -0.0749005
0001b0 3c 89 5f 3d 8d 7e d0 bd 42 dc 75 3d 1c 7c 88 3c
       0.054574236 -0.10180388 0.060024507 0.016660742
0001c0 f6 a8 3f bd 28 68 22 3d eb 92 40 bd b5 cf c7 3d
       -0.046791993 0.039650112 -0.047015112 0.09756414
0001d0 c0 e9 e5 bd a2 b5 ef 3d 99 2b 79 bd a1 c9 0c be
       -0.11226225 0.117045656 -0.060832594 -0.1374879
0001e0 e2 eb 22 3e 54 77 3a 3e 8e 2f 0c be 9d d5 04 bd
       0.15910295 0.18209583 -0.13690016 -0.03243028
0001f0 e1 97 a7 3d a3 34 a6 bd 69 d3 e3 bd a2 2e 03 3e
       0.081832655 -0.081155084 -0.11124308 0.12810758
000200 95 6d ce 3d b5 fa b2 3c f3 1c c9 bc 9d 4f e4 bc
       0.10079495 0.021848062 -0.024549937 -0.027869994
000210 d5 9c ba 3d e5 07 3f 3e 78 87 58 bb 36 9b 1c 3e
       0.091119446 0.18655355 -0.003303973 0.15293583
000220 1f 53 77 bd 4a fa 15 3d ca a6 5e bd 8c b6 e3 bd
       -0.060382005 0.036615647 -0.05435828 -0.111188024
000230 aa ef 2f bd 06 44 66 bd d1 8f a4 bd e3 5a fa 3d
       -0.04295317 -0.056217216 -0.08035243 0.122243665
000240 67 44 d9 bd 1f 5d e4 3d cd 69 2a 3e 68 39 fb bd
       -0.1060875 0.11150574 0.16641922 -0.12266809
000250 06 e6 65 bd ea 34 75 bb da 42 23 3e 5a 0d 79 bd
       -0.05612757 -0.0037415572 0.1594347 -0.06080375
000260 84 9d a3 bd 21 9d 20 be d2 1a 1c be cc bb 5a 3b
       -0.07989028 -0.1568494 -0.15244606 0.0033376096
000270 e4 a7 95 3c 84 11 6c bd 9d fa 0d 3e 31 67 c5 bc
       0.018268533 -0.05763389 0.13865133 -0.024097057
000280 47 97 4d 3c ae a2 be 3d a7 f2 10 3e e8 65 17 be
       0.012548274 0.093083724 0.14155065 -0.14784968
000290 26 e3 97 bd 71 2d 06 be 60 2f 95 bd 24 02 e3 3d
       -0.07416372 -0.13103272 -0.07284427 0.11084393
0002a0 85 d4 ac bd 8b 3c d7 bc b9 55 da bd d5 9b b5 bc
       -0.084389724 -0.026273986 -0.106608815 -0.022169033
0002b0 b1 f6 06 be c9 59 1d 3d 09 c9 40 be 33 92 1e ba
       -0.13180043 0.038415704 -0.18826689 -0.0006049007
0002c0 b9 fe 00 be 18 f5 9b bd df bb 20 3d a0 1c 51 be
       -0.12597169 -0.07615107 0.039241668 -0.20421076
0002d0 e4 b2 fb bd 78 a1 0d 3e 4e 9a 6e bd 12 a6 03 bd
       -0.1228998 0.13831127 -0.058252625 -0.0321408
0002e0 78 a1 c8 3d 1c b0 02 3e 9a b4 f4 bd 13 af 17 bd
       0.09796423 0.12762493 -0.119485095 -0.0370322
0002f0 b7 d3 9c bd 83 69 c3 3d 27 70 23 3d 6e d0 1e be
       -0.07657569 0.09541609 0.03990188 -0.15509197
000300 10 81 98 3d 1c 4c d6 bd 4e 44 43 bd d5 9f 07 be
       0.07446492 -0.104637355 -0.047672562 -0.13244565
000310 fe ed 51 be 3f 28 b4 bd 1e 9a a7 3d 69 7d 3b be
       -0.20500943 -0.08796739 0.081836924 -0.18309559
000320 40 b6 28 bd f7 e0 d4 3d d3 b3 9e bb 01 9d 86 3d
       -0.041189432 0.10394471 -0.004843214 0.06572915
000330 85 a4 b9 3d 39 9d 34 be 30 57 88 3d 37 ac 84 bd
       0.09064583 -0.176381 0.06657255 -0.0647816
000340 04 1e e6 3d 05 d8 af 3d bc 80 d1 bd 94 fd e6 3c
       0.11236194 0.08586124 -0.10229632 0.028197087
000350 e0 7f a3 3d 70 1c cf bd 4b 65 80 3c f4 a7 00 3e
       0.079833746 -0.10112846 0.0156733 0.12564069
000360 d5 db 39 3e 17 6f 62 bd f0 82 81 bd 81 5d 89 bd
       0.18150266 -0.055281725 -0.063238025 -0.067072876
000370 63 71 ae 3d 76 d3 38 be a5 b9 2a be 9a 99 3e bd
       0.085177206 -0.18049416 -0.1667238 -0.046533205
000380 ed 8a aa bd 6f b9 21 3e 99 8b c6 bd dd 26 22 be
       -0.08327279 0.15793394 -0.09694595 -0.15835138
000390 64 5f 06 be 20 f9 95 3c 72 ae a5 3d a6 df f0 3d
       -0.13122326 0.018307269 0.080899134 0.117614076
0003a0 01 07 00 3e c6 98 05 bc 95 05 ca 3d ab e0 09 be
       0.12502672 -0.0081541 0.09864346 -0.1346461
0003b0 8d e8 2a 3e 54 73 44 be 73 68 95 3c 5a ad ca 3d
       0.16690274 -0.19184619 0.018238282 0.098963454
0003c0 a5 a5 eb 3d 0b 2f a9 3b 55 a4 40 3d ba 32 97 bd
       0.115062036 0.0051630787 0.04703172 -0.07382722
0003d0 9d cc ac bd 85 db 76 bd 44 e9 fa 3c 34 da 3b 3d
       -0.084374644 -0.060267944 0.030628808 0.04586239
0003e0 a2 a1 ae bd 2c 88 83 bd 64 06 76 bc 8c d7 c8 bc
       -0.08526923 -0.06422457 -0.015016172 -0.024516843
0003f0 b3 14 0f be f5 30 ff 3d 9a d8 ae bd 5b 55 10 be
       -0.1397274 0.1246051 -0.08537407 -0.1409506

m_transform.0.3.bias f4 [64]
000000 38 df 16 be b0 d0 c2 3d 80 c8 b1 bc 4e 33 93 3a
       -0.14733589 0.0951246 -0.021702051 0.00112305
000010 c2 06 01 be 0e 36 13 3e e1 ee e6 bd 9d d6 c0 3d
       -0.12600234 0.14376089 -0.11276031 0.09415934
000020 da 1f 73 bd 8b 4d 16 3e 29 9b 11 be 52 b7 ea bd
       -0.059356548 0.14678018 -0.14219345 -0.11460747
000030 cc 0f 63 bd 1a 46 c4 3c fa 36 3b 3e e8 82 29 bd
       -0.055434987 0.023959208 0.1828269 -0.041384608
000040 6b dd b7 bd 69 4a 27 be 3d 2b 24 3e 2f 03 f6 bd
       -0.08977779 -0.16336979 0.16032119 -0.12012326
000050 73 8e 60 bb 75 51 78 bc bf a9 36 3e c2 59 c6 bd
       -0.0034264594 -0.01515614 0.1783819 -0.09685089
000060 5a bb 39 3e 30 13 ee bd 15 77 06 be d8 7b 65 3d
       0.18137875 -0.116247535 -0.13131364 0.05602631
000070 28 85 76 3d 59 ff cc 3d 16 c2 a2 bd 29 36 eb bd
       0.06018558 0.10009641 -0.07947175 -0.114849396
000080 42 16 75 3d c9 e1 f9 bd 1f 69 45 bd da 3b ce 3d
       0.05983568 -0.12201268 -0.048195954 0.100700095
000090 2d d5 31 be dd e1 9d 3d 0a 52 5b bd f9 4f cd bd
       -0.17366476 0.077090956 -0.053545035 -0.10025019
0000a0 cf f3 50 bd cb 78 d4 bd 78 a2 2e 3e 2c 82 d1 3d
       -0.051013764 -0.10374602 0.17054164 0.102299064
0000b0 23 65 1c 3e f8 be 35 3d 4f 6f 9e 3c 2d d8 4a 3d
       0.15272956 0.044371575 0.019340185 0.049522568
0000c0 d0 1d 99 bd 81 88 f1 bc 7e e5 06 be 5b c2 02 be
       -0.074763894 -0.029484035 -0.13173482 -0.12769453
0000d0 96 98 2c 3e 15 81 15 3e a7 87 ce bd a7 9a a5 3d
       0.16855082 0.14600022 -0.100844674 0.08086138
0000e0 41 80 27 bd 19 38 1e be a0 00 7d 3d db c9 08 bd
       -0.040893797 -0.15451087 0.061768174 -0.03339563
0000f0 ec d1 80 3c 92 50 ef bc 27 89 62 bc 83 82 d0 3d
       0.015725099 -0.029213224 -0.013826645 0.10181143

m_transform.0.5.running_mean f4 [32]
000000 b5 0d 31 3e 68 76 10 40 73 6b 17 40 27 b8 f2 3e
       0.17290385 2.257227 2.3659332 0.47406122
000010 78 5a 09 3f 08 e4 ed be bf 94 99 3b 0b cb 79 3e
       0.5365367 -0.46463037 0.0046869214 0.24393861
000020 03 64 23 bf 11 40 12 3f a1 37 4e 3e 2c fb 2f 3e
       -0.6382448 0.5712901 0.20138408 0.17185658
000030 85 80 a5 3f b6 de 97 3e 35 20 d9 3e e0 34 e3 3f
       1.2929846 0.29662102 0.42407385 1.7750511
000040 13 4a 83 3e d5 cf 18 bf 57 57 39 40 34 c6 29 be
       0.25642452 -0.59692127 2.8959558 -0.16579515
000050 70 76 0f bc b7 ed de 3f 9c df 5d be c3 53 bb 3e
       -0.008756265 1.7416295 -0.21667331 0.36587343
000060 0a 60 a4 3d 87 f9 3a 3e 07 45 03 3d 84 6a e4 3e
       0.080261305 0.1825925 0.03204825 0.44612515
000070 f7 3a e4 3e b5 f1 69 3f dc 1c 1e 40 d5 b6 b7 3d
       0.44576237 0.9138444 2.4705114 0.08970419

m_transform.0.5.running_var f4 [32]
000000 7c 4e 10 3d af 0f ab 3f f4 bb c5 3f cc ac 91 3d
       0.0352311 1.3364161 1.5447984 0.071130365
000010 2a bf 8c 3e ed 06 0d 3e e3 80 67 3d 6a 9d dc 3d
       0.27489597 0.13772173 0.0565194 0.10772212
000020 f1 99 f5 3d 10 ef fc 3d bf 8d e5 3c e6 eb cc 3d
       0.119922526 0.12350285 0.028021691 0.100059316
000030 ea 9d c3 3e 85 da 08 3d 8d 95 4a 3e ec 88 56 3f
       0.38206416 0.03341152 0.19783612 0.83802676
000040 2f 3e c0 3d d6 b4 70 3d bb 5f f6 3f 01 36 50 3e
       0.093868606 0.05876621 1.9247965 0.20333101
000050 12 87 ec 3d 74 ca 20 3f a9 d8 03 3e 20 bc 0c 3e
       0.115492 0.6280892 0.12875618 0.13743639
000060 b2 5b 3d 3d 0c 43 bb 3d b1 6b ca 3d 71 a2 2b 3e
       0.046230026 0.091436476 0.09883822 0.16761185
000070 a9 86 27 3e 4a 5c 21 3e 19 f6 c4 3f bc 0a c7 3c
       0.16359963 0.15757862 1.5387603 0.02429711

m_transform.0.6.weight f4 [96, 32, 3, 3]
000000 a9 5c 89 bd 95 4b b1 bc 7b ff b6 3c 9c 6e 19 3c
       -0.06707127 -0.021642486 0.02233862 0.00936475
000010 17 54 47 bd a2 96 0f bd 18 eb a5 3c b3 36 92 bd
       -0.04866418 -0.035055764 0.020253703 -0.07139339
000020 65 80 f1 3c 38 3c 7e 3d 9a 4e b6 bc 6d b5 a8 bc
       0.029480169 0.062069148 -0.022254277 -0.020594323
000030 48 6f fd bc 07 24 92 3c 17 d8 91 3b f1 02 86 3d
       -0.030936852 0.017839445 0.0044508087 0.0654353
000040 82 29 ec bc cc 40 0f bd df ed f5 3c 8e 1a 44 3d
       -0.028828386 -0.034973904 0.030020652 0.047876887
000050 c3 77 42 bd e6 75 e0 3c 5f 48 0f bc b0 3a 92 3c
       -0.047477495 0.027399968 -0.008745282 0.01785025
000060 3e 42 57 3d 00 2e 46 3d ce 43 1b bd c5 29 8f 3b
       0.052553408 0.048383713 -0.03790646 0.004368993
000070 16 35 27 bd 76 a8 32 3c 21 ce 0a bd c4 44 8d 3d
       -0.04082211 0.010904422 -0.033887986 0.068978816
000080 21 e8 13 3d 74 db 61 3c ad de 6a 3d 21 e9 47 3d
       0.036110047 0.013785232 0.057341266 0.048806313
000090 91 65 4e bc 1e d1 84 3c b5 ef 9b 3d 43 de 44 bc
       -0.0125974575 0.016212996 0.0761408 -0.012015882
0000a0 9c ac 4a 3d ff 5f 0b 3d 2e 49 92 3c 6f 3b 78 3d
       0.04948102 0.034027096 0.01785716 0.060603555
0000b0 7e 8d a8 3d 42 a0 85 bd 8b 64 60 bd ef 26 83 bd
       0.082301125 -0.065247074 -0.054783385 -0.0640391
0000c0 59 5c 80 bd 99 39 e7 bc 3c 66 92 3c fa 11 24 bd
       -0.06267614 -0.028225707 0.017871015 -0.040056206
0000d0 14 88 9f 3b a0 f4 05 3c c9 f7 9d bb 8d e0 f3 3c
       0.0048685167 0.008175999 -0.004820798 0.02977016
0000e0 c9 05 84 3c 7c d6 48 bc 7f 64 dc 3c 9c 95 c0 3c
       0.01611604 -0.012258168 0.026903389 0.02350884
0000f0 6e 91 80 bc b5 fa 8b 3c f0 6b 0e bd 70 a1 c6 bc
       -0.015694346 0.01708732 -0.034770906 -0.024246901
000100 e9 1e d7 3c f5 00 61 bd 82 40 bd 3c 57 65 65 3d
       0.026259856 -0.054932553 0.023102049 0.05600485
000110 1f 3c 79 bd c6 e2 66 bd c9 32 59 3d 91 d6 28 bd
       -0.06084835 -0.05636861 0.053026948 -0.04122025
000120 c3 1c fe bb 55 64 74 bd 06 8e 1a 3d 96 b4 a4 3c
       -0.0077548935 -0.059665997 0.0377331 0.020105641
000130 b6 18 37 bd 62 f1 36 bd 21 93 31 3d dc 79 a5 3c
       -0.0447013 -0.044663794 0.043353204 0.020199709
000140 40 a9 21 3d 1d 50 b7 3c 6a 95 3b 3d ae cc 95 3a
       0.03946805 0.022377068 0.04579679 0.0011428797
000150 2d 80 68 bd 1a 50 41 3c 3c c0 39 bd f4 48 21 3d
       -0.056762863 0.011798883 -0.045349345 0.039376214
000160 b3 bf 99 3c 7e 91 09 bd 73 e0 93 3d d3 00 82 3d
       0.018768167 -0.033586018 0.07220545 0.063478135
000170 f6 0d bf 3c 2f d4 98 bc 0b 81 7a 3d 98 0e 22 bd
       0.023322087 -0.018655865 0.06115822 -0.0395647
000180 c3 88 48 3d fe 2b 5a 3d 0f db 43 bc 77 f1 41 bd
       0.04895855 0.05326461 -0.011954083 -0.04734942
000190 32 96 3b bd f7 2d b5 bc 55 f4 95 3c bc a9 a7 3c
       -0.045797534 -0.022116644 0.018304983 0.020466678
0001a0 de 3f 17 3c 65 ad 22 bd db ee ad bc 8a 56 c0 3c
       0.009231536 -0.039716143 -0.02123206 0.023478765
0001b0 fb 78 8a 3d 65 8d a2 3c 39 1c 32 bd fc 0d 39 3d
       0.067613564 0.019842813 -0.043483946 0.045179352
0001c0 90 ba 60 3d 86 1f 58 3c 80 50 86 3b 8d 98 25 3c
       0.05486542 0.0131911095 0.004098952 0.010107172
0001d0 95 52 10 bd 86 62 1c 3c 2a fa 30 3d 11 a9 ea bb
       -0.035235006 0.009544974 0.043207325 -0.0071612676
0001e0 7b 02 f5 3c f8 a4 12 bd 9b 27 8b bd 0c 3a 1c bd
       0.02990841 -0.035801858 -0.067946635 -0.038141295
0001f0 3f c8 95 bb 73 db 2c bd b9 9d 69 ba db f7 55 bb
       -0.0045709903 -0.04220147 -0.0008911747 -0.0032648954
000200 72 24 b2 3d bf ad b4 3c 35 c3 ad 3c e2 05 bc 3c
       0.08698358 0.022055505 0.021211246 0.022952024
000210 c5 77 0e bd 95 75 77 3d 65 6f 8b 3d cb f5 e4 3c
       -0.03478219 0.06041487 0.06808356 0.027949234
000220 64 51 44 bd 7a 49 96 3b b3 64 7f 3d 37 7b 80 bc
       -0.047929183 0.004586396 0.062351894 -0.015683753
000230 27 66 29 bd 0f b2 0e bd 43 92 1f bc b3 19 e3 3c
       -0.041357186 -0.03483778 -0.009739461 0.027722215
000240 cb ef 2b 3d e5 c0 30 3d 01 32 5b bd 69 cd b5 3b
       0.04197673 0.04315271 -0.053514484 0.0055481684
000250 c1 a6 14 3b f4 2f c3 bc ce 42 c9 3c a9 ad a7 bc
       0.00226824 -0.023826577 0.024567988 -0.02046855
000260 d5 1a 89 bd d0 ab c3 3b 73 f3 1a bc b3 ea a9 3c
       -0.06694571 0.0059714094 -0.009457457 0.020741796
000270 15 2f 7f bd 64 13 85 3c 80 08 8c 3d 5b 1f 12 bd
       -0.06230076 0.016244598 0.06837559 -0.035674434
000280 30 42 86 bd af fa b3 bb 9f d0 42 3d a5 d2 30 bd
       -0.06555593 -0.0054925303 0.047562238 -0.043169636
000290 e7 e4 6c 3d db 41 00 bd cb 24 42 3d f5 c8 8e 3b
       0.057835486 -0.031312805 0.04739837 0.004357452
0002a0 6b 55 de bc 78 16 40 bd 26 93 6c 3d 53 a4 8c 3c
       -0.02714034 -0.046896428 0.05775752 0.0171682
0002b0 80 6e 4b bd 73 8c 1f 3d 87 0c 1e bd 9b eb f2 bc
       -0.049665928 0.038952302 -0.038586166 -0.029653361
0002c0 e2 b1 43 bd c6 33 ff 3b 45 b3 69 bd 5c 0d 83 3d
       -0.047777064 0.0077881543 -0.05705573 0.063990325
0002d0 f9 96 bd bc 1a 5b 26 bd 4c 41 33 bb eb a3 82 bc
       -0.023143278 -0.040614225 -0.0027352152 -0.015947303
0002e0 88 2f 86 bb 26 87 8d 3b 00 27 6a bd ac 38 d0 bb
       -0.0040950216 0.0043190895 -0.0571661 -0.006354412
0002f0 65 1e ae 3b cd 6c ff 3b c7 0d 71 3d 68 8a 32 bd
       0.005313682 0.0077949525 0.05885103 -0.043589026
000300 26 88 e8 3c 19 b4 19 3d 8e 4c 0f bc 28 d2 98 3c
       0.028385233 0.03752527 -0.008746279 0.018654898
000310 1c 6a 2b bd 1c b9 d3 bc 5d 63 28 3d e9 22 90 bd
       -0.04184924 -0.025845103 0.041110385 -0.070379086
000320 34 ac 58 3d 1a c2 e0 ba 6a a1 75 bd 78 10 e5 3c
       0.0528986 -0.001714769 -0.05996839 0.027961954
000330 c3 6b 47 bd 4f 66 ea bc 4f 6f 10 3d e2 64 ef bc
       -0.048686754 -0.028613238 0.035262402 -0.02922291
000340 5f 10 eb bc 24 bb 16 3d 6f 30 db 3a 42 ad 11 3d
       -0.02869433 0.036799565 0.0016722808 0.035565622
000350 f7 e6 a7 3d 67 8e b1 3d 2c 0f 46 bc a1 f5 d7 bb
       0.0819835 0.08669739 -0.012088578 -0.0065905605
000360 52 53 a4 bc d1 9e 09 3d db 7c bb bc 36 33 76 bc
       -0.020059261 0.033598725 -0.022886684 -0.015026858
000370 b9 86 e2 3c 43 f0 cb 3c fc 92 26 3d d6 68 1e bd
       0.027652131 0.02489484 0.04066752 -0.038674198
000380 4a a2 35 bd 06 ff 14 3d 0c a1 41 bb 84 73 8b 3d
       -0.044344224 0.03637602 -0.0029545454 0.06809142
000390 7f cc f0 3c 83 e2 71 bd ec 73 f4 3c ea 9c 4d 3d
       0.029394386 -0.05905391 0.029840432 0.050198473
0003a0 18 ee c1 bc 8a d7 85 3d 5a 1d d3 bc bd 92 cb 3c
       -0.023673102 0.065352514 -0.025770832 0.024850244
0003b0 7d f1 28 3b 01 e7 7a bd 47 e3 6a bd 0b b5 d7 3c
       0.0025778704 -0.06125546 -0.057345655 0.026331445
0003c0 f3 91 f8 bc 24 ab 3b 3c 82 a0 10 bd ab d1 51 bd
       -0.030343032 0.011454377 -0.035309322 -0.051225346
0003d0 d3 c5 3e 3c 8f 80 a4 3d 7c c1 60 3c 78 1c 6f 3d
       0.011643845 0.08032333 0.013718005 0.05837676
0003e0 d9 b4 ae 3d 06 8c 2c bd 01 59 9a 3c 93 ff 11 3d
       0.08530588 -0.042125724 0.018841268 0.035644125
0003f0 ea bf 69 3d c4 20 1e 3c 46 6f 4f bd ca 67 bf bc
       0.05706779 0.009651367 -0.050643228 -0.02336492

m_transform.0.6.bias f4 [96]
000000 f7 52 07 bd 46 7e ac bc 5a d3 3b bd 38 ec 06 3d
       -0.033038106 -0.021056306 -0.045855857 0.03294012
000010 09 81 18 3d 0c 80 96 bc 7a 5f 63 3d 36 fb dc bc
       0.037232433 -0.018371604 0.055510975 -0.026975255
000020 68 a6 13 bc 97 eb 39 3d e2 c8 cd bc b4 ea 48 bd
       -0.009011842 0.04539069 -0.025120202 -0.049051955
000030 a3 1d 2b bd ea 99 2a bd fc d3 38 bc e8 52 f9 3c
       -0.04177631 -0.04165069 -0.01128101 0.03043504
000040 d8 84 0e 3d 48 f3 bd bc 79 02 5a ba ff 85 57 3d
       0.03479466 -0.023187295 -0.00083164085 0.052618023
000050 02 83 7e bc 82 87 0e 3d d2 8c 17 bd 37 c7 26 bd
       -0.015534164 0.0347972 -0.03699953 -0.04071733
000060 68 d9 3b bc dc 30 06 3d ba 0f ad bc 72 12 38 bd
       -0.011465408 0.03276144 -0.021125663 -0.044939466
000070 1a db b0 b8 a9 dc fa ba 78 ce 8d bc 5a b0 9a 3c
       -8.433145e-05 -0.0019139248 -0.017310366 0.01888292
000080 55 91 3e 3c b5 2e d6 bc bc 51 22 38 68 f8 b1 3c
       0.01163133 -0.026145319 3.869993e-05 0.021724895
000090 08 63 59 3b e9 ec 65 bc c7 64 55 3c 21 8f ef bc
       0.00331706 -0.014033535 0.0130245155 -0.029243054
0000a0 18 8d 53 3c 9f 63 a7 bc 21 b3 11 bd cd b7 53 3d
       0.012912057 -0.020433245 -0.03557122 0.051688958
0000b0 d6 38 31 bc 8c 9e 57 bd f4 e9 67 3d 0b 3d 1e 3d
       -0.010816773 -0.052641436 0.0566196 0.038632434
0000c0 99 9a 04 3d a9 0e 48 3d a1 dc 56 3d 9f 27 35 bd
       0.032374 0.048842106 0.052456502 -0.04422724
0000d0 47 59 8d 3d 4d 87 e1 bc 03 95 ec bc 12 0a 0b bc
       0.06901794 -0.027530337 -0.028879648 -0.008486288
0000e0 1e cb 63 3d 2f 37 5b bd b8 99 75 ba 08 bb 2a bc
       0.05561363 -0.053519424 -0.0009368914 -0.010420568
0000f0 7d ee 28 bc 31 67 27 bd 60 e8 28 bd cd 41 1b bd
       -0.010310766 -0.040869895 -0.041237235 -0.03790455
000100 14 5e 30 bc 4f c1 4a bd fc 6e 78 3d 94 43 d8 bc
       -0.0107646175 -0.04950076 0.060652718 -0.026399411
000110 3d e7 9d bd a0 ad 2c 3d c9 ef 83 3d 72 14 b8 bc
       -0.07710121 0.04215777 0.0644222 -0.022470687
000120 02 96 3a bd 18 4b b2 bc 76 f8 4b bd 5c a7 02 bd
       -0.045553215 -0.021764323 -0.049797498 -0.031897888
000130 55 94 4b bd f9 4a 33 bc eb e8 61 3a 02 5f 69 3d
       -0.049702007 -0.010943168 0.00086177763 0.056975372
000140 09 29 65 3c cc d9 06 3c 1d 83 df 3b 18 52 24 3d
       0.013986834 0.008230638 0.00682105 0.040117353
000150 ce 23 09 bd 86 ac a4 bc 4f a7 75 3b 33 a3 8d 3d
       -0.03348141 -0.020101797 0.0037483757 0.069158934
000160 f0 20 83 bd 23 4a 94 bc 9f a2 5b bc 1a ae 36 bd
       -0.06402767 -0.018101757 -0.013405471 -0.04459963
000170 b2 f5 9d 3c f6 cc f4 3c 58 c9 1d 3d b7 84 c1 3b
       0.019282196 0.02988289 0.038522094 0.0059057134

m_transform.0.9.running_mean f4 [48]
000000 1d 18 ca 3f c3 84 d0 3f 70 1a 8e 3f 71 c7 74 3f
       1.5788609 1.6290516 1.1101818 0.95616823
000010 14 39 ac 3f 63 ba cd 3f 9b 43 e4 3f 81 c1 55 3f
       1.3454919 1.6072506 1.7833132 0.8349839
000020 06 ec 6f 3f 8d 04 ae 3f 38 bd 5e 3f 8b 91 6d 3f
       0.9371952 1.3595139 0.87007475 0.92800206
000030 86 5b 8f 3f b4 e2 92 3f 38 d6 cb 3f 71 76 89 3f
       1.1199806 1.1475434 1.5924749 1.073927
000040 bc 2a af 3f 16 ef 62 3f cf c6 5c 3f 43 0f a5 3f
       1.3684916 0.88646066 0.8624086 1.2895283
000050 f6 80 69 3f e5 5e bf 3f ac d1 87 3f a8 1f 98 3f
       0.91212404 1.4950835 1.0610862 1.1884661
000060 5d 0d 5c 3f 81 4c e3 3f 79 43 a9 3f aa 06 eb 3f
       0.8595789 1.7757722 1.3223716 1.8361409
000070 67 cd ee 3f b3 3a 36 3f 6e d3 6e 3f 05 44 78 3f
       1.8656434 0.7118332 0.93291366 0.9697879
000080 fe 91 8b 3f 06 ae 4e 3f 2f 4e 6a 3f 67 38 91 3f
       1.0903928 0.8073429 0.9152555 1.1345338
000090 c7 61 4d 3f 04 32 96 3f b7 6e 70 3f b2 bf 86 3f
       0.8022732 1.1734014 0.9391894 1.0527251
0000a0 94 6e 95 3f 03 8f b0 3f e0 f4 7e 3f 4a e9 72 3f
       1.1674371 1.3793644 0.995924 0.9488722
0000b0 9e f7 a4 3f 2d dd 9b 3f 23 b3 a9 3f b4 6b 9c 3f
       1.2888067 1.2176872 1.3257793 1.2220368

m_transform.0.9.running_var f4 [48]
000000 1a 38 81 3f 06 bc 50 40 29 89 34 3f c1 fa 48 3f
       1.0095246 3.261476 0.7052179 0.7850762
000010 97 09 16 3f 63 2e 52 3f 90 5b 12 40 7d e9 d1 3f
       0.5860838 0.8210203 2.2868385 1.639938
000020 2b c8 c8 3f 53 9f 6c 3f a1 93 3f 3f 05 a4 0a 3f
       1.5686086 0.9243061 0.7483464 0.54156524
000030 df 65 06 3f c8 fa af 3f 62 22 8e 3f 57 26 04 40
       0.5249919 1.3748407 1.1104243 2.06484
000040 e7 ed 33 3f 53 99 58 3f 3f 38 42 3f 7a a4 49 3f
       0.70284885 0.84608954 0.75867075 0.78766596
000050 d1 bb 8c 3f 81 87 9b 3f 76 be be 3f c9 f6 83 3f
       1.0994817 1.2150728 1.4901874 1.0309688
000060 12 ae da 3f 94 6b 5d 3f 39 d0 44 3f 77 d9 76 3f
       1.7084372 0.86492276 0.7688022 0.96425575
000070 a5 b8 7c 3f b2 d4 01 40 61 16 74 40 de b5 ee 3e
       0.98719245 2.028607 3.813866 0.4662313
000080 13 57 58 3f 5a ea c2 3f 8f 75 c0 3e e2 64 9c 3f
       0.84507865 1.5227768 0.3758969 1.2218287
000090 6f f3 ab 3e 19 be c4 3f 59 da 1b 3f fc b8 34 40
       0.33584163 1.5370513 0.6088005 2.8237906
0000a0 c0 fe 30 3f 2c dd a6 3f 07 5e 1d 3f 09 64 fc 3f
       0.6913872 1.3036246 0.614716 1.9718028
0000b0 3d f5 e1 3e 34 56 75 3f 9b f0 04 40 22 6e 1f 3f
       0.44132414 0.9583466 2.0771854 0.62277424

m_transform.0.10.weight f4 [96, 48, 1, 1]
000000 30 d1 0c be b9 79 77 3d 3b f3 8d bd e3 b2 07 bc
       -0.13751674 0.06041882 -0.06931158 -0.008282396
000010 b4 50 cf 3c 82 f8 45 bd 71 97 18 be a9 0a a2 3d
       0.025307037 -0.0483327 -0.1490152 0.079121895
000020 b4 05 52 bd 2a 42 ce 3d 4b 84 f1 3c f9 31 9c 3d
       -0.05127497 0.100712135 0.029482028 0.07626719
000030 2b 25 64 3d ea 92 cf bd 6f c3 07 3e f3 0b 9c 3d
       0.05569951 -0.101354435 0.13258146 0.07619467
000040 2c 20 59 bd 94 82 89 3d d6 e1 0f 3d 1e e1 b3 3d
       -0.053009197 0.06714359 0.035127483 0.08783172
000050 df 32 ba 3d 90 93 e2 bd 4e e5 83 3d d2 74 93 bd
       0.09091734 -0.110633016 0.06440221 -0.07200016
000060 7d ea 19 3e 65 a7 18 3e 98 ff b9 bd 58 98 a0 bd
       0.15030856 0.14907606 -0.09081954 -0.07841557
000070 08 34 d7 bd 24 09 4c 3d 07 b9 cd bc 92 57 98 3d
       -0.10507971 0.049813405 -0.025112642 0.07438578
000080 4d 4e 7b 3d 0d 8f 09 3e 96 a0 e8 bd 29 40 ee 3d
       0.06135397 0.13433476 -0.11358754 0.11633331
000090 92 58 a7 bc 64 1b 0b 3e f7 6e f7 bc 9c a0 0d be
       -0.020427976 0.13584667 -0.03020428 -0.13830799
0000a0 a1 b0 df 3c 77 52 f4 3c 0a 04 13 3e 1f 9d fa 3d
       0.027305903 0.029824479 0.1435701 0.12237
0000b0 a7 97 88 bd 8b 4c dc 3d d3 50 12 be c1 b0 9d 3c
       -0.066695504 0.10756787 -0.14288644 0.019249322
0000c0 32 c7 d0 bd 5a c6 ca 3c 2d b0 84 3d 0d 35 06 be
       -0.101942435 0.024752785 0.06478915 -0.13106175
0000d0 83 e5 2f bd af 58 36 3c 7d 8b da bd 85 ec bc bd
       -0.04294349 0.011129542 -0.106711365 -0.092248
0000e0 64 73 98 bd 67 61 fc bd b5 30 5b 3c 49 83 c0 bd
       -0.07443884 -0.123232655 0.013378312 -0.09400041
0000f0 b0 3e 0c bc 98 50 f7 3d 08 b1 16 3e 06 7f e2 bd
       -0.008559868 0.12075919 0.1471597 -0.11059384
000100 3a 99 e5 bd 55 85 0d be 49 9f 14 be a2 80 dd 3d
       -0.11210866 -0.13820393 -0.14513887 0.108155504
000110 21 5c 11 bd 01 a1 89 bb fa ed bd 3d da 3a ec 3c
       -0.03548825 -0.0042001014 0.09273906 0.028836656
000120 13 05 28 bd d0 5b 74 3c 42 ea 08 be 73 a6 73 3c
       -0.041020464 0.014914468 -0.13370612 0.014871228
000130 bb 7a ad bd 37 03 ad bc 25 03 35 3b 57 41 02 bc
       -0.084706746 -0.021119697 0.0027620282 -0.007950149
000140 d2 e8 ca 3d f2 f4 6a bd d7 90 3d 3c b4 dd f1 3d
       0.09907688 -0.057362504 0.011570177 0.11809865
000150 a5 05 75 bd 43 8b 08 be be b5 a8 3d 25 7b c9 3d
       -0.059819836 -0.13334374 0.082377896 0.09837941
000160 4b 3e 45 bd 3f 19 a9 bc 7a ba cb bd d9 8b 14 be
       -0.04815511 -0.020641921 -0.09947677 -0.14506473
000170 88 72 b2 bd 79 5e 43 3d 13 54 a7 bc 2c e7 4c bd
       -0.08713251 0.047697518 -0.020425832 -0.05002515
000180 f9 b7 80 bd d6 8d 21 3b 13 19 0f bd cc 2b c4 bd
       -0.0628509 0.0024651191 -0.034936022 -0.09578666
000190 ba 43 ef bd 4f 30 1a 3d 1e 79 13 3e f6 5c 5b 3d
       -0.1168284 0.037643727 0.14401671 0.05355545
0001a0 89 e1 dd bd 61 e5 8f bd 7f 5e 8c 3c 4f 79 90 39
       -0.10834033 -0.070261724 0.017134903 0.00027556202
0001b0 3a cb 0a be d4 f3 f3 bd a2 eb bd bd 89 23 2b 3d
       -0.13554087 -0.11911741 -0.09273459 0.041781936
0001c0 46 15 78 bd 45 0e 12 bd 39 74 b8 bc a1 7d c5 bd
       -0.060567163 -0.03565814 -0.022516357 -0.096431024
0001d0 e4 c3 a7 3d b2 85 a3 3d c0 7f 21 bd 83 b1 e4 bc
       0.0819166 0.07984485 -0.039428473 -0.027916675
0001e0 b8 85 c8 3c 42 01 bc bd b2 4e 92 bd d8 ab 98 3d
       0.024477825 -0.091799274 -0.07143916 0.074546516
0001f0 3c 9d a4 bd 11 40 97 3d d9 9c b0 bd 32 f1 73 3b
       -0.080378026 0.073852666 -0.08623666 0.003722262
000200 4f ea 91 3d 27 cf a6 3d b4 7f 42 bc 42 8b c6 3d
       0.07124769 0.0814498 -0.011871267 0.0969453
000210 52 ae 99 bc 79 67 99 bd fc c3 b5 bd 4c a7 cd 3b
       -0.01875988 -0.07490439 -0.08875272 0.006276047
000220 bb d9 12 be a7 df 6b bd 38 07 26 be b7 70 c5 3d
       -0.1434087 -0.05758634 -0.16213691 0.09640639
000230 8e 21 67 3d 15 80 f1 bc 7d 5e b8 bb 15 48 fd bc
       0.056428485 -0.02948002 -0.0056264983 -0.03091816
000240 f0 d8 fa bc 6a f1 fb bd c1 91 c1 bd cc 79 97 3c
       -0.030621022 -0.123019055 -0.094516285 0.018490694
000250 17 26 0a be 8e 33 30 3d 17 d5 11 be d0 04 f5 3d
       -0.13491093 0.043017916 -0.14241444 0.119638085
000260 53 d1 a2 bd 17 ee d7 bc d0 a7 81 3d 6e a4 04 3d
       -0.07950082 -0.026358647 0.06330836 0.032383375
000270 42 47 ae 3d 3b 70 94 3d 00 a7 9d bd b9 93 b2 bd
       0.08509685 0.07247969 -0.07697868 -0.08719582
000280 ed e1 6a 3d 8a 89 56 bd 5f 5d 05 be 9a ef 72 3d
       0.057344366 -0.05237726 -0.130239 0.059310533
000290 d9 c6 f9 bd 8e 3e 6f 3d ab 8f 8e bd 89 ee a9 bd
       -0.1219613 0.058409266 -0.06960996 -0.0829745
0002a0 c5 b3 b4 3b e5 0d 78 bd 73 a4 ca 3d ba ff 4c 3d
       0.0055145943 -0.060560126 0.098946474 0.050048567
0002b0 96 94 03 bd 87 db 02 3d 91 d4 d3 3d 98 2c b7 bd
       -0.032124124 0.03194764 0.10343278 -0.089440525
0002c0 a1 95 55 bd 57 f0 cc bd 1b 10 2e 3e 76 09 01 be
       -0.05214465 -0.10006779 0.16998331 -0.12601265
0002d0 fd e8 2a bc 63 9b fe 3d ee 11 1c 3d d7 4b f6 3d
       -0.010431525 0.124319814 0.038103037 0.12026184
0002e0 29 3c 17 be 59 3a 0d be 96 61 03 bc e1 4e bf 3d
       -0.14769043 -0.13791789 -0.008018872 0.09341217
0002f0 9b 2e 15 3e b1 be 0c 3b 04 92 fa ba 9f 46 09 3e
       0.1456856 0.0021475966 -0.0019117002 0.13405846
000300 7a e1 ce bd 69 b1 19 be 22 4b d3 3d 28 de 09 3e
       -0.101016 -0.15009083 0.10317065 0.13463652
000310 e8 c0 3f bb f4 aa 16 3d 31 01 89 bd 54 fd f0 3d
       -0.0029259268 0.036784127 -0.0668968 0.117670685
000320 8f ed 63 3c 86 20 bf bc 01 4c ae bc 48 d6 86 bd
       0.013911619 -0.023330938 -0.021276476 -0.0658384
000330 f8 2c ab bb 67 e6 19 be 4a 2f 10 3e ce 2c 69 bb
       -0.0052238666 -0.15029298 0.1408054 -0.0035579684
000340 d3 be dc 3d b9 f6 23 3d 44 b8 2c bd 06 9d e8 bd
       0.10778584 0.040030215 -0.042167917 -0.11358075
000350 6f 3b c5 bd 2f 93 c6 bc e9 f1 47 bc 99 76 3c bc
       -0.09630477 -0.024240104 -0.012203672 -0.011502885
000360 a1 d3 45 3d 2e c6 5b bd 00 8f e4 3c c4 67 4d bd
       0.04829753 -0.053655796 0.027900219 -0.050147787
000370 8e 5d c8 3d 31 46 db bd cf 01 f0 3c 71 53 12 3d
       0.09783469 -0.10706747 0.029297737 0.035724107
000380 65 cd 3d 3d 85 df 07 be 18 ca ea bc 7a 5c 19 bd
       0.046338458 -0.1326886 -0.028660819 -0.03744171
000390 a2 17 91 3d 58 da 90 bc 69 ba 8d bd 10 f6 28 bd
       0.07084586 -0.01768224 -0.069203205 -0.04125029
0003a0 e2 42 c4 3d c5 60 a9 bc c3 87 ec 3d d7 e5 8a 3d
       0.095830694 -0.020676026 0.11549332 0.0678212
0003b0 8d d4 c8 3d bd 16 cb bd d3 56 94 bc 64 96 e9 3c
       0.09806166 -0.09916446 -0.018107807 0.028514095
0003c0 cd c7 21 3d 51 23 94 bc 0d df bc bd 82 3d 3a bd
       0.039497185 -0.018083246 -0.09222231 -0.045468815
0003d0 93 06 f8 3d ee 87 02 be 10 85 8e bd 69 6c 92 3d
       0.12110629 -0.12747166 -0.069589734 0.07149584
0003e0 77 3f e9 bb b4 7e d2 bd 00 fa 23 3e 80 47 8d 3c
       -0.0071181613 -0.10278073 0.16013336 0.017246008
0003f0 c4 53 49 3d 4b 47 69 3d 0b b1 13 3b 81 84 6a 3d
       0.04915215 0.056952756 0.0022535946 0.05725527

m_transform.0.10.bias f4 [96]
000000 dc 00 bc bd 28 74 c1 3d f6 df 8a bd d5 a4 42 3d
       -0.091798514 0.09445983 -0.067809984 0.047520477
000010 54 99 ec bb a2 1d 15 bd 40 7e 06 3e aa 74 20 bc
       -0.0072204266 -0.036405213 0.13134098 -0.00979344
000020 75 d2 87 3d 23 ac 95 3c 93 5e 01 be a8 0b 34 bd
       0.06631938 0.018270558 -0.12633733 -0.04395643
000030 8a fb 4d 3c b7 d5 06 be 02 45 09 3e bd c7 d9 ba
       0.012572179 -0.13167463 0.1340523 -0.0016615313
000040 da 77 0d be da 13 ad 3d 01 09 c6 3d 1b 07 72 3d
       -0.13815251 0.08451052 0.09669686 0.059088808
000050 83 32 af bd 8d 0f 6e 3d c5 43 c2 bd 1b ef b2 3c
       -0.08554556 0.0581203 -0.09485582 0.02184253
000060 c4 3e c7 bd f7 88 81 3d fb 34 83 bd f3 59 fd bd
       -0.097287685 0.06324952 -0.064065896 -0.12370672
000070 c0 54 e3 bc 40 10 c7 bc 19 f5 bc 3d 7e 15 40 3c
       -0.027750373 -0.02429974 0.09226436 0.011723874
000080 17 0d 05 be 63 da f8 3d 86 67 c4 ba 84 3d e7 bd
       -0.12993275 0.12151029 -0.0014984466 -0.1129103
000090 88 bc 97 3d d0 74 b4 bd dd ab 1c bc 5e 26 39 bd
       0.07409006 -0.08811343 -0.00956246 -0.045202605
0000a0 f0 e6 21 3b 37 8d 90 3b 8f e0 12 be b3 9e fb 3d
       0.00247043 0.0044113654 -0.14343475 0.12286129
0000b0 6d c0 82 bb 7a bb 87 3c 76 4b a6 bd c9 ff 88 3d
       -0.003990224 0.016568888 -0.08119862 0.06689412
0000c0 01 01 b6 bd c8 f8 f0 3c 5d 32 89 3d 37 63 80 3d
       -0.0888691 0.029415503 0.06699059 0.06268924
0000d0 0b 16 e3 bd 9f 21 49 3d 10 5c 1d 3d 30 9f 73 bd
       -0.11088189 0.04910433 0.038417876 -0.059477985
0000e0 d0 2a d4 bd 83 4b 0a 3c 40 90 13 3d 52 56 b2 3d
       -0.10359728 0.008440855 0.03602624 0.087078705
0000f0 5a 68 1f 3e 55 ae c4 3d d7 d6 78 bd ae c3 cc 3b
       0.1556715 0.09603564 -0.060751762 0.006248913
000100 5f 54 45 bd 6c 47 a6 bc 6c 62 4a 3d 84 dc 00 3e
       -0.048176166 -0.020297728 0.04941027 0.1258412
000110 63 9a e3 bd 24 77 8b 3d 1d 58 ce 3d c0 57 10 3e
       -0.11113431 0.06809834 0.100754 0.14095974
000120 77 e3 7b bd 17 da 91 bd ca 99 28 bb 28 1f 86 3b
       -0.061496224 -0.071216755 -0.002572643 0.0040930696
000130 9b 0d 0e 3e dd 59 89 3d 60 7c 1a be 34 21 8b bc
       0.13872378 0.06706593 -0.15086508 -0.016983606
000140 57 5f aa 3d 98 57 a0 3d a5 4b 8c bd 58 c6 98 bd
       0.08318966 0.07829207 -0.068503655 -0.07459706
000150 76 38 db bd 66 8c 47 3d 5e d7 3d bd 29 51 d9 3d
       -0.107041284 0.04871788 -0.04634797 0.10611183
000160 21 c4 2c 3d 0d cb 04 be 9b 60 13 bd 9f bf 3a 3d
       0.04217923 -0.12968083 -0.035980802 0.0455929
000170 aa 0f b4 3d e2 a6 ee bd ed b4 11 3e 6b 76 86 3d
       0.0879205 -0.11652924 0.14229174 0.06565555

m_transform.0.12.running_mean f4 [48]
000000 13 17 2e 3e 75 85 2c 3f 2a 8b 11 3f 43 68 cf 3e
       0.1700099 0.6739114 0.5685297 0.40509233
000010 d7 c9 93 3e 0d b0 3f 3f c9 6e f0 3e 1e c0 a9 3e
       0.2886493 0.7487801 0.46959522 0.33154386
000020 62 84 cb 3e 3d f3 fd 3e b5 42 a9 3e 5b df ff 3e
       0.39749438 0.4959964 0.33058706 0.49975094
000030 33 5c 19 3f a4 9a 2a 3f 51 d0 e5 3e e0 2e 1c 3f
       0.5990631 0.6664221 0.44885495 0.61009026
000040 9d e2 b6 3e b8 6a cb 3e cc 11 3a 3f 0a cc 29 3f
       0.35719767 0.39729857 0.72683406 0.66326964
000050 29 a0 84 3e a4 c6 02 3f 1c ba 97 3e 97 b0 17 3f
       0.25903443 0.5108435 0.29634178 0.5925383
000060 ff 27 46 3e 51 6b 08 3f 61 40 ad 3e dd eb 6c 3e
       0.19351195 0.5328875 0.3383818 0.2313685
000070 bb 5c d7 3e 94 b5 bb 3e de 1a f9 3e da 39 d2 3e
       0.42062935 0.3666197 0.4865331 0.41059762
000080 1d f8 6e 3e 98 f2 fc 3e 4c 71 63 3e 95 66 0f 3e
       0.23336835 0.49403834 0.22211188 0.14003976
000090 52 78 a6 3e b4 c8 ad 3e d7 cb a8 3e 95 ad 2b 3f
       0.32513672 0.33942187 0.32968017 0.6706174
0000a0 6d 15 88 3e fe 45 c9 3e 84 9e c3 3e b5 ef fe 3e
       0.26578847 0.39311212 0.38206875 0.49792257
0000b0 f4 e4 e3 3e 1c dd c2 3e 50 99 2d 3f 67 65 c8 3e
       0.44510615 0.38059318 0.6781206 0.39139864

m_transform.0.12.running_var f4 [48]
000000 89 36 3d 3e 0e 0e 65 3e ca 8e d1 3e f5 4e 27 3e
       0.18477835 0.22368643 0.40929252 0.16338713
000010 86 a1 48 3e 5b c7 ef 3e fa 41 66 3e 0e e8 88 3e
       0.19592866 0.46831784 0.22486106 0.26739544
000020 1d 01 62 3e 7e ca 9c 3e 71 b2 26 3e cf 6a 8b 3e
       0.22070737 0.3062324 0.16279007 0.27229926
000030 b4 d6 95 3e 31 9a 8c 3e da bb 5f 3e cd c3 dc 3e
       0.29265368 0.2746139 0.21849003 0.43118134
000040 21 9b 89 3e 45 7d 91 3e d3 88 83 3e 83 64 52 3e
       0.26876166 0.28415886 0.25690326 0.20546155
000050 be a3 50 3e ff b7 23 3e 29 4d 5f 3e f3 e1 93 3e
       0.20374963 0.15988158 0.21806778 0.28883323
000060 f4 e3 9e 3e c8 09 5f 3e f4 db 94 3e e5 2a 82 3e
       0.3103329 0.21781075 0.2907406 0.2542335
000070 f1 03 72 3e 00 f6 bd 3e f9 cb 66 3e e8 51 87 3e
       0.23634316 0.37101746 0.22538747 0.26429677
000080 12 65 39 3e 8d c6 c5 3e 0e 09 84 3e e5 aa b1 3e
       0.18104962 0.38628045 0.25788158 0.34700695
000090 f1 f9 6d 3e 29 d4 ad 3e 4a f4 78 3e d6 36 c4 3e
       0.23239876 0.33950928 0.24311939 0.38323087
0000a0 93 ba cc 3e 29 34 73 3e 79 36 a5 3e 03 17 79 3e
       0.39986095 0.23750366 0.32268122 0.24325185
0000b0 f4 e7 8f 3e bb 29 67 3e a0 d4 12 3f b3 c5 cd 3e
       0.28106654 0.22574513 0.5735569 0.40189895
