Auxillary Code/LCNN/project/03-asvspoof-mega/lfcc-lcnn-attention-am/05/__pretrained/trained_network.pt (torch, 721229 bytes, 35 tensors)

m_frontend.0.lfcc_fb f4 [257, 20]
000000 00 00 00 00 00 00 00 00 00 00 00 00 00 00 00 00
       0.0 0.0 0.0 0.0
000010 00 00 00 00 00 00 00 00 00 00 00 00 00 00 00 00
       0.0 0.0 0.0 0.0
000020 00 00 00 00 00 00 00 00 00 00 00 00 00 00 00 00
       0.0 0.0 0.0 0.0
000030 00 00 00 00 00 00 00 00 00 00 00 00 00 00 00 00
       0.0 0.0 0.0 0.0
000040 00 00 00 00 00 00 00 00 00 00 00 00 00 00 00 00
       0.0 0.0 0.0 0.0
000050 00 00 a8 3d 00 00 00 00 00 00 00 00 00 00 00 00
       0.08203125 0.0 0.0 0.0
000060 00 00 00 00 00 00 00 00 00 00 00 00 00 00 00 00
       0.0 0.0 0.0 0.0
000070 00 00 00 00 00 00 00 00 00 00 00 00 00 00 00 00
       0.0 0.0 0.0 0.0
000080 00 00 00 00 00 00 00 00 00 00 00 00 00 00 00 00
       0.0 0.0 0.0 0.0
000090 00 00 00 00 00 00 00 00 00 00 00 00 00 00 00 00
       0.0 0.0 0.0 0.0
0000a0 00 00 28 3e 00 00 00 00 00 00 00 00 00 00 00 00
       0.1640625 0.0 0.0 0.0
0000b0 00 00 00 00 00 00 00 00 00 00 00 00 00 00 00 00
       0.0 0.0 0.0 0.0
0000c0 00 00 00 00 00 00 00 00 00 00 00 00 00 00 00 00
       0.0 0.0 0.0 0.0
0000d0 00 00 00 00 00 00 00 00 00 00 00 00 00 00 00 00
       0.0 0.0 0.0 0.0
0000e0 00 00 00 00 00 00 00 00 00 00 00 00 00 00 00 00
       0.0 0.0 0.0 0.0
0000f0 ff ff 7b 3e 00 00 00 00 00 00 00 00 00 00 00 00
       0.24609374 0.0 0.0 0.0
000100 00 00 00 00 00 00 00 00 00 00 00 00 00 00 00 00
       0.0 0.0 0.0 0.0
000110 00 00 00 00 00 00 00 00 00 00 00 00 00 00 00 00
       0.0 0.0 0.0 0.0
000120 00 00 00 00 00 00 00 00 00 00 00 00 00 00 00 00
       0.0 0.0 0.0 0.0
000130 00 00 00 00 00 00 00 00 00 00 00 00 00 00 00 00
       0.0 0.0 0.0 0.0
000140 00 00 a8 3e 00 00 00 00 00 00 00 00 00 00 00 00
       0.328125 0.0 0.0 0.0
000150 00 00 00 00 00 00 00 00 00 00 00 00 00 00 00 00
       0.0 0.0 0.0 0.0
000160 00 00 00 00 00 00 00 00 00 00 00 00 00 00 00 00
       0.0 0.0 0.0 0.0
000170 00 00 00 00 00 00 00 00 00 00 00 00 00 00 00 00
       0.0 0.0 0.0 0.0
000180 00 00 00 00 00 00 00 00 00 00 00 00 00 00 00 00
       0.0 0.0 0.0 0.0
000190 00 00 d2 3e 00 00 00 00 00 00 00 00 00 00 00 00
       0.41015625 0.0 0.0 0.0
0001a0 00 00 00 00 00 00 00 00 00 00 00 00 00 00 00 00
       0.0 0.0 0.0 0.0
0001b0 00 00 00 00 00 00 00 00 00 00 00 00 00 00 00 00
       0.0 0.0 0.0 0.0
0001c0 00 00 00 00 00 00 00 00 00 00 00 00 00 00 00 00
       0.0 0.0 0.0 0.0
0001d0 00 00 00 00 00 00 00 00 00 00 00 00 00 00 00 00
       0.0 0.0 0.0 0.0
0001e0 ff ff fb 3e 00 00 00 00 00 00 00 00 00 00 00 00
       0.49218747 0.0 0.0 0.0
0001f0 00 00 00 00 00 00 00 00 00 00 00 00 00 00 00 00
       0.0 0.0 0.0 0.0
000200 00 00 00 00 00 00 00 00 00 00 00 00 00 00 00 00
       0.0 0.0 0.0 0.0
000210 00 00 00 00 00 00 00 00 00 00 00 00 00 00 00 00
       0.0 0.0 0.0 0.0
000220 00 00 00 00 00 00 00 00 00 00 00 00 00 00 00 00
       0.0 0.0 0.0 0.0
000230 00 00 13 3f 00 00 00 00 00 00 00 00 00 00 00 00
       0.57421875 0.0 0.0 0.0
000240 00 00 00 00 00 00 00 00 00 00 00 00 00 00 00 00
       0.0 0.0 0.0 0.0
000250 00 00 00 00 00 00 00 00 00 00 00 00 00 00 00 00
       0.0 0.0 0.0 0.0
000260 00 00 00 00 00 00 00 00 00 00 00 00 00 00 00 00
       0.0 0.0 0.0 0.0
000270 00 00 00 00 00 00 00 00 00 00 00 00 00 00 00 00
       0.0 0.0 0.0 0.0
000280 00 00 28 3f 00 00 00 00 00 00 00 00 00 00 00 00
       0.65625 0.0 0.0 0.0
000290 00 00 00 00 00 00 00 00 00 00 00 00 00 00 00 00
       0.0 0.0 0.0 0.0
0002a0 00 00 00 00 00 00 00 00 00 00 00 00 00 00 00 00
       0.0 0.0 0.0 0.0
0002b0 00 00 00 00 00 00 00 00 00 00 00 00 00 00 00 00
       0.0 0.0 0.0 0.0
0002c0 00 00 00 00 00 00 00 00 00 00 00 00 00 00 00 00
       0.0 0.0 0.0 0.0
0002d0 00 00 3d 3f 00 00 00 00 00 00 00 00 00 00 00 00
       0.73828125 0.0 0.0 0.0
0002e0 00 00 00 00 00 00 00 00 00 00 00 00 00 00 00 00
       0.0 0.0 0.0 0.0
0002f0 00 00 00 00 00 00 00 00 00 00 00 00 00 00 00 00
       0.0 0.0 0.0 0.0
000300 00 00 00 00 00 00 00 00 00 00 00 00 00 00 00 00
       0.0 0.0 0.0 0.0
000310 00 00 00 00 00 00 00 00 00 00 00 00 00 00 00 00
       0.0 0.0 0.0 0.0
000320 00 00 52 3f 00 00 00 00 00 00 00 00 00 00 00 00
       0.8203125 0.0 0.0 0.0
000330 00 00 00 00 00 00 00 00 00 00 00 00 00 00 00 00
       0.0 0.0 0.0 0.0
000340 00 00 00 00 00 00 00 00 00 00 00 00 00 00 00 00
       0.0 0.0 0.0 0.0
000350 00 00 00 00 00 00 00 00 00 00 00 00 00 00 00 00
       0.0 0.0 0.0 0.0
000360 00 00 00 00 00 00 00 00 00 00 00 00 00 00 00 00
       0.0 0.0 0.0 0.0
000370 00 00 67 3f 00 00 00 00 00 00 00 00 00 00 00 00
       0.90234375 0.0 0.0 0.0
000380 00 00 00 00 00 00 00 00 00 00 00 00 00 00 00 00
       0.0 0.0 0.0 0.0
000390 00 00 00 00 00 00 00 00 00 00 00 00 00 00 00 00
       0.0 0.0 0.0 0.0
0003a0 00 00 00 00 00 00 00 00 00 00 00 00 00 00 00 00
       0.0 0.0 0.0 0.0
0003b0 00 00 00 00 00 00 00 00 00 00 00 00 00 00 00 00
       0.0 0.0 0.0 0.0
0003c0 ff ff 7b 3f 00 00 00 00 00 00 00 00 00 00 00 00
       0.98437494 0.0 0.0 0.0
0003d0 00 00 00 00 00 00 00 00 00 00 00 00 00 00 00 00
       0.0 0.0 0.0 0.0
0003e0 00 00 00 00 00 00 00 00 00 00 00 00 00 00 00 00
       0.0 0.0 0.0 0.0
0003f0 00 00 00 00 00 00 00 00 00 00 00 00 00 00 00 00
       0.0 0.0 0.0 0.0

m_transform.0.0.weight f4 [64, 1, 5, 5]
000000 85 26 9e 3d 1a 83 0b be 37 e1 3d 3e a2 70 3a be
       0.07722191 -0.1362423 0.18542944 -0.18207029
000010 bb 60 45 bd c0 40 83 3d a8 8e f8 bd 87 94 4a 3d
       -0.048187952 0.064088345 -0.121365845 0.049458053
000020 17 b9 ca 3d 19 db 37 bd a9 83 04 3e 53 a5 45 3c
       0.09898584 -0.044886682 0.1294085 0.012063342
000030 d0 5b 4b be 16 dd 2b 3e ed be 23 3e a2 e7 8f 3d
       -0.19859242 0.16783556 0.15990801 0.07026602
000040 a0 27 14 be db 25 04 3e 38 d2 ab 3d 5b df d2 bc
       -0.1446824 0.12905066 0.083897054 -0.02574127
000050 b3 21 93 bc 66 33 82 bd e1 ce 87 bd 7b a3 8c 3d
       -0.017960405 -0.0635746 -0.06631256 0.06867119
000060 87 87 1b 3e 54 1d 0b bd 0c fd e8 3d 23 9c 42 3c
       0.15188418 -0.033963516 0.1137639 0.011878046
000070 0c ce eb bd 25 35 c7 bc 57 66 87 bd 42 26 52 bc
       -0.1151391 -0.024317333 -0.06611317 -0.012826504
000080 90 9a d3 bd c3 ce 1a 3e 45 34 63 be ac 86 44 3e
       -0.10332215 0.15117936 -0.22187908 0.19191998
000090 88 e3 4d 3c aa ca 2b be 7d 5a 65 3d fc a6 d7 3c
       0.012566455 -0.16776529 0.0559945 0.026324742
0000a0 5b 7c ee 3d 70 eb a0 bd 67 47 32 be 35 2d 0c 3c
       0.11644813 -0.07857406 -0.1741005 0.0085557
0000b0 09 23 a3 3d b3 7e 03 3d b9 64 3b be 2c bb d4 bc
       0.07965667 0.03210325 -0.18300141 -0.025968157
0000c0 69 c7 0d be e6 ac e7 bd 86 88 5c bd 47 71 0f 3d
       -0.138456 -0.11312275 -0.053841136 0.03502014
0000d0 d8 08 28 3e 56 09 e6 3d 79 88 d4 3d 06 2e e4 bd
       0.16409624 0.112322494 0.103775926 -0.11141591
0000e0 b3 d5 eb 3d ee 30 d4 bc 08 b7 db 3c 7f 54 d4 3d
       0.11515369 -0.025902238 0.026820675 0.10367679
0000f0 07 04 08 be f6 7b 68 be 63 05 16 3e 3c ba 42 be
       -0.13282786 -0.22703537 0.14650492 -0.19016355
000100 50 ed f4 bd ab c1 64 bc a6 54 1b 3e 53 bd eb 3d
       -0.11959326 -0.01396219 0.1516901 0.1151072
000110 d5 a9 02 be 7f 56 46 3e eb 94 16 be 7e f7 28 be
       -0.12760098 0.19368933 -0.14705245 -0.16500661
000120 44 60 f3 3d 54 0f 26 bd ec 59 b2 bd 4b ac b4 bd
       0.118835956 -0.04054196 -0.087085575 -0.08821925
000130 5a 1b 0e be 91 e5 45 3e 69 94 a9 bd 4e df d5 3d
       -0.13877621 0.19325854 -0.0828026 0.104429826
000140 33 bc bd 3d d9 96 04 3e 9e 68 36 3e d0 f1 9d 3d
       0.09264412 0.12948169 0.17813346 0.07712138
000150 c3 a5 13 3e 01 65 ea bd 10 ee 1c be 73 a0 f7 bc
       0.14418702 -0.11445046 -0.15325189 -0.030227875
000160 8c 3e d6 3d d7 8c b4 bd 62 ac ff ba cf f1 4d 3e
       0.104611486 -0.088159256 -0.001950633 0.20111774
000170 07 ef ad bd 70 8d 43 3d 7e 59 4d bc b4 9c 81 bd
       -0.084928565 0.047742307 -0.012533544 -0.06328717
000180 57 31 1f 3e e2 05 10 be 03 52 3e 3e 37 a5 12 be
       0.15546165 -0.14064744 0.18585972 -0.14320837
000190 d4 9e c6 bd d5 7e 99 3d 0f 70 d8 bd cb 34 69 3e
       -0.09698263 0.074948944 -0.105682485 0.22774045
0001a0 16 fe 06 be e1 f9 d3 3d af 42 10 3c 02 90 37 be
       -0.13182864 0.10350395 0.008804961 -0.17926028
0001b0 67 3c 08 3e 6e a6 81 3c 07 a4 b6 bc 85 a0 df bd
       0.13304292 0.01582643 -0.022295011 -0.109192885
0001c0 b0 69 1c 3e f2 b9 ba 3d 6f e8 08 be ed f4 36 3e
       0.15274692 0.091174975 -0.13369916 0.1786687
0001d0 ac 7b 1d be a8 b2 21 3e f9 3a 18 3e 21 6b 12 bd
       -0.15379208 0.15790808 0.14866246 -0.035746697
0001e0 4f 9d b8 bd 2f 31 fd bd 6c 13 03 be 9f ce 00 3e
       -0.09014379 -0.12362897 -0.12800378 0.1257882
0001f0 a1 cd 04 3e d9 e0 c4 bd 30 89 1a be 0f 2e 3d 3e
       0.12969066 -0.09613199 -0.15091395 0.18474601
000200 89 40 1e be 88 15 bb 3d 69 70 2f 3e 3c b6 f8 3d
       -0.15454306 0.09134966 0.17132725 0.121441334
000210 2b 49 4a be 4e fa bb bd 3c 0f ad 3d 3c 51 2c 3e
       -0.19754474 -0.09178601 0.08450171 0.16827863
000220 fb dd 6a 3d 4d 5b 04 3e f1 a7 3a 3e 4b d5 d5 3d
       0.057340603 0.12925453 0.18228127 0.10441073
000230 bc b9 01 bc 7b 3c 02 3d ec ab 67 ba ac 1a 27 3d
       -0.007917818 0.03179596 -0.0008837569 0.04079692
000240 54 71 40 3e 3b a5 c2 3d 87 bf 1d bd f7 cc c7 3d
       0.18793231 0.095041715 -0.038512733 0.09755891
000250 74 40 37 3d fc 12 e6 bd cf 66 35 be 99 16 ec bc
       0.0447392 -0.1123409 -0.17715 -0.02881937
000260 ea 9c df bd 9f a1 28 3e 00 39 e2 3a 49 59 5a 3e
       -0.10918601 0.16467904 0.0017259419 0.21323122
000270 96 02 2a 3e b0 d5 31 3e 2f b2 9e bc d6 d4 37 3e
       0.16602549 0.17366672 -0.019372074 0.17952284
000280 73 06 12 bd 4c 63 e5 3b eb 01 06 3e ea 7b a5 3d
       -0.03565068 0.0070003625 0.13086669 0.08080275
000290 6a 48 2e bc 8e 1b 32 3e e5 76 69 3d 90 f5 00 3d
       -0.010637382 0.17393324 0.056998152 0.031484187
0002a0 d2 f0 96 bd f2 8f 6d 3c 0a 7d d4 3d ab 19 5d 3c
       -0.073701516 0.014499651 0.10375412 0.013494889
0002b0 61 fb 18 3e 9e 21 be 3d 1b 8a 9c bd 16 36 72 bd
       0.14939643 0.09283756 -0.07643529 -0.05913361
0002c0 ab d1 59 ba cc da 26 be 06 f4 d5 3d 57 2d 6a bd
       -0.0008309136 -0.16294402 0.104469344 -0.057172146
0002d0 28 c4 30 3e 61 c9 f4 3d 45 bc 0a be 8c 82 05 be
       0.17262328 0.119524725 -0.13548382 -0.13038081
0002e0 51 59 75 3c 5c 71 b4 bc 0b d7 45 be fb ca 68 3d
       0.014974908 -0.02202671 -0.19320314 0.056834202
0002f0 91 67 8b bc f3 8f 24 bc f2 9c 0b 3e 6b a9 24 3e
       -0.017017158 -0.010044086 0.13634089 0.16080253
000300 6e 16 03 3e 6b 20 5e bb 44 82 f0 3d 9c e6 f4 bd
       0.12801525 -0.0033893834 0.11743596 -0.11958048
000310 f6 50 38 3e 02 3f c3 bd ec 1f 1c bd a5 cc cc bd
       0.17999634 -0.09533502 -0.03811638 -0.0999997
000320 ef 7a 9d bd 0e f9 21 be 0e 92 58 bd e7 9f 6e bb
       -0.07689463 -0.15817663 -0.052873664 -0.0036411227
000330 dd 70 c4 bd 81 07 37 3e 86 60 10 3e 9d 6a d3 bd
       -0.095918395 0.17873956 0.14099321 -0.10323069
000340 95 24 57 3d 56 7b 7b 3d 62 0a 7b bd 79 3b 28 3e
       0.05252512 0.06139692 -0.0612892 0.16428937
000350 0b 17 02 bd e0 69 45 be d2 d5 f9 bd 4c 75 3f be
       -0.031760257 -0.1927867 -0.12198986 -0.18697089
000360 a7 60 7a bd 5b 42 c1 bb 9d d9 3e be 4a 04 26 be
       -0.06112733 -0.0058978028 -0.186377 -0.16212574
000370 e5 d8 15 be 71 52 51 bb 6f 37 b1 bd bc 90 f3 bd
       -0.1463352 -0.0031940008 -0.08653151 -0.1189284
000380 b5 e5 bf bd bc 73 4c 3c 1f 4f ab bb 48 c4 9a 3c
       -0.09369985 0.012478765 -0.005227938 0.018892422
000390 15 a5 11 3e 91 ce d0 bd 41 8d c7 3c 20 ab ec 3d
       0.1422313 -0.101956494 0.024359347 0.11556077
0003a0 70 24 3e 3d 2f 43 60 bd 2a 3d d1 3d 26 c5 dd 3d
       0.04642147 -0.05475157 0.10216744 0.10828619
0003b0 85 35 74 3d ad 70 8f bd 01 3a 0c 3e 63 ea 98 3c
       0.059621353 -0.07003913 0.13694002 0.018666452
0003c0 c8 f0 d7 bc b9 57 f1 bd 4f 34 93 3d a9 86 91 3b
       -0.02635993 -0.1178431 0.071877114 0.0044411016
0003d0 2b 52 8b 3d ca 88 e3 3d f8 ce 36 3e 5f 44 ef 3c
       0.06802782 0.11110075 0.1785239 0.029207407
0003e0 c1 a2 0b bb c6 bd 9b 3d 7f 60 18 3e 64 f1 ce 3d
       -0.0021306726 0.07604556 0.1488056 0.10104635
0003f0 83 51 84 ba f9 be 51 3d bc c6 c0 bd e6 5f 24 3d
       -0.0010095093 0.051207516 -0.094129056 0.04013052

m_transform.0.0.bias f4 [64]
000000 69 50 4c bd ec 11 93 3c 9e 71 50 be 3d 90 e3 bd
       -0.049881373 0.017952882 -0.20355842 -0.11111496
000010 ee 35 ae ba 09 43 00 bc 00 cf 28 3e 36 5a d4 3d
       -0.0013291219 -0.007828482 0.16485214 0.10368769
000020 44 81 0a 3e 65 25 09 3c 0d cf b3 3d 4e ed d7 bd
       0.13525873 0.008370732 0.08779726 -0.10543309
000030 22 56 38 3e b5 7f 8c bd 81 cc 39 3e 33 9e 17 be
       0.18001607 -0.06860296 0.18144418 -0.14806442
000040 f3 89 46 be 9f 17 f1 3c 87 c6 e5 bd ac f8 3b 3e
       -0.19388561 0.029430209 -0.11219507 0.1835658
000050 b0 33 4f 3d 8a a1 92 3d f1 e7 cb 3b a5 fd 16 3e
       0.050586402 0.071597174 0.006222718 0.14745195
000060 f8 0b 8c bd a9 77 06 3e 0e cc 3a be d6 62 23 be
       -0.0683822 0.13131584 -0.18241903 -0.15955672
000070 8d a8 f5 3d 7d 24 3d be 30 84 d5 3d d9 6b 03 be
       0.11995039 -0.1847095 0.104256034 -0.1283411
000080 ca a4 ae 3d 69 f5 ed 3d c6 e0 44 3e 4d 8a 24 3e
       0.08527525 0.11619074 0.1922637 0.16068383
000090 02 ea 04 be 65 53 f7 bd d0 ee 19 3d ff 14 c7 3d
       -0.12979892 -0.12076453 0.037581265 0.097208016
0000a0 51 08 61 3e 62 36 7f bc d2 9b 9b 3d a7 e4 32 be
       0.21975829 -0.015576931 0.0759808 -0.17470036
0000b0 21 d7 14 bc ca b5 c1 bd 63 a6 48 be a3 68 23 3e
       -0.009084494 -0.09458502 -0.19594721 0.15957884
0000c0 b8 bf 48 bc a9 4d 17 3e 86 b9 3d 3d d8 a5 74 bc
       -0.012252741 0.14775719 0.046319507 -0.014932118
0000d0 1a 71 00 bb d5 51 50 3e 86 0a 13 3e 53 94 20 be
       -0.0019598664 0.20343716 0.14359483 -0.15681581
0000e0 63 b3 9e bd 3a bf 2c be e6 54 23 3e 8e 59 2b 3e
       -0.07749059 -0.16869822 0.15950355 0.16733381
0000f0 6d 74 41 3e 23 c2 dd 3d 14 5c 9e 3d 0e f7 13 3e
       0.18892069 0.10828044 0.07732406 0.14449713

m_transform.0.3.weight f4 [64, 32, 1, 1]
000000 4b 9e 28 3e c6 38 d0 bd 5a 1e f5 bb 85 66 b1 3d
       0.16466634 -0.10167079 -0.007480425 0.08662132
000010 2c 0d 05 be 53 b2 0d 3e 68 79 a1 3a 08 6e ff 3c
       -0.12993306 0.13837557 0.0012319507 0.031180397
000020 c2 b1 93 3d 9c d1 56 3d 31 c3 9e bd 0d f9 e1 bd
       0.07211639 0.052445993 -0.077520736 -0.11033831
000030 01 95 e0 bd 9a 3b 70 bb 8b 11 1c be ad 70 08 3e
       -0.1096592 -0.003665662 -0.15241067 0.13324232
000040 00 54 ba bc a2 3d 98 bd 91 77 8c bd bb 0f 06 3e
       -0.022745132 -0.074336305 -0.06858743 0.13091938
000050 63 06 fb 3d 23 6c 57 bc 1e 71 c3 bd 4b 0f f9 3d
       0.122570775 -0.01314834 -0.0954306 0.1216112
000060 fb 00 70 bd 6b aa d8 3d 8b 3d 3b 3c 55 91 02 3e
       -0.058594685 0.1057938 0.011428247 0.12750752
000070 2b 0f 12 be 29 da 1b bc 09 f9 97 3d 87 84 dc 3d
       -0.14263599 -0.009512463 0.074205466 0.10767465
000080 6e 84 e6 bd 78 11 14 be 57 d2 3f bc 1c 7b 2b 3e
       -0.11255728 -0.14459789 -0.011707864 0.16746181
000090 21 6b ab bd 86 99 8a 3d 03 8b 4e be 0f 98 36 3d
       -0.083700426 0.067675635 -0.20170216 0.044578608
0000a0 ea c5 6f 3d 01 1f e3 bd 87 48 0d 3c 40 13 23 bd
       0.058538355 -0.11089898 0.008623249 -0.03981328
0000b0 15 b9 58 3c 8b f7 07 be 9b 06 29 3e c5 0e 13 3e
       0.013227721 -0.13278024 0.16506426 0.14361103
0000c0 b4 6e 47 bd a2 55 27 3c 93 56 11 be 99 13 a1 bd
       -0.04868956 0.010213288 -0.14193182 -0.07865066
0000d0 e6 db 1f 3e eb ce 28 3e 66 50 a3 bd 85 f1 7e 3d
       0.15611228 0.16485183 -0.07974319 0.06224205
0000e0 fd 4e 82 3d c2 54 14 bd 4f ec e0 bd 6d 5c 3e bd
       0.06362722 -0.036213644 -0.10982572 -0.046474863
0000f0 31 d6 3a 3d b7 40 11 be c7 93 11 3e 40 41 dc bc
       0.045614425 -0.14184843 0.14216529 -0.026886582
000100 d4 a9 e7 bc 4f eb b1 bd 4f b3 db 3d 33 cb 28 be
       -0.028279223 -0.0868746 0.1072756 -0.16483764
000110 72 3c b9 3b ff e5 f0 bd 6c 8d b8 bd 2f 10 d7 3d
       0.0056529576 -0.11762618 -0.09011349 0.10501134
000120 57 46 29 be e0 0d 2c 3e f0 61 a2 bc 48 cc f3 3c
       -0.16530739 0.16802168 -0.01982209 0.029760495
000130 64 d2 e5 3d 91 39 99 bd e2 33 ed bc 73 3e cc 3c
       0.112217695 -0.07481683 -0.028955404 0.024932122
000140 ba d0 fd bd 83 1d 26 3e 43 25 2f be 93 ab 12 3e
       -0.12393327 0.16222195 -0.17104058 0.14323263
000150 9b 98 e4 bb 11 ed 34 be 35 44 27 3d fb fc c8 bd
       -0.0069762 -0.17668559 0.04083653 -0.09813877
000160 06 c7 31 be bb 3c 27 be 6e 0b 72 3d 07 34 ee bc
       -0.17361078 -0.1633176 0.05909293 -0.029077543
000170 26 5e bb 3d b5 0f 31 be 36 1f 4a 3c 5d e4 49 bd
       0.09148817 -0.17291148 0.012336543 -0.04929005
000180 54 60 dd 3d 6a f1 df 3d d2 0e 0c be 16 83 a7 3d
       0.10809389 0.10934718 -0.13677529 0.081792995
000190 e4 56 d9 bd 4c 46 f0 bb 0d ed 18 3e 5e 9b de 3d
       -0.10612276 -0.007332599 0.14934178 0.10869478
0001a0 cc 9f 19 3e 42 e9 50 bd fb 85 0d 3e f2 44 c8 3d
       0.15002364 -0.051003702 0.1382064 0.09778775
0001b0 c7 ab 9a 3c be 60 1d be 5e df 8a bd 00 25 88 bd
       0.018880738 -0.15368935 -0.06780885 -0.06647682
0001c0 cf ff b1 3d f0 40 a6 3d 46 c2 13 be 79 5f f4 bd
       0.0869137 0.081178546 -0.14429578 -0.119322725
0001d0 48 41 60 3d bc 28 70 be ab f4 07 be ab 9c b6 3d
       0.054749757 -0.23453039 -0.13276927 0.08916601
0001e0 8f ee b0 3d b1 c8 e9 3d e5 18 7a 3d 03 7e 41 3c
       0.086392514 0.11415232 0.061058898 0.011809829
0001f0 11 bb 09 be 80 c2 dc bc b4 44 36 3e 7a a6 14 be
       -0.13450266 -0.026948214 0.17799646 -0.14516631
000200 21 cf 9b 3d 54 20 d7 bd bc d9 fc bd d9 3e 08 be
       0.07607866 -0.10504213 -0.12346217 -0.13305224
000210 c4 68 dc 3d be a1 26 be 8b 6e 28 3e 4f d9 02 3e
       0.1076217 -0.16272637 0.16448419 0.12778209
000220 d1 c0 6e 3d e7 a4 f9 3d c5 bc ca 3c 63 a3 6d bd
       0.058289353 0.12189656 0.024748215 -0.058017146
000230 63 fc f4 3c d3 c5 22 3e 2b f8 b2 bd 7a 93 bf 3c
       0.029905504 0.15895776 -0.087387405 0.023385752
000240 20 84 8f bc 17 fc d8 bc 32 50 1c 3e c4 36 c4 3d
       -0.017519057 -0.026487393 0.15264967 0.09580758
000250 24 a1 40 be c7 32 e5 3d 0a 9a 54 3d 09 fe c6 3c
       -0.1881147 0.11191326 0.051904716 0.024291055
000260 7f e6 31 be 40 57 a7 3d 49 f5 9c 3c 4d 81 86 3d
       -0.17373084 0.081709385 0.01915993 0.06567631
000270 e6 05 88 bd e8 c7 ce 3d 00 31 88 3b 3f 87 1c bd
       -0.0664175 0.10096723 0.004156232 -0.03821492
000280 27 88 22 3d d1 92 0c 3d 0b 6e ff bd 87 6d 27 3e
       0.039680626 0.034319703 -0.12472161 0.16350375
000290 0c bb 1a 3e 35 ba e4 ba d8 00 aa bd 51 b4 ee 3d
       0.15110415 -0.0017450514 -0.08300942 0.116554864
0002a0 a9 a7 d4 bd eb b2 fe 3d 5d e0 ae bd b3 c2 ae 3d
       -0.10383541 0.1243647 -0.08538888 0.0853323
0002b0 4c 9e 2c be 8f 8f 22 be 5c a2 3c bd d4 5c ad 3d
       -0.1685726 -0.15875076 -0.046053275 0.08464971
0002c0 3f 48 08 bd 9a 6e 7f bd 93 cb eb b9 78 e2 22 3e
       -0.033272024 -0.062361337 -0.00044974367 0.15906703
0002d0 11 86 e0 3d 1a a5 3b 3e a2 da 9a bc bf ec ab 3d
       0.10963071 0.183247 -0.01890308 0.08394765
0002e0 4e eb 1a be 9a 6a cb 3a 3d aa 84 3d d3 76 28 3e
       -0.15128824 0.0015519441 0.06477783 0.16451578
0002f0 94 12 28 3d 35 25 9e bd a3 1c 3a bd da 55 e9 bd
       0.041033342 -0.077219404 -0.045437466 -0.11393328
000300 27 e7 fa bd bf 71 7d 3d af 22 bb 3b bd ef ad bd
       -0.1225112 0.061876055 0.0057109217 -0.08492992
000310 61 e9 15 be 1d ae b9 3d fd cd 05 be b4 ed cf bd
       -0.14639808 0.090664126 -0.1306686 -0.1015276
000320 6c 4a ae bd 9f 94 02 be 4c 5e 92 bd bc dd 3f 3e
       -0.085102886 -0.12752007 -0.07146892 0.18736929
000330 68 e0 4b 3c 3a 78 05 3e 32 4e 0f 3e df c1 d1 bd
       0.012443639 0.13034144 0.13994673 -0.10242056
000340 44 e6 c9 bb 68 64 79 bd 5c 1c cf 3d 06 31 03 be
       -0.006161483 -0.06088677 0.10112831 -0.1281167
000350 b8 30 29 3e e3 b8 b9 3d b7 00 48 3c de aa 06 bd
       0.16522491 0.090684675 0.012207202 -0.032877795
000360 cb 67 63 3d e8 04 c6 3d 0e 43 00 3d 20 ab 38 3d
       0.055518907 0.096689045 0.03131395 0.045085073
000370 72 c1 02 bd ff 68 98 3c 50 1f 12 be 0d f4 6c bd
       -0.031922765 0.018604754 -0.14269757 -0.057849932
000380 c7 18 26 3e 71 da 94 bd 83 0d 91 3d 6e ae 0d be
       0.1622039 -0.07268227 0.07082655 -0.13836071
000390 a0 60 0b bb 5b 8b fe 3b 9d 47 56 3e d4 52 00 be
       -0.002126731 0.0077680773 0.20925756 -0.12531596
0003a0 68 20 61 3d 2e a8 97 bd c4 bb 17 bd 8c 8f 88 3d
       0.054962546 -0.074051246 -0.0370443 0.066680044
0003b0 ee d3 46 bb fc 7c c8 3d e0 46 16 3e 0a 7f de 3c
       -0.0030338722 0.09789464 0.14675474 0.027160186
0003c0 b3 c0 a4 3d 8c 0f 3d 3e 53 c7 e0 bd 76 89 d7 3d
       0.08044567 0.18462962 -0.10975518 0.105242655
0003d0 0b ef 39 be 22 df e7 bc 2f 57 2e 3e 53 f8 90 bd
       -0.18157594 -0.02830464 0.17025445 -0.07078614
0003e0 b0 2e 58 3d 35 53 f9 3c 1f 59 2c be 8d 2b 8d 3c
       0.0527789 0.030435184 -0.16830872 0.01723268
0003f0 48 e5 f3 3d f3 f3 48 3d b3 62 86 bd 45 df 82 3d
       0.11908966 0.049060773 -0.06561794 0.063902415

m_transform.0.3.bias f4 [64]
000000 0d 34 5a bd ed bc a2 3d ee d9 78 bd 40 e8 0b 3e
       -0.053272296 0.07946191 -0.06075471 0.13662815
000010 20 54 e5 3d 64 85 35 bd 92 3d eb ba e3 ac 27 be
       0.11197686 -0.044316664 -0.0017947427 -0.16374545
000020 a7 4d c6 bd f1 95 28 be 15 c5 a8 bc 27 27 09 3e
       -0.0968278 -0.16463448 -0.020601789 0.13393842
000030 ef 43 41 bd d0 bb 9b bb d2 77 b8 bd 61 c2 08 3e
       -0.047183927 -0.0047526136 -0.09007229 0.133554
000040 2d 66 1e 3e 88 fc 32 bd 7e 34 e5 bd 2f c4 31 bb
       0.15468664 -0.043697864 -0.11191653 -0.0027124991
000050 25 14 ba bd a6 50 d1 3c e5 f7 13 3e ef 7b 37 3e
       -0.090858735 0.025551151 0.14450033 0.1791837
000060 e4 1c 57 bd b9 f8 f9 3d e7 69 23 3e 4c eb 8f 3c
       -0.052517787 0.12205643 0.15958367 0.017568253
000070 45 6a 10 be 1d ef 62 bd ab e0 3c 3e 12 98 d0 3d
       -0.14103039 -0.055403817 0.18445079 0.10185255
000080 2c 12 1b 3d 2e cc e3 bd 4a 68 c9 3d ab 4b fb 3d
       0.037859127 -0.111229286 0.09834345 0.12270292
000090 f5 30 e9 bc 58 c6 19 be 9f c8 40 3d 15 bb e6 bd
       -0.028465727 -0.15017068 0.047066327 -0.11266152
0000a0 83 27 8b 3a ab 6e 4e bd 6f 54 fe bd e6 a7 76 3d
       0.0010616634 -0.05039851 -0.12418448 0.060218714
0000b0 b6 64 1e 3e a9 ef ef bc f2 f9 1d be f0 15 15 be
       0.15468106 -0.029289084 -0.15427378 -0.1455915
0000c0 e9 33 19 3e 6b 9f 38 bd a7 7a 20 3e 6d 74 87 3c
       0.14961208 -0.045073908 0.15671788 0.016535008
0000d0 ec e9 05 be 57 f7 ce bc bf 34 21 3e d5 b4 4e bd
       -0.13077515 -0.025264425 0.15742777 -0.050465424
0000e0 02 87 91 bd 55 a0 31 be 39 75 76 3d 54 a2 98 bd
       -0.07105829 -0.17346318 0.060170386 -0.07452837
0000f0 40 60 cd bd 72 e3 de 3d 38 47 f3 3d 9c f7 0c 3e
       -0.10028124 0.108832255 0.11878818 0.1376633

m_transform.0.5.running_mean f4 [32]
000000 f5 58 c3 3d eb 6e ed 3d d9 27 56 3d 9e 26 6c 3e
       0.095384516 0.115934215 0.052284095 0.23061606
000010 5a 22 b9 3e a1 a8 16 3e e1 71 0a 3d 98 96 84 3e
       0.3615902 0.14712764 0.03380001 0.25896144
000020 44 bc a6 3d 54 dc 60 3e af 44 ab 3e 66 20 a2 3e
       0.081413776 0.21959049 0.3345084 0.31665343
000030 30 f1 cb 3c 49 85 6f 3e ef d1 4f 3e d4 b2 81 bc
       0.02489528 0.23390688 0.20294927 -0.015832342
000040 26 20 dc 3e 2b 1c 76 3e 72 7f 72 3e fc 68 e8 3c
       0.42993277 0.24034183 0.23681429 0.028370373
000050 c6 ab 17 3c cc 32 56 3e a5 e7 5d 3d bd 45 45 3e
       0.009257263 0.20917815 0.05417599 0.19264884
000060 4f 98 fb 3a e3 9c e7 3c ca 8c 9c 3e f9 53 99 3d
       0.0019195172 0.028273052 0.30576164 0.0748672
000070 af 10 91 3d 33 df 24 3d 21 5d bb 3e 51 ef 98 3d
       0.0708326 0.04025192 0.3659449 0.07467521

m_transform.0.5.running_var f4 [32]
000000 82 61 ef 3c df c6 d2 3c 9a 29 06 3d 90 1c 1a 3d
       0.0292213 0.025729595 0.032754518 0.037624896
000010 a3 4f d9 3d 54 6c 75 3d 17 22 2f 3d 0a 30 17 3e
       0.106108926 0.059917763 0.04275712 0.14764419
000020 22 42 d3 3c b4 5a d9 3d ec a4 3c 3e 64 99 61 3d
       0.02578837 0.106130034 0.18422288 0.055077925
000030 d2 83 bd 3c 7b 9a b2 3d 92 54 18 3e 5b d8 1a 3d
       0.023134146 0.08720871 0.14876011 0.03780399
000040 82 d8 64 3d ff 69 d4 3d e2 75 fb 3c d7 49 ef 3c
       0.05587054 0.1037178 0.03069586 0.029210014
000050 39 b4 85 3d 19 82 34 3d 83 59 04 3d 8b 61 0e 3d
       0.06528515 0.044069383 0.032311928 0.034760993
000060 7e 9a be 3c ae c9 d9 3c e6 ad 88 3d c1 a2 dc 3c
       0.023267027 0.026585426 0.066737935 0.026933076
000070 e0 65 1a 3d 3b 93 c4 3c 6e a3 2c 3d f3 ae d6 3c
       0.03769481 0.023995986 0.042148046 0.02620647

m_transform.0.6.weight f4 [96, 32, 3, 3]
000000 cc 82 15 3a ad 66 2d bd 70 ba 88 bd f6 ef 34 bd
       0.0005703389 -0.042334247 -0.06676185 -0.044174157
000010 50 dd c1 bc 68 a2 8d bd 12 16 fd 3c d0 f7 cf 3a
       -0.0236651 -0.06915742 0.030894313 0.00158667
000020 b2 8a 4c 3d 22 92 2c 3d 6f b1 1f 3d cb 18 a3 ba
       0.049936958 0.04213155 0.038987573 -0.0012443302
000030 e9 ed 1e bd 4e 40 8e 3c f6 3d 87 3c 3c ca 0e bd
       -0.038801108 0.017364647 0.016509037 -0.034860834
000040 1a fd 92 3d 53 63 50 bd 3a f8 76 3c 05 2c 1e 3d
       0.071771815 -0.050875973 0.01507383 0.0386162
000050 dd 04 bb bc 48 a8 e4 3c 33 69 1d bb 14 2c 09 3d
       -0.022829467 0.027912274 -0.0024019002 0.0334893
000060 0e 21 38 3d f8 90 34 bd 7c 63 b1 bc 0c cb 49 3b
       0.0449534 -0.044083565 -0.021653883 0.0030791191
000070 39 ba 96 3c d9 95 14 bd 50 5b 68 bd b9 57 96 3c
       0.018399345 -0.03627572 -0.056727707 0.018352376
000080 23 90 c7 bc 36 b3 d4 ba 55 d2 fb 3c 6a 1c 97 bb
       -0.024360722 -0.0016227725 0.030739943 -0.0046115415
000090 70 8e 91 3c cf 4c 8b bb 6b 59 22 3d c8 f7 de 3c
       0.017768115 -0.0042510997 0.039636057 0.02721776
0000a0 60 80 b8 bc 18 b7 dc ba f1 06 94 bd 36 b2 54 bd
       -0.022522151 -0.0016839234 -0.072278865 -0.051927768
0000b0 05 b3 cb 3c 31 b2 22 3d 87 b8 d9 bc 35 db 8a bc
       0.024865637 0.039720718 -0.026577247 -0.01695023
0000c0 ad a4 61 bd a6 d5 aa bc 0c 77 a8 bd 34 66 8e 3c
       -0.055088688 -0.020853829 -0.082258314 0.017382719
0000d0 80 5a 01 bc 87 a0 29 bc c4 6e e4 bc 45 8c 55 bd
       -0.007895112 -0.010353214 -0.027884848 -0.052135725
0000e0 2f 23 86 3d 92 3c cf 3c 8a e5 a6 3c a4 74 bb bb
       0.065496795 0.025297437 0.020373125 -0.0057206918
0000f0 be 85 b6 3b 58 da ed bc fb e2 84 3d 97 dc 1d bd
       0.0055701425 -0.029034778 0.064886056 -0.03854045
000100 53 ff a7 bc bc 90 b7 bc 08 1b a1 bd b2 f8 76 3d
       -0.02050749 -0.022407882 -0.07866484 0.060295768
000110 6d c7 a1 3c 72 2a 1f bd 95 ae 42 3d 85 bc 48 3d
       0.019748414 -0.03885884 0.047529776 0.04900791
000120 8d a9 8c bc 1e 73 39 bd d9 00 9c 3c 6a 14 cf bc
       -0.017170692 -0.0452758 0.019043373 -0.025278289
000130 f2 b0 b0 3a 7a b7 9e bc ea 94 71 bc 1a 27 e3 3c
       0.0013480468 -0.019374598 -0.014744977 0.027728606
000140 86 36 84 bb 20 e4 39 bd 58 e1 7a 3c 67 43 c0 bd
       -0.00403482 -0.045383573 0.015312515 -0.09387856
000150 24 aa 68 3b 18 78 5a 3c d0 78 95 bd d3 26 20 3d
       0.0035501802 0.013334297 -0.07298434 0.039099526
000160 a4 5a 25 bd 6c 95 e3 bc bd 08 6f 3c e9 45 24 bd
       -0.040369645 -0.02778121 0.014589486 -0.040105734
000170 31 2e 2e bd 5c 02 57 3c 74 5f 4a bc 3d 7b 97 bc
       -0.04252452 0.013123121 -0.012351859 -0.018491382
000180 b1 00 f8 3c 70 78 a0 3c 10 6a 2f bd 04 3b 10 3c
       0.030273767 0.01958868 -0.04282576 0.008803133
000190 14 85 65 3b 2f a9 4b bd 39 52 9b 3c 63 31 59 3c
       0.0035021948 -0.049721893 0.018960105 0.013256404
0001a0 c4 b5 2c bd d9 5d 0a 3d d4 7a d4 3b e3 24 8c bd
       -0.042165533 0.033780906 0.006484369 -0.06842973
0001b0 73 b7 8d bc 78 88 ac bc 2d a4 1c be 33 3b 12 bc
       -0.01729939 -0.021061167 -0.15297003 -0.008925247
0001c0 a4 96 0f 3d fb 84 b1 bd 96 40 26 3d 83 9b 0d bd
       0.03505577 -0.08667942 0.040588938 -0.034572136
0001d0 3e c9 0a be 35 95 70 bc c3 6a 2a bd 36 b9 17 bc
       -0.1355333 -0.014684011 -0.041605722 -0.009260466
0001e0 0b 5c 09 3d 21 9b 4f bd 2a 7a 80 bc f2 52 c2 3c
       0.033535045 -0.05068505 -0.015683252 0.023721192
0001f0 06 9b ed bc 7e af df 3c 98 6e 64 bc 42 67 0d 3d
       -0.029004585 0.02730536 -0.013942383 0.034522302
000200 f7 b1 53 3c 11 80 76 bc f2 42 d2 3c 01 9d 66 bd
       0.012920848 -0.015045182 0.025666688 -0.056302074
000210 9a 9d b5 3c bb 4b d4 bb 37 7a 30 bc 0c 13 5a bd
       0.022169877 -0.0064787543 -0.010771326 -0.05324082
000220 77 0e 6d bd c3 4d 18 bd c5 fa 48 3d cf 9e ff 3c
       -0.057875123 -0.037183534 0.049067277 0.031203656
000230 64 07 1d bc 36 a2 f8 3c a2 30 38 bc d2 6e 41 3d
       -0.009584282 0.030350786 -0.011242064 0.047224827
000240 43 ca 73 bb f6 d1 13 3c 94 cb 8a bd eb d0 2c 3d
       -0.0037199415 0.009022227 -0.06777111 0.042191427
000250 1d 03 9b 3d b4 21 41 bd 27 ae 2a 3d a5 b9 63 3b
       0.07568953 -0.047151282 0.04166999 0.0034748104
000260 3f 65 18 3d 9b 6c 8a bd 14 84 40 bd 44 54 5f bd
       0.03720593 -0.06758996 -0.04700096 -0.05452372
000270 80 8b 02 3c 9d 47 2c bd 13 54 35 3d f3 eb ab 3c
       0.00796783 -0.042060483 0.044269633 0.020986533
000280 24 f3 30 ba f4 05 7f 3b ff 18 9f 3c 1e a6 a2 3b
       -0.0006750098 0.003891346 0.019421099 0.0049636504
000290 b6 65 40 3d 46 eb 51 bc 15 cf 25 bb 70 2f c1 3a
       0.046972 -0.012812441 -0.0025300432 0.0014738869
0002a0 b9 58 0c 3d 71 de 70 3c d7 4f 31 3d bb 6a 95 3c
       0.0342643 0.014701472 0.04328903 0.01823937
0002b0 c6 60 e3 bc c1 6c 65 3c 0a 48 f3 bc cd 36 1e 3c
       -0.027756106 0.01400298 -0.029697437 0.00965662
0002c0 3c f0 e2 3b 33 90 f6 3c cb 9b 17 3d 4d 19 4a 3d
       0.006925611 0.030098056 0.03701381 0.049340535
0002d0 06 6c 79 3d e2 5f c3 3c 38 7d 2f bd ff 06 37 bd
       0.060894035 0.023849431 -0.042844027 -0.044684406
0002e0 04 8e 23 3d 74 da 77 b8 52 4d 57 3d d9 1d c9 3c
       0.03993036 -5.909284e-05 0.052563973 0.024550365
0002f0 fd b6 7c bd 42 f8 96 bc b6 be a3 bc 92 7f 35 3c
       -0.06169795 -0.018428925 -0.019988399 0.011077778
000300 cb 85 4a bd 5c af 4c 3d 04 73 61 bd 2d c0 40 3d
       -0.049444 0.049971923 -0.055041328 0.047058273
000310 4f 90 df 3c 1b 2b 00 3c 5d a2 2a 3d bf 94 45 3d
       0.027290491 0.007822777 0.041658748 0.04823756
000320 6a a2 37 3b 48 4a 4a 3d 01 4e de bb c4 6d 4d 3b
       0.002802039 0.049387246 -0.006784201 0.0031345943
000330 ba 46 4d bd d9 c6 7f 3d a7 b9 a5 bc 14 34 1c bd
       -0.05011628 0.062445495 -0.020230127 -0.038135603
000340 a9 c4 38 3c c0 12 ba 3b 86 d1 11 3c 58 9d b0 3b
       0.011277356 0.0056785047 0.008900052 0.0053898506
000350 20 2d fc bb 15 7d db bc 63 2b 28 3c 4a 08 8a 3c
       -0.007695809 -0.026793042 0.01026425 0.016849656
000360 96 12 89 3b ca 8b c6 bc ac a2 ff bb cd 3f 4c bd
       0.004183124 -0.024236578 -0.0078013744 -0.049865533
000370 f7 b9 de 3c a8 ef 8b bd ce 3a b0 bd 58 45 aa bb
       0.027188284 -0.0683282 -0.08604966 -0.0051962547
000380 98 02 a5 3c a5 4b 38 bd df ef 10 bc 2c 53 ac 3b
       0.020142838 -0.044994015 -0.008846252 0.0052589383
000390 15 8f b4 bc e3 03 0e 3d 6a 20 bb 3d e5 1d cd bd
       -0.022040883 0.034671675 0.09137042 -0.100154676
0003a0 fe cc 10 3c bb 8d b6 3d 47 56 3d 3d e9 8f 5a bd
       0.008837936 0.08913752 0.04622486 -0.0533599
0003b0 a1 7e de bc 33 b8 27 bc 53 33 98 bc 6d 7d bb bc
       -0.02715999 -0.010236788 -0.01857916 -0.022886956
0003c0 e4 3a e3 3c df 49 7a bc bc c1 4d 3d 43 35 b5 bc
       0.027738042 -0.015276401 0.050233588 -0.022120124
0003d0 87 13 a2 3b 5f 3d 82 3d a2 47 e3 bc 4a 18 3a 3d
       0.0049461755 0.06359362 -0.027744118 0.04543332
0003e0 a1 2d 91 3c 4b 92 aa bc f8 0b 8a 3c bf fc 39 3d
       0.017721953 -0.020821711 0.01685141 0.045407053
0003f0 ef ba f1 bc 71 f9 3d b8 7a 2b e2 3c 5a 37 c4 3c
       -0.029508082 -4.5293422e-05 0.027608622 0.023952175

m_transform.0.6.bias f4 [96]
000000 10 e9 5a 3d 96 fc 88 3d 2c 3c 14 bd 83 63 0b 3d
       0.053444922 0.06688802 -0.036190197 0.03403045
000010 5f b9 58 bc 80 fe 93 bd 2b 5d d1 3b bc 2d d5 3c
       -0.01322779 -0.072262764 0.0063892803 0.026022784
000020 90 e8 e7 bc 20 c3 39 3d 72 69 72 bc 14 4c 2b 3d
       -0.028309137 0.0453521 -0.014795648 0.0418206
000030 db 98 26 3d c0 7f 7f bd a2 5f 0f bd 32 8b 48 3d
       0.040673118 -0.06237769 -0.035003312 0.048960872
000040 ff 8c 8e bb 29 65 20 bd e6 3f fb bb 87 92 49 bd
       -0.004350304 -0.039158974 -0.0076675294 -0.049212005
000050 c2 03 a8 bc 9d 40 da 3c 17 81 a9 3c ae 17 d6 bb
       -0.020509604 0.026642138 0.020691438 -0.0065335846
000060 07 80 19 bd de 4f 22 3d b0 f2 25 3d 2a c1 8a bc
       -0.037475612 0.03962695 0.040514648 -0.01693781
000070 14 08 34 bd 36 58 12 bd a1 12 2d bd d1 b2 36 bd
       -0.043953016 -0.035728656 -0.042254094 -0.044604126
000080 a1 77 4c 3d 8b 0d 66 bd 79 3d 62 bd a8 c4 80 3d
       0.049918775 -0.05616526 -0.055234406 0.06287509
000090 90 18 0f 3d d4 c7 63 bd 4b eb bc bc 1d 55 3b 3c
       0.034935534 -0.055610493 -0.023061415 0.011433867
0000a0 6b 8b 76 bd 91 19 d4 3c ef 05 3c 3b 7f c4 57 3d
       -0.060191553 0.025891097 0.002869006 0.052677628
0000b0 7a 95 cf 3c 83 cb f8 bc 90 8c 65 bb 69 dd 20 3c
       0.02533983 -0.03037048 -0.0035026409 0.009818413
0000c0 b2 03 0a 3d 5f 51 42 bd a6 ef f4 3c ba 86 6e 3c
       0.03369493 -0.047440883 0.02989943 0.0145584885
0000d0 8b 04 a1 3d 7b d7 1a 3d 52 94 6e bd e3 ad f6 bc
       0.07862195 0.037803154 -0.058246918 -0.030112213
0000e0 88 3c b7 3a 79 22 1b 3d 07 2e 53 3d cd 2a 50 3d
       0.0013979832 0.037874673 0.051557567 0.050822068
0000f0 8d 91 a5 3c 72 2f f3 bc 67 b9 53 bc 65 32 64 3c
       0.020211006 -0.02968571 -0.012922621 0.013928031
000100 9c 24 62 3d d7 ae 99 3d 2e f0 01 3d a0 f2 3a 3d
       0.055210695 0.07504051 0.031723194 0.04564154
000110 95 cf 8b bc ab df 3f bd 61 a0 61 3d 7c a8 1e 3d
       -0.017066756 -0.046844166 0.05508459 0.038734898
000120 0d 6b a2 3c 14 75 57 bd ec 0b da bb 0c 98 54 3d
       0.019826436 -0.05260189 -0.006654253 0.051902816
000130 4f 6b e8 3c 85 19 c8 3c 93 cd d1 bc 7a 9b e3 bc
       0.028371481 0.024426231 -0.02561072 -0.027784098
000140 4a c6 84 bd 6f 26 8b 3d 69 88 a0 3c f0 05 70 bd
       -0.06483133 0.0679444 0.019596295 -0.058599412
000150 0b d2 44 bd 69 82 49 3c 72 00 99 bd cf 37 a4 bd
       -0.048051875 0.012299159 -0.07470788 -0.08018457
000160 51 05 16 3d ef b8 3e bd f6 c0 90 bc 8f 76 73 bd
       0.036626164 -0.046563085 -0.017670136 -0.05943924
000170 ea aa d9 bc 2b 7e 00 bd d8 7d 78 bc 90 e5 66 3d
       -0.026570756 -0.031370323 -0.015166722 0.05637127

m_transform.0.9.running_mean f4 [48]
000000 f0 d3 b5 3f 76 22 96 3f 69 b0 4c 3f 63 74 f1 3f
       1.4205303 1.1729267 0.7995668 1.8863643
000010 01 f2 6f 3f 66 7d 95 3f 50 37 cc 3f 3c d9 67 3f
       0.93728644 1.1678894 1.595438 0.9056585
000020 49 2f 5f 3f b3 2b 7c 3f ab 60 47 3f f0 ba 88 3f
       0.87181526 0.9850418 0.7788188 1.0682049
000030 6b f7 dd 3f cf b9 ac 3f b9 d4 74 3f 3e 1c 97 3f
       1.7341131 1.3494204 0.9563709 1.1805494
000040 6b b8 8e 3f 53 ad 95 3f 79 0a 94 3f 4d 95 89 3f
       1.115003 1.1693519 1.1565696 1.0748688
000050 2b 2e 81 3f e8 01 5f 3f 8f ca 87 3f 9c 7a 84 3f
       1.0092214 0.87112284 1.0608691 1.0349917
000060 f8 40 66 3f 07 2f a1 3f ba 4f 56 3f 98 5c a8 3f
       0.89942884 1.2592477 0.83715403 1.3153257
000070 f4 44 8f 3f d4 38 84 3f 39 23 6c 3f 62 6d da 3f
       1.1192918 1.0329843 0.92241246 1.7064631
000080 37 8d 94 3f 27 1e 89 3f 9c 7c af 3f 78 da 8c 3f
       1.1605595 1.0712327 1.3709903 1.1004171
000090 aa e9 50 3f 42 ec 91 3f 27 d9 83 3f 3c fc 8d 3f
       0.81606543 1.1400225 1.0300645 1.1092601
0000a0 fe 4d 86 3f 44 0c 84 3f 1c 04 6c 3f ac 42 84 3f
       1.0492551 1.0316243 0.9219377 1.0332847
0000b0 61 2a ab 3f b9 12 51 3f 37 3f 64 3f c8 d9 83 3f
       1.3372308 0.81669194 0.8915896 1.0300837

m_transform.0.9.running_var f4 [48]
000000 92 a0 29 40 69 11 09 3f da 68 fb 3f db e3 0d 3f
       2.6504254 0.5354219 1.9641373 0.55425805
000010 ac 50 7f 3f c5 af 23 3f b6 ff da 3e a9 cd 4c 3f
       0.9973247 0.6394008 0.42773217 0.8000131
000020 e6 fb bb 3f b4 40 56 3f e2 d0 de 3e 27 6b fa 3e
       1.4686248 0.8369248 0.4351874 0.48909876
000030 9d 1f 1a 3f 26 ff 19 3f 64 0b cb 3f cd 87 1b 3f
       0.6020449 0.6015495 1.5862851 0.6075409
000040 79 d8 21 3f f4 51 11 3f be 50 88 3f 1c 20 37 3f
       0.63220936 0.56765676 1.064964 0.7153337
000050 a5 68 d9 3e a4 51 6c 3f 0d 9f 3e 40 a5 ab 25 3f
       0.4246265 0.92312074 2.9784577 0.64715034
000060 8b 16 7f 3e e3 42 0f 3f df d8 15 3f d4 d7 93 3f
       0.24910943 0.55961436 0.58534044 1.155024
000070 fb c6 1c 40 7e bd 24 3f 9b 07 73 3f 2c 6e 0e 3f
       2.4496448 0.6435164 0.9493348 0.5563686
000080 fd 65 af 3f 82 e6 ae 3f 54 d4 cb 3e 5c 0b e0 3e
       1.3702999 1.3664095 0.3981043 0.43758667
000090 fb 95 9c 3f fa 0c 20 3f e2 f0 42 3f 50 b7 87 3f
       1.223327 0.625198 0.7614881 1.0602818
0000a0 43 d6 35 3f 09 24 07 3f 44 4c 83 3f b8 a9 53 3f
       0.7103006 0.5278936 1.025765 0.82680845
0000b0 03 7b 43 3f 54 5b 41 3f 7b c8 d0 3e 10 48 20 3f
       0.76359576 0.7552998 0.40777954 0.6260996

m_transform.0.10.weight f4 [96, 48, 1, 1]
000000 f8 63 74 3d e4 37 97 3d 77 f6 1f 3d a4 fc 8f bd
       0.05966565 0.07383707 0.039053407 -0.07030609
000010 b4 c2 8d bc 2a 98 6a bd 26 12 e7 3d 7a 39 3d bd
       -0.017304756 -0.05727402 0.112827584 -0.046197392
000020 9e 87 a7 bc 06 d2 c1 3d e3 39 67 bd fd f8 42 bd
       -0.02045041 0.09463887 -0.05645169 -0.047600735
000030 5c 3d 8e bd 69 e8 20 3e 68 85 4a 3d 7a d7 98 3d
       -0.06945297 0.15713657 0.049443632 0.07462974
000040 56 b5 03 3e 03 71 1b 3d fa df 18 3e 6e c2 ea bd
       0.12862143 0.037949573 0.1492919 -0.11462866
000050 5e d8 86 3d bc 90 de 3d 9d 16 44 bd 2c 41 0e bd
       0.065842375 0.1086745 -0.04787313 -0.03473012
000060 d6 0b 93 bd a5 5a 18 be 4f 06 ac 3d 5f 51 e1 bc
       -0.07179992 -0.14878328 0.08399641 -0.027504621
000070 25 d1 f2 3d 29 db 66 bc b2 c8 2a bd ab 2c ae bd
       0.118562974 -0.014090338 -0.041695304 -0.085046135
000080 24 81 98 bd d8 50 a2 3d f6 44 9f 3d 33 b0 1d 3d
       -0.074465066 0.07925576 0.07776825 0.038498115
000090 ef a8 0b 3e b3 1c b4 bd a9 a4 68 bd 53 a2 a6 bd
       0.13638662 -0.087945364 -0.056797657 -0.0813643
0000a0 04 5d 92 3d 5f b3 a8 bd 0d e8 02 3e 4e 12 d7 3d
       0.071466476 -0.08237337 0.12783833 0.10501538
0000b0 16 59 90 bd b8 4e 30 bd d3 14 5c 3d d4 c8 72 3d
       -0.07048242 -0.043043822 0.053730797 0.059273556
0000c0 4d e9 18 3b 15 4d 01 3e 80 8d e8 3d a6 31 9e bd
       0.0023332417 0.1262706 0.11355114 -0.077243134
0000d0 3d 84 d2 3d 60 6a 85 bc b2 86 1c 3d bc ae 81 bc
       0.10279129 -0.016286075 0.038214393 -0.01583039
0000e0 11 c1 c2 3d f1 9d f0 3c a6 ac 5c 3d c4 8f 95 bd
       0.09509481 0.029372187 0.053875588 -0.07302812
0000f0 ff 23 02 3e 14 39 a9 bc 21 62 c4 bc fa 69 56 3d
       0.12709044 -0.0206571 -0.023972573 0.05234716
000100 02 04 c5 3d 35 ec 8b bd a6 b4 af 3c 80 0d c0 bb
       0.09619905 -0.06832162 0.021448445 -0.0058609843
000110 aa ab cd 3d 36 a5 50 bc 46 08 9b 3b d5 fd 49 bd
       0.10042508 -0.012734702 0.004731211 -0.04931434
000120 20 e1 d9 3d 21 55 5d 3d 5d ca 68 3d 5e 50 bb bc
       0.10638642 0.054036263 0.056833614 -0.02286547
000130 db 05 0f 3e e8 77 ec bd 5f 6c 62 bd b6 c2 2d be
       0.13967077 -0.11546308 -0.055279132 -0.16968808
000140 fc 13 00 be ea 4b 82 3d 96 73 11 be 27 c4 98 bd
       -0.12507623 0.06362136 -0.14204249 -0.07459288
000150 b9 0d 98 bc 34 4a f4 3d 7b da c8 bd 18 0a 1f bd
       -0.018561231 0.119282156 -0.09807297 -0.038827986
000160 cd e2 b5 3d 58 10 9d bd c8 37 f5 3d 2e 27 0b be
       0.088811494 -0.07669133 0.1197353 -0.13589165
000170 bd be 4f 3d 63 5f 01 bc e1 dc 10 3e c9 67 44 3d
       0.05071901 -0.007896277 0.14146759 0.04795054
000180 52 4b bd bd 2c 52 27 be 16 98 74 bd 01 30 e1 bd
       -0.09242882 -0.1633994 -0.059715353 -0.10995484
000190 77 ab 8f 3d 3c d9 e6 bd 65 05 63 bc 3b c9 f8 bd
       0.07015126 -0.11271903 -0.013856267 -0.12147757
0001a0 12 91 d5 bd f1 06 58 ba de 2a 66 bd 7a 99 3e 3d
       -0.104280606 -0.00082407804 -0.056193225 0.046533085
0001b0 99 96 ab bc c9 83 1f bd d1 0b 9d 3a 81 ea 43 3a
       -0.020945834 -0.03894404 0.0011981671 0.00074736035
0001c0 09 04 6c 3d 3f 68 c7 3d fa f5 67 3a db 73 a1 bd
       0.057621036 0.0973668 0.0008848604 -0.07883426
0001d0 8d 83 99 bd 48 33 94 3b aa 63 f0 3d b4 9c c2 bd
       -0.074957944 0.0045227148 0.117377594 -0.09502545
0001e0 ac de c6 bc 0b 04 d5 3d 79 75 4b 3d e0 48 87 bd
       -0.0242761 0.10401162 0.049672578 -0.06605697
0001f0 ee 7a 9c 3c a5 10 77 bd 6d 2c e4 3c fc 37 9d 3d
       0.019101586 -0.060318608 0.027853215 0.07676694
000200 02 85 01 3e d0 91 fc 3c 89 37 b3 bd 06 71 d9 3d
       0.12648395 0.030831248 -0.08750827 0.10617261
000210 83 74 00 3e c7 58 ae 3d 48 42 1a 3e 11 27 2e 3c
       0.12544446 0.08513027 0.15064347 0.010629431
000220 59 8c c5 3c 40 47 85 bd bb 1d db 3d a2 8b 64 bd
       0.024114775 -0.065077305 0.1069903 -0.055797227
000230 62 df 80 3d 7d be a9 bd b5 3c 00 3e b1 00 9a 3d
       0.06292607 -0.08288286 0.12523158 0.07519663
000240 c6 ca cb bd f4 51 a5 bd c4 50 cb 3d db 0e f6 3d
       -0.09950785 -0.08072272 0.09927514 0.12014552
000250 6b 7c b9 3c b2 fb cc bd 68 b9 27 3e dd e2 bc 3c
       0.022642335 -0.100089446 0.1637932 0.023057396
000260 a7 a6 8f bd 28 a3 ea bd 6e 26 f3 3b f5 5a 86 bd
       -0.07014208 -0.11456901 0.0074203527 -0.065603174
000270 1c fe b8 bd 5e 3c 8d 3c 34 f9 ed bd 01 0a 25 be
       -0.090328425 0.0172407 -0.11619797 -0.16117097
000280 de ad b3 3c 74 1d 00 bc 57 b1 4c bd 46 9f 00 3e
       0.021933492 -0.007819522 -0.049973812 0.12560758
000290 f7 61 a1 bd 28 e1 6f 3d 13 0b db bd 21 76 11 be
       -0.078800134 0.058564335 -0.106954716 -0.14205219
0002a0 ca 8b 09 be 17 56 03 3e 3f 3b 3f bc 65 b0 a4 bd
       -0.13432232 0.1282581 -0.01167184 -0.08041457
0002b0 97 30 b3 3c 68 ac b1 bd 93 c4 6b bd 74 10 99 bc
       0.021873755 -0.08675462 -0.057560515 -0.018684603
0002c0 06 e7 6f bd 86 a2 78 3d d5 69 dd bd 40 01 f8 bc
       -0.05856993 0.06070187 -0.108112015 -0.030274034
0002d0 e0 6d bb bd ee 08 b1 bd c4 78 d5 3d bb fc eb 3d
       -0.09151816 -0.08644281 0.10423425 0.11522814
0002e0 dd b6 ca bd 01 ea fb 3d 2b f8 05 3e cb 5f f0 bc
       -0.0989816 0.12300492 0.1308295 -0.029342553
0002f0 19 50 20 be e7 c6 be 3d 57 56 0a 3e 66 9a 48 bd
       -0.15655555 0.09315281 0.13509499 -0.04897537
000300 c9 c2 97 bd 73 e6 14 bd 19 de cb bd a3 1c 11 3e
       -0.07410199 -0.036352586 -0.09954471 0.1417108
000310 fa 7e e2 3d ce 2e 56 bb 34 1b f3 3c c5 cc b3 3d
       0.11059375 -0.0032681706 0.029676057 0.08779291
000320 85 0f 18 bd 2c 79 cf ba ff 39 c7 bd 03 25 2c 3e
       -0.037124176 -0.0015828959 -0.09727859 0.16810994
000330 28 d7 b3 3d 2d 15 a7 bd ef 47 f4 bd c2 15 7b 3d
       0.08781272 -0.08158336 -0.11927783 0.061300047
000340 6d 51 1f 3d 76 2b ea 3d f0 ce a0 bd 36 63 e0 bb
       0.038896013 0.11434071 -0.0785197 -0.0068477644
000350 b0 97 a0 bd 5c eb 16 be b5 ec be bd cf fb 4f 3d
       -0.07841432 -0.1473822 -0.09322492 0.050777253
000360 d0 e4 d5 3c 46 3d 32 3c 6d 7b 92 3d 79 3c b5 bd
       0.026110083 0.010878867 0.07152448 -0.08849425
000370 b4 ee c5 bd c2 e8 75 bc 86 f1 96 3d 1c ab e4 3d
       -0.0966467 -0.015009107 0.07370286 0.11165449
000380 e4 00 8d 3d 89 f3 2d bd 62 5f 0b 3e 33 2c 0d 3e
       0.068849355 -0.04246858 0.13610604 0.13786392
000390 3f ea 8d bd b9 b3 80 bd 87 58 78 3d 1b 19 01 be
       -0.069294445 -0.062842794 0.0606313 -0.12607233
0003a0 05 00 d2 3d 15 5f 74 38 35 f4 b5 bb 0e 6b a0 3d
       0.1025391 5.8262685e-05 -0.0055527934 0.07832919
0003b0 59 db d7 3c a7 2d 2a bc d6 21 18 bd ef 53 08 be
       0.02634971 -0.010386861 -0.037141643 -0.13313268
0003c0 d8 76 10 bd 80 c7 77 bd 93 d8 e4 3c 57 8b d6 bd
       -0.03526959 -0.060492992 0.027935302 -0.10475796
0003d0 97 d2 ac 3c 3a 76 11 3e b2 82 86 bc 71 bf 9f bd
       0.02109651 0.14205256 -0.016419742 -0.078001864
0003e0 b8 41 d5 3d 98 58 7a bc 53 e1 f3 bd 75 d3 db bc
       0.104129255 -0.015279911 -0.119082116 -0.026834229
0003f0 5d 08 db 3d d4 9d 05 3e 98 d9 3f 3d 99 3d de 3d
       0.106949545 0.13048488 0.046838373 0.108515926

m_transform.0.10.bias f4 [96]
000000 9e 3c fb 3d 06 31 ae 3d f5 53 56 3b 97 d0 73 3d
       0.12267421 0.08505444 0.003270385 0.0595251
000010 4f c8 29 3d 91 43 c5 bd 2b bd 9a bd bb 80 0f be
       0.041450795 -0.09632028 -0.07555612 -0.1401395
000020 35 00 0f be 55 bf 9c bd 0c 74 02 be 69 c6 e6 3d
       -0.13964923 -0.07653681 -0.12739581 0.112683125
000030 d2 05 26 bd 52 93 ff bd af de 43 3c b9 5d 09 3e
       -0.040532894 -0.12479271 0.011954947 0.13414659
000040 6b d9 2f 3c c9 1e a8 3d 3c 22 b2 bd 2b 5a 57 bc
       0.010732989 0.08208997 -0.08697936 -0.013144056
000050 23 01 08 3e 35 22 b6 bd 43 fa cc 3d c3 71 00 3e
       0.13281684 -0.08893243 0.10008671 0.12543397
000060 d4 c3 39 3d b3 b0 cf bd 2a ec 46 bd 70 92 12 3e
       0.045352772 -0.101411246 -0.048565067 0.14313674
000070 6e 09 56 3d f5 56 17 3e 89 f2 e0 bd e3 fe 0c 3e
       0.052255087 0.14779265 -0.1098376 0.13769107
000080 7c fd 2a 3c 34 f3 4e 3c 3a 8a 81 3d 52 5d 7a bd
       0.010436412 0.012631226 0.06325193 -0.061124153
000090 4a c6 e3 3d 34 80 de 3d 55 c0 f5 3b 6d d7 89 3d
       0.11121805 0.108642966 0.0074997344 0.06730542
0000a0 00 c5 bf bc 77 c5 a6 bd 7d fc 92 bd 59 c3 eb bd
       -0.023409367 -0.08143132 -0.071770646 -0.11511869
0000b0 e9 c3 02 3d cc 7b 08 be 8f 5b 9e bc d9 6e d8 3d
       0.031925116 -0.13328475 -0.019330768 0.105680175
0000c0 2a b0 93 bd 64 bf 4e 3b 44 e7 d8 3c 04 96 b4 3d
       -0.07211335 0.0031547183 0.026477464 0.08817676
0000d0 55 9e a7 3d 0d 8e 6e bd fc c6 e6 bc 85 e4 32 b8
       0.08184496 -0.05824094 -0.028171055 -4.2651332e-05
0000e0 f6 42 f2 3d 01 39 30 be 88 69 08 3e 3a 02 fd bd
       0.11829178 -0.17209245 0.13321507 -0.1235394
0000f0 60 af f0 3d e1 cd a1 3d c1 9b ab 3d 2f 39 74 bc
       0.117522 0.079005964 0.08379317 -0.014906212
000100 a5 3f 58 bc f6 3d be bd ef 80 b0 bd 79 a0 7f 3d
       -0.013198768 -0.09289162 -0.08618342 0.062408898
000110 ca 40 ad 3d 6f c1 8e bd f5 d8 e9 3d f2 30 09 3d
       0.08459623 -0.06970488 0.114183344 0.033493944
000120 ef 9e 97 3d cc 7a 8c 3d a7 03 bf 3c 72 ee 11 3d
       0.07403361 0.06859359 0.023317171 0.03562779
000130 a9 a5 f2 bd 16 38 c6 3d 71 7c dd 3d 8f 59 0d be
       -0.118480034 0.09678666 0.10814751 -0.13803695
000140 ee ea b0 3d 1e bf 8a bd 2a bd a8 39 6a 32 7e 3d
       0.08638559 -0.06774734 0.00032184395 0.062059797
000150 82 aa 8a bc 09 ba dc 3d 8e 36 0a 3e 8f 8b 09 3d
       -0.016927008 0.10777671 0.13497373 0.03358036
000160 a6 d2 38 bd 68 d5 2d 3d 2c 28 a3 bd b7 52 d7 bd
       -0.045122765 0.04243985 -0.079666466 -0.105138235
000170 eb 99 a0 bd 5b 94 9c bb 60 a2 e2 3d e7 2f 11 bd
       -0.078418575 -0.0047784275 0.11066127 -0.035446074

m_transform.0.12.running_mean f4 [48]
000000 df ee e0 3e e2 ba d5 3e 4c e2 a5 3e 32 34 ca 3e
       0.43932244 0.41744143 0.32399213 0.39492947
000010 0a 2d 2d 3f db 01 a8 3e db b4 9d 3e d1 1c 00 3f
       0.6764685 0.32813916 0.30802044 0.5004397
000020 94 7a 91 3e 08 be e3 3d 62 73 e0 3e e8 20 9f 3e
       0.28413832 0.1112023 0.4383803 0.31079793
000030 86 ec a0 3e 0e 2d f4 3e d0 42 c9 3e eb 09 b6 3e
       0.31430453 0.47690624 0.39308786 0.35554442
000040 56 83 db 3e d4 91 aa 3e c3 81 d3 3e b2 7f a2 3e
       0.4287364 0.33314383 0.41309938 0.3173805
000050 5d 7e 2d 3f ed 54 a4 3e 3a 58 b9 3e b9 b7 0d 3f
       0.6777094 0.32096043 0.36200124 0.55358464
000060 94 fe db 3e 5b 21 99 3e ce 79 6a 3e 30 b4 ec 3e
       0.42967665 0.2990826 0.22898027 0.46231222
000070 e0 3b df 3e 45 3a 34 3f d1 e5 04 3f 79 8a c9 3e
       0.43600368 0.7040141 0.5191317 0.3936346
000080 85 9c 72 3e af c0 76 3e 09 a8 08 3f f2 3c c0 3e
       0.2369252 0.2409694 0.533814 0.37546498
000090 69 66 ba 3e 59 0f db 3e ad 46 03 3f 56 5c 72 3e
       0.36406258 0.42785147 0.5127972 0.23668036
0000a0 b5 ce 72 3e 24 9f 94 3e e7 27 6f 3e fd 39 d0 3e
       0.23711665 0.29027665 0.23355065 0.40669242
0000b0 83 61 b5 3e aa f5 e5 3e ae 32 eb 3e 61 e4 02 3f
       0.35425958 0.4491399 0.45937103 0.5112973

m_transform.0.12.running_var f4 [48]
000000 6a 0c b4 3e 8e af cd 3e 4f 96 5c 3e 66 7b 50 3e
       0.3516572 0.40173 0.21541713 0.20359573
000010 27 f6 61 3e f9 36 9f 3e 11 dc 25 3e 2d a9 2a 3e
       0.22066556 0.31096628 0.1619723 0.16666098
000020 78 e0 80 3e ab 37 2c 3e fd 39 21 3e 20 20 31 3e
       0.25171256 0.1681811 0.15744777 0.17297411
000030 63 c6 0e 3e 25 2a 88 3e bf 15 0a 3e 5f d3 5c 3e
       0.13942866 0.26594654 0.13484858 0.21565007
000040 c2 23 3a 3e 2b 66 a6 3e fd cd 4b 3e a8 f6 b8 3e
       0.18177703 0.32499823 0.19902797 0.36125684
000050 ca 7b 28 3e 17 59 98 3e 5a 4f 85 3e 49 59 2b 3e
       0.16453472 0.2975547 0.26037103 0.16733278
000060 52 a6 5e 3e c2 e6 8b 3e c9 9c 47 3e 9d 33 a7 3e
       0.21743134 0.27324492 0.19493403 0.32656565
000070 73 9d 29 3e ea bc 80 3e 82 8f 3a 3e fd 81 3e 3e
       0.16563968 0.2514413 0.18218806 0.18604274
000080 4e 4c 54 3e 01 e9 06 3e cc 33 5e 3e 55 80 3f 3e
       0.20732233 0.13174821 0.21699446 0.18701299
000090 c3 b7 0b 3e 71 a6 4b 3e 07 d3 ad 3e 50 e4 8e 3e
       0.13644318 0.19887711 0.33950064 0.27908564
0000a0 2e c8 8a 3e 92 bf 5c 3f 1c 9b a8 3e e9 e3 64 3e
       0.2710585 0.86229813 0.3293084 0.22352566
0000b0 5e 30 66 3e e4 93 28 3e 91 10 83 3e b0 6a 82 3e
       0.22479388 0.16462666 0.25598577 0.2547202
