Auxillary Code/LCNN/project/03-asvspoof-mega/lfcc-lcnn-attention-sig/05/__pretrained/trained_network.pt (torch, 671748 bytes, 33 tensors)

m_frontend.0.lfcc_fb f4 [257, 20]
000000 00 00 00 00 00 00 00 00 00 00 00 00 00 00 00 00
       0.0 0.0 0.0 0.0
000010 00 00 00 00 00 00 00 00 00 00 00 00 00 00 00 00
       0.0 0.0 0.0 0.0
000020 00 00 00 00 00 00 00 00 00 00 00 00 00 00 00 00
       0.0 0.0 0.0 0.0
000030 00 00 00 00 00 00 00 00 00 00 00 00 00 00 00 00
       0.0 0.0 0.0 0.0
000040 00 00 00 00 00 00 00 00 00 00 00 00 00 00 00 00
       0.0 0.0 0.0 0.0
000050 00 00 a8 3d 00 00 00 00 00 00 00 00 00 00 00 00
       0.08203125 0.0 0.0 0.0
000060 00 00 00 00 00 00 00 00 00 00 00 00 00 00 00 00
       0.0 0.0 0.0 0.0
000070 00 00 00 00 00 00 00 00 00 00 00 00 00 00 00 00
       0.0 0.0 0.0 0.0
000080 00 00 00 00 00 00 00 00 00 00 00 00 00 00 00 00
       0.0 0.0 0.0 0.0
000090 00 00 00 00 00 00 00 00 00 00 00 00 00 00 00 00
       0.0 0.0 0.0 0.0
0000a0 00 00 28 3e 00 00 00 00 00 00 00 00 00 00 00 00
       0.1640625 0.0 0.0 0.0
0000b0 00 00 00 00 00 00 00 00 00 00 00 00 00 00 00 00
       0.0 0.0 0.0 0.0
0000c0 00 00 00 00 00 00 00 00 00 00 00 00 00 00 00 00
       0.0 0.0 0.0 0.0
0000d0 00 00 00 00 00 00 00 00 00 00 00 00 00 00 00 00
       0.0 0.0 0.0 0.0
0000e0 00 00 00 00 00 00 00 00 00 00 00 00 00 00 00 00
       0.0 0.0 0.0 0.0
0000f0 ff ff 7b 3e 00 00 00 00 00 00 00 00 00 00 00 00
       0.24609374 0.0 0.0 0.0
000100 00 00 00 00 00 00 00 00 00 00 00 00 00 00 00 00
       0.0 0.0 0.0 0.0
000110 00 00 00 00 00 00 00 00 00 00 00 00 00 00 00 00
       0.0 0.0 0.0 0.0
000120 00 00 00 00 00 00 00 00 00 00 00 00 00 00 00 00
       0.0 0.0 0.0 0.0
000130 00 00 00 00 00 00 00 00 00 00 00 00 00 00 00 00
       0.0 0.0 0.0 0.0
000140 00 00 a8 3e 00 00 00 00 00 00 00 00 00 00 00 00
       0.328125 0.0 0.0 0.0
000150 00 00 00 00 00 00 00 00 00 00 00 00 00 00 00 00
       0.0 0.0 0.0 0.0
000160 00 00 00 00 00 00 00 00 00 00 00 00 00 00 00 00
       0.0 0.0 0.0 0.0
000170 00 00 00 00 00 00 00 00 00 00 00 00 00 00 00 00
       0.0 0.0 0.0 0.0
000180 00 00 00 00 00 00 00 00 00 00 00 00 00 00 00 00
       0.0 0.0 0.0 0.0
000190 00 00 d2 3e 00 00 00 00 00 00 00 00 00 00 00 00
       0.41015625 0.0 0.0 0.0
0001a0 00 00 00 00 00 00 00 00 00 00 00 00 00 00 00 00
       0.0 0.0 0.0 0.0
0001b0 00 00 00 00 00 00 00 00 00 00 00 00 00 00 00 00
       0.0 0.0 0.0 0.0
0001c0 00 00 00 00 00 00 00 00 00 00 00 00 00 00 00 00
       0.0 0.0 0.0 0.0
0001d0 00 00 00 00 00 00 00 00 00 00 00 00 00 00 00 00
       0.0 0.0 0.0 0.0
0001e0 ff ff fb 3e 00 00 00 00 00 00 00 00 00 00 00 00
       0.49218747 0.0 0.0 0.0
0001f0 00 00 00 00 00 00 00 00 00 00 00 00 00 00 00 00
       0.0 0.0 0.0 0.0
000200 00 00 00 00 00 00 00 00 00 00 00 00 00 00 00 00
       0.0 0.0 0.0 0.0
000210 00 00 00 00 00 00 00 00 00 00 00 00 00 00 00 00
       0.0 0.0 0.0 0.0
000220 00 00 00 00 00 00 00 00 00 00 00 00 00 00 00 00
       0.0 0.0 0.0 0.0
000230 00 00 13 3f 00 00 00 00 00 00 00 00 00 00 00 00
       0.57421875 0.0 0.0 0.0
000240 00 00 00 00 00 00 00 00 00 00 00 00 00 00 00 00
       0.0 0.0 0.0 0.0
000250 00 00 00 00 00 00 00 00 00 00 00 00 00 00 00 00
       0.0 0.0 0.0 0.0
000260 00 00 00 00 00 00 00 00 00 00 00 00 00 00 00 00
       0.0 0.0 0.0 0.0
000270 00 00 00 00 00 00 00 00 00 00 00 00 00 00 00 00
       0.0 0.0 0.0 0.0
000280 00 00 28 3f 00 00 00 00 00 00 00 00 00 00 00 00
       0.65625 0.0 0.0 0.0
000290 00 00 00 00 00 00 00 00 00 00 00 00 00 00 00 00
       0.0 0.0 0.0 0.0
0002a0 00 00 00 00 00 00 00 00 00 00 00 00 00 00 00 00
       0.0 0.0 0.0 0.0
0002b0 00 00 00 00 00 00 00 00 00 00 00 00 00 00 00 00
       0.0 0.0 0.0 0.0
0002c0 00 00 00 00 00 00 00 00 00 00 00 00 00 00 00 00
       0.0 0.0 0.0 0.0
0002d0 00 00 3d 3f 00 00 00 00 00 00 00 00 00 00 00 00
       0.73828125 0.0 0.0 0.0
0002e0 00 00 00 00 00 00 00 00 00 00 00 00 00 00 00 00
       0.0 0.0 0.0 0.0
0002f0 00 00 00 00 00 00 00 00 00 00 00 00 00 00 00 00
       0.0 0.0 0.0 0.0
000300 00 00 00 00 00 00 00 00 00 00 00 00 00 00 00 00
       0.0 0.0 0.0 0.0
000310 00 00 00 00 00 00 00 00 00 00 00 00 00 00 00 00
       0.0 0.0 0.0 0.0
000320 00 00 52 3f 00 00 00 00 00 00 00 00 00 00 00 00
       0.8203125 0.0 0.0 0.0
000330 00 00 00 00 00 00 00 00 00 00 00 00 00 00 00 00
       0.0 0.0 0.0 0.0
000340 00 00 00 00 00 00 00 00 00 00 00 00 00 00 00 00
       0.0 0.0 0.0 0.0
000350 00 00 00 00 00 00 00 00 00 00 00 00 00 00 00 00
       0.0 0.0 0.0 0.0
000360 00 00 00 00 00 00 00 00 00 00 00 00 00 00 00 00
       0.0 0.0 0.0 0.0
000370 00 00 67 3f 00 00 00 00 00 00 00 00 00 00 00 00
       0.90234375 0.0 0.0 0.0
000380 00 00 00 00 00 00 00 00 00 00 00 00 00 00 00 00
       0.0 0.0 0.0 0.0
000390 00 00 00 00 00 00 00 00 00 00 00 00 00 00 00 00
       0.0 0.0 0.0 0.0
0003a0 00 00 00 00 00 00 00 00 00 00 00 00 00 00 00 00
       0.0 0.0 0.0 0.0
0003b0 00 00 00 00 00 00 00 00 00 00 00 00 00 00 00 00
       0.0 0.0 0.0 0.0
0003c0 ff ff 7b 3f 00 00 00 00 00 00 00 00 00 00 00 00
       0.98437494 0.0 0.0 0.0
0003d0 00 00 00 00 00 00 00 00 00 00 00 00 00 00 00 00
       0.0 0.0 0.0 0.0
0003e0 00 00 00 00 00 00 00 00 00 00 00 00 00 00 00 00
       0.0 0.0 0.0 0.0
0003f0 00 00 00 00 00 00 00 00 00 00 00 00 00 00 00 00
       0.0 0.0 0.0 0.0

m_transform.0.0.weight f4 [64, 1, 5, 5]
000000 67 73 9f 3d b1 28 32 be 75 1a 42 3e af 16 2a be
       0.07785683 -0.17398335 0.18955405 -0.16610216
000010 ec 79 5f bd 43 e6 82 3d 43 36 24 be 38 06 24 3d
       -0.054559633 0.06391575 -0.16036324 0.040044993
000020 69 08 f8 3d f0 cb 20 bd e6 47 12 3e 72 0d 9a 3b
       0.12110979 -0.03925699 0.1428524 0.00470131
000030 17 84 61 be 10 6c 32 3e e5 cc 19 3e 60 14 bf 3d
       -0.22023045 0.17424035 0.15019567 0.09330058
000040 bb ac 20 be 3d 76 f2 3d 11 dc b7 3d 5e 46 7c bd
       -0.15690891 0.118389584 0.08977521 -0.061590545
000050 4e 29 67 bc d6 59 c8 bd 6f bd cc bd 70 ba c2 3d
       -0.014108969 -0.0978276 -0.09997069 0.095082164
000060 e1 98 15 3e 8f 4c 57 bd 80 a1 01 3e 36 ff 95 3b
       0.146091 -0.052563246 0.12659264 0.0045775427
000070 e3 76 95 bd 22 87 66 bd b3 4c 93 bd d5 71 66 bb
       -0.072980665 -0.056281216 -0.071923636 -0.0035163064
000080 6b 23 e1 bd 59 5f 31 3e 59 4b 5b be ba 88 3f 3e
       -0.109930836 0.17321528 -0.21415462 0.18704501
000090 e2 0b c0 3c 85 d9 43 be fb 63 70 3d df f3 59 3c
       0.023443166 -0.19125946 0.0586891 0.013302772
0000a0 df 02 f7 3d 02 9d 7e bd 92 db 35 be cd a0 7d 3d
       0.120610945 -0.062161453 -0.1775954 0.06192093
0000b0 a5 36 21 3d 67 f2 4a 3c 23 0a 27 be 8d d4 82 bc
       0.039358754 0.012386895 -0.1631246 -0.015970493
0000c0 4f bb 98 bd b3 aa 01 be 86 28 46 bd 4b ce 53 3d
       -0.07457601 -0.12662773 -0.04837849 0.05171041
0000d0 c9 6b 39 3e b5 2c 06 3e 70 8d fb 3d 48 e7 da bd
       0.18107523 0.13102992 0.122828364 -0.10688645
0000e0 85 f8 02 3e 55 3a 2c bb 22 56 0c 3d f6 10 fa 3d
       0.12790115 -0.0026279886 0.03426183 0.12210266
0000f0 0c cc 04 be b9 b6 55 be fb 47 21 3e 02 ab 28 be
       -0.12968463 -0.20870484 0.15750115 -0.16471484
000100 9b a9 a4 bd d2 76 59 bc 8c 51 27 3e 60 77 ef 3d
       -0.08040162 -0.013272958 0.16339701 0.11692691
000110 ea 3a e5 bd b7 15 6b 3e 39 29 17 be c9 5b 27 be
       -0.111928776 0.22957502 -0.14761819 -0.16343607
000120 c1 f6 fd 3d 6b 35 52 bd f9 82 b8 bd d4 fd bd bd
       0.1240058 -0.051320475 -0.09009356 -0.092769295
000130 9c c9 02 be ae 72 59 3e a0 b9 e1 bd 93 87 a3 3d
       -0.1277222 0.21235153 -0.11021733 0.07984843
000140 d8 6a ba 3d c0 8c 1f 3e d4 e8 42 3e 8d a8 7c 3d
       0.0910241 0.15581036 0.1903413 0.06168418
000150 ec 24 05 3e 51 87 ef bd 9c 78 00 be 69 02 6b bc
       0.13002366 -0.116957314 -0.12546009 -0.014343836
000160 f0 3b dc 3d 7f e1 61 bd 39 27 8e bb 6f 4f 50 3e
       0.1075362 -0.05514669 -0.004338172 0.20342802
000170 ce 0a 88 bd 44 d8 01 3d eb f1 ba 3c cd 6c 82 bd
       -0.06642686 0.031700388 0.022820434 -0.06368408
000180 7b 78 1a 3e fa ac 1b be e0 be 0f 3e af 81 fa bd
       0.15085022 -0.15202704 0.14037657 -0.122317664
000190 74 87 b4 bd 55 5a d3 3d 8f df ec bd ca 3b 2b 3e
       -0.08814898 0.10319964 -0.11566078 0.16722026
0001a0 46 6b 59 be 1d f3 c9 3d 9a af f8 3c 44 20 50 be
       -0.21232328 0.09860823 0.03035717 -0.20324808
0001b0 1f 40 cc 3d 70 6d 82 bd 2e 7d cb bc 2a e8 be bd
       0.09973168 -0.0636853 -0.024839964 -0.093216255
0001c0 63 65 30 3e 75 b2 94 3d e9 b3 1e be da 4a 41 3e
       0.17226176 0.072606005 -0.15498318 0.1887621
0001d0 50 25 1a be 5a ff 19 3e 52 d8 18 3e 67 9f 4d bd
       -0.15053296 0.15038815 0.1492627 -0.050200846
0001e0 35 cb ab bd be aa d2 bd 9d 3e 0e be e5 71 0a 3e
       -0.08388368 -0.10286473 -0.13891073 0.1352001
0001f0 27 66 ce 3d 99 32 ad bd aa 2b 36 be f0 51 35 3e
       0.10078078 -0.08456916 -0.17790094 0.17707038
000200 b7 34 23 be c5 94 8d 3d 4d fd 44 3e 3d ef de 3d
       -0.15938078 0.06913141 0.19237252 0.10885475
000210 a2 68 22 be e3 e8 d5 bd 10 1d 62 3d d9 fa 3b 3e
       -0.15860227 -0.1044481 0.055203497 0.1835741
000220 53 98 8d 3d 7b 4d 31 3e ff 64 1c 3e f4 16 d3 3d
       0.06913819 0.17314713 0.15272902 0.10307112
000230 77 4c 5d 3c 91 26 08 3d e2 f6 6d 3d f0 ad 7f 3c
       0.013507 0.033239905 0.058096774 0.015605435
000240 ea dd 4c 3e 42 41 d1 3d 09 53 08 bd 16 dc 15 3e
       0.20006528 0.10217525 -0.033282313 0.14634737
000250 61 e4 55 3c b4 a2 d4 bd 83 89 2c be fb cb c4 bc
       0.013054938 -0.10382596 -0.16849332 -0.024023047
000260 99 67 f2 bd 71 86 30 3e e8 3b e2 3c f5 33 4b 3e
       -0.11836166 0.17238785 0.027616456 0.19844039
000270 b3 79 2b 3e 41 7b 28 3e 23 8c 47 bc e3 f7 3b 3e
       0.16745643 0.16453268 -0.012179407 0.1835628
000280 76 dd 5b bd fb 76 0a 3c 15 a1 07 3e aa 16 af 3d
       -0.053678 0.008451219 0.13245042 0.08549245
000290 72 10 de bc 46 3e 31 3e 15 bb 6d 3d 89 57 a6 3c
       -0.027107451 0.17308912 0.058039743 0.020305412
0002a0 89 51 87 bd f5 3e 78 3c 9b 3f ad 3d 4e da 08 bc
       -0.066073485 0.015151729 0.084593974 -0.008352829
0002b0 b4 05 0b 3e f0 17 89 3d 77 57 e0 bd 40 d6 0b bd
       0.13576394 0.06694019 -0.109541826 -0.03413987
0002c0 c1 54 bd bc 91 6b 27 be 4e d2 a0 3d 6f 4e 3d bd
       -0.023111703 -0.16349627 0.078526124 -0.04621738
0002d0 4d 43 3a 3e d5 93 8d 3d 25 1f 09 be 02 fa 30 be
       0.18189736 0.06912962 -0.13390787 -0.1728287
0002e0 ae 45 ab 3c 84 91 ba 3b bc 50 5b be 77 bc 84 3d
       0.02090725 0.0056936163 -0.21417516 0.06481259
0002f0 ed 09 0e bd 1a 2b ac bc 72 4b 05 3e e5 1f f1 3d
       -0.034677435 -0.021016646 0.13017061 0.117736615
000300 a0 dc 03 3e 36 0b 96 bc d4 a6 01 3e 55 2c fe bd
       0.1287713 -0.018315893 0.12661296 -0.124107994
000310 53 8d 25 3e 54 d3 c8 bd d6 91 58 bd 10 40 85 bd
       0.16167192 -0.09805933 -0.052873455 -0.065063596
000320 34 a5 a4 bd 85 33 26 be 90 11 c0 bd 93 9b 48 bb
       -0.080393225 -0.1623059 -0.0937835 -0.0030610308
000330 ce 80 9b bd a8 f4 3f 3e 31 46 20 3e 35 93 09 be
       -0.07592927 0.18745673 0.15651776 -0.13435061
000340 2c b9 18 3d 82 7a 43 3d 03 d3 74 bd 98 3a 47 3e
       0.03728597 0.047724254 -0.05977155 0.19455945
000350 ba b9 d5 bc 34 7e 58 be c0 81 10 be d7 65 3d be
       -0.026089538 -0.21141893 -0.14111996 -0.1849588
000360 1e a2 63 bd 02 90 1e 3b 43 75 47 be 73 9b 12 be
       -0.05557453 0.0024194722 -0.19478326 -0.14317112
000370 91 2a 0f be 6a a3 77 3c fc 19 8e bd 1c 1e dc bd
       -0.13981082 0.015114645 -0.0693855 -0.107479304
000380 4f a8 5f bd 68 3a 9c 3c 43 91 f1 bc 3e 6c 64 3c
       -0.05460387 0.019070819 -0.029488211 0.013941823
000390 6f 7d af 3d cc e8 a9 bd 84 f2 3a 3d e3 bb b9 3d
       0.085688464 -0.082963556 0.045641437 0.0906904
0003a0 48 64 dc 3c 9f 84 db bd e3 0b d9 3d 22 aa 08 3e
       0.026903287 -0.10718655 0.1059797 0.1334615
0003b0 2f b0 93 3c c4 b5 93 bd 46 26 d2 3d 14 21 04 3d
       0.018028347 -0.072124034 0.10261206 0.03225811
0003c0 27 85 2c 3c 4b 6f 30 be c9 dd 67 3d 0c 8a b8 bc
       0.010529793 -0.17229955 0.056607995 -0.022526763
0003d0 8a b2 cd 3d 75 b2 02 3e a7 da fc 3d 96 dc 96 3c
       0.10043819 0.12763388 0.12346392 0.01841573
0003e0 37 c1 2f bd 33 cd c9 3d 29 5f 06 3e a9 0b bd 3d
       -0.042908873 0.09853592 0.13122238 0.092307396
0003f0 51 e6 de bc 64 c7 c4 3d 87 eb e6 bd b0 7b f6 3c
       -0.027209433 0.09608343 -0.11275392 0.030088276

m_transform.0.0.bias f4 [64]
000000 b1 05 ea bc c8 24 90 3c b2 b3 57 be d8 d3 f7 bd
       -0.028567167 0.017595664 -0.21064642 -0.12100953
000010 70 ef 0a 3b b4 ff ae bb 5f 07 2f 3e a5 a9 b4 3d
       0.0021199845 -0.005340541 0.17092656 0.088214196
000020 0f bd 14 3e 44 5c 24 3d ec 05 b3 3d ac 58 1c be
       0.14525245 0.040127054 0.08741364 -0.152682
000030 42 b5 2a 3e 16 b7 6b bd 0a ff 3f 3e 87 b9 4e be
       0.16670707 -0.05754765 0.18749633 -0.2018796
000040 88 ff 3c be ba b9 06 3d 39 b8 fb bd f1 4a 39 3e
       -0.18456852 0.032891966 -0.12290997 0.18094994
000050 ed 82 88 3d 9f c5 8d 3d 81 d5 9f 3c 89 fe eb 3d
       0.06665597 0.06922459 0.019510986 0.11523158
000060 76 bb 7d bd 0b f5 d9 3d 32 fd 1b be f5 3a 23 be
       -0.061946355 0.10642441 -0.15233305 -0.15940459
000070 fb 0e 20 3e b3 65 53 be 31 ef dd 3d 60 a0 ea bd
       0.15630715 -0.20644264 0.10836638 -0.1145637
000080 f5 b7 7d 3d 07 5c cd 3d 20 4b 4c 3e 67 43 1b 3e
       0.061943013 0.100273184 0.19950533 0.1516243
000090 09 a8 e6 bd fe 88 00 be eb 5f 10 3d 21 98 f1 3d
       -0.11262519 -0.12552258 0.035247725 0.117965944
0000a0 ea e7 59 3e 37 35 a2 bc bf 11 92 3d 31 45 09 be
       0.21279874 -0.019800765 0.07132291 -0.134053
0000b0 f3 2e d0 bc 82 6d ec bd 96 c6 30 be 5f 01 35 3e
       -0.025413012 -0.115443245 -0.17263255 0.17676304
0000c0 de 1e aa bb b7 c2 0c 3e 18 90 51 3d bd 1c a3 bc
       -0.005191668 0.13746153 0.05116281 -0.019911164
0000d0 6d 73 bb bc 11 74 47 3e fc 0d 06 3e 52 39 06 be
       -0.022882188 0.1947787 0.13091272 -0.13107803
0000e0 80 28 d6 bd e1 9f 07 be 0a 37 05 3e 2e d5 39 3e
       -0.104569435 -0.13244583 0.13009277 0.18147728
0000f0 3e b5 0d 3e ee 78 f6 3d 1c 15 91 3d b9 d5 10 3e
       0.1383867 0.12034784 0.070841044 0.14144029

m_transform.0.3.weight f4 [64, 32, 1, 1]
000000 c4 45 28 3e 60 37 e4 bd 68 29 96 3c ee 8e 54 3d
       0.16432863 -0.111433744 0.01833029 0.05189412
000010 2f 7d 26 be 20 51 ed 3d e5 8d 15 bd fc b7 43 3d
       -0.16258691 0.11587739 -0.036512274 0.047782883
000020 a1 c8 9c 3d 53 9f 53 3d 9b 01 1e bd 6e e4 85 bd
       0.076554544 0.051665615 -0.03857575 -0.0653771
000030 b2 b8 de bd 8a a7 59 3c 6e de 0f be ca c2 01 3e
       -0.108750716 0.013284573 -0.14049694 0.12671962
000040 df d7 19 bc 65 6e 98 bd 9c ff 89 bd 09 1c 1a 3e
       -0.009389847 -0.07442931 -0.06738207 0.15049757
000050 36 f1 f1 3d a2 c3 6e 3c b5 b0 c9 bd 6c de 03 3e
       0.118135855 0.01457301 -0.09848157 0.12877816
000060 3c 4a 20 bd b0 53 bb 3d 46 51 df 3b b0 7e 09 3e
       -0.039133295 0.091468215 0.0068151085 0.13427234
000070 cb 2a 14 be 67 71 bc 3b a3 cf 82 3d 0f 22 06 3e
       -0.14469449 0.0057508233 0.0638726 0.1309893
000080 73 73 cd bd 15 40 14 be cc 6e ea bb 36 01 3e 3e
       -0.10031786 -0.1447757 -0.0071543213 0.1855515
000090 a3 c7 ac bd 5d 97 9d 3d 6c 6a 41 be 51 ac 6f 3d
       -0.08436515 0.07694886 -0.18888253 0.058513943
0000a0 f9 00 12 3d 29 67 c4 bd 6c c9 65 3c 4c ca 00 bd
       0.03564546 -0.09589989 0.0140250735 -0.031442925
0000b0 42 30 76 3b bb 03 f5 bd c3 4b 1c 3e e5 64 11 3e
       0.0037565385 -0.11963602 0.15263276 0.14198644
0000c0 40 24 41 bd 82 48 86 3c ec 44 01 be 8b 43 b7 bd
       -0.04715371 0.016391996 -0.12623948 -0.0894843
0000d0 c7 ce 28 3e a7 46 1c 3e 9b 3f a5 bd f1 c4 1a 3d
       0.1648513 0.15261327 -0.080687724 0.037785474
0000e0 d0 c4 a2 3d 69 13 0a bd fa a6 c9 bd a6 bd 2b bd
       0.07947695 -0.033709917 -0.098463014 -0.04192891
0000f0 65 dd 18 3d 6e 8e 00 be 05 42 21 3e eb 3f d3 bc
       0.037320513 -0.12554333 0.1574784 -0.025787314
000100 3c 5c 2e bc 8d 7b 9f bd 23 67 f7 3d d5 49 0f be
       -0.010642108 -0.07787237 0.12080219 -0.13993008
000110 f9 75 83 3c 9f a6 9c bd 2f 8c ac bd 05 04 09 3e
       0.016047465 -0.07648968 -0.084251754 0.1338044
000120 6a fd 21 be 5a 04 36 3e 71 c2 28 bb 5b 6b 52 3d
       -0.15819326 0.17775097 -0.0025750662 0.051371913
000130 3e 81 06 3e 49 53 81 bd be e6 10 bc 10 e3 cc 3c
       0.1313524 -0.063147135 -0.008844076 0.025010616
000140 dc 4d e5 bd 92 ed 34 3e 3e 3f 01 be 54 67 28 3e
       -0.11196491 0.17668751 -0.12621781 0.16445667
000150 1d 00 65 3c d3 78 1e be 32 33 55 3d 4a 85 8b bd
       0.013977078 -0.15475778 0.052050777 -0.06812532
000160 f5 05 17 be 7f 06 e1 bd ca 24 a3 3d f4 90 fb bc
       -0.14748366 -0.10987567 0.07966001 -0.030708767
000170 4e 1b ca 3d 5e a9 0c be 8b ae bf 3c 5f b9 1b bd
       0.09868489 -0.13736483 0.023398658 -0.03801858
000180 65 c4 dc 3d dc 9c e3 3d d3 6d d3 bd b0 7f a4 3d
       0.10779647 0.11113903 -0.10323682 0.08032167
000190 b9 4c d4 bd 1b 0b 07 bd 55 a0 19 3e 5f bf b3 3d
       -0.10366196 -0.032969575 0.15002568 0.087767355
0001a0 42 76 09 3e ba 19 a0 bd c7 2a 14 3e 38 8a db 3d
       0.13424018 -0.07817407 0.14469443 0.107197225
0001b0 0c b0 90 3c e8 44 2f be 3e ba 51 bd 24 38 a2 bd
       0.01766207 -0.1711613 -0.051203005 -0.07920864
0001c0 54 00 b8 3d 06 8e 7d 3d 94 f6 08 be 80 bf c3 bd
       0.089844376 0.061903022 -0.13375312 -0.0955801
0001d0 41 d6 51 3d cf d8 78 be 78 8b 1c be 56 6a a9 3d
       0.05122972 -0.24301456 -0.15287578 0.08272235
0001e0 cd 30 aa 3d 0c 4d 03 3e c8 4e 89 3d c3 10 8c 3c
       0.08310089 0.1282236 0.067044795 0.017097836
0001f0 ad 14 0a be fa 83 27 bd b9 67 38 3e 7d e6 10 be
       -0.1348445 -0.040897347 0.18008317 -0.14150424
000200 8f 53 ac 3d 4c 28 b4 bd 82 a3 ef bd db 6e f7 bd
       0.08414375 -0.087967485 -0.117011085 -0.12081691
000210 37 6f f3 3d c9 a1 26 be 91 1a 1b 3e 78 99 06 3e
       0.11886447 -0.16272654 0.15146853 0.13144481
000220 61 db e7 3c dc ec fa 3d 31 08 c3 3c ac bd 2f bd
       0.02830285 0.122522086 0.023807617 -0.042905495
000230 82 ad ee 3c 02 04 1c 3e af 80 a3 bd b0 06 cf 3c
       0.02913547 0.15235904 -0.07983529 0.025271744
000240 fc 00 21 bc 10 42 e4 bc b7 e3 20 3e b1 ad d7 3d
       -0.009826895 -0.027863532 0.15711866 0.10531176
000250 1c 82 33 be 89 21 06 3e 6d 1a f0 3c e5 2e bb bb
       -0.17530102 0.1309873 0.029309476 -0.0057123774
000260 dd 6f 32 be fb 32 0d 3e 04 0b b6 3c 27 9a 34 3d
       -0.17425485 0.13788979 0.02222205 0.044092324
000270 7e 4c 9e bd 41 27 98 3d d7 e8 ed 3c 51 a2 31 bd
       -0.077294335 0.07429362 0.02904169 -0.043367688
000280 b3 13 89 3c ac 74 02 3d 74 06 d2 bd 25 d8 38 3e
       0.016733026 0.03184955 -0.10255137 0.18051203
000290 78 9c 3c 3e a1 6b ea bb 02 55 84 bd 33 1a a1 3d
       0.18419063 -0.0071539436 -0.064615265 0.07866325
0002a0 df c1 f2 bd 90 84 ef 3d 1f 2a cd bd 97 2f 23 3d
       -0.11853384 0.11695206 -0.100177996 0.039840307
0002b0 d5 b4 29 be c5 e4 25 be 03 07 b5 bd d2 ce a6 3d
       -0.16572888 -0.1620055 -0.08839228 0.081449166
0002c0 a1 5c bb bc af d3 bb bd 31 29 8b 3a 15 bd 07 3e
       -0.022871317 -0.09171235 0.0010617134 0.13255723
0002d0 65 27 be 3d 7a 63 16 3e 68 f4 c9 bc 6b 9e 88 3d
       0.09284858 0.14686385 -0.024652675 0.06670841
0002e0 4d ba 2c be 41 40 76 3c a8 08 f0 3d ff f8 2f 3e
       -0.16867943 0.015029968 0.11720401 0.17184828
0002f0 31 bd 07 3d 9f 83 a5 bd f4 93 cc bc b0 d6 c9 bd
       0.03313941 -0.08081745 -0.024972893 -0.098554015
000300 cf cd 21 be a0 ba 04 3d 3e d5 18 3b 22 c4 a4 bd
       -0.15801166 0.032404542 0.0023320462 -0.08045222
000310 6e b2 fc bd 54 df 8d 3d f3 96 07 be be 54 0b be
       -0.1233872 0.06927362 -0.13241176 -0.13606545
000320 96 f8 d0 bd dc 53 0d be c1 63 8b bd ad 3a 33 3e
       -0.10203664 -0.13801521 -0.06806136 0.17502852
000330 ca 1d 00 3c 41 18 03 3e 1a f5 0d 3e f8 21 b5 bd
       0.007819602 0.12802221 0.1386303 -0.0884437
000340 52 38 e1 bc ea 69 90 bd 19 5c ab 3d fb 52 0c be
       -0.027492676 -0.070514515 0.083671756 -0.1370353
000350 aa d4 ff 3d ff 41 87 3d a7 30 56 3b 4d 08 e1 bc
       0.12491734 0.06604385 0.0032682808 -0.027469778
000360 31 73 14 3d c0 52 98 3d 8d 1f 66 3c 27 e7 8d 3d
       0.036242668 0.07437658 0.014045608 0.069288544
000370 f7 46 23 bd fe b6 5e b8 55 28 20 be 35 da d3 bd
       -0.0398626 -5.309935e-05 -0.15640385 -0.10344354
000380 61 48 17 3e 07 9b 9e bd fb 73 62 3d d1 4b 21 be
       0.14773704 -0.07744413 0.05528639 -0.15751578
000390 5d 89 27 bd bf 27 68 bb fa 64 1d 3e 2f 7b 0f be
       -0.040902484 -0.003542408 0.15370551 -0.14011835
0003a0 de fd f9 3c 00 d5 9f bd 47 12 83 bd f6 1b 39 3d
       0.030516561 -0.078042984 -0.063999705 0.04519268
0003b0 de 45 f6 bb b9 c4 98 3d 78 eb 08 3e e6 55 e4 3b
       -0.007515653 0.07459397 0.13371074 0.0069682477
0003c0 95 d7 89 3d 96 fe 0f 3e 12 42 11 be fd 8e 81 3d
       0.06730572 0.1406196 -0.1418536 0.06326101
0003d0 21 0f 3d be 75 3b 34 bd 47 32 17 3e 79 cb cc bd
       -0.18462802 -0.044002015 0.14765273 -0.09999747
0003e0 1a af 11 3d da de 13 39 41 b1 42 be 39 cb d9 bb
       0.03556738 0.00014102031 -0.1901293 -0.0066465405
0003f0 ed 94 d5 3d 71 80 db 3c 43 03 c9 bd 2c f2 85 3d
       0.10428796 0.026794644 -0.09815075 0.06540331

m_transform.0.3.bias f4 [64]
000000 ef 28 40 bd 55 5d af 3d bc fa 8e bd f1 a5 04 3e
       -0.046914037 0.085627235 -0.069814175 0.12953927
000010 fc a8 e9 3d 47 6f c4 bc e5 65 cd ba 40 e3 3f be
       0.11409184 -0.023978842 -0.0015670626 -0.18739033
000020 cf f5 df bd c1 8c 35 be cb 4d 6d 3c 47 e6 0e 3e
       -0.10935556 -0.17729475 0.014483879 0.13955031
000030 e1 84 55 bd 9c 97 59 bb 47 aa d0 bd be 9a 10 3e
       -0.052128676 -0.0033201938 -0.10188728 0.1412153
000040 0d 73 1d 3e 5c 45 7e bd 43 74 f0 bd 7b 29 b1 3c
       0.1537592 -0.062077865 -0.11740925 0.021626225
000050 25 2a a2 bd c4 91 c0 3b 06 41 17 3e e6 93 27 3e
       -0.07918195 0.0058767516 0.14770898 0.16365013
000060 e3 ad 7d bd ae 8d fe 3d a4 ef 2b 3e 85 82 b2 3c
       -0.06193341 0.12429367 0.16790634 0.021790752
000070 2b 0e 1e be c7 50 8f bd 44 c3 27 3e 47 99 e6 3d
       -0.15435092 -0.06997829 0.16383082 0.11259704
000080 cd 05 01 3d 95 6c f0 bd 18 f6 db 3d 26 e8 04 3e
       0.031499673 -0.117394604 0.10740298 0.12979183
000090 48 58 a4 bc ba 99 2e be 13 da 3f 3d 27 4e b6 bd
       -0.020061627 -0.1705083 0.04683883 -0.08901625
0000a0 af a6 5e 3c 61 95 1a bd a4 17 23 be cf ab 5f 3d
       0.013589545 -0.037740115 -0.15926987 0.05460721
0000b0 b9 74 23 3e 78 ab fb bc a8 e0 11 be 6c ee 1c be
       0.15962495 -0.030721411 -0.14245856 -0.15325326
0000c0 0f 27 1a 3e 40 ad da bc 86 1a 26 3e f3 b5 ff bb
       0.15053962 -0.02669394 0.16221055 -0.0078036725
0000d0 e7 de 11 be 2d 30 b7 bb a8 eb 1d 3e 89 17 0f bd
       -0.14245187 -0.00559046 0.15421927 -0.034934554
0000e0 c2 7c 7c bd e4 ea 33 be c6 5d 54 3d 13 48 a1 bd
       -0.061642416 -0.17570072 0.05184724 -0.07875075
0000f0 f8 17 b2 bd a9 bc fc 3d 09 c1 0e 3e 04 f7 01 3e
       -0.08695978 0.123406716 0.13940825 0.12691885

m_transform.0.5.running_mean f4 [32]
000000 4a d8 20 3e 8b 18 20 3e 8d 7b 1e 3b 9b 81 48 3e
       0.15707508 0.15634362 0.0024182529 0.1958069
000010 b3 50 c4 3e 3e 04 98 3d 99 90 07 3e 6a 7c 14 3e
       0.3834282 0.07422684 0.13238753 0.14500585
000020 f8 c6 f0 3d 6d a2 3d 3e 6e c7 81 3e c2 aa a0 3e
       0.117567 0.18518992 0.25347465 0.31380278
000030 c8 81 b4 bb 31 da 0e 3d df a3 8c 3d 3d a0 92 bd
       -0.005508635 0.034876052 0.068671934 -0.07159469
000040 86 95 c9 3e 0f 45 90 3c 44 8e 19 3e d7 b4 9c 3b
       0.3937189 0.017611055 0.14995676 0.0047823
000050 5d 54 9c bd fe 16 bb 3e c2 05 8c 3d 40 59 6a 3e
       -0.076332785 0.3654098 0.06837036 0.22885609
000060 89 3a 8c bd aa 1c c4 bc 08 3c 7f 3e 28 4e 5d 3d
       -0.06847102 -0.02393945 0.24925244 0.054029614
000070 ae cd 2a 3d ef 17 4f 3d 15 4e 62 3e a0 3e 66 3c
       0.041700058 0.050559934 0.22100098 0.014053017

m_transform.0.5.running_var f4 [32]
000000 9f 0f 2c 3d 9f 8b f3 3c 99 47 08 3d 80 dd f5 3c
       0.042007085 0.029729662 0.033271406 0.030012846
000010 32 39 bd 3d 41 3f 12 3d db 34 44 3d 5b 94 80 3d
       0.09239425 0.035704855 0.04790197 0.062782966
000020 7f 3e d4 3c d0 d0 43 3d 6a 16 0d 3e a5 b5 3e 3d
       0.025908707 0.04780656 0.13778082 0.04655995
000030 51 7c d2 3c c3 5d dc 3c 78 85 af 3d 17 68 9b 3c
       0.025694044 0.026900178 0.08570379 0.018970532
000040 eb 7c 48 3d da 22 a0 3c 42 b7 8c 3c bd c2 a6 3c
       0.048947256 0.019547869 0.017177228 0.02035653
000050 f7 f1 25 3d db c9 e4 3d f3 22 16 3d 95 94 12 3d
       0.04051396 0.111713134 0.036654424 0.03578623
000060 7f 8d 9b 3c 04 26 b6 3c 4f 3f ba 3c e2 7f d9 3c
       0.018988369 0.022234924 0.022735266 0.026550237
000070 26 9d 27 3d 71 2b ac 3c 61 ec 9e 3c e1 3a 12 3d
       0.040921353 0.021016808 0.019399824 0.035700683

m_transform.0.6.weight f4 [96, 32, 3, 3]
000000 62 f1 00 bd 16 88 cb bc 93 af 38 bd db 20 92 bd
       -0.0314802 -0.024845164 -0.045089316 -0.07135173
000010 65 c8 00 bd 16 da 5a bd e3 66 f3 3c 00 f6 39 bc
       -0.03144111 -0.05343064 0.029712146 -0.011350155
000020 18 72 61 3d e0 e1 a9 3d 88 06 81 3c de b9 8f 3c
       0.05504045 0.08295035 0.015750185 0.017544683
000030 d2 3b 28 bd 46 bc 63 3b d5 42 7a 3d 69 7c 16 bd
       -0.041072674 0.003474967 0.061098892 -0.03673974
000040 d8 e5 fb 3c f8 d3 14 bc b2 b1 8d bb 23 50 38 3d
       0.030749246 -0.00908374 -0.0043241614 0.0449983
000050 45 16 a1 3b d7 a8 12 3d 42 71 a0 3c c2 aa 68 3d
       0.004915985 0.03580555 0.019585256 0.056803472
000060 87 4a 04 3d bc f6 03 bd 2f a3 2a bc 66 53 9a bb
       0.032297637 -0.032217726 -0.010414883 -0.004709649
000070 1a 90 89 3b dd 69 42 bd 76 0a 83 bd 73 42 0f 3c
       0.0041980864 -0.04746424 -0.0639848 0.00874387
000080 1a 34 fe bc 07 38 30 3c 43 ac 0f 3d 4a 96 56 3b
       -0.031030703 0.010755545 0.03507639 0.0032743388
000090 5e cc 2f 3d 03 5b 8c 3c c5 1f 40 3c fe 37 39 3d
       0.04291951 0.017133242 0.011726324 0.045219414
0000a0 c2 6a 51 bb 93 dc 52 bd d2 91 41 bd 07 27 0d bd
       -0.0031954502 -0.051479887 -0.047258206 -0.034461048
0000b0 a5 91 17 bd 58 e1 64 3d 19 98 b1 3c 2d 0c 08 bc
       -0.03700413 0.055878967 0.021678971 -0.008303684
0000c0 3c 1c 59 bd 64 32 93 bb 0a b6 4b bd 60 ec 00 3d
       -0.053005442 -0.004492091 -0.049734153 0.031475425
0000d0 0e 82 83 3c ab 4f 82 3a 03 95 29 bd 19 23 19 bd
       0.016053226 0.0009941956 -0.041401874 -0.037386987
0000e0 1a 84 43 3d 0b 26 95 ba 63 bc 92 3c 75 01 02 3d
       0.047733404 -0.0011379136 0.017912095 0.03173967
0000f0 ee 47 89 3a c2 1e 56 bd 96 c9 47 3d da 28 b8 bc
       0.0010473707 -0.052275427 0.04877623 -0.022480417
000100 63 6f 8d bc 5e fd 5c bd ce dc 8b bd 0b 0f 34 3d
       -0.017265027 -0.053952567 -0.068292245 0.04395966
000110 4c 5f 31 bc fe ca 93 bc f7 86 39 3d fa ad c8 3c
       -0.010825943 -0.01804113 0.045294728 0.024497021
000120 cd 03 2c bd 74 72 47 3b 23 e1 11 3d 8b d7 90 bd
       -0.041995812 0.003043321 0.035615098 -0.070723616
000130 5e 31 0c 3c 5a 7c 75 bc bb cc f2 bc f5 4a 41 3d
       0.008556692 -0.014983261 -0.029638639 0.047190625
000140 f9 79 1e 3d f4 be 16 bd d6 4f 2e 3c 62 72 74 bd
       0.03869054 -0.0368032 0.010639152 -0.059679396
000150 63 64 55 3c 13 a8 cb bb 2f b3 8a bd 62 a3 11 3d
       0.013024422 -0.0062151044 -0.06772458 0.035556205
000160 a2 b9 25 bd e0 45 61 bc ae 02 50 3b 58 35 e8 bc
       -0.040460236 -0.01374957 0.0031739878 -0.028345749
000170 b1 fe 6c bd 41 9f ba 3b ce 31 96 bc 4f e6 6e bc
       -0.05786008 0.005695254 -0.018334296 -0.014581277
000180 b3 fb 18 3d d4 61 d7 3b 45 2b 19 bd 73 98 4b 3d
       0.037349414 0.0065729413 -0.03739478 0.049705934
000190 0c c2 59 bd 5a 21 82 bd 8f df 27 3d 5f 59 90 bc
       -0.053163573 -0.063540176 0.040984686 -0.01762074
0001a0 07 55 76 bd 53 1f 5a 3d 6e e6 29 bd aa 08 89 bd
       -0.060139682 0.05325253 -0.04147952 -0.06691106
0001b0 0c 59 76 bd f2 45 9e bc b4 a6 05 bd ce e6 05 bc
       -0.060143515 -0.019320462 -0.032629684 -0.008172704
0001c0 a3 0b cc 3c 2c a0 4f ba 84 62 6d 3c 03 f8 bd ba
       0.024907893 -0.0007920291 0.01448882 -0.0014493469
0001d0 ca b3 1e bd d4 fe 87 bd 27 5c 3b bd f9 70 f2 3b
       -0.03874568 -0.066404015 -0.04574218 0.0073987213
0001e0 bd 41 90 b7 a1 8d 5a bd fd 6f 41 3d 24 95 20 bb
       -1.719675e-05 -0.053357724 0.04722594 -0.0024502957
0001f0 ad 39 3e bd be 49 89 3d c0 1b 11 bd 07 22 9c 3c
       -0.046441723 0.06703518 -0.035426855 0.019059194
000200 c7 3f 2a 3c 33 02 12 bd 67 80 a5 bb d3 ed 1b bd
       0.010391182 -0.03564663 -0.005050707 -0.038068604
000210 3b d9 6a 3b c9 ff cd bc d4 42 ed bc 71 91 3c bd
       0.0035835046 -0.025146382 -0.02896253 -0.04603714
000220 17 dd c9 bd 68 50 aa bd 2d b6 15 3d 47 3e bd bc
       -0.09856623 -0.083161175 0.03655069 -0.023100985
000230 67 44 43 bd 7e d2 d0 3c 85 9c 5c bd 82 da b5 bc
       -0.047672655 0.025490995 -0.053860206 -0.02219892
000240 44 ac b8 3c 43 1d fa bc 52 2c 37 bd 79 e1 6d 3d
       0.02254308 -0.030531531 -0.04472 0.058076356
000250 33 a1 57 3d 74 d6 19 bd 02 50 86 3d 19 97 b6 bb
       0.052643966 -0.037558034 0.06558229 -0.0055722115
000260 a5 cb 58 3d 02 a6 82 bd 5e 0e a3 3c 6a aa 60 bd
       0.052928586 -0.0637932 0.019904312 -0.05485002
000270 cb 37 10 3d fa 68 e9 3c 38 61 8b 3d 9c 56 69 3d
       0.03520946 0.02849244 0.068056524 0.056967363
000280 5f c9 83 3d 1e 89 30 3d 0e 64 c5 bc 56 48 17 bd
       0.06434893 0.043099515 -0.024095561 -0.03693422
000290 e9 18 be 3c 7c d9 35 bd fd d4 05 bd ad a5 14 bd
       0.023205237 -0.044396862 -0.032673825 -0.036290813
0002a0 1d cb 42 3c da bf a0 bb b0 d0 69 bb e3 91 75 bd
       0.011889246 -0.004905683 -0.0035677366 -0.05995358
0002b0 a5 58 4b bd ac 3a a0 3b 6a 80 de bd e5 18 cb bc
       -0.049645085 0.0048898067 -0.10864337 -0.024792144
0002c0 ff 72 74 3c da 8c de bc b7 79 70 3c bb 21 46 3c
       0.014919995 -0.027166773 0.014677457 0.012093003
0002d0 42 2c 4f 3d 75 19 b4 3c 80 49 ac bc f4 e9 64 bd
       0.050579317 0.021984795 -0.021031141 -0.055887178
0002e0 a2 93 4c 3d 53 bf 4a 3c 24 16 8d 3d 7d 0b 53 3d
       0.04994548 0.012374717 0.068889886 0.051524628
0002f0 10 4e 20 bd 15 6e b0 3b b5 61 4c bc b3 4f 94 3c
       -0.039136946 0.0053842166 -0.012474467 0.01810441
000300 91 31 1c bd 3f 52 8c 3d f3 f9 84 bd 19 a2 75 3d
       -0.038133208 0.06851625 -0.064929865 0.05996904
000310 81 59 24 3d 7b 9d a2 ba 30 a8 92 3c 59 90 43 3c
       0.04012442 -0.0012406552 0.017902464 0.011936271
000320 cd 7f b5 3c 87 82 eb 3c d4 f3 de bc 46 c3 41 3d
       0.022155667 0.028748764 -0.027215876 0.047305368
000330 9a 74 87 bd 6f d1 b2 3c 93 71 84 3c 8a 92 35 bd
       -0.06614037 0.021828381 0.016167438 -0.044329204
000340 2d 29 8c 3c 98 7b 29 bd d5 b5 ae 3c 54 b2 a0 3c
       0.017109478 -0.041377634 0.021326939 0.019616283
000350 88 41 a6 bd 22 07 39 bc 7b d0 f2 3c 67 93 b8 bc
       -0.08117968 -0.0112932045 0.029640427 -0.022531224
000360 04 ab 5e 3d 4d 30 d3 bb 9b 74 a4 3c b2 a5 01 bc
       0.054362312 -0.006444967 0.020075133 -0.00791304
000370 c8 98 bb 3c 74 03 69 bd 73 52 de bc f1 a9 16 3c
       0.0229 -0.05688806 -0.027138924 0.009195791
000380 7f cd 50 3d ee 7a 96 bc 66 8a 5b bc fa c7 64 bd
       0.050977226 -0.018369164 -0.013399696 -0.055854775
000390 6d cb c3 3a 43 0b 10 3d ff 90 d9 3c 6f f2 8a bd
       0.0014937945 0.03516699 0.026558397 -0.06784522
0003a0 12 47 04 bd e0 fb da 3c 5b eb b6 3d 58 a4 98 bd
       -0.03229434 0.026731431 0.08931609 -0.07453221
0003b0 3d 38 14 bd f9 6d f0 3c b9 e9 af bc 96 d7 0e bd
       -0.036186446 0.029349314 -0.021473752 -0.034873568
0003c0 48 1a 8b 3d 48 c5 6a bc b9 b9 1e 3d 0c 8c a2 bc
       0.06792122 -0.014329262 0.038751338 -0.01984217
0003d0 9a f5 1f bc 0c 9c 83 3d 09 61 25 bd fb 8e 6c 3d
       -0.009763146 0.06426248 -0.040375743 0.057753544
0003e0 9c fd 0c 3c 0d ce 28 bd 4f 34 04 bc b6 e5 f4 3c
       0.008605387 -0.04121213 -0.008069112 0.029894691
0003f0 b6 0f ed bc 1d ed 05 bd 89 d8 30 3d de 88 1d 3d
       -0.028938156 -0.032696832 0.043175254 0.038460605

m_transform.0.6.bias f4 [96]
000000 7c 63 c8 3d 68 3d 5a 3d 1c de 84 bd 7f f5 04 3d
       0.097846 0.053281218 -0.064876765 0.032460686
000010 69 c1 d1 3c 18 bd 9c bd 60 97 c9 bc 86 39 97 3c
       0.02560492 -0.07653254 -0.024608314 0.018460046
000020 ab bf 62 bd 24 f5 79 3d 04 c5 b9 bc d8 23 2f 3d
       -0.05535857 0.0610248 -0.022676952 0.042758793
000030 a9 55 68 bc 38 ab 52 bd 80 f0 40 bd 9a 88 38 3d
       -0.014180579 -0.05143282 -0.04710436 0.04505215
000040 3a cb 43 bc 87 72 65 bd 83 75 8e 3b d8 fc 30 bd
       -0.011950308 -0.056017425 0.0043475046 -0.04320988
000050 4e a4 92 bc f2 d2 ec 3c ac b8 a2 3c 04 af ed bc
       -0.017900612 0.02890918 0.019863449 -0.029014118
000060 4c a3 e6 bc d2 97 45 3d f2 0b 18 3d 21 0d 28 3c
       -0.028154038 0.04824049 0.037120767 0.010257036
000070 f9 33 00 bd e1 11 e7 bc ab 2b 83 bd 14 ad 0a bc
       -0.031299565 -0.028206768 -0.064048134 -0.008464117
000080 21 ab 15 3d 45 92 82 bc 81 e3 22 bd 5e 75 a7 3d
       0.036540154 -0.015938887 -0.039767746 0.08176683
000090 5a 9d 03 bb ca 82 88 bd 14 20 4a bd 0e c1 8d bb
       -0.0020082803 -0.06665571 -0.049347 -0.0043259924
0000a0 f1 81 6d bd 7f e6 35 3d ba 65 07 3d 94 ca 89 3d
       -0.05798525 0.04440927 0.033056 0.06728092
0000b0 81 f1 13 3c 11 95 25 bd 04 3f 24 bd f7 12 f6 3b
       0.009029747 -0.040425364 -0.04009916 0.007509585
0000c0 fe 67 2f bc f6 95 0a bd 9e f7 6f 3d 7e 1f 84 3c
       -0.010705946 -0.03383442 0.058585756 0.016128298
0000d0 28 fa 22 3d 60 54 2c 3d 06 3a df bc 8e b9 b8 bc
       0.03978935 0.042072654 -0.027249347 -0.022549417
0000e0 d0 0a e9 3c 36 e1 b5 3c 83 76 73 3d 07 53 4c 3d
       0.028447539 0.022202116 0.059439193 0.04988387
0000f0 71 bb 99 3d 65 6c 26 bd a0 6e 57 ba 50 1e 92 3c
       0.07506455 -0.040630717 -0.00082180835 0.01783672
000100 a6 a2 80 3d 6c 35 bc 3d 47 73 a1 3c ee 5c 22 3d
       0.06281023 0.09189877 0.019708289 0.039639406
000110 3c 2f a1 bc bd 28 49 bd 97 04 65 3d 12 bd 7a 3d
       -0.019675843 -0.049111117 0.05591258 0.061215468
000120 f2 1c 2c 3c 1b bd 7a bd b0 a7 55 bb 5c 68 ca 3c
       0.010504948 -0.0612155 -0.003260117 0.024707966
000130 02 c3 80 3c 0d 7b 8a 3c 1b 22 7a bb b4 ea 82 bd
       0.015717987 0.016904378 -0.00381673 -0.06392422
000140 47 c0 52 bd cd 10 e3 3c 79 50 87 3b b4 b3 9e bd
       -0.0514529 0.027717972 0.004129466 -0.077491194
000150 fc fe 35 bc c9 3c bf 3c 00 56 46 bd ef f0 83 bd
       -0.011108156 0.023344414 -0.04842186 -0.06442439
000160 00 fc 0c 3d 11 49 85 bd e3 05 44 bd b3 a3 97 bd
       0.034420013 -0.06508077 -0.047857177 -0.0740427
000170 71 1c 28 bc 83 9d ae bc 82 8d af 3c 84 5a 70 3d
       -0.010260687 -0.021315342 0.02142978 0.058680072

m_transform.0.9.running_mean f4 [48]
000000 b6 58 62 3f 3e cd 70 3f c0 2e 78 3f 60 28 ba 3f
       0.8841661 0.94063175 0.96946335 1.4543571
000010 35 cd 5d 3f 85 b2 59 3f 10 79 50 3f e1 76 4f 3f
       0.86641246 0.85038024 0.81434727 0.8104077
000020 bd 1f 75 3f f2 e6 60 3f 0d 78 5f 3f af 2c 43 3f
       0.95751554 0.87852395 0.8729256 0.76240057
000030 cf 6e 53 3f 06 3e 77 3f 9a e2 79 3f 33 55 61 3f
       0.82590955 0.96579015 0.9761139 0.8802063
000040 6e 4d 5c 3f aa dc 45 3f f2 c9 54 3f a8 23 9f 3f
       0.8605565 0.7728983 0.83120644 1.2432756
000050 6c c6 77 3f 25 03 61 3f 3d 08 64 3f 9a d7 5a 3f
       0.9678714 0.87895423 0.8907507 0.8548523
000060 19 09 5b 3f de 7e 7d 3f e0 33 5b 3f 4f c8 98 3f
       0.85560757 0.9902171 0.8562603 1.1936129
000070 01 5e 62 3f cf a4 58 3f e5 e6 98 3f 17 a7 84 3f
       0.8842469 0.8462648 1.1945463 1.0363492
000080 4d 8c 57 3f 62 53 74 3f 17 8d 54 3f 31 b0 54 3f
       0.84198457 0.9543973 0.83027786 0.83081347
000090 10 c1 59 3f 8a 56 3f 3f 73 61 89 3f 47 50 7b 3f
       0.85060215 0.74741423 1.0732864 0.9816937
0000a0 de a2 83 3f 6a 3e 61 3f ae 0d 66 3f 2d fc 81 3f
       1.0284078 0.8798586 0.89864624 1.0155083
0000b0 73 62 88 3f 28 a9 91 3f 4b 22 38 3f 0a a0 74 3f
       1.0655044 1.1379747 0.71927327 0.955567

m_transform.0.9.running_var f4 [48]
000000 e3 9e b8 3e d0 c2 76 3e 9a 69 d7 3e bb 8a b1 3e
       0.3605872 0.24097753 0.42072755 0.34676155
000010 f7 13 9e 3f 0b 6f 0a 3f 3b 18 f8 3e 9f df 5a 3f
       1.2349843 0.5407569 0.48455986 0.8549747
000020 08 a5 f5 3e 0d 57 b9 3f 9f fb cb 3e 89 36 14 3f
       0.4797747 1.4479691 0.3984041 0.57895714
000030 8e ca 4b 3f 99 1f 8e 3e 1d 48 3f 3f 70 b9 3b 3f
       0.7960595 0.27758482 0.7471941 0.7332983
000040 d1 ca 1a 3f 21 4d 34 3f 97 d6 df 3e 45 07 a3 3e
       0.60465723 0.7043019 0.43718407 0.31841484
000050 e9 f4 ca 3e 8e ff 87 3f e1 53 9e 3f 41 4a 50 3f
       0.39639977 1.0624864 1.2369348 0.813633
000060 76 88 af 3e c6 8f c5 3e 57 9d 26 3f f7 94 5a 3f
       0.342838 0.38586253 0.6508383 0.8538355
000070 bb a1 85 3f 6e bd cc 3f b3 39 de 3e 70 53 40 3f
       1.0439981 1.5995309 0.43403396 0.75127316
000080 64 79 da 3e eb b0 04 3f 08 38 32 3f 94 62 a3 3e
       0.4267074 0.51832455 0.69616747 0.31911147
000090 48 58 23 3f 9e 85 9e 3e 4f d2 d5 3e 61 32 8d 3f
       0.6380658 0.30961317 0.41762015 1.1031
0000a0 72 28 85 3e 75 ed 86 3e f2 d3 8d 3e 17 c0 6f 3f
       0.2600742 0.2635304 0.27700764 0.9365248
0000b0 27 42 c3 3e 2f 43 52 3f 2f 30 49 3f d6 29 a1 3f
       0.38136408 0.82133764 0.7858915 1.2590892

m_transform.0.10.weight f4 [96, 48, 1, 1]
000000 73 7f 6e 3d 0e 99 94 3d bc 04 48 3d 20 22 b6 bd
       0.058227014 0.07255755 0.04883264 -0.088932276
000010 08 e8 0f bd 42 10 48 bd 20 81 ef 3d c9 91 3f bd
       -0.03513339 -0.04884363 0.116945505 -0.04676989
000020 42 2c 47 3c ec 91 d7 3d 55 d5 91 bd 0d 2b 35 bd
       0.012156548 0.10525879 -0.07120768 -0.04423051
000030 69 06 90 bd f9 54 19 3e c3 3e 72 3d c7 71 78 3d
       -0.07032473 0.14973821 0.059141885 0.06065538
000040 f9 0f 00 3e 9a 8a 52 3d f9 11 fd 3d 39 48 11 be
       0.12506093 0.051401712 0.12356944 -0.14187707
000050 ea 36 6b 3d 09 03 ac 3d 0f 66 44 bd ba 68 23 bd
       0.057425417 0.083990164 -0.047948893 -0.039894797
000060 b1 36 91 bd 40 e3 13 be 62 6c 9f 3d 42 e2 4f bd
       -0.0709051 -0.14442158 0.07784344 -0.050752886
000070 8b 78 b7 3d 51 2e e8 3b 93 2c d1 bc c9 1d b1 bd
       0.089585386 0.0070855995 -0.02553395 -0.08648259
000080 bb d2 ba bd 84 0d 90 3d 98 9b 90 3d ba 59 a7 3d
       -0.09122225 0.07033828 0.07060927 0.08171411
000090 ac 8c 08 3e cf 29 9b bd 88 2f 70 bd 02 6a 2e bd
       0.13334912 -0.07576334 -0.05863908 -0.042581566
0000a0 e4 e5 63 3d 9b 52 ba bd c1 7c 04 3e e8 80 f4 3d
       0.055639163 -0.09097787 0.12938215 0.119386494
0000b0 c5 1a ca bd 4c 31 25 bd 3c 8c 1a 3d 86 28 54 3d
       -0.09868387 -0.040330216 0.037731394 0.05179646
0000c0 c8 66 fb 3b 13 09 08 3e d0 da e1 3d 4a ae aa bd
       0.0076721646 0.13284712 0.11028063 -0.08334024
0000d0 d7 94 bc 3d 26 5f dc 3c 17 0c 6e 3d 5a ea 8b 3c
       0.092080764 0.026900839 0.058117 0.017079521
0000e0 76 0d 99 3d d4 e2 51 3d 76 72 55 3d 9d ac 39 bd
       0.074732706 0.05124171 0.05211111 -0.045330632
0000f0 1a 2c 17 3e c6 af e7 bb 27 41 cf bc bd 01 b4 3d
       0.14762917 -0.0070705144 -0.025299622 0.08789394
000100 5c 4a a8 3d 46 96 4a bd 91 77 ab 3c a2 3e 96 bc
       0.08217308 -0.04945972 0.020931037 -0.018340413
000110 97 0c 92 3d 01 79 87 ba 36 e6 8d 3c 52 fc 9d bc
       0.071313076 -0.0010335745 0.017321687 -0.019285355
000120 b6 5e c1 3d cd bc a0 3d ac b1 7b 3d a5 53 c6 bc
       0.09441893 0.07848511 0.061448738 -0.024209807
000130 36 90 1f 3e 79 45 a5 bd 22 ac a2 bd 5b 3e 11 be
       0.15582356 -0.080698915 -0.07942988 -0.14183943
000140 46 f6 e9 bd 60 11 7a 3d 6e 60 c3 bd 7d 78 7a bd
       -0.11423926 0.061051726 -0.09539877 -0.061150063
000150 16 48 58 bc 55 75 f5 3d e0 44 a1 bd e4 04 18 3c
       -0.01320078 0.1198527 -0.07874465 0.00927851
000160 3b 22 a7 3d af 0e b8 bd 26 4e 02 3e 15 e6 f9 bd
       0.08160826 -0.08987176 0.12725124 -0.12202088
000170 16 1f 65 3d 1a 70 7c 3c 02 75 11 3e 48 ad 77 3d
       0.05593785 0.0154075865 0.14204791 0.06046799
000180 9c c8 b2 bd 3e a4 f4 bd b0 3f 58 bd 6d 13 a8 bd
       -0.087296695 -0.11945389 -0.052795112 -0.0820683
000190 84 8b 50 3d da 0f d1 bd a6 73 14 bd 6d 6b e9 bd
       0.050914302 -0.102081016 -0.036243103 -0.11397443
0001a0 25 16 c9 bd 74 cc 68 bc b6 81 88 bd 74 fe b6 3c
       -0.09818677 -0.014208902 -0.066653654 0.02233813
0001b0 98 e5 53 bd f1 b0 ff bc 2e 0a 6c bb 0f 5a c2 bb
       -0.05173263 -0.031212302 -0.003601681 -0.005931146
0001c0 de b3 1f 3d 77 0c f1 3d cf f9 12 3c ef e3 5f bd
       0.038989894 0.117699556 0.008970692 -0.054660734
0001d0 7c 2c b8 bd a3 09 6c bb 5a aa e2 3d c2 66 d1 bd
       -0.0899286 -0.0036016486 0.11067648 -0.102246776
0001e0 95 ce 28 bd 61 70 f7 3d c1 56 7d 3d 63 9f 91 bd
       -0.041212637 0.120819815 0.061850313 -0.07110479
0001f0 c1 26 dd 3b 9f 2f aa bd 41 05 fd 3c 21 48 69 3d
       0.0067490046 -0.08309864 0.030886294 0.056953553
000200 b5 d5 fb 3d 1d b4 0f 3d f6 f5 de bd a8 8a b9 3d
       0.12296621 0.03508388 -0.10886757 0.0905965
000210 37 2f f5 3d 1b 01 a9 3d 33 a0 04 3e 0b d6 37 bc
       0.11971896 0.08252164 0.12951736 -0.011220465
000220 56 a5 af 3c 1f c9 28 bd 78 7b 03 3e 1a ff 5d bc
       0.021441143 -0.04120743 0.12840068 -0.0135495905
000230 cf 32 92 3d 69 f4 80 bd 6c 71 cd 3d e4 43 6c 3d
       0.07138597 -0.062966175 0.10031399 0.057681933
000240 b0 6f 06 be 2b cd 2f bd bf eb de 3d 0f 9e d8 3d
       -0.13128543 -0.042920273 0.10884809 0.10577022
000250 49 ef 5b 3d 30 4a bc bd a0 5b e6 3d bf 44 23 3d
       0.053694997 -0.09193838 0.11247945 0.039860483
000260 9c 61 a4 bd a3 c5 e7 bd 2e 53 9e 3b 46 9f 4f bd
       -0.0802643 -0.11316993 0.004831693 -0.050689004
000270 47 80 0f be c6 3b 38 3d 0d a0 e5 bd fc 87 02 be
       -0.14013778 0.04497888 -0.11212168 -0.12747186
000280 b5 12 80 bc e4 8a 5c bc 7a 65 0a bd 01 37 0b 3e
       -0.01563392 -0.0134608485 -0.03378818 0.13595201
000290 5f e2 ab bd 8e 42 bf 3d c2 3c 9e bd 8a 07 08 be
       -0.08392786 0.09338866 -0.077264324 -0.13284126
0002a0 06 97 2a be b1 3d 1a 3e b1 70 16 3a 02 c6 0a bd
       -0.16659173 0.15062596 0.0005738838 -0.03388024
0002b0 bc e6 4b 3d 3d fa 31 bd 7e da c2 bc 63 2e 84 bc
       0.049780592 -0.043451536 -0.023785826 -0.0161354
0002c0 0b 67 70 bd 1b 97 a9 3d e7 27 da bd c3 15 b1 bd
       -0.05869202 0.08280774 -0.10652142 -0.08646729
0002d0 eb 16 74 bd 28 51 8b bd 59 db f2 3d 7e b5 fc 3d
       -0.05959217 -0.06802589 0.118582435 0.123393044
0002e0 c6 7d f4 bd 54 f0 bd 3d b3 49 01 3e e6 61 94 bb
       -0.11938052 0.092743546 0.1262577 -0.004528272
0002f0 48 9e bc bd da 43 04 3e ae f5 01 3e 1d 38 fb bc
       -0.09209877 0.12916508 0.12691376 -0.030666405
000300 72 95 85 bd 79 63 f1 bc 0d 23 dc bd 89 63 c7 3d
       -0.06522645 -0.029466378 -0.10748873 0.09735782
000310 a8 50 e0 3d 2b 2c 87 3b e8 b3 8b 3d a4 c4 02 3e
       0.10952884 0.0041251383 0.06821424 0.12770325
000320 7c 2f 4b bd b2 cc f9 3c b2 04 b5 bd 6c f4 0a 3e
       -0.04960583 0.030493114 -0.08838786 0.13569802
000330 6d ba 7e 3d e7 3f 8e bd 6c f5 bc bd ba e9 a8 3d
       0.06218951 -0.06945782 -0.09226498 0.08247705
000340 15 01 6b 3c f2 bb c6 3d 47 a6 47 bd 80 1a 00 3c
       0.01434352 0.097038165 -0.04874256 0.007818818
000350 da f0 a6 bd f7 40 ea bd 36 12 ae bd b9 60 cf 3d
       -0.081514075 -0.11438172 -0.08499567 0.1012587
000360 c6 11 1e bd 25 c4 f5 3c 74 f6 be 3d 05 72 68 bd
       -0.03859117 0.030000756 0.09324351 -0.056749362
000370 82 9d ac bd c4 56 a6 bc 01 3a 79 3d ae a0 bf 3d
       -0.0842848 -0.020305045 0.060846332 0.09356819
000380 42 70 bf 3d 16 cb 82 3c 06 54 16 3e 05 6b 32 3e
       0.09347583 0.01596598 0.1468049 0.17423637
000390 03 6b 5d bd 7a bf 0a bc 53 41 ba 3d 93 56 ad bd
       -0.054057132 -0.008468503 0.09094491 -0.08463778
0003a0 70 d7 98 3d ab ac 6a 3c 3a 53 33 3d 25 ba af 3d
       0.074629664 0.014323394 0.043780543 0.08580426
0003b0 5a 50 56 3d a8 bb 3f bc cb 91 7d bb 1e d1 cf bd
       0.052322723 -0.011702456 -0.0038691636 -0.10147308
0003c0 0f 8d 67 bd 7b ef 81 bd 79 be e4 3c 1f 06 99 bd
       -0.05653101 -0.063445054 0.027922856 -0.07471871
0003d0 b6 9f 8b 3c 31 86 cf 3d 4b 7d 3c bc 58 d3 a7 bd
       0.01704393 0.10133017 -0.011504482 -0.081946075
0003e0 77 00 9c 3d 22 18 97 ba d6 0b 04 be 3e 34 3b bd
       0.07617276 -0.0011527578 -0.1289514 -0.04570412
0003f0 0f fb 05 3e bd c2 d6 3d b9 34 1a 3d 48 ac 87 3d
       0.13084053 0.10486362 0.037647936 0.06624657

m_transform.0.10.bias f4 [96]
000000 16 c8 e6 3d 6a 56 5e 3d 3a 96 04 bc 19 18 35 3d
       0.11268632 0.05428163 -0.008092457 0.044212434
000010 f1 a9 3c 3d e7 00 b6 bd 26 8e 89 bd ec bf 00 be
       0.046060506 -0.08886891 -0.06716566 -0.12573212
000020 3a 88 08 be 7a 5b 10 be d2 27 05 be 60 c8 03 3e
       -0.13333216 -0.14097396 -0.13003471 0.12869406
000030 b0 48 37 bd 34 5d 14 be fb 3a bf 3c 41 ee c6 3d
       -0.044747055 -0.14488679 0.023343554 0.09713412
000040 d5 8c 01 3c 73 f2 aa 3d 9a 1d 93 bd 35 4c 15 bd
       0.007907112 0.08347025 -0.071833804 -0.03644963
000050 83 6c e6 3d 05 b0 90 bd 2f 9c b7 3d db 0d 19 3e
       0.11251166 -0.07064823 0.089653365 0.14946692
000060 1b c0 f4 3c a8 91 b2 bd a8 1f 95 bc f4 45 b5 3d
       0.02987676 -0.08719188 -0.018203571 0.08851233
000070 12 c7 74 3d 2a c6 1d 3e ea 5f fe bd c3 57 17 3e
       0.05976016 0.15407625 -0.12420638 0.14779572
000080 47 30 05 bd eb fd 5f 3d 8d fe 82 3d c7 1f 7b bd
       -0.032516744 0.054685514 0.06396208 -0.061309602
000090 49 91 de 3d 9d f2 83 3d e3 9a 88 bb 80 b2 61 3d
       0.10867555 0.06442759 -0.0041688546 0.05510187
0000a0 53 e9 15 bd 65 b3 b2 bd b6 25 8e bd f2 75 f9 bd
       -0.03659947 -0.08725623 -0.069407865 -0.121806994
0000b0 62 b8 21 3c e2 d7 0a be ce 40 b3 bb 3d a3 0d 3e
       0.00987062 -0.13558915 -0.005470372 0.13831802
0000c0 fb 76 7e bd 06 f7 0a 3d 9f fe 1a 3d 85 f2 d3 3d
       -0.062125187 0.033926986 0.03784048 0.10348991
0000d0 c5 2d 9e 3d c8 89 86 bd 6c c1 15 bd 3b c3 6c bc
       0.077235736 -0.065692484 -0.036561415 -0.014450843
0000e0 5f 53 e5 3d 05 7a dc bd 5c 1d 0b 3e 51 e6 0e be
       0.111975424 -0.10765461 0.13585418 -0.13955046
0000f0 5d 50 f9 3d 5e f4 ca 3d e5 48 94 3d 83 18 b5 3c
       0.12173531 0.099098906 0.07240466 0.022106415
000100 36 f3 29 bc a4 11 c1 bd 91 85 cf bd df 8a af 3d
       -0.010372927 -0.09427193 -0.10132898 0.085714094
000110 0e d6 d6 3d 9b 33 b4 bd e9 36 ff 3d 93 ff 1a 3c
       0.104900464 -0.087989055 0.12461645 0.009460348
000120 e3 50 b7 3d 5e b7 5e 3d d3 d3 e6 bb eb d5 b8 3d
       0.08950975 0.05437409 -0.0070442944 0.090251766
000130 69 02 01 be 85 59 b9 3d d1 e9 fa 3d 73 b2 17 be
       -0.12598576 0.090502776 0.12251628 -0.14814167
000140 48 71 04 3e 9c df e0 bd 9b 75 cb b9 c1 f4 7e 3d
       0.12933838 -0.1098015 -0.000388068 0.062245134
000150 ba ae 6b bc b3 a3 1b 3e 73 29 16 3e c4 87 3b 3d
       -0.01438492 0.15199165 0.14664249 0.045783773
000160 a5 cb 02 bd 25 b1 45 3d fe fe a7 bd 1a a0 c9 bd
       -0.03193249 0.04826464 -0.08202933 -0.0984499
000170 dc dd 66 bd e4 1c 22 bb 7f 3f c6 3d aa 6f 8b bd
       -0.056363925 -0.0024736458 0.0968008 -0.068084076

m_transform.0.12.running_mean f4 [48]
000000 60 e0 f3 3e 1f 8f c6 3e 83 25 68 3e 0d ee 05 3f
       0.47632122 0.38781068 0.2267056 0.5231636
000010 28 67 98 3e 1d ac de 3e ad a5 a2 3e 7a 72 2a 3f
       0.29766202 0.43490687 0.31767026 0.6658093
000020 42 6e 68 3e f1 62 51 3e 78 bf 95 3e 6c f8 a8 3e
       0.2269831 0.204479 0.29247642 0.3300203
000030 b0 0f e4 3e 0a 60 f6 3e 12 e6 f4 3e 54 3f a5 3e
       0.4454322 0.48120147 0.4783178 0.32274878
000040 09 89 67 3e 29 d5 a5 3e e7 22 46 3e f2 e3 97 3e
       0.22610869 0.3238919 0.19349252 0.29666096
000050 6a 39 ee 3e c4 30 4a 3e 83 0e c3 3e 0b d1 ab 3e
       0.46528178 0.19745165 0.3809701 0.33557925
000060 6a 57 e7 3e b6 f0 a1 3e 2b 50 c2 3e 2b 1c ab 3e
       0.4518388 0.3162896 0.37951788 0.33419928
000070 a7 a9 0d 3f 8d dc c8 3e 0a a3 dc 3e 3d 25 bb 3e
       0.55336994 0.39230767 0.4309314 0.36551848
000080 2c 80 84 3e aa f6 1e 3e 4a ed b6 3e d2 91 b1 3e
       0.25879037 0.15523782 0.35727912 0.34681565
000090 6f cf b6 3e 08 fb d2 3e 43 dc fd 3e 41 68 ce 3e
       0.35705134 0.41207147 0.4958211 0.40313914
0000a0 af 31 6c 3e 2e f1 70 3e 1d cd bd 3e bd 8d 0f 3f
       0.23065828 0.23529503 0.37070552 0.5607565
0000b0 de 77 65 3e c1 84 b2 3e e5 50 0d 3f 23 e6 88 3e
       0.22409007 0.34866908 0.5520156 0.2673808

m_transform.0.12.running_var f4 [48]
000000 7a 99 ae 3e 13 bf c5 3e ce 73 12 3e d5 12 31 3e
       0.34101468 0.3862234 0.14301988 0.1729234
000010 9f af 53 3e e0 b9 45 3e 15 cb 72 3e d4 94 a0 3e
       0.20672463 0.19309187 0.23710282 0.31363547
000020 45 1f ec 3d e2 3b 20 3e 58 d6 26 3e a8 a2 1f 3e
       0.11529402 0.15647843 0.16292703 0.15589392
000030 8c e9 29 3e 8c d4 1c 3e 10 64 32 3e c9 4f 52 3e
       0.16592997 0.15315455 0.17420983 0.20538248
000040 da 29 1f 3e e4 89 74 3e 2f 64 36 3e 38 cd 30 3e
       0.15543309 0.23880726 0.17811655 0.17265785
000050 b5 38 2f 3e f4 13 5a 3e 37 2d 2b 3e a4 05 17 3e
       0.17111476 0.21296674 0.16716467 0.14748245
000060 11 36 a9 3e 73 3c 82 3e 66 c1 b4 3e 5e 57 89 3e
       0.33049062 0.25436744 0.353038 0.26824468
000070 5b 3c 8f 3e f4 a0 16 3e a0 35 19 3e f7 2f 7b 3e
       0.27975735 0.14709836 0.14961863 0.24530016
000080 9a 02 1b 3e aa d3 26 3e b1 a6 d5 3e 46 7a b1 3e
       0.15137711 0.16291681 0.41728738 0.346636
000090 01 20 3a 3e 99 4d 4b 3e 11 06 23 3e d3 b2 72 3e
       0.18176271 0.1985382 0.15920283 0.23701029
0000a0 a8 02 35 3e 15 75 be 3e 41 24 4d 3e 04 88 c1 3e
       0.17676795 0.37198702 0.20033361 0.37799084
0000b0 5c cb 11 3e c9 be 36 3e 2f d1 86 3e 27 4a 27 3e
       0.14237732 0.17846216 0.2633147 0.1633688
