Auxillary Code/LCNN/project/03-asvspoof-mega/lfb-lcnn-attention-p2s/01/__pretrained/trained_network.pt (torch, 775181 bytes, 35 tensors)

m_frontend.0.lfcc_fb f4 [257, 60]
000000 00 00 00 00 00 00 00 00 00 00 00 00 00 00 00 00
       0.0 0.0 0.0 0.0
000010 00 00 00 00 00 00 00 00 00 00 00 00 00 00 00 00
       0.0 0.0 0.0 0.0
000020 00 00 00 00 00 00 00 00 00 00 00 00 00 00 00 00
       0.0 0.0 0.0 0.0
000030 00 00 00 00 00 00 00 00 00 00 00 00 00 00 00 00
       0.0 0.0 0.0 0.0
000040 00 00 00 00 00 00 00 00 00 00 00 00 00 00 00 00
       0.0 0.0 0.0 0.0
000050 00 00 00 00 00 00 00 00 00 00 00 00 00 00 00 00
       0.0 0.0 0.0 0.0
000060 00 00 00 00 00 00 00 00 00 00 00 00 00 00 00 00
       0.0 0.0 0.0 0.0
000070 00 00 00 00 00 00 00 00 00 00 00 00 00 00 00 00
       0.0 0.0 0.0 0.0
000080 00 00 00 00 00 00 00 00 00 00 00 00 00 00 00 00
       0.0 0.0 0.0 0.0
000090 00 00 00 00 00 00 00 00 00 00 00 00 00 00 00 00
       0.0 0.0 0.0 0.0
0000a0 00 00 00 00 00 00 00 00 00 00 00 00 00 00 00 00
       0.0 0.0 0.0 0.0
0000b0 00 00 00 00 00 00 00 00 00 00 00 00 00 00 00 00
       0.0 0.0 0.0 0.0
0000c0 00 00 00 00 00 00 00 00 00 00 00 00 00 00 00 00
       0.0 0.0 0.0 0.0
0000d0 00 00 00 00 00 00 00 00 00 00 00 00 00 00 00 00
       0.0 0.0 0.0 0.0
0000e0 00 00 00 00 00 00 00 00 00 00 00 00 00 00 00 00
       0.0 0.0 0.0 0.0
0000f0 00 00 74 3e 00 00 00 00 00 00 00 00 00 00 00 00
       0.23828125 0.0 0.0 0.0
000100 00 00 00 00 00 00 00 00 00 00 00 00 00 00 00 00
       0.0 0.0 0.0 0.0
000110 00 00 00 00 00 00 00 00 00 00 00 00 00 00 00 00
       0.0 0.0 0.0 0.0
000120 00 00 00 00 00 00 00 00 00 00 00 00 00 00 00 00
       0.0 0.0 0.0 0.0
000130 00 00 00 00 00 00 00 00 00 00 00 00 00 00 00 00
       0.0 0.0 0.0 0.0
000140 00 00 00 00 00 00 00 00 00 00 00 00 00 00 00 00
       0.0 0.0 0.0 0.0
000150 00 00 00 00 00 00 00 00 00 00 00 00 00 00 00 00
       0.0 0.0 0.0 0.0
000160 00 00 00 00 00 00 00 00 00 00 00 00 00 00 00 00
       0.0 0.0 0.0 0.0
000170 00 00 00 00 00 00 00 00 00 00 00 00 00 00 00 00
       0.0 0.0 0.0 0.0
000180 00 00 00 00 00 00 00 00 00 00 00 00 00 00 00 00
       0.0 0.0 0.0 0.0
000190 00 00 00 00 00 00 00 00 00 00 00 00 00 00 00 00
       0.0 0.0 0.0 0.0
0001a0 00 00 00 00 00 00 00 00 00 00 00 00 00 00 00 00
       0.0 0.0 0.0 0.0
0001b0 00 00 00 00 00 00 00 00 00 00 00 00 00 00 00 00
       0.0 0.0 0.0 0.0
0001c0 00 00 00 00 00 00 00 00 00 00 00 00 00 00 00 00
       0.0 0.0 0.0 0.0
0001d0 00 00 00 00 00 00 00 00 00 00 00 00 00 00 00 00
       0.0 0.0 0.0 0.0
0001e0 00 00 f4 3e 00 00 00 00 00 00 00 00 00 00 00 00
       0.4765625 0.0 0.0 0.0
0001f0 00 00 00 00 00 00 00 00 00 00 00 00 00 00 00 00
       0.0 0.0 0.0 0.0
000200 00 00 00 00 00 00 00 00 00 00 00 00 00 00 00 00
       0.0 0.0 0.0 0.0
000210 00 00 00 00 00 00 00 00 00 00 00 00 00 00 00 00
       0.0 0.0 0.0 0.0
000220 00 00 00 00 00 00 00 00 00 00 00 00 00 00 00 00
       0.0 0.0 0.0 0.0
000230 00 00 00 00 00 00 00 00 00 00 00 00 00 00 00 00
       0.0 0.0 0.0 0.0
000240 00 00 00 00 00 00 00 00 00 00 00 00 00 00 00 00
       0.0 0.0 0.0 0.0
000250 00 00 00 00 00 00 00 00 00 00 00 00 00 00 00 00
       0.0 0.0 0.0 0.0
000260 00 00 00 00 00 00 00 00 00 00 00 00 00 00 00 00
       0.0 0.0 0.0 0.0
000270 00 00 00 00 00 00 00 00 00 00 00 00 00 00 00 00
       0.0 0.0 0.0 0.0
000280 00 00 00 00 00 00 00 00 00 00 00 00 00 00 00 00
       0.0 0.0 0.0 0.0
000290 00 00 00 00 00 00 00 00 00 00 00 00 00 00 00 00
       0.0 0.0 0.0 0.0
0002a0 00 00 00 00 00 00 00 00 00 00 00 00 00 00 00 00
       0.0 0.0 0.0 0.0
0002b0 00 00 00 00 00 00 00 00 00 00 00 00 00 00 00 00
       0.0 0.0 0.0 0.0
0002c0 00 00 00 00 00 00 00 00 00 00 00 00 00 00 00 00
       0.0 0.0 0.0 0.0
0002d0 00 00 37 3f 00 00 00 00 00 00 00 00 00 00 00 00
       0.71484375 0.0 0.0 0.0
0002e0 00 00 00 00 00 00 00 00 00 00 00 00 00 00 00 00
       0.0 0.0 0.0 0.0
0002f0 00 00 00 00 00 00 00 00 00 00 00 00 00 00 00 00
       0.0 0.0 0.0 0.0
000300 00 00 00 00 00 00 00 00 00 00 00 00 00 00 00 00
       0.0 0.0 0.0 0.0
000310 00 00 00 00 00 00 00 00 00 00 00 00 00 00 00 00
       0.0 0.0 0.0 0.0
000320 00 00 00 00 00 00 00 00 00 00 00 00 00 00 00 00
       0.0 0.0 0.0 0.0
000330 00 00 00 00 00 00 00 00 00 00 00 00 00 00 00 00
       0.0 0.0 0.0 0.0
000340 00 00 00 00 00 00 00 00 00 00 00 00 00 00 00 00
       0.0 0.0 0.0 0.0
000350 00 00 00 00 00 00 00 00 00 00 00 00 00 00 00 00
       0.0 0.0 0.0 0.0
000360 00 00 00 00 00 00 00 00 00 00 00 00 00 00 00 00
       0.0 0.0 0.0 0.0
000370 00 00 00 00 00 00 00 00 00 00 00 00 00 00 00 00
       0.0 0.0 0.0 0.0
000380 00 00 00 00 00 00 00 00 00 00 00 00 00 00 00 00
       0.0 0.0 0.0 0.0
000390 00 00 00 00 00 00 00 00 00 00 00 00 00 00 00 00
       0.0 0.0 0.0 0.0
0003a0 00 00 00 00 00 00 00 00 00 00 00 00 00 00 00 00
       0.0 0.0 0.0 0.0
0003b0 00 00 00 00 00 00 00 00 00 00 00 00 00 00 00 00
       0.0 0.0 0.0 0.0
0003c0 00 00 74 3f 00 00 00 00 00 00 00 00 00 00 00 00
       0.953125 0.0 0.0 0.0
0003d0 00 00 00 00 00 00 00 00 00 00 00 00 00 00 00 00
       0.0 0.0 0.0 0.0
0003e0 00 00 00 00 00 00 00 00 00 00 00 00 00 00 00 00
       0.0 0.0 0.0 0.0
0003f0 00 00 00 00 00 00 00 00 00 00 00 00 00 00 00 00
       0.0 0.0 0.0 0.0

m_transform.0.0.weight f4 [64, 1, 5, 5]
000000 54 1e d8 3d a7 d3 d0 bd 4f 27 7c bc 5f ba d4 3d
       0.1055266 -0.101966195 -0.015390231 0.1038711
000010 fc 02 34 be b3 c6 f7 3d e6 fb 51 bd 64 4b fc 3d
       -0.17579263 0.12098446 -0.05126562 0.12319067
000020 8c 3b 19 3d 2d 95 46 bc a2 57 63 3d 1c b3 89 bb
       0.037410304 -0.012120527 0.055503495 -0.0042022597
000030 d9 63 c5 3d 5b 2d 89 bd 9d 68 0d bb 37 8a 90 bc
       0.09638185 -0.06698104 -0.0021577247 -0.017644031
000040 ee 41 9c 3c 75 30 c6 3c 9a fa 39 3e bb cc 92 3d
       0.019074406 0.024193028 0.18162003 0.071679555
000050 b6 22 98 bd a2 4e 0c be 59 3a 88 bc c3 6a a3 bd
       -0.074284956 -0.13701871 -0.016629385 -0.079793476
000060 fb 34 6e bd c0 87 34 bc 13 e6 f5 3d 9e fd e6 3d
       -0.058155995 -0.011018693 0.12006774 0.112788424
000070 11 bb 58 be b5 e0 d0 3d db ff 21 3d 1a 05 40 3e
       -0.2116511 0.101991095 0.039550643 0.18751946
000080 b1 47 18 3e 35 6e 4d be d4 91 5d be 02 4a dc bd
       0.14871098 -0.20061572 -0.2163766 -0.10756303
000090 13 85 32 3e 6a 56 97 bc 0d 40 82 3d b7 ea fb bd
       0.17433576 -0.018473823 0.06359873 -0.12300628
0000a0 b3 f9 43 3e 0b 6c b4 bd b7 2f 1e 3e 0d 79 90 bc
       0.19138221 -0.0880967 0.1544789 -0.017635847
0000b0 8c 5e 07 be 77 f7 c9 3d 7f d0 ef bd b9 37 67 3d
       -0.1321966 0.09861653 -0.11709689 0.056449626
0000c0 83 b8 8f bd 91 30 19 bd f0 2f 6d be ad f4 c5 bd
       -0.07017615 -0.037399832 -0.23162818 -0.09665809
0000d0 20 ce eb 3d e6 78 06 bd 1d 69 40 3e 73 da 09 3e
       0.115139246 -0.03283014 0.18790098 0.13462238
0000e0 94 82 66 3b b1 41 00 be b4 20 09 3e 25 1c 34 3d
       0.0035173045 -0.1252506 0.13391382 0.043972153
0000f0 ba e6 0f be 2c 1e 1a 3e 56 0d 02 3e 1d e5 3d 3e
       -0.14052859 0.15050572 0.127004 0.18544431
000100 34 d6 15 be 03 4d e9 bc 46 c4 98 3c 52 bd fa 3c
       -0.14632493 -0.028479105 0.018648278 0.030607853
000110 ff 8a 1a be a6 9d 3b be 12 85 fb 3d cf dd d4 bc
       -0.15092085 -0.18321857 0.122812405 -0.025984673
000120 2a 3c cc 3d 00 90 b1 b8 ba dd 94 3c ad 67 4a 3d
       0.09972413 -8.46684e-05 0.018172134 0.04941528
000130 86 17 8f 3d 49 8d cc 3d 8c ce 48 be 9f ef a9 3d
       0.069869086 0.099878855 -0.19610041 0.08297657
000140 2e 2f 06 be a5 a4 1f be bc 7b 46 3c bf 98 27 bd
       -0.13103935 -0.1559015 0.0121144615 -0.040917154
000150 99 44 ce 3d e4 fc ce bd e7 ec 34 be 70 e5 23 3e
       0.10071678 -0.10106829 -0.17668496 0.16005492
000160 7c 46 b3 bc 28 12 d6 3d cb d6 ac 3d 28 f3 13 be
       -0.021884196 0.10452682 0.08439406 -0.14448225
000170 b4 e1 68 3d 58 72 77 3d 51 c4 0d be d2 86 98 bd
       0.056855872 0.06041178 -0.1384442 -0.0744759
000180 af f5 b0 3d d6 56 6b 3d df 9e 9c bd 6d 7d 80 bd
       0.086406104 0.05745586 -0.0764749 -0.06273923
000190 bd e8 19 3e d2 36 99 bd 4a e7 d5 3d 55 ce 9c 3d
       0.15030189 -0.07481159 0.104445055 0.07656542
0001a0 f7 f9 0c be d9 62 4a be b2 eb 28 3e ad 9d ef 3b
       -0.13767229 -0.1976427 0.1649616 0.0073124976
0001b0 cf e6 05 3e 06 71 17 3d 3f 23 03 3d 52 7f f0 3d
       0.13076328 0.036973022 0.032016035 0.117430344
0001c0 7f fa 3d 3e 0a 8b 0e be f3 21 a9 3c 84 7a 00 3e
       0.18552588 -0.13920227 0.020646071 0.12546736
0001d0 25 f3 fa 3d 01 ad f9 3d 29 5a 18 be ad c8 16 be
       0.122534074 0.12191201 -0.14878143 -0.14724989
0001e0 27 0f 10 be 79 8d 15 3c e1 6b 4b 3e 45 fe 02 be
       -0.1406828 0.009127968 0.19865371 -0.12792309
0001f0 5c b7 db 3d 21 ba de bd d0 a8 44 be 8b da 51 bd
       0.107283324 -0.10875345 -0.19205022 -0.05123381
000200 4a 3b de 3d a6 73 38 3e 1c 21 f5 bd 25 07 20 3d
       0.10851152 0.18012866 -0.11969206 0.039069314
000210 31 dc 27 3e a6 b9 f7 3d 74 f6 ed 3d 53 4a 13 3e
       0.1639259 0.120959565 0.11619273 0.14383821
000220 d5 33 f8 3d bd 96 45 3d 47 e7 11 be 3b 80 31 be
       0.12119261 0.04823946 -0.14248382 -0.17334072
000230 24 0a bb bd 13 f4 04 bd e2 fd 08 be 3a 9b 86 3d
       -0.091327935 -0.03245933 -0.13378099 0.06572576
000240 62 6c 6d 3d 42 3d 27 bd ed 4f 8e 3d d7 1d 4a 3d
       0.05796469 -0.040829904 0.069488384 0.049344864
000250 15 22 e0 3d 6b 97 01 3e e3 15 88 bd cb a3 49 3e
       0.10944001 0.12655418 -0.066447996 0.19691388
000260 ad 14 8c bc ce 0c 61 3a 4a be 40 be ae bc 06 be
       -0.017099703 0.0008584977 -0.1882259 -0.13157913
000270 3a 56 f0 bd 77 47 b8 bd 1d 0d 0e 3e aa 79 93 bd
       -0.117351964 -0.08998006 0.1387219 -0.0720094
000280 5c 80 1d be 9d e3 92 3d ec 73 65 3d 4f ef fe 3d
       -0.15380996 0.0717232 0.056018755 0.12447988
000290 88 7a e2 bd 8f 97 1a 3d 9c b2 9f bd e6 b4 4a bd
       -0.11058527 0.037742194 -0.07797739 -0.049488924
0002a0 81 87 20 be da 47 c1 bd 2e fc 80 bd 68 ef a8 3d
       -0.1567669 -0.09437533 -0.062980995 0.08248788
0002b0 8e 59 e4 3c a0 ae 36 3d 72 b7 44 3e 89 6b 4d 3e
       0.027874734 0.04460013 0.19210604 0.20060553
0002c0 bd fb 0d 3e 01 94 17 bc 83 4a 02 be 2c a6 13 3e
       0.13865562 -0.0092515955 -0.12723736 0.14418858
0002d0 23 85 21 bd 80 aa bb bb 87 59 3b be 7e e1 ed bc
       -0.03943361 -0.0057271123 -0.1829587 -0.029038187
0002e0 ed 00 10 be 03 2e 4a 3e 1c c7 27 be fc 2d 29 be
       -0.14062853 0.19744115 -0.16384548 -0.16521448
0002f0 82 44 d8 3b ea b4 f1 bd 21 39 97 3d 71 eb 9a bd
       0.0065999636 -0.11802085 0.07383943 -0.07564438
000300 7d ee da bd 7c b7 81 3c 83 46 03 3e 5b eb 14 be
       -0.10690019 0.015834562 0.12819867 -0.14542906
000310 3f 9d bc 3d a0 35 ee 3d d6 cc 4b 3e 94 a2 21 be
       0.0920968 0.11631322 0.19902357 -0.15784675
000320 33 78 97 3d 3f 14 fb bd fc e2 36 3e 33 f3 9e bd
       0.07395973 -0.12259721 0.17860025 -0.0776123
000330 e3 c3 ee 3d 58 85 de 3c 49 94 fc b9 d0 b6 02 bc
       0.11658456 0.027163193 -0.00048175667 -0.007978156
000340 0f 3f ef 3c 88 d5 b7 3d 31 b0 3a 3d b7 fe 8d 3d
       0.029204873 0.08976275 0.045578185 0.069333486
000350 76 06 3e be 25 4a 10 3e 2e c2 31 3e 43 cb 43 3e
       -0.18557152 0.14090784 0.1735923 0.19120507
000360 9c 32 2d 3e f1 17 0e be a9 a3 9b bd 9f 41 35 3e
       0.16913837 -0.1387632 -0.07599575 0.17700814
000370 ab 32 04 be 00 a8 50 3e 8e 93 19 be 56 73 0c be
       -0.12909953 0.20376587 -0.14997694 -0.13715872
000380 96 4d cc 3d ae 19 1b be 03 6f ab bd 70 e3 17 3e
       0.09975736 -0.15146515 -0.08370783 0.14832854
000390 64 dd 17 3e 9b 87 3b 3e 50 62 39 bd 6f 01 48 be
       0.14830548 0.18313448 -0.045259774 -0.19531797
0003a0 63 d9 4b 3e 50 1d 50 bd 48 29 ac bd 62 30 30 3d
       0.19907145 -0.050809205 -0.08406311 0.04301489
0003b0 eb 8b 38 be 76 14 11 3e 96 7b ff 3d 07 40 1b be
       -0.18022124 0.14167961 0.12474744 -0.15161143
0003c0 4c 5e 2a be 31 1b 61 bd 9f 6f c5 3d 4e df 87 bb
       -0.16637534 -0.054957572 0.09640431 -0.004146493
0003d0 ef 8b c3 bd 30 8c 54 3a e7 70 64 be f5 58 06 be
       -0.095481746 0.0008108048 -0.22308694 -0.13119872
0003e0 cf 59 09 be d2 c0 2c 3e 90 30 30 3e c7 45 b2 bd
       -0.13413166 0.1687043 0.17206025 -0.08704715
0003f0 a7 ef 7c bc 9c 15 8c 3d 82 30 92 3c 87 0e e2 bd
       -0.015437997 0.06840059 0.017845396 -0.11037927

m_transform.0.0.bias f4 [64]
000000 f3 8e a0 bc 49 57 b6 39 09 68 cb bd 8f e6 24 3e
       -0.019599413 0.00034778778 -0.099319525 0.16103576
000010 82 8e 1a 3e 80 29 d0 bd d1 38 2d 3e c2 23 43 3e
       0.15093425 -0.101641655 0.16916205 0.1905661
000020 0f e5 e4 bd 9c ee 09 3c 5a e5 35 3e 5d 33 fb bd
       -0.11176502 0.008418705 0.17763272 -0.12265656
000030 8e 90 1f bd 2f 97 fd bd 7a ce 2e 3e 87 2e 28 3d
       -0.038956217 -0.123823516 0.17070952 0.041059997
000040 5e b5 a5 3d 7f 8d 14 3e 00 79 b4 bc c8 59 33 be
       0.08091234 0.14507101 -0.022030354 -0.17514718
000050 ed a4 89 3c f1 48 b3 3b 1c 69 76 3d a8 f3 ad 3d
       0.016802276 0.005471342 0.060158834 0.08493739
000060 a8 35 da bd fd f6 98 bd 7c 78 c7 3d f3 0e 61 3d
       -0.10654765 -0.07468984 0.097397774 0.054945897
000070 b9 75 0c 3d 83 d0 94 3d 55 a2 ba 3d 7e b3 29 be
       0.034291957 0.07266333 0.09112994 -0.16572377
000080 df 03 1f 3b 5c 3e 04 3d 5b e9 54 be 2d 99 c2 3c
       0.0024263782 0.032286033 -0.20792143 0.02375468
000090 ca 1f 36 bb 59 61 20 3e 6f 13 2d be 6f f8 3a 3e
       -0.0027789944 0.15662135 -0.16901945 0.18258832
0000a0 6d 6d e8 bd 3c 3a db 3d ef 9d 0d 3e 4d 9b 1b bd
       -0.11348996 0.10704467 0.13829778 -0.037989903
0000b0 b8 82 c8 bd eb 35 54 bd a6 a2 19 be 9a 09 fe 3b
       -0.097905576 -0.051809233 -0.15003452 0.0077526094
0000c0 36 d0 79 3d 30 f3 30 3d 5a 70 04 be dc 2a d3 3d
       0.06098958 0.04320067 -0.12933484 0.10310909
0000d0 78 37 3d 3e da df 7c bd e4 4b fb 3d 89 85 c0 bb
       0.18478191 -0.06173692 0.12270334 -0.0058752936
0000e0 73 f5 b2 3d 7b 23 16 be e0 cf 20 be 78 81 e0 bb
       0.08738222 -0.14661972 -0.15704298 -0.0068513714
0000f0 ad ea 29 be 5d 88 cb 3d d9 4e 41 3e c4 59 e8 bc
       -0.16593428 0.099381186 0.18877734 -0.028363116

m_transform.0.3.weight f4 [64, 32, 1, 1]
000000 09 11 3e bb 5f 93 be 3c df 1e b7 bd 9c bb 4e bc
       -0.0029001853 0.023263631 -0.08941435 -0.012617972
000010 e9 53 23 3d 29 d7 0e 3e bd 08 19 be 04 d4 00 bc
       0.039874945 0.13949265 -0.1494474 -0.007863048
000020 3b 01 18 be 63 5b 99 bc cc b6 ff bb 37 b4 98 bd
       -0.1484422 -0.018720334 -0.0078037735 -0.07456248
000030 f4 cd d7 3d 20 2a f1 3d 7a 00 8e bd c2 9b ec bc
       0.10537329 0.11775613 -0.06933685 -0.028882865
000040 64 3f 6d bd 92 fb c5 3a 1d 5a 61 3d bf 22 23 3e
       -0.057921782 0.0015104881 0.05501758 0.15931223
000050 60 5f 27 be d3 10 8b 3d 44 71 e1 bd 9d f6 16 be
       -0.16344976 0.06790318 -0.11007932 -0.14742513
000060 d3 39 06 3e cf 53 67 bd 2e 85 cf bd 34 27 3b 3d
       0.13107996 -0.05647641 -0.10132824 0.045691684
000070 49 4a 2a bd a6 25 28 be 63 06 c2 bd cf 16 9f bd
       -0.04157475 -0.16420612 -0.094738744 -0.07768022
000080 2f b4 05 bc 95 36 f8 bd 11 9e 32 be e9 21 bf 3d
       -0.008160635 -0.12119786 -0.1744311 0.0933264
000090 25 7e 17 be 5b b7 42 bc c7 35 12 3e 37 94 8a bd
       -0.14794214 -0.011884536 0.14278327 -0.06766551
0000a0 67 0a e9 bd a5 37 3e 3d ec f7 19 3e b0 3b a8 bb
       -0.11378937 0.046439786 0.15035981 -0.0051340684
0000b0 6e 04 2f bb 3d a7 a2 3d 41 0f ab 3c b9 26 1d 3d
       -0.002670552 0.079420544 0.020881297 0.038367007
0000c0 d4 ce b0 3d 7f ee 9a 3d 83 2e f0 bd 53 89 95 bd
       0.08633199 0.07565021 -0.117276214 -0.07301583
0000d0 62 a4 f4 3d d0 62 a3 3c d5 bb 24 3d 7f 00 36 3e
       0.11945416 0.019944578 0.040218193 0.17773627
0000e0 db 0f d9 3d 69 2e 9a 3d b2 81 22 3e 8d 02 2c be
       0.10598727 0.07528383 0.15869787 -0.16797848
0000f0 fb 01 c1 3c 13 22 41 3d 96 de fc bc 4f 68 a4 bd
       0.023560515 0.047151636 -0.030867856 -0.08027708
000100 8d 98 d3 3a 91 82 01 be c6 ca 8c bd 85 9b e0 3d
       0.0016143486 -0.12647463 -0.068746135 0.10967163
000110 6e 42 af bd 3b 88 96 bd 13 c7 7e 3d e0 ca 50 bd
       -0.08557592 -0.07350203 0.06220157 -0.050974727
000120 ab b0 ff 3c 4d 0b 61 be b2 8e df 3d 1a 39 32 be
       0.031212172 -0.21976967 0.10915889 -0.17404595
000130 d1 4f d8 bc 6e 36 22 be 7e a7 18 be 33 cf f2 3d
       -0.026405247 -0.15841076 -0.14907643 0.11855926
000140 ce 6a d5 bd 70 a6 55 bb 1b 50 16 bd 56 7c 0e 3e
       -0.10420762 -0.0032600425 -0.03669749 0.13914618
000150 9c a2 95 3d 2d b6 c9 3d 52 55 7c bd 27 f7 b6 bd
       0.07306406 0.098492004 -0.061604805 -0.08933859
000160 bc da 0a 3e 0a 84 ed 3c 96 a2 46 3d 24 03 f8 bd
       0.13560003 0.028993625 0.048494898 -0.12109974
000170 0d 1b 2d be e6 5a 5f 3c 96 ee 0a be ad 4d 00 3e
       -0.1690485 0.013632512 -0.13567576 0.12529631
000180 11 aa 23 3e 95 8d b5 bd 1e 9f f0 bd 77 c0 2d 3e
       0.15982844 -0.08864895 -0.11749099 0.16967951
000190 df 31 bc bd 85 dd 0a be 22 0c ef bd 4e 44 a9 3c
       -0.091892 -0.13561065 -0.11672236 0.020662453
0001a0 24 88 02 3d 1a de f7 3d 2e 22 f9 3d 2c c2 b4 3d
       0.031868115 0.121029094 0.121647224 0.08826098
0001b0 f7 63 18 3d cd 48 19 3e 99 f3 c6 bd ee ed a9 bc
       0.03720471 0.14969178 -0.09714431 -0.020743337
0001c0 67 53 0b 3e 5d 2b bd bd ef 12 fe 3d 0c df 81 3d
       0.13606034 -0.092367865 0.12405955 0.06341371
0001d0 4d 68 5c 3d 03 04 4b bd 2c 65 2b be 34 90 ec 3d
       0.053810406 -0.049564373 -0.16737813 0.11550942
0001e0 48 47 0b 3e a4 99 fb bd d3 43 b7 bd 4a b8 c8 39
       0.1360141 -0.12285164 -0.08948483 0.0003828428
0001f0 73 6d 34 3d 49 57 f6 bc 14 4e c7 bd 0b 64 02 3e
       0.04404969 -0.030070918 -0.09731689 0.12733476
000200 f5 41 ce bd 5a 54 1f 3e 6a aa 9f 3c 09 5b b0 3d
       -0.10071174 0.15559521 0.01949044 0.086111136
000210 50 a7 5e 3d cc 79 06 3d 91 86 08 3e 59 32 98 3b
       0.05435878 0.032831 0.13332583 0.004644674
000220 13 94 ed 3d 87 34 0c 3d e7 ec cc bd 6c 8d b0 3d
       0.116005085 0.03422978 -0.10006123 0.08620724
000230 ef f8 04 be 7b 82 82 3d f2 bd 34 bd dd e8 a4 3d
       -0.12985586 0.063725434 -0.04412646 0.08052228
000240 75 d8 95 bb f1 3f ee 3c 32 56 2f bd 23 18 a9 3d
       -0.004572923 0.029083224 -0.04280681 0.08256557
000250 dd 0a 91 3d b7 b3 2d be 8c cd 16 3e 91 ca 0b be
       0.0708215 -0.16963087 0.14726847 -0.13651492
000260 96 80 a1 bd 6a 92 a8 3d 73 9c 2f 3e 0b 19 6e 3d
       -0.07885854 0.08231051 0.17149524 0.05812935
000270 10 3a fe bd 30 23 7c 3d 5e dc 0e be d1 8e c2 3d
       -0.12413418 0.061556995 -0.13951251 0.09499896
000280 30 17 00 3d 7a e4 53 ba 47 fe 03 be 08 bc b6 3d
       0.031272113 -0.0008083057 -0.12889968 0.08922583
000290 aa 2d 2d 3e 53 6a f1 bd aa eb 69 3d 7b cf d0 bd
       0.1691195 -0.11787858 0.057109512 -0.10195824
0002a0 b9 68 45 bd ad 24 19 3e 02 51 3d be c9 be 12 bd
       -0.048195574 0.14955397 -0.18487933 -0.03582648
0002b0 73 30 68 3d 4a d3 94 3d fa c7 b0 bd 37 ce 94 bd
       0.05668683 0.07266863 -0.086318925 -0.07265895
0002c0 46 2c 20 3d 57 a7 38 be 18 e8 fc 3c 62 5b d5 bd
       0.039104722 -0.18032585 0.03087239 -0.104178205
0002d0 85 56 09 bd d0 39 15 3e 2b 31 1e be 34 f3 ae bd
       -0.033529777 0.14572835 -0.15448444 -0.08542481
0002e0 52 45 07 be 03 da 8b 3d 7f 7b ff 3d b3 4d 11 be
       -0.13210037 0.06828692 0.12474727 -0.14189796
0002f0 6b aa d9 3d ab e2 d0 3d f0 fe 27 be b6 31 8b 3d
       0.10628208 0.101994835 -0.16405845 0.06796591
000300 0e 55 54 3d 28 b0 3c bd 70 f3 f9 3d 9c a5 75 bc
       0.051838927 -0.046066433 0.12204635 -0.014993098
000310 dc 1f a5 bc 90 b3 b9 3d cb 74 27 be 43 a1 44 be
       -0.020156793 0.09067452 -0.16353147 -0.19202141
000320 2e a2 19 3c 16 f9 dc 3b 06 94 9e bc ad 78 ef bd
       0.009377046 0.0067435605 -0.019357692 -0.11692939
000330 f3 dd cc 3d 7c 02 03 be e1 37 d0 bd 97 01 0c be
       0.10003271 -0.12793916 -0.10166908 -0.13672481
000340 3b eb 2d be b4 f4 ee 3b b6 81 91 bd 8b 73 f0 3d
       -0.16984265 0.0072923545 -0.071048185 0.11740788
000350 7b 82 2b 3e ee 92 25 3d f8 e2 05 3e e6 f2 0a be
       0.16748993 0.040423326 0.13074863 -0.13569221
000360 22 96 a7 3d 8e f4 85 3d f0 5c a4 bd 36 4f bd bc
       0.081829324 0.06540786 -0.08025539 -0.02310906
000370 87 11 58 be e0 fb ca b9 b5 4b 4a be 5a 65 dc bd
       -0.21100436 -0.00038716104 -0.19755442 -0.10761519
000380 14 5e 07 be 4f 30 08 bd 3a 12 a9 3c 58 a4 06 be
       -0.13219482 -0.033249196 0.020638574 -0.1314863
000390 e0 4e 54 bd c4 ec e3 3d e2 a3 ea 3b 39 71 06 3d
       -0.051833034 0.11129144 0.0071606496 0.03282282
0003a0 61 d0 97 bd 60 a8 41 bd f7 36 1e be ae ac 29 3e
       -0.07412792 -0.047279716 -0.15450655 0.16569778
0003b0 5f 0b b4 3c e8 44 9e 3d f2 a9 d5 3d 6f 2f 3e 3e
       0.021978078 0.077279866 0.10432805 0.18572782
0003c0 b4 60 e7 bd 1e 4f 4e 3d 2c 24 12 be ab ab a4 3d
       -0.112977415 0.05036842 -0.14271611 0.080405556
0003d0 46 72 c2 bd 89 49 83 3d 61 30 fd bd ed bf df 3d
       -0.09494452 0.0641051 -0.12362743 0.10925279
0003e0 81 bd 06 3e 6b 95 e0 3d 31 37 20 be 0f 8d d1 3d
       0.13158228 0.10965999 -0.15646054 0.10231983
0003f0 0e 78 c6 bd 1a 06 23 be 64 64 e7 3d ff 54 19 3d
       -0.09690867 -0.15920296 0.11298445 0.037434574

m_transform.0.3.bias f4 [64]
000000 37 ff 25 3d 0d 28 0f 3e d0 54 bc 3d be 0d 24 be
       0.040526595 0.13980122 0.09195864 -0.16020867
000010 41 c6 db bd e9 78 73 3d 62 f4 5c bd 35 40 61 bd
       -0.10731173 0.05944148 -0.053944 -0.054992873
000020 83 95 44 bd a3 55 0f be ce ec d6 bc 77 4e a7 3c
       -0.047994148 -0.13997512 -0.026235964 0.020423157
000030 5b 41 b7 bc 68 cb e8 bd e0 be f5 bd fb 09 22 3e
       -0.022370031 -0.11366922 -0.11999297 0.1582412
000040 af 9d 06 3e 96 27 97 bd e9 fd fd bd cd 75 53 bd
       0.13146089 -0.07380597 -0.12401945 -0.051626015
000050 26 57 f5 bd 39 1d 48 be 6d 2f 21 be d7 b8 17 3e
       -0.11979513 -0.19542398 -0.15740748 0.14816605
000060 62 de 2c bd 48 b0 fd 3d 3d 3e 98 3d ac d6 1a bd
       -0.04220427 0.123871386 0.07433746 -0.037802383
000070 13 52 93 bd e3 91 03 3e c0 51 15 bd cf 7f e8 bd
       -0.07193389 0.1284862 -0.036454916 -0.113525026
000080 5d 8f 90 3d 2d e4 9b bd ff 35 ac 3d f9 09 59 3d
       0.070585944 -0.076118805 0.084087364 0.052988026
000090 72 f9 1d be b6 d7 99 bd 31 44 5e 3c e1 7e d6 3b
       -0.15427187 -0.07511847 0.013566063 0.006545887
0000a0 11 ac 00 3d 78 aa 71 bc 98 14 be bc 50 e9 8b bc
       0.031414095 -0.014750116 -0.02320318 -0.017079026
0000b0 69 38 a1 3d f0 2f 92 bd a5 26 77 bd 32 fd 19 3e
       0.078720875 -0.071380496 -0.06033959 0.15037993
0000c0 4c 5d 3d 3e c2 aa f1 3d 23 d8 1e 3e 54 ba d0 bd
       0.18492621 0.118001476 0.15512137 -0.10191789
0000d0 ca 3b f9 bc 7e b6 da bd 34 7a 46 bd 8e ec c3 3d
       -0.030424017 -0.10679339 -0.048456386 0.095666036
0000e0 c8 0d 27 3e c0 97 21 be 76 66 f1 3d 90 39 3a bd
       0.16313851 -0.15780544 0.11787121 -0.045465052
0000f0 fa fa 17 3e 45 1f f8 3c 88 8f f4 bd ab ba e6 3d
       0.14841834 0.030288348 -0.11941439 0.11266073

m_transform.0.5.running_mean f4 [32]
000000 3f 6a 04 40 03 27 25 40 35 40 81 bf c8 f1 1d bd
       2.0689847 2.580506 -1.009772 -0.03856066
000010 d7 67 ab 3f c8 11 b5 bc 6f 94 c1 be f8 8c bb 3e
       1.3391064 -0.022103205 -0.37808558 0.36630988
000020 7f e0 0d c0 1c ce 11 3f 19 3f 10 bd 3e da 5c 3e
       -2.2168272 0.5695512 -0.035216425 0.21567628
000030 07 19 03 3f 6d 16 bd 3c 89 2f 93 3e 22 6f cc 3f
       0.51210064 0.023081983 0.28747204 1.5971415
000040 c9 07 2e 3f 3e 02 c9 be 52 3a c5 be 5a fa 9b be
       0.6798063 -0.39259523 -0.38521057 -0.3046444
000050 c6 59 4b 3d 6e ef 9f 3e 6d 5a 22 be dd 15 aa 3f
       0.04964616 0.31237358 -0.15854807 1.3287922
000060 74 fe c4 be 40 39 12 3f e9 82 b9 be 82 ba 93 be
       -0.38475382 0.57118607 -0.3623269 -0.28853232
000070 44 66 0d 3e 61 ea 77 3f cf 38 a6 3e f4 b4 16 40
       0.13808542 0.9684201 0.32465217 2.3547945

m_transform.0.5.running_var f4 [32]
000000 52 50 8e 3f 1b 80 e4 3f a6 4c ae 3e 5c 58 05 3d
       1.1118262 1.7851595 0.34042853 0.03255497
000010 21 ac 05 3f a3 13 12 3e c8 89 8c 3d 77 83 c9 3d
       0.5221577 0.14265303 0.06862217 0.09839528
000020 23 d9 6c 3f 66 f6 e3 3d 46 b7 0a 3d 0b dd 94 3c
       0.92518824 0.11130981 0.03386619 0.018171808
000030 cd 18 a3 3d dd 79 b8 3c fe f7 5c 3d f4 24 37 3f
       0.07963715 0.022519046 0.05394744 0.7154076
000040 31 05 1d 3e d0 d1 73 3e ba af 04 3e 32 9a 5c 3d
       0.15334012 0.23810506 0.1295766 0.05385799
000050 b8 75 ff 3c 56 9e 3e 3e e0 bc 83 3d 9c 5c cb 3e
       0.031184062 0.18615088 0.064325094 0.39719093
000060 41 2d 95 3d 7b f5 25 3e 6d 3f c9 3d d5 20 6d 3d
       0.07284022 0.16206925 0.09826551 0.05789264
000070 c7 0b 43 3e 57 3b 99 3e ad c5 6d 3d b2 74 a5 3f
       0.19047461 0.29928085 0.058049846 1.2926238

m_transform.0.6.weight f4 [96, 32, 3, 3]
000000 11 e7 27 bd 28 6e a7 bc 21 cd e4 bc 9d 65 b7 3c
       -0.040991846 -0.020438269 -0.027929844 0.02238732
000010 e2 c2 bc 3c af ed d3 bc 3e 8d 19 bd ff b2 30 3c
       0.023042146 -0.025870172 -0.037488215 0.0107848635
000020 0a 47 10 3d 6c 9e c5 3c 65 f4 7b bd 55 9c a7 3c
       0.035223998 0.024123393 -0.06151237 0.020460287
000030 3f 32 73 bd 7b b4 ea bc 2d 40 b4 bb a6 55 48 bd
       -0.05937409 -0.028650513 -0.0055008144 -0.048909806
000040 54 73 c0 3c 41 ea 2a bd 5a d5 7e 3c 37 10 ca bc
       0.023492493 -0.04172731 0.015553797 -0.024665935
000050 9a 36 da 3c fc dc a7 3c 1c f1 00 3d f5 92 ea 38
       0.026637364 0.020491116 0.03147994 0.000111853624
000060 84 b8 fa bc 08 02 a3 bc 44 eb 38 3d 38 74 fc 3b
       -0.030605562 -0.01989843 0.04514624 0.007704284
000070 9a 45 64 bd a6 3d 10 bd ad 1d 0c bd fe ac 88 bd
       -0.05573044 -0.035215043 -0.03420799 -0.06673621
000080 18 2d 2d bd 80 75 41 3d ab 36 81 bd 36 6f 03 3d
       -0.042279333 0.047231197 -0.06309255 0.03208848
000090 bf 1a 3a 3d 5f 21 5b bd 92 f9 cd 3c e5 c3 67 bd
       0.045435663 -0.053498622 0.025143418 -0.056583304
0000a0 48 72 9e bc f6 f2 27 bd 29 34 27 bd ea e0 46 bc
       -0.019341603 -0.04100319 -0.04082123 -0.012138585
0000b0 14 14 ba 3c d8 2b 54 bb c9 95 09 bd dc ec 20 3b
       0.022714652 -0.0032374766 -0.033590112 0.0024555242
0000c0 69 bb 39 bd 24 f8 ca bc 90 67 a2 bd bf b9 e0 3a
       -0.045344744 -0.024776526 -0.07929909 0.00171452
0000d0 e5 92 22 3d 67 58 13 bd aa a2 19 3b 0b f5 a3 bd
       0.03969087 -0.03597298 0.0023442903 -0.080057226
0000e0 66 59 c5 3c 69 1c 53 3d 82 86 a1 bd 66 63 1f bd
       0.02409048 0.051540766 -0.078869835 -0.038913153
0000f0 bd 74 aa 3d ae a0 a5 bd b3 50 a3 bc c6 88 6f bd
       0.08323047 -0.08087288 -0.019935941 -0.058480047
000100 b7 6f 12 bd f9 92 82 bc ea e7 7d 3b b4 8c 49 bd
       -0.03575107 -0.015939223 0.0038742968 -0.04920645
000110 49 c5 0e bd f6 16 6f bd b2 d9 36 bb d7 a3 fb bc
       -0.034856115 -0.058371507 -0.0027900753 -0.030717773
000120 b8 62 0c 3d 8f 6b 05 3c 6a 45 41 bc 3f 9d 47 bd
       0.034273833 0.00814332 -0.011796335 -0.048733946
000130 78 c9 6a 3c bf 99 84 bd 5e 77 65 bd 18 5d 04 3d
       0.01433026 -0.06474637 -0.05602204 0.032315344
000140 8c 40 89 bd 0b c2 16 3c c2 d3 13 3c 56 cd a2 bc
       -0.067017645 0.009201537 0.009022655 -0.019873302
000150 69 63 5d 3d 01 ee 21 bd bf 94 fa 3c 43 60 7e bc
       0.054049883 -0.03953362 0.030588506 -0.01552588
000160 b3 29 7a bd 76 56 38 bd 28 66 0c 3d 34 d4 8b b9
       -0.061074924 -0.04500433 0.03427711 -0.0002667025
000170 f5 a8 b2 bb 52 ea 99 bc 0c 6f 0d bd ec 9f 7a 3c
       -0.00545227 -0.01878849 -0.03452973 0.015296917
000180 16 9b 84 bc 93 62 ce bc 9c 62 06 bd f3 27 3e bd
       -0.016187232 -0.025193488 -0.032808885 -0.046424817
000190 c6 cf f4 3c 76 15 95 3c 7c 6b 47 bd 02 9a 87 3d
       0.02988423 0.01819871 -0.04868649 0.066211715
0001a0 62 0b 6a 3d 35 7d e2 3c 12 0a 01 3d 1e 03 da 3c
       0.05713976 0.027647594 0.031503744 0.026612815
0001b0 52 41 aa 39 73 82 e9 3c 5d bb 7c 3d f4 ba f2 bc
       0.00032473594 0.028504586 0.06170212 -0.029630162
0001c0 6c 9e 89 bc 47 30 25 3d a4 3c fd 3c 5e 68 c0 bc
       -0.016799174 0.040329244 0.030912705 -0.023487266
0001d0 18 2a f4 3b a7 e3 c6 bc 55 2c 50 bd 85 76 97 3c
       0.007451307 -0.024278475 -0.05082353 0.018489132
0001e0 a6 42 43 bc 8a 35 04 3c b7 52 49 3d f4 9a 4f 3c
       -0.011917746 0.008069405 0.04915115 0.012671221
0001f0 92 dd 59 3d 16 28 31 3c 91 3e af bc 62 80 71 3d
       0.05318982 0.01081278 -0.021392139 0.058960326
000200 ae c2 ab 3c ed 2d f8 bc d3 3a 2c 3d 2a e7 a6 bc
       0.020966854 -0.030295337 0.042048287 -0.0203739
000210 03 89 32 bd 6a d2 8f 3d 9b 3f 81 3d 1d 83 7c 3d
       -0.043587696 0.07022555 0.0631096 0.061648477
000220 f9 28 77 bd 86 a9 b2 bb 49 3a d5 3c 89 ce 8c 3c
       -0.06034181 -0.0054523377 0.02602877 0.017188327
000230 bf b1 22 bd b6 65 0d bd 28 ac 83 ba 05 36 23 bd
       -0.039720293 -0.034520827 -0.0010045813 -0.03984644
000240 7d 92 6d 3d 17 a8 3b bd c9 4d a7 3c a2 29 a0 bc
       0.05800103 -0.0458146 0.020422833 -0.019551102
000250 2f e2 84 bd 45 77 85 bd 84 05 b4 3c 3c e9 20 bd
       -0.064884536 -0.065168895 0.021975286 -0.03928493
000260 f3 37 34 bd 74 f4 3e 3d f4 e8 ec 3c ca 06 15 3d
       -0.04399867 0.046619847 0.028919674 0.036383428
000270 65 9e 06 bd 47 6d ef 3a 4d 3e 0d 3c ff 29 71 bc
       -0.0328659 0.001826682 0.008620811 -0.014719485
000280 1e 65 bd 3c 9f 81 cd bc c5 d2 ba bc c1 25 21 3c
       0.023119505 -0.025086222 -0.02280558 0.009835661
000290 f1 2a f1 bc 8b 15 37 bd 66 86 19 3c e0 ea 48 bc
       -0.029439421 -0.04469828 0.009370422 -0.01226303
0002a0 a6 63 d5 bc 1f 88 59 bc fa 03 12 3d d5 fb 02 bc
       -0.026048493 -0.013277083 0.035648324 -0.007994612
0002b0 6f 7b f9 3c e1 31 8a bb 8d 6b ad bc b3 44 5d 3d
       0.030454366 -0.004217372 -0.021169448 0.054020595
0002c0 0b 9d 27 bd bc db 32 bd 3d b4 32 3d fb 4b 81 bd
       -0.040921252 -0.043666586 0.04362892 -0.0631332
0002d0 ae 85 8a 3c ed 7e 50 3d c9 33 87 bc a3 41 de bc
       0.016909447 0.050902296 -0.016504185 -0.027130907
0002e0 76 8c 02 3d 81 24 0c 3d 95 cc b6 3c 7c dd a6 3c
       0.031872235 0.0342145 0.02231435 0.020369284
0002f0 26 8c 1b 3b 65 44 59 3d ac 34 42 3c ee 7b 4a bd
       0.0023734658 0.05304374 0.011853378 -0.049434595
000300 c7 8f 84 bc 42 95 e4 bb 9d a4 2f 3c 65 ca 5b bd
       -0.01618184 -0.0069758007 0.010720399 -0.053659815
000310 99 4e 82 bd 30 0c 19 bd 87 b4 1c 3d 29 e3 2e 3d
       -0.063626476 -0.03736514 0.0382581 0.042697106
000320 f9 c1 0f bd 2d 69 42 3d e9 95 05 bc 27 e8 72 3d
       -0.035097096 0.047463585 -0.008153417 0.05930343
000330 b3 d3 c8 3a 1f 43 c5 bc 59 82 de 3c f2 dc 64 bd
       0.001532188 -0.024079857 0.027161764 -0.055874772
000340 24 bb 49 3d 2e 2d 92 bc 9a 34 14 3c 73 2e 00 bd
       0.049250737 -0.017843809 0.009045744 -0.031294297
000350 f0 f5 47 3d 2e a9 dc 3c de a3 97 3c 0b 48 b7 bc
       0.04881853 0.02693614 0.018510755 -0.02237322
000360 3b e7 0f bd 0b ce b5 b9 ed 3c 67 bd 83 77 39 3b
       -0.035132628 -0.00034676524 -0.056454588 0.0028299994
000370 ec 00 17 3d 5b ea a3 bc 58 e9 2b bc 92 c1 f8 bc
       0.036866114 -0.02000921 -0.010492645 -0.030365739
000380 4e a8 f9 bb bb 1a 47 bd 80 99 55 bd e9 8b 17 bc
       -0.0076189404 -0.048609477 -0.052148342 -0.009249666
000390 3f 81 f1 3c 9f ea 41 bd 43 d5 29 bc 8e 9a ec bc
       0.029480575 -0.047342893 -0.010365787 -0.028882291
0003a0 69 79 c4 3c 8b d2 ff bc 6f 77 dc 3b b0 f4 e4 3c
       0.023983674 -0.031228324 0.006728105 0.027948707
0003b0 dd a8 07 bd 03 3e 9a 3d fe 8a cb bc 43 cd f5 bc
       -0.033120025 0.07531359 -0.02484655 -0.030005103
0003c0 27 40 ef 3c ea 5f 64 bc aa 6d 89 bd 8b ec 0d bd
       0.029205395 -0.013938883 -0.0671037 -0.034649413
0003d0 c6 c9 88 bd 77 33 22 3d 6b 4d 65 3c fb d5 3d bd
       -0.0667911 0.039599862 0.013995509 -0.046346646
0003e0 22 73 0a 3b b0 53 9d 3b 62 63 5f bd 66 15 41 3c
       0.0021125753 0.004801236 -0.05453814 0.011784887
0003f0 53 94 21 bd cc 1d 16 bd 4f 9c 22 3d a3 76 c6 3c
       -0.039448094 -0.03664951 0.03969985 0.024226492

m_transform.0.6.bias f4 [96]
000000 15 cb 6f 3c 7f 51 2e 3d 1a 5d ac bc 23 61 e7 bc
       0.014635821 0.04255819 -0.021040488 -0.02824456
000010 3d e1 2b bb c6 80 b8 bb 41 67 8d 3c 09 fe 50 3a
       -0.0026226782 -0.0056305854 0.01726115 0.00079724245
000020 00 db 02 bd b3 af 0c bd 3f 6d 0a bd 25 2f 25 bd
       -0.031947136 -0.034347247 -0.03379559 -0.040328164
000030 82 88 84 3d 54 e5 aa 3c 94 96 52 3d d7 44 71 bd
       0.06471349 0.020861305 0.051413134 -0.05890354
000040 b6 2e 25 3d 3a 52 12 bd 6b a8 c6 3c 75 90 47 3c
       0.04032775 -0.03572295 0.02425023 0.012180437
000050 14 12 d8 bc 2b 1e 12 3d e9 1c 38 3d 1a 3d 21 3d
       -0.026375808 0.0356733 0.044949446 0.03936491
000060 93 42 18 3d 26 df b3 bc 17 7b 09 3d b6 ca 8a 3c
       0.037172865 -0.021956991 0.033564653 0.016942363
000070 84 14 a3 bd e2 7b 0c bd b5 e6 09 bd 45 c7 86 3c
       -0.079628974 -0.03429783 -0.033667285 0.016452441
000080 01 e8 02 3d 57 a6 a7 3c 5e 9d 9e 3b 81 be e6 3c
       0.031959537 0.02046506 0.004840537 0.028167011
000090 a9 e7 7b 3c f5 4a 8b bc bc 62 87 bc 8f f7 8d bc
       0.015375056 -0.017003516 -0.016526572 -0.01732996
0000a0 b9 c7 37 3d 02 35 b9 bc d1 a6 3f bd ed 12 6f bb
       0.044868205 -0.022608284 -0.046789948 -0.0036479787
0000b0 85 29 59 3c 3d b2 7f bc 07 81 fe bc 4a 6d d6 bc
       0.013254528 -0.01560646 -0.031067384 -0.02617516
0000c0 6d 21 79 3c 3d 45 35 3d 99 34 e0 3c 1d cc 19 3d
       0.015205723 0.044255484 0.02736883 0.037548173
0000d0 ee cd 15 bd 5f 1a 6f 3c 83 8e a0 38 bd 60 1e 3d
       -0.036573343 0.01459369 7.6559394e-05 0.038666476
0000e0 0e a3 0d 3d 07 88 d7 3c 6d ff 18 bc 87 b1 4d 3d
       0.03457933 0.02630998 -0.009338242 0.05021813
0000f0 c2 c9 99 3c d1 30 0a bd 6a 0f 1e 3d 36 80 15 bb
       0.018772963 -0.03373796 0.03858892 -0.0022812015
000100 83 e6 31 3c 65 ad 39 3b fe fb 52 bd 95 73 1c bd
       0.010858181 0.002833211 -0.05150985 -0.038196165
000110 da ad 76 bd 75 f1 53 bd ec aa ac 3b 6d ec 30 3d
       -0.06022439 -0.051743943 0.005269399 0.043194223
000120 3d 51 1d bd 4d a6 b7 3b 83 49 55 35 96 38 40 bd
       -0.038407553 0.0056045414 7.9455657e-07 -0.046928965
000130 38 fd 81 3d 2f bc 26 bc bd ec 0a bd 6f a0 75 bc
       0.06347126 -0.010176702 -0.033917177 -0.014991864
000140 3c 37 36 bd 8c 32 9e 3b 32 91 16 3d 8f 86 2d bd
       -0.04448627 0.004827803 0.036759563 -0.042364653
000150 ed ce f9 bc e6 10 ee 3c 29 29 1f bd aa ed ac bc
       -0.030494178 0.029060792 -0.038857613 -0.02110942
000160 78 a2 24 3d 1d d7 ff b9 9f a7 fe bc 99 5d 18 bd
       0.040194005 -0.00048797662 -0.031085787 -0.037198637
000170 53 54 2e bd 6b be 0f 3d 62 c6 4b bc a9 4b 6a 3d
       -0.042560887 0.035093706 -0.012437435 0.05720106

m_transform.0.9.running_mean f4 [48]
000000 e1 38 6f 3f e9 4d ba 3f fd 9f 71 3f 91 f6 56 3f
       0.93446165 1.4555026 0.9438475 0.8396998
000010 82 40 2b 3f 85 5d 53 3f 67 e3 57 3f 60 29 5d 3f
       0.66895306 0.82564574 0.84331363 0.8639126
000020 e3 be 6f 3f 32 78 6f 3f 7f e6 54 3f 9c f3 9b 3f
       0.93650645 0.9354278 0.8316421 1.2183719
000030 74 15 80 3f ad d6 b1 3f aa 05 5a 3f f6 20 82 3f
       1.0006547 1.3893639 0.8516489 1.0166309
000040 18 c1 bf 3f d3 92 21 3f 41 14 b9 3f 44 1a bc 3f
       1.4980803 0.6311466 1.4459306 1.4695516
000050 45 cd 6b 3f d9 13 af 3f 2a 71 aa 3f 6f ea b7 3f
       0.9211009 1.3677932 1.3315785 1.4368418
000060 19 4b 7c 3f 7d d2 69 3f 95 ae 7a 3f ee ad 8c 3f
       0.9855209 0.91336805 0.9792264 1.0990579
000070 2c dc 2e 3f 5f 22 8b 3f 7e d8 1f 3f b1 aa 54 3f
       0.68304706 1.0869864 0.62439716 0.83072954
000080 7f e3 b6 3f ed e1 87 3f 39 79 23 3f 0b 65 b8 3f
       1.4288176 1.0615822 0.63856846 1.4405836
000090 cd b2 99 3f cc 57 b2 3f 0f 12 71 3f 17 e7 52 3f
       1.2007691 1.3933043 0.9416818 0.82383865
0000a0 e4 4a 3d 3f 5a c8 56 3f 4b b0 9c 3f 7c ae 99 3f
       0.739424 0.8389946 1.22413 1.2006373
0000b0 c9 54 b3 3f 38 aa 83 3f a4 51 31 3f f3 d1 39 3f
       1.4010249 1.0286322 0.692652 0.7258598

m_transform.0.9.running_var f4 [48]
000000 6d 0d 3a 3f 81 b0 c8 3f 07 41 48 3f 52 c5 0f 3f
       0.72676736 1.5678865 0.78224224 0.5616046
000010 20 77 2d 3f b8 aa d0 3e 94 1e 43 3f 7e 2f 12 3f
       0.67759895 0.40755248 0.76218534 0.5710372
000020 3c 36 2c 3f dd 85 29 3f 51 af 67 3e 8e 0a ab 3e
       0.67270255 0.66219884 0.22625472 0.3340649
000030 19 cd c3 3e 81 fb e4 3f b0 e6 19 3f 7c 90 c5 3e
       0.38242415 1.7889253 0.60117626 0.38586795
000040 c4 3c 0c 3f a3 b2 db 3e a9 b0 20 40 e9 65 1e 3f
       0.5478022 0.42909727 2.5107825 0.6187425
000050 15 57 0f 3f 72 08 96 3f 98 5e 1f 3f 6d dc 2c 3f
       0.5599225 1.1721327 0.62253714 0.67523843
000060 c3 4d b2 3e 9e a6 c5 3f 27 59 f3 3f 9d 06 f6 3e
       0.34824952 1.5441473 1.9011582 0.4805192
000070 35 93 b1 3e 03 e2 11 3f 09 66 8c 3e da 38 32 3f
       0.34682623 0.5698549 0.27421597 0.69618
000080 54 2e b8 3f 45 4b cc 3e 3a 03 fb 3e 2e 2c 0f 3f
       1.4389138 0.39901176 0.490259 0.5592679
000090 18 f5 bc 3f 65 2c 28 3f aa 35 d0 3e 00 aa 91 3f
       1.4762297 0.6569274 0.40665942 1.1380005
0000a0 70 3c 1e 40 fa 85 2d 3f c9 77 11 3f ca 48 a9 3e
       2.4724388 0.67782557 0.568234 0.33063346
0000b0 e8 b0 d3 3f 4c ce 03 3f cb 4b 9c 3f 19 89 1a 3f
       1.6538363 0.5148666 1.221063 0.60365444

m_transform.0.10.weight f4 [96, 48, 1, 1]
000000 b1 51 18 bd aa 2c fd bd bd 29 4b bd 14 b2 09 bd
       -0.037187282 -0.123620346 -0.04960035 -0.033617094
000010 4d 26 10 3e 6b 0b 34 bc d0 c8 41 bc d3 c2 02 3e
       0.1407711 -0.01098905 -0.011827663 0.12769632
000020 69 02 1d 3d e3 a2 05 be 0e 3f 02 3e 27 ed cd bc
       0.038332377 -0.13050418 0.12719366 -0.025137497
000030 ef b9 94 bd 4b f1 d2 3d bc ba af bc 18 20 02 be
       -0.072620265 0.10299929 -0.021451347 -0.12707555
000040 33 2b 64 3d 55 1c ad 3d 31 fa b4 3d 7d 67 55 3d
       0.05570526 0.084526695 0.08836783 0.052100647
000050 ee 31 4b bc dd 3a 46 bd e9 7c 32 3c 12 fd c0 3d
       -0.012402041 -0.04839598 0.010894039 0.09423269
000060 b7 d8 2c 3d 89 ac b8 3d 27 15 9c bc c6 de 04 3d
       0.042198863 0.090172835 -0.019053055 0.032439016
000070 8a 42 1e 3e 58 b0 ab 3d 50 4e 36 3d 5a 36 08 3d
       0.1545507 0.08383244 0.04450828 0.03325496
000080 67 10 a3 bd 9e be 48 3d 24 21 f9 bd 57 e6 9d bd
       -0.07962113 0.04900991 -0.12164524 -0.077099495
000090 18 4a 0c be f9 2a c4 bd 27 66 3b 3c 4f b9 c2 3c
       -0.1370014 -0.09578509 0.011437929 0.023770003
0000a0 a5 06 17 3e 0f 1f 08 3e 31 58 f2 bd 4c 87 48 3d
       0.14748628 0.13293098 -0.118332274 0.048957154
0000b0 85 a1 00 3e 04 35 62 bc 01 1d d9 3d 08 b7 17 be
       0.12561615 -0.013806585 0.10601235 -0.14815915
0000c0 a4 02 43 3d fd 40 64 3d d3 14 75 bd d6 91 da bd
       0.04760994 0.05572604 -0.059834313 -0.10672347
0000d0 39 ca d1 3d 59 45 09 be cc a4 0d bd f8 97 ba bd
       0.10243649 -0.1340536 -0.03458099 -0.09111017
0000e0 40 e8 5f bd 73 79 dd 3c 66 a8 ad 3d d1 6e c5 3d
       -0.05466485 0.02703545 0.08479385 0.09640277
0000f0 1f b6 14 3d 8c 2b 78 bd 75 bc d8 3b f0 a8 b4 bc
       0.036306497 -0.060588405 0.0066142627 -0.022053212
000100 e9 0b d8 3d 67 3e c4 bd 50 37 b9 bd 46 10 84 bd
       0.10549147 -0.09582215 -0.09043753 -0.064484164
000110 8f d9 ba bd 55 c7 f6 bd 4e 5c 11 3d 9f f9 0d bd
       -0.09123527 -0.12049738 0.03548842 -0.034661885
000120 9e dc 10 3e 59 26 57 3d 7e f8 71 3d 1d e4 fd 3d
       0.14146659 0.052526806 0.05907487 0.12397025
000130 29 18 dc bd 9c 9f 64 3c 83 da a8 bd 20 21 6c 3d
       -0.10746796 0.013954069 -0.08244803 0.057648778
000140 86 b5 2f 3d 39 37 7b 3d f1 88 d7 bd f2 7f f1 bc
       0.042897724 0.06133196 -0.105241664 -0.029479954
000150 55 af f9 3c 96 6f 7d bd d3 b0 8d bd de ef a1 3d
       0.030479113 -0.061873995 -0.06918492 0.07907079
000160 02 63 4c 3d 8a cd d9 bd 02 d3 0e be 6d ed ea bd
       0.04989911 -0.106349066 -0.1394768 -0.114710666
000170 1a f8 c9 3c 8b 2c 5c 3d f6 a0 f0 3d 76 49 3c bb
       0.024654437 0.053753417 0.11749451 -0.002873031
000180 d3 c9 e2 3d 64 19 0c be 42 29 c0 bd 9d 67 4c bd
       0.11073651 -0.13681561 -0.09382869 -0.0499035
000190 41 81 63 3c 76 e3 c0 3d 14 3a 9f bd 46 50 18 be
       0.013885797 0.09418385 -0.077747494 -0.14874372
0001a0 cd af a7 bd e4 5f a9 bd 4e 41 4f bd 38 ea 10 3b
       -0.08187828 -0.08270243 -0.05059939 0.0022112262
0001b0 a1 cd d6 bd ce e6 e0 3d 63 9c 4e 3d 0f 9c f4 3d
       -0.10488439 0.109815225 0.05044211 0.11943828
0001c0 06 1f bf bd de 72 22 3d 79 77 a6 3c 4a 47 31 bd
       -0.09332089 0.039660327 0.02032064 -0.043280877
0001d0 9b 0d 58 3d 71 a7 c8 bd b5 f6 0f bd a6 b8 64 bd
       0.05274735 -0.09797562 -0.035147388 -0.055840157
0001e0 12 48 f3 bd d4 6e 09 3e 87 a6 b3 3d 1f 7d 96 bc
       -0.11878981 0.13421184 0.08771997 -0.01837021
0001f0 9f 28 4c 3c 3b e4 1f bd b4 94 af bc 78 80 df bd
       0.012460857 -0.039036017 -0.021433212 -0.10913175
000200 2a a7 d1 3d 55 74 93 3c 46 56 94 3d 90 0a 2e bd
       0.10236962 0.017999807 0.07243018 -0.042490542
000210 b9 bf d4 bd 98 b4 c8 bc a4 a0 dc bd 7b 55 f2 3d
       -0.10388131 -0.024500176 -0.10772827 0.1183271
000220 8f ce 66 bd bf 54 e8 3d e5 13 f2 3c ee c6 70 bd
       -0.056349333 0.11344289 0.029550502 -0.058783464
000230 e4 d9 d0 3d 21 20 64 3c 12 c5 da bd 70 b4 3c 3d
       0.10197809 0.013923676 -0.106821194 0.046070516
000240 9e 1d 0a 3e 8d 60 c4 bd ee 8b b1 3d 62 8e 07 3e
       0.1348786 -0.09588728 0.086692676 0.13237908
000250 df ed e3 bd de c8 d2 bd 18 3e 17 bd 51 45 cb 3d
       -0.11129355 -0.102922186 -0.03692445 0.099253304
000260 be 6d 67 bd 84 be f2 3d 52 3b 10 be 71 63 83 3d
       -0.056501143 0.11852744 -0.14085129 0.06415451
000270 cc 2f 16 3c 40 8e 18 3d 53 fa 41 3d 2c c5 2a bb
       0.009166669 0.037245035 0.04735787 -0.0026057465
000280 60 ba 04 bc 6a 2d 12 bd e7 d5 bc ba f6 3a ab bd
       -0.008101076 -0.03568784 -0.001440701 -0.08360855
000290 9e 7d 34 3d 65 4e d1 bd 02 de 0f bc 4f 3d 92 bd
       0.04406511 -0.10220031 -0.008780958 -0.071406
0002a0 ed 23 05 be 03 f9 3b bd 21 e9 4d 3d 15 5a 8e bd
       -0.13001986 -0.045891773 0.050271157 -0.069507755
0002b0 7c 90 b2 bd d5 44 17 3e 0b 97 57 3d 43 97 df 3c
       -0.087189645 0.14772351 0.05263428 0.027293807
0002c0 50 cd 44 bd f6 ea c0 3d cc 52 c2 bd df ad b9 bb
       -0.048047364 0.09419815 -0.094884485 -0.005666479
0002d0 72 87 0a be fe 0b 94 3c 66 b1 67 3d 68 2e 13 be
       -0.13528231 0.018072125 0.056565665 -0.14373171
0002e0 f5 e6 a0 3b 9a 54 4b 3d e9 44 fd 3d 4c 8a 22 bd
       0.0049103447 0.04964123 0.12366659 -0.03968267
0002f0 a3 77 31 3d 9e d6 ab bd 38 95 88 3d a7 85 19 3e
       0.043326985 -0.08390544 0.06669086 0.1499239
000300 f1 bf 8b 3d be 57 57 bd 76 9d 67 bd f7 6f f0 3d
       0.06823719 -0.05257391 -0.05654665 0.117401056
000310 bc 84 f0 bd 3a f2 d1 3b 88 e0 13 b9 cb b9 a8 3d
       -0.11744067 0.0064070495 -0.00014102657 0.08238562
000320 0f 28 52 bd 40 36 e8 3d dd fa 19 3d 49 17 bb 3b
       -0.051307734 0.11338472 0.037592757 0.005709563
000330 48 56 dd bc ba da f6 bd 68 37 7a bd ae 5f 3a bd
       -0.027018681 -0.120534375 -0.061087996 -0.045501404
000340 9a 09 73 3d d7 2c 85 bd 34 70 90 bd 62 e9 dc bd
       0.05933533 -0.06502693 -0.07052651 -0.10786702
000350 70 9b 09 be fe b1 a3 bd 9f b7 9b bd 9a 47 a5 3d
       -0.13438201 -0.07992934 -0.07603382 0.080702975
000360 68 be 1b 3d d7 2f 0e bd be 77 91 3d 0b 5e 78 3d
       0.038023382 -0.034713592 0.07102917 0.06063656
000370 c3 e5 02 3e 37 5a 6b 3c 44 cb de bb 93 67 f8 3d
       0.1278296 0.014364771 -0.0067991335 0.1212913
000380 0d 85 03 bc 9d a8 a1 3d b4 18 96 bd d1 f2 a5 3c
       -0.008027327 0.078934886 -0.073289305 0.020257385
000390 56 86 9c bd c3 49 d7 3d 9b e9 99 3d 6f 2c 42 bd
       -0.0764281 0.10512116 0.0751526 -0.047405656
0003a0 77 23 00 be b9 9b ea 3d 42 e7 8f bb 70 28 ba 3d
       -0.12513529 0.11455483 -0.0043915818 0.09089744
0003b0 5c 4f 67 3d ed 35 1c 3d bf fe d5 bc 58 81 16 be
       0.056472167 0.038137365 -0.026122449 -0.14697778
0003c0 39 c1 57 3d 6e 38 0d bd c3 a8 a3 bd 49 18 b5 3d
       0.052674506 -0.034477644 -0.07991173 0.08842523
0003d0 73 8d 68 bd f3 63 ea 3d c3 00 2d 3d 31 fa d1 3d
       -0.05677552 0.11444845 0.042237055 0.10252798
0003e0 0f 3a 1c 3d 7a 29 31 bc 1a 27 ec 3c 34 8a f2 bd
       0.038141306 -0.010813111 0.028827239 -0.118427664
0003f0 d9 d1 c1 3d fa a8 32 3d 18 ea 84 bd ba b3 bb 3c
       0.094638534 0.04361818 -0.06489962 0.022912849

m_transform.0.10.bias f4 [96]
000000 9e 09 b8 3a c9 a5 19 bd 13 76 03 3e 8f 0d b7 3c
       0.0014040952 -0.03751162 0.1283801 0.022345332
000010 a4 9b 0a 3e 2f bf 29 bd dd c4 28 3d 35 2f 0b be
       0.13535935 -0.041442093 0.04120337 -0.13592227
000020 d5 19 05 3c ec 7f 77 3d 67 fa 93 bc 1b 40 f1 3d
       0.008123835 0.06042473 -0.018063737 0.11779805
000030 ba e2 16 3e a0 63 de 3d 59 b7 e1 bd b4 96 15 3e
       0.14734927 0.10858846 -0.11021299 0.1460827
000040 56 b9 07 bd 84 17 17 bc 73 81 88 3d 89 45 8e 3d
       -0.033135734 -0.009221915 0.066653155 0.069468565
000050 78 af 0a be 2c 8d dd 3d 74 fc 20 3e 68 ef be 3d
       -0.13543499 0.10817942 0.15721303 0.09323007
000060 dc 64 de bc b5 c6 b9 bd 0a a4 56 3d 5b 1c e7 3c
       -0.027147703 -0.090711035 0.052402534 0.028211763
000070 e2 9a 7c 3d df dc ac 3d 43 b9 b5 3d 90 e3 b7 bd
       0.061671145 0.08440565 0.088732265 -0.08978951
000080 0f 56 ed 3d a9 87 b8 bc 32 f5 98 3d c1 0e cc bd
       0.1158868 -0.022525625 0.07468642 -0.099637516
000090 dc 1c 50 3d 45 a8 c7 bc fe a1 32 3d 79 ff ea bd
       0.050808772 -0.02437223 0.04361152 -0.11474509
0000a0 a9 48 e9 3d 2f 03 d9 bd e1 d7 2a 3d dc 2c 42 bd
       0.11390812 -0.1059631 0.041709784 -0.047406062
0000b0 32 92 b2 3d 92 2c 0f 3e 99 3f bc bd 04 14 08 3e
       0.08719291 0.13981846 -0.09191818 0.13288885
0000c0 73 33 86 3d b5 f7 b0 3d 5e f6 0c be 37 6f 71 ba
       0.06552782 0.08640996 -0.13765857 -0.0009209993
0000d0 96 96 d2 bd 12 96 d4 3d 7c dc c9 3d 18 ea 58 bd
       -0.10282628 0.10380186 0.09856507 -0.052957624
0000e0 25 58 42 3d eb cb c8 3c 34 7d b9 3c dc b0 e4 bd
       0.047447342 0.024511298 0.02264271 -0.11166546
0000f0 d7 66 03 be d6 e0 ff bd 0b b3 b6 3b 3e a2 4a bd
       -0.12832199 -0.12494056 0.005575543 -0.049471132
000100 5e 22 c0 bd 82 0d 49 3d f5 68 22 bd 49 8b cb 3d
       -0.09381555 0.049085148 -0.039650876 0.09938676
000110 49 c0 05 bd 83 1f 85 3c 9b 5b e9 3d af 73 91 3c
       -0.03265408 0.016250378 0.113944255 0.017755358
000120 33 f5 b2 3d 96 7f c5 3d ea 10 b3 3d a7 c3 aa 3d
       0.08738174 0.09643476 0.087434605 0.08338099
000130 f8 9e 6a 3d d1 2d 06 be 13 49 f6 bd e1 33 b6 3d
       0.05728051 -0.13103415 -0.120256566 0.08896614
000140 66 9b 36 bd f4 e4 e1 3d ed 73 23 bc 8c ac f6 bd
       -0.044581793 0.110299975 -0.009976369 -0.120446295
000150 90 e7 89 3d f2 f6 99 3d 59 5d f1 3c 6b ab 93 3d
       0.0673362 0.07517804 0.029463457 0.0721043
000160 21 aa 06 be 82 6e 85 bd e0 d7 e3 ba ed 54 4a ba
       -0.13150837 -0.06515218 -0.0017383061 -0.00077183434
000170 70 11 a8 bd 73 dd f7 3d 4f 3d 73 3d fc 83 cd 3d
       -0.08206451 0.12102785 0.05938464 0.1003494

m_transform.0.12.running_mean f4 [48]
000000 b6 e4 d2 3e 7d d7 69 3e d9 46 cf 3e 93 fa b4 3e
       0.41190118 0.22836109 0.4048374 0.35347423
000010 fc 9e 81 3e 70 0d d9 3e 79 86 e4 3e 0c 89 0a 3e
       0.25316608 0.42393064 0.44633844 0.13528842
000020 87 d9 cb 3e d5 ca 9f 3e 09 94 b1 3e d7 f5 85 3e
       0.39814398 0.31209436 0.34683254 0.26164123
000030 16 b6 9a 3e 40 4e 91 3e fe 5b 86 3e 0f e5 e3 3e
       0.30217046 0.28380013 0.2624206 0.44510695
000040 97 80 14 3e ee d6 54 3e 94 59 71 3e 70 82 c0 3e
       0.14502178 0.20785114 0.23569328 0.37599516
000050 53 ed c0 3e bc 63 87 3e ad 79 18 3f cf 0f d2 3e
       0.37681064 0.2644328 0.5956066 0.41027686
000060 81 78 f8 3e 2f 4c bf 3e 36 ee 28 3f 13 42 a8 3e
       0.48529437 0.3736281 0.6598848 0.3286291
000070 85 8d a7 3e 20 49 84 3e 2a bc a2 3e 9b 66 dd 3e
       0.32725158 0.2583704 0.31784183 0.43242344
000080 a7 d7 b8 3e 90 8e f3 3e 38 4b ba 3e 56 bd 27 3e
       0.3610203 0.47569704 0.36385512 0.1638082
000090 82 02 0b 3f e6 f4 a0 3e 48 56 c7 3e bf 0e fd 3e
       0.543007 0.31436843 0.38933015 0.49425313
0000a0 75 f5 03 3f 27 3c 9e 3e 6c ae e8 3e bf cd a9 3e
       0.5154641 0.30905268 0.45445573 0.33164784
0000b0 9b c8 80 3e dc 63 03 3f 79 bc bc 3e bf 20 e9 3e
       0.2515305 0.5132425 0.36862543 0.45532796

m_transform.0.12.running_var f4 [48]
000000 e4 e8 87 3e 96 be 69 3e c1 b7 06 3e 9b 72 6c 3e
       0.2654487 0.22826609 0.13156034 0.23090594
000010 cb bd 29 3e d7 96 16 3e cb 55 4e 3e 8e d3 29 3e
       0.16576307 0.14705978 0.20149915 0.16584608
000020 72 0c 13 3e 63 c8 15 3e 6c 45 49 3e 53 82 30 3e
       0.14360216 0.14627223 0.19655389 0.17237215
000030 ab 2c 42 3e e2 f4 54 3e ce 13 0c 3e 42 10 3b 3e
       0.18962352 0.2079654 0.1367943 0.1826792
000040 aa 71 7b 3e 31 2c 33 3e 7b f5 2a 3e bd 8d 14 3e
       0.24555078 0.17497326 0.16695206 0.14507194
000050 04 75 3a 3e 58 19 c8 3d 50 01 24 3e 4a ed 63 3e
       0.182087 0.09770459 0.16016126 0.22258487
000060 ab bd 13 3e 6c b6 20 3e 1d 83 ae 3e 04 3a 22 3e
       0.14427821 0.15694588 0.34084406 0.15842444
000070 a9 6e 5f 3e 53 8e 80 3e 27 e9 15 3e fa 55 41 3e
       0.21819557 0.25108585 0.14639722 0.18880454
000080 fc 03 64 3e 53 87 54 3e 6c 88 01 3e cf 7e 1d 3e
       0.22267145 0.20754747 0.12649697 0.15380405
000090 aa 27 8c 3e 16 6f ca 3d 50 06 74 3e 99 e7 dd 3e
       0.2737401 0.09884469 0.23830533 0.43340757
0000a0 5a 60 e5 3e ac 5e 2b 3e 9f 7a d0 3e 01 ce cb 3e
       0.44800073 0.16735333 0.40718552 0.39805606
0000b0 7e e9 f9 3e 0d 1c 84 3e f1 8b 4c 3e d5 e3 52 3e
       0.48810953 0.2580265 0.19975258 0.20594724
