Auxillary_Code/LCNN/project/03-asvspoof-mega/lfcc-lcnn-attention-sig/01/__pretrained/trained_network.pt (torch, 671748 bytes, 33 tensors)

m_frontend.0.lfcc_fb f4 [257, 20]
000000 00 00 00 00 00 00 00 00 00 00 00 00 00 00 00 00
       0.0 0.0 0.0 0.0
000010 00 00 00 00 00 00 00 00 00 00 00 00 00 00 00 00
       0.0 0.0 0.0 0.0
000020 00 00 00 00 00 00 00 00 00 00 00 00 00 00 00 00
       0.0 0.0 0.0 0.0
000030 00 00 00 00 00 00 00 00 00 00 00 00 00 00 00 00
       0.0 0.0 0.0 0.0
000040 00 00 00 00 00 00 00 00 00 00 00 00 00 00 00 00
       0.0 0.0 0.0 0.0
000050 00 00 a8 3d 00 00 00 00 00 00 00 00 00 00 00 00
       0.08203125 0.0 0.0 0.0
000060 00 00 00 00 00 00 00 00 00 00 00 00 00 00 00 00
       0.0 0.0 0.0 0.0
000070 00 00 00 00 00 00 00 00 00 00 00 00 00 00 00 00
       0.0 0.0 0.0 0.0
000080 00 00 00 00 00 00 00 00 00 00 00 00 00 00 00 00
       0.0 0.0 0.0 0.0
000090 00 00 00 00 00 00 00 00 00 00 00 00 00 00 00 00
       0.0 0.0 0.0 0.0
0000a0 00 00 28 3e 00 00 00 00 00 00 00 00 00 00 00 00
       0.1640625 0.0 0.0 0.0
0000b0 00 00 00 00 00 00 00 00 00 00 00 00 00 00 00 00
       0.0 0.0 0.0 0.0
0000c0 00 00 00 00 00 00 00 00 00 00 00 00 00 00 00 00
       0.0 0.0 0.0 0.0
0000d0 00 00 00 00 00 00 00 00 00 00 00 00 00 00 00 00
       0.0 0.0 0.0 0.0
0000e0 00 00 00 00 00 00 00 00 00 00 00 00 00 00 00 00
       0.0 0.0 0.0 0.0
0000f0 ff ff 7b 3e 00 00 00 00 00 00 00 00 00 00 00 00
       0.24609374 0.0 0.0 0.0
000100 00 00 00 00 00 00 00 00 00 00 00 00 00 00 00 00
       0.0 0.0 0.0 0.0
000110 00 00 00 00 00 00 00 00 00 00 00 00 00 00 00 00
       0.0 0.0 0.0 0.0
000120 00 00 00 00 00 00 00 00 00 00 00 00 00 00 00 00
       0.0 0.0 0.0 0.0
000130 00 00 00 00 00 00 00 00 00 00 00 00 00 00 00 00
       0.0 0.0 0.0 0.0
000140 00 00 a8 3e 00 00 00 00 00 00 00 00 00 00 00 00
       0.328125 0.0 0.0 0.0
000150 00 00 00 00 00 00 00 00 00 00 00 00 00 00 00 00
       0.0 0.0 0.0 0.0
000160 00 00 00 00 00 00 00 00 00 00 00 00 00 00 00 00
       0.0 0.0 0.0 0.0
000170 00 00 00 00 00 00 00 00 00 00 00 00 00 00 00 00
       0.0 0.0 0.0 0.0
000180 00 00 00 00 00 00 00 00 00 00 00 00 00 00 00 00
       0.0 0.0 0.0 0.0
000190 00 00 d2 3e 00 00 00 00 00 00 00 00 00 00 00 00
       0.41015625 0.0 0.0 0.0
0001a0 00 00 00 00 00 00 00 00 00 00 00 00 00 00 00 00
       0.0 0.0 0.0 0.0
0001b0 00 00 00 00 00 00 00 00 00 00 00 00 00 00 00 00
       0.0 0.0 0.0 0.0
0001c0 00 00 00 00 00 00 00 00 00 00 00 00 00 00 00 00
       0.0 0.0 0.0 0.0
0001d0 00 00 00 00 00 00 00 00 00 00 00 00 00 00 00 00
       0.0 0.0 0.0 0.0
0001e0 ff ff fb 3e 00 00 00 00 00 00 00 00 00 00 00 00
       0.49218747 0.0 0.0 0.0
0001f0 00 00 00 00 00 00 00 00 00 00 00 00 00 00 00 00
       0.0 0.0 0.0 0.0
000200 00 00 00 00 00 00 00 00 00 00 00 00 00 00 00 00
       0.0 0.0 0.0 0.0
000210 00 00 00 00 00 00 00 00 00 00 00 00 00 00 00 00
       0.0 0.0 0.0 0.0
000220 00 00 00 00 00 00 00 00 00 00 00 00 00 00 00 00
       0.0 0.0 0.0 0.0
000230 00 00 13 3f 00 00 00 00 00 00 00 00 00 00 00 00
       0.57421875 0.0 0.0 0.0
000240 00 00 00 00 00 00 00 00 00 00 00 00 00 00 00 00
       0.0 0.0 0.0 0.0
000250 00 00 00 00 00 00 00 00 00 00 00 00 00 00 00 00
       0.0 0.0 0.0 0.0
000260 00 00 00 00 00 00 00 00 00 00 00 00 00 00 00 00
       0.0 0.0 0.0 0.0
000270 00 00 00 00 00 00 00 00 00 00 00 00 00 00 00 00
       0.0 0.0 0.0 0.0
000280 00 00 28 3f 00 00 00 00 00 00 00 00 00 00 00 00
       0.65625 0.0 0.0 0.0
000290 00 00 00 00 00 00 00 00 00 00 00 00 00 00 00 00
       0.0 0.0 0.0 0.0
0002a0 00 00 00 00 00 00 00 00 00 00 00 00 00 00 00 00
       0.0 0.0 0.0 0.0
0002b0 00 00 00 00 00 00 00 00 00 00 00 00 00 00 00 00
       0.0 0.0 0.0 0.0
0002c0 00 00 00 00 00 00 00 00 00 00 00 00 00 00 00 00
       0.0 0.0 0.0 0.0
0002d0 00 00 3d 3f 00 00 00 00 00 00 00 00 00 00 00 00
       0.73828125 0.0 0.0 0.0
0002e0 00 00 00 00 00 00 00 00 00 00 00 00 00 00 00 00
       0.0 0.0 0.0 0.0
0002f0 00 00 00 00 00 00 00 00 00 00 00 00 00 00 00 00
       0.0 0.0 0.0 0.0
000300 00 00 00 00 00 00 00 00 00 00 00 00 00 00 00 00
       0.0 0.0 0.0 0.0
000310 00 00 00 00 00 00 00 00 00 00 00 00 00 00 00 00
       0.0 0.0 0.0 0.0
000320 00 00 52 3f 00 00 00 00 00 00 00 00 00 00 00 00
       0.8203125 0.0 0.0 0.0
000330 00 00 00 00 00 00 00 00 00 00 00 00 00 00 00 00
       0.0 0.0 0.0 0.0
000340 00 00 00 00 00 00 00 00 00 00 00 00 00 00 00 00
       0.0 0.0 0.0 0.0
000350 00 00 00 00 00 00 00 00 00 00 00 00 00 00 00 00
       0.0 0.0 0.0 0.0
000360 00 00 00 00 00 00 00 00 00 00 00 00 00 00 00 00
       0.0 0.0 0.0 0.0
000370 00 00 67 3f 00 00 00 00 00 00 00 00 00 00 00 00
       0.90234375 0.0 0.0 0.0
000380 00 00 00 00 00 00 00 00 00 00 00 00 00 00 00 00
       0.0 0.0 0.0 0.0
000390 00 00 00 00 00 00 00 00 00 00 00 00 00 00 00 00
       0.0 0.0 0.0 0.0
0003a0 00 00 00 00 00 00 00 00 00 00 00 00 00 00 00 00
       0.0 0.0 0.0 0.0
0003b0 00 00 00 00 00 00 00 00 00 00 00 00 00 00 00 00
       0.0 0.0 0.0 0.0
0003c0 ff ff 7b 3f 00 00 00 00 00 00 00 00 00 00 00 00
       0.98437494 0.0 0.0 0.0
0003d0 00 00 00 00 00 00 00 00 00 00 00 00 00 00 00 00
       0.0 0.0 0.0 0.0
0003e0 00 00 00 00 00 00 00 00 00 00 00 00 00 00 00 00
       0.0 0.0 0.0 0.0
0003f0 00 00 00 00 00 00 00 00 00 00 00 00 00 00 00 00
       0.0 0.0 0.0 0.0

m_transform.0.0.weight f4 [64, 1, 5, 5]
000000 e8 8d f2 3d db e9 a2 bd 5d 50 2b bd a4 75 64 3d
       0.11843473 -0.07954761 -0.041824687 0.055776253
000010 f2 03 4b be 53 fc 0a 3e 2d 5c 11 bd a0 e5 bb 3d
       -0.19825724 0.13572817 -0.035488296 0.09174657
000020 3d 2b 1d bc c1 7b e3 bc e1 39 9c 3d 55 3e 88 3c
       -0.009592828 -0.027768971 0.07628227 0.016631285
000030 c3 9b 80 3d 7c 22 ef bd b2 9e 83 bc af c9 14 3c
       0.06279709 -0.11676499 -0.016066883 0.009081288
000040 49 70 28 3d 8f bb 60 3c 6e b5 20 3e a9 5f 84 3d
       0.04112271 0.013716592 0.1569421 0.06463558
000050 9a a8 61 bd c7 8b e5 bd a0 b3 86 bc 5b 57 b5 bd
       -0.05509243 -0.11208301 -0.016443074 -0.08854552
000060 16 dd 4b bd 6a 3f 08 3d 8a 68 ea 3d e8 24 dc 3d
       -0.04977139 0.0332636 0.114457205 0.10749227
000070 76 41 3c be 7a 59 b1 3d bd 3f a2 3d f9 42 3f 3e
       -0.18384346 0.086596444 0.07922313 0.18677892
000080 06 5b 0a 3e 50 6d 42 be df 14 69 be 64 b2 a8 bd
       0.13511285 -0.18987012 -0.22761868 -0.0823715
000090 b1 65 2c 3e a2 71 07 bd e3 65 cc 3d 24 76 d5 bd
       0.16835667 -0.033067353 0.09980371 -0.10422924
0000a0 2e 8d 5b 3e 82 92 b0 bd 81 ac 20 3e 43 ef 9b bb
       0.21440575 -0.08621694 0.15690805 -0.004758747
0000b0 1c 59 f0 bd 98 45 d9 3d 10 73 d7 bd 7e ba 96 3d
       -0.11735746 0.10608977 -0.10519993 0.07359789
0000c0 bf b6 82 bd 4a 8e 56 bd 85 3a 54 be 45 27 bd bd
       -0.06382512 -0.05238179 -0.20725448 -0.09236006
0000d0 ce 4f 08 3e d0 41 d7 bc e4 43 36 3e f0 3b 1a 3e
       0.13311693 -0.026276499 0.17799336 0.15061927
0000e0 21 9e 55 3b 77 4e e7 bd 58 12 fb 3d 78 42 3e 3d
       0.0032595473 -0.11294263 0.12259358 0.04645011
0000f0 30 16 0b be f9 f8 0d 3e 2c c5 15 3e 4b 9e 4b 3e
       -0.13582683 0.13864507 0.14625996 0.19884603
000100 05 99 d2 bd 88 c6 c6 bc 4b cf 20 3c fd 38 24 3d
       -0.102830924 -0.024264589 0.0098150475 0.04009341
000110 bf 02 11 be c6 ff 13 be 3c 34 dd 3d 6b 81 cf bc
       -0.14161204 -0.14453039 0.108009785 -0.025330266
000120 eb 02 02 3e f2 a6 1f 3d 2b f8 a0 3d 30 94 3e 3d
       0.12696426 0.03897757 0.07859834 0.04652804
000130 b3 07 87 3d 11 04 00 3e 57 ff 2a be a7 34 df 3d
       0.065932654 0.12501551 -0.16698967 0.108987145
000140 67 a2 06 be c7 90 18 be b3 f1 f6 3b 12 bc c9 bc
       -0.13147889 -0.14898978 0.007536137 -0.024625812
000150 84 e0 fb 3d e9 3f d3 bd 56 64 30 be 3c 15 0e 3e
       0.12298682 -0.10314924 -0.17225775 0.13875288
000160 6a 4f 0c bd 84 36 de 3d 8b 44 7b 3d 2a ab 18 be
       -0.034255423 0.10850242 0.061344665 -0.14909044
000170 5b 39 2d 3d 14 7d 94 3c f8 6e 0b be c5 7c c0 bd
       0.042291027 0.018126048 -0.1361655 -0.09398798
000180 2c 9a 70 3d 45 89 e3 3c 1b 1a df bd 27 9a 6a bd
       0.05874078 0.027775416 -0.10893651 -0.057275917
000190 a3 a5 3b 3e dd 83 ab bc 85 7e db 3d b8 b6 c9 3d
       0.18324904 -0.0209369 0.10717491 0.09849304
0001a0 c6 45 01 be e2 58 38 be 7c b2 4b 3e 71 14 ad bb
       -0.12624273 -0.18002656 0.19892305 -0.005281978
0001b0 62 6f 12 3e 7b f6 48 3d da b8 8e 3d 12 bf 1d 3e
       0.14300302 0.049063187 0.069688514 0.15404919
0001c0 5d 94 38 3e 81 d4 f4 bd 0e 35 12 3d 5e a4 20 3e
       0.18025346 -0.119545944 0.03569513 0.15687701
0001d0 90 c7 14 3e 5d 43 d9 3d 8f d9 12 be 96 ae 10 be
       0.14529252 0.10608552 -0.14340805 -0.14129099
0001e0 c2 dc fa bd fc 44 15 3d 92 72 46 3e cd 7b f9 bd
       -0.122491375 0.03644274 0.19379643 -0.12181816
0001f0 5b 91 ec 3d 3c ca 11 be 77 95 2e be 12 b3 87 bd
       0.11551162 -0.14237303 -0.17049204 -0.06625952
000200 79 bd dd 3d 0b 24 39 3e cf e8 19 be 86 6a 63 3d
       0.10827155 0.18080156 -0.15030216 0.05552151
000210 d9 b8 14 3e 8e 09 f7 3d ce 31 f5 3d 00 05 f1 3d
       0.14523639 0.12062369 0.1197239 0.11768532
000220 f5 e2 10 3e 0c f7 e0 3c bc de 12 be 1d 84 1b be
       0.14149077 0.027461551 -0.14342779 -0.15187116
000230 d1 81 f7 bd 18 31 2a bc 63 1f 0e be 0e 85 95 3d
       -0.120853074 -0.010387681 -0.1387916 0.07300769
000240 20 ce a4 3d c7 e3 96 bd 6f 9b b2 3d 63 76 1c 3d
       0.08047128 -0.07367664 0.08721053 0.03819884
000250 d3 4f f8 3d f0 7d dd 3d 58 35 92 bd d8 36 69 3e
       0.121246 0.10815036 -0.07139081 0.22774827
000260 f0 83 17 bd 6c 4d 8e 3c cb 0c 57 be a5 4f 0a be
       -0.03699106 0.017370902 -0.21000974 -0.13506944
000270 90 2d cd bd 1f 70 c6 bd b2 38 28 3e b4 b2 b2 bd
       -0.10018456 -0.09689354 0.16427878 -0.08725491
000280 d2 22 22 be c5 2d ae 3d a0 a4 3a 3d bb 06 1c 3e
       -0.15833595 0.085048236 0.045567155 0.15236942
000290 ba f4 dd bd 6e f7 17 3d 1c fd 10 bd 3c f6 93 bd
       -0.108376935 0.0371012 -0.035397634 -0.072247
0002a0 23 b0 fc bd ac 4f d6 bd 8f 51 90 bd a3 dc dd 3d
       -0.12338283 -0.10464415 -0.07046806 0.10833099
0002b0 f0 4a e2 ba 3a 15 97 3d 8c 55 24 3e 32 da 57 3e
       -0.0017264765 0.073770955 0.16048259 0.21079329
0002c0 e7 de 13 3e 23 2d 0a 3d a0 e1 0b be 12 83 0a 3e
       0.14440499 0.033734452 -0.13660288 0.13526562
0002d0 72 63 51 bd 97 3b 68 bb 1d 4c 24 be 41 d5 2e bd
       -0.05112023 -0.003543591 -0.1604466 -0.042683844
0002e0 99 f0 11 be 79 c3 39 3e b7 9b 15 be 9c ab 0d be
       -0.14251937 0.18140973 -0.14610182 -0.13834995
0002f0 d6 d8 2b 3b cf da d3 bd 50 84 9d 3d 2c 28 64 bd
       0.0026221774 -0.10344469 0.07691252 -0.055702373
000300 c7 b4 a8 bd 6a 78 03 3d 2a 75 22 3e 98 dc 03 be
       -0.082376055 0.032097258 0.15865007 -0.12877119
000310 43 31 ea 3d 2d 50 11 3e 1a c0 5a 3e 20 6a eb bd
       0.11435177 0.14190741 0.21362343 -0.11494851
000320 48 6f 47 3d d5 45 2e be af 14 36 3e ff cf b0 bd
       0.04869011 -0.17018826 0.17781328 -0.08633422
000330 82 96 1d 3e b0 af 07 3a 0b 01 2c bc 17 88 d5 bb
       0.15389445 0.0005176021 -0.010498296 -0.0065164673
000340 5c 4f 50 3c b3 65 e6 3d 25 d3 aa 3c 0a 36 88 3d
       0.012714233 0.11249866 0.020852635 0.06650932
000350 5e e5 2e be a0 33 14 3e c5 a2 3f 3e b3 d2 26 3e
       -0.17079684 0.14472818 0.18714435 0.16291313
000360 e3 26 0d 3e ef 9d 08 be 2f df 90 bd 41 cc 36 3e
       0.13784365 -0.13341497 -0.07073819 0.17851354
000370 3d c5 2f be e8 ea 32 3e e6 ee 26 be d1 d6 ec bd
       -0.17165084 0.17472422 -0.1630207 -0.115644105
000380 56 09 d0 3d 59 f4 07 be ea c4 d0 bc bc 52 16 3e
       0.10158031 -0.13276805 -0.025484521 0.14679998
000390 23 01 1c 3e 7a 53 25 3e 14 97 ed bc 68 99 19 be
       0.15234809 0.16145125 -0.029002704 -0.14999926
0003a0 18 40 4f 3e 63 92 e5 bc 9e 4c cd bd f3 68 76 3d
       0.20239294 -0.028023904 -0.10024379 0.06015868
0003b0 c9 c2 0a be a4 6f 16 3e a1 f6 08 3e fa 6c 2d be
       -0.13550867 0.14691025 0.13375331 -0.16936103
0003c0 93 7b 1d be 59 a9 17 bc 12 19 df 3d 47 98 f6 bb
       -0.15379171 -0.009256684 0.10893454 -0.007525477
0003d0 11 72 f3 bd f9 8b 46 3c d7 e7 40 be fd 74 02 be
       -0.11886991 0.012118333 -0.1883844 -0.1273994
0003e0 76 41 06 be 4f 32 1a 3e a6 cb e9 3d f3 48 12 bd
       -0.13110909 0.15058254 0.11415796 -0.0357141
0003f0 ca 31 14 bd 51 2e e5 3d 10 f4 91 bb c3 32 0c be
       -0.036180295 0.11190475 -0.0044541433 -0.13691239

m_transform.0.0.bias f4 [64]
000000 be dc 00 bd c6 03 b2 bb fe b6 fd bd ad 4c 0f 3e
       -0.031460516 -0.0054325787 -0.123884186 0.13994093
000010 f6 e8 16 3e e7 5d ff bd f6 22 44 3e 92 44 45 3e
       0.14737305 -0.12469082 0.19153962 0.19264439
000020 46 e7 da bd dd 5b 12 bd 82 40 62 3e 7e b6 09 be
       -0.10688643 -0.03573214 0.2209492 -0.13448521
000030 e3 47 82 bc 79 a5 14 be 99 09 21 3e b4 8a 28 3d
       -0.015903419 -0.14516248 0.15726317 0.041147903
000040 d6 13 a4 3d c9 33 0e 3e ec 77 4c bd ae 7c 3e be
       0.08011596 0.13886942 -0.049919054 -0.18602249
000050 8b 6c 0a bb e7 bb d1 bc 4c 4c a0 3d 53 80 90 3d
       -0.0021121826 -0.025602294 0.078270525 0.07055726
000060 1f 15 dc bd 32 bc 62 bd a4 a4 00 3e 9c 01 b6 3d
       -0.10746216 -0.05535526 0.12562805 0.08887026
000070 6b bf 5b 3d ee c5 d8 3d 73 f4 c4 3d 44 63 16 be
       0.053649347 0.10584627 0.096169375 -0.14686304
000080 22 b6 34 3c 32 bb 87 3c 8a 1f 4e be 5f 13 8f 3d
       0.011029752 0.016568754 -0.20129219 0.069861166
000090 d2 d0 87 b9 dd df 1e 3e cd 40 65 be fa 26 2f 3e
       -0.0002590479 0.15515085 -0.22388001 0.17104712
0000a0 09 e2 e6 bd f8 0f 0c 3e 3a 91 e2 3d c0 a3 11 bd
       -0.112735815 0.13677967 0.11062856 -0.035556555
0000b0 0c 46 07 be a8 f6 31 bd af f8 0b be 9e 98 be 3c
       -0.13210315 -0.04344812 -0.13669084 0.023266133
0000c0 f9 1b a4 3d 20 4e 01 3d db 72 db bd e9 b3 d0 3d
       0.08013148 0.031568646 -0.10715266 0.10190565
0000d0 33 fd 53 3e b6 5d 50 bd 59 50 d4 3d 54 18 57 bb
       0.20702057 -0.05087062 0.103668876 -0.0032820897
0000e0 7e bc af 3d 80 67 39 be a0 04 29 be ce 05 10 bd
       0.08580874 -0.18105888 -0.1650567 -0.035161786
0000f0 e0 42 38 be 61 33 53 3d ff 05 37 3e 6d c6 1f bd
       -0.17994261 0.05156267 0.17873381 -0.039007593

m_transform.0.3.weight f4 [64, 32, 1, 1]
000000 db be 8a 3b b4 2d 18 3d 60 c1 98 bd 6d b0 dd 3b
       0.0042341775 0.03715296 -0.07458758 0.0067654164
000010 0d 7c 48 3d 38 41 18 3e fb ba 05 be 82 cc 9f ba
       0.04894643 0.14868629 -0.13059609 -0.0012191685
000020 bd 60 10 be 26 1c a8 ba e3 04 20 3c 95 6e 5f bd
       -0.14099403 -0.0012825772 0.00976679 -0.05454882
000030 1d b1 0c 3e e7 5e f5 3d 3d ee 7c bd a9 cb 9c bc
       0.13739438 0.11980992 -0.06175064 -0.019140081
000040 4d 6b 4d bd f5 24 65 3c 5c d5 88 3d d4 7e 32 3e
       -0.050151158 0.013985862 0.0668132 0.17431194
000050 09 b4 13 be 23 2d d2 3d cc 6e c9 bd eb 7d 0a be
       -0.14424147 0.102625154 -0.09835586 -0.13524596
000060 fc 66 1a 3e 97 e2 1d bd 2b 93 c2 bd 8c 14 8d 3d
       0.15078348 -0.03854617 -0.09500726 0.06888685
000070 78 62 ff bc 87 d2 19 be ae 05 ac bd 9d eb 91 bd
       -0.031174883 -0.15021716 -0.08399521 -0.07125018
000080 c6 cf 42 bc 7c 43 0b be e6 64 45 be 1a 62 ca 3d
       -0.011890357 -0.13599962 -0.19276771 0.09881993
000090 62 a9 1d be fd 59 9a bc 64 45 0f 3e 8c fa 97 bd
       -0.15396646 -0.018841738 0.13991314 -0.07420835
0000a0 eb 36 f7 bd 09 ec 9b 3c c8 b7 29 3e fa 19 ba bc
       -0.12071022 0.019033449 0.16574013 -0.022717465
0000b0 64 97 d2 bc a2 1e 7d 3d c3 26 8d 3b 72 44 21 3d
       -0.025706954 0.06179679 0.0043075993 0.039371915
0000c0 4c 83 a1 3d 23 37 83 3d a7 c2 ff bd 3d a8 9d bd
       0.07886371 0.06407001 -0.12488299 -0.076981045
0000d0 87 88 d3 3d 95 15 2e 3b c9 bd 13 3d b0 0a 33 3e
       0.10328775 0.0026563157 0.036069665 0.17484546
0000e0 8b 96 c8 3d c1 53 bb 3d 5e 48 19 3e 6c 3b 2e be
       0.09794339 0.09146834 0.14969012 -0.17014855
0000f0 23 d5 19 3c 46 9f 47 3d 85 b2 67 bd c9 b7 b5 bd
       0.009389195 0.04873588 -0.056566734 -0.08872945
000100 2b 0f cc 3c 9b e3 20 be bc 78 8d bd 18 62 17 3e
       0.024909576 -0.15711825 -0.06907794 0.14783514
000110 f8 28 86 bd 73 e3 16 bd ef 22 d7 3d 6d 28 4e bd
       -0.06550783 -0.036838006 0.1050471 -0.05033152
000120 5f 8a b2 3c 44 c9 31 be f2 3b e8 3d e1 25 09 be
       0.021794496 -0.17361933 0.11339559 -0.13393356
000130 36 9a 75 3c 08 fa 34 be af 50 2a be 64 f2 0d 3e
       0.01499038 -0.17673504 -0.16632341 0.13861996
000140 cc 84 c3 bd 60 28 34 bc 19 90 45 3c c8 a1 26 3e
       -0.09546813 -0.010995954 0.012058281 0.16272652
000150 3b 15 8f 3d 9c c5 b1 3d 5e b5 9d bd 36 23 70 bd
       0.06986471 0.08680269 -0.07700609 -0.05862733
000160 c2 5e 15 3e bc 63 c6 3d 9f 8a 3d 3d 0e 5e ed bd
       0.14586928 0.096869916 0.046274778 -0.11590205
000170 fb 74 1c be 09 be 8b 3c aa 38 05 be 1f 05 f6 3d
       -0.15279 0.01705839 -0.13009897 0.120126955
000180 6b ed 21 3e df 3c be bd 7f b3 ff bd 4a 9e 2d 3e
       0.15813224 -0.09288954 -0.12485408 0.16954914
000190 fc 2a b7 bd 85 88 19 be e7 fb 19 be 1d ce eb 3c
       -0.089437455 -0.14993484 -0.150375 0.028784806
0001a0 9a 3f 00 3d ca 7b cd 3d 51 ae 10 3e 9c 0e 88 3d
       0.031310655 0.100333765 0.14128996 0.066434115
0001b0 c9 e7 e2 3b af 94 1a 3e 5a e4 b9 bd 00 5b a0 bc
       0.0069246036 0.15095781 -0.09076758 -0.019574642
0001c0 3c ab 0d 3e be f3 8f bd f0 47 cd 3d 21 24 21 3d
       0.13834852 -0.07028912 0.100234866 0.039341096
0001d0 55 01 14 3d 59 de 77 bd 88 3b 21 be 0d 36 06 3e
       0.036134083 -0.06051478 -0.15745366 0.13106556
0001e0 a0 bc 15 3e 90 5c 05 be 0b 02 d0 bd 91 44 8b bc
       0.14622736 -0.13023591 -0.1015664 -0.017000468
0001f0 c7 a1 b6 3d 8e e7 cb bc e2 e6 c8 bd cf 23 01 3e
       0.08917575 -0.024890687 -0.098096624 0.12611316
000200 ce f3 ba bd 82 18 41 3e f3 e2 21 3c fd 4d 97 3d
       -0.09128533 0.18857005 0.009880769 0.07387922
000210 b2 da 52 3d 47 e8 e0 3c b8 86 f7 3d 7f e0 92 bb
       0.051478095 0.027454508 0.120862424 -0.0044823284
000220 04 d9 03 3e 04 50 6d 3d d6 77 b2 bd a0 d0 dd 3d
       0.12875754 0.057937637 -0.08714263 0.10830808
000230 35 21 05 be e2 35 af 3d 39 f4 0a bd b9 12 5f 3d
       -0.13000949 0.08555199 -0.033924315 0.054461215
000240 dd 10 31 bd 71 bf 47 3d 78 50 01 bd 92 64 a5 3d
       -0.043228973 0.048766557 -0.03157088 0.08075823
000250 73 b0 9b 3d 61 b4 1d be 6c 1e 24 3e 53 07 12 be
       0.076020144 -0.1540084 0.1602723 -0.14260606
000260 3c 1b 7c bd 92 4b c6 3d 86 1b 29 3e 16 bd 91 3d
       -0.06154941 0.09682383 0.16514406 0.071161434
000270 22 3b d1 bd 4c e4 09 3d 43 81 e9 bd 02 cc ab 3d
       -0.10216357 0.033664986 -0.11401608 0.08388521
000280 08 80 db 3c d7 90 ee 3c b9 40 0c be 61 0c bf 3d
       0.026794448 0.0291218 -0.13696565 0.09328533
000290 5b 32 2f 3e be fe 0b be 58 76 6d 3d d1 e6 8e bd
       0.17109053 -0.13671395 0.05797419 -0.069776185
0002a0 dc 98 2f bd 0b 7e 1c 3e 75 a8 14 be 15 af 2a bd
       -0.042870387 0.15282457 -0.14517386 -0.041670877
0002b0 84 b5 fb 3c fc e3 b6 3d 64 49 5a bd 6c a6 a6 bd
       0.030726202 0.08930203 -0.053292647 -0.08137211
0002c0 c2 bb fa 3c 23 cb 1b be 08 6d 02 3d 6c ca dd bd
       0.030607108 -0.1521421 0.03184226 -0.108296245
0002d0 cf 8a 48 bd c1 25 26 3e 54 13 13 be 5f 97 a6 bd
       -0.048960503 0.1622534 -0.14362842 -0.081343405
0002e0 d0 b5 f1 bd d7 d8 f2 3d d5 4c 17 3e 57 b6 d9 bd
       -0.11802256 0.11857765 0.14775403 -0.10630482
0002f0 27 14 ee 3d 59 99 ef 3d 37 94 20 be 14 67 20 3d
       0.116249375 0.116991706 -0.1568154 0.039160803
000300 38 16 95 3d 7b 47 01 bd 77 05 e4 3d 1d c3 c0 bc
       0.072796285 -0.03156231 0.11133855 -0.023530537
000310 61 44 d8 bb 84 9e 99 3d 20 00 29 be 68 44 39 be
       -0.0065999483 0.075009376 -0.16503954 -0.18092501
000320 e4 23 09 3d e0 3f 2f 3c cc ba 05 3c e1 72 e8 bd
       0.033481494 0.010696381 0.008162212 -0.113500364
000330 41 19 01 3e 08 ba ed bd 45 ce 99 bd bf 1e 16 be
       0.1260729 -0.11607748 -0.07510046 -0.14660166
000340 fc 7d 38 be 8f 89 35 3d e9 5e 9d bd 57 5d ce 3d
       -0.18016809 0.04432064 -0.07684118 0.10076397
000350 89 7c 25 3e 4e 69 52 3d e4 20 1b 3e 0f 2c 06 be
       0.16160788 0.051369958 0.15149266 -0.13102745
000360 6b 4d b3 3d f7 f5 d1 3d ae 5e 8b bd 70 f9 8d bc
       0.08755001 0.10251992 -0.06805168 -0.017330855
000370 4d f0 d7 bd 1e 58 14 3c bd 23 19 be e9 e4 f0 bd
       -0.105438806 0.009054212 -0.1495504 -0.11762411
000380 49 df 17 be c4 3d bc bc ff 4f bf 3c b7 0a 0c be
       -0.1483127 -0.02297867 0.023353575 -0.13675962
000390 a9 7e 83 bd d5 a6 de 3d fb 3a 91 3b dc 77 14 3d
       -0.06420643 0.108716644 0.00443208 0.03624712
0003a0 ff 6e 9a bd c4 5a 45 bd 17 7c 1b be e9 c2 26 3e
       -0.07540702 -0.048182264 -0.15184055 0.1628529
0003b0 5c 99 a1 3c a7 4b ae 3d 72 20 db 3d b8 70 22 3e
       0.019726448 0.08510523 0.10699548 0.15863311
0003c0 83 fa f8 bd 3e 4d 63 3d 7e b7 21 be a5 c2 8f 3d
       -0.12157156 0.055493586 -0.15792653 0.070195474
0003d0 94 3f b7 bd 35 90 92 3d bc 81 02 be 37 0c c6 3d
       -0.089476734 0.071564116 -0.12744802 0.096702985
0003e0 21 dd 08 3e 79 f1 be 3d 6c 10 18 be 2d 9b e7 3d
       0.13365604 0.09323401 -0.14850014 0.11308894
0003f0 62 45 dd bd 33 d8 27 be c9 ac ec 3d 17 85 01 3d
       -0.10804249 -0.16391067 0.11556394 0.031621065

m_transform.0.3.bias f4 [64]
000000 72 e2 1a 3d 7d b0 19 3e 25 4e cd 3d 00 86 18 be
       0.03781361 0.15008731 0.100246705 -0.14894867
000010 43 3e cd bd fc 2f 97 3d fe 68 9c bd 31 ac 3e bd
       -0.10021641 0.07382199 -0.07637213 -0.046550933
000020 63 b9 76 bd 66 ba 26 be 69 7d 17 bd 5f cd d5 3c
       -0.060235392 -0.16282043 -0.036984835 0.026098905
000030 e2 d9 43 bd e5 21 e9 bd 29 80 05 be 0d d2 24 3e
       -0.04781521 -0.11383418 -0.1303717 0.16095753
000040 96 77 13 3e 75 f6 a9 bd 72 1d 00 be 6b b2 ad bc
       0.14401087 -0.08298961 -0.12511232 -0.02120324
000050 18 ee d9 bd b1 48 40 be a7 c2 00 be 8f e9 30 3e
       -0.10641116 -0.1877773 -0.12574254 0.17276596
000060 90 a2 50 bd a6 b3 02 3e 83 e2 69 3d 5b fe 12 bc
       -0.05093628 0.12763843 0.057100784 -0.008971776
000070 54 2c 88 bd 6f 92 f5 3d d7 df 07 bd 12 9c eb bd
       -0.0664908 0.119908206 -0.033172455 -0.115043774
000080 a2 1e 96 3d 36 f5 b0 bd b7 3c 9b 3d d6 eb 2a 3d
       0.073300615 -0.0864052 0.0757994 0.041728817
000090 b0 3d 25 be 30 4b b7 bd f8 6e 13 3d b4 88 f8 ba
       -0.16136813 -0.08949888 0.0359945 -0.0018961639
0000a0 05 d0 32 3d 66 a1 04 3c 87 0d 4c bc 03 cc c3 bc
       0.043655414 0.008095121 -0.012454397 -0.023900991
0000b0 ec 54 d5 3d 5f d9 91 bd 74 a3 4c bd 31 35 17 3e
       0.10416588 -0.07121538 -0.04996057 0.14766385
0000c0 61 83 30 3e c8 3c 02 3e b5 f6 1f 3e 57 84 07 be
       0.17237617 0.12718499 0.15621455 -0.13234077
0000d0 27 70 33 bd 16 60 ea bd ee 16 a4 bd f7 8b 91 3d
       -0.04380813 -0.11444108 -0.08012186 0.07106774
0000e0 f6 fe 2f 3e 32 73 25 be b7 59 0a 3e 5e 28 98 bd
       0.17187104 -0.16157225 0.13510786 -0.074295744
0000f0 d9 67 12 3e 93 32 1f 3d 7f 48 fb bd f2 d6 e9 3d
       0.14297427 0.03886659 -0.12269687 0.11417951

m_transform.0.5.running_mean f4 [32]
000000 f5 f2 37 3e cd 3f a8 3e 70 e2 70 3c 0a 1f 41 3d
       0.17963775 0.32861176 0.014702424 0.04714874
000010 8a 85 90 3e 8e 38 73 bd c1 54 dc 3d db 3b 46 3d
       0.28226882 -0.059380107 0.10758353 0.048396926
000020 a0 c6 16 bf c2 40 b2 3d 4c 2b 14 bc e3 c6 b0 3e
       -0.5889683 0.08703758 -0.009043526 0.3452674
000030 7c 9b 5e 3e 1b 31 e7 bd 87 6f 02 3e 94 bb 05 3f
       0.21739 -0.11288663 0.12737857 0.52239347
000040 6b 1b eb 3d 73 95 5c 3c 63 6c b7 3d c9 46 34 bd
       0.11479839 0.013463366 0.0895622 -0.04401282
000050 95 8d 9d bd 85 2d 1b be 17 33 8d bd 5b e3 a8 3e
       -0.0769302 -0.15154083 -0.0689451 0.32985958
000060 32 da 04 be 37 81 ba 3d 15 69 74 3d 61 ee 5f bd
       -0.1297386 0.09106677 0.059670527 -0.054670695
000070 50 d5 dd 3d a1 c3 90 3e 41 25 7a bc eb 62 10 3f
       0.10831702 0.28274253 -0.015267671 0.56400937

m_transform.0.5.running_var f4 [32]
000000 c6 75 d9 3c 7f 47 25 3d c2 ad 15 3d f4 28 69 3d
       0.026545417 0.040351387 0.03654266 0.05692382
000010 84 d0 1d 3e 61 16 f8 3c b8 69 3a 3d 50 b5 c7 3c
       0.15411574 0.030284109 0.045510978 0.024378449
000020 38 ed 72 3e 0f 6e 1c 3d 7e 52 32 3d f1 90 f5 3d
       0.23723304 0.038190898 0.043535702 0.11990536
000030 ea 0a 8b 3d 7a f6 e4 3c 6d eb cd 3c 94 d2 fe 3d
       0.06789191 0.02794956 0.025136674 0.12442508
000040 80 a4 b2 3c e3 88 5b 3d d1 3d f4 3c d9 e2 dd 3c
       0.021806955 0.053597342 0.029814633 0.027085708
000050 74 74 a7 3c d1 c6 ab 3c 0d 42 ee 3c 44 b6 33 3d
       0.020441271 0.020968826 0.02908423 0.043874994
000060 75 63 ec 3c c3 49 77 3d f3 d5 27 3d 35 33 52 3d
       0.028856019 0.06037308 0.040975522 0.051318366
000070 59 3d e3 3c 0c b3 26 3d 5e f5 8f 3c 93 9f 61 3e
       0.027739214 0.040698096 0.017573055 0.22033529

m_transform.0.6.weight f4 [96, 32, 3, 3]
000000 db 6d ed bc 82 18 bf bc b8 63 89 bc b6 5a 33 3d
       -0.028983047 -0.023327116 -0.016771182 0.04378768
000010 d5 d2 98 3c d5 23 13 bd 9c 68 09 bd 82 ce 00 3a
       0.01865522 -0.035922844 -0.03354703 0.00049135846
000020 c2 3d c6 3c 5d 48 49 3c 57 25 38 bd cd 5d ba 3b
       0.02419937 0.012285319 -0.044957485 0.0056874515
000030 9c 70 6f bd 3d eb 9f bc 87 67 30 bc d2 14 7c bd
       -0.058457002 -0.01952135 -0.01076687 -0.061543293
000040 db bb e9 3c dd 90 71 bd ab 51 6d 3c d3 87 d4 bc
       0.02853196 -0.058976043 0.014484803 -0.025943672
000050 9f 70 09 3c e2 86 a3 3c 33 30 0e 3d ab 4a 3e bc
       0.008388667 0.019961778 0.034713935 -0.011614482
000060 87 74 bf bc 02 7e 08 bc 1b 44 24 3d 23 56 68 3c
       -0.023370994 -0.008330824 0.040104013 0.014180693
000070 b7 a7 01 bd a9 2b 27 bd 65 80 61 bc c7 a2 ee bc
       -0.031654086 -0.040813122 -0.013763522 -0.029130353
000080 79 57 0e bd 40 af 60 3d 70 8b f3 bc bc a4 28 3d
       -0.03475139 0.05485463 -0.029729575 0.041172728
000090 2d 79 2f 3d 5f 4f d1 bc 14 ce 19 3d e5 ca 7f bd
       0.04284017 -0.025550542 0.037550047 -0.062449355
0000a0 cc 43 06 3c 9c 61 15 bd f5 40 44 bd 96 fd c0 3c
       0.008194875 -0.03647004 -0.04791351 0.02355842
0000b0 a7 20 08 3d 46 e5 c4 bc da 40 25 3b 41 fd ec 3c
       0.033234265 -0.024035107 0.0025215656 0.028929355
0000c0 94 f6 7b bd 05 a3 91 3b 18 d8 4e bd cb 85 d9 bc
       -0.061514452 0.0044444823 -0.05049905 -0.026553055
0000d0 d0 b0 47 3d 70 44 3c bc ca ae b3 bc 56 3e 78 bd
       0.048752606 -0.011490926 -0.021933932 -0.060606323
0000e0 44 6b 58 3d 23 8e 0b 3d fc 4b 5c bd 71 94 99 bc
       0.05283667 0.0340711 -0.0537834 -0.01874754
0000f0 df 57 5b 3d f3 5b 4e bd 83 71 9b 3b c0 2c 50 bd
       0.053550597 -0.05038066 0.0047437563 -0.050823927
000100 e2 94 ff bc c1 af bb bc 06 8c a4 3c a8 aa 42 bd
       -0.031198923 -0.022910954 0.0200863 -0.04752603
000110 72 37 da bc 31 b7 55 bd 52 14 30 bc 8b 2d 2e bd
       -0.026637767 -0.052176658 -0.010747032 -0.042523902
000120 18 e5 0b 3d 5b ba ae ba 14 85 88 bc 55 93 5f bd
       0.034154028 -0.0013330685 -0.01666502 -0.054583866
000130 c7 98 f6 ba 0b 69 80 bd c5 5a 44 bd 8b 6d cc 3c
       -0.0018813842 -0.06270035 -0.047938127 0.024954578
000140 3d a0 76 bd 5d 03 07 bc 73 38 b6 3c 4f e0 fe bb
       -0.06021141 -0.008240548 0.022243714 -0.0077782045
000150 90 f0 18 3d 6c b7 b3 bb eb 28 2d 3d f1 6e 21 bd
       0.037338793 -0.005484512 0.04227535 -0.039412443
000160 8d e7 35 bd ff 87 22 bd 9a 46 ec 3c e3 19 1b 3b
       -0.044410277 -0.039680477 0.02884226 0.0023666553
000170 cb 94 8f bc 51 3c 6c bc 5b 07 0b bd 6b 4f 97 3b
       -0.017527005 -0.014418677 -0.03394256 0.0046176217
000180 fd 3b be bb d2 aa 9f 3a cc 48 bc bc c4 38 3e bd
       -0.005805491 0.0012181646 -0.022983931 -0.046440855
000190 f7 51 90 3b ed 57 24 3c 0b fc 51 bd ec ba 5a 3d
       0.004404302 0.010030729 -0.051265758 0.05340092
0001a0 0e 78 0a 3d 7d 3d 04 3d 53 ca 94 3c 75 7a 80 bc
       0.0338059 0.032285202 0.018162882 -0.015683392
0001b0 f6 28 e2 3c 28 e6 cc 3c 07 56 a2 3c 0f 51 8e bc
       0.027607422 0.02501209 0.019816412 -0.017372636
0001c0 51 d1 ec bc 44 e9 2e bb eb 7d 3f 3d f9 72 d3 bc
       -0.028908404 -0.002668933 0.046750944 -0.02581166
0001d0 85 03 18 bc b0 ed b6 bc 68 06 32 bd a0 83 1b 3d
       -0.009278183 -0.022330135 -0.04346314 0.037967324
0001e0 66 5b 5a bb 61 3c fc 3b 35 1e 9b 3d 41 f1 9f 3b
       -0.0033318638 0.0076976274 0.07574121 0.0048810546
0001f0 45 6f 3e 3d b5 4a ff 3c 9c 1a 6a bc b7 a8 03 3d
       0.046492834 0.031163553 -0.014288571 0.03214332
000200 7a d9 ce 3c 98 52 ae bb 61 71 67 3b 96 ef 89 bc
       0.025250185 -0.0053199045 0.0035315382 -0.016837876
000210 46 f9 01 bc 5c d3 00 3d cf 68 5a 3d 33 51 44 3d
       -0.007932967 0.031451568 0.05332261 0.047929
000220 2b 14 48 bd 3c 50 d2 bb d9 1e df 3c 11 e7 18 3d
       -0.04884736 -0.006418256 0.027236389 0.037329737
000230 6c ce 22 bd 39 37 55 bd ca 48 7d 3c 43 b4 50 bd
       -0.03974764 -0.052054618 0.015459249 -0.05095316
000240 da 87 6c 3d 0d 5a f0 bc 08 d7 0b 3d 73 21 16 bd
       0.057746746 -0.029339815 0.034140617 -0.036652993
000250 9d a6 16 bd df 20 15 bd a2 01 c8 3c d7 a7 e3 bc
       -0.03677999 -0.0364083 0.024414841 -0.027789993
000260 bd 3e 06 bd 3e 28 6f 3d 24 4e 09 3d 02 4b 27 3d
       -0.032774676 0.058387987 0.033521786 0.040843017
000270 eb 35 19 bd 09 17 a8 bc 5c 97 0c bb 92 b3 49 bc
       -0.037404936 -0.020518797 -0.0021452522 -0.012310879
000280 33 5d 00 3d 34 b6 47 3b 65 c1 7f ba 1b 35 10 bc
       0.03133888 0.0030473592 -0.0009756296 -0.008801724
000290 17 9c e1 bc 12 93 fe bc fb d2 a6 bb 9c 0b f2 bc
       -0.02754025 -0.031075988 -0.005091069 -0.029546551
0002a0 bf c5 5a bc a9 e3 a8 bc 2e 58 bb 3c ab 7c 3b bc
       -0.01335281 -0.02061637 0.022869196 -0.011443297
0002b0 a5 8b 2f 3d f3 f7 b0 3c 01 27 c2 bc 5a f5 60 3d
       0.042857785 0.021602606 -0.02370024 0.054921485
0002c0 38 ff 73 bc 91 93 48 bd 38 6e 24 3d fc 26 0a bc
       -0.014892392 -0.048968855 0.040144175 -0.008432146
0002d0 7b ab 5a 3d 5c 5b 0f 3d b9 7d 8b bc 52 00 dc bc
       0.053386193 0.034999236 -0.017027723 -0.026855621
0002e0 ed fb 63 3c 23 80 7f 3c b9 d4 36 3d 27 09 46 ba
       0.013915044 0.015594515 0.044636462 -0.00075544644
0002f0 0f 58 2b bb 78 9f 5f 3d 09 0f 50 3c 5e 8b ca bc
       -0.0026145016 0.05459544 0.012698897 -0.024724659
000300 6a 5d 9f bc b6 dd 68 bc eb cd f9 3c 81 11 89 bd
       -0.019453723 -0.014213016 0.030493697 -0.06692792
000310 67 32 82 bd 97 f1 0b bd 2b fb e6 3b 32 dd 40 3d
       -0.0635727 -0.034165945 0.0070489845 0.04708595
000320 75 fc 8e bd 03 54 79 3c c8 cf 9e 3b 14 b6 2d 3d
       -0.06981746 0.015217784 0.004846547 0.04240997
000330 04 c7 0d bd d7 6d 98 bc 1a 52 9d 3c eb af 5b bd
       -0.034613624 -0.018607063 0.019204188 -0.053634565
000340 dd de 00 3d a8 9a c7 bc 10 1d 8e 3c db 95 2c bd
       0.03146254 -0.024365738 0.017347842 -0.0421351
000350 56 99 45 3d 00 b9 8c 3c 7c 7c ff 3b cf 7d 13 bd
       0.048241936 0.017178059 0.007796822 -0.036008652
000360 c1 43 0b bd e1 70 ec 3b 7f d6 5d bd 28 89 8d 3b
       -0.034000162 0.0072156047 -0.054159638 0.004319329
000370 c4 c6 58 3d 18 9d 9b 3b be ea 95 bb e5 34 9b bc
       0.052923933 0.0047489516 -0.0045751026 -0.01894612
000380 bb b5 63 3c e1 c0 66 bd de 87 5e bd 77 7e 93 3c
       0.013898308 -0.056336287 -0.05432879 0.01800464
000390 d9 e3 b4 3c 9f e8 12 bd 3a 56 ad 3a 0c 38 1a bd
       0.022081302 -0.035866376 0.001322455 -0.037651107
0003a0 51 c6 f4 3c 01 04 fb bc 26 0c 8e bb d1 64 cf 3c
       0.02987972 -0.030641558 -0.0043349443 0.025316628
0003b0 16 df 1d bd e1 0f 93 3d f0 d2 73 bc f6 72 35 bc
       -0.03854283 0.07180763 -0.014881834 -0.011074772
0003c0 08 2a fd 3b f5 39 ee bc 59 d9 77 bd 10 d7 79 bd
       0.007725958 -0.02908037 -0.060510013 -0.060996115
0003d0 6a f1 47 bd 24 de 98 3d 1a ad 27 bc 88 34 d6 bc
       -0.048814215 0.07464245 -0.010234142 -0.026148096
0003e0 0f e8 19 3d 32 e5 37 bc 56 c4 17 bd a5 c0 69 3d
       0.037574824 -0.011224078 -0.037052475 0.057068486
0003f0 48 f3 24 bd 96 30 3c bd 9c 56 bc 3c 33 b2 b5 3c
       -0.040271074 -0.045944773 0.022990517 0.022179699

m_transform.0.6.bias f4 [96]
000000 60 dd 27 3c 89 5a 5f 3d bc 3a 3e bc 2a 42 93 bc
       0.010245651 0.0545297 -0.011610683 -0.017975885
000010 ea cb 1e 3a 0a d5 9e bb 16 53 f2 3c a5 4d 27 ba
       0.0006057607 -0.0048471736 0.029580634 -0.00063821144
000020 89 5e e7 bc ab a5 50 bc a9 b4 2d bd fb 12 06 bd
       -0.02824332 -0.012734811 -0.04240862 -0.032732945
000030 5e 91 67 3d a9 75 93 3c 5a ac 34 3d 36 b8 34 bd
       0.056535117 0.01800044 0.04410968 -0.04412099
000040 61 f9 9c 3c d9 4b ec bc 33 5d 09 3d ba ae 6d 3c
       0.019161882 -0.02884476 0.033536147 0.01450699
000050 2d 12 98 bd e0 a8 fc 3c 05 cd d1 3c 11 a7 d0 3c
       -0.07425342 0.030842245 0.025610456 0.025470288
000060 9b 18 58 3d c1 f4 37 bc 9a 13 99 3c 9c 15 6f 3c
       0.05275784 -0.0112277875 0.018686105 0.014592554
000070 81 ce 34 bd 82 50 68 bd f3 1d c0 bc 0f 45 b9 3b
       -0.04414225 -0.056717403 -0.02345178 0.0056539844
000080 33 01 1f 3d 8a cf 9e 3c a7 71 04 3c c8 86 59 3d
       0.038819503 0.019386072 0.008083737 0.053107053
000090 e2 2b c0 3b 87 7a 6e 3b 3d fb 5f bc 8b 85 d3 3b
       0.0058646062 0.003638895 -0.01367074 0.0064551285
0000a0 dc e1 c5 3c 7f e6 02 bd bb 00 fd bc 9d 1c 27 3c
       0.02415555 -0.0319581 -0.030884137 0.010199693
0000b0 ad b9 75 3b e8 32 7a bb 6b 65 9e bc 3e ea be bc
       0.0037494705 -0.0038177315 -0.01933547 -0.023305055
0000c0 6f 87 a0 3c 37 3c 04 3d d5 f4 92 3c 02 79 df 3c
       0.01959583 0.032283988 0.01793901 0.02727938
0000d0 47 07 23 bd 42 44 62 3c 83 96 48 bc de 41 24 3d
       -0.039801862 0.013810219 -0.012242916 0.04010188
0000e0 76 ee fc 3c 24 ec 99 3b 00 0d 3e ba 51 95 2e 3d
       0.030875426 0.0046973396 -0.0007249862 0.042622868
0000f0 d5 c8 dc 3c 4e f2 fc bc 9a f9 3b 3d 59 c9 8b bc
       0.026951233 -0.030877259 0.045892335 -0.017063783
000100 8f 2b 03 3d 79 8d 84 bb f7 04 79 bd 69 fb 25 bd
       0.032023963 -0.004045185 -0.06079575 -0.040522967
000110 8d 4b 4a bc c6 27 40 bd a5 97 c9 3c 01 d6 69 3d
       -0.012347114 -0.04691293 0.024608443 0.057088856
000120 42 27 5d bd 3f ed a7 bb ba c7 73 3c b5 98 36 bd
       -0.053992517 -0.0051247175 0.0148791615 -0.044579227
000130 5c 40 e5 3c 65 96 48 3c 4a c4 34 bd 62 69 89 bb
       0.02798479 0.012242888 -0.04413251 -0.004193471
000140 8a 50 52 bd 9d 8d c1 3b 50 48 09 3d 1c d7 89 bd
       -0.05134634 0.005906774 0.03351623 -0.06730482
000150 39 e6 ab bc 86 ed 09 3c 27 db 2a bd 4b e3 37 bd
       -0.020983802 0.008418446 -0.041712906 -0.044894498
000160 1f 79 79 3d 1f 31 11 3c 8b 7a 40 bd d6 15 51 bd
       0.060906526 0.008861809 -0.046991866 -0.051046215
000170 76 65 07 bd 52 ea be 3c a5 fe c5 bc 88 8a 5e 3d
       -0.033055745 0.023305092 -0.024169276 0.054331332

m_transform.0.9.running_mean f4 [48]
000000 74 51 30 3f 85 29 7a 3f 4b 06 41 3f 07 0e 71 3f
       0.6887429 0.97719604 0.7540023 0.9416203
000010 6a 4a 32 3f 80 4d 2d 3f 9b dd 39 3f 1b de 79 3f
       0.69644797 0.6769638 0.7260377 0.9760453
000020 6f 94 58 3f ee 08 36 3f 13 c1 4a 3f 78 e8 65 3f
       0.8460149 0.71107376 0.7920086 0.89807844
000030 68 a2 3b 3f c6 af 41 3f 2d 75 52 3f 23 9b 2d 3f
       0.7329469 0.75658834 0.82210046 0.67814845
000040 74 35 47 3f cb 7b 5e 3f 8f 61 58 3f 2d 54 86 3f
       0.7781594 0.86907643 0.8452386 1.0494438
000050 14 99 3f 3f c4 f8 62 3f db 7b 57 3f 75 b7 52 3f
       0.74842954 0.88660836 0.84173363 0.82311183
000060 f8 25 33 3f 38 0d 45 3f 2d 98 9e 3f f4 0c 82 3f
       0.6997981 0.76973295 1.239019 1.0160203
000070 78 de 3a 3f 7f 72 2e 3f 20 1b 75 3f 44 16 48 3f
       0.7299571 0.6814346 0.95744514 0.78158975
000080 ba c8 79 3f 6a 7c 68 3f a7 d4 83 3f 28 e5 5f 3f
       0.9757191 0.9081484 1.0299271 0.8745904
000090 65 2c 35 3f 94 cc 31 3f 1b bd 20 3f 35 a2 55 3f
       0.70770866 0.69452786 0.6278855 0.83450633
0000a0 a6 d0 46 3f 5b 15 4a 3f af 3f 2e 3f 24 ba 33 3f
       0.7766212 0.78938836 0.68065923 0.70205903
0000b0 0d 2f 2f 3f 1d 1d 7e 3f d3 f6 46 3f 97 50 64 3f
       0.6843117 0.99263173 0.77720374 0.8918547

m_transform.0.9.running_var f4 [48]
000000 ce 9b 6c 3e 3a a6 ce 3e d3 7a 34 3f 87 05 bf 3f
       0.2310631 0.40361196 0.70499915 1.4923562
000010 39 5c 94 3f 98 68 a9 3e f1 7a 08 3f bb be 05 3f
       1.1590644 0.3308761 0.53312594 0.52244157
000020 c6 12 4c 3e dc ef d5 3e 4d 65 5b 3f ca e5 c0 3f
       0.19929036 0.4178456 0.8570145 1.5070126
000030 58 0a f3 3e d9 10 92 3e 0f 3f 84 3e 56 48 18 3f
       0.4746883 0.2852848 0.2582936 0.59485376
000040 3f 1a e2 3e e5 65 bb 3e 95 09 fe 3e 34 ce a3 3e
       0.4416065 0.36601177 0.49616686 0.31993258
000050 62 20 c6 3e 39 1f 6a 3f 28 71 0f 3f 95 c8 9b 3e
       0.3869658 0.9145389 0.5603204 0.3042647
000060 3f 5f 19 3f 00 b6 0d 3f d9 bd ce 3e a9 68 a2 3e
       0.5991096 0.55355835 0.40379217 0.31720474
000070 74 7f 2d 3f 86 61 0a 3f 4d 1e 2a 3f 7b 90 47 3e
       0.67772603 0.5405506 0.66452485 0.19488709
000080 e0 83 c2 3e bd 4b 8f 3e 71 5c 76 3e 1f 00 85 3e
       0.37991238 0.2798747 0.24058701 0.25976655
000090 50 8a 94 3f 0c 11 e3 3e 62 52 a4 3e b6 9d b2 3e
       1.160471 0.44348943 0.32094103 0.3488595
0000a0 dd d1 a5 3e e8 f7 a6 3e 29 02 83 3e 1c 0b fd 3e
       0.32386675 0.32611012 0.25587586 0.49422538
0000b0 de e6 b5 3f f8 51 2a 3e 23 65 69 3f 9c dd 9f 3e
       1.421108 0.16632831 0.9116995 0.31223762

m_transform.0.10.weight f4 [96, 48, 1, 1]
000000 7a 1c 7a bd 2b 48 03 be 13 37 97 bd 85 d1 5e bd
       -0.061062314 -0.12820499 -0.073835514 -0.054399032
000010 dd 2e 0f 3e 6d 1f 1c bd 7a 20 24 bc 1a 74 f6 3d
       0.1398272 -0.038115907 -0.010017509 0.12033863
000020 40 3c 0a 3d f1 db fc bd 0c d0 06 3e 87 ca 2d bd
       0.033748865 -0.12346638 0.13165301 -0.042429473
000030 20 e5 bb bd 99 f1 c2 3d 59 64 4c bc 8a f3 04 be
       -0.091745615 0.09518737 -0.012475097 -0.12983528
000040 44 39 96 3d bc 7e 6f 3d 39 d2 b5 3d c0 fb 85 3d
       0.07335141 0.058470473 0.088779874 0.06542158
000050 5d d5 c6 bc ac 4d 56 bd e2 b7 05 3b 77 c2 cc 3d
       -0.024271661 -0.052320167 0.0020403792 0.09998029
000060 5f 77 e8 3c 6c 64 b1 3d 15 42 28 bd 85 17 f2 3c
       0.028377233 0.08661732 -0.041078646 0.02955223
000070 88 4d dd 3d b0 58 6a 3d 24 99 5e 3d 89 5f 3c 3d
       0.108058035 0.057213485 0.054345265 0.045989547
000080 e3 ca bc bd 23 7a 1b 3d e2 1c df bd bd 72 90 bd
       -0.09218385 0.037958276 -0.10894181 -0.070531346
000090 eb 47 1e be 8a aa c2 bd 6f 89 01 3b 50 a1 96 3c
       -0.15457122 -0.09505184 0.0019765755 0.018387467
0000a0 8f 9f 28 3e 1a 28 03 3e ff 93 ee bd c4 69 08 3d
       0.16467117 0.12808266 -0.11649322 0.03330399
0000b0 ce ed f7 3d 60 03 8e bc 61 56 c2 3d 59 73 1c be
       0.121059045 -0.017335594 0.09489132 -0.15278377
0000c0 e5 25 1a 3d fb b2 54 3d 1b 8c 95 bd a9 b1 cf bd
       0.037633795 0.0519285 -0.073021136 -0.10141308
0000d0 a7 cd 88 3d c9 40 0e be 0f 6e 68 bd ae 8c 9d bd
       0.0667985 -0.13891901 -0.056745585 -0.07692848
0000e0 4e a0 5f bd ae 93 a9 3b 59 9d 9a 3d 03 3e c2 3d
       -0.054596238 0.0051750755 0.07549543 0.09484484
0000f0 97 92 eb 3b 62 f4 bd bd 16 d4 e8 3b 76 f7 93 bc
       0.0071891057 -0.09275128 0.0071053607 -0.018062335
000100 2c f7 eb 3d 26 b9 04 be f4 42 e8 bd 84 d9 6a bd
       0.11521754 -0.12961254 -0.11340895 -0.057336345
000110 69 34 b9 bd 05 c3 d0 bd 48 67 dd 3b 7e ac c5 bc
       -0.090431996 -0.10193447 0.006756697 -0.024130102
000120 cc 90 0e 3e b0 25 70 3d 1d 92 3c 3d 86 2b e4 3d
       0.13922423 0.05862969 0.046037782 0.11141114
000130 30 20 ea bd dc c3 74 3c b9 4c a1 bd 1c a3 59 3d
       -0.114319205 0.014939275 -0.07875962 0.05313407
000140 4b a6 e0 3c b0 af 33 3d cb 0f 91 bd 37 10 dc bc
       0.027423045 0.04386872 -0.070830904 -0.0268632
000150 6c 9a ab 3c 17 49 6c bd 2e 77 9e bd 7b d7 17 3d
       0.020947658 -0.05768689 -0.077375755 0.037070733
000160 11 ba 19 3d 47 01 f1 bd ac f4 f8 bd 17 51 c6 bd
       0.037530962 -0.11767822 -0.121560425 -0.096834354
000170 46 9d 51 3d 7c fd 35 3d cc cc 05 3e 3a 34 7a 3a
       0.05117538 0.044431195 0.13066405 0.00095445255
000180 4f 40 f1 3d 4d 00 10 be e3 96 f4 bd 1e 14 cf bc
       0.11779844 -0.14062615 -0.11942842 -0.025278147
000190 2b 17 31 3c b0 95 83 3d 0f 42 b0 bd e3 83 1a be
       0.010808746 0.06425035 -0.0860635 -0.15089373
0001a0 7c 7f d2 bd be df bb bd ba 44 01 bd 64 6d a2 3a
       -0.10278222 -0.09173535 -0.031559683 0.001239222
0001b0 7e b8 df bd 08 30 ce 3d 6b 4d 3d 3d 5e ee 14 3e
       -0.10923861 0.10067755 0.04621641 0.14544055
0001c0 2d eb 9d bd e9 08 6a 3d f6 70 c2 3c 33 c6 22 bd
       -0.07710872 0.057137404 0.023735505 -0.0397398
0001d0 63 00 ac 3d f7 d5 c1 bd 68 f9 dc bc 90 33 c8 bc
       0.08398511 -0.09464639 -0.026974395 -0.02443865
0001e0 02 5f c7 bd 3a f8 18 3e f3 81 e4 3d de 7c 5b bc
       -0.09734918 0.14938441 0.11157598 -0.01339647
0001f0 62 f9 23 3d 8a 3c 10 bd 9e 2c 02 3d ee 03 d2 bd
       0.04003275 -0.035213985 0.03178083 -0.10254656
000200 ef 49 fa 3d a3 89 59 3d d2 a3 b6 3d aa 99 46 bd
       0.12221133 0.053109776 0.08917965 -0.04848639
000210 bf af d4 bd 1f 06 a0 bc c9 30 cd bd e7 c6 e0 3d
       -0.103850834 -0.019534169 -0.10019071 0.109754376
000220 26 a8 7a bd 7d d7 ea 3d 27 b0 20 3d a8 59 47 bd
       -0.061195515 0.114668824 0.039230492 -0.048669487
000230 f4 a4 f4 3d 77 d8 77 3d d6 a7 d1 bd ae c9 46 3d
       0.11945525 0.06050917 -0.1023709 0.04853218
000240 94 27 eb 3d 29 de b1 bd 1d 2c b9 3d e9 8e 11 3e
       0.11482158 -0.08684952 0.09041617 0.14214672
000250 0b 22 ba bd 43 4a d8 bd 9f 9d ec bc 9a 7c b0 3d
       -0.090885244 -0.10561039 -0.028883753 0.08617516
000260 3a c9 92 bd b7 a3 d6 3d 87 54 06 be 52 2e 80 3d
       -0.07167287 0.10480445 -0.13118182 0.06258835
000270 f3 00 29 3d a7 92 4d 3d 20 0d c8 3c 62 87 73 3c
       0.04126067 0.050188687 0.024420321 0.014863821
000280 0a a2 08 bc 3c c5 1f bd 6c b2 92 bb 53 b1 b9 bd
       -0.008339414 -0.039006457 -0.004476836 -0.09067025
000290 23 e6 f4 3c 67 7f e4 bd 39 f0 41 3b ad a2 88 bd
       0.029894894 -0.111571126 0.0029592647 -0.06671653
0002a0 eb f8 12 be 22 18 81 bd e4 5d 41 3d c0 01 a8 bd
       -0.14352767 -0.06303431 0.04720868 -0.08203459
0002b0 ac 59 90 bd 0d 95 14 3e bf 72 2d 3d b0 33 07 3d
       -0.070483536 0.14509983 0.04234576 0.033008277
0002c0 13 86 3e bd 83 9d bc 3d 39 e6 0a be f8 19 81 bc
       -0.046514582 0.092097305 -0.13564385 -0.015759453
0002d0 85 17 e6 bd 93 97 b1 3c 11 19 64 3d 82 c2 19 be
       -0.11234955 0.021678722 0.055687968 -0.15015605
0002e0 fe 0a 12 bc 89 aa 3f 3d f0 ac dc 3d df e4 8c bd
       -0.008913754 0.046793494 0.10775173 -0.06879591
0002f0 3b 19 31 3d 54 3f 88 bd a1 0b 5c 3d 18 fa 18 3e
       0.043236952 -0.06652704 0.053722028 0.14939153
000300 60 78 ab 3d 1b 7d 80 bd d7 7e 75 bd 61 85 e5 3d
       0.08372569 -0.06273862 -0.059935417 0.11207081
000310 d1 88 0b be 0b a6 91 3c 87 72 fd 3a 71 37 ac 3d
       -0.1362641 0.01777937 0.00193365 0.08409012
000320 b2 80 78 bd 65 1d db 3d 78 6f 89 3c 6e 1a 50 3c
       -0.06066961 0.10698966 0.016776785 0.012701614
000330 d5 c4 1b bd 3c 27 10 be 10 fd 94 bd 53 8e 16 bd
       -0.03802951 -0.14077467 -0.0727483 -0.036756825
000340 19 d1 70 3d 81 3b 81 bd 37 ec bd bd 14 22 0d be
       0.05879316 -0.063101776 -0.0927357 -0.13782531
000350 02 a1 08 be b4 a4 77 bd ae 87 81 bd 35 a3 a6 3d
       -0.1334267 -0.060459808 -0.06324707 0.08136598
000360 ef 16 6a 3d a8 ea 16 bd 1e d7 81 3d 83 99 8e 3d
       0.057150777 -0.03684488 0.063398585 0.06962874
000370 3a 25 0f 3e 4a 3c 0d 3d 4f e6 47 bc fb 43 f1 3d
       0.13979045 0.034481324 -0.012200906 0.11780544
000380 c9 be 14 bc 13 b7 a8 3d 32 16 7b bd 3d 9c 9e 3b
       -0.00907869 0.08238044 -0.061300464 0.0048404024
000390 f1 c5 9d bd 78 54 f2 3d 77 91 7b 3d f8 12 61 bd
       -0.0770377 0.118325174 0.061418023 -0.05494973
0003a0 fe fd 16 be 20 20 eb 3d 51 99 11 bc 72 ca cc 3d
       -0.14745328 0.11480737 -0.008886651 0.09999551
0003b0 18 31 97 3d 9b c8 72 3d 4e 99 d9 bc 53 de 14 be
       0.07382411 0.059273344 -0.02656236 -0.14537935
0003c0 6f f5 c9 3c d8 51 7d bd 40 86 a5 bd 40 f1 e4 3d
       0.024653165 -0.06184563 -0.08082247 0.11178827
0003d0 9a a3 61 bd c9 8b 94 3d 47 a9 32 3d b4 27 b5 3d
       -0.055087663 0.072532244 0.043618467 0.088454634
0003e0 d0 e5 30 3d 3d 98 8f bc ae 43 3e 3c 6f ea 03 be
       0.043187916 -0.017528648 0.011612816 -0.12882398
0003f0 75 00 c4 3d 72 03 4a 3d 50 60 b3 bd d8 be ae 3c
       0.095704 0.049319692 -0.087586045 0.021331236

m_transform.0.10.bias f4 [96]
000000 1b 5b b5 bb 12 6b 33 bd 04 91 b2 3d 81 5c 8c 3c
       -0.0055345423 -0.043803282 0.08719066 0.017133953
000010 9d 04 d9 3d f8 60 2b bd 26 51 77 3d ef 4c 06 be
       0.10596583 -0.041840523 0.060380124 -0.13115285
000020 cc 13 fa 3c b7 19 c3 3d 49 aa 90 bd fe c5 b6 3d
       0.030527018 0.09526389 -0.07063729 0.08924483
000030 c9 4d 18 3e 32 f4 a6 3d bb d7 ff bd e9 39 e6 3d
       0.14873423 0.08152045 -0.12492319 0.11241514
000040 52 26 1c bd b7 43 e2 bc c7 96 62 3d 20 92 a8 3d
       -0.038122483 -0.02762018 0.055319574 0.08230996
000050 dd a8 ff bd 95 7a e5 3d cc d9 02 3e f6 3a c9 3d
       -0.1248338 0.11205021 0.12778395 0.09825699
000060 0e 90 7b bc 47 bc b5 bd 11 e2 53 3d 46 7d b7 3c
       -0.0153541695 -0.08873802 0.051729266 0.022398602
000070 da 38 5a 3d 24 2f d0 3d 0d b6 7e 3d af 70 d0 bd
       0.053276874 0.10165241 0.062185336 -0.10177743
000080 1c c2 12 3e 77 19 14 bd 89 38 3e 3d 96 58 ed bd
       0.1433186 -0.036157098 0.046440635 -0.11589162
000090 38 cc 16 3d 8c e2 e2 bc fe 84 8a 3d 38 49 da bd
       0.036815852 -0.027695917 0.067636475 -0.106584966
0000a0 00 f7 ed 3d d6 d5 c0 bd ed 44 c0 3c 8c bb a2 bd
       0.11619377 -0.09415786 0.023470366 -0.07945928
0000b0 63 27 6d 3d a5 1c 15 3e 45 e3 40 bd 99 52 fc 3d
       0.05789889 0.14561708 -0.04709174 0.12320442
0000c0 5c 69 94 3d 1d da bd 3d 54 91 c5 bd 1c 96 8c 3b
       0.07246658 0.092701174 -0.0964686 0.0042903554
0000d0 5f 63 96 bd e9 66 d5 3d 42 96 a2 3d be 73 6c bd
       -0.07343172 0.10420019 0.07938816 -0.057727568
0000e0 a4 28 cd 3c 42 37 29 bc f7 0a 9a 3d c0 36 aa bd
       0.025043793 -0.010328116 0.07521623 -0.08311224
0000f0 dd d1 04 be 75 71 c8 bd f6 2e a6 3c 15 73 81 bc
       -0.12970681 -0.09787265 0.020286065 -0.015801946
000100 03 ec b5 bd d9 34 8a 3d 2c fa e7 bc f3 3e b1 3d
       -0.08882906 0.06748361 -0.028317533 0.08654585
000110 b6 2d 31 bd 31 d4 4a 3c a1 d0 12 3e c8 89 50 3c
       -0.043256484 0.012379692 0.14337398 0.012728162
000120 6c ce 9a 3d 29 75 c1 3d ea 71 b4 3d 99 ab b6 3d
       0.07558903 0.09446175 0.0881079 0.089194484
000130 7a 80 86 3d 1e d7 17 be d5 ea bf bd 09 c1 ce 3d
       0.06567474 -0.14828154 -0.093709625 0.10095412
000140 c4 7b 93 bd dd cf fd 3d 21 a9 95 3c b3 62 d5 bd
       -0.07201341 0.123931624 0.018269124 -0.10419216
000150 8e 8f a6 3d 7b c5 a0 3d 4a 36 b2 3b 28 f5 82 3d
       0.0813285 0.078501664 0.0054386007 0.06394416
000160 85 01 09 be d8 9b 9d bd 18 2d 87 3c 0b 21 00 3d
       -0.13379486 -0.076957405 0.016500995 0.031281512
000170 cd 25 58 bd 04 fd eb 3d d0 83 6e 3c 2b 5a e1 3d
       -0.052770425 0.11522868 0.014557794 0.11003526

m_transform.0.12.running_mean f4 [48]
000000 8d a5 a8 3e 81 4b 51 3e 4d ba 01 3f 17 0f 97 3e
       0.32938805 0.20438959 0.506749 0.295037
000010 ec 81 71 3e 02 e9 c2 3e 65 67 85 3e f2 1c b3 3e
       0.23584718 0.38068396 0.26055446 0.3498302
000020 58 0c a0 3e 96 22 83 3e 8e 7e 94 3e e5 9d 79 3e
       0.31259418 0.25612324 0.29002804 0.24376638
000030 01 b8 97 3e c9 b8 9e 3e cb b1 3a 3e bb 39 ce 3e
       0.2963257 0.31000355 0.18231885 0.4027842
000040 23 1b 57 3e 4a 2a ec 3e a6 93 a9 3e e6 c3 9a 3e
       0.21006446 0.46126014 0.3312046 0.30227584
000050 c6 13 84 3e e7 90 ac 3e 89 77 c1 3e 38 67 9f 3e
       0.25796336 0.33704302 0.3778651 0.31133437
000060 8f 5a a5 3e 0e f6 fb 3e 13 b2 d3 3e e1 8c df 3e
       0.32295653 0.49211162 0.41346797 0.4366217
000070 b1 b3 e2 3e 27 f0 7c 3e a8 e3 9a 3e a7 69 82 3e
       0.4427772 0.24700986 0.30251813 0.2547123
000080 e4 89 af 3e 1e 58 ba 3e 4c 04 84 3e 3c c5 3b 3e
       0.3428489 0.36395353 0.25784528 0.18336958
000090 a0 de b7 3e 4b 8b 95 3e 4b 2a f9 3e ff 7f d5 3e
       0.35912037 0.29207835 0.4866508 0.41699216
0000a0 7f 29 c8 3e d3 08 45 3e ba 54 83 3e b5 d4 6c 3e
       0.3909416 0.19241647 0.2565058 0.23128016
0000b0 03 08 a5 3e ef eb f7 3e 67 c8 aa 3e 7e 4d f9 3e
       0.32232675 0.4842219 0.3335602 0.48691934

m_transform.0.12.running_var f4 [48]
000000 57 de ba 3e 1c bd 5c 3e 49 7f d7 3e 52 20 14 3e
       0.36497757 0.21556515 0.42089298 0.14465454
000010 d5 38 16 3e 70 f4 28 3e d0 6a 32 3e 69 1e 4d 3e
       0.14670117 0.16499496 0.17423558 0.20031132
000020 ee 69 82 3e 0d 80 0f 3e ec a2 1c 3e 59 fb b9 3e
       0.25471443 0.14013691 0.15296525 0.36324576
000030 44 26 9c 3e ab 4b 7d 3e 04 61 ff 3e 59 25 29 3e
       0.30497944 0.24735896 0.49878705 0.16518153
000040 fa 71 42 3e c8 20 72 3e 9a 3d 8c 3e 75 93 04 3e
       0.18988791 0.23645318 0.27390748 0.12946875
000050 6a 1e 7a 3e 5d ab f1 3d 5a 6b 49 3e ec 70 2a 3e
       0.24425665 0.11800263 0.19669858 0.16644639
000060 52 c3 30 3e 9c 22 34 3e 4e a6 9c 3e c4 52 ca 3e
       0.17262009 0.17591327 0.3059563 0.3951627
000070 9d c9 f4 3e ac f2 33 3e 67 8f 08 3e c4 5b 8a 3e
       0.4781007 0.1757304 0.13335954 0.27023137
000080 50 6c bc 3e d7 c7 3e 3e b9 c9 0b 3e 30 ac 6f 3e
       0.36801386 0.1863092 0.1365117 0.23405528
000090 19 75 86 3e 49 3b d1 3d 14 de 27 3e c6 e2 32 3e
       0.26261213 0.10216386 0.1639331 0.1746932
0000a0 37 fb ba 3e f6 95 e2 3e 35 31 39 3e 9f 0f 1e 3e
       0.36519787 0.44255036 0.18085177 0.15435646
0000b0 1c fb 75 3e dc 1b 34 3e 3f be 14 3f 68 c6 28 3e
       0.24021572 0.17588753 0.5810279 0.16481936
