Auxillary Code/LCNN/project/03-asvspoof-mega/spec2-lcnn-attention-p2s/04/__pretrained/trained_network.pt (torch, 760388 bytes, 35 tensors)

m_transform.0.0.weight f4 [257, 60]
000000 92 c6 0a 3d 01 33 15 3d b2 d1 b7 bb 14 fe 03 3a
       0.033880778 0.036425594 -0.0056097144 0.0005035114
000010 30 7d 94 bc 8a 8d 9d bc 9e a0 25 bd 62 d5 ac 3c
       -0.0181261 -0.01923253 -0.04043638 0.021097843
000020 7e 73 82 3b 0c b7 27 bc d6 d3 d8 3c 79 ef f4 3b
       0.003981053 -0.010236513 0.026468199 0.0074748364
000030 29 55 79 3c 46 21 3c bd 81 9c f2 bc 38 16 fb ba
       0.015218058 -0.04593017 -0.029615643 -0.0019156402
000040 a5 ef 83 3b 7c 40 67 3d 58 97 f2 3c 61 33 cd bc
       0.0040263706 0.05645798 0.029613182 -0.025048913
000050 15 54 23 3c aa 45 2f 3d 1e 51 e4 3b d6 8a e3 bc
       0.009968777 0.042791046 0.0069676777 -0.027776163
000060 b9 9b 37 bc ca ac e3 3c 13 fd a9 bc 69 45 99 3c
       -0.011206561 0.027792353 -0.020750558 0.018709855
000070 f4 2f 69 3b 8d 19 86 bc e9 33 9c bc 38 18 3b 3b
       0.003558156 -0.016369605 -0.019067721 0.002854837
000080 89 50 ff 3c 40 df 81 bc 6a e1 9c bb 0e d3 65 bc
       0.031166332 -0.015853524 -0.0047876136 -0.01402737
000090 a4 84 23 3c 14 80 8a 3b e5 c3 fb bb 99 00 d7 3c
       0.009980354 0.004226694 -0.0076832646 0.026245402
0000a0 42 63 dc bb 79 4a bc 3a 39 53 10 bc 1d 14 9d bc
       -0.0067256996 0.0014365456 -0.008808904 -0.01917463
0000b0 cd ed e3 bb 1d 4c da 3b d1 50 b4 bc 1f a4 09 ba
       -0.0069558383 0.0066619054 -0.022011193 -0.0005250591
0000c0 46 a6 35 bc ef 49 3c 3c 5c ec 28 3b fe 23 47 3b
       -0.011087006 0.0114922365 0.0025775647 0.0030386443
0000d0 ea 58 29 ba 9d 36 a6 3a b8 3d c1 bb a0 f4 1b 3b
       -0.00064600876 0.0012681071 -0.00589725 0.002379693
0000e0 ee 25 80 3d 5d a4 bd bc 5b 90 0d 3c bd 57 13 3b
       0.062572345 -0.023149664 0.008640374 0.0022482716
0000f0 de 5d b4 3e 2e 5b 8b 3c 79 e1 90 3b 4c 22 93 bc
       0.35227865 0.017011251 0.0044214097 -0.01796069
000100 1d 17 63 bd 64 0c 4f bb 29 0b 46 bc b4 d1 21 3c
       -0.055441964 -0.0031593079 -0.012087622 0.009876657
000110 c2 db 94 3c 57 34 b0 3b dc bd d7 bc b6 76 81 ba
       0.018171195 0.005377333 -0.02633565 -0.0009877298
000120 ea df b9 3c 65 4a 53 3c 2e 4f 0a bd f2 1f e2 bb
       0.022689778 0.012896155 -0.033766918 -0.006900781
000130 7b 9c 0a bc 02 72 8f 3d ed 5c a1 bb 2a 7a f4 bc
       -0.008460159 0.07004167 -0.0049244077 -0.029843409
000140 27 6e ef 3c 33 a9 36 3d a9 08 ae 3c fe 05 b0 bc
       0.02922733 0.044594955 0.021244364 -0.021487232
000150 1b e9 c8 3c ee e1 0c 3d 9d 46 af ba 7c 11 20 3d
       0.024525216 0.03439515 -0.0013372485 0.039079174
000160 05 94 5a 3c 72 eb 54 bc e1 a4 1f bd f0 c8 39 3d
       0.013340955 -0.012995588 -0.0389756 0.045357645
000170 82 d9 15 3c bc ff 12 b9 95 5b f9 3c 58 62 4b bc
       0.009146096 -0.00014018913 0.030439178 -0.012413584
000180 e2 10 cf 3c 5f a1 4d bb 7b c3 bd b6 33 fe 11 3d
       0.025276605 -0.0031376702 -5.655396e-06 0.035642814
000190 05 28 11 bc ce ab 5a 3c 44 6c e0 3b 4d 7c 2e 3c
       -0.008859639 0.0133466255 0.006848844 0.010649753
0001a0 5c 5d f6 3b e0 a3 1d bc 41 63 4d 3b cd 4c fb ba
       0.0075184535 -0.00962159 0.0031339678 -0.0019172669
0001b0 a5 8a 3a bc d3 06 40 3d 94 14 b1 3c b8 c5 5e 3c
       -0.0113855945 0.046881508 0.021616258 0.0135969445
0001c0 07 fb e0 3b f8 91 21 bc 16 1b 25 bc df 3e c7 3c
       0.0068658623 -0.009861462 -0.010077259 0.024321971
0001d0 52 16 9c 3d 8c 9b 13 bd c2 ab 8e 3b 79 94 88 bb
       0.07621445 -0.036037013 0.004353971 -0.00416809
0001e0 08 c7 18 3f 09 28 9b 3b cf 11 28 3c f6 53 81 bc
       0.596787 0.004734997 0.010258152 -0.015787106
0001f0 ad 61 2b bd 73 e6 f7 3a 10 e3 b4 bc cc 26 f1 3b
       -0.041841198 0.0018913284 -0.022080928 0.0073593613
000200 9d ca a2 3c a6 6d 43 bc 3f a1 07 bd a4 b5 65 3b
       0.019872004 -0.011927998 -0.03311276 0.0035050893
000210 0c 52 f1 3c 5d 1e e4 3c 07 94 9c bc dc 26 1c bc
       0.029458068 0.02784651 -0.019113554 -0.009530749
000220 d1 f9 a3 bc 9c e8 2e 3d e5 8d 37 bc 73 de c8 bc
       -0.020016583 0.042702302 -0.011203264 -0.024520135
000230 01 42 df 3c 61 b3 cc 3c 82 2d a2 3c 61 a4 a9 bc
       0.027253153 0.024987878 0.01979709 -0.020708265
000240 e8 ee 76 3c 27 16 88 3c 91 c3 42 bc 57 63 c6 3c
       0.015071608 0.016612126 -0.011887447 0.02421729
000250 3a db b3 3b b3 17 04 bc 3b 87 0c bd 22 35 fc 3c
       0.0054887803 -0.008062291 -0.034308653 0.030787054
000260 3d 90 82 3b 7d bb e4 bb 1b 23 a4 3c 17 47 6f bc
       0.0039844797 -0.006980358 0.02003627 -0.0146043515
000270 aa 56 83 3c 43 9d 51 bb 51 d6 22 bc 7c 14 9e 3c
       0.016032536 -0.0031984604 -0.009938792 0.019296877
000280 9b 2c 48 ba 7a f3 71 3c 11 f8 24 ba aa 87 c1 3b
       -0.0007636041 0.014767522 -0.0006293068 0.005906065
000290 e5 4a d5 3c 8f 25 0a bc 68 46 03 bc 7c 81 16 bc
       0.026036689 -0.008431806 -0.008012392 -0.009186145
0002a0 e5 f2 d3 bb b0 22 14 3d 6f 70 b8 3c 9a 7e 47 3c
       -0.0064681643 0.036165893 0.02251455 0.01217618
0002b0 54 f8 ad ba 73 18 04 bc 6f b4 e8 bb 48 c4 b4 3c
       -0.001327286 -0.00806247 -0.0071015875 0.02206625
0002c0 00 08 63 3d f2 43 fe bc 87 a5 1d 3c 28 f3 ff 3b
       0.05542755 -0.031038258 0.009621984 0.007810969
0002d0 05 02 50 3f cf 10 61 bc 86 4c 2a 3b 2c e9 26 bc
       0.8125308 -0.013736918 0.0025985553 -0.010187428
0002e0 2a f7 0f bd dd 37 4c 3c f3 47 93 bc 51 ed 4d 3b
       -0.035147823 0.012464491 -0.017978644 0.003142197
0002f0 81 bf 6b 3c 89 0c 95 bc ef aa bb bc 48 f1 1b bb
       0.01438892 -0.018194454 -0.022908656 -0.0023794938
000300 d8 83 eb 3c ba 10 f3 3c 45 ab 4b bc c2 ee 8f bb
       0.028749391 0.029671062 -0.012430971 -0.004392476
000310 2d 7e 02 bd 7b 96 f1 3c 79 fe e4 bc 2b 58 19 bc
       -0.03185861 0.0294907 -0.027953373 -0.0093594
000320 39 53 c1 3c da 2b 92 3b 52 dd 72 3c a3 13 87 bb
       0.023599254 0.004460794 0.014823275 -0.004122214
000330 cc c1 9c 3c 1c ba c8 3b 44 e8 02 bc 31 d6 2a bc
       0.019135378 0.0061257016 -0.007989947 -0.010427044
000340 9d 3e 0a 3a 36 5d b9 bb 42 9c cd bc 14 2a 10 3c
       0.00052736123 -0.0056568636 -0.025098924 0.008799095
000350 dc a6 91 bb a6 a5 c0 3a a6 de a0 3a 2d a4 fd bb
       -0.00444494 0.0014697805 0.0012273386 -0.0077405185
000360 bd b5 05 3c 0e e3 46 39 2c db 78 bc f4 02 14 3c
       0.008161006 0.00018967336 -0.015188973 0.009033907
000370 1d e7 3c 3b 73 e6 1d 3c 34 11 eb ba 80 23 7f ba
       0.0028824278 0.009637463 -0.0017934204 -0.0009732768
000380 e1 7e 06 3d f7 6c b2 b9 b9 b1 b0 bb 05 35 5e bc
       0.032835845 -0.0003403199 -0.00539228 -0.0135624455
000390 b5 29 76 3b be d2 a6 3c 60 85 a0 3c f7 f6 13 bc
       0.003756148 0.020364162 0.019594848 -0.009031049
0003a0 1f 98 d2 bb 10 0e 40 bc cd d9 4e bc d4 a5 25 3c
       -0.0064268257 -0.011722103 -0.01262517 0.010110337
0003b0 7b 0d 2e 3d 51 4d d2 bc 73 95 63 3c d3 13 67 3c
       0.042493325 -0.025671633 0.013890612 0.014103848
0003c0 ac bc 81 3f 2e a8 1a bd 9e 57 b4 bb ad 9d 8c bb
       1.0135703 -0.037758045 -0.005503609 -0.0042912574
0003d0 9b 17 3b bd ff 4a fd 3c b5 f4 63 3c cf 26 58 ba
       -0.04567681 0.03091955 0.013913323 -0.0008245529
0003e0 99 1a a6 3c 5d 0c 47 3b 5a 67 8b 3a eb cd 42 bc
       0.020276355 0.003037236 0.001063566 -0.011889915
0003f0 2f 67 99 3b c5 93 4f 3c 18 d3 4d bc 56 5c 79 3c
       0.00468149 0.012669508 -0.012562536 0.0152197685

m_transform.0.1.weight f4 [64, 1, 5, 5]
000000 07 27 56 bd 64 87 8f 3d 7a 5e d5 bc 6d 84 a7 bd
       -0.052283313 0.070082456 -0.026046026 -0.08179555
000010 43 23 b3 bd 64 ce 97 3d 2d d3 5c 3c 26 15 6e bd
       -0.0874696 0.07412413 0.013478083 -0.058125637
000020 10 6e 58 bd b9 b6 c5 3c f8 af 12 bd aa 50 ef 3c
       -0.05283934 0.02413498 -0.035812348 0.029213268
000030 3c 78 d8 bc f7 84 0e be 22 d8 8b 3d be f7 18 be
       -0.02642452 -0.1391791 0.068283334 -0.14938256
000040 93 10 e8 3d 20 9b 2c be 62 61 73 bb 15 e9 26 be
       0.11331286 -0.1685605 -0.0037136902 -0.16299851
000050 84 8b 26 be 37 f8 16 3e 46 c7 1d be 09 a1 09 be
       -0.16264158 0.14743124 -0.15408048 -0.13440336
000060 bd ee b6 bc 1b 86 a6 bc a9 94 7c 3d ac ca 33 bd
       -0.022330636 -0.020327618 0.06166521 -0.043894455
000070 e6 cd 11 bd b7 41 a9 3d 3d a3 ef 3d a1 8e e8 bd
       -0.03559675 0.08264487 0.11701057 -0.11355329
000080 09 fb c1 3c 53 e4 51 3e e0 06 1d 3e 5a 55 2d 3e
       0.023679273 0.20497255 0.15334654 0.1692709
000090 51 df ac bd 4f 4f 1f bc 2f bf 1c bd c1 e1 d4 3c
       -0.08441032 -0.0097234985 -0.038268264 0.025986554
0000a0 c2 bd 5d bd ae 94 53 be 9c ee b6 bd 56 7e 48 3e
       -0.054136045 -0.20662186 -0.0893223 0.19579443
0000b0 6e 97 2b 3e 6f a0 eb 3c 9a 73 0f 3e 15 03 58 be
       0.16756985 0.028763024 0.14008942 -0.21094926
0000c0 e8 12 9f 3d b4 a1 c8 bc 69 35 3b 3e d2 df 9c 3d
       0.07767278 -0.024491169 0.18282093 0.07659878
0000d0 e2 a3 0f 3e 45 4d 8c 3d c7 c3 28 be 97 0d eb bd
       0.1402736 0.068506755 -0.16480933 -0.114772014
0000e0 de 49 4d be 5c 14 58 3d b5 14 0d 3e 55 4f 24 3e
       -0.2004771 0.05275379 0.1377743 0.16045888
0000f0 30 96 2a 3d 77 2a ca bd e9 ef e0 bc 50 fc 74 be
       0.041647136 -0.09871381 -0.027458148 -0.23924375
000100 64 5c 81 3d 1d 9e 57 3d 1c c3 1f be cf 5c 18 bd
       0.0631645 0.052641023 -0.15601772 -0.037197884
000110 a5 c7 28 3d 44 bf 02 3c 6f bd d3 bd 4b 9e a7 bc
       0.04120602 0.007980172 -0.10338866 -0.020461222
000120 a6 a4 5e 3d 1b 0c 15 bc 4b 36 3d 3e a4 ab f7 3d
       0.05435624 -0.009097124 0.18477742 0.12093285
000130 61 eb 36 be f5 0e 85 3d 51 79 76 bd 6d 52 58 3d
       -0.17863227 0.064969935 -0.06017429 0.052812982
000140 d7 cb 91 3d 7b 0e 31 be e5 1d 64 3d 22 61 f2 3d
       0.071189575 -0.1729068 0.055692572 0.11834933
000150 06 50 7f be f5 6f c6 bc 0a 15 e1 bd 3d 68 35 3e
       -0.2493287 -0.024223307 -0.10990341 0.17715545
000160 18 65 45 3e d0 ff d0 3c ec 62 9d bd f9 7f 49 be
       0.19276845 0.025512606 -0.076848835 -0.19677724
000170 62 e5 35 be 57 ce 24 bd 66 df cb 3d 0b 43 e6 bd
       -0.17763284 -0.040235844 0.09954719 -0.11243256
000180 b2 c5 6e 3d 9d 38 00 3e 06 55 76 bd c9 ef 73 3e
       0.058294006 0.12521596 -0.06013968 0.2382194
000190 1a 00 40 be 3d b8 56 3e 78 a9 30 bc c7 1e aa 3d
       -0.18750039 0.20968719 -0.010782592 0.083066516
0001a0 54 87 3d 3c f6 eb 54 bc ce bd 83 bc bd 88 8c bd
       0.011567909 -0.012995711 -0.016081717 -0.06862018
0001b0 8d b2 5d be fe c8 43 bd 65 cb 15 3e ae aa 81 3d
       -0.21650143 -0.047799103 0.1462837 0.06331383
0001c0 d1 62 47 3e 3d ac a9 3d a6 51 f3 bd cf f4 9c 3b
       0.19471289 0.08284805 -0.118808076 0.0047899256
0001d0 7f b6 ae 3d 85 ab e5 3d 0a 34 27 be 3a 4e 8f bd
       0.08530902 0.112143554 -0.16328445 -0.069973424
0001e0 c8 d3 96 bc dc d5 15 bd 3f 03 49 3e d2 ae 1c be
       -0.018411532 -0.036580905 0.19630145 -0.15301064
0001f0 cc 8a 22 be 61 bf 0a bd 0f a9 00 3e d1 69 80 bd
       -0.1587326 -0.03387392 0.1256449 -0.06270183
000200 80 26 01 be 62 c3 4e bc 28 08 39 bd f3 3e 05 be
       -0.12612343 -0.012619825 -0.045173794 -0.13012294
000210 9b 4d b3 bd e2 c2 1a bd 0b 12 6c 3c d4 77 13 3a
       -0.087550364 -0.03778351 0.014408599 0.0005625461
000220 68 67 34 3e 84 00 14 bd d0 a7 31 3d f3 d1 37 3e
       0.17617571 -0.036133304 0.04337293 0.17951183
000230 d1 91 73 3e 60 3e 09 be 2c 13 29 3e 15 bc 92 3d
       0.23786093 -0.134027 0.1651122 0.0716478
000240 cb b1 54 3e 8a 7e 28 3e ca 01 c6 3d 47 d5 61 bd
       0.20770948 0.16454521 0.0966831 -0.055135038
000250 37 2e 25 be 54 02 6a bd 6b 61 b0 3d 4a a6 ec 3d
       -0.16130911 -0.057131127 0.08612331 0.115551546
000260 c9 2c f9 bc e8 68 01 be 53 47 46 3e 8c d2 31 3e
       -0.030416863 -0.12637675 0.19363146 0.17365474
000270 3e 52 1b bc af 4c 10 3e 2a a0 92 3d 72 c3 08 be
       -0.009480057 0.14091752 0.07159455 -0.13355806
000280 44 34 84 bd 85 ea 81 bd 29 9e 1f bd aa c0 65 be
       -0.064552814 -0.06343559 -0.038969193 -0.22436777
000290 9e 16 77 3e 90 57 0c 3e b7 72 e5 bd ba ca 5f 3c
       0.24129722 0.13705277 -0.11203521 0.013659174
0002a0 f2 8f b0 3d cd 82 66 3c dc 72 ae 3d a8 78 1e 3e
       0.086212054 0.014069271 0.085180014 0.15475714
0002b0 41 be 0b be 4d 59 4f bd 29 89 41 3d 6e 55 d8 bd
       -0.13646795 -0.050622273 0.047249947 -0.105631694
0002c0 f5 0c a9 3d 7f c3 8e bd b6 a9 8a 3d da 0f 9c bd
       0.082544245 -0.06970882 0.06770651 -0.07620211
0002d0 47 57 a2 bd 26 d5 4a 3e ac c7 77 3e d4 35 16 be
       -0.07926803 0.19807872 0.24197263 -0.14668971
0002e0 d4 1c 1b be dc f4 a4 3d 97 a4 6f 3d 41 2a 9a bd
       -0.15147716 0.08054516 0.058506574 -0.075275905
0002f0 a8 c7 99 3c 38 d6 df bd ae 7d 1f 3d ea a2 57 3e
       0.018771961 -0.10929531 0.038938217 0.2105824
000300 63 79 8d bd 8f 88 10 be 3f 4b 42 3d 21 79 03 3e
       -0.06907918 -0.14114593 0.04743504 0.12839176
000310 e0 8e 0f 3e 99 59 fc 3d c8 8b 8b bd 66 0f 0e be
       0.14019346 0.12321777 -0.068137705 -0.13873062
000320 f8 4f 11 be 91 4a 07 3d 3e 7d 27 3e 7b 23 ca bd
       -0.14190662 0.033030096 0.1635637 -0.098700486
000330 56 a8 82 3d 30 af a9 bd 71 a9 38 3e 13 33 9b 3d
       0.06379764 -0.082853675 0.18033387 0.07578101
000340 a2 76 c8 3c be ae 42 bd 29 14 8f bd b3 e2 c7 bd
       0.024470631 -0.04752993 -0.06986267 -0.09760036
000350 2d 08 d5 bd ec 7d 1d 3c 74 6c d8 bd b6 be f4 3d
       -0.1040195 0.009612542 -0.10567561 0.11950438
000360 85 dd cd bd 2c 28 ed 3c 60 11 ba 3d 10 e2 4a 3b
       -0.10052017 0.02894982 0.09085345 0.0030957498
000370 ef d0 05 3d 0a cd 07 be fe 41 87 bc 6e 8a c2 3a
       0.032669958 -0.1326181 -0.01651096 0.0014842281
000380 89 43 31 3e 71 f2 84 3c ca 69 12 be e7 b5 ca bc
       0.17310919 0.016228886 -0.14298168 -0.02474494
000390 25 4b 34 3e 69 f8 aa bd 53 0d dc bd 21 11 ca 3b
       0.1760679 -0.08348162 -0.10744729 0.0061665927
0003a0 22 2e 3b 3e cd 07 40 3d 4d 28 f4 3d 1a ee 89 bd
       0.18279317 0.04688244 0.11921749 -0.067348674
0003b0 fb da 7e bd c0 5b 61 3d 82 6a 42 be e0 7f 11 be
       -0.062220555 0.05501914 -0.18985942 -0.14208937
0003c0 57 cf 2b bd 2d fc 8d bc 79 03 f4 3d 40 d8 14 be
       -0.04194578 -0.01733216 0.11914725 -0.14535618
0003d0 cd 82 46 be 6e 44 3a be 63 c9 09 3e 7c 9a 3b 3e
       -0.19385834 -0.18190166 0.13455729 0.1832065
0003e0 37 47 28 3d 03 d5 26 be 17 16 03 be 7c ad 6c bd
       0.04108354 -0.16292195 -0.12801395 -0.057782635
0003f0 ac 09 61 bc 18 11 1f 3d 10 14 20 bd ec f2 3f 3e
       -0.013735216 0.03883466 -0.039081633 0.18745011

m_transform.0.1.bias f4 [64]
000000 f7 8c 5b 3d e1 23 18 be d0 04 d3 3c b0 bc 4c 3e
       0.05360123 -0.14857437 0.02575913 0.19993854
000010 4d 2a 50 3c d5 15 4e be 3d b9 0c bc ae 54 9a bd
       0.012705398 -0.20125516 -0.008589086 -0.075356826
000020 8d 28 7b be b0 52 ac bd 92 f6 f7 3c e3 2e 0d 3e
       -0.24527188 -0.08414209 0.030268941 0.13787417
000030 ec da 20 3e dc 30 c9 bd a4 53 3e be a4 4b 86 3e
       0.15708512 -0.09823772 -0.18586594 0.26229584
000040 e7 8d db 3d 70 48 cd bc ec 94 fd 3d 37 9e 15 3d
       0.10720425 -0.025058955 0.1238192 0.03652784
000050 98 89 9b 3d 76 5a 13 3d 23 f9 57 bd e5 3f ab 3c
       0.07594603 0.035974942 -0.05272783 0.02090449
000060 e7 e0 1b 3e bb 49 12 be ec e6 b9 3d 5c c6 8c bc
       0.15222512 -0.14285938 0.09077248 -0.017184429
000070 bc 4b 52 3d 6c 53 3e 3e 47 92 09 3e 44 1c 78 3d
       0.051341757 0.1858651 0.13434707 0.06057383
000080 f2 5e aa 3d 6f 06 8b bd bf 1c 69 be a6 b9 e0 bc
       0.08318891 -0.067883365 -0.22764872 -0.027432274
000090 62 bb 4b be 62 be 8d 3d 50 ce 06 3e 44 07 21 bd
       -0.198957 0.06921078 0.1316464 -0.03931357
0000a0 56 06 ea 3d d1 59 7e bc 82 53 b7 bc 03 31 87 3d
       0.1142699 -0.015524344 -0.022378687 0.06601145
0000b0 44 4a 35 3e ba 18 d6 bd db ef a8 bd d3 d8 63 be
       0.17704111 -0.10453935 -0.08248874 -0.2225068
0000c0 df 92 31 be 82 af f4 bc 5a 7e 99 bd d0 e7 a3 bd
       -0.17341183 -0.029868845 -0.07494803 -0.08003199
0000d0 50 93 60 3e ab f8 b9 3d 40 cf 6f bc 7a ca 11 be
       0.21931195 0.09080633 -0.014636815 -0.14237395
0000e0 d5 2b a8 3d 30 44 47 3d cf 58 97 bd 05 81 44 3d
       0.08211485 0.048649013 -0.07389986 0.047974605
0000f0 f0 20 25 3e 14 97 4e bc 97 22 9f 3d 11 73 08 3e
       0.16125846 -0.012609262 0.07770269 0.13325144

m_transform.0.4.weight f4 [64, 32, 1, 1]
000000 e8 d5 04 be 72 19 9a 3d f2 ed 0c 3d 9f f1 19 3e
       -0.12972224 0.075243846 0.03440661 0.15033577
000010 2a 12 0c 3e 90 45 05 be f6 0f 2f bd 78 b2 20 3c
       0.13678804 -0.13014817 -0.04273983 0.009808175
000020 c5 41 e5 bd 5f da 82 bc 4a a1 32 3e 3b fd 02 be
       -0.11194185 -0.015973268 0.1744434 -0.12791912
000030 16 d9 e0 bd 14 ab 04 3d 5d 4b b0 3d 9c c3 3d 3e
       -0.10978906 0.032389715 0.086081244 0.1853165
000040 4b cd 23 3e c1 91 ba bd bc 73 de bd 16 28 2c 3e
       0.15996282 -0.091098316 -0.10861918 0.16812167
000050 35 ec f3 3d ce a8 06 3e c1 99 2d 3d 3e 1e 1f be
       0.11910287 0.13150331 0.04238296 -0.1553888
000060 9d 49 1f be 04 40 f2 bd b1 1f aa bd 85 10 af bc
       -0.15555425 -0.11828616 -0.08306826 -0.021370182
000070 b7 f8 1d 3d 95 cd 6a bd 5a ce 37 3e 13 bc 7d 3e
       0.03856727 -0.057324965 0.1794981 0.24778776
000080 15 66 21 be d9 a3 dc bd d5 f9 30 3e 44 16 a6 3d
       -0.15761597 -0.10773439 0.17282803 0.081097156
000090 3c e6 0b be 11 1f 28 3d 4d f9 10 3e 12 1e db 3d
       -0.13662046 0.041045252 0.141576 0.10699095
0000a0 28 0c d9 bd 06 af c9 3d 76 4c f0 bd 5d 55 02 3d
       -0.10598022 0.09847836 -0.11733334 0.03181969
0000b0 ac 67 a2 3d 72 86 2c 3e 57 95 10 3e b1 ef a8 3d
       0.0792993 0.16848162 0.14119469 0.082488425
0000c0 1a db 2e 3e 51 d2 2d be a8 00 da bd 2d 22 86 bd
       0.17075768 -0.1697476 -0.106446564 -0.06549487
0000d0 aa 29 32 be c5 cc 3f bd dd ac 1a be b4 fc 5e bd
       -0.17398706 -0.046826143 -0.15105005 -0.054440215
0000e0 ff c1 34 bd 08 a7 f7 3d 2a d8 a1 3d d8 3e ac 3d
       -0.04413032 0.120924056 0.07902558 0.08410424
0000f0 24 20 91 3d 9e 23 cc 3d 97 6d 0d bc 1f 22 fe 3d
       0.070862085 0.09967731 -0.008632085 0.12408852
000100 56 cd ea 3d 05 56 07 3e 35 84 a1 3d ff 69 9b 3d
       0.11464946 0.13216408 0.078865446 0.075885765
000110 45 ea 1b 3e 9e a9 a2 3d 29 d3 a5 bd b5 64 9d 3d
       0.15226085 0.07942508 -0.08096916 0.07685224
000120 1a 5e e2 bd 97 79 d2 bd 70 84 2b bd 3d 0e 4b bd
       -0.11053105 -0.10277098 -0.04187435 -0.049574126
000130 72 d6 06 3e f8 df 20 be 46 b6 95 3d b1 16 cd bd
       0.13167742 -0.15710437 0.073101565 -0.10014094
000140 4b b8 c4 bc 1c c5 1b be df c1 ee bd 2c f9 fe 3d
       -0.024013659 -0.1521191 -0.11658072 0.124498695
000150 be c6 61 3c b9 45 1b 3d 1d 50 46 be 8f ea 0a 3e
       0.013780294 0.03790829 -0.19366498 0.1356604
000160 50 e8 df 3d 17 29 f5 3d ea 80 11 3e 4e 50 12 3e
       0.10932982 0.11970728 0.14209333 0.14288446
000170 d1 de 07 3e 51 2f a9 3d ac 8f 3f 3e 51 97 13 be
       0.13268591 0.08260978 0.1870715 -0.14413191
000180 22 75 9a bd 5e ff c0 3d 5c 80 ea ba 4f b5 f0 bd
       -0.075418726 0.094237074 -0.0017891037 -0.11753332
000190 a6 5b 30 3d 39 ab 1b be 6b 95 cb 3d 21 39 ac 3c
       0.043056153 -0.15202035 0.099406086 0.021023335
0001a0 4a 6c c8 bc ed cb 06 3e 71 83 ce bd b1 84 76 bd
       -0.024465699 0.13163729 -0.10083664 -0.060185138
0001b0 85 a4 15 3d c3 af f0 bd 3a ac b9 3d 0d 12 5f 3c
       0.03653385 -0.11752274 0.09066053 0.0136151435
0001c0 2e a4 62 bd 4e ee ed bc cf b5 b3 bd a6 5f 4c 3d
       -0.055332355 -0.029044297 -0.087749116 0.049895905
0001d0 ca 69 0c be db be a1 3d 96 33 ed bd cf f9 3a be
       -0.1371223 0.07897731 -0.11582105 -0.18259357
0001e0 19 b1 25 3e 17 57 13 3e e5 0f 3e be 78 39 7e bd
       0.16180839 0.14388691 -0.18560751 -0.062066525
0001f0 b2 d1 24 3d 15 66 03 be 34 0d 14 be 75 08 b2 3d
       0.040239044 -0.1283191 -0.14458162 0.08693019
000200 b1 58 95 3d 98 e0 55 3b d6 a6 93 bb 23 1d 83 bd
       0.07292307 0.003263509 -0.0045059724 -0.06402042
000210 6e 7c dd 3c 08 c1 34 3e ac e3 0b bd 17 ee 08 3e
       0.027036872 0.1765176 -0.03415267 0.13372074
000220 e5 17 23 be 05 bc 49 3b cd 60 c8 bd 45 c3 dc bd
       -0.15927084 0.0030782234 -0.09784088 -0.10779432
000230 9f 31 6f bd 98 c5 8f bc 06 6e 53 bd 36 a4 e6 3d
       -0.05839693 -0.017550275 -0.0516186 0.112617895
000240 93 c1 02 be b3 ff b9 3d 6b ed 1b 3e 33 f8 24 be
       -0.12769155 0.09081974 0.15227287 -0.16110305
000250 e9 c6 c2 bd ef 2a 67 bc 05 5d 16 3e bd b6 ca bd
       -0.09510595 -0.014109357 0.14683922 -0.09898136
000260 fe af 7b bd 3b e4 3e be a4 29 38 be 43 73 2d bd
       -0.061447136 -0.1864175 -0.17984635 -0.04234625
000270 87 50 da 3b ca 21 86 bd e9 14 bd 3d 47 e7 03 be
       0.0066624316 -0.065494135 0.09232504 -0.12881194
000280 56 ea 2e bc 70 91 b6 3d 39 74 10 3e 50 4c 3b be
       -0.010675987 0.08914459 0.14106835 -0.1829083
000290 12 05 96 bc 06 98 f9 bd 4b e0 cc bd 08 28 d0 3d
       -0.018312965 -0.12187199 -0.10003718 0.10163885
0002a0 b9 e5 9c bd a8 50 37 bd 45 84 02 be ff 17 d2 3a
       -0.076610036 -0.044754654 -0.1274577 0.001602888
0002b0 ac 12 08 be 0c 8b 8a 3d 4e 38 35 be c8 df ae bc
       -0.13288373 0.06764802 -0.1769726 -0.021346942
0002c0 3e df 26 be 70 4f d3 bd 6b 22 c2 3c 35 44 1f be
       -0.16296098 -0.10317886 0.023698052 -0.15553363
0002d0 30 82 19 be e1 2e e7 3d 36 3b 6c bd af 9c 4b bd
       -0.14991069 0.11288238 -0.057673655 -0.049709972
0002e0 12 b0 1a 3e 84 0f d1 3d 88 8a 19 be 5a da 2c bd
       0.15106228 0.102080375 -0.14994252 -0.042200424
0002f0 f1 86 0a be fa bb 84 3d 5b ff 6f 3c f9 79 29 be
       -0.13528039 0.06481166 0.014648284 -0.16550435
000300 33 fa b8 3d 3b ca f8 bd 4a 9d 27 bd c1 42 ec bd
       0.09032097 -0.121479474 -0.040921487 -0.1153617
000310 99 d5 2f be 4a 2c 04 be 65 12 b7 3d 2b 33 3e be
       -0.17171325 -0.1290752 0.08939055 -0.18574207
000320 38 6e 81 bd 7f 0d 0b 3e 17 89 8a bb b7 cb 45 3d
       -0.06319851 0.13579367 -0.004227768 0.04828998
000330 5c f3 be 3d 91 8d 39 be 97 5a 2b 3d 6e 5f 8a bd
       0.09323761 -0.1812041 0.04183444 -0.06756483
000340 79 ae b6 3d 42 79 b4 3d 91 f0 d7 bd ae dd 1f 3d
       0.08919997 0.088121906 -0.10543931 0.03902977
000350 2d d0 ca 3d ac f2 98 bd 4d c8 7b 3d 88 98 bc 3d
       0.09902988 -0.07468161 0.06147032 0.092087805
000360 08 b9 25 3e 27 f8 3b bd 15 0b 90 bd fa ab 9c bc
       0.16183865 -0.045890953 -0.07033364 -0.019124974
000370 a4 a5 9b 3d 66 ad 55 be 98 7d 1c be f4 0d 85 bd
       0.07599953 -0.20866928 -0.15282285 -0.06496802
000380 98 37 92 bd 9f 13 33 3e f8 f9 8b bd 04 6f 33 be
       -0.0713951 0.17487954 -0.06834787 -0.17522818
000390 84 cf fd bd cb fb 75 3b b4 40 3b 3d 6f 79 0d 3e
       -0.12393096 0.0037534114 0.045716003 0.13815854
0003a0 f1 0b 09 3e c4 de 9a 3c 84 04 f1 3d c5 6c 05 be
       0.13383462 0.018905051 0.117684394 -0.13029774
0003b0 7a 5f 32 3e 1f 0d 36 be c3 43 4f 3c ed 06 d9 3d
       0.17419234 -0.17778443 0.012650433 0.10597024
0003c0 96 c7 14 3e 01 0f 0e bc aa e8 8d 3d 7f 5a ae bd
       0.14529261 -0.008670569 0.06929143 -0.085133545
0003d0 08 2e a1 bd 43 a5 50 bd 9a 06 29 3d 4a a5 bf 3d
       -0.07870108 -0.050938856 0.04126606 0.09357698
0003e0 d3 e4 01 be a7 a3 a0 bd 75 79 ef 3a ea ca e7 3a
       -0.12684946 -0.07843714 0.001827045 0.0017684374
0003f0 05 5f 1b be a3 bb ae 3d 81 60 95 bd b7 d9 07 be
       -0.15172966 0.085318826 -0.07293797 -0.13266645

m_transform.0.4.bias f4 [64]
000000 3a eb d6 bd 2c 37 96 3d b7 8e e8 3b 42 d2 be bc
       -0.10494085 0.07334742 0.007097091 -0.023293618
000010 05 f2 18 be 3d a1 02 3e cb bd ce bd 70 06 0b 3e
       -0.14936073 0.1275682 -0.10094794 0.13576674
000020 91 44 88 bd 5b 8f fb 3d 0a 72 ee bd 38 9d 08 be
       -0.06653703 0.12283202 -0.11642845 -0.13341224
000030 b7 ac bd ba 4c 9d d3 3c 3f 37 3e 3e d7 64 60 bd
       -0.0014471029 0.025831841 0.18575762 -0.05478367
000040 bd 37 e2 bd 47 56 62 be d4 d3 d8 3d 36 42 04 be
       -0.110457875 -0.22103225 0.10587278 -0.12915882
000050 b1 49 e3 3c f8 98 bb b9 2b 9e 36 3e 53 e3 8a bd
       0.0277451 -0.0003578139 0.17833774 -0.0678164
000060 be af 21 3e 15 ad ff bd 06 61 1d be bb 07 76 3d
       0.15789697 -0.12484185 -0.15369043 0.060065966
000070 84 07 4d 3d f1 a7 d9 3d 9f 20 01 bd 34 c1 b4 bd
       0.050055996 0.106277354 -0.03152525 -0.08825913
000080 aa ab 8e 3c 0a 48 cd bd a4 af 9d bd df 1a 00 3e
       0.01741584 -0.10023506 -0.076995164 0.1251025
000090 f4 e9 19 be d8 13 bf 3d f1 d8 85 bd 07 43 11 be
       -0.15030652 0.09329957 -0.06535519 -0.14185725
0000a0 b5 8a 33 bd 26 7a a3 bd 56 40 14 3e 97 05 f8 3d
       -0.043833453 -0.07982282 0.14477667 0.12110441
0000b0 08 42 ca 3d f8 e8 2d 3d 9c ed 83 3c 27 dd 80 3d
       0.09875876 0.042458504 0.016104512 0.062921815
0000c0 88 87 5d bd ae 96 e6 3c 0b 36 89 bd 6a 02 f3 bd
       -0.05408433 0.028148022 -0.06699761 -0.11865695
0000d0 28 b7 0c 3e 55 5a 06 3e 1c 7c ce bd b2 48 54 3d
       0.13741744 0.13120396 -0.10082266 0.05182714
0000e0 a6 77 8e bc db 69 15 be a4 4d ac 3d ae 55 19 bd
       -0.017391037 -0.14591162 0.08413246 -0.037435226
0000f0 ad d0 d3 3c 57 c2 0f bd 4e fa 7c bd aa 0d 9a 3d
       0.02585634 -0.035097446 -0.061762147 0.075221375

m_transform.0.6.running_mean f4 [32]
000000 58 d6 4a 3e b2 55 aa 3f 63 6c 12 40 a1 b2 8a 3e
       0.19808328 1.3307402 2.2878654 0.27089408
000010 20 53 d5 be 82 c2 48 bf 7f d9 dc bd b9 a5 cc 3d
       -0.41664982 -0.78421795 -0.107836716 0.099925466
000020 aa 75 36 be f1 bd ba 3e c0 01 37 3e 38 74 27 3f
       -0.17818323 0.3647304 0.17871761 0.6541171
000030 26 08 ed 3f 49 f6 b2 3e cf 54 3c 3f 9a 5a a6 3f
       1.8518112 0.34953526 0.7356691 1.2996399
000040 42 02 9d 3e 53 ed ff be 35 b0 2d 40 92 04 d0 3e
       0.30665785 -0.49985752 2.7138798 0.40628487
000050 77 df 95 3d 40 ec 1a 40 79 99 13 be 00 e0 11 be
       0.07318013 2.4206696 -0.14414014 -0.14245605
000060 c1 72 44 3f a9 66 ba 3e 76 a1 20 3f de 70 07 bc
       0.767376 0.36406448 0.6274637 -0.008266656
000070 4c 29 0c 3f ec 57 95 3f a3 72 cd 3f e4 cc b0 3e
       0.54750514 1.1667457 1.6050609 0.3453132

m_transform.0.6.running_var f4 [32]
000000 60 b7 1f 3e 29 06 ad 3e 2f db ae 3f 96 bf 4d 3e
       0.15597296 0.33793762 1.366064 0.20092615
000010 e0 8b ef 3d a0 83 89 3e c0 e4 17 3e a2 49 fe 3d
       0.11696601 0.26858234 0.14833355 0.12416388
000020 1b ed ae 3d 78 3e d2 3d 82 a4 18 3e 37 2c 08 3f
       0.08541318 0.10265821 0.14906505 0.53192466
000030 38 24 c0 3f 0f f2 c1 3d 72 42 9a 3e 2a 23 9c 3e
       1.5011053 0.09469997 0.3012882 0.30495578
000040 6c e8 4d 3e 2d 50 18 3e 0a 0b 0c 40 b2 68 09 3e
       0.20108193 0.14874335 2.1881738 0.13418844
000050 6c a2 b4 3e 0c ee 6e 3f 27 c0 8d 3d f4 d6 13 3e
       0.35280168 0.9333198 0.06921416 0.14437467
000060 60 f5 8f 3e b3 ed 23 3e 25 a7 fa 3d 29 89 e9 3d
       0.28116894 0.16008644 0.122389115 0.11403114
000070 df 22 61 3e b0 6f 83 3e 7f b0 86 3f 4e fb aa 3d
       0.21985959 0.25671148 1.0522612 0.08348714

m_transform.0.7.weight f4 [96, 32, 3, 3]
000000 f7 e7 fd 3a 58 9b a0 bc a7 d6 ee 3c 68 85 9b 3d
       0.0019371499 -0.019605324 0.029155089 0.075938046
000010 04 ea 85 bd 7b 63 0d bd c4 05 b8 3d e0 ef 38 bb
       -0.065387756 -0.0345187 0.08985475 -0.0028219149
000020 dd dd 80 3d 4c e9 8c 3d 18 c4 47 bd f4 6e c0 bc
       0.06292317 0.06880435 -0.048770994 -0.023490407
000030 a3 99 13 bd ed 55 3a bc d4 2e bf bb 6e 76 65 3d
       -0.03603519 -0.011373025 -0.00583444 0.056021146
000040 72 8d c8 bc 93 0b 0b bd 90 2f 2a 3c e0 cc 22 3d
       -0.024481509 -0.033946585 0.010387316 0.039746165
000050 04 0b 89 bd 7e e5 93 3b 19 56 f8 bc 14 52 87 bc
       -0.06691554 0.0045134416 -0.030314492 -0.01651863
000060 b1 ca 93 3c 46 f5 96 3c b5 a9 8a bd 28 be 0c bc
       0.018040987 0.018427502 -0.0677065 -0.008590259
000070 b4 18 7e bd 72 e5 01 3d e9 2a 79 bd 19 0a 29 3d
       -0.062035277 0.031712957 -0.060831938 0.041269396
000080 92 31 28 3d b4 54 e7 bb ff 25 68 3d 03 7f 36 3d
       0.0410629 -0.007059658 0.05667686 0.04455472
000090 43 14 87 bd 63 f0 2f 3c 24 85 61 3d f3 c6 9d bd
       -0.065956615 0.010738465 0.055058613 -0.07703962
0000a0 b0 43 40 3d 93 d8 a9 3c 5b dc 4f bd f1 fa c2 3c
       0.04693955 0.020733153 -0.050747257 0.023801299
0000b0 ad 83 25 3d d1 92 98 bd e5 e2 bd 3a bd 1e 53 bc
       0.04040878 -0.07449878 0.0014487176 -0.012885747
0000c0 3c 08 7c bd 86 71 a2 3c 85 bb 90 3d 27 13 52 bd
       -0.06153129 0.019829523 0.070670165 -0.051287796
0000d0 f6 01 28 3c 3a b3 1d 3d c8 60 70 ba 64 24 a0 3c
       0.010254374 0.038501002 -0.0009169695 0.019548602
0000e0 19 9d 8a 3b ab f4 ec 3b fd 5f e5 3c 92 5c 2e 3c
       0.0042301533 0.007231315 0.027999872 0.010642188
0000f0 d5 c2 a2 bb a3 d9 c3 bb 14 d6 60 bd 0b cc c8 bc
       -0.0049670734 -0.005976872 -0.05489166 -0.024511358
000100 f9 24 a1 3c 8c bd a8 bd 96 d8 ac 3c a6 ac 8d 3d
       0.01967095 -0.08239278 0.02109937 0.06917696
000110 02 49 97 bd 62 d2 3b bd c4 3b 80 3d 53 a3 33 bd
       -0.07386972 -0.045854934 0.062613994 -0.04385693
000120 f8 14 20 3d 76 c9 52 bd 22 53 24 3d 69 b4 53 3d
       0.039082497 -0.05146166 0.040118344 0.051685724
000130 56 43 20 bd 22 2d 52 bd d7 7c 55 3d 78 94 aa 3c
       -0.039126717 -0.051312573 0.05212101 0.020822749
000140 8d 06 4f 3d 93 02 31 bc ee 7f 13 3d d3 9b ce 3b
       0.050543357 -0.010803836 0.036010675 0.006305197
000150 a1 cd 51 bd 15 7f da bc 51 fe 50 bd fa c3 85 3d
       -0.051221494 -0.026671926 -0.051023785 0.0653152
000160 d6 c1 96 3c b8 4e aa bc e9 d6 84 3d 63 8d 5c 3d
       0.018402975 -0.02078949 0.06486303 0.053845774
000170 ad 88 9a 3c 57 52 a3 3a 67 4b d5 3d 1e 8d 2b bd
       0.018864 0.0012460452 0.104147725 -0.041882627
000180 08 67 60 3d 7c b2 ce 3d ad 9d 43 39 18 9f dc bc
       0.05478576 0.10092637 0.00018655388 -0.02693133
000190 c8 34 aa bc 80 e4 80 bc df 92 d3 3c 05 aa 02 3d
       -0.020777121 -0.015733957 0.02582687 0.031900425
0001a0 1c 84 8d ba ae 02 69 bd 9e 06 44 bd 6d 33 44 bb
       -0.0010796818 -0.05688732 -0.047857873 -0.0029937879
0001b0 9b a2 81 3d 3f 2a a9 3c 5b af 48 bd b7 a2 31 3d
       0.06329843 0.020650027 -0.048995357 0.043368068
0001c0 aa 45 26 3d 05 06 e1 3a 79 c9 7f bc 50 73 e4 bb
       0.04059378 0.0017167932 -0.015612 -0.006971754
0001d0 04 26 5b bd 70 78 41 3d 58 ae 79 3d f0 10 69 3d
       -0.05350305 0.047234 0.060957283 0.05690092
0001e0 c9 db b6 3c 2e 5d 09 3b 30 a8 21 bb 08 fa 30 bd
       0.022321599 0.002096008 -0.0024666898 -0.0432072
0001f0 f7 74 45 3d 26 d8 1b 3d ee 75 23 bb c0 62 86 bd
       0.04820725 0.038047932 -0.0024942118 -0.06561804
000200 ee 48 ff 3c 0b 4b 82 3c 51 4a cf bc 0e 9a 72 bc
       0.031162705 0.015904924 -0.025303992 -0.014807237
000210 2e d5 89 bc 20 53 2a 3d 0c af 07 3d 48 10 59 3c
       -0.016825285 0.04158318 0.033125922 0.013248511
000220 73 36 84 bd 83 50 2f bd 28 8f 80 3d e0 66 20 bc
       -0.06455698 -0.04280139 0.06277305 -0.009790152
000230 48 76 99 bd e7 f7 90 bd f6 13 1a bd c9 44 ba bc
       -0.074932635 -0.070785336 -0.037616692 -0.022737877
000240 a1 fc 88 3d ee e1 85 3d 19 f4 11 bc ac 69 51 3c
       0.0668881 0.06537233 -0.008908295 0.012781542
000250 17 f1 91 3c 00 35 af bc e9 4f f3 3c e4 13 1b 3c
       0.017815156 -0.021387577 0.02970119 0.0094651915
000260 c3 bc 44 bd b5 d0 c1 3c ba e6 ec 3c 1e ac 33 3d
       -0.04803158 0.02365909 0.028918613 0.043865316
000270 4c e2 8f bd 68 ba 63 3d 57 33 d0 3d d8 55 b5 bd
       -0.070255846 0.055597693 0.10166042 -0.08854264
000280 46 0d 9f bd 28 94 84 bc 6c 43 ed 3c e4 b4 89 bd
       -0.077662036 -0.016183928 0.028962813 -0.06723955
000290 fb 4d 22 3d 67 f3 46 bd 91 67 83 3c 89 21 5a bc
       0.03962515 -0.04857197 0.016040595 -0.0133136595
0002a0 fa 92 4b bd 26 24 93 bd 08 ad 1c 3d 8d 88 1c 3d
       -0.049700715 -0.07184629 0.038250953 0.038216162
0002b0 a9 ed 24 bd fd a7 d4 3b 13 23 47 3a 32 ff b9 3c
       -0.040265713 0.0064897523 0.0007596474 0.022704694
0002c0 4a e9 0f bd 0a 95 b9 3c ff 4a cb bc 03 31 8b 3d
       -0.03513459 0.022654075 -0.024816034 0.067964576
0002d0 18 e4 05 bd ad 91 32 bd 0c 9a 8e bc 3a 66 0e bd
       -0.03268823 -0.04359596 -0.01740744 -0.03476546
0002e0 7a 4f c0 3c c5 3b c7 3b 3a 0c 99 bd 00 db 24 bc
       0.023475397 0.006080123 -0.07473035 -0.010061979
0002f0 6f 73 58 bc be a2 22 3c 66 27 46 3d 6b 24 75 bd
       -0.013211115 0.009926496 0.048377417 -0.059849184
000300 29 8b 8b 3c 99 c6 08 3a f7 33 17 bd 1b 1c a6 b9
       0.01703413 0.00052175816 -0.036914792 -0.00031682928
000310 39 17 8f bd d9 ca 59 bd f4 c2 23 3d e2 b1 97 bc
       -0.06986851 -0.053171966 0.039980844 -0.018517438
000320 4e c6 7c 3d a3 76 e3 3b 38 d8 b8 bc e4 69 4e 3d
       0.061712556 0.006941633 -0.022564039 0.050393954
000330 6d 43 f8 bc 06 ff 08 3d f0 5a 36 3d 70 7e 5e bd
       -0.030305589 0.033446334 0.04452032 -0.0543198
000340 f6 b7 11 bd 91 5f 14 3d 36 55 a5 bb 2f 78 2e 3d
       -0.03557583 0.03622395 -0.0050455583 0.042595085
000350 ae 88 f8 3d 5a 7a 94 3d 70 78 08 bd 07 ce 3f bc
       0.121354446 0.07249899 -0.033317983 -0.011706836
000360 ef 09 bc bc 1a 3f dc 3c 8b 82 a2 bc aa 3d 38 bc
       -0.022953955 0.026885558 -0.019837638 -0.011245171
000370 7a a9 22 3d ff 3e 5a 3d 1c af f5 3b e9 3e 93 bd
       0.039712407 0.053282734 0.0074976813 -0.071897335
000380 a9 b1 e7 bc e8 ed 53 3c 37 38 a8 bc a5 43 7b 3c
       -0.028282957 0.012935139 -0.020534618 0.015335952
000390 5e 3f ce 3c 1b d2 97 bd 5d eb 45 bc 86 2d 07 3d
       0.0251767 -0.07413121 -0.012080041 0.0330024
0003a0 6a 5e 35 bd 44 bb 19 3d 40 ba dd bc 93 a0 30 3d
       -0.044279493 0.037532106 -0.02706635 0.043121886
0003b0 f3 99 d5 bc 20 91 68 bd 58 48 92 bc 01 cd ab 3c
       -0.026074385 -0.056779027 -0.017856762 0.020971777
0003c0 b2 d2 32 bd b4 28 0f 3d c8 a2 23 bd 52 89 7d bd
       -0.043657966 0.034950927 -0.039950162 -0.061898537
0003d0 3b 3f 05 bd 59 10 84 3d c0 31 13 3c e3 c8 e1 3c
       -0.032531004 0.064484306 0.008984029 0.02756161
0003e0 65 1c ad 3d 5e 13 29 bd 7f 08 17 bc f8 17 22 3d
       0.084526815 -0.041278236 -0.009218334 0.03957364
0003f0 df bd 10 3d 04 19 37 bc 3e 28 0a bd 6d f9 57 bd
       0.035337325 -0.011175398 -0.033729784 -0.052728105

m_transform.0.7.bias f4 [96]
000000 65 e0 34 bd f8 22 9c bc 0c 70 54 bd 09 af 25 3d
       -0.04415931 -0.019059643 -0.05186467 0.04045013
000010 ee 26 4b 3d d2 e6 16 bc 50 b8 80 3d 8a 59 85 bd
       0.049597673 -0.009210305 0.06285155 -0.06511219
000020 c8 57 b6 3c 9e 1e cc 3c 14 be 2e bd b5 81 79 bd
       0.022258654 0.024916943 -0.04266174 -0.060914714
000030 19 87 53 bd 0c e8 95 bd 54 20 e2 bc 59 64 0a 3c
       -0.05164251 -0.0731965 -0.027603306 0.008446776
000040 e8 1a 1a 3d f7 50 33 bd 17 4b 7e bb 51 ee 96 3d
       0.037623316 -0.043778386 -0.0038802081 0.07369674
000050 3a e3 6d bd d0 b3 33 3d 8f be 2d bd 67 45 32 3c
       -0.05807803 0.043872654 -0.04241806 0.010880805
000060 c1 fa 9d bc 2d ab fd 3b a0 f4 04 bd c0 ea f4 bc
       -0.019284608 0.007741353 -0.032459855 -0.029897094
000070 08 95 ed bb 07 9f d4 3c 95 21 27 bd b5 87 53 3d
       -0.007250432 0.025954736 -0.04080351 0.051643092
000080 37 ed 59 3a f4 ca 94 bc 2f de 2e 3d 0b 78 3c 3c
       0.0008313241 -0.018163182 0.04269236 0.01150323
000090 a0 01 96 3b 69 27 22 3c 6d 70 0d 3c ca c7 a4 3b
       0.0045778304 0.009897091 0.008632761 0.0050286995
0000a0 22 ae a9 3c 04 4a 63 bb 12 a6 85 bd ee 8d 8d 3d
       0.020712916 -0.0034681568 -0.06525816 0.069118366
0000b0 f7 9d f7 bb 46 6b 82 bc de c3 38 3d 1d 2b 1a 3c
       -0.0075566727 -0.015920293 0.04510867 0.009409693
0000c0 13 28 32 3d 54 e2 3f 3d 49 79 6f 3d 0b ea 53 bd
       0.04349525 0.046846703 0.058465276 -0.051736873
0000d0 b7 0a 68 3d b2 49 16 bd 32 5e 14 bd ae e6 f2 3c
       0.056650843 -0.036691375 -0.036222644 0.029651012
0000e0 b1 65 c7 3c da 5a 07 bd ed 06 88 3c 2f ff bc 3a
       0.024340482 -0.033045627 0.016604865 0.0014419312
0000f0 ce e6 ea b9 15 c5 18 bc 17 1d cc bc 59 6c 82 bc
       -0.0004480392 -0.009324332 -0.024916215 -0.015920805
000100 f1 c8 5e bc 36 da ec bc e9 72 82 3d b3 75 42 bd
       -0.013597713 -0.028912645 0.063695736 -0.047475528
000110 f5 83 0d bd 51 81 07 3d d7 04 8f 3d 1b b2 97 bd
       -0.034549672 0.03308231 0.06983345 -0.07407018
000120 e9 8e 1a bd db 6b 55 3b 08 88 1d bd 87 44 40 bd
       -0.037733946 0.0032565508 -0.038459808 -0.046940353
000130 93 3b 2e bd 00 f9 1e bd 49 83 c7 3c ab 5e c6 3c
       -0.042537283 -0.038811684 0.024354594 0.024215063
000140 a2 0d cb 3c c9 35 82 39 01 c5 12 bd 41 33 4e 3d
       0.024786774 0.00024835605 -0.03583241 0.05034185
000150 09 47 0e bd 75 5b 34 bd 5c 5d 05 3c 71 e0 0e 3d
       -0.034735713 -0.044032533 0.008139934 0.034882013
000160 2e 1f 93 bd 3a a2 0f bd 3b 60 85 3c 4b 12 7e bd
       -0.071836814 -0.03506682 0.016281238 -0.062029164
000170 d7 41 83 3c 32 29 e0 bb 73 ef 4c 3d 58 e8 0f 3d
       0.016022606 -0.0068408484 0.050033044 0.03513369

m_transform.0.10.running_mean f4 [48]
000000 a8 4c 96 3f 95 94 dc 3f 71 df 96 3f 7d 76 96 3f
       1.1742144 1.7232844 1.1786939 1.175491
000010 e0 44 94 3f a7 0f b4 3f 03 0a b8 3f 16 cb 9e 3f
       1.1583519 1.4067277 1.4378055 1.2405727
000020 29 1b 75 3f 13 ff a3 3f ca 8d a2 3f cf 23 e2 3f
       0.9574457 1.2812217 1.269952 1.7667178
000030 89 d8 93 3f f8 d0 9b 3f 01 9c 97 3f 95 2a 05 40
       1.1550456 1.2173147 1.1844484 2.080724
000040 29 29 d7 3f a2 8d 87 3f 39 bd ad 3f 2b 0c b9 3f
       1.6809436 1.0590098 1.3573371 1.4456838
000050 a2 df 8e 3f c0 31 f6 3f 44 5e b6 3f c2 fb 75 3f
       1.1161997 1.9233932 1.4247518 0.96087277
000060 b4 27 ae 3f 6f 14 da 3f 2b fc 98 3f 53 2b bc 3f
       1.3605866 1.7037486 1.1951956 1.4700722
000070 81 bd 9f 3f 7a fa b3 3f 27 c4 a3 3f 93 ed 5d 3f
       1.2479707 1.4060814 1.2794236 0.86690634
000080 40 74 74 3f db 55 9f 3f 9d 5b 8c 3f 38 49 94 3f
       0.95489883 1.2448076 1.0965458 1.1584845
000090 b0 6a 98 3f c3 5f c0 3f 5d c5 e9 3f f4 0e aa 3f
       1.1907558 1.5029224 1.8263355 1.3285813
0000a0 6a 29 94 3f 14 cb 77 3f 45 08 8a 3f 88 d7 b4 3f
       1.1575139 0.9679425 1.0783774 1.4128275
0000b0 a3 fc 8c 3f 53 c3 cb 3f c7 2e 97 3f f4 97 b0 3f
       1.1014599 1.5918983 1.181115 1.3796372

m_transform.0.10.running_var f4 [48]
000000 8a f4 21 3f bb 6d 78 3f bf d1 91 3f cd 01 63 3f
       0.6326376 0.97042435 1.1392134 0.8867462
000010 1d a3 15 3f e9 cd c1 3e cf 73 21 40 49 09 8a 3f
       0.58452016 0.3785241 2.5226934 1.0784084
000020 73 6d 9f 3f c2 b4 8c 3f 92 da 3c 3f 6f 58 18 40
       1.2455276 1.0992663 0.7377101 2.3803976
000030 ef c5 06 3f e3 81 91 3f 00 ca b5 3e 8a 8d a8 3f
       0.5264577 1.1367763 0.35505676 1.3168194
000040 f1 52 3a 3f f7 ad d5 3f 4d dc f3 3e e5 74 85 3f
       0.7278281 1.6693715 0.47629014 1.0426298
000050 79 b9 f4 3f fb 5f 55 3f eb 48 54 3f 9e 79 96 3e
       1.9119102 0.8334958 0.82923764 0.29389662
000060 ff c2 2e 3f 93 39 28 3f bf cc e0 3f 0c be 21 3f
       0.6826629 0.6571285 1.7562484 0.63180614
000070 98 dc 53 3f 9c 4e 43 3f 61 03 a4 3f 54 49 9a 3f
       0.82758474 0.76291823 1.2813531 1.2053628
000080 db e6 ec 3e 59 60 ff 3f db eb 76 3f d9 12 8c 3f
       0.4626988 1.9951278 0.96453637 1.0943252
000090 4c 66 3f 3f 5d 94 02 3f c4 ab 63 3f 3e 86 d2 3f
       0.7476547 0.51007634 0.8893397 1.6447217
0000a0 25 f0 e2 3e c0 b1 d4 3e a0 3e 21 3f bc aa 61 3f
       0.4432384 0.41541862 0.62986183 0.88151145
0000b0 59 9f a3 3f 8b b5 49 3f 14 e1 2e 40 de e2 81 3f
       1.2783004 0.7879264 2.7324877 1.0147359

m_transform.0.11.weight f4 [96, 48, 1, 1]
000000 15 5a 1c be 35 41 99 3d 9c 4c 95 bd 37 7f 2e bc
       -0.15268739 0.074831404 -0.07290003 -0.010650448
000010 a9 62 0d bc 68 11 04 bd 79 52 1e be a5 81 cc 3c
       -0.008629479 -0.032243162 -0.15461148 0.024964163
000020 7e 7e a4 bd 23 74 e2 3d 38 68 cd 3c 73 1e 6d 3d
       -0.08031939 0.110573076 0.02507411 0.057890367
000030 71 5d 22 3d a0 74 f6 bd fc ae 08 3e 81 7e 2a 3d
       0.039639894 -0.12033963 0.13348001 0.04162455
000040 4d b3 1b bd 1d 88 83 3d 15 94 41 3d 19 d0 b8 3d
       -0.03801279 0.06422446 0.047260363 0.090240665
000050 e7 6e 74 3d fe 38 fb bd 5d 70 7c 3d 90 02 a1 bd
       0.059676077 -0.1226673 0.061630595 -0.07861817
000060 29 0b ce 3d 9e d5 16 3e 3e d6 d9 bd 67 4f a5 bd
       0.100607224 0.14729926 -0.106365666 -0.080717854
000070 a7 bb f5 bd a4 42 82 3d 41 a4 f2 bb a6 9e 6f 3d
       -0.119986825 0.06360367 -0.0074048345 0.05850091
000080 90 f3 84 3d fe fd f2 3d b3 3a e6 bd 3f b7 d7 3d
       0.06491768 0.118648514 -0.11241665 0.10532998
000090 e8 6d e7 bc 6c 57 11 3e be 1a 31 bd ce b6 1d be
       -0.02825065 0.14193505 -0.043238394 -0.15401766
0000a0 03 56 5d 3d 90 46 fc 3c 1a 89 1c 3e 2f 6a e0 3d
       0.054037105 0.030795366 0.15286675 0.10957753
0000b0 8f 68 0b be 6c 03 b3 3d cc c7 18 be 81 f8 70 3d
       -0.13614105 0.08740887 -0.14919966 0.05883074
0000c0 fb 91 fc bd df 7a a9 bc a2 77 0b 3d 11 49 fc bd
       -0.12332531 -0.020688472 0.034049638 -0.12318624
0000d0 6d 7e 5e bd ce a6 a6 3c 63 a0 10 be 09 95 ef bd
       -0.054319788 0.02034321 -0.14123683 -0.11698348
0000e0 bc bb 98 bd 04 50 1a be bc 91 62 3d 90 57 b7 bd
       -0.074576825 -0.15069586 0.055314764 -0.08952248
0000f0 d2 95 08 3b 6b 01 cd 3d 74 5a f2 3d 2c 32 bf bd
       0.0020841253 0.10010036 0.11833659 -0.093357414
000100 29 eb c1 bd e9 ff 12 be 14 54 02 be 90 28 fc 3d
       -0.09468681 -0.14355434 -0.12727386 0.12312424
000110 e0 d4 41 bd db a3 c8 bc 70 f7 ad 3d 02 b7 b8 3c
       -0.047322154 -0.024492195 0.084944606 0.022548202
000120 b8 4e 24 bd 98 a7 d3 bb 55 d4 2e be 8c 31 9b bb
       -0.040114135 -0.0064591877 -0.17073186 -0.004736131
000130 06 c1 eb bd 2d a9 bd bd b8 f1 73 bc a6 85 26 bd
       -0.11511426 -0.09260783 -0.014889173 -0.0406548
000140 dd a0 dc 3d 85 65 85 bd e9 eb 68 3d f5 0a e7 3d
       0.1077287 -0.06513504 0.056865606 0.11281387
000150 88 ee c0 bd 13 76 2a be c5 ac 81 3d 92 1d b6 3d
       -0.09420496 -0.16646604 0.06331781 0.08892359
000160 6f 29 02 bc f7 bd b7 bc 68 b8 f5 bd 51 ae 0e be
       -0.007944449 -0.02242945 -0.11998063 -0.13933684
000170 a8 e3 e1 bd 96 32 4c 3d 9f db 81 bc d1 7e f9 bc
       -0.1102975 0.04985293 -0.015851794 -0.030455979
000180 c0 a4 5f bd 45 90 7f bc 3d e7 ef bd cd e2 0a be
       -0.054600477 -0.015598361 -0.11714027 -0.1356308
000190 fa 7d 00 be 7a 6e b3 bc ce dc 04 3e 67 4d ed 3c
       -0.12548056 -0.021903265 0.12974855 0.028967572
0001a0 8d 51 10 be 4f 83 8e bd 0c 42 22 3c 57 14 33 39
       -0.14093609 -0.06958639 0.009903442 0.00017078347
0001b0 17 1d f7 bd 74 d7 ff bd cb f5 c8 bd 3d 67 37 3d
       -0.12066095 -0.12492266 -0.09812506 0.04477619
0001c0 3c 58 63 bd 64 9b 0e bd bd bd 82 bd a1 16 b3 bd
       -0.05550407 -0.03481616 -0.06383846 -0.087445505
0001d0 31 9b ac 3d 56 70 3d 3d c6 ba 6c bd 4b f4 34 bd
       0.08428038 0.04624971 -0.05779531 -0.04417829
0001e0 53 45 76 3c 07 f5 c5 bd e3 3c c1 bd a6 a5 c4 3d
       0.015031177 -0.09665876 -0.09435441 0.096019074
0001f0 cc 20 c1 bd 55 ca 8b 3d 33 24 97 bd 00 19 26 3c
       -0.09430084 0.06825701 -0.07379951 0.010137796
000200 9d 44 6a 3d 42 0a b9 3d 8a 34 ca bc 3a f7 c7 3d
       0.05719434 0.0903516 -0.024683256 0.097639516
000210 05 4f 84 bd 73 51 be bd 2f dd bc bd 69 51 69 bb
       -0.06460384 -0.09292879 -0.09221875 -0.0035601503
000220 f1 8a 1a be 45 c6 bc bd 51 dd 12 be 58 4f a8 3d
       -0.15092064 -0.092175044 -0.14342238 0.082182586
000230 24 df 33 3d e1 d4 1a bd 9c 85 8d bc 1b 6e a1 bd
       0.043913975 -0.037800673 -0.017275624 -0.07882329
000240 ea 11 dd bb a5 0c 0c be ee dd cb bd 4a 97 2b 3d
       -0.0067465203 -0.13676699 -0.09954439 0.041892327
000250 84 e8 35 be f5 3d 13 3b e3 a4 11 be 4c 67 0a 3e
       -0.17764479 0.002246735 -0.14223056 0.13515967
000260 57 4b b1 bd e0 15 18 3c 20 e8 56 3d 53 11 7d 3b
       -0.08656948 0.009282559 0.052467465 0.0038615062
000270 0f 56 96 3c 63 92 90 3d a9 2e df bd 14 98 af bd
       0.018351583 0.07059171 -0.108975716 -0.085739285
000280 2b 31 e2 3d 52 db 7b bd e4 50 09 be 4f 55 49 3d
       0.11044534 -0.061488457 -0.13409764 0.049153622
000290 f8 b3 05 be 2b 7e b9 3d a7 d3 a2 bd b5 60 a5 bd
       -0.13056934 0.09057268 -0.07950526 -0.08075086
0002a0 a3 ef 83 bc ee 50 a2 bd c6 15 91 3d 94 db c7 3c
       -0.016105479 -0.07925592 0.07084231 0.024396695
0002b0 0d 88 3f bd 35 3b 81 3c 62 e4 bb 3d 81 0b ac bd
       -0.046760608 0.015775302 0.0917442 -0.08400632
0002c0 57 17 9d bd 31 06 e1 bd a3 04 15 3e c9 78 00 be
       -0.07670467 -0.10987509 0.1455255 -0.12546076
0002d0 cc b9 7c bc af e5 16 3e 94 12 6d 3d 12 d7 0c 3e
       -0.015425157 0.14736055 0.057879046 0.13753918
0002e0 c3 c2 17 be e4 d7 17 be c2 a6 2c bc e9 73 a1 3d
       -0.1482039 -0.1482845 -0.010537805 0.07883436
0002f0 92 c6 07 3e a6 6f 90 bd ec 10 fb 3b 76 db ef 3d
       0.13259342 -0.07052545 0.0076619294 0.11711781
000300 c0 84 ae bd 68 79 25 be 79 2f b5 3d 0f fc 06 3e
       -0.08521414 -0.16159594 0.08846945 0.1318209
000310 a6 29 d3 3c fe cb e4 3b 18 2c 99 bd 8a 83 d1 3d
       0.025776695 0.0069823256 -0.07479113 0.10230167
000320 04 f9 01 3c 53 4d 20 bd 88 85 76 bc 94 ac 8d bd
       0.007932905 -0.039136242 -0.015046485 -0.06917682
000330 13 06 25 bc da 6f f5 bd 60 c3 2b 3e d0 25 24 3b
       -0.010072249 -0.119842246 0.16773748 0.0025046952
000340 12 02 00 3e 0b 07 59 3d e4 fd 8b bd 70 cc a2 bd
       0.1250079 0.052985232 -0.06835535 -0.079491496
000350 05 0e ce bd 00 42 e8 bc e5 4e ab 3c 2f 58 61 3c
       -0.10061268 -0.028351784 0.020911643 0.013753935
000360 00 32 40 3d 96 2c 8c bd 36 0e 00 3d b2 88 aa bd
       0.046922684 -0.068444416 0.031263553 -0.08326854
000370 77 7f d1 3d e4 3b c7 bd 72 cf 42 3c e7 d3 6d 3c
       0.1022939 -0.0972822 0.011890279 0.0145158535
000380 4c 85 a1 3d 39 b9 16 be 0f b7 a9 bc eb d8 16 3c
       0.078867525 -0.14719094 -0.020717172 0.009206991
000390 a5 09 f3 3c 53 09 26 bd 93 69 70 bd e7 69 f4 bc
       0.029667685 -0.040536236 -0.058694433 -0.029835654
0003a0 0c bb b3 3d 16 1b 46 bd 33 58 e3 3d 51 a8 5d 3d
       0.08775911 -0.048365675 0.11100807 0.054115597
0003b0 a5 1f c7 3d a8 3c da bd 9a 38 cb bc b4 1d 10 3d
       0.097228326 -0.106561005 -0.024807263 0.035184577
0003c0 87 15 84 3d 15 b2 b6 bc 29 da cf bd a6 c2 4d bd
       0.064494185 -0.022301713 -0.101490326 -0.05023446
0003d0 97 8d 2b 3e d8 ab 01 be 0e a5 a0 bc 40 a6 bf 3d
       0.16753231 -0.1266321 -0.019609954 0.093578815
0003e0 55 68 3e 3d 28 8d c6 bd 0f 86 14 3e 85 8a b4 bc
       0.046486218 -0.09694892 0.14504264 -0.022038708
0003f0 e6 76 98 3d 88 17 95 3d e5 0d 3a bc 18 24 e9 3d
       0.07444553 0.07279879 -0.011355852 0.113838375

m_transform.0.11.bias f4 [96]
000000 f2 15 be bd 82 43 b9 3d ac 65 29 bd 5a 09 a0 3c
       -0.092815295 0.09046079 -0.041356727 0.01953571
000010 3a a1 f3 3b 5e 0b 95 bc 54 95 0d 3e f9 21 e9 ba
       0.007434991 -0.018193897 0.13826495 -0.0017786614
000020 ea 38 45 3d 11 5c bf 3c 39 84 0a be 01 cf 43 bd
       0.04814998 0.02335933 -0.13527001 -0.047804836
000030 fc 5f 89 3d 40 37 db bd c4 5a e3 3d ea c6 2e bc
       0.06707761 -0.107038975 0.111012965 -0.010667542
000040 98 8f ff bd ba e7 67 3d b9 f5 0f 3e 81 ee 93 3d
       -0.1247856 0.056617476 0.1405858 0.072232254
000050 45 ea db bd bd 91 bb 3c e6 04 c6 bd d4 f9 e7 3c
       -0.10738043 0.022896642 -0.09668903 0.02831737
000060 20 70 a9 bd 63 0b 05 3d 0a 58 57 bd ee c9 3e bd
       -0.08273339 0.032481562 -0.052574195 -0.046579294
000070 2e 46 99 ba 77 91 63 bd a6 ac c3 3d ae 8e 9e 3c
       -0.0011693889 -0.055558648 0.095544145 0.019355144
000080 4b f5 cf bd f0 b7 eb 3d 05 18 97 bc 70 19 18 be
       -0.10154208 0.11509693 -0.01844407 -0.14853454
000090 e4 6b d7 3c 1c a9 7a bd 98 af ab bc bc 81 99 bd
       0.026296563 -0.06119643 -0.020957753 -0.07495448
0000a0 0c d1 30 3c f5 24 07 3d 12 99 eb bd 52 5a 1b 3e
       0.010792028 0.03299423 -0.11503805 0.15171173
0000b0 85 c3 95 ba 22 ac e6 3c 17 64 62 bd c0 74 98 3d
       -0.0011426067 0.028158251 -0.055271234 0.07444143
0000c0 f7 eb b3 bd a3 e3 08 3d 73 0a 26 3d b6 ae b9 3d
       -0.08785241 0.033420216 0.04053731 0.090665266
0000d0 5d 8a 00 be 84 13 fd 3c 5f 0b 01 3d a5 36 8a bd
       -0.12552781 0.030893095 0.031504985 -0.06748704
0000e0 b9 f4 ae bd 44 a8 5b 3b 55 05 38 3d 58 37 ba 3d
       -0.08542771 0.0033517042 0.04492696 0.09092587
0000f0 91 1d cf 3d 15 41 92 3d 15 95 1a bd b6 f0 79 3c
       0.10113061 0.0714132 -0.037739832 0.015255144
000100 76 01 7c bd da 85 f8 3b 94 2d b5 3b 32 ca e6 3d
       -0.06152483 0.0075843157 0.005529115 0.112690344
000110 9f e2 b6 bd 8a 9f d3 3d 35 19 d2 3d df bd 09 3e
       -0.08929943 0.10333164 0.10258714 0.13451336
000120 e0 c0 9b bd 9b ad 25 bd aa 3d 66 bc 01 92 95 bd
       -0.07605147 -0.040448766 -0.014052788 -0.07303239
000130 09 b1 e5 3d 78 5c c9 3d 3e d3 1d be 0f a6 c9 bc
       0.112154074 0.0983209 -0.15412614 -0.024615316
000140 63 6f 60 3d 0d 7a ad 3d 04 34 53 bd 34 a1 1f bd
       0.054793727 0.08470545 -0.051563278 -0.038972095
000150 9f ad 72 bd 1c a9 b2 3c 5b 27 0f bd 34 1f 0b 3e
       -0.05924761 0.021809153 -0.03494964 0.13586122
000160 4f b0 0a 3d c7 10 22 be 2a ed 83 bd 39 25 89 3c
       0.033859547 -0.15826713 -0.0644172 0.016741382
000170 dc 34 ae 3d ef 31 03 be bb 54 ee 3d 76 02 6e 3d
       0.08506176 -0.12812017 0.11637255 0.058107816

m_transform.0.13.running_mean f4 [48]
000000 c2 95 ae 3e 2d 5e 0f 3f b2 23 aa 3e ca 82 28 3f
       0.3409863 0.56003076 0.33230358 0.6582457
000010 31 20 9d 3e 1d 41 1f 3f f3 09 e1 3e 4d f0 9c 3e
       0.30688623 0.6220873 0.43952903 0.30652085
000020 4c 0b b8 3e d8 43 fc 3e 35 5a 9f 3e a0 f2 ec 3e
       0.3594612 0.4927051 0.3112351 0.46278858
000030 af 82 10 3f 12 6b d2 3e c9 de ee 3e be 1f 1a 3f
       0.5644941 0.41097313 0.46654347 0.60204685
000040 ab ca 93 3e 13 ae a7 3e b9 88 0f 3f 2f ee 07 3f
       0.2886556 0.32749996 0.56068 0.53097814
000050 0a 20 30 3e ea 1e 1b 3f ac f5 d1 3e 0c b3 02 3f
       0.17199722 0.60594046 0.41007745 0.51054454
000060 39 b8 5f 3e d8 c4 aa 3e 25 df a0 3e b2 52 b0 3e
       0.21847619 0.33353305 0.31420246 0.34438092
000070 49 df ad 3e a8 3a bf 3e 1a 06 0c 3f 85 51 90 3e
       0.33959416 0.3734944 0.5469681 0.28187194
000080 34 a7 03 3f a9 1f d4 3e e8 b9 90 3e 86 70 5b 3e
       0.51427007 0.41430405 0.28266835 0.21429643
000090 6b 3d a8 3e 8a 1b ed 3e 5b 9f 96 3e 54 6e b8 3e
       0.32859358 0.46310073 0.29418454 0.36021674
0000a0 94 18 81 3e d2 80 aa 3e 30 3c c3 3e 5b 9d f0 3e
       0.25214064 0.33301407 0.38131857 0.46995053
0000b0 c4 d9 38 3f 2e d0 94 3e d4 05 e5 3e c2 da 88 3e
       0.72207284 0.29065078 0.4473101 0.267294
