Auxillary_Code/LCNN/project/03-asvspoof-mega/lfb-lcnn-attention-p2s/06/__pretrained/trained_network.pt (torch, 775181 bytes, 35 tensors)

m_frontend.0.lfcc_fb f4 [257, 60]
0.0 0.0 0.0 0.0 0.0 0.0 0.0 0.0
0.0 0.0 0.0 0.0 0.0 0.0 0.0 0.0
0.0 0.0 0.0 0.0 0.0 0.0 0.0 0.0
0.0 0.0 0.0 0.0 0.0 0.0 0.0 0.0
0.0 0.0 0.0 0.0 0.0 0.0 0.0 0.0
0.0 0.0 0.0 0.0 0.0 0.0 0.0 0.0
0.0 0.0 0.0 0.0 0.0 0.0 0.0 0.0
0.0 0.0 0.0 0.0 0.23828125 0.0 0.0 0.0
0.0 0.0 0.0 0.0 0.0 0.0 0.0 0.0
0.0 0.0 0.0 0.0 0.0 0.0 0.0 0.0
0.0 0.0 0.0 0.0 0.0 0.0 0.0 0.0
0.0 0.0 0.0 0.0 0.0 0.0 0.0 0.0
0.0 0.0 0.0 0.0 0.0 0.0 0.0 0.0
0.0 0.0 0.0 0.0 0.0 0.0 0.0 0.0
0.0 0.0 0.0 0.0 0.0 0.0 0.0 0.0
0.4765625 0.0 0.0 0.0 0.0 0.0 0.0 0.0
0.0 0.0 0.0 0.0 0.0 0.0 0.0 0.0
0.0 0.0 0.0 0.0 0.0 0.0 0.0 0.0
0.0 0.0 0.0 0.0 0.0 0.0 0.0 0.0
0.0 0.0 0.0 0.0 0.0 0.0 0.0 0.0
0.0 0.0 0.0 0.0 0.0 0.0 0.0 0.0
0.0 0.0 0.0 0.0 0.0 0.0 0.0 0.0
0.0 0.0 0.0 0.0 0.71484375 0.0 0.0 0.0
0.0 0.0 0.0 0.0 0.0 0.0 0.0 0.0
0.0 0.0 0.0 0.0 0.0 0.0 0.0 0.0
0.0 0.0 0.0 0.0 0.0 0.0 0.0 0.0
0.0 0.0 0.0 0.0 0.0 0.0 0.0 0.0
0.0 0.0 0.0 0.0 0.0 0.0 0.0 0.0
0.0 0.0 0.0 0.0 0.0 0.0 0.0 0.0
0.0 0.0 0.0 0.0 0.0 0.0 0.0 0.0
0.953125 0.0 0.0 0.0 0.0 0.0 0.0 0.0
0.0 0.0 0.0 0.0 0.0 0.0 0.0 0.0
00000000: 0000 0000 0000 0000 0000 0000 0000 0000
00000010: 0000 0000 0000 0000 0000 0000 0000 0000
00000020: 0000 0000 0000 0000 0000 0000 0000 0000
00000030: 0000 0000 0000 0000 0000 0000 0000 0000
00000040: 0000 0000 0000 0000 0000 0000 0000 0000
00000050: 0000 0000 0000 0000 0000 0000 0000 0000
00000060: 0000 0000 0000 0000 0000 0000 0000 0000
00000070: 0000 0000 0000 0000 0000 0000 0000 0000
00000080: 0000 0000 0000 0000 0000 0000 0000 0000
00000090: 0000 0000 0000 0000 0000 0000 0000 0000
000000a0: 0000 0000 0000 0000 0000 0000 0000 0000
000000b0: 0000 0000 0000 0000 0000 0000 0000 0000
000000c0: 0000 0000 0000 0000 0000 0000 0000 0000
000000d0: 0000 0000 0000 0000 0000 0000 0000 0000
000000e0: 0000 0000 0000 0000 0000 0000 0000 0000
000000f0: 0000 743e 0000 0000 0000 0000 0000 0000
00000100: 0000 0000 0000 0000 0000 0000 0000 0000
00000110: 0000 0000 0000 0000 0000 0000 0000 0000
00000120: 0000 0000 0000 0000 0000 0000 0000 0000
00000130: 0000 0000 0000 0000 0000 0000 0000 0000
00000140: 0000 0000 0000 0000 0000 0000 0000 0000
00000150: 0000 0000 0000 0000 0000 0000 0000 0000
00000160: 0000 0000 0000 0000 0000 0000 0000 0000
00000170: 0000 0000 0000 0000 0000 0000 0000 0000
00000180: 0000 0000 0000 0000 0000 0000 0000 0000
00000190: 0000 0000 0000 0000 0000 0000 0000 0000
000001a0: 0000 0000 0000 0000 0000 0000 0000 0000
000001b0: 0000 0000 0000 0000 0000 0000 0000 0000
000001c0: 0000 0000 0000 0000 0000 0000 0000 0000
000001d0: 0000 0000 0000 0000 0000 0000 0000 0000
000001e0: 0000 f43e 0000 0000 0000 0000 0000 0000
000001f0: 0000 0000 0000 0000 0000 0000 0000 0000
00000200: 0000 0000 0000 0000 0000 0000 0000 0000
00000210: 0000 0000 0000 0000 0000 0000 0000 0000
00000220: 0000 0000 0000 0000 0000 0000 0000 0000
00000230: 0000 0000 0000 0000 0000 0000 0000 0000
00000240: 0000 0000 0000 0000 0000 0000 0000 0000
00000250: 0000 0000 0000 0000 0000 0000 0000 0000
00000260: 0000 0000 0000 0000 0000 0000 0000 0000
00000270: 0000 0000 0000 0000 0000 0000 0000 0000
00000280: 0000 0000 0000 0000 0000 0000 0000 0000
00000290: 0000 0000 0000 0000 0000 0000 0000 0000
000002a0: 0000 0000 0000 0000 0000 0000 0000 0000
000002b0: 0000 0000 0000 0000 0000 0000 0000 0000
000002c0: 0000 0000 0000 0000 0000 0000 0000 0000
000002d0: 0000 373f 0000 0000 0000 0000 0000 0000
000002e0: 0000 0000 0000 0000 0000 0000 0000 0000
000002f0: 0000 0000 0000 0000 0000 0000 0000 0000
00000300: 0000 0000 0000 0000 0000 0000 0000 0000
00000310: 0000 0000 0000 0000 0000 0000 0000 0000
00000320: 0000 0000 0000 0000 0000 0000 0000 0000
00000330: 0000 0000 0000 0000 0000 0000 0000 0000
00000340: 0000 0000 0000 0000 0000 0000 0000 0000
00000350: 0000 0000 0000 0000 0000 0000 0000 0000
00000360: 0000 0000 0000 0000 0000 0000 0000 0000
00000370: 0000 0000 0000 0000 0000 0000 0000 0000
00000380: 0000 0000 0000 0000 0000 0000 0000 0000
00000390: 0000 0000 0000 0000 0000 0000 0000 0000
000003a0: 0000 0000 0000 0000 0000 0000 0000 0000
000003b0: 0000 0000 0000 0000 0000 0000 0000 0000
000003c0: 0000 743f 0000 0000 0000 0000 0000 0000
000003d0: 0000 0000 0000 0000 0000 0000 0000 0000
000003e0: 0000 0000 0000 0000 0000 0000 0000 0000
000003f0: 0000 0000 0000 0000 0000 0000 0000 0000

m_transform.0.0.weight f4 [64, 1, 5, 5]
0.013966103 -0.037078958 -0.18448123 -0.020998036 -0.037252672 0.13384607 -0.17339028 0.18453558
-0.087415986 0.08716217 -0.08748493 0.09883773 0.19712861 0.05164473 -0.12941273 0.15080802
0.18404774 -0.15951025 -0.100435846 -0.036016937 -0.033152316 -0.026022235 -0.13043283 0.09492025
0.17468499 0.0015022379 -0.08681262 -0.20407024 0.065673426 -0.06833481 0.006692366 0.0026839552
0.06270562 -0.11079588 -0.11696157 -0.14180396 -0.124949045 0.087063365 0.09489259 -0.04893365
0.11465135 0.039362535 0.17669697 0.04281113 0.094952546 0.117209576 -0.074483685 -0.12820649
0.10517434 0.03854643 -0.0077725262 0.029275797 0.056605138 -0.020759178 0.03231682 0.035991456
0.025888272 -0.18023853 -0.04493861 0.00067686726 0.058376387 -0.17869003 -0.075908534 0.15166612
0.027765444 0.09286875 0.16861048 0.071012 0.097367436 0.11492777 0.11736217 -0.03489663
0.1600538 -0.16838758 0.019315775 0.06871567 0.1606892 -0.10112565 -0.16052486 -0.005740175
-0.025513347 -0.189092 -0.0054337713 -0.15033312 -0.009007155 -0.061456297 0.054643665 -0.18909156
-0.05765172 -0.15914498 0.09123287 -0.15511233 -0.016194273 0.0935607 -0.06827516 -0.049443953
0.17448793 -0.13661648 -0.17407086 -0.033158623 0.10207308 0.014358988 0.029390462 -0.12991649
-0.15756504 -0.01092434 -0.14293836 0.14185488 0.1520696 0.09798162 -0.0026254265 0.15266924
0.1363705 -0.09204296 -0.097067855 0.0609863 0.06446949 0.10148883 0.007136073 -0.17579958
0.079909794 0.16219223 0.041157812 -0.074837156 -0.14802392 0.023773355 0.14282422 -0.19212134
0.087034 -0.20211995 0.097167134 -0.13813989 -0.0035883381 0.0083892625 0.019254398 -0.17617981
-0.031715192 -0.17840736 0.013760589 0.036960397 -0.064637534 0.056172688 0.06297317 0.10813619
-0.045603376 -0.009485703 -0.020128014 -0.034996495 -0.048539836 -0.085285224 0.176279 0.097012445
-0.18758196 -0.16283391 -0.08411182 0.10582665 -0.055268764 0.06257146 0.012501871 -0.0071095387
-0.078508966 0.025403555 -0.016660873 -0.05190583 -0.028260387 -0.028594276 -0.08112531 -0.037371088
-0.055700675 0.04513254 0.067018285 0.17065124 -0.09232202 0.15762836 0.090445876 0.10730904
-0.1165351 -0.174991 -0.13765441 -0.032834318 0.090145394 0.12332891 -0.12594321 0.00646332
0.061726857 0.12863651 -0.0966217 -0.06423295 0.06398336 0.099064924 -0.14038898 -0.17298944
0.015197502 -0.1622159 0.15899247 0.15043756 0.09083334 -0.11400134 -0.15595976 0.16496399
0.09990735 -0.1397661 -0.11595876 -0.116689004 0.15193228 0.09110881 -0.036311496 0.027859574
0.1922315 -0.14277403 0.033485346 0.1117726 -0.010961543 -0.09702761 0.06899696 0.121027455
0.035047837 -0.14928395 0.1033195 -0.13994579 -0.05548347 0.11322198 -0.018198686 0.02944302
0.078701146 0.20147106 0.032567166 0.17453039 -0.20772633 0.010730414 0.19616865 -0.011289691
0.05416282 -0.16724983 0.1489402 0.22106156 0.03515389 -0.06772562 -0.031855825 -0.12900123
0.12797168 0.1485419 0.14608583 -0.016957015 -0.117081106 0.08444989 -0.039099306 -0.09393649
-0.09466258 -0.19899634 -0.15859792 0.20836362 0.030694742 -0.19518888 -0.16939437 0.12126711
00000000: 15d2 643c 1be0 17bd a6e8 3cbe 1304 acbc
00000010: 4296 18bd f20e 093e 398d 31be e5f6 3c3e
00000020: 2707 b3bd 1482 b23d 4d2b b3bd 706b ca3d
00000030: 15dc 493e 6d89 533d c584 04be 6b6d 1a3e
00000040: 0377 3c3e a856 23be 4fb1 cdbd 7f86 13bd
00000050: b9ca 07bd 952c d5bc 2f90 05be 8c65 c23d
00000060: 9fe0 323e bde6 c43a d1ca b1bd caf7 50be
00000070: ca7f 863d 1ff3 8bbd a34b db3b 4ce5 2f3b
00000080: ce6b 803d f3e8 e2bd 8c89 efbd 0f35 11be
00000090: 49e5 ffbd 474e b23d 0c57 c23d a76e 48bd
000000a0: 54ce ea3d 9c3a 213d 0df0 343e b95a 2f3d
000000b0: 7b76 c23d 930b f03d e78a 98bd 9048 03be
000000c0: a565 d73d dde2 1d3d adb0 febb ccd3 ef3c
000000d0: cada 673d 270f aabc a45e 043d c76b 133d
000000e0: a413 d43c 7390 38be 8c11 38bd cb6f 313a
000000f0: 141c 6f3d 85fa 36be ef75 9bbd 5d4e 1b3e
00000100: 5b74 e33c f931 be3d 3aa8 2c3e bd6e 913d
00000110: 9468 c73d 405f eb3d 945b f03d c5ef 0ebd
00000120: 25e5 233e cb6d 2cbe 1e3c 9e3c cdba 8c3d
00000130: b68b 243e f71a cfbd a160 24be 1418 bcbb
00000140: 5e01 d1bc 55a1 41be c70d b2bb edf0 19be
00000150: bf92 13bc 99b9 7bbd 09d2 5f3d 38a1 41be
00000160: 3624 6cbd e7f6 22be 4dd8 ba3d c4d5 1ebe
00000170: daa9 84bc c19c bf3d d9d3 8bbd be85 4abd
00000180: f7ac 323e 31e5 0bbe a23f 32be 56d1 07bd
00000190: b10b d13d f641 6b3c 44c4 f03c d408 05be
000001a0: bb58 21be 01fc 32bc 6f5e 12be 6842 113e
000001b0: 22b8 1b3e 96aa c83d 590f 2cbb 5355 1c3e
000001c0: b5a4 0b3e 0581 bcbd 83cb c6bd c5cc 793d
000001d0: 9408 843d 60d9 cf3d b8d5 e93b ce04 34be
000001e0: bfa7 a33d b815 263e 1895 283d 3944 99bd
000001f0: 9593 17be 57c0 c23c 8340 123e 75bb 44be
00000200: e23e b23d 88f8 4ebe 90ff c63d 8b74 0dbe
00000210: 532a 6bbb 1e73 093c 66bb 9d3c 7b68 34be
00000220: cae7 01bd 6bb0 36be 1874 613c c963 173d
00000230: af60 84bd 5515 663d 14f8 803d 8276 dd3d
00000240: 9bca 3abd ec69 1bbc 81e3 a4bc 7c58 0fbd
00000250: b5d1 46bd 05aa aebd 7b82 343e 76ae c63d
00000260: 7c15 40be efbd 26be d142 acbd a5bb d83d
00000270: 8061 62bd 7725 803d a6d4 4c3c 22f7 e8bb
00000280: 4fc9 a0bd 1e1b d03c 627c 88bc 359b 54bd
00000290: 5482 e7bc 8b3e eabc 0725 a6bd 6d12 19bd
000002a0: 6426 64bd e6dc 383d e240 893d 33bf 2e3e
000002b0: 5413 bdbd 5469 213e b03b b93d d8c4 db3d
000002c0: f4a9 eebd d730 33be 47f5 0cbe 477d 06bd
000002d0: 269e b83d de93 fc3d 42f7 00be 42ca d33b
000002e0: 4dd5 7c3d 4ab9 033e 99e1 c5bd 918c 83bd
000002f0: b509 833d 8de2 ca3d 21c2 0fbe 2524 31be
00000300: f2fe 783c ed1b 26be ecce 223e 4e0c 1a3e
00000310: d506 ba3d 8979 e9bd eab3 1fbe 52ec 283e
00000320: 3a9c cc3d d81e 0fbe c97b edbd a5fa eebd
00000330: 2394 1b3e 4197 ba3d 5dbb 14bd c339 e43c
00000340: 56d8 443e 5b33 12be ee27 093d 08e9 e43d
00000350: 0b98 33bc 69b6 c6bd 474e 8d3d 3edd f73d
00000360: 528e 0f3d e4dd 18be 2d99 d33d f34d 0fbe
00000370: a342 63bd ede0 e73d 6915 95bc 7d32 f13c
00000380: 112e a13d 6e4e 4e3e 2665 053d 18b8 323e
00000390: 36b6 54be 9ece 2f3c 6fe0 483e 65f8 38bc
000003a0: d5d9 5d3d 8a43 2bbe c883 183e f65d 623e
000003b0: 86fd 0f3d bbb3 8abd 417b 02bd e618 04be
000003c0: 020b 033e 5e1b 183e 8697 153e 70e9 8abc
000003d0: 38c8 efbd 10f4 ac3d 9826 20bd c661 c0bd
000003e0: 74de c1bd b2c5 4bbe 7e67 22be 465d 553e
000003f0: 8a73 fb3c 98df 47be b875 2dbe e45a f83d

m_transform.0.0.bias f4 [64]
0.11117438 -0.19669315 0.029084383 -0.15105009 -0.116995335 -0.023320004 -0.13555104 -0.00726046
0.15878852 0.069748156 -0.030223276 -0.064462416 -0.046578042 -0.0053162593 -0.13733941 -0.07844509
0.07982343 -0.087360576 0.08299505 0.120151475 -0.019894995 -0.11934212 -0.019097282 -0.11460482
-0.09408835 -0.171904 0.0222939 -0.14926358 -0.13753365 0.20483309 -0.05269191 -0.20089656
-0.19092478 -0.099725395 0.16810262 -0.1708187 -0.02893073 -0.02353229 -0.021036692 0.026160887
-0.057894845 0.002062764 -0.14542308 0.11237053 0.16999988 -0.19053349 0.16926514 0.10751034
-0.17109907 0.11416208 -0.15312594 0.030334434 0.12346398 -0.095144145 -0.15804331 -0.05070196
-0.07489223 -0.10196317 -0.093361355 0.038401876 0.09650391 0.058335453 -0.1704633 -0.024959167
00000000: 65af e33d ee69 49be 5f42 ee3c e0ac 1abe
00000010: 409b efbd 9809 bfbc e4cd 0abe 27e9 edbb
00000020: 7599 223e 1fd8 8e3d ce96 f7bc df04 84bd
00000030: 9ec8 3ebd 0434 aebb b4a2 0cbe d2a7 a0bd
00000040: 777a a33d 1aea b2bd 4ff9 a93d fa11 f63d
00000050: d4fa a2bc a469 f4bd e771 9cbc efb5 eabd
00000060: 65b1 c0bd 9a07 30be b2a1 b63c 8dd8 18be
00000070: 9fd5 0cbe c4bf 513e 79d3 57bd d4b7 4dbe
00000080: c981 43be d43c ccbd 1823 2c3e 19eb 2ebe
00000090: 2300 edbc cac6 c0bc 2455 acbc 5b4f d63c
000000a0: 2523 6dbd 702f 073b cae9 14be 8522 e63d
000000b0: 7314 2e3e 361b 43be d753 2d3e 622e dc3d
000000c0: 9834 2fbe cfcd e93d 0ccd 1cbe eb7f f83c
000000d0: afda fc3d efda c2bd 1bd6 21be dcac 4fbd
000000e0: 1961 99bd 11d2 d0bd 3d34 bfbd 494b 1d3d
000000f0: d8a3 c53d 28f1 6e3d ee8d 2ebe 2b77 ccbc

m_transform.0.3.weight f4 [64, 32, 1, 1]
0.15224764 -0.07451492 0.06155095 0.11310026 -0.14007163 0.11117998 0.06489349 -0.039699696
-0.17664 -0.02331384 -0.059425786 -0.13287228 0.14751336 0.12826091 -0.0154019315 0.008783983
-0.16943523 -0.013707237 0.15806177 -0.05067918 0.141085 0.009052385 0.15762186 -0.17550743
0.17068695 -0.08623133 -0.049266744 -0.08022213 0.058004674 0.0060921325 -0.020584524 0.09325515
-0.11898313 -0.054639265 0.13937004 0.12142455 0.10695047 0.053062208 0.0398625 0.13317274
-0.11330337 -0.13971885 0.025732307 -0.04330451 -0.15517814 -0.07432797 0.06283418 0.08909521
-0.16992132 -0.15936774 -0.06759633 -0.13387719 -0.18266693 0.15341297 -0.13611905 0.033755206
0.064057045 0.037079945 -0.021967638 -0.15588449 0.0037325125 -0.16850021 0.16214903 0.030337568
-0.122447595 0.1643144 -0.029985955 0.0931695 0.104715 0.13668679 0.15702975 -0.14321308
0.09412415 -0.13026518 0.06423873 0.04254539 0.10738635 -0.12197858 0.124394976 -0.13728274
0.14643551 0.13652356 -0.16368413 -0.11503373 -0.18009768 0.07172894 0.07548292 -0.04375362
-0.115739875 0.020625426 0.006524391 0.010928253 -0.08454775 -0.13411212 -0.08428261 -0.08662968
0.09793541 0.1365719 0.09612205 -0.022787396 0.063799575 0.020561438 -0.1544731 -0.04787541
-0.11391136 0.024743715 0.1566515 0.13019858 0.109180376 -0.117264085 -0.027257498 0.0396343
0.1058345 0.14397475 0.01039563 0.15028402 -0.078633904 -0.08440296 -0.012491756 -0.12373771
-0.024025261 -0.16312395 0.07729491 0.08045652 0.05844701 0.011247864 -0.065871745 -0.036877494
-0.060651224 0.087110795 0.00968244 0.04279328 -0.06595321 -0.09547351 -0.0052465736 0.13745901
-0.14871308 0.12175091 -0.1369667 -0.11591507 -0.00837033 -0.09096516 0.09824127 -0.19412592
0.017540528 0.14983831 -0.009879634 -0.14072554 -0.093371175 0.068312205 -0.06850155 -0.04186444
0.06568302 0.08064595 0.05465667 0.09861416 0.1471558 0.0658392 -0.06243132 0.100624025
0.014049052 -0.10847903 0.06752121 -0.17153528 -0.12788346 0.008797556 -0.05646496 -0.022221388
0.026876612 -0.14148258 0.07869172 0.1354837 -0.14145833 -0.0036711225 -0.0032698556 0.019476065
0.03078066 0.10875255 0.099135146 -0.13721724 -0.1612734 -0.12514547 -0.010087131 0.11128925
0.15154739 -0.102880046 0.16896978 0.063490964 -0.11682905 0.085434556 0.03156232 -0.0199455
-0.12417862 0.06561855 -0.101517715 0.12717588 0.059864596 0.0034640299 -0.10846035 -0.15602396
-0.11217747 0.11828013 0.00036249153 0.10040963 -0.01648612 0.014666262 -0.054177493 -0.123631634
-0.0102521945 0.021823099 0.06797984 0.08361704 0.1677752 0.1270818 0.004143414 0.009955255
-0.101906046 0.16308974 -0.044068016 0.030828035 0.15454543 0.05817296 -0.0053031906 0.06882911
-0.01498183 0.09486127 0.16627036 -0.11312359 -0.04815644 -0.08176677 0.16873808 0.17971003
0.09607398 -0.1461453 0.122856006 -0.12222293 -0.03202413 -0.13698296 -0.14503486 0.1168896
-0.037332848 -0.025130743 -0.061555773 0.18708378 -0.07371195 -0.0126198875 0.008819561 -0.026650691
0.068367 0.17135927 0.0062697683 -0.123965256 -0.046115614 -0.034201294 -0.059904825 0.17907469
00000000: cee6 1b3e 479b 98bd d91c 7c3d 1ca1 e73d
00000010: f06e 0fbe 54b2 e33d e1e6 843d 269c 22bd
00000020: 1ee1 34be abfc bebc 7468 73bd ac0f 08be
00000030: be0d 173e d456 033e 6258 7cbc b2ea 0f3c
00000040: 6e80 2dbe 5294 60bc f2da 213e f994 4fbd
00000050: 9678 103e 7450 143c a067 213e 38b8 33be
00000060: 8fc8 2e3e 0d9a b0bd edcb 49bd 804b a4bd
00000070: 4f96 6d3d 83a0 c73b e0a0 a8bc 8efc be3d
00000080: 6dad f3bd 6ccd 5fbd 05b7 0e3e 6fad f83d
00000090: d908 db3d c257 593d dc46 233d 6f5e 083e
000000a0: 990b e8bd 7512 0fbe 8fcc d23c 1260 31bd
000000b0: 05e7 1ebe 4339 98bd 35af 803d 8d77 b63d
000000c0: dbff 2dbe 4c31 23be f26f 8abd 1a17 09be
000000d0: 0a0d 3bbe 4a18 1d3e cb62 0bbe e642 0a3d
000000e0: 5730 833d 24e1 173d 7af5 b3bc 2fa0 1fbe
000000f0: 2b9d 743b 528b 2cbe 650a 263e 7e86 f83c
00000100: cec5 fabd 0942 283e 1ba5 f5bc a7cf be3d
00000110: d174 d63d 9ff7 0b3e 68cc 203e 73a6 12be
00000120: 2ac4 c03d 3c64 05be 988f 833d 1344 2e3d
00000130: 60ed db3d e8cf f9bd cbc2 fe3d d993 0cbe
00000140: 31f3 153e d5cc 0b3e d09c 27be ce96 ebbd
00000150: 876b 38be 9fe6 923d ca96 9a3d ff36 33bd
00000160: 0709 edbd a7f6 a83c 8fca d53b 6a0c 333c
00000170: 5f27 adbd b054 09be 5c9c acbd e76a b1bd
00000180: 5c92 c83d 81d9 0b3e a3db c43d a2ac babc
00000190: 5aa9 823d 7670 a83c 322e 1ebe 0219 44bd
000001a0: 5c4a e9bd 55b3 ca3c 4069 203e c752 053e
000001b0: f699 df3d 2728 f0bd 1e4b dfbc 9357 223d
000001c0: c2bf d83d 1e6e 133e 6f52 2a3c 0ee4 193e
000001d0: d00a a1bd 76db acbd 39aa 4cbc 326a fdbd
000001e0: a0d0 c4bc f709 27be cb4c 9e3d 63c6 a43d
000001f0: 2266 6f3d f648 383c c4e7 86bd db0c 17bd
00000200: 6b6d 78bd 2567 b23d 19a3 1e3c 0248 2f3d
00000210: 7a12 87bd 9e87 c3bd 73eb abbb 0ec2 0c3e
00000220: 3e48 18be 8b58 f93d 0041 0cbe e164 edbd
00000230: b523 09bc f14b babd b832 c93d f2c8 46be
00000240: 27b1 8f3c 376f 193e 30de 21bc 5b1a 10be
00000250: 6339 bfbd 45e7 8b3d 8a4a 8cbd 0c7a 2bbd
00000260: d284 863d b429 a53d acdf 5f3d 39f6 c93d
00000270: 03b0 163e b4d6 863d fcb7 7fbd f813 ce3d
00000280: ff2d 663c 412a debd 8f48 8a3d f2a6 2fbe
00000290: e2f3 02be a023 103c cd47 67bd a109 b6bc
000002a0: 572c dc3c cfe0 10be 2029 a13d 3dbc 0a3e
000002b0: 74da 10be 3797 70bb 134b 56bb 458c 9f3c
000002c0: b927 fc3c a8b9 de3d 5e07 cb3d ad82 0cbe
000002d0: db24 25be 2226 00be 7e44 25bc 9eeb e33d
000002e0: 3d2f 1b3e c6b2 d2bd 6a06 2d3e 8d07 823d
000002f0: 1244 efbd 50f8 ae3d 7e47 013d bf64 a3bc
00000300: 5c51 febd 0563 863d 85e8 cfbd 653a 023e
00000310: 9434 753d c704 633b 7620 debd bfc4 1fbe
00000320: 4dbd e5bd da3c f23d ca0c be39 90a3 cd3d
00000330: e60d 87bc c34a 703c 38e9 5dbd 9532 fdbd
00000340: d2f8 27bc 5bc6 b23c 0439 8b3d 693f ab3d
00000350: 43cd 2b3e bb21 023e 7ac5 873b 5e1b 233c
00000360: 1eb4 d0bd ff00 273e aa80 34bd 138b fc3c
00000370: 2841 1e3e c546 6e3d 63c6 adbb 47f6 8c3d
00000380: 5976 75bc a046 c23d c742 2a3e 57ad e7bd
00000390: b03f 45bd 5675 a7bd adc9 2c3e e805 383e
000003a0: 6fc2 c43d 1da7 15be ee9b fb3d 0450 fabd
000003b0: bc2b 03bd 4345 0cbe 0584 14be d163 ef3d
000003c0: 54ea 18bd fdde cdbc e821 7cbd e492 3f3e
000003d0: 4af6 96bd a5c3 4ebc ec7f 103c 8d52 dabc
000003e0: ff03 8c3d ce78 2f3e a172 cd3b 7fe1 fdbd
000003f0: bae3 3cbd a816 0cbd c35e 75bd 5b5f 373e

m_transform.0.3.bias f4 [64]
-0.05161375 -0.17941304 -0.11566469 -0.11789974 -0.00751687 -0.010966368 -0.072883315 -0.16330989
0.026998825 0.08722731 -0.10706325 0.08292225 0.06747925 0.018237926 -0.044032235 0.0263619
0.13596945 -0.1398106 0.1682825 -0.008588042 0.12704912 -0.15453449 0.14998507 -0.008667975
0.17585064 0.14633699 -0.119764216 0.0035230713 0.17286098 0.10451619 0.11018417 0.17533565
0.12216465 -0.0021980987 -0.104058735 -0.015596564 -0.15965389 0.13765165 0.02198104 -0.025558762
0.09707396 0.15498821 -0.04146596 0.025357319 0.17719395 -0.0762658 0.030938508 0.060272373
0.081201315 -0.06501687 0.033868734 0.008901398 0.0046327095 -0.16674457 0.013426589 0.06705684
-0.122120984 -0.11358952 -0.030704547 -0.091900796 -0.020858454 -0.042220682 0.12668309 -0.13924763
00000000: f168 53bd 0db8 37be 9ce1 ecbd 6b75 f1bd
00000010: 1350 f6bb 48ac 33bc d943 95bd b53a 27be
00000020: a42c dd3c 3ba4 b23d fa43 dbbd 24d3 a93d
00000030: 9032 8a3d b467 953c 255b 34bd e9f4 d73c
00000040: 933b 0b3e 832a 0fbe 3f52 2c3e dcb4 0cbc
00000050: 2a19 023e 4a3e 1ebe b095 193e 1f04 0ebc
00000060: 3112 343e 5dd9 153e f146 f5bd 54e3 663b
00000070: 7802 313e 960c d63d 3da8 e13d 308b 333e
00000080: 7631 fa3d fa0d 10bb bf1c d5bd bb88 7fbc
00000090: 4f7c 23be 8ef4 0c3e 9511 b43c 9c60 d1bc
000000a0: b6ce c63d 3bb5 1e3e 36d8 29bd 27ba cf3c
000000b0: 5572 353e 3e31 9cbd c172 fd3c 2ae0 763d
000000c0: e04c a63d 9127 85bd f1b9 0a3d 2bd7 113c
000000d0: fccd 973b 17bf 2abe 32fb 5b3c 1955 893d
000000e0: 911a fabd 9fa1 e8bd 1a88 fbbc 7c36 bcbd
000000f0: 59df aabc 98ef 2cbd 36b9 013e ee96 0ebe

m_transform.0.5.running_mean f4 [32]
1.4257652 -0.05807961 0.46695477 1.045991 0.3581505 0.060643554 -0.28497338 0.095619775
0.18641368 1.6479335 -0.08756994 0.1016561 0.6352603 0.7278627 0.36809808 0.70171505
0.5022599 -1.3358499 1.5248227 2.1792245 0.002451514 -0.36020452 1.1647187 0.021867173
0.19961153 0.008946134 0.070656374 0.20894608 1.9734404 0.5975699 0.10245431 0.7552799
00000000: 797f b63f e3e4 6dbd b214 ef3e 08e3 853f
00000010: 815f b73e 6065 783d 08e8 91be 4dd4 c33d
00000020: 3ae3 3e3e 7cef d23f de57 b3bd 1331 d03d
00000030: 6ba0 223f 3655 3a3f 5a77 bc3e 99a3 333f
00000040: 1b94 003f 21fd aabf 642d c33f 6a78 0b40
00000050: 94a9 203b ba6c b8be 8115 953f c922 b33c
00000060: f766 4c3e ce92 123c 4ab4 903d f6f5 553e
00000070: b299 fc3f 57fa 183f 91d3 d13d 065a 413f

m_transform.0.5.running_var f4 [32]
0.6332309 0.01355254 0.22694229 0.15039313 0.13361959 0.032246016 0.0928003 0.05298743
0.06397544 0.61530256 0.06230709 0.06569737 0.10028587 0.21227838 0.04233972 0.11342733
0.21896827 0.5245683 0.64526665 1.3216175 0.015696963 0.07342323 0.42674994 0.038039997
0.034084287 0.02691618 0.03864372 0.03158421 1.0640782 0.061246976 0.01722434 0.07873066
00000000: 6c1b 223f 790b 5e3c 8f63 683e a800 1a3e
00000010: 93d3 083e 6614 043d 150e be3d 5909 593d
00000020: 8e05 833d 7884 1d3f b835 7f3d 588c 863d
00000030: ae62 cd3d 815f 593e 6a6c 2d3d 974c e83d
00000040: 3839 603e 1c4a 063f 3230 253f c32a a93f
00000050: eb96 803c eb5e 963d f87e da3e d4cf 1b3d
00000060: f79b 0b3d 527f dc3c e148 1e3d 725e 013d
00000070: b733 883f 1cde 7a3d 0f1a 8d3c 8a3d a13d

m_transform.0.6.weight f4 [96, 32, 3, 3]
-0.05353458 -0.0006082876 -0.039812513 -0.04314435 0.01156106 0.05364463 0.046658136 -0.001845694
0.010329657 0.008801838 0.0675172 0.03260588 0.027737511 0.014904499 -0.037323914 -0.008875904
-0.024585618 0.05754259 -0.037781965 -0.04276848 -0.037417863 -0.02081373 -0.04188267 -0.0018898174
-0.036049597 0.017004063 0.038716424 0.0556485 -0.04943054 -0.043444842 -0.024761805 -0.007583146
-0.035962787 -0.02166505 -0.030565292 0.052299578 0.04869317 -0.008686806 -0.0035965308 -0.02619056
-0.032512408 -0.036039896 -0.06447401 0.046991646 0.059138697 0.026066115 0.0028936951 0.052267816
-0.012055532 0.022221716 0.056557644 -0.05895755 0.022532161 0.051922824 0.0003774091 -0.062464517
-0.0026992974 -0.05204305 -0.018428987 -0.049866088 0.028985387 -0.062250398 -0.068731986 -0.041463617
0.015348931 -0.016764456 -0.01868251 0.009259448 -0.017067887 -0.0015029424 0.001942298 0.020419234
-0.05025091 0.053579666 -0.039340276 -0.021377444 0.053584367 -0.028542446 0.041511115 -0.015436794
0.06325043 -0.03643912 0.013937466 -0.048929997 -0.015288231 -0.019153295 0.00047135726 -0.012024556
0.0012746996 0.055687863 -0.030719183 -0.037523784 -0.0421334 -0.038504876 0.008956932 -0.053640034
-0.06783342 0.01734999 -0.05782362 -0.017132077 0.008002899 -0.008018346 0.044992566 0.047584683
0.0078678 -0.0017836661 0.08587838 -0.041510332 0.055135682 -0.05461757 0.0011502559 0.048753034
0.046195637 -0.03572015 -0.03662496 0.0059412494 0.016617564 2.5054998e-05 0.051374055 0.06377385
-0.04910574 -0.029013215 -0.019128382 0.032991435 -0.008534986 0.014297218 0.030769896 -0.031134952
0.0047051013 -0.058705825 -0.0025232034 -0.034491036 -0.04851504 -0.008927726 0.036307212 0.012096895
-0.014177351 -0.027503176 -0.0363605 0.006465074 -0.038586643 -0.06197561 -0.030293673 -0.033473257
0.04250275 0.013585375 -0.01811884 0.047514617 -0.026385525 -0.0019032614 0.026131125 0.00027394624
-0.052388567 -0.024029076 -0.03360342 -0.048270047 -0.019255595 -0.0321201 -0.06178881 -0.05541612
-0.006896283 0.008477632 0.05449337 0.026282663 0.053957142 -0.03934022 -0.05419166 -0.008764973
-0.009560409 0.048671618 0.049579456 -0.03443294 0.049164433 0.011441366 -0.029315395 0.041634787
0.06552911 -0.030933877 -0.0066935364 -0.018165655 0.02313021 -0.016030274 0.02322673 0.057381153
-0.012352404 0.008891847 -0.0300863 0.023522109 0.0013929252 -0.014317913 0.042098682 0.03190738
-0.038317684 0.05851618 0.018125823 -0.034723748 0.026567554 -0.03715932 -0.004559738 -0.029847777
0.030374736 -0.0069556604 -0.04904532 0.024317693 0.027722837 0.007636755 0.01266568 -0.052421782
-0.042514954 -0.08262653 0.010220512 -0.0048868377 -0.086649954 0.032841403 -0.033451542 0.022834677
-0.048019793 -0.052934483 -0.01462656 -0.045879103 0.007845435 -0.06476075 -0.04669231 -0.039107516
-0.014788751 0.026900472 -0.020993182 -0.04777067 0.023306934 0.014495501 0.018887158 0.058411676
0.030339958 0.04775888 -0.06658402 -0.061113037 0.0058835624 -0.03513862 0.034554455 0.031378563
-0.035015054 0.04837506 -0.010156941 0.024905462 0.008568673 0.025022728 0.03128005 0.04953161
-0.044844236 0.024942022 0.033000935 0.032348223 -0.017321687 0.03967862 -0.041785683 0.039766252
00000000: 1347 5bbd 7d75 1fba 7212 23bd 21b8 30bd
00000010: 9a6a 3d3c 79ba 5b3d 9a1c 3f3d 37eb f1ba
00000020: b93d 293c 9635 103c 7546 8a3d be8d 053d
00000030: c739 e33c 0032 743c f6e0 18bd 3d6c 11bc
00000040: c767 c9bc c7b1 6b3d 43c1 1abd 002e 2fbd
00000050: 7943 19bd 8e81 aabc 2a8d 2bbd c0b3 f7ba
00000060: bea8 13bd 1b4c 8b3c 1d95 1e3d aeef 633d
00000070: ae77 4abd 38f3 31bd 45d9 cabc 0a7c f8bb
00000080: b74d 13bd e77a b1bc 1064 fabc 1538 563d
00000090: 7d72 473d 1b53 0ebc c6b3 6bbb 968d d6bc
000000a0: bb2b 05bd 929e 13bd f30a 84bd 507a 403d
000000b0: 6b3b 723d 9b88 d53c 26a4 3d3b c716 563d
000000c0: 9184 45bc 510a b63c fda8 673d 797d 71bd
000000d0: 5e95 b83c 07ad 543d fede c539 cbda 7fbd
000000e0: b2e6 30bb 182b 55bd 63f8 96bc 6240 4cbd
000000f0: c372 ed3c 46fa 7ebd 5bc3 8cbd c1d5 29bd
00000100: 157a 7b3c 9d55 89bc 100c 99bc f1b4 173c
00000110: f4d1 8bbc 61fe c4ba b594 fe3a 3d46 a73c
00000120: e6d3 4dbd 5a76 5b3d 4523 21bd c01f afbc
00000130: 487b 5b3d d9d1 e9bc 8f07 2a3d 9bea 7cbc
00000140: 7189 813d 3041 15bd f859 643c d26a 48bd
00000150: 7d7b 7abc 5fe7 9cbc 8020 f739 a502 45bc
00000160: d213 a73a f518 643d cca6 fbbc 8ab2 19bd
00000170: 1294 2cbd 4ab7 1dbd 19c0 123c a7b5 5bbd
00000180: 40ec 8abd 9121 8e3c 76d8 6cbd 9258 8cbc
00000190: 971e 033c 615f 03bc 204a 383d 28e8 423d
000001a0: f2e7 003c e7c9 e9ba 01e1 af3d bd06 2abd
000001b0: f4d5 613d acb6 5fbd 2fc4 963a 43b1 473d
000001c0: a337 3d3d 4b4f 12bd 0e04 16bd d0ae c23b
000001d0: 8f21 883c 332d d237 9a6d 523d dd9b 823d
000001e0: 1a23 49bd 1fad edbc 20b3 9cbc 0722 073d
000001f0: 53d6 0bbc e13e 6a3c 2611 fc3c ba0e ffbc
00000200: 402d 9a3b 8575 70bd 545c 25bb 7946 0dbd
00000210: b5b7 46bd 9945 12bc dfb6 143d 0e32 463c
00000220: 1f48 68bc 574e e1bc bfee 14bd f9d8 d33b
00000230: 070d 1ebd 23da 7dbd 702a f8bc 411b 09bd
00000240: 5d17 2e3d 3195 5e3c f66d 94bc b09e 423d
00000250: 7526 d8bc db76 f9ba f110 d63c 71a0 8f39
00000260: 6595 56bd a0d8 c4bc bda3 09bd d0b6 45bd
00000270: e9bd 9dbc 5e90 03bd 4316 7dbd 03fc 62bd
00000280: 37fa e1bb c4e5 0a3c 7134 5f3d bd4e d73c
00000290: 2a02 5d3d 3623 21bd 13f8 5dbd f69a 0fbc
000002a0: 43a3 1cbc e45b 473d d413 4b3d 8e09 0dbd
000002b0: a560 493d 9174 3b3c d726 f0bc 3d89 2a3d
000002c0: 2034 863d 0b69 fdbc 7455 dbbb 24d0 94bc
000002d0: 917b bd3c ec51 83bc fc45 be3c 8008 6b3d
000002e0: bd61 4abc 1caf 113c 8b77 f6bc 70b1 c03c
000002f0: d092 b63a ae95 6abc ab6f 2c3d 50b1 023d
00000300: 01f3 1cbd a9ae 6f3d 9b7c 943c 7d3a 0ebd
00000310: 33a4 d93c 5f34 18bd db69 95bb 5383 f4bc
00000320: 70d4 f83c 4fec e3bb bfe3 48bd e635 c73c
00000330: 011b e33c be3d fa3b b683 4f3c 39b8 56bd
00000340: 2924 2ebd 1938 a9bd ef73 273c c421 a0bb
00000350: 8875 b1bd b584 063d 7c04 09bd ca0f bb3c
00000360: 67b0 44bd d4d1 58bd 3da4 6fbc baeb 3bbd
00000370: 248a 003c 49a1 84bd 7040 3fbd 342f 20bd
00000380: 844c 72bc 615e dc3c e5f9 abbc 2eab 43bd
00000390: 2fee be3c 8a7e 6d3c 3eb9 9a3c 1541 6f3d
000003a0: 818b f83c d19e 433d 345d 88bd aa51 7abd
000003b0: e6ca c03b 83ed 0fbd f988 0d3d cf86 003d
000003c0: f26b 0fbd ed24 463d 4c69 26bc 8a06 cc3c
000003d0: 9f63 0c3c 77fc cc3c 821f 003d a8e1 4a3d
000003e0: 97ae 37bd 3653 cc3c fd2b 073d 927f 043d
000003f0: 36e6 8dbc 0c86 223d 7727 2bbd f0e1 223d

m_transform.0.6.bias f4 [96]
0.055202913 0.033036213 -0.04360989 -0.037897162 0.026391858 0.040296257 0.04110821 0.016330717
-0.016350426 -0.03594069 -0.054269757 -0.028808163 -0.014935801 -0.036271375 -0.030910924 0.03299209
-0.07348832 0.033187553 -0.067067586 0.018388556 0.036572635 -0.016424337 -0.06270165 -0.0012429036
-0.03290518 0.03176438 0.04369582 -0.054452203 0.04922563 0.015408311 -0.05391418 -0.05302951
-0.04265426 -0.02607561 0.005036749 -0.046087366 -0.024177331 -0.07366646 -0.015998835 0.02937849
-0.05274444 0.045572493 0.049769036 0.018177595 -0.015742984 -0.04993348 -0.0045564435 0.037737787
0.023930302 -0.054532424 -0.04344545 -0.05266925 -0.03689247 -0.032215707 -0.05337476 -0.060316723
-0.016946353 0.009932768 -0.03747073 -0.028157458 0.055244096 0.00017534445 0.0545936 -0.012943609
0.025038796 -0.037451427 -0.043754928 -0.01937166 0.03135789 -0.045174733 0.017659275 -0.04189196
-0.016703399 -0.06392627 -0.039357357 0.01474548 -0.05446864 -0.045481022 0.011215554 0.01881017
-0.0262574 0.038556732 -0.077587515 -0.036045045 -0.020268735 -0.026411932 -0.043489676 -0.004443274
0.012370428 -0.025443438 -0.044738654 0.0024821137 -0.062375925 -0.024866678 -0.045178875 0.062120106
00000000: 731c 623d fb50 073d 49a0 32bd 0e3a 1bbd
00000010: bd33 d83c b00d 253d 1561 283d ffc7 853c
00000020: 54f1 85bc 8c36 13bd f749 5ebd 19ff ebbc
00000030: 4ab5 74bc 4b91 14bd e838 fdbc b722 073d
00000040: 0b81 96bd acef 073d bb5a 89bd 99a3 963c
00000050: 30cd 153d 558c 86bc b969 80bd ede8 a2ba
00000060: 95c7 06bd 5e1b 023d 63fa 323d 4609 5fbd
00000070: d0a0 493d 2473 7c3c 1dd5 5cbd 7935 59bd
00000080: 3cb6 2ebd 859c d5bc 500b a53b 1bc6 3cbd
00000090: 8a0f c6bc 71de 96bd fd0f 83bc 29ab f03c
000000a0: 8e0a 58bd 39aa 3a3d 9eda 4b3d 2ee9 943c
000000b0: 6ef7 80bc 0c87 4cbd 384e 95bb f092 1a3d
000000c0: 7b09 c43c 645d 5fbd dbf3 31bd b6bb 57bd
000000d0: 8f1c 17bd 9ef4 03bd 7e9f 5abd ab0e 77bd
000000e0: 14d3 8abc 0cbd 223c e87a 19bd 78aa e6bc
000000f0: a247 623d abdc 3739 8a9d 5f3d 6e11 54bc
00000100: 291e cd3c ab66 19bd 5e38 33bd 51b1 9ebc
00000110: 2271 003d 2409 39bd 2faa 903c e796 2bbd
00000120: 91d5 88bc c7eb 82bd 2e35 21bd 0797 713c
00000130: 821a 5fbd 4f4a 3abd 71c1 373c c917 9a3c
00000140: c219 d7bc aaed 1d3d 34e6 9ebd f8a3 13bd
00000150: 9e0a a6bc d65d d8bc 3b22 32bd e298 91bb
00000160: 56ad 4a3c c26e d0bc e13f 37bd f5aa 223b
00000170: e67d 7fbd 34b5 cbbc 7c0d 39bd a771 7e3d

m_transform.0.9.running_mean f4 [48]
0.69638443 0.811273 0.71430224 0.7949367 1.2475057 0.96428496 0.63592464 0.84370524
0.82535505 0.7826494 0.8926662 0.77020913 1.1093241 0.7176515 0.979629 0.6478951
1.017186 1.0423064 0.93524843 0.8444739 1.1140113 0.9756015 1.1498227 1.0410053
0.7672439 0.4029863 0.8922992 0.47521612 1.1218579 1.323537 0.97368366 1.4833665
0.6626208 1.4522668 0.6838595 0.92449594 0.9093389 1.0517592 0.71083486 0.72303486
0.57474464 0.8626038 0.7500781 0.83005303 1.0309217 0.7787789 0.7451524 0.66856694
00000000: 4046 323f 96af 4f3f 83dc 363f f980 4b3f
00000010: 44ae 9f3f 61db 763f f5cb 223f 11fd 573f
00000020: 784a 533f b65b 483f c685 643f 6d2c 453f
00000030: 55fe 8d3f 02b8 373f f7c8 7a3f 74dc 253f
00000040: 2733 823f 4c6a 853f 716c 6f3f 712f 583f
00000050: ec97 8e3f 05c1 793f 642d 933f a93f 853f
00000060: 196a 443f 3854 ce3e b86d 643f 874f f33e
00000070: 0a99 8f3f a969 a93f 5543 793f f4de bd3f
00000080: 84a1 293f e1e3 b93f 6b11 2f3f c4ab 6c3f
00000090: 6fca 683f 0ca0 863f 46f9 353f d018 393f
000000a0: 7722 133f 9ad3 5c3f 1e05 403f 5b7e 543f
000000b0: 3ef5 833f 0e5e 473f 4fc2 3e3f 3427 2b3f

m_transform.0.9.running_var f4 [48]
0.26805052 0.24762394 1.765804 0.51467055 0.5081667 0.25081363 0.6506211 0.39559487
0.46401143 0.8050395 0.4802809 0.33945513 0.32433164 0.7814716 0.38736606 0.3840636
0.33746153 0.8289502 1.0097512 0.17642127 1.473924 0.39969257 0.4356145 0.41210845
0.25434417 0.35366637 0.54330415 0.8833505 0.62719405 1.1402993 0.39624724 0.6855135
0.6656322 0.8297451 0.8579728 0.34275255 0.37623915 1.336291 0.5546832 1.0170339
1.1797935 0.7114559 0.41430163 0.5069674 0.4165727 0.35203174 0.48730153 0.7060006
00000000: eb3d 893e 2191 7d3e de05 e23f 73c1 033f
00000010: 3617 023f a56a 803e 1b8f 263f 698b ca3e
00000020: e892 ed3e 1217 4e3f 61e7 f53e 10cd ad3e
00000030: cc0e a63e 860e 483f d854 c63e fca3 c43e
00000040: c2c7 ac3e 1536 543f 873f 813f c7a7 343e
00000050: 8ba9 bc3f 81a4 cc3e dd08 df3e e1ff d23e
00000060: 6639 823e c213 b53e fb15 0b3f 4223 623f
00000070: ca8f 203f 54f5 913f ebe0 ca3e d07d 2f3f
00000080: df66 2a3f 2d6a 543f 1ba4 5b3f 437d af3e
00000090: 6ba2 c03e 950b ab3f b8ff 0d3f 2b2e 823f
000000a0: 7903 973f f921 363f 581f d43e 9ec8 013f
000000b0: 0449 d53e 813d b43e 967f f93e 75bc 343f

m_transform.0.10.weight f4 [96, 48, 1, 1]
0.11251116 0.12316883 -0.060063485 -0.10712186 -0.06777443 0.11220895 0.074479565 -0.038858615
0.060070716 -0.07914412 -0.064768925 0.1150339 0.13540682 0.07670051 -0.06000535 0.017087022
0.0452621 0.068853684 0.06051985 -0.03050372 0.15005542 0.046405785 0.08377645 0.0406204
-0.10211582 0.11745772 0.15578124 0.018452039 -0.10376326 0.017384931 0.15201429 0.12453042
-0.09877897 0.113652796 -0.052650046 -0.06847997 0.04710303 -0.13240825 0.09261088 0.10119814
0.02618531 -0.09318162 -0.09620534 0.08505138 -0.1363136 0.04087595 0.12734167 0.03961034
0.027914522 -0.09476122 -0.11174261 -0.019900946 -0.029399019 0.11051982 -0.01866581 -0.11401119
-0.09786893 0.07530787 0.12186278 0.048390605 0.04149486 -0.09304832 0.011525348 -0.120823324
-0.043437645 -0.042301904 0.0644706 -0.05243712 0.13871054 -0.0059511913 0.08287142 -0.06337134
-0.0629538 0.074358724 0.0032895526 0.041547112 0.04331312 0.0063004927 -0.01987725 -0.03373789
-0.034988593 -0.111939855 0.04574883 0.021910427 -0.12224821 -0.0032502003 -0.0018922421 -0.11071101
-0.07003208 0.07396789 0.04212475 -0.049990874 0.03275537 -0.05297477 -0.118511535 0.09404014
0.042753175 0.105793834 -0.034769893 -0.0053405557 0.0017105936 -0.10529771 0.108189195 -0.0023724458
0.03618892 0.030848272 0.06523686 -0.080794826 -0.14234515 0.08380226 0.0150876455 -0.012575265
0.10579439 -0.12759192 0.040656902 -0.024119904 0.07557398 0.089397624 0.14327039 -0.10506604
0.003948348 -0.117471725 -0.02977851 0.11347821 0.07457459 -0.14849158 0.047142185 -0.023408309
-0.055459104 -0.04999549 -0.10149724 -0.04923593 0.064353086 -0.030024117 -0.046169326 0.10005026
-0.13618118 -0.06449409 -0.10090256 0.083320856 0.01598922 -0.011152452 0.12863545 -0.109234735
0.02799259 0.08379371 -0.022954177 0.08821396 -0.06644525 -0.048535757 0.11890734 0.08522013
-0.004601552 0.1423232 -0.054729555 0.11344778 -0.013067931 -0.0048794923 0.11004565 0.042334452
-0.023531033 -0.10634183 0.1061467 -0.031238502 -0.08790425 0.1075157 0.05438095 0.038697723
-0.11496232 -0.098290764 0.08377633 0.06255616 0.11291808 0.13068609 -0.002933494 0.0072643072
0.1302735 0.12722492 -0.12756743 -0.09217274 -0.04087497 0.053795993 0.09371202 0.0052051367
0.027417371 -0.045458294 -0.061657827 0.040433876 0.09114806 0.008305834 0.051399868 -0.12998754
-0.014371256 -0.112711236 -0.12150856 -0.061866447 0.014998735 -0.12629223 -0.049446743 -0.00592418
-0.027413404 0.13070846 -0.09433295 0.020739736 0.03135109 0.12996301 0.08544263 -0.05248203
0.02271648 -0.069956385 0.11772175 -0.07560883 0.13780662 -0.007395916 0.09890475 0.06458418
0.09899924 -0.060914643 0.010011155 0.04782043 0.12232805 -0.06625082 0.026172586 -0.10469225
-0.054327127 -0.090766154 -0.011961243 0.02714904 -0.07100264 -0.07714493 -0.13035254 0.11988129
0.0798746 -0.01992822 -0.065273106 -0.04320384 -0.066303134 0.023150042 0.12386852 0.047481824
-0.02194233 0.124405466 0.021009022 0.13808455 -0.07700049 0.072658345 0.027260952 -0.13703951
0.039767094 0.057515115 0.09257925 -0.111655645 -0.051652133 0.10280747 0.13840577 -0.10358938
00000000: 406c e63d f13f fc3d 2105 76bd b562 dbbd
00000010: 52cd 8abd cecd e53d be88 983d 362a 1fbd
00000020: b60c 763d 5016 a2bd 92a5 84bd e596 eb3d
00000030: 16a8 0a3e 2815 9d3d 2bc8 75bd 15fa 8b3c
00000040: c064 393d 2903 8d3d aae3 773d f0e2 f9bc
00000050: 21a8 193e fe13 3e3d fd92 ab3d 9461 263d
00000060: 1922 d1bd ac8d f03d 1e85 1f3e bb28 973c
00000070: d581 d4bd d86a 8e3c a2a9 1b3e ce09 ff3d
00000080: a14c cabd ccc2 e83d 93a7 57bd 3a3f 8cbd
00000090: 1bef 403d 0796 07be c6aa bd3d f840 cf3d
000000a0: 9382 d63c 01d6 bebd 4e07 c5bd 6b2f ae3d
000000b0: cb95 0bbe 8a6d 273d db65 023e 743e 223d
000000c0: ffac e43c 2c12 c2bd 4fd9 e4bd 4f07 a3bc
000000d0: 36d6 f0bc 3758 e23d 0ae9 98bc b37e e9bd
000000e0: 816f c8bd 033b 9a3d 3193 f93d 3a35 463d
000000f0: 84f6 293d 1e90 bebd d0d4 3c3c 3872 f7bd
00000100: aceb 31bd c344 2dbd 2909 843d 4ec8 56bd
00000110: 230a 0e3e 3602 c3bb 7eb8 a93d d5c8 81bd
00000120: eced 80bd 6349 983d 8995 573b 4e2d 2a3d
00000130: 1969 313d 5d74 ce3b 9dd5 a2bc be30 0abd
00000140: 3350 0fbd b940 e5bd 2063 3b3d 7f7d b33c
00000150: 455d fabd 5001 55bb 1c05 f8ba 74bc e2bd
00000160: fb6c 8fbd 7a7c 973d 008b 2c3d 3bc3 4cbd
00000170: 7f2a 063d 13fc 58bd 2db6 f2bd 1e98 c03d
00000180: f41d 2f3d 70aa d83d e06a 0ebd d4ff aebb
00000190: ff35 e03a 53a6 d7bd 4c92 dd3d 097b 1bbb
000001a0: d53a 143d 84b5 fc3c e79a 853d c277 a5bd
000001b0: edc2 11be 85a0 ab3d 2c32 773c 7c08 4ebc
000001c0: bbaa d83d 75a7 02be da87 263d 1b97 c5bc
000001d0: 88c6 9a3d 1a16 b73d 79b5 123e dd2c d7bd
000001e0: 2561 813b 0495 f0bd 10f2 f3bc 4467 e83d
000001f0: 90ba 983d 2d0e 18be 2a18 413d c8c2 bfbc
00000200: 1629 63bd 12c8 4cbd c9dd cfbd 9dab 49bd
00000210: 8dcb 833d 23f5 f5bc 0c1c 3dbd 27e7 cc3d
00000220: 1473 0bbe 7a15 84bd 00a6 cebd 20a4 aa3d
00000230: d3fb 823c c6b8 36bc 03b9 033e 76b6 dfbd
00000240: b750 e53c 099c ab3d 660a bcbc 85a9 b43d
00000250: 7214 88bd 6ecd 46bd b185 f33d e487 ae3d
00000260: 9ec8 96bb 2cbd 113e 192c 60bd 4f57 e83d
00000270: e01a 56bc 26e4 9fbb 9d5f e13d e466 2d3d
00000280: 27c4 c0bc bfc9 d9bd 7163 d93d e3e7 ffbc
00000290: 2507 b4bd 3131 dc3d 8fbe 5e3d 8181 1e3d
000002a0: 5d71 ebbd ab4c c9bd ed92 ab3d 721d 803d
000002b0: 9841 e73d 93d2 053e dd3f 40bb 6d09 ee3b
000002c0: 6b66 053e 4047 023e 09a1 02be 10c5 bcbd
000002d0: 836c 27bd 3059 5c3d 16ec bf3d da8f aa3b
000002e0: 659a e03c 7a32 3abd eb8c 7cbd fe9d 253d
000002f0: d6ab ba3d 3115 083c ab88 523d 741b 05be
00000300: 6b75 6bbc 26d5 e6bd 7bd9 f8bd ac67 7dbd
00000310: 41bd 753c c052 01be ab88 4abd a01f c2bb
00000320: 1392 e0bc 70d8 053e a231 c1bd 61e6 a93c
00000330: 006a 003d 0615 053e 8cfc ae3d 66f7 56bd
00000340: e917 ba3c 4b45 8fbd 1a18 f13d cdd8 9abd
00000350: 2e1d 0d3e 7159 f2bb 938e ca3d b644 843d
00000360: 1dc0 ca3d a281 79bd d405 243c 5bdf 433d
00000370: 2187 fa3d 83ae 87bd e467 d63c e468 d6bd
00000380: 1f86 5ebd 9be3 b9bd 17f9 43bc aa67 de3c
00000390: d569 91bd 29fe 9dbd 237b 05be 5284 f53d
000003a0: 4b95 a33d 8240 a3bc e8ad 85bd 82f6 30bd
000003b0: f0c9 87bd 28a5 bd3c c7ae fd3d 4d7c 423d
000003c0: 67c0 b3bc 4bc8 fe3d 1d1b ac3c 0966 0d3e
000003d0: 6fb2 9dbd e6cd 943d 5c52 df3c 1654 0cbe
000003e0: d2e2 223d f894 6b3d 319a bd3d b7ab e4bd
000003f0: 3091 53bd b98c d23d 3eba 0d3e ab26 d4bd

m_transform.0.10.bias f4 [96]
-0.03734286 0.08308376 0.11089056 0.007893037 -0.12304185 -0.10236895 -0.05571185 -0.096829
0.07434091 0.13369851 0.10003466 -0.10002926 0.03475863 -0.005694686 -0.099327244 0.038037904
-0.08228891 -0.1268716 0.010469191 -0.038335204 -0.010600573 -0.03785279 0.122024044 0.060694274
-0.09979024 -0.17150031 0.0988473 0.05273097 -0.09394812 -0.066417426 -0.14047658 -0.06050965
-0.012861127 -0.09219792 0.08402464 -0.076160885 0.021377387 0.00021248849 -0.0011845685 -0.027953018
-0.14417598 -0.0107898535 -0.010863874 0.12253585 -0.005450496 0.02328269 -0.098214105 -0.08480079
-0.10288 -0.07602358 0.041796718 -0.037093505 -0.1111881 0.05657096 -0.079394504 0.027239794
0.12958603 -0.02514004 0.10605114 0.015310046 0.012440813 -0.15172529 0.009310304 -0.12517071
-0.062895514 0.06125337 -0.09607911 0.09784713 0.0078113135 0.020631349 -0.08333765 -0.07115243
-0.071511626 -0.107181855 -0.057153314 0.058615956 0.046764966 0.12224714 0.12589073 -0.14261773
0.14787278 -0.0026237885 -0.09839143 0.03128799 0.068628676 0.058833998 0.14970666 -0.072954796
-0.00092158525 0.11356645 0.06552694 -0.11195376 -0.056156613 0.03072057 0.050916612 0.010841437
00000000: d4f4 18bd d227 aa3d 971a e33d cc51 013c
00000010: 5efd fbbd d0a6 d1bd 1c32 64bd 484e c6bd
00000020: 0c40 983d 43e8 083e f9de cc3d 24dc ccbd
00000030: 115f 0e3d 7d9a babb 156c cbbd a2cd 1b3d
00000040: 1787 a8bd a1ea 01be f886 2b3c 6005 1dbd
00000050: 07ae 2dbc 870b 1bbd bee7 f93d 8f9a 783d
00000060: d35e ccbd c79d 2fbe 7470 ca3d 6efc 573d
00000070: df67 c0bd dc05 88bd 18d9 0fbe f7d8 77bd
00000080: 7ab7 52bc 43d2 bcbd 1c15 ac3d 3dfa 9bbd
00000090: a11f af3c 72cf 5e39 8643 9bba bafd e4bc
000000a0: dea2 13be edc7 30bc 64fe 31bc 13f4 fa3d
000000b0: 139a b2bb 57bb be3c 7a24 c9bd 09ac adbd
000000c0: c0b2 d2bd 40b2 9bbd 0933 2b3d 5cef 17bd
000000d0: 96b6 e3bd f3b6 673d 9699 a2bd fd25 df3c
000000e0: 33b2 043e 7cf2 cdbc 5731 d93d fdd6 7a3c
000000f0: 8dd4 4b3c e05d 1bbe 3f8a 183c c02c 00be
00000100: 5dcf 80bd d0e4 7a3d 20c5 c4bd 1364 c83d
00000110: 0cf6 ff3b 1303 a93c eeac aabd 5db8 91bd
00000120: b074 92bd 2982 dbbd 9819 6abd 4917 703d
00000130: 9f8c 3f3d b55c fa3d 80e9 003e 620a 12be
00000140: f66b 173e def3 2bbb 7281 c9bd d627 003d
00000150: 318d 8c3d ebfb 703d b44c 193e 5369 95bd
00000160: 8a96 71ba 8795 e83d fd32 863d 0348 e5bd
00000170: 7a04 66bd b4a9 fb3c f08d 503d 48a0 313c

m_transform.0.12.running_mean f4 [48]
0.24257703 0.32487506 0.2549277 0.5935386 0.12670201 0.53524363 0.1843372 0.27487266
0.43119356 0.3293637 0.6167984 0.19841087 0.55510736 0.3576095 0.1729877 0.3508357
0.29373792 0.19510855 0.37862968 0.26515332 0.2470141 0.27880207 0.39232248 0.26245356
0.2771126 0.43615615 0.28890973 0.39341697 0.42511982 0.43260032 0.3980114 0.31754914
0.31393918 0.36314407 0.46621162 0.19662453 0.40492085 0.3074715 0.4447046 0.4961048
0.34622413 0.7677098 0.4348924 0.45556104 0.7112634 0.30396178 0.3325618 0.33621046
00000000: 1d66 783e 0656 a63e e285 823e 25f2 173f
00000010: 2cbe 013e ba05 093f e4c2 3c3e 1cbc 8c3e
00000020: 67c5 dc3e 5ca2 a83e 80e6 1d3f 382c 4b3e
00000030: 841b 0e3f 9818 b73e b023 313e bda0 b33e
00000040: d164 963e 89ca 473e c0db c13e 2dc2 873e
00000050: 44f1 7c3e 25bf 8e3e 7ede c83e 5060 863e
00000060: b4e1 8d3e dc4f df3e faeb 933e f36d c93e
00000070: 4ea9 d93e ca7d dd3e 26c8 cb3e cd95 a23e
00000080: a3bc a03e 05ee b93e 4ab3 ee3e f157 493e
00000090: c951 cf3e e86c 9d3e 52b0 e33e 7301 fe3e
000000a0: 4a44 b13e a188 443f 37aa de3e 4c3f e93e
000000b0: 5c15 363f e1a0 9b3e 8a45 aa3e c723 ac3e

m_transform.0.12.running_var f4 [48]
0.20579521 0.15928861 0.15092686 0.22417913 0.14414364 0.19605915 0.14241676 0.11570976
0.24019231 0.17427443 0.39907023 0.24969438 0.13955344 0.23059586 0.056233637 0.21559577
0.1477077 0.20893767 0.3039053 0.10917218 0.1423459 0.23124668 0.2755686 0.20115383
0.16545516 0.25145298 0.2442177 0.14802592 0.421121 0.10821458 0.1810565 0.39148995
0.1337242 0.43098512 0.44949085 0.11266328 0.16580318 0.12564348 0.8621426 0.23237468
0.17993256 0.3043176 0.3574368 0.15750849 0.2027851 0.15836072 0.11789798 0.238006
00000000: fbbb 523e 8e1c 233e 928c 1a3e 378f 653e
00000010: 649a 133e bbc3 483e b3d5 113e 3df9 ec3d
00000020: f9f4 753e ff74 323e ef52 cc3e e2af 7f3e
00000030: 19e7 0e3e 5221 6c3e 3e55 663d 23c5 5c3e
00000040: b040 173e c2f3 553e 7a99 9b3e aa95 df3d
00000050: 20c3 113e eecb 6c3e 5417 8d3e 45fb 4d3e
00000060: 146d 293e 72be 803e 3414 7a3e 1b94 173e
00000070: 2c9d d73e 9b9f dd3d e066 393e 5f71 c83e
00000080: ffee 083e 15aa dc3e aa23 e63e 01bc e63d
00000090: 4fc8 293e afa8 003e 61b5 5c3f a1f3 6d3e
000000a0: 3e40 383e 84cf 9b3e f501 b73e e849 213e
000000b0: e6a6 4f3e 5029 223e 7f74 f13d d8b7 733e

m_transform.0.13.weight f4 [128, 48, 3, 3]
0.0171821 0.029280737 -0.019067563 0.008472183 -0.031177249 0.04892362 -0.011658105 -0.03596705
0.053599685 0.0031127073 -0.012764983 -0.003007269 0.0039922683 0.0069179735 0.027625587 -0.0030905204
-0.028439881 -0.047436066 -0.02397997 -0.019883206 -0.008417619 -0.011553646 -0.015231348 -0.038191836
0.03941049 -0.0051720208 -0.04726236 0.032040793 -0.04080339 -0.024982788 0.029921476 0.027151635
-0.019844385 -0.03539465 0.018921167 -0.054813873 -0.027181616 0.03174183 -0.037041552 -0.0090597635
0.036251124 0.011083369 -0.028069252 -0.026294654 -0.0141676515 0.047804326 0.027028684 -0.041770324
0.01863743 0.016213348 -0.004786962 -0.038046747 -0.031523366 -0.027746063 -0.03327883 -0.0037653241
0.027825806 0.043043565 -0.03654714 0.023433715 -0.007310402 -0.029863665 -0.013807113 -0.03343158
-0.009481789 0.019422011 0.021530584 -0.001633335 -0.029586496 -0.02880621 -0.0042536417 -0.011395502
0.014047266 -0.020411652 0.002650804 0.033466827 0.05625374 0.03451813 -0.031237243 -0.031545997
-0.035148848 0.042890634 0.0408459 0.04460502 0.0006690393 0.016998602 -0.04171597 -0.011441123
-0.046501234 -0.025001895 -0.0026730478 -0.010688669 0.023713004 -0.039352648 0.035411995 0.014225576
-0.039748356 0.030539809 -0.019630324 -0.01242186 -0.0037375237 0.012745383 0.026225563 -0.03718541
-0.0004326777 -0.00045499127 0.047760416 0.0055576675 -0.021993829 0.030297132 0.059635606 0.046326067
0.024012556 0.027061118 0.04105489 -0.042285953 -0.006366416 -0.051892933 0.007795136 -0.0071073864
-0.047256168 0.006027823 -0.025204444 -0.054408282 0.0036440347 -0.0120253535 0.029703418 -0.0069333166
-0.02220827 0.044824608 0.005939164 -0.013404637 -0.016491275 -0.027898315 -0.0031140025 -0.03282872
-0.03678209 0.045315012 -0.04613316 -0.039637 0.04384696 -0.0048822234 -0.0062577836 -0.020934943
-0.027336571 -0.019513791 -0.007334701 0.030469209 0.001718364 -0.020780388 -0.01466206 0.036369458
0.0034593332 0.03882899 0.04458947 -0.021153156 -0.01883462 0.0041324296 0.015739935 -0.00552769
-0.006017545 0.023002991 -0.019226788 -0.01884093 0.0065579712 0.01978345 0.049292363 -0.026099222
-0.041969083 0.0047852285 0.04447056 -0.042947747 0.027037237 0.019302858 0.018740617 -0.017975602
0.012066293 0.008732804 0.016843941 -0.04550852 0.026921688 0.021435322 -0.017737256 0.023337452
-0.04120926 0.024122758 0.016726688 0.056318752 0.00958123 0.038189024 -0.006462883 0.048003014
-0.0062787626 0.019576674 0.036584187 0.043176405 0.055939846 0.048383445 -0.012862284 -0.012912669
-0.024046725 -0.038446784 -0.030711684 -0.047540467 -0.018581957 -0.040556386 0.013384984 -0.026936505
-0.032527626 0.01812441 0.024165137 0.03151052 0.017849987 -0.016294232 0.018355604 0.026716728
-0.013582026 -0.015121031 0.048954967 -7.019721e-05 -0.04507995 0.03738363 -0.020635983 -0.028719809
0.031814765 0.022605041 -0.042987876 -0.058241077 0.03676247 -0.027955718 -0.040180884 -0.06398508
0.03307582 0.021084271 0.04025806 -0.045583446 0.0103189945 -0.010496904 -0.0033853312 -0.033637993
-0.011053492 -0.020528467 0.028676733 -0.023289796 -0.041265626 0.016671304 -0.010460855 0.00080089737
-0.01626174 0.031000486 0.04029735 0.005880888 -0.020768408 0.045256734 -0.0017573537 -0.036042735
00000000: 7ac1 8c3c 28de ef3c 9433 9cbc e9ce 0a3c
00000010: 6e67 ffbc 2264 483d a301 3fbc 2f52 13bd
00000020: 588b 5b3d 90fe 4b3b 3824 51bc 9a15 45bb
00000030: 93d1 823b 2bb0 e23b 0e4f e23c 548a 4abb
00000040: c1fa e8bc 524c 42bd a471 c4bc 1be2 a2bc
00000050: 0eea 09bc 814b 3dbc e78c 79bc 0b6f 1cbd
00000060: e56c 213d 0e7a a9bb 2d96 41bd 353d 033d
00000070: 7521 27bd b4a8 ccbc e21d f53c 1b6d de3c
00000080: b190 a2bc fbf9 10bd 9000 9b3c 8384 60bd
00000090: fbab debc b903 023d e2b8 17bd 676f 14bc
000000a0: 0f7c 143d 0597 353c 7df1 e5bc e367 d7bc
000000b0: 701f 68bc 78ce 433d 426b dd3c 5c17 2bbd
000000c0: 86ad 983c dbd1 843c f3db 9cbb e8d6 1bbd
000000d0: a51e 01bd b64b e3bc 624f 08bd a8c3 76bb
000000e0: f2f2 e33c 734e 303d 74b2 15bd 10f8 bf3c
000000f0: 198c efbb a5a4 f4bc 3b37 62bc 8def 08bd
00000100: 8159 1bbc e91a 9f3c e860 b03c a115 d6ba
00000110: 615f f2bc 00fb ebbc 2262 8bbb 33b4 3abc
00000120: 8126 663c 5636 a7bc 1cb9 2d3b 8314 093d
00000130: 526a 663d e262 0d3d 3fe5 ffbc 6036 01bd
00000140: 3df8 0fbd 17ae 2f3d 084e 273d c1b3 363d
00000150: 7862 2f3a a740 8b3c 5dde 2abd 8c73 3bbc
00000160: 1478 3ebd c6d0 ccbc 4d2e 2fbb 871f 2fbc
00000170: c641 c23c 3e30 21bd 2b0c 113d 6412 693c
00000180: 2ccf 22bd 9f2e fa3c c6cf a0bc 0f85 4bbc
00000190: 3ef1 74bb 03d2 503c fed6 d63c ba4f 18bd
000001a0: 05d9 e2b9 e58b eeb9 6da0 433d 181d b63b
000001b0: 672c b4bc b131 f83c 7744 743d 67c0 3d3d
000001c0: fbb5 c43c 47af dd3c 2c29 283d 0934 2dbd
000001d0: 5e9d d0bb af8d 54bd 576e ff3b 14e5 e8bb
000001e0: af8f 41bd 0b85 c53b 8d79 cebc 38db 5ebd
000001f0: c2d0 6e3b fd05 45bc 9554 f33c e030 e3bb
00000200: 1eee b5bc 029a 373d 529d c23b 1f9f 5bbc
00000210: b618 87bc 028b e4bc 4b14 4cbb 6877 06bd
00000220: d1a8 16bd 3c9c 393d 20f6 3cbd 685a 22bd
00000230: df98 333d 0ffb 9fbb 180e cdbb c27f abbc
00000240: f2f0 dfbc 63db 9fbc ee57 f0bb 909a f93c
00000250: ba3a e13a a23b aabc 2339 70bc 24f8 143d
00000260: fbb5 623b 260b 1f3d 73a3 363d 6249 adbc
00000270: 104b 9abc 5569 873b 09f1 803c a021 b5bb
00000280: d32e c5bb c570 bc3c 7f81 9dbc 4b58 9abc
00000290: 40e4 d63b e710 a23c cae6 493d 09ce d5bc
000002a0: c6e7 2bbd 68cd 9c3b c326 363d fae9 2fbd
000002b0: 327d dd3c 0721 9e3c ec85 993c 9241 93bc
000002c0: b3b1 453c 0914 0f3c 4efc 893c 2467 3abd
000002d0: df8a dc3c 2199 af3c b94d 91bc 2f2e bf3c
000002e0: 0acb 28bd 179d c53c 6806 893c 7eae 663d
000002f0: 97fa 1c3c 186c 1c3d 98c6 d3bb cf9e 443d
00000300: 14be cdbb 435f a03c 4dd9 153d bed9 303d
00000310: 2e21 653d b82d 463d 54bc 52bc a98f 53bc
00000320: a3fd c4bc 607a 1dbd 1297 fbbc cbb9 42bd
00000330: 3039 98bc 741e 26bd b14c 5b3c f2a9 dcbc
00000340: b03b 05bd a579 943c f7f5 c53c 2d11 013d
00000350: 233a 923c 7b7b 85bc 7e5e 963c 0add da3c
00000360: 2587 5ebc 33be 77bc 0185 483d d736 93b8
00000370: c1a5 38bd 941f 193d cb0c a9bc ce45 ebbc
00000380: 3350 023d 352e b93c 0e14 30bd 328e 6ebd
00000390: 3e94 163d 6403 e5bc b694 24bd 9c0a 83bd
000003a0: 837a 073d ecb8 ac3c a3e5 243d b5b5 3abd
000003b0: 0011 293c 35fb 2bbc 6fdc 5dbb fec7 09bd
000003c0: b519 35bc 512b a8bc 78eb ea3c 3eca bebc
000003d0: 2506 29bd 4292 883c 0264 2bbc 50f3 513a
000003e0: 5737 85bc bbf4 fd3c d60e 253d 77b4 c03b
000003f0: 8222 aabc 205f 393d 0157 e6ba 8ca1 13bd
