Auxillary_Code/LCNN/project/03-asvspoof-mega/lfb-lcnn-attention-sig/03/__pretrained/trained_network.pt (torch, 725636 bytes, 33 tensors)

m_frontend.0.lfcc_fb f4 [257, 60]
00000000: 0000 0000 0000 0000 0000 0000 0000 0000
00000010: 0000 0000 0000 0000 0000 0000 0000 0000
00000020: 0000 0000 0000 0000 0000 0000 0000 0000
00000030: 0000 0000 0000 0000 0000 0000 0000 0000
00000040: 0000 0000 0000 0000 0000 0000 0000 0000
00000050: 0000 0000 0000 0000 0000 0000 0000 0000
00000060: 0000 0000 0000 0000 0000 0000 0000 0000
00000070: 0000 0000 0000 0000 0000 0000 0000 0000
00000080: 0000 0000 0000 0000 0000 0000 0000 0000
00000090: 0000 0000 0000 0000 0000 0000 0000 0000
000000a0: 0000 0000 0000 0000 0000 0000 0000 0000
000000b0: 0000 0000 0000 0000 0000 0000 0000 0000
000000c0: 0000 0000 0000 0000 0000 0000 0000 0000
000000d0: 0000 0000 0000 0000 0000 0000 0000 0000
000000e0: 0000 0000 0000 0000 0000 0000 0000 0000
000000f0: 0000 743e 0000 0000 0000 0000 0000 0000
00000100: 0000 0000 0000 0000 0000 0000 0000 0000
00000110: 0000 0000 0000 0000 0000 0000 0000 0000
00000120: 0000 0000 0000 0000 0000 0000 0000 0000
00000130: 0000 0000 0000 0000 0000 0000 0000 0000
00000140: 0000 0000 0000 0000 0000 0000 0000 0000
00000150: 0000 0000 0000 0000 0000 0000 0000 0000
00000160: 0000 0000 0000 0000 0000 0000 0000 0000
00000170: 0000 0000 0000 0000 0000 0000 0000 0000
00000180: 0000 0000 0000 0000 0000 0000 0000 0000
00000190: 0000 0000 0000 0000 0000 0000 0000 0000
000001a0: 0000 0000 0000 0000 0000 0000 0000 0000
000001b0: 0000 0000 0000 0000 0000 0000 0000 0000
000001c0: 0000 0000 0000 0000 0000 0000 0000 0000
000001d0: 0000 0000 0000 0000 0000 0000 0000 0000
000001e0: 0000 f43e 0000 0000 0000 0000 0000 0000
000001f0: 0000 0000 0000 0000 0000 0000 0000 0000
00000200: 0000 0000 0000 0000 0000 0000 0000 0000
00000210: 0000 0000 0000 0000 0000 0000 0000 0000
00000220: 0000 0000 0000 0000 0000 0000 0000 0000
00000230: 0000 0000 0000 0000 0000 0000 0000 0000
00000240: 0000 0000 0000 0000 0000 0000 0000 0000
00000250: 0000 0000 0000 0000 0000 0000 0000 0000
00000260: 0000 0000 0000 0000 0000 0000 0000 0000
00000270: 0000 0000 0000 0000 0000 0000 0000 0000
00000280: 0000 0000 0000 0000 0000 0000 0000 0000
00000290: 0000 0000 0000 0000 0000 0000 0000 0000
000002a0: 0000 0000 0000 0000 0000 0000 0000 0000
000002b0: 0000 0000 0000 0000 0000 0000 0000 0000
000002c0: 0000 0000 0000 0000 0000 0000 0000 0000
000002d0: 0000 373f 0000 0000 0000 0000 0000 0000
000002e0: 0000 0000 0000 0000 0000 0000 0000 0000
000002f0: 0000 0000 0000 0000 0000 0000 0000 0000
00000300: 0000 0000 0000 0000 0000 0000 0000 0000
00000310: 0000 0000 0000 0000 0000 0000 0000 0000
00000320: 0000 0000 0000 0000 0000 0000 0000 0000
00000330: 0000 0000 0000 0000 0000 0000 0000 0000
00000340: 0000 0000 0000 0000 0000 0000 0000 0000
00000350: 0000 0000 0000 0000 0000 0000 0000 0000
00000360: 0000 0000 0000 0000 0000 0000 0000 0000
00000370: 0000 0000 0000 0000 0000 0000 0000 0000
00000380: 0000 0000 0000 0000 0000 0000 0000 0000
00000390: 0000 0000 0000 0000 0000 0000 0000 0000
000003a0: 0000 0000 0000 0000 0000 0000 0000 0000
000003b0: 0000 0000 0000 0000 0000 0000 0000 0000
000003c0: 0000 743f 0000 0000 0000 0000 0000 0000
000003d0: 0000 0000 0000 0000 0000 0000 0000 0000
000003e0: 0000 0000 0000 0000 0000 0000 0000 0000
000003f0: 0000 0000 0000 0000 0000 0000 0000 0000
0.0 0.0 0.0 0.0 0.0 0.0 0.0 0.0
0.0 0.0 0.0 0.0 0.0 0.0 0.0 0.0
0.0 0.0 0.0 0.0 0.0 0.0 0.0 0.0
0.0 0.0 0.0 0.0 0.0 0.0 0.0 0.0
0.0 0.0 0.0 0.0 0.0 0.0 0.0 0.0
0.0 0.0 0.0 0.0 0.0 0.0 0.0 0.0
0.0 0.0 0.0 0.0 0.0 0.0 0.0 0.0
0.0 0.0 0.0 0.0 0.23828125 0.0 0.0 0.0
0.0 0.0 0.0 0.0 0.0 0.0 0.0 0.0
0.0 0.0 0.0 0.0 0.0 0.0 0.0 0.0
0.0 0.0 0.0 0.0 0.0 0.0 0.0 0.0
0.0 0.0 0.0 0.0 0.0 0.0 0.0 0.0
0.0 0.0 0.0 0.0 0.0 0.0 0.0 0.0
0.0 0.0 0.0 0.0 0.0 0.0 0.0 0.0
0.0 0.0 0.0 0.0 0.0 0.0 0.0 0.0
0.4765625 0.0 0.0 0.0 0.0 0.0 0.0 0.0
0.0 0.0 0.0 0.0 0.0 0.0 0.0 0.0
0.0 0.0 0.0 0.0 0.0 0.0 0.0 0.0
0.0 0.0 0.0 0.0 0.0 0.0 0.0 0.0
0.0 0.0 0.0 0.0 0.0 0.0 0.0 0.0
0.0 0.0 0.0 0.0 0.0 0.0 0.0 0.0
0.0 0.0 0.0 0.0 0.0 0.0 0.0 0.0
0.0 0.0 0.0 0.0 0.71484375 0.0 0.0 0.0
0.0 0.0 0.0 0.0 0.0 0.0 0.0 0.0
0.0 0.0 0.0 0.0 0.0 0.0 0.0 0.0
0.0 0.0 0.0 0.0 0.0 0.0 0.0 0.0
0.0 0.0 0.0 0.0 0.0 0.0 0.0 0.0
0.0 0.0 0.0 0.0 0.0 0.0 0.0 0.0
0.0 0.0 0.0 0.0 0.0 0.0 0.0 0.0
0.0 0.0 0.0 0.0 0.0 0.0 0.0 0.0
0.953125 0.0 0.0 0.0 0.0 0.0 0.0 0.0
0.0 0.0 0.0 0.0 0.0 0.0 0.0 0.0

m_transform.0.0.weight f4 [64, 1, 5, 5]
00000000: 88ab 29be e02a f73d 1f1a b6bd b00f 29bb
00000010: 3981 8e3d 7aa8 bf3d 5ed6 d1bd 2eb0 37be
00000020: 8956 f1bd 1358 21be 8ced 24be 9c86 bb3d
00000030: 17c9 b63d b6d8 e73d c6e8 24bd cea3 1b3e
00000040: 1407 483e abba d43d 0f1f f2bd 2c28 bebd
00000050: ee15 15be 9114 ef3d f422 983c 3250 393e
00000060: 0c7b 0dbd 9465 1b3e 6392 c03d c798 003b
00000070: b697 c4bd 5ce8 ae3d 7e26 abbb 08dd ccbd
00000080: 8925 013e 6ba3 a7bc af43 3fbe b678 eebd
00000090: 860a 423e f316 cc3d c2b2 f3bd f5f4 2a3e
000000a0: 3921 89bb 3cfc 3dbe f322 913d 36ba 5ebd
000000b0: c1a6 8dbd 3185 273c 8c07 3abe 111a 843c
000000c0: 4fd0 2d3e 020b 273d 6e09 1ebd b81c 8a3d
000000d0: 5f2f 2fbd d76e a8bd 8779 073d a661 033b
000000e0: 7be4 4a3d eb59 9bbd 475f 173e f5bd fa3d
000000f0: 2e32 c6bd 067f 333d f49a 0c3b 31fa 173e
00000100: b30e 1a3e 7cf9 b43d b1a7 b73d 9238 a03c
00000110: 9871 bdbd a8c9 06be f7c5 283e 8820 673d
00000120: fd68 30be 7840 3e3d 11e2 89bd 0737 50be
00000130: d2f0 3a3e 0b8f a63c fbc7 843d fdc8 4cbc
00000140: 76cd 3fbe bb83 393e 944f 85bd 3159 4ebe
00000150: a5dd 313e 8b3b c8bd fe69 cebd 18f7 3a3e
00000160: e67d e53d 5111 0abe 978d 17bd 6ef6 d0bd
00000170: d6a2 323e c763 36be e495 09be 92bd bebd
00000180: f21f efbd c755 393e fae6 ecbd 3fce 48bd
00000190: 8bbb 083d 954d 87b9 4a94 dc3c a9ab ecbc
000001a0: d5d7 4cbe de71 323e 3847 d3bc 63be 913d
000001b0: b02c 023e 2ed7 103d f709 26be 4cf6 223d
000001c0: f250 2e3d 2827 9b3d 0665 c63d 758d 2f3e
000001d0: 95c4 193d cdfe 2c3e e0b9 acbd 7e86 1abe
000001e0: 72b0 88bd 6c7b 623e 05c4 b23d 5be8 bf3c
000001f0: bbf8 10be 99ad ddbd 4c85 53bb d0a6 e33c
00000200: b352 30be 31d2 1d3e 0229 bebd 49e3 91bd
00000210: db35 02be a91d a63c 0431 cdbd 945c 423e
00000220: 4499 433e cd61 193d 18c4 95bd 01f6 2e3e
00000230: 0620 163e dec4 413e ceae 23be 60b3 39bc
00000240: bf0b f5bc 1fb3 43bd 46e2 e1bc 808e 993c
00000250: 120f 4b3e e3be 4fbe 5ee1 22be 7443 c23b
00000260: 6fb6 ebbd 49b0 2dbc 55cd 0fbe a8f5 3abe
00000270: 026f 0f3d c253 6bbd 835f 923d af62 e73d
00000280: 7db9 d2bd b099 e43d 50ef 763d b570 40bd
00000290: 01ee ffbd 74f5 a2bd 72ce 503e 3cf7 f1bd
000002a0: 9b0a 15be 32cf 03be 5016 2a3e 9168 963d
000002b0: 8022 03be 44c2 4d3e 55b2 21be 3fc9 3dbe
000002c0: 08ff 12be 93b7 083e bc3a 87bd fdef 8bbd
000002d0: 33b1 66bd 2087 03be e535 573e cd6f de3b
000002e0: aaf5 2cbd 2290 463e 00ed 4cbe 7acd 82bd
000002f0: eb3c 533e eaea 09be 521d b13d 3c3d 11be
00000300: 4771 11be 9eec 6cbd 6675 03be 224a 34bd
00000310: 567f dabd 6fe0 67bd cf92 1cbd 3c66 78bd
00000320: 98af c3bd 93cd 9dbb 23be 293d c6cb 23bd
00000330: 38c2 c4bd fc09 293e ddbf 2bbe efdc 303e
00000340: 5b09 5c3d c041 59bd 47a9 32be 7185 f13c
00000350: 1337 29be fa8d 083e c07d 303a 3eb6 31be
00000360: fe1e 413e 5fcb 1f3d 959e 9a3d ea4d 06bc
00000370: cd75 383e 8cd3 d4bd bba7 08be 7c05 ff3d
00000380: 2b11 f4bc 24d3 1a3d 8e0e 0dbe 7854 993d
00000390: 7340 4cbe 71ba 91bc a99e 9dbd 763b 2abe
000003a0: f227 283d 915f 7dbd 3895 d83c 1a8f 2ebe
000003b0: 62ad 343e c9a5 58be 1be6 fdbd da18 09be
000003c0: a994 22be 010d 883d c086 bbbd 23dd 8c3d
000003d0: 44f7 473d 6f05 433e 3b40 0cbd 14ba 85bd
000003e0: 251f 3abe 58ce b5bc b028 773e a758 cfbd
000003f0: 4919 f1bd 0ddb 1d3e 8038 e93d 221f 463e
-0.1656934 0.12068725 -0.08891701 -0.0025796704 0.06958241 0.09358306 -0.102459654 -0.17938301
-0.117840834 -0.15756254 -0.16106242 0.09156534 0.089250736 0.11320631 -0.040261053 0.15199205
0.1953395 0.103871666 -0.1182233 -0.09285006 -0.14559147 0.116738446 0.018571354 0.18096998
-0.034541175 0.15175468 0.09402921 0.0019622312 -0.09599249 0.08540413 -0.0052230945 -0.10003096
0.12611975 -0.020463666 -0.18678163 -0.116441175 0.18949327 0.09965315 -0.1189933 0.16695006
-0.0041848687 -0.18553251 0.07086744 -0.054376803 -0.069165714 0.010224626 -0.18166941 0.01612571
0.16973995 0.040781982 -0.03858321 0.06743759 -0.042769786 -0.08224266 0.033074882 0.0020047217
0.049534302 -0.0758551 0.14782439 0.12243263 -0.0967754 0.04382231 0.0021454664 0.14841534
0.1504467 0.08836648 0.089675315 0.019558225 -0.09250182 -0.13162863 0.16481768 0.05642751
-0.1722755 0.0464482 -0.06732572 -0.20333491 0.18255928 0.02033188 0.06483456 -0.012499091
-0.18730721 0.18116657 -0.06509319 -0.20151211 0.17369707 -0.09776982 -0.1007881 0.18258321
0.11205654 -0.13483168 -0.037000265 -0.10203253 0.1744493 -0.178115 -0.13436085 -0.093135014
-0.11676015 0.18099128 -0.11567493 -0.049024817 0.03338198 -0.0002580701 0.026926178 -0.028890448
-0.20004208 0.1742625 -0.025790796 0.071163915 0.1271236 0.03536146 -0.16214739 0.03978567
0.042557664 0.07575828 0.096872374 0.17143805 0.03754099 0.16894074 -0.0843389 -0.15090367
-0.06674279 0.22117394 0.08728794 0.023426225 -0.14157383 -0.10824127 -0.0032275496 0.027789503
-0.17219047 0.15412213 -0.09285165 -0.07123429 -0.12715857 0.020277815 -0.100191146 0.18980628
0.19101435 0.037446786 -0.073127925 0.1708603 0.14660653 0.18922755 -0.15984651 -0.01133427
-0.029912828 -0.047778245 -0.027573716 0.018744707 0.19829968 -0.20287661 -0.15906283 0.005928451
-0.11509406 -0.010601112 -0.14043172 -0.18257773 0.035017975 -0.057452925 0.07147124 0.11298119
-0.10289285 0.11162126 0.06028682 -0.046982486 -0.124965675 -0.07956973 0.20391253 -0.11814734
-0.14554827 -0.12872007 0.16610074 0.07344163 -0.1280613 0.20093638 -0.15790685 -0.185338
-0.14355099 0.13351278 -0.066029996 -0.068328835 -0.056321334 -0.12844515 0.21016653 0.00678823
-0.04222647 0.1939092 -0.20012283 -0.06386848 0.20628707 -0.13468519 0.086481705 -0.14183515
-0.14203368 -0.057842843 -0.12837753 -0.04401601 -0.10668819 -0.05661052 -0.038225945 -0.060644373
-0.09554976 -0.004815766 0.041441094 -0.039989255 -0.09607357 0.16507715 -0.16772409 0.1727178
0.05371986 -0.05304122 -0.17447387 0.029482575 -0.16524915 0.1333541 0.00067326054 -0.17354676
0.18859479 0.03901231 0.07549778 -0.008197287 0.18013687 -0.10391912 -0.13345234 0.12452218
-0.029793343 0.037799016 -0.13775083 0.07486814 -0.1994646 -0.017789098 -0.07696278 -0.16624245
0.04105372 -0.061858717 0.02643834 -0.17046776 0.17644265 -0.21156992 -0.12397405 -0.13388386
-0.15877022 0.06643105 -0.09156561 0.06878116 0.048819795 0.19045042 -0.034240942 -0.06529632
-0.18175943 -0.022193119 0.24136615 -0.10124331 -0.11772401 0.15415592 0.1138773 0.19347814

m_transform.0.0.bias f4 [64]
00000000: 11ef 34bc 41d7 373e b5cb f6bd 6676 09bd
00000010: 00a8 6a3d c69d 13be 07a5 a8bd 141d 1ebe
00000020: 084e efbd 7aef 0a3c 9587 84bd eb7c 8ebc
00000030: 6392 2abe 338f b1bd e9bc 0dbe 5760 ed3d
00000040: 2653 373e 1bb0 123e 71b0 6f3d 2be9 803d
00000050: c270 2b3e fc9c ba3d afd1 d23d ec99 e8bd
00000060: d458 0c3e 6a9e 01be fbf6 e1bd 843a c33c
00000070: cefd 323e edaa 05be 3e62 073e 68d2 0ebe
00000080: ef29 473e 3650 233e 7866 453e 7384 9b3d
00000090: 7c77 2cbe ab00 f33d c94b db3d 5b7e b8bd
000000a0: cd17 393e 9c41 3d3e 978e 243e 8709 13be
000000b0: 4464 32be 2975 4bbe 1a67 313e 6361 32be
000000c0: db1e 2bbe ae8b 9dbd 84e6 e33c b2c4 ac3d
000000d0: 87d3 4abe 1f1c ec3d 06f9 1d3e 1dc0 08be
000000e0: 329e c9bd db52 bdbd 40ab ae3d 541f 2abe
000000f0: 6a8d 113e 0b57 593d 1fbf 36be 6ab1 3dbe
-0.011043326 0.17953207 -0.12050573 -0.03356018 0.057289124 -0.14415655 -0.082346015 -0.1544078
-0.11684805 0.008479947 -0.06471173 -0.01739355 -0.16657405 -0.08669891 -0.13841595 0.11590641
0.17902812 0.14324991 0.058517877 0.06294473 0.16742232 0.09111974 0.102939 -0.11357483
0.1370576 -0.12658086 -0.11033436 0.023831613 0.17479631 -0.13053484 0.1322107 -0.13947451
0.1944959 0.15948567 0.1927737 0.07593622 -0.16842455 0.11865362 0.10707814 -0.090084754
0.18075486 0.18482059 0.16070019 -0.14359103 -0.17421061 -0.19868912 0.17324486 -0.17419963
-0.16710989 -0.076926574 0.02781988 0.08435954 -0.19807254 0.11528801 0.15427026 -0.13354535
-0.098446265 -0.09244319 0.08528757 -0.16613513 0.14214101 0.053061526 -0.17846344 -0.1852471

m_transform.0.3.weight f4 [64, 32, 1, 1]
00000000: 3506 b4bc 884d f4bc 8e78 e2bc 476d 21be
00000010: 7170 ca3d 1ace b13c 8506 1cbe e917 9b3d
00000020: d0cd 86bd 86b6 1a3e 3a65 dd39 7f0e f33d
00000030: ab5b 103e 6cdf 9cbb 024b 19be 5327 32be
00000040: b515 83bd 5dd8 f3bc 8109 0ebe 5541 163e
00000050: e9e8 1f3e 8472 163c b3e8 863c 52ca 17be
00000060: 889a 2dbe 8bfb 1d3c 6d8b a23d d0b6 38be
00000070: 87f8 3f3c 567a 0dbe 8a6c 41bd a9d9 d33d
00000080: e367 093e 017e babc 3ab8 fbbd e738 31be
00000090: bde4 a3bd 652a 013e 189c 7a3d 87f2 173e
000000a0: 3333 193e 9ad1 06be dbde 55bb e111 f1bd
000000b0: 2e01 29be 515c 15be e4be 343d 71e9 b63d
000000c0: b4af 223e d055 f3bd a43c 893d d3ef a7bd
000000d0: 1639 ff3b cdc4 4b3d d644 0b3e 99cc 913d
000000e0: 3d16 42bd a71e 88bc 6d9e 1d3e 9a19 d33d
000000f0: 26d9 07be fac4 043e 31f0 21be 3647 33be
00000100: 44dc bbbd 5547 a4bb 9374 6e3d ca05 163e
00000110: ca5b 19be 6b2a 18be 3e7e 0c3e 0ec5 f9bd
00000120: f59e bebb d19c bc3c ef62 62bd f48c 86bd
00000130: 5fe3 0abe 13ed 0ebe 6edc d53d 960f 363e
00000140: 0ff2 9d3d 8eb3 ad3d 8e8a 53bd 6886 0cbe
00000150: 0c46 2c3d dbe9 34be 9a65 203e 600a 6dbd
00000160: dbf4 0e3d 9274 9dbd 1293 5cbd 6d91 7abd
00000170: 8ca3 e43c 14b5 ad3c ef0b b9bc efc6 513d
00000180: a420 5a3d d7b2 31bc 7974 4a3d d161 17bd
00000190: f2dd c13d 6a38 d9bc 90c3 843d 67a7 593d
000001a0: f5ea c53d 9c05 ddbc 31b0 d53d 81ba 0bbe
000001b0: c2cc bbbd 52d3 6bbc cb05 56bd 0218 c33d
000001c0: 24f9 a8bd 4cf7 fdbd e906 0fbc fba9 60bd
000001d0: e225 1a3e 099f dd3d 77d3 ad3d 27d2 58bd
000001e0: 8705 19be 2255 f53d 2f9a d33d f836 8e3c
000001f0: 8f7f babd 9be2 9abd e5aa 103e d00b 3cbd
00000200: 4e56 133e ab8d babb d7cb 92bc 67d1 053e
00000210: 4d30 723d 6de7 fcbd 0698 81bc 5c4f dd3d
00000220: 1dbd 1abe 3527 2e3d 23a7 aa3d eacc 0bbe
00000230: 9ade 35bd b8cb a0bd 6bf3 eebd bad1 4cbd
00000240: cab7 933d 41f1 fdbc b29e 31be d859 e83c
00000250: b47f 97bd 06f1 edbd 0cc2 9bbd 5c1e d3bc
00000260: 6bd1 babd 7d6a e53d d24a 57bc 8e3c 0e3e
00000270: d554 e33d 7383 aabc 1919 1c3e e331 213e
00000280: c39b 05be 9e76 7c3d 6fc3 88bd 60d3 4d3d
00000290: df29 063e d2c6 7f3d da2c 973d 5518 103e
000002a0: 47f5 123e 5fc6 c93d 34f6 973a 34a9 9bbd
000002b0: 3a58 38be 0157 d8bc c543 263e 92ce c13d
000002c0: 6b3c 31bd 74d6 a73c 64bf 32be b174 adbd
000002d0: c7d5 243e d227 223e 4a16 abbd ff56 e6bd
000002e0: aa1b 133e 148f 223e f27a a53b 98c1 c0bd
000002f0: 540e c33d a2a9 1cbd 3a23 be3d 1b2a 05bd
00000300: a680 3ebd 1077 dcbd 1a2e babd 03df ecbd
00000310: 2fe3 7abd cc9c 0cbe fdbc 8fbd 54e0 6dbc
00000320: 8f8b 3abe 9ef3 0e3c 9b21 e83c e7cb 10be
00000330: b299 0b3e 87b5 be3d 7d58 c13d fc85 8d3d
00000340: c6c7 df3d 460f 0c3e ff44 26be bd2a 0bbe
00000350: 4411 15be 457c f73c 86b3 0e3d b6e8 34be
00000360: 4e0a 913d 59b5 51be 3428 adbc 0c18 8abc
00000370: 7496 693d 6fd8 49bc 704a 9abd 42a3 26bd
00000380: 5814 d1bd e023 dbbd 2e76 86bd 21ee 9cbd
00000390: ac3c a43d d4da 0fbe 5abc 763d a2ff f6bb
000003a0: 315a 813c 9941 303e 67a2 2cbe bdfc 0cbd
000003b0: dbe1 48bd eaae 713c 7b79 0d3e b2aa 7f3d
000003c0: 09a9 d1bd fe7f dfbc c361 b8bd 7b13 20be
000003d0: bbd8 f63d a72c 26be 5d6d 143e 3da9 8cbd
000003e0: dafb 2f3e 0173 35bd 8338 1cbe 0fb4 e13d
000003f0: c204 d2bb ef7b ed3d 4c7c 113d e0f6 1bbe
-0.021975616 -0.029822126 -0.027645376 -0.15764342 0.09884728 0.021704722 -0.15236862 0.0757292
-0.06582224 0.1510869 0.00042227824 0.11867999 0.14097469 -0.004787376 -0.1497002 -0.17397813
-0.06400625 -0.029766256 -0.13870813 0.1467336 0.15616192 0.009182576 0.016468382 -0.14823273
-0.1695348 0.009642492 0.079367496 -0.18038487 0.011716968 -0.13816199 -0.04722265 0.1034425
0.13418536 -0.022765161 -0.12290998 -0.17306863 -0.08002613 0.12613828 0.06118402 0.1483861
0.14960937 -0.13165894 -0.0032634053 -0.11770988 -0.16504356 -0.14585997 0.04412736 0.08931244
0.15887338 -0.11881602 0.067010194 -0.0820004 0.0077887876 0.04974823 0.13600478 0.07119102
-0.04738449 -0.016616179 0.15392466 0.103076175 -0.1326643 0.12965766 -0.15814282 -0.17507634
-0.09172872 -0.0050133863 0.058216643 0.14650646 -0.14976421 -0.14859931 0.13720033 -0.12195788
-0.005817289 0.023023995 -0.05527013 -0.065698534 -0.13563298 -0.13957624 0.10442434 0.17779383
0.07712185 0.08481513 -0.051645808 -0.13723147 0.04205899 -0.17667334 0.15663758 -0.057871222
0.03490148 -0.0768825 -0.053851195 -0.061173845 0.027910016 0.021204509 -0.022588698 0.05121511
0.053253785 -0.010845861 0.049427483 -0.03695852 0.09466161 -0.026516158 0.06482613 0.053138163
0.09663955 -0.026980214 0.104339965 -0.13645364 -0.09169914 -0.014393644 -0.05225162 0.095260635
-0.08250645 -0.12400684 -0.008729675 -0.054849606 0.15053514 0.10821349 0.08487599 -0.052934792
-0.14943515 0.119791284 0.103321426 0.017360196 -0.09106361 -0.07562753 0.14127691 -0.045909703
0.14388391 -0.0056931577 -0.017919464 0.13068162 0.059128094 -0.123488285 -0.01581956 0.10806152
-0.15111203 0.04251786 0.0833266 -0.13652387 -0.044401743 -0.07851356 -0.11667522 -0.0500047
0.07212789 -0.030998828 -0.17345694 0.028363153 -0.07397404 -0.11618237 -0.07605371 -0.025771312
-0.091219746 0.11201952 -0.013140397 0.13890287 0.11100165 -0.020814633 0.15243949 0.15741687
-0.130477 0.06163656 -0.06677901 0.05025041 0.1310191 0.06244547 0.07381602 0.14071782
0.14351378 0.098522894 0.001159376 -0.07600632 -0.18002406 -0.026408674 0.1623679 0.09463228
-0.04327051 0.020488001 -0.17455822 -0.08469523 0.16097175 0.15835503 -0.08353861 -0.11247062
0.14366022 0.15874892 0.0050500566 -0.09411925 0.09524217 -0.038247712 0.09284063 -0.032510858
-0.046509407 -0.10764897 -0.090908244 -0.115659736 -0.061251815 -0.13731688 -0.070184685 -0.014518816
-0.182173 0.008725075 0.028336337 -0.14140283 0.13632849 0.09311967 0.09440706 0.06910321
0.10926776 0.13677701 -0.16237257 -0.13590522 -0.14557368 0.030210624 0.034839176 -0.17666897
0.070820436 -0.20479335 -0.021137334 -0.01685717 0.05702825 -0.012319668 -0.07533729 -0.04068304
-0.102089584 -0.10700202 -0.0656551 -0.07662607 0.08019385 -0.1404832 0.06023822 -0.007537798
0.015790077 0.17212524 -0.16858827 -0.034420718 -0.049043518 0.014751175 0.13815872 0.062418647
-0.10237319 -0.027282711 -0.090030216 -0.15632431 0.12053057 -0.16227971 0.14494844 -0.06868217
0.17185917 -0.04429913 -0.15255933 0.110206716 -0.0064092586 0.11595904 0.03551893 -0.15230894

m_transform.0.3.bias f4 [64]
00000000: 0340 953d a9fc 01be 624f 303e eb4b d5bd
00000010: 60d7 c33d def7 e93d d938 5f3b 1471 15bd
00000020: 596d e43d 6bd0 b5bd 01d5 f63a e86f 25bd
00000030: c96c 9bbd ee94 253e f612 0c3e f294 ac3d
00000040: 3902 3f3c d768 13bd 2a9c 32be f1a6 433c
00000050: 39dd b4bd ec9b 85bd ae0b a43c a94f 383c
00000060: eb09 abbd 14c1 01be 75c0 0d3e c651 a23d
00000070: 46af 90bd d37a b9bd 3951 bb3d 4b29 61bd
00000080: 4579 c23d c571 6abd 4298 d83d c870 203e
00000090: faec 42bd d7d3 9dbd 8ea7 25be 33dc 15be
000000a0: fbb4 fcbd 544c 36be 922d 183e 83cb 78bd
000000b0: 6b6d 5d3d 5b70 5abd 7670 a63d 2617 51bb
000000c0: 1184 14be 3440 81bd 46d6 183d 6470 2a3e
000000d0: 3d6d 20bd 35b9 103e 53ea 193d 25b4 6dbd
000000e0: 8fe5 8c3c 8165 f7bd 3f2d fcbd 260b a0bd
000000f0: aede 26bc e159 f33d d2c0 b43c 643c 07be
0.072876 -0.12694038 0.17217782 -0.10414871 0.09562564 0.1142423 0.0034060983 -0.036484793
0.11153669 -0.08877643 0.0018831791 -0.040389925 -0.075891085 0.16170093 0.13679108 0.084268466
0.011658245 -0.035988655 -0.17442384 0.011941657 -0.088312574 -0.0652388 0.0200251 0.011249461
-0.08351501 -0.1267131 0.13842948 0.07925753 -0.07064681 -0.0905663 0.09146351 -0.05497102
0.094957866 -0.057237405 0.10575916 0.15668023 -0.04758928 -0.07706421 -0.16177198 -0.1463478
-0.12339207 -0.17802554 0.14861134 -0.06074096 0.054059427 -0.053329807 0.08126919 -0.0031904667
-0.14503504 -0.06311074 0.037313722 0.16644436 -0.039166678 0.14133151 0.037576985 -0.058033127
0.017199306 -0.12079907 -0.123133175 -0.078146264 -0.010184927 0.118823774 0.0220646 -0.13206631

m_transform.0.5.running_mean f4 [32]
00000000: e7e6 d13d f8b4 6bbe 4d11 fa3d d8b2 973e
00000010: 29f5 a73f 70e5 2240 a260 723c a941 ebbe
00000020: 7ce2 7f3f f736 b13f 9899 c73e af1b ed3f
00000030: 6dd7 c7bc a8a0 08be 7285 0540 8d4c d03e
00000040: 0930 0840 8c41 f03f 8319 9d3b 56b5 38bc
00000050: 0955 603f 36de ee3d 4c2c 1b3e 08a8 0b40
00000060: 84ad b23e 2cd8 3ebe 8fdc cf3e e0e4 933f
00000070: 47ec d53f e639 723e b096 bb3e 19d5 b13e
0.10249119 -0.23018253 0.12210331 0.29628634 1.3121692 2.5452538 0.014793547 -0.45948532
0.9995496 1.3844899 0.3898437 1.8524073 -0.024394715 -0.13342535 2.0862699 0.40683404
2.1279318 1.8770003 0.004794301 -0.011273703 0.87629753 0.11663477 0.15153617 2.1821308
0.34898007 -0.1863715 0.4059796 1.1554222 1.6712731 0.23654899 0.36638403 0.34732893

m_transform.0.5.running_var f4 [32]
00000000: c4ea a93c 5fcc 3d3d b862 6f3d e1b0 293d
00000010: 320a 0d3f fd2d ba3f b59f 543d ef50 9b3d
00000020: 375a 363e b00c f33e e77f ef3d 3215 a33f
00000030: 7e31 1a3d 8db2 c03d 1196 a63f cbd9 253d
00000040: b5e6 903f 983f 353f 1ac1 5d3d e978 4c3d
00000050: 2c96 c83e 6396 9b3d f957 183d 0eed a33f
00000060: c9b4 af3d c19e d23d afde a53c 6c71 713e
00000070: 6ea0 3b3f aee6 413d e7ed 093e 66e3 9d3d
0.020741828 0.04633748 0.058443755 0.04142845 0.5509368 1.4545285 0.05191012 0.07583796
0.17807852 0.47470617 0.11694317 1.2740843 0.037644856 0.09409056 1.3014547 0.040490907
1.1320406 0.7080016 0.054139234 0.049919996 0.39177072 0.07597043 0.037193272 1.2806718
0.08579404 0.10284186 0.020247785 0.23578423 0.7329167 0.047339134 0.13469659 0.077093884

m_transform.0.6.weight f4 [96, 32, 3, 3]
00000000: 8e49 f93c d1ac 613c 5abf cc3c 6000 0abd
00000010: 834a ba3c bf61 66bc 44e6 073d 4fb0 973c
00000020: 5c1e 2cbd 00c4 1b3c 830c 8ebb 05d7 06bd
00000030: 4312 c9bc 5a2f febc 013e 21bb edba 09bc
00000040: bb68 0f3d 9aa2 7a3d afe6 17bd ea68 873c
00000050: 8978 92bc c62d 5d3c ca6a 4d3c e146 053d
00000060: 0f75 603c 3528 4cbc cdd7 4f3b 7c2c 233c
00000070: 7a2b 39bd a4aa 58bc 447f 4fbc e4c7 8b3c
00000080: 3c7d e63c 118e 6e3c 85c6 28bd ed63 b0bc
00000090: e278 86bd 28e6 8ebd 4524 a43c 64fc 1e3c
000000a0: 2707 6d3c af96 62bc f683 4e3d d365 f2bc
000000b0: ddde f4bb 007b 233d e045 20bd c0d6 a73c
000000c0: baa5 b0bc 1131 533c f774 80bd 7468 5dbd
000000d0: 567a 3abb e322 98bb 84df 513b d39e 59bd
000000e0: 4202 6bbc 727a b3ba 5aad 0b3d 4e9e b5bb
000000f0: ea0a 7fbd fd40 863c 11f9 093d 5dd6 303d
00000100: 8447 cdbb 01ea 763d 418b 093d b983 bbbc
00000110: c2af 3abd 0779 06bd 7e57 793d 00dd cabb
00000120: b935 9d3b 1b1b 6e3b 3621 143d 943e 883b
00000130: fcab eb3c 11d6 cebc ed6f 3cbd e3b9 f83c
00000140: 75a5 f6bc 7089 5e3b 1cbc cd3c 73b7 633d
00000150: 195e 5ebd 477c 073d ee72 3b3d 9cfc efbc
00000160: 396f 373d ebb8 1abd 9179 ef3c de63 cd3c
00000170: 0a87 8fbc e173 6cbd b056 cabc 89d8 26bd
00000180: 6b33 c9ba 670e 94bc 1fb2 b2bc d3c6 943b
00000190: c79a 1bbd c3dc db3c 408f 25bd 7658 7abc
000001a0: efb6 73bd 135f 3f3d ad47 39bd 02b6 043d
000001b0: 2b0e 173d 0278 263d 6e06 8c3b f2bc 51bc
000001c0: 467b 17bd 127e 97bc 2696 c2bc 9dbc cf3c
000001d0: 249e 173d bead 4f3d 254c bfbc da9a 823d
000001e0: 449b 923c 4977 37bd 29f3 1fbb d477 58bc
000001f0: 06bb 2c3d d73c cc3b 4ea4 963b 9feb 0bbd
00000200: e207 933c 3324 e03b 83e3 1a3d ae64 f83c
00000210: bf6a f9bb 5bc9 34bc 1469 243c aa83 2c3c
00000220: 6da0 5abd 0959 ee3c 91ad 28bd 56a6 b1bd
00000230: 1a42 84bd 39b1 223d f725 2bbc e215 1b3d
00000240: 52ee c0bc ebd6 39bd 3148 273d c61c cc3c
00000250: 9315 023c 18b4 63bd 9de4 2dbc 447d 0ebb
00000260: 407b 643c a18b 87bd a7d2 69bc ad32 00bd
00000270: 91eb 7bbb 81c7 5d3d b085 61bd f6f9 fd3c
00000280: 3a2c 033d 7284 8cbd f439 dbbc 9497 7cbb
00000290: de4b 10bc f921 043b 35f3 303d 3fac b23c
000002a0: 05e7 333d cd3e 123d 069f e1bc f02a 26bb
000002b0: eefd 78bc 6f6b 07bc c5df 2fbc 6ab1 d73c
000002c0: 6d43 9ebc d060 953c 62e7 acbb 0d16 263c
000002d0: cabc 53bd a7f5 10bc ca4b 363d a59b 01bd
000002e0: 7ae0 b93c bd2a 053d 8a2d 483d 2595 7dbd
000002f0: 768b 76bc ce60 50bd 3629 1b3d 485f 06bd
00000300: 7216 68bd 469d 4e3d 40b0 333d 6194 2abd
00000310: ff3c cf3c 9b45 893a d098 7a3d 2988 02bc
00000320: b202 76bc f804 023c b6c7 c03b 38cf 92bd
00000330: 7988 0b3c b4be 2fbd e5d1 48bc b8c2 e73c
00000340: f978 81bd 94d9 62bd ac25 06bd cf74 443d
00000350: 188d 733b 555c 27bd 4af4 67bd 58da 35bd
00000360: c321 143d dc88 60bd 11c2 82bd 2e0b 443d
00000370: b076 f2b9 19df 7abd efc1 bbbc 6e77 243d
00000380: 6446 54bc a8d4 f33b db94 673d 3f5a c63c
00000390: fa3e f43c bdda d9bc afd6 47bd 2db3 0dbd
000003a0: 16b8 e03c 0054 45bd 8dc8 f8bc 7772 03bd
000003b0: 5da6 733d c032 cdbc 151d a6bc 4935 413d
000003c0: a49f 343d 5de1 0d3d 3a47 17bc 3c0f 3cbc
000003d0: 24d2 86bd b1d8 2ebd d775 efbc 8cfb 09bd
000003e0: 64be e5bc 9ad2 523d a8d0 9f3a 205d 483d
000003f0: cc63 fdb9 4c0b 87bc 7b8c b4bc c272 0ebd
0.030430581 0.013774113 0.024993587 -0.033691764 0.022740608 -0.01406139 0.033178583 0.018516688
-0.04202114 0.009507179 -0.0043349876 -0.032919902 -0.02454484 -0.031028438 -0.0024603608 -0.008406383
0.035011988 0.061190225 -0.03708523 0.01652952 -0.017879741 0.013499683 0.0125376675 0.0325383
0.013699784 -0.012460758 0.003171432 0.009959336 -0.045207478 -0.013224278 -0.01266462 0.017063089
0.028135888 0.014560238 -0.041204948 -0.021532023 -0.06566025 -0.069774926 0.020036826 0.009703729
0.014467037 -0.013829871 0.050418817 -0.02958957 -0.0074728564 0.039912224 -0.039129138 0.020488143
-0.0215634 0.012890116 -0.06272309 -0.054054692 -0.0028454266 -0.0046428307 0.0032024095 -0.053129982
-0.0143438 -0.0013693108 0.034100868 -0.005542553 -0.062266268 0.01638841 0.033684794 0.043173183
-0.006264629 0.060281757 0.03358007 -0.022889959 -0.045577772 -0.032830264 0.060874455 -0.006190896
0.004797664 0.0036332074 0.036164485 0.0041578505 0.028768532 -0.02524856 -0.04600518 0.030362075
-0.030108193 0.003395643 0.025114112 0.055594873 -0.054288957 0.033077504 0.045763902 -0.029295258
0.044783805 -0.037774008 0.029232772 0.025072034 -0.017520446 -0.0577277 -0.024699539 -0.040733848
-0.0015350407 -0.018073274 -0.02181345 0.0045403033 -0.037989404 0.026838666 -0.040419817 -0.01527988
-0.05950063 0.04672153 -0.04523437 0.03240014 0.036878746 0.040641792 0.0042732274 -0.012801396
-0.036982797 -0.018492732 -0.023753237 0.025358493 0.03701605 0.050702803 -0.023351738 0.06377192
0.017896302 -0.044791494 -0.002440641 -0.013212163 0.042170547 0.0062328386 0.0045972234 -0.034160253
0.017948095 0.006840253 0.03781463 0.030321445 -0.007611602 -0.011034335 0.010034818 0.010529438
-0.05337565 0.02909519 -0.04118115 -0.08674304 -0.0645792 0.039719794 -0.010446063 0.037862666
-0.02355114 -0.045370977 0.04084033 0.024916064 0.007939714 -0.055591673 -0.010613588 -0.0021742145
0.013945401 -0.06618429 -0.014271415 -0.03129833 -0.003843997 0.05414534 -0.055059135 0.03100298
0.0320246 -0.068611994 -0.026761033 -0.0038542496 -0.008807151 0.002016185 0.04320069 0.021810649
0.04392149 0.035704423 -0.027541649 -0.0025355183 -0.01519726 -0.00826536 -0.010734503 0.026329715
-0.01931926 0.01823464 -0.0052766064 0.010137093 -0.051693715 -0.008847631 0.04450587 -0.031642575
0.022690047 0.03251146 0.048871554 -0.061909813 -0.0150478985 -0.05087357 0.0378811 -0.03280571
-0.05666203 0.050442956 0.043869257 -0.04164541 0.02529764 0.0010473015 0.06118089 -0.007967033
-0.015015291 0.007935755 0.0058831824 -0.0716843 0.008516424 -0.042906478 -0.012257074 0.028291091
-0.06321902 -0.05538328 -0.03275077 0.04796296 0.0037162956 -0.04085954 -0.056629457 -0.044397682
0.03616501 -0.05481802 -0.063846715 0.047862224 -0.00046246266 -0.06124792 -0.022919623 0.04015296
-0.012956236 0.007441122 0.056538444 0.024212955 0.029815186 -0.02659356 -0.048788723 -0.034594703
0.027431529 -0.04817581 -0.030369068 -0.032091584 0.05948483 -0.025048614 -0.02027754 0.047169957
0.044097558 0.03463875 -0.00923329 -0.0114782415 -0.0658305 -0.04268712 -0.029230995 -0.03368716
-0.028044887 0.051470377 0.0012192922 0.048916936 -0.00048330275 -0.016484879 -0.022039643 -0.03477741

m_transform.0.6.bias f4 [96]
00000000: 407a 593d 48a0 2abd 1c0d 6a3c f338 69bc
00000010: 77de f0bc 55cf ffbc 4791 1c3d 450f 77bc
00000020: 3f63 34bc 5476 693c 498c 04bd a7b1 27bd
00000030: b532 673c ef5c 263c 59d9 cc3b d00e a03c
00000040: 8e1b cabc 30e0 2d3d 228f c0bb 4b0b a5bd
00000050: e758 3abd a2be 98bd a013 6a3d 15f1 b93c
00000060: 7926 40bd 3035 073c b1d7 27bc e8d1 51bd
00000070: fce4 7c3c 973c ce3c 538b e53c 76e3 69bc
00000080: 1443 85bd 5094 3e3d 466d e43c 67d3 78bc
00000090: 8102 403d e653 61bd 1924 36b9 f818 7dbc
000000a0: 7d9e 80bd 226c aebb 9d19 29bd 3b78 52bd
000000b0: ea00 50bc 6513 2dbd fc2f 533d bcba aebc
000000c0: 3a6e 47bd 846d 843b f446 533c dd77 323d
000000d0: 98b1 513d 6a9f 193d f4d1 003d 5c17 c53b
000000e0: 9617 26bd 70ea fc3b 79ce 163c 2187 28bd
000000f0: d676 00bd 1865 61bc 1ae0 4fbd 532c f43c
00000100: 9381 313b 8d8b 00bd 0fd3 4a3c 693b a03d
00000110: cba6 1e3d 13b2 1bbc a44f 41bc 5bac afbc
00000120: cc21 943c b2bc 8a3b 3d0f bb3b db12 4d3c
00000130: 0d0f 8c3b 1f9b 32bc 2433 423d 927f 64bb
00000140: 3aec 903c cdb1 9bbc 4dc0 3e3d eddb 1fbb
00000150: 0ae5 1ebc f574 8fbc ed8f c63c a7bd b13c
00000160: f35e a03d f134 663d f2ee f6bc 07d5 043d
00000170: cb8c 043d f9b6 a3bb f47e 11bd eef4 27bd
0.053095102 -0.041656762 0.014285352 -0.014234769 -0.029402955 -0.031226793 0.038224485 -0.015079324
-0.01100999 0.014249403 -0.03236035 -0.040940907 0.014111211 0.010153993 0.006251496 0.019538313
-0.024671342 0.04245013 -0.0058764378 -0.080587946 -0.04549494 -0.07458235 0.057147622 0.022697965
-0.04691169 0.008252427 -0.010244296 -0.051225573 0.0154354535 0.025175376 0.028020537 -0.014275422
-0.06506935 0.04652816 0.027884137 -0.015187121 0.046877388 -0.055011652 -0.0001737032 -0.015447848
-0.06280229 -0.005322949 -0.041284192 -0.051384192 -0.01269553 -0.042254824 0.051559433 -0.021329276
-0.048689105 0.0040413756 0.0128953345 0.04357134 0.051194757 0.037505545 0.031450227 0.0060147475
-0.040549837 0.007718377 0.0092045 -0.041144494 -0.03136333 -0.013757013 -0.05075083 0.029806292
0.002708529 -0.031383086 0.012379422 0.078238316 0.038733285 -0.009502905 -0.011798773 -0.02144449
0.018082522 0.00423392 0.0057086037 0.0125167025 0.004274255 -0.010901242 0.047412053 -0.0034866077
0.017690767 -0.01900568 0.04657011 -0.002439256 -0.009698162 -0.017511824 0.024238551 0.021696879
0.0783061 0.056202833 -0.030143235 0.03242972 0.032360833 -0.0049961773 -0.035521463 -0.041005068

m_transform.0.9.running_mean f4 [48]
00000000: af03 db3f a12d 3b3f b195 8d3f 9a2e a63f
00000010: a393 473f b2c9 453f b686 aa3f 9550 3c3f
00000020: 4180 853f a4f4 6d3f 9630 6e3f 358e ad3f
00000030: 5d01 783f d9d8 953f bb39 1f3f 7b09 223f
00000040: 2462 1f3f cd8c a43f 2b3c 393f f3a2 103f
00000050: d033 1e3f bdf1 3e3f 48df 873f 1070 963f
00000060: a545 263f 7e0f 6d3f 58fc 353f 1789 5a3f
00000070: 079c 463f dff5 603f 2ce3 173f 56c6 553f
00000080: 14a2 343f e992 723f e581 a43f 4932 7c3f
00000090: a402 c33f 5275 5f3f e9d9 d23f 0657 5e3f
000000a0: 4d9a 103f fd16 2d3f 1e85 873f ee3b 2d3f
000000b0: aacb 683f 7bf1 223f 48ba 123f 54e6 6e3f
1.7110499 0.731165 1.1061307 1.2982972 0.7795965 0.7726089 1.332236 0.7356046
1.0429765 0.92951417 0.93042886 1.3559023 0.9687708 1.1706802 0.62197465 0.63295716
0.62259126 1.2855469 0.72357434 0.5649864 0.6179781 0.74587613 1.0615015 1.1752949
0.6495002 0.92601764 0.7108817 0.8536543 0.7758183 0.8787517 0.5933101 0.8350576
0.7055981 0.9475542 1.2852141 0.9851423 1.5235181 0.8728839 1.6472751 0.8685154
0.56485444 0.676132 1.0587499 0.6766957 0.90935767 0.6364972 0.5731549 0.933202

m_transform.0.9.running_var f4 [48]
00000000: ff43 743f 61fd 0b3f ccca d93f 9865 0b3f
00000010: 7ddc 2f3f 6828 bb3e a720 3d3f a7f5 0940
00000020: 4e32 a23f 4e3a e43e e10e 853e f843 1c40
00000030: 57c8 943f 1e22 843f 4d14 9c3f d29a 683e
00000040: 6e78 bb3e fa26 ff3e 6708 533e f7df c33e
00000050: 157c 923e 031e a43e a750 2a3f ec3b 3c3f
00000060: 1b36 d23e 5c43 493e cbbc be3e 8bb8 513f
00000070: eb64 0d40 9fc4 1f3f 52a6 a23e 23c0 2f3f
00000080: b8bd ee3e 83b6 d33e 41e5 803f 4762 0d3f
00000090: e53b 0a3f de42 b53e d786 823f 4c9a d63e
000000a0: 3670 283f efa1 823f 1923 fb3e 756e 153f
000000b0: 10c5 8e3e 8972 873e 9414 a63e f68e 2f3f
0.95416254 0.546835 1.7015014 0.54451895 0.68695813 0.36554265 0.7387795 2.1556184
1.2671602 0.44575733 0.25987914 2.4416485 1.1623639 1.0322912 1.2193695 0.2271531
0.36615318 0.49834424 0.20608674 0.3825681 0.28610292 0.32054147 0.66529316 0.73528934
0.41056904 0.19654602 0.37253413 0.81922215 2.2092845 0.62409395 0.31767517 0.6865255
0.4662912 0.41350183 1.0069963 0.55228084 0.5399764 0.35402578 1.01974 0.41914594
0.6579622 1.0205668 0.49050215 0.5837167 0.27884722 0.2645457 0.32437575 0.68577516

m_transform.0.10.weight f4 [96, 48, 1, 1]
00000000: f549 993d 3c82 69bd da8a e73a 173b 86bb
00000010: ea3b b3bc 3bd2 04be c10e a8bd a81d f03d
00000020: 29df e9bd 2cb3 dcbb be02 10bd c6c6 e03d
00000030: 7632 b0bb aa19 89bd 6d95 26bd 091e d43d
00000040: 8eab a53c 4ec6 263d e97d 1bbd b599 f4bd
00000050: 45f9 593d 25cb 0cbe 8fee 07bd affa 47bd
00000060: 5eaa f1bd 238d 90bd 5429 0fbc 4e33 493c
00000070: e17f bc3d 0af5 743c 6dd9 0c3e 49bc e53b
00000080: a6de e1bd db34 81bd 9c21 e83c f0c3 193e
00000090: 0241 943d 74f9 afbc 60d5 73bd 7e32 a53d
000000a0: c6ba f93c 4b98 9a3c 9db8 90bd e009 043e
000000b0: 0b21 78bd ac2c 25bd 5c39 29bd fe3f 513d
000000c0: 4e03 8a3d 6072 8f3d f829 243d 4841 14bd
000000d0: 391b a7bb 4479 963d a8f5 b4bc 5641 09bd
000000e0: 9f28 07be 7e28 a7bb 042c f93d f2bb 60bd
000000f0: b12f b43d 593d a73d 87c1 b83c f49b c1bc
00000100: 3dcd e9bd 64cd e93d 6707 03bc 5829 803d
00000110: 35e4 133d a7e4 e03d 1d3a 9dbc 7c2c f83d
00000120: bbbc dabd 6f86 d9bc f1ae 483c 5a4b 3ebc
00000130: 0294 99bd 83de 873c ee21 d0bc 28d4 e1bd
00000140: 3345 f7bc bfef 0bbe 8694 88bd 81e3 8d3d
00000150: bb82 c0bc 0abd 0b3e 3af6 adbd fc08 04be
00000160: 587b 09be 4c9c 863d 7c6e 323d b915 c03c
00000170: 36bc 023e 28b2 cdbd 8db9 de3d 42a2 393d
00000180: 093b 673c 61d2 ce3d aff2 85bd dcf5 0d3e
00000190: 2b93 16be c648 8d3d 0002 8bbc 8243 44bd
000001a0: 05bd e43d 1879 813d f45a d03d 536e 913d
000001b0: aff7 19bd c6e8 c4bc 769a ca3b e2a2 ea3b
000001c0: a4fc e4bd 4b8c 993d 7804 1e3d 9ec4 743d
000001d0: c690 343c fb9d 973d efe2 d83d 4fae d23d
000001e0: 7054 b4bd 594a fc3d 7f97 44be 4313 803c
000001f0: 110f 813d 4b3e 203c 3171 ffbc bf09 d6bd
00000200: 8ac2 c9bd 0e7f 943d 7dc3 113e 88aa 71bd
00000210: 386e 0cbe 3734 67bd ce28 123e 1a15 e13d
00000220: 72dc 7f3c 0d09 3fbd bf4b 503c ec40 07be
00000230: acfe 1ebc cf5b 13be 48b0 9b3d 3efc dabd
00000240: e90b 39bd 9ab6 e03d 0901 0bbc cd74 e8bd
00000250: f300 673d 2f4f fa3c d01c ccbd 2a2c d2bd
00000260: 8b84 05be 7805 05be e36c 7dbd 4dd5 b4bd
00000270: 8a07 a6bd 12c7 9e3d 07a8 b43d 5f1a eebd
00000280: 5954 4d3d 439b 17bd 037e 9f3b 9272 b33d
00000290: b2aa ecbd 9f18 76bc 22ec fabc bf00 8b3d
000002a0: b9c7 833d d445 cebd 910f 363d b4b9 bb3d
000002b0: 7e34 f8bd af09 b83c d187 0abe 9519 9cbb
000002c0: 3c3c e3bd d781 5c3d 0d69 b23d 9854 0b3e
000002d0: 30db 3abc 5db3 ed3d b072 f93d 1247 663d
000002e0: 4c89 c93d 956a 8abd 0f2e f8bd 318e 08be
000002f0: c87e d5bd a3cc e6bd 211c c23d 62f0 cc3d
00000300: 3c0f 9e3d 1363 523d 9e51 3f3d 22ba bc3d
00000310: c133 113e 150f 80bd 6720 ba3b 92a8 b03d
00000320: 5afc 0e3e 2538 cfbb daca 303d d6a5 29bd
00000330: a4a2 7a3d 170b 08be f0c0 333d d291 bd3c
00000340: 1bd7 843d 36ec e73d d3cf 1dbd 294d 043b
00000350: 6f07 043d 2122 68bd 56d0 a83c 0e6c 1f3e
00000360: 345d 123d 3656 0a3e 42c6 95bd b92c 6cbd
00000370: a1f3 3fbd abdd 763d 4820 013d bff6 983c
00000380: 170d 1c3d dfa1 863d 8b2c 8a3d 08df b2bd
00000390: a7ce c43c 6935 ddbc 1dfb e43d f35d 963b
000003a0: 3e2b debd 0cef b5bc 31ae 88bd 2188 b73c
000003b0: fe15 d2bb 378c 4c3c a05c 4dbd fdb4 bfbd
000003c0: 112d e23d 0728 03bc 2ca8 eebb 8194 cc3d
000003d0: 3c54 a53c abba 423d e027 903d f07f cdbd
000003e0: 860f db3d f53e 5bbd 9f5c 553d bfc7 97bd
000003f0: faf4 18bd ab19 1dbe 84e1 44bd 2484 a0bc
0.07484809 -0.057008967 0.0017665282 -0.0040963995 -0.021879155 -0.12970822 -0.08205939 0.117244065
-0.114195175 -0.006735226 -0.035158865 0.10975413 -0.005377109 -0.06694348 -0.040669847 0.10357291
0.020223405 0.04071646 -0.037961874 -0.1194338 0.053216238 -0.13749368 -0.03318649 -0.048823055
-0.11800073 -0.0705817 -0.008737881 0.012280298 0.092040785 0.014951 0.13754816 0.0070109707
-0.11028795 -0.063089095 0.028336339 0.1501615 0.07238962 -0.021481253 -0.059529662 0.08066271
0.030484568 0.018871447 -0.07066462 0.12894392 -0.060578387 -0.040325806 -0.041314468 0.05108642
0.067389116 0.07004237 0.040079087 -0.03619507 -0.0050996807 0.07347348 -0.022089794 -0.033509575
-0.1319909 -0.0051012626 0.121665984 -0.05486674 0.08798159 0.08165998 0.022553219 -0.023633935
-0.11416099 0.11416128 -0.00799737 0.06257886 0.036106307 0.10981112 -0.01919275 0.1211786
-0.10680529 -0.02655336 0.0122487405 -0.011614645 -0.074989334 0.016585594 -0.025406804 -0.11026794
-0.030184364 -0.13665675 -0.066689536 0.069281586 -0.023499837 0.13646331 -0.084942296 -0.12894052
-0.13425958 0.0657278 0.043562397 0.023447858 0.1276711 -0.10043746 0.10875235 0.045320757
0.014113196 0.1009872 -0.06540429 0.13863319 -0.14704578 0.06898646 -0.016968727 -0.047915943
0.11168865 0.06321925 0.10173598 0.07101121 -0.037589725 -0.024036776 0.006182964 0.0071605304
-0.11181 0.07497462 0.03857848 0.05975782 0.011020845 0.07403179 0.10590159 0.10287153
-0.08805168 0.12318868 -0.19198416 0.015634185 0.06301702 0.009780477 -0.031181904 -0.10451078
-0.098515585 0.07250796 0.14234729 -0.059000522 -0.1371392 -0.05644628 0.14273378 0.10990353
0.015616523 -0.04663949 0.012713372 -0.1320836 -0.009704273 -0.14390491 0.07601982 -0.10692643
-0.045177374 0.109723285 -0.0084841335 -0.11350403 0.05639739 0.030555336 -0.09966433 -0.1026233
-0.13038842 -0.12990367 -0.06187142 -0.088297464 -0.08106907 0.077528134 0.08821111 -0.11626124
0.05012927 -0.037013303 0.0048673167 0.08762087 -0.11555995 -0.015020519 -0.030630175 0.06787252
0.064345784 -0.100719124 0.04444844 0.091662794 -0.12119387 0.022465555 -0.13528372 -0.004763792
-0.11095473 0.053834762 0.08711443 0.13606489 -0.011404797 0.116064765 0.12180078 0.05622012
0.098406404 -0.0675861 -0.1211816 -0.13335492 -0.10424572 -0.112695 0.094780214 0.10006787
0.077177495 0.051364016 0.046708696 0.092151895 0.14179899 -0.06252877 0.005680132 0.08625902
0.13963452 -0.0063238316 0.043162204 -0.04141792 0.061190262 -0.1328548 0.04388517 0.023140822
0.064863406 0.113243505 -0.038528275 0.0020187593 0.03223365 -0.056673173 0.020607155 0.15568563
0.035733417 0.1350945 -0.07313205 -0.05765984 -0.046863202 0.060269993 0.031524926 0.018672345
0.03809842 0.06573843 0.06746777 -0.08733946 0.02402432 -0.027003007 0.111807086 0.0045888363
-0.108480915 -0.022208713 -0.066738494 0.022403779 -0.006411313 0.012484602 -0.050137162 -0.09360693
0.11043752 -0.008005149 -0.0072832312 0.09989262 0.020181768 0.0475413 0.070388556 -0.10034168
0.1069632 -0.053526837 0.052090283 -0.074111454 -0.037343003 -0.15341823 -0.04806663 -0.01959426

m_transform.0.10.bias f4 [96]
00000000: fa56 c83d 76b6 8dbd 0c37 cdbd fd90 b33c
00000010: 307d 143d 532f de3d 5b70 59bd a70e 09bd
00000020: 4e74 61bd cc97 1c3e 8ce1 d53d d6da 613d
00000030: c515 89bd 5cf3 8fbb 3d0c c43c 4bbb 0dbc
00000040: a1e0 063d 0cd5 f63d d6c5 c1bd 779c 8cbd
00000050: 9898 e43c 2dfe 103d b286 b13d 351f 063e
00000060: 806f be3c 59c7 7fbd d477 5bbd f016 e23d
00000070: 34a8 65bd 1535 d63d 20f3 363d 5abe b8bd
00000080: e901 02bc ae84 9abb aa8f ccbd 9b3f 133d
00000090: 9456 63bd 1098 0bbe 4be0 263d 868e fcbd
000000a0: 9175 df3d 1133 bfbd 5d82 3cbc a8d8 f9bd
000000b0: e949 203d 9208 823d 9795 d8bd 64d5 063e
000000c0: f909 1fbe 885d 633d aed9 083e 1594 0e3e
000000d0: 772e 31bd 61d9 033d dda4 cabd 11d8 bebc
000000e0: 7f64 9b3d d8aa f93d 4d19 803c 21f8 cd3d
000000f0: e1c8 8d3d 2723 f0bd c75c 8a3c c03d b53d
00000100: b305 aabd 7f0a d4bd 51f6 83bd 3114 d43d
00000110: 87e2 4c3d ee4d d5bd d5f1 3f3d ebf9 cbbb
00000120: db30 8abd f444 ce3d 85aa 193e 3dc3 be3d
00000130: 5107 27bd 9d07 a63d 0385 b83d fc53 babd
00000140: b773 013e d3b5 03be da44 48bb 7414 673d
00000150: 71c3 02bb 1ef7 47bd 2d74 96bd 48a0 2dbd
00000160: 6e94 c03d 2419 ac3d 0450 863d 943d 8f3d
00000170: 41c9 86bd 60e3 a7bb c1dc 1fbd 6a92 39bd
0.097822145 -0.06919567 -0.10020265 0.021919722 0.0362522 0.1084887 -0.053085666 -0.03346124
-0.055042557 0.15292281 0.1044341 0.05514034 -0.06693605 -0.0043930244 0.023931617 -0.008650611
0.032929067 0.12052354 -0.09461562 -0.06865781 0.027904794 0.03539865 0.08668269 0.13097842
0.023246527 -0.062445972 -0.053581074 0.11039531 -0.056068614 0.10459343 0.044665456 -0.09020682
-0.007935026 -0.0047155237 -0.09988339 0.03594933 -0.05550249 -0.13632226 0.040741246 -0.12331872
0.10911096 -0.09335912 -0.01150569 -0.12199527 0.039132986 0.06349291 -0.10575407 0.1316734
-0.15531148 0.05550912 0.13364288 0.13923676 -0.043257203 0.03218973 -0.098947264 -0.023296388
0.075875275 0.12190789 0.015637064 0.100570925 0.0692308 -0.11725455 0.016889943 0.088496685
-0.08301868 -0.103535645 -0.064434655 0.10355414 0.05002072 -0.104152545 0.04686149 -0.006224861
-0.067476 0.100717455 0.15006454 0.093145825 -0.04077846 0.08106921 0.09009745 -0.0909805
0.12641798 -0.12862329 -0.0030558617 0.05641599 -0.0019952918 -0.048819654 -0.073463775 -0.042389184
0.09403311 0.08403233 0.065582305 0.06994167 -0.06581355 -0.0051235408 -0.039028887 -0.045305647

m_transform.0.12.running_mean f4 [48]
00000000: df11 cc3e 3f2b fc3e c4fe 323f 5347 c13e
00000010: 2c5e b63e 745e 7f3e 2ed2 d13e 6c94 433e
00000020: 7e5c 923e fd85 ff3e b046 fd3e 3d37 ba3e
00000030: 5229 f13e d9ae 533e 9924 813e 6003 b63e
00000040: c16e 8d3e f2c6 dd3e a2e2 b13e f076 ab3e
00000050: ea4d b33e c052 a43e 6d72 0f3f 91de c13e
00000060: b149 9f3e 279c d53e 51b3 9f3e 8679 fd3e
00000070: 451e 883e 14df ea3e a2d5 d73e ea33 9b3e
00000080: 4a65 cf3e d9cc 853e c8b8 2f3f 1106 1c3f
00000090: 0e9c d63e 4e5e 063e cd7b 823e 6b8a 223e
000000a0: e68a c33e 679e 8e3e d632 ae3e c76b aa3e
000000b0: 1432 9d3e efd9 e23e 3749 963e 89ce 143f
0.39857385 0.49251744 0.6991999 0.3774973 0.35618722 0.24938375 0.40980667 0.19099587
0.2858619 0.49906912 0.49467993 0.36370268 0.47101837 0.20672168 0.25223234 0.3554945
0.2762356 0.43315846 0.3474322 0.3348918 0.3502038 0.32094383 0.56033975 0.37865117
0.3111091 0.41720697 0.31191495 0.49506778 0.26585594 0.4587332 0.42155176 0.30313045
0.40506965 0.2613285 0.6864133 0.60946757 0.41915935 0.13121912 0.25485078 0.15873115
0.3819191 0.27855226 0.3402316 0.33285353 0.3070227 0.44306895 0.29352733 0.5812765

m_transform.0.12.running_var f4 [48]
00000000: a0dd 1e3e 9404 423e 0415 063f d9c7 be3d
00000010: 0885 1c3e 018f 3d3e 3704 203e 25ee 883e
00000020: c735 fa3d 6a5a 533e c799 8d3e c646 d93e
00000030: d443 c13e 6765 df3e 1209 113e 4a77 133f
00000040: a378 523e 4cd4 1b3f 3398 8f3e 9a3b 963e
00000050: eff5 423e dc23 763e 2e30 aa3e c546 293e
00000060: bfc9 3d3e 5ee8 153e a890 353e c9cd 423e
00000070: e9ec 0c3e 7c2c 6f3e 7b5d 113e cc02 6f3e
00000080: 56b7 6a3e bf5b 563e 1c97 ac3e f486 c33e
00000090: c8d7 833e 48a9 9e3e 05c4 2e3e 8eef a93e
000000a0: d608 b63e 6172 463e 0ddc 6d3e 0d62 8d3e
000000b0: 1f0d 043f b918 a63e b39a 023e 21ae 513e
0.1551423 0.18947059 0.5237582 0.09315462 0.15285122 0.18511583 0.15626608 0.2674419
0.122172885 0.20639959 0.27656385 0.42436808 0.3774706 0.4363205 0.14163616 0.57603896
0.20553832 0.60870814 0.28045806 0.29342347 0.19039129 0.24037117 0.33239883 0.16530903
0.18533991 0.14639422 0.17730963 0.19023813 0.13762249 0.23356813 0.14195816 0.2334091
0.229215 0.20933436 0.33709037 0.381889 0.25750566 0.30988526 0.17066963 0.33190578
0.35553616 0.1937957 0.23228474 0.2761387 0.5158252 0.32440737 0.12754326 0.20476581

m_transform.0.13.weight f4 [128, 48, 3, 3]
00000000: 6675 85bc 6019 423d f430 463c 9afe 043d
00000010: 9f2e 263c 95e3 343c 0c13 5e3d a2fd f13c
00000020: 3681 54bc 6101 5c3c a594 833d 4dbc c73c
00000030: 164f 043d 1059 813d 9ad5 2dbc 135a 183d
00000040: 46da c93b a595 373d 1c79 a33c 204a febc
00000050: 0411 9e3c e1f7 5bbb 2a0f 743b 55c2 f63b
00000060: 694c 27bd b06b 7d3d adae 503d fecb 06bd
00000070: bc6b b63c e38c 003d ff9f 0abd a90c f9bb
00000080: b30d e5bc 8076 193d b31d 493d 0be3 b63b
00000090: 3f8d 083d c03c d6bc 4ebc 7f3d f832 5cbd
000000a0: 9be7 ec3b 47fb be3c 5769 1ebd 7df6 f8b8
000000b0: c476 773c 4bc8 a7bc 37e1 163d f153 b33c
000000c0: 1cac cf3b 3dde 44bd a8ef 943d 5ebb f3bc
000000d0: d070 5abd 24dc 273d 4e2a f438 1095 e0bc
000000e0: bdfa 883c f1f8 4dbc 1678 373d 5b49 f439
000000f0: 0ab4 00bd db38 7c3d c698 623d 113a ec3c
00000100: 6ee8 073d f372 14bc 8de6 513b 9c76 b23c
00000110: 955c 183c 9b4b 04bd f5bf 993c 974f 343c
00000120: c2ba f0bc 7297 d43c 5a42 5e3d 393d d6bb
00000130: 4a4c 5bbb 08e4 e7bb c989 aa3c debf 41bc
00000140: fa0a 30bc dc11 68bc 8674 0bbd 788b 953d
00000150: 3310 5ebd 48df 64bd e059 193d 4360 7d3a
00000160: 1a93 483b 4934 91bb 0fd2 273c 9fbd a4bc
00000170: 654d c9bb bd7a a0bb 6da0 133c a29e 4e3d
00000180: 8092 1abd f2f1 a63c 5677 633d 67b0 623d
00000190: 29b6 843c cca6 5e3c ed23 a1bb 2814 01bd
000001a0: 403c 0b3c fd6a c63c de12 3e3d 2e98 973c
000001b0: a110 c13c f1d5 70bc b816 673b 4b76 bebc
000001c0: 0be5 643d f184 453d 9feb cfbc 7088 493d
000001d0: e973 1c3d 9141 08bd b519 99bc 6bf3 d1bb
000001e0: 5b1d bbbc 2ff5 fe3c c183 e2bc 774d 483d
000001f0: 253e 543d e0f5 f0bc 184f fcbc f51f 1abc
00000200: 894f 26bd 4a06 d6bb a88a 8c3c c7f8 b2bc
00000210: 36a3 7c3c 0611 533d 08f7 08bc d27a f93c
00000220: 7485 9c3c f896 433b 0aef 93bd c46c 843c
00000230: 8fa4 a9bc d6bd 00bc ecbb 353d cfc4 ff3c
00000240: fdc4 92bc de7b 083d 8f38 0d3d 25cf 29bd
00000250: 33fa 5e3d 42de e1bc 2351 b33b 9b50 4cbd
00000260: 4bdc 0c3a 012b b9bc 0d76 143d 51ca 003d
00000270: 11de 06bd bf97 57bc 2861 51bb d36e 963c
00000280: ae40 813d 3ecd febc 77de 793c d498 a03c
00000290: c45a dbba 2ac5 613d c4fc 3abd 106b d7bc
000002a0: 71ca 33bd a2e5 27bd 25eb d23c af72 e3bb
000002b0: 8cd3 043d e50b 6aba bfbc 123d aa3b bebc
000002c0: eb92 a3ba c45d 9e3b 6eb5 5e3d 341d 493a
000002d0: d1f8 54bd c07f 19bd d1c4 893d ba2d 19bd
000002e0: 20ec 9fbc 69cd 09bd 7851 da3b 406a d5bb
000002f0: 5861 84bc b248 153d 0fc8 18bd 8abb 90bc
00000300: 8042 30bd f38d 433c aaa0 c03c 4b12 183a
00000310: e244 e2ba 8ad0 3a3d 1751 023d a2d0 243c
00000320: a639 123d 796e 9fbc 16b4 41bc 0fc4 9d3c
00000330: 2162 833c 4354 103c ed10 003c 3d3f 433d
00000340: 8561 fbbb f3c1 a9bc 0345 b6bc 80de 5c3d
00000350: 5e6d 8bbc 47bf c23b 9b57 333d ed1d 64bd
00000360: 52ea a7bb 9f8e 803c 64dd 9e3c 1a23 e73c
00000370: b65f f23b 834d 12bd 1c58 dbbc 337e c7bb
00000380: e59b 013d 8425 89bd d31d b03c cfae 0f3d
00000390: 65af 89bd d3c8 d03c 871b 893d 8b6c 78bb
000003a0: 6be0 dd3c a335 56bc b59a 5fbd 1a48 ce3c
000003b0: 017c 043d 10ee f4bc a279 473d 01d4 47bb
000003c0: ebde af3c 2f82 dd3c f185 973c e45f b53c
000003d0: 2bd3 48bd 7bce 8cbc 0349 46bd 8c08 523d
000003e0: 3136 163d 141a 3fbd 7db7 b3bc 731a b63b
000003f0: a219 5e3c e4d9 6538 5d9f 0f3d 7f0b 2abd
-0.016291331 0.04738748 0.012096632 0.03246937 0.010142951 0.011040588 0.054217383 0.029539887
-0.012970259 0.013428063 0.06424836 0.024381781 0.032301985 0.063158154 -0.010610009 0.037195276
0.0061600534 0.044820447 0.01995521 -0.031041205 0.019295223 -0.0033564495 0.0037240484 0.0075304904
-0.040844355 0.061870277 0.050947834 -0.032909386 0.022268169 0.03138436 -0.03384399 -0.007600386
-0.027960634 0.037466526 0.04910059 0.005581265 0.033337828 -0.026152015 0.06243544 -0.053759545
0.007229758 0.023313178 -0.03867468 -0.000118714735 0.0151039995 -0.02048125 0.036835875 0.021890612
0.0063376557 -0.048063505 0.07272273 -0.02975243 -0.053330243 0.040981427 0.000116427065 -0.027414829
0.016721124 -0.012571559 0.044792257 0.0004659396 -0.0314217 0.06157766 0.055321477 0.028836282
0.033180647 -0.009060609 0.0032028288 0.021785073 0.009299417 -0.032298665 0.01876829 0.011005304
-0.029385928 0.025951121 0.054262497 -0.00653806 -0.003346222 -0.007076744 0.020817654 -0.01182553
-0.0107448045 -0.014164414 -0.034046672 0.07301992 -0.054214668 -0.055877 0.037439227 0.0009665528
0.0030605257 -0.0044312817 0.010242953 -0.02010995 -0.0061432594 -0.004897444 0.009010416 0.050444253
-0.03773737 0.02037904 0.05553373 0.05534401 0.016200142 0.013589572 -0.0049176128 -0.031513363
0.008498251 0.024220938 0.046404712 0.018505182 0.0235675 -0.014699445 0.0035261344 -0.023249766
0.055882495 0.048222486 -0.025380908 0.049202383 0.038196478 -0.033265654 -0.018689016 -0.0064071915
-0.022841146 0.031122772 -0.027650716 0.048902 0.05181708 -0.029414117 -0.030799434 -0.009407033
-0.040603194 -0.0065315114 0.01715596 -0.021847142 0.015419772 0.051529907 -0.008359678 0.030454073
0.019106604 0.0029844623 -0.072233275 0.016165145 -0.02070835 -0.00785776 0.04436867 0.031221775
-0.017916197 0.033321254 0.034477767 -0.041457314 0.054437827 -0.027571801 0.0054723187 -0.04988156
0.00053734024 -0.022603514 0.036245394 0.031442944 -0.032926623 -0.013158738 -0.0031948779 0.018363392
0.06311165 -0.031103726 0.015250794 0.019604124 -0.0016735424 0.05511967 -0.045651212 -0.026296169
-0.043894235 -0.04099048 0.025746891 -0.0069411616 0.03242831 -0.0008928164 0.035824534 -0.02322181
-0.0012479698 0.004832955 0.054372244 0.0007671893 -0.051995102 -0.037475348 0.06726993 -0.037397124
-0.019521773 -0.03364316 0.006662544 -0.00651291 -0.016159698 0.03644628 -0.037300166 -0.01766755
-0.04303217 0.011935699 0.02351411 0.00058010657 -0.001726296 0.045609035 0.031815615 0.010059508
0.03569951 -0.019461857 -0.011822721 0.019258527 0.016038002 0.008809152 0.007816535 0.04766773
-0.0076715373 -0.020722365 -0.022249704 0.05392313 -0.017019924 0.005943212 0.04378472 -0.055692602
-0.0051243687 0.015693007 0.019392677 0.02821498 0.0073966635 -0.035718452 -0.026775412 -0.006088042
0.031642813 -0.06696609 0.021498596 0.03507882 -0.06722907 0.025486385 0.066947035 -0.0037906494
0.02708455 -0.013074311 -0.0545909 0.025180865 0.03234482 -0.029898673 0.048699982 -0.0030491354
0.0214686 0.027039615 0.018496485 0.02214045 -0.04902951 -0.017188301 -0.048409473 0.051277682
0.036672775 -0.04665573 -0.02193808 0.005557352 0.013555916 5.480078e-05 0.03506409 -0.04151487
