Auxillary Code/LCNN/project/03-asvspoof-mega/spec2-lcnn-attention-am/01/__pretrained/trained_network.pt (torch, 760388 bytes, 35 tensors)

m_transform.0.0.weight f4 [257, 60]
0	0x3d6f06b6	0.05835601
1	0xbb418ddb	-0.0029534015
2	0x3ccdd2a9	0.025124865
3	0xbce19553	-0.027537024
4	0xbd300274	-0.04297109
5	0x3d04d6a7	0.03243127
6	0x3b372096	0.0027943007
7	0x3cd3046a	0.02575894
8	0x3d1e16fa	0.03859613
9	0xbbd02db0	-0.0063531026
10	0x3cf9dae6	0.030499887
11	0x3b824a9d	0.0039761798
12	0x3ce0245b	0.027361086
13	0x3ce5c54f	0.028048186
14	0x3d27a8c1	0.04093242
15	0x3d4b4b76	0.049632512
16	0xbcf0fe11	-0.029418023
17	0x3d749d4b	0.05972032
18	0x3d216427	0.039402153
19	0x3d95afde	0.07308935
20	0x3c73deb5	0.01488464
21	0x3c2e227d	0.01062834
22	0xbc9f2147	-0.019425048
23	0x3d3306ba	0.043707587
24	0x3d171c1b	0.036892038
25	0x3d479454	0.04872544
26	0x3d67290f	0.05643564
27	0x3d4294a7	0.047505047
28	0xb9979906	-0.00028914976
29	0xbcf0f7a2	-0.029414956
30	0x3cfdcb22	0.03098065
31	0x3ce90513	0.028444802
32	0x3d204d82	0.039136417
33	0xb9836468	-0.00025061076
34	0xbc230688	-0.009950288
35	0x3cb45b41	0.02201617
36	0xbd5c27ee	-0.053749017
37	0xb967fdf0	-0.00022124476
38	0x3c164075	0.009170641
39	0x3b51256d	0.0031913177
40	0xb99e9724	-0.00030248717
41	0x3d6d0f96	0.057876192
42	0xbc15fb32	-0.009154128
43	0xbc69951d	-0.014256743
44	0xbcb2167d	-0.021739239
45	0x3bd5ac15	0.006520758
46	0xbc870ae7	-0.01648469
47	0xbd21a13c	-0.039460406
48	0xbc50e08d	-0.01274885
49	0x3a9f059f	0.0012132413
50	0x3bb710c8	0.0055867173
51	0x3d672ebd	0.056441057
52	0xbc790da6	-0.015201008
53	0x3b8664e5	0.004101383
54	0xbce85904	-0.028362758
55	0xbd0ed6e4	-0.034872904
56	0x3d0de811	0.034645144
57	0x3cd73ae1	0.026273193
58	0xbc720510	-0.014771715
59	0x36b5c23b	5.4168318e-06
60	0x3e96136d	0.29311696
61	0xbb2f8cf7	-0.0026786902
62	0x3c29d84f	0.010366513
63	0xbc4b2559	-0.012399041
64	0xbd34a3fa	-0.044101693
65	0x3da275ab	0.079326
66	0xbc9928d3	-0.018696224
67	0x3c376576	0.011193624
68	0x3cd88174	0.026428916
69	0x3d2f9715	0.042868692
70	0x3d030984	0.031991497
71	0x3cbeb0bc	0.023277633
72	0x3ca35f1e	0.019942816
73	0x3cab2d98	0.020895764
74	0x3cdeb6ce	0.027186777
75	0x3c958104	0.018249996
76	0xbd045b3f	-0.03231358
77	0x3cb37fa0	0.021911442
78	0x3d40e5aa	0.047094025
79	0x3dcbf8db	0.09959575
80	0xbb6a91ec	-0.0035792543
81	0x3c414ed7	0.011798582
82	0x3be22408	0.006901268
83	0x3ca976f5	0.020686606
84	0x3cb8b96f	0.02254936
85	0x3d859738	0.06522983
86	0x3cd91724	0.026500292
87	0x3d66d47d	0.05635499
88	0xbcdeb7b1	-0.0271872
89	0xbc9ff1be	-0.019524451
90	0x3cd28493	0.025697982
91	0x3cb3251e	0.021868285
92	0x3d7ed483	0.062214386
93	0x3d271ac6	0.040797018
94	0x3cc848f8	0.024448857
95	0x3c1cb96e	0.009565694
96	0xbc4e342c	-0.012585681
97	0x3c681a78	0.014166467
98	0x3b97c723	0.0046318932
99	0x3c48bbf4	0.012251843
100	0xbc35b3b2	-0.011090206
101	0x3d494294	0.04913576
102	0x3d1f1faa	0.038848557
103	0xbc8a74d0	-0.016901404
104	0xbc0783d4	-0.008271176
105	0xbd353bbf	-0.04424643
106	0xbccea6fd	-0.02522611
107	0xbd6881c3	-0.056764375
108	0x3ccaf7cf	0.024776367
109	0x3cf1b970	0.029507369
110	0xbd24a42c	-0.04019563
111	0x3d2e972a	0.04262463
112	0x3ccbd69d	0.024882609
113	0x3cea923b	0.028634181
114	0xbd888521	-0.06666017
115	0x3cb88cdd	0.022528106
116	0x3d06f6ad	0.032950092
117	0xbc844bec	-0.016149484
118	0xbd6448fa	-0.05573366
119	0x3c8ce90a	0.017200965
120	0x3f07a993	0.52993125
121	0xbcacaa25	-0.021077225
122	0xbb8746c7	-0.0041283104
123	0xbcb70696	-0.022342008
124	0xbd88274e	-0.06648122
125	0x3d55b186	0.052171253
126	0xbc3b4131	-0.011429117
127	0x3c7df2e9	0.015499809
128	0x3c9deb24	0.019277163
129	0x3d07489a	0.033028223
130	0x3cc73741	0.02431834
131	0x3c50f5fc	0.01275396
132	0x3d25ccd4	0.040478542
133	0x3bc1dc20	0.0059161335
134	0x3c37c1ec	0.011215668
135	0xbc726cac	-0.014796417
136	0xbced7cf2	-0.028990243
137	0x3b802438	0.0039105676
138	0x3c9015c3	0.017588502
139	0x3d8c07cf	0.06837427
140	0xbc08fa6e	-0.008360488
141	0x39883ff2	0.00025987584
142	0x3cf4b49e	0.029871281
143	0xbbaffb08	-0.0053705014
144	0x3c301e9a	0.0107494835
145	0x3d5bfd3d	0.053708304
146	0x3c8848f7	0.016636355
147	0x3cefcc6f	0.029272286
148	0xbceec4f0	-0.029146641
149	0xbc3203d1	-0.010865168
150	0x3cb006f7	0.021487696
151	0x3cb40296	0.02197389
152	0x3d3f1038	0.046646327
153	0x3d5f1b34	0.054469302
154	0x3cc259ea	0.023724515
155	0xbc64396e	-0.013929708
156	0xbc1928da	-0.009348119
157	0xbc0fa260	-0.008766741
158	0x3bc0c388	0.005882684
159	0x3c0797f3	0.008275974
160	0xbb48137e	-0.0030529196
161	0x3d1f1c53	0.03884537
162	0x3d1ee105	0.038788814
163	0xbc6d328d	-0.014477384
164	0x3c37f36a	0.011227468
165	0xbd1b9704	-0.037985817
166	0xbd059bd1	-0.0326193
167	0xbd6d601e	-0.057952993
168	0x3ceddaac	0.029034935
169	0x3ccefc3c	0.02526676
170	0xbd22de67	-0.03976288
171	0x3d07f0ad	0.03318851
172	0x3ce9653e	0.028490659
173	0x3d03b6de	0.032156818
174	0xbd8a4038	-0.0675053
175	0x3ce22064	0.027603336
176	0x3cefc39a	0.029268075
177	0xbcc0a93d	-0.0235182
178	0xbd3c5fda	-0.04598985
179	0xb737b8ff	-1.0950723e-05
180	0x3f428cf7	0.75996345
181	0xbd0fc1b4	-0.03509684
182	0xbba9e445	-0.0051846826
183	0xbca99d56	-0.020704906
184	0xbd78c8c1	-0.06073833
185	0x3cbb3f02	0.022857193
186	0xbc637727	-0.013883389
187	0x3c54ab43	0.012980285
188	0xbb9f8dbf	-0.0048691924
189	0x3c4613c5	0.012089674
190	0x3c5fd060	0.01366052
191	0x3bebc0ef	0.0071946303
192	0x3d5c52c8	0.053789884
193	0xbbe332e4	-0.006933557
194	0x3c7ebdde	0.015548198
195	0xbcca02ed	-0.024659598
196	0xbcc5a6ce	-0.02412739
197	0xbc3c0577	-0.011475912
198	0xbc473371	-0.012158261
199	0x3cf18fd6	0.029487532
200	0xbc832759	-0.016009973
201	0xbc54f660	-0.0129981935
202	0x3d4146a2	0.0471865
203	0xbcd51762	-0.026012126
204	0x3b8af1f7	0.0042402702
205	0x3d220cf8	0.03956315
206	0x3ba21694	0.004946539
207	0x3c9af0c5	0.018913636
208	0xbcc1bac0	-0.02364862
209	0xbc9047e9	-0.017612414
210	0x3c72ba07	0.01481486
211	0x3cc694fb	0.024240961
212	0x3d075a5d	0.03304516
213	0x3d65537d	0.055987824
214	0x3c4c50d6	0.012470445
215	0xbce35b9f	-0.02775365
216	0xbc1a8fd6	-0.009433707
217	0xbd11e8d7	-0.035622444
218	0x3c531722	0.012883933
219	0x3c85f5b9	0.016352521
220	0x3b476de3	0.0030430488
221	0x3cbf3a56	0.023343246
222	0x3d06ed6a	0.03294126
223	0xbc3f96c0	-0.011693656
224	0x3c8c4125	0.017120907
225	0xbca8c8f3	-0.020603633
226	0xbd16a777	-0.0367808
227	0xbd605160	-0.054765105
228	0x3d05a513	0.03262813
229	0x3ce970b0	0.028496116
230	0xbca13de0	-0.019682825
231	0x3caef49c	0.021356873
232	0x3cd0a001	0.02546692
233	0x3c407e4b	0.011748861
234	0xbd5c5795	-0.053794462
235	0x3ccae31f	0.024766503
236	0x3cd7c732	0.0263401
237	0xbbd4f3d4	-0.006498793
238	0xbcf942f3	-0.030427432
239	0xbc048bb5	-0.008089949
240	0x3f74b9a6	0.9559578
241	0xbd14b54e	-0.036305718
242	0xba5e86c8	-0.0008488712
243	0xbb3c0ec2	-0.002869532
244	0xbc6938f3	-0.014234769
245	0x3acf579a	0.0015818954
246	0xbb531b51	-0.0032212327
247	0x3c619898	0.013769291
248	0xbd064335	-0.032778937
249	0x3b1eb20d	0.0024215013
250	0x3c20bb7e	0.009810327
251	0x3c1f8824	0.009737048
252	0x3c93ca9d	0.01804095
253	0xbc8fa21b	-0.017533353
254	0x3d04ed59	0.032452915
255	0xbc944328	-0.018098429

m_transform.0.1.weight f4 [64, 1, 5, 5]
0	0x3dc31f3c	0.09527442
1	0xbdafab8e	-0.08577643
2	0xbd888d58	-0.06667584
3	0x3dce56b2	0.100751296
4	0xbe601f77	-0.21887003
5	0x3ded8ccf	0.11599123
6	0xbd395d7e	-0.045255177
7	0x3d95b42c	0.07309756
8	0x3d107a08	0.035272628
9	0xbd0d7b45	-0.034541387
10	0x3d9eb3e0	0.07749152
11	0x3cf916eb	0.030406436
12	0x3d953687	0.07285791
13	0xbd176ac4	-0.036967054
14	0x3c89e77c	0.016834013
15	0xbca4acfa	-0.020102013
16	0x3cce8b46	0.025212895
17	0xbd308811	-0.043098513
18	0x3e3dce5d	0.18535753
19	0x3d8f8dbe	0.07009457
20	0xbdb5b9a0	-0.08873296
21	0xbdf15edc	-0.11785671
22	0xbd923798	-0.0713951
23	0xbdd92ba2	-0.106040254
24	0xbd8dceba	-0.069241956
25	0x3d0324a9	0.032017384
26	0x3e44c0ed	0.1921422
27	0x3e222487	0.15834247
28	0xbe5f2119	-0.2178997
29	0x3daecf94	0.08535686
30	0x3d813934	0.06309739
31	0x3e90b21b	0.28260884
32	0x3e51d937	0.20493017
33	0xbe66f02c	-0.22552556
34	0xbe2e72fe	-0.17036054
35	0xbdaa0ca8	-0.08303195
36	0x3e73fdd4	0.23827296
37	0x3d140a46	0.03614261
38	0x3d16fefe	0.036864273
39	0xbdb28d3b	-0.08718344
40	0x3e40fad3	0.18845682
41	0xbd7f5c29	-0.06234375
42	0x3e55b731	0.20870663
43	0x3c1f8b0e	0.009737743
44	0xbd902732	-0.07038726
45	0x3db8e1ad	0.09027419
46	0xbe0ac2b1	-0.13550831
47	0x3d9550cc	0.072908014
48	0xbcd77535	-0.026301006
49	0xbb985191	-0.0046483953
50	0xbe8987a5	-0.268613
51	0xbe3aa2be	-0.18226144
52	0x3ddb1946	0.1069818
53	0xbbae343b	-0.005316285
54	0x3e694028	0.2277838
55	0x3dc969d7	0.098346405
56	0xbd53ebba	-0.05173848
57	0xbddee671	-0.10883797
58	0x3e2a8a7d	0.16654392
59	0x3daf3668	0.08555299
60	0xbe18f6d6	-0.1493791
61	0x3e10efca	0.14153972
62	0x3e3a2d41	0.18181325
63	0x3e4534bb	0.19258396
64	0xbdf27885	-0.118393935
65	0xbd5bebeb	-0.053691786
66	0xbc75b2bc	-0.014996227
67	0x3cc5b59c	0.02413445
68	0xbe4a5753	-0.19759874
69	0xbe335880	-0.17514229
70	0x3e04285d	0.12906022
71	0xbca82911	-0.020527394
72	0x3dce62ce	0.10077439
73	0x3b270e65	0.0025490758
74	0x3d923661	0.07139278
75	0x3d36b420	0.044605374
76	0x3d69df9f	0.057098027
77	0x3de701ef	0.11279666
78	0xbe4bf5e4	-0.19918019
79	0x3de1d4f4	0.11026946
80	0xbe01a48c	-0.12660426
81	0xbe28c8c3	-0.16482835
82	0x3c8ab81b	0.016933491
83	0xbd6c9ce5	-0.057766814
84	0x3df45823	0.11930873
85	0xbdd503cd	-0.104011156
86	0xbe430096	-0.19043192
87	0x3e288229	0.16455902
88	0xbd677c22	-0.056514867
89	0x3debdc40	0.11516619
90	0x3d973b0c	0.07384309
91	0xbe25522b	-0.16144626
92	0x3d64ac48	0.055828363
93	0x3d050b37	0.0324814
94	0xbe067f84	-0.13134581
95	0xbd9e4b9b	-0.07729264
96	0x3d8474c1	0.064675815
97	0x3d530ef8	0.051527947
98	0xbdc6a755	-0.09699885
99	0xbd3aa620	-0.045568585
100	0x3df273bf	0.11838483
101	0xbdd23b82	-0.102652565
102	0x3dfa485a	0.12220831
103	0x3d691752	0.056907006
104	0xbe338184	-0.17529875
105	0xbe4c8004	-0.19970709
106	0x3e306bca	0.17228618
107	0x3d08974f	0.033347424
108	0x3dffc57a	0.124888375
109	0x3b97d474	0.0046334807
110	0x3da7819f	0.0817902
111	0x3e481551	0.19539382
112	0x3e6ccbf0	0.23124671
113	0xbe2647e2	-0.16238359
114	0xbc86e745	-0.0164677
115	0x3e2bebab	0.16789119
116	0x3e2c7820	0.16842699
117	0x3e0279c0	0.12741756
118	0xbe34a8ed	-0.17642565
119	0xbe3f8226	-0.18701991
120	0xbdec7e69	-0.11547548
121	0x3d1137f2	0.035453744
122	0x3e56bc06	0.20970163
123	0xbe14339e	-0.14472815
124	0x3d847617	0.06467836
125	0xbe0408e8	-0.12894022
126	0xbe57c39a	-0.2107071
127	0xbd6dd4e5	-0.05806436
128	0x3dea1fd6	0.114318535
129	0x3e3d4bb4	0.1848591
130	0xbe08797f	-0.13327597
131	0x3d147c64	0.03625144
132	0x3e395f71	0.18102814
133	0x3e1e6715	0.1546901
134	0x3e0e8aaa	0.13920084
135	0x3e065176	0.13117012
136	0x3df1f4de	0.11814283
137	0x3d1da156	0.03848394
138	0xbe0d5692	-0.13802555
139	0xbe3871c5	-0.1801215
140	0xbda5587c	-0.08073518
141	0xbce073eb	-0.027399024
142	0xbe0a6dba	-0.1351842
143	0x3d85db2c	0.06535944
144	0x3d6e3f2c	0.058165714
145	0xbd288b97	-0.04114875
146	0x3d93c7b6	0.07215826
147	0x3d821bbe	0.06352948
148	0x3dfe13de	0.12406133
149	0x3e1e94b7	0.15486418
150	0xbd7a1259	-0.061052654
151	0x3e7540ad	0.23950453
152	0xbcc87723	-0.024470871
153	0xbc6bf1ab	-0.01440088
154	0xbe43cfd2	-0.19122246
155	0xbdc78396	-0.09741895
156	0xbda6af69	-0.081389256
157	0xbd8bd9f5	-0.068286814
158	0x3e200c2f	0.15629648
159	0xbd809cd5	-0.06279913
160	0xbdf92348	-0.121649325
161	0x3df182b1	0.117925055
162	0x3dc5afce	0.09652673
163	0x3e124e98	0.14287794
164	0xbdd05b57	-0.10173672
165	0x3d2dca37	0.042429175
166	0xbd890e20	-0.06692147
167	0xbd6c1484	-0.057636753
168	0xbe2f1608	-0.17098248
169	0xbdfb487d	-0.122696854
170	0xbd0bd8db	-0.034142356
171	0x3ddbdefd	0.10735891
172	0x3d0244bd	0.031803835
173	0x3d5a4398	0.05328712
174	0x3e3b066a	0.18264166
175	0x3e788814	0.2427066
176	0x3e06c20a	0.13159958
177	0xbc8847d4	-0.016635813
178	0xbdfd3f77	-0.123656206
179	0x3e17d68c	0.14827937
180	0x3af85efd	0.0018949207
181	0xbc615351	-0.013752774
182	0xbe21c73c	-0.15798658
183	0xbd673914	-0.05645092
184	0xbdf56682	-0.119824424
185	0x3e73a74d	0.23794289
186	0xbe1fa5e4	-0.15590626
187	0xbe0dabb9	-0.13835038
188	0xbc8dc184	-0.01730419
189	0xbdc33ad0	-0.09532702
190	0x3daf6c20	0.08565545
191	0xbd82c0b4	-0.063844115
192	0xbd9f6934	-0.07783738
193	0xbbce2f26	-0.0062922416
194	0x3e04e94f	0.12979625
195	0xbe14e585	-0.1454068
196	0x3de6da70	0.112721324
197	0x3e338fd3	0.17535333
198	0x3e536095	0.20642312
199	0xbe06eece	-0.13177034
200	0xbb6baf72	-0.0035962728
201	0xbe2f6d8a	-0.1713163
202	0x3e18b7a7	0.14913808
203	0xbd2deb5b	-0.04246078
204	0x3da7eb0e	0.0819913
205	0xbd014b11	-0.03156573
206	0xbce50e83	-0.027961021
207	0xbc9410ac	-0.018074356
208	0x3daf44fa	0.08558078
209	0x3da013ac	0.07816252
210	0x3bd7a416	0.00658084
211	0x3d63078e	0.055427127
212	0xbe46ccc7	-0.19414054
213	0x3e460cb1	0.19340779
214	0x3e3a9757	0.18221794
215	0x3e0761ef	0.13220952
216	0x3e11d5c7	0.14241706
217	0xbe2b65d3	-0.16738062
218	0xbd4fb300	-0.050707817
219	0x3e3e374c	0.18575782
220	0xbe29b944	-0.1657458
221	0x3e362c95	0.17790444
222	0xbe2feab4	-0.17179376
223	0xbe07f8a9	-0.1327845
224	0x3db227a6	0.086989686
225	0xbdef9ff1	-0.11700428
226	0xbd47bad0	-0.048762143
227	0x3e2b4f6c	0.16729516
228	0x3e1832dc	0.14863151
229	0x3e1fa630	0.15590739
230	0xbcfb6029	-0.030685501
231	0xbe2fa6cd	-0.17153473
232	0x3e555d10	0.20836282
233	0xbd7205fb	-0.059087735
234	0xbdf4e4e5	-0.11957721
235	0x3d2da3e9	0.042392645
236	0xbe2a0c85	-0.16606338
237	0x3e199145	0.14996822
238	0x3e04b6c0	0.12960339
239	0xbe36499a	-0.17801514
240	0xbe0e725f	-0.13910817
241	0xbcfcb898	-0.03084974
242	0x3ddbef6b	0.10739025
243	0xbbe0f2cd	-0.0068648816
244	0xbddc74bf	-0.10764455
245	0x3d3a2636	0.045446597
246	0xbe1bf020	-0.15228319
247	0xbdc3505c	-0.09536812
248	0xbdf53258	-0.11972493
249	0x3e472c8e	0.1945059
250	0x3e17fe54	0.14843112
251	0xbd841c5a	-0.0645072
252	0xbd1a5650	-0.03767997
253	0x3d461a2f	0.048364814
254	0xb7f04941	-2.8644341e-05
255	0xbddaa3f5	-0.106758036

m_transform.0.1.bias f4 [64]
0	0xbb951c12	-0.0045504654
1	0x3cb3ecc2	0.02196348
2	0xbd8b3055	-0.06796328
3	0x3e1b88ee	0.15188953
4	0x3e4393da	0.1909937
5	0xbde8ac6c	-0.11361012
6	0x3e1528b7	0.14566313
7	0x3e68c2ff	0.22730635
8	0xbdf7e456	-0.121040985
9	0xbb8ae3c2	-0.0042385766
10	0x3e1b621e	0.15174147
11	0xbe1e96f5	-0.15487273
12	0x3cd3dc11	0.025861772
13	0xbdc9d4f1	-0.098550685
14	0x3e0a90f4	0.13531858
15	0xbd225dfd	-0.039640415
16	0x3daa5a3b	0.08317991
17	0x3dcd2966	0.10017662
18	0xbd6244e5	-0.055241484
19	0xbe52b110	-0.20575356
20	0x3d65f309	0.05613998
21	0xbb00c376	-0.0019647754
22	0x3dc4cca0	0.096093416
23	0x3d7d913d	0.06190609
24	0xbe188ece	-0.14898226
25	0xbdb5b608	-0.0887261
26	0x3e11e4e0	0.14247465
27	0x3d7844ea	0.060612597
28	0x3ca66392	0.02031115
29	0x3dbb6fd6	0.091521904
30	0x3e2907bb	0.16506855
31	0xbdd457d6	-0.10368316
32	0xbccba5a9	-0.024859266
33	0x3c80d77b	0.01572775
34	0xbe563825	-0.20919855
35	0x3d1581e2	0.03650082
36	0xbd58f6a4	-0.05296959
37	0x3e1148dc	0.1418795
38	0xbe586c4e	-0.21135065
39	0x3e22358d	0.1584074
40	0xbe09a7e9	-0.13442959
41	0x3ddd2553	0.10798135
42	0x3e4b16ee	0.19832966
43	0xbc42c2b5	-0.011887242
44	0xbe30eff6	-0.17279038
45	0xbd790f76	-0.06080576
46	0xbdcbdc9b	-0.099541865
47	0x3d934430	0.0719074
48	0x3d5e0e80	0.054213047
49	0x3dc935c8	0.09824711
50	0xbe033ba7	-0.12815724
51	0x3dc3ebfd	0.095664956
52	0x3e10861a	0.14113656
53	0xbdbc7dad	-0.09203658
54	0x3dbddbc7	0.09270435
55	0x3b7df11c	0.0038748449
56	0x3de5d0c4	0.112214595
57	0xbe06f5a2	-0.13179639
58	0xbe1a05ae	-0.15041229
59	0xbd28055f	-0.041020747
60	0xbe16f9b2	-0.14743689
61	0x3d5a4831	0.053291503
62	0x3dfd2081	0.12359715
63	0xbdc62273	-0.096745394

m_transform.0.4.weight f4 [64, 32, 1, 1]
0	0xbad66434	-0.0016356767
1	0x3cd1847b	0.025575867
2	0xbdd6f80c	-0.1049653
3	0xbca68da3	-0.02033121
4	0x3d27cd83	0.040967476
5	0x3dd950d5	0.106111206
6	0xbe27dbd8	-0.16392457
7	0xbc49562b	-0.01228861
8	0xbe34c148	-0.17651856
9	0xbcb257a0	-0.021770298
10	0xbbb86dba	-0.005628315
11	0xbdf9ca03	-0.12196734
12	0x3de88c71	0.11354912
13	0x3d715870	0.05892223
14	0xbdad2091	-0.08453477
15	0xbcf91da0	-0.030409634
16	0xbd8d18c2	-0.06889488
17	0xbc872dbc	-0.0165013
18	0x3d6a14d4	0.05714877
19	0x3e240c29	0.16020264
20	0xbe5e0f11	-0.21685435
21	0x3d4abeb9	0.049498294
22	0xbe15f6f5	-0.14644988
23	0xbe0c4a83	-0.13700299
24	0x3e09573f	0.13412188
25	0xbda14c54	-0.078758866
26	0xbdf4e2b5	-0.119573034
27	0x3cbdbbee	0.0231609
28	0xbd26794f	-0.040643033
29	0xbe294d53	-0.16533403
30	0xbdfb40cf	-0.12268221
31	0xbd8f27b0	-0.06989992
32	0x3b4c65e6	0.0031188666
33	0xbe062c5a	-0.13102856
34	0xbe2d5d45	-0.16930111
35	0x3dea5493	0.114419125
36	0xbe3b196e	-0.1827142
37	0xbd0d9629	-0.034567032
38	0x3e40e84b	0.18838613
39	0xbdd7d103	-0.10537913
40	0xbdd854bb	-0.10563036
41	0x3d7bcbb5	0.061473567
42	0x3e4ea271	0.20179154
43	0x3b18f1af	0.0023337414
44	0xbc2a8f84	-0.010410193
45	0x3db03391	0.086035855
46	0x3d795f29	0.060881767
47	0x3cf8c277	0.030366166
48	0x3deda18d	0.11603079
49	0x3dd6ed6f	0.104945056
50	0xbdfded36	-0.1239876
51	0xbcd8bfe1	-0.026458682
52	0x3df9cc9e	0.12197231
53	0x3d0ff3cd	0.035144616
54	0x3d70f7db	0.058830123
55	0x3e2e061f	0.16994523
56	0x3e0a17cf	0.13485645
57	0x3d91eec5	0.0712562
58	0x3e36ea13	0.1786273
59	0xbe0eb648	-0.13936722
60	0x3b5195b7	0.0031980106
61	0x3d52883d	0.05139946
62	0xbc969654	-0.018382229
63	0xbdc2c4fa	-0.095102265
64	0x3c1bf8fc	0.009519812
65	0xbddf108d	-0.10891829
66	0xbd88aca4	-0.066735536
67	0x3e111679	0.14168729
68	0xbd1b7a0f	-0.0379582
69	0xbd48bb3d	-0.04900669
70	0x3da27ae3	0.07933595
71	0xbd8ca29d	-0.068669535
72	0x3c8d684e	0.01726165
73	0xbe49f619	-0.19722785
74	0x3de86b56	0.11348598
75	0xbe3623c6	-0.17787084
76	0x3d2e3c40	0.042537928
77	0xbe27c6d7	-0.16384445
78	0xbe2062bb	-0.15662663
79	0x3de517ce	0.11186181
80	0xbddca6b2	-0.10773982
81	0x3c1f3437	0.009717039
82	0xbccf6143	-0.025314933
83	0x3e3f565f	0.18685292
84	0x3dad5674	0.08463755
85	0x3dcc890c	0.09987077
86	0xbd94649c	-0.07245752
87	0xbd86dbb0	-0.06584871
88	0x3e004a54	0.12528354
89	0x3c5a2268	0.013313867
90	0x3d2f8223	0.042848717
91	0xbe065da1	-0.13121654
92	0xbdf1a17b	-0.11798378
93	0x3bdaf2f6	0.006681795
94	0xbe0d851b	-0.13820307
95	0x3e1826ab	0.148585
96	0x3e214a0c	0.15750903
97	0xbdd920c3	-0.10601952
98	0xbe06d355	-0.13166554
99	0x3e1beb91	0.1522658
100	0xbdd362f9	-0.10321612
101	0xbe12e979	-0.14346875
102	0xbddcd348	-0.10782486
103	0xbccb7938	-0.024838075
104	0x3cbb3038	0.02285014
105	0x3dcfd61c	0.1014826
106	0x3def23a8	0.11676723
107	0x3d559514	0.052144125
108	0x3d8e43a9	0.06946499
109	0x3e17f45b	0.14839308
110	0xbdc22b7b	-0.094809495
111	0xbd38b0c9	-0.04509047
112	0x3e07be5d	0.13256212
113	0xbdb2d30f	-0.087316625
114	0x3df52ae6	0.11971073
115	0x3daebe66	0.08532409
116	0x3d665bd5	0.05623992
117	0xbd593004	-0.053024307
118	0xbe2f2730	-0.17104793
119	0x3e056db6	0.13030133
120	0x3dee5a7c	0.11638352
121	0xbe219b55	-0.1578191
122	0xbddc3ff0	-0.107543826
123	0xbb186d97	-0.002325868
124	0x3ccd7de5	0.025084445
125	0xbca9c426	-0.020723414
126	0xbdb01789	-0.08598239
127	0x3e0cf777	0.13766275
128	0xbde318f5	-0.110887446
129	0x3e3d96b1	0.18514515
130	0xbd2ea687	-0.04263928
131	0x3d7a77b0	0.0611493
132	0x3d4fd69a	0.05074177
133	0x3d493caa	0.04913012
134	0x3e1547f3	0.14578228
135	0xbca46656	-0.020068329
136	0x3dbe4afc	0.09291646
137	0x3d6c16a6	0.057638787
138	0xbd911235	-0.07083551
139	0x3de0ebd4	0.10982481
140	0xbdf2bd93	-0.11852565
141	0x3d396040	0.045257807
142	0xbd5207af	-0.05127686
143	0x3d7ef822	0.062248357
144	0xb9cba2e0	-0.0003884053
145	0x3c55d59d	0.013051418
146	0xbc937645	-0.018000731
147	0x3d997e9d	0.07494853
148	0x3d8b21cb	0.06793555
149	0xbe3c56fa	-0.18392554
150	0x3e08fedd	0.13378473
151	0xbe21e558	-0.15810144
152	0xbdeb3786	-0.114852
153	0x3cd60581	0.026125671
154	0x3e3b04d3	0.18263559
155	0x3d9884c3	0.07447197
156	0xbe03d347	-0.12873565
157	0x3d94937a	0.072546914
158	0xbe004eb6	-0.12530026
159	0x3ca48540	0.02008307
160	0x3d05b2c2	0.03264118
161	0x3d1ff7ff	0.039054867
162	0xbe2bd6f5	-0.16781218
163	0x3dabf009	0.083953924
164	0x3e403d13	0.18773298
165	0xbe1983ea	-0.14991727
166	0x3d427537	0.047475066
167	0xbe1c03cb	-0.15235822
168	0xbd54fcc9	-0.051998887
169	0x3dfc4739	0.12318272
170	0xbe226a60	-0.15860891
171	0xbd8a42d3	-0.06751027
172	0x3dadb699	0.08482093
173	0x3cf2e7e1	0.029651584
174	0xbdb982e9	-0.09058172
175	0xbd985c2c	-0.074394554
176	0x3aa24e5e	0.0012382974
177	0xbe4aeb6a	-0.19816366
178	0x3d26f3bd	0.04075979
179	0xbdd36fa7	-0.1032403
180	0xbd63aa98	-0.055582613
181	0x3ded30b8	0.11581558
182	0xbe2bf1cb	-0.16791455
183	0xbd870476	-0.06592648
184	0xbe03a32a	-0.12855211
185	0x3da08599	0.07837982
186	0x3dec9afd	0.11552999
187	0xbe2341fb	-0.15943138
188	0x3dc92a2a	0.09822495
189	0x3d8fe707	0.07026487
190	0xbe2e8859	-0.170442
191	0x3db92170	0.09039581
192	0x3d49afbb	0.049239855
193	0xbd87ae07	-0.0662499
194	0x3dec1e91	0.115292676
195	0xbcee223d	-0.02906906
196	0x3c74baf5	0.014937152
197	0x3dd5f8ea	0.10447867
198	0xbe1bc668	-0.15212405
199	0xbe30e6e6	-0.17275581
200	0x3bf8b91a	0.007590425
201	0xbc4b00cf	-0.0123903295
202	0xbbae9138	-0.00532737
203	0xbe36fe16	-0.17870364
204	0x3df08772	0.11744584
205	0xbe00cdf1	-0.1257856
206	0xbdf63a96	-0.12022893
207	0xbe1383dc	-0.14405769
208	0xbe48615a	-0.19568387
209	0xbce8598d	-0.028363014
210	0xbd91223c	-0.07086608
211	0x3dea684d	0.11445675
212	0x3e18057b	0.1484584
213	0x3d2f706f	0.042831834
214	0x3e057ccc	0.13035887
215	0xbdb481d4	-0.08813825
216	0x3d8a34d1	0.06748355
217	0x3dc19424	0.09452084
218	0xbdd9e76f	-0.106398456
219	0xbd24d2b2	-0.040239997
220	0xbdf8593a	-0.121263936
221	0x3caef5fa	0.021357525
222	0xbe43a7b9	-0.1910695
223	0xbe0408d1	-0.12893988
224	0xbe2a7061	-0.16644432
225	0xbd9b30af	-0.07577645
226	0x3d54d300	0.051959038
227	0xbe1838ac	-0.14865369
228	0xbd6fb0f2	-0.058518358
229	0x3db04b3b	0.08608099
230	0x3bb3e087	0.005489412
231	0xbd57bb79	-0.052669022
232	0xbd96259e	-0.07331394
233	0xbdc39226	-0.0954936
234	0xbe17dc76	-0.14830193
235	0x3e11582b	0.1419379
236	0xbcb4d241	-0.022072913
237	0x3db2bd4b	0.08727511
238	0x3df7c409	0.120979376
239	0x3e0c07a7	0.13674794
240	0xbdc4292c	-0.095781654
241	0x3a1aea0b	0.0005909509
242	0xbe42ab21	-0.19010593
243	0x3daa9254	0.08328691
244	0xbd94d9a5	-0.07268075
245	0x3db4111f	0.08792328
246	0xbde2b7d2	-0.11070217
247	0x3d586bab	0.052837055
248	0x3e0d22ea	0.1378285
249	0x3d87e310	0.066351056
250	0xbe07fb14	-0.13279372
251	0x3e06040a	0.13087478
252	0xbe0a0693	-0.1347907
253	0xbe5a7f98	-0.21337736
254	0x3d642dd3	0.055707764
255	0x3d40619d	0.04696809

m_transform.0.4.bias f4 [64]
0	0x3c9fd25e	0.01950949
1	0x3e387c7a	0.18016234
2	0x3de288dd	0.11061261
3	0xbe5399ab	-0.20664088
4	0xbda4c9e3	-0.08046319
5	0x3ce5b62d	0.02804097
6	0xbd7d3696	-0.061819635
7	0xbdb1e330	-0.08685911
8	0xbd8aca44	-0.0677686
9	0xbe55271b	-0.20815699
10	0xbcb26d2a	-0.02178057
11	0x3ccda274	0.025101878
12	0xbd333605	-0.04375269
13	0xbe0c566f	-0.13704847
14	0xbe103502	-0.14082721
15	0x3e38aa89	0.18033804
16	0x3e1d0927	0.15335523
17	0xbdb53475	-0.08847896
18	0xbdc035ec	-0.09385285
19	0xbb6ffd16	-0.0036619357
20	0xbd7787e6	-0.060432337
21	0xbe321272	-0.17389849
22	0xbe2f8bd1	-0.1714318
23	0x3e525253	0.20539217
24	0xbcf3dc50	-0.02976814
25	0x3dc7adf4	0.09749976
26	0x3dd25f82	0.10272123
27	0xbd0f69da	-0.035013057
28	0xbdbcee82	-0.09225179
29	0x3d806e15	0.062709965
30	0xbdae6868	-0.08516008
31	0xbe0b1886	-0.13583574
32	0x3dbb9b1b	0.091604434
33	0xbdee8db5	-0.11648122
34	0x3d860200	0.0654335
35	0x3dcb9cd0	0.09942019
36	0xbe397813	-0.18112211
37	0xbd3311c4	-0.043718114
38	0x3cafa6f8	0.021441922
39	0x3d1d5602	0.0384121
40	0x3d51ab16	0.05118855
41	0x3d5adccc	0.053433225
42	0xbce29416	-0.027658504
43	0x3be518f8	0.006991502
44	0x3dcd02ba	0.10010286
45	0xbd449d5a	-0.048001625
46	0xbd21cf8b	-0.03950457
47	0x3e035cbe	0.12828347
48	0x3e26f1d9	0.16303195
49	0x3e07db2d	0.13267203
50	0x3dffe8ff	0.12495612
51	0xbe197aa5	-0.14988191
52	0xbdb7e1d3	-0.089786194
53	0xbe03665a	-0.12832013
54	0xbd0d091b	-0.03443251
55	0x3d1d74ab	0.03844134
56	0x3e1a51b9	0.15070237
57	0xbe069689	-0.13143362
58	0x3db74544	0.08948758
59	0xbd45a663	-0.048254382
60	0x3e2cc935	0.1687363
61	0x3dc4bdc3	0.09606507
62	0xbd90d00c	-0.07070932
63	0x3e0a35e1	0.13497116

m_transform.0.6.running_mean f4 [32]
0	0x3f2a491c	0.66517806
1	0x3ff195fb	1.8873895
2	0xbf2ca921	-0.6744557
3	0x3e2ef8fc	0.17087168
4	0x3f6a77c2	0.91588986
5	0xbd17a966	-0.037026785
6	0xbf4913cd	-0.7854584
7	0x3e312547	0.17299376
8	0xbfe7d382	-1.8111422
9	0x3e1fd837	0.15609823
10	0x3eb30535	0.3496491
11	0x3f42b9c2	0.76064694
12	0x3f4cf9cf	0.8006868
13	0x3cf9dfd3	0.030502236
14	0xbed47c52	-0.415011
15	0xbda63973	-0.08116426
16	0xbe4d485f	-0.20047139
17	0x3f63e1fd	0.89016706
18	0x3f127669	0.5721193
19	0x3e4f7a99	0.20261611
20	0x3e07661f	0.1322255
21	0x3f83d3be	1.0298994
22	0xbd284066	-0.04107704
23	0x3eee2344	0.4651128
24	0xbf22b0a6	-0.63550794
25	0x3f2d329f	0.67655367
26	0xbf4ac07b	-0.7919995
27	0xbe82ad29	-0.25522736
28	0x3df9c43f	0.12195634
29	0x3f2f4c36	0.68475664
30	0xbed13884	-0.4086343
31	0x3fd41cef	1.657133

m_transform.0.6.running_var f4 [32]
0	0x3ea9e163	0.3317977
1	0x3f55bb2d	0.8348873
2	0x3eb44205	0.3520662
3	0x3dd439a6	0.10362558
4	0x3e7c55b1	0.24642064
5	0x3f3d7f0a	0.7402197
6	0x3e202b5d	0.15641542
7	0x3e3be47a	0.18348876
8	0x3eaa2f72	0.33239323
9	0x3f26cfa2	0.6516057
10	0x3e06b2b3	0.13154106
11	0x3d9e5551	0.077311166
12	0x3e19e54c	0.15028876
13	0x3d6950bd	0.056961764
14	0x3dc3f376	0.09567921
15	0x3e06d5c7	0.13167487
16	0x3e19c931	0.15018155
17	0x3e07a62e	0.13246986
18	0x3e42a7f4	0.19009382
19	0x3dafe0f2	0.08587827
20	0x3e01897d	0.12650104
21	0x3f7940e7	0.9736466
22	0x3e1122f5	0.14173491
23	0x3dc1a300	0.09454918
24	0x3e1af364	0.15131909
25	0x3e7b6121	0.2454877
26	0x3e827735	0.25481573
27	0x3e37c159	0.1794485
28	0x3eb64b73	0.35604438
29	0x3e2079d5	0.15671475
30	0x3d9348fb	0.07191654
31	0x3eecf7d6	0.46282834

m_transform.0.7.weight f4 [96, 32, 3, 3]
0	0xbd25a46b	-0.040440004
1	0xbc1eddd3	-0.009696442
2	0xbd22ab7b	-0.039714318
3	0x3caa3fc8	0.020782366
4	0x3c11f7c0	0.008909166
5	0xbd2ab5ac	-0.041677162
6	0xbd00a1ac	-0.031404182
7	0xbc0b9bd3	-0.008521038
8	0x3cab41db	0.020905426
9	0x3c6a6b2f	0.014307781
10	0xbd84e464	-0.064888746
11	0xbc003f81	-0.0078276405
12	0xbd963e02	-0.07336046
13	0xbcd659fb	-0.026165953
14	0xbd267e30	-0.040647686
15	0xbd8c5a8b	-0.06853207
16	0x3d758143	0.059937727
17	0xbd128d05	-0.035779018
18	0xbc0de96b	-0.008661608
19	0xbd169ea5	-0.03677239
20	0x3d3bf775	0.04589029
21	0x3c365e8e	0.011130942
22	0xbcc00187	-0.023438228
23	0xbca9c7a7	-0.020725084
24	0xbce01f8b	-0.02735879
25	0xbd3ebf8d	-0.046569396
26	0x3ca519da	0.020153929
27	0xbcd2b5cb	-0.025721451
28	0xbd41ca68	-0.04731217
29	0xbd33a67a	-0.043859936
30	0xbd40872c	-0.04700391
31	0xbcae01f5	-0.021241168
32	0xbd51451e	-0.051091306
33	0x3ba96968	0.005170036
34	0xbd39b23f	-0.045336004
35	0x3d39371f	0.045218583
36	0x3d614ae6	0.05500307
37	0xbd4d4c29	-0.05012146
38	0x3b67fa83	0.003539712
39	0xbd4e0408	-0.050296813
40	0xbbebaa80	-0.007191956
41	0xbd88a698	-0.066724
42	0xbd45f3e7	-0.048328307
43	0x3c4fba4b	0.012678693
44	0xbc76fcf5	-0.015074958
45	0xbd2140da	-0.039368488
46	0xbc90c9ca	-0.017674346
47	0x3b2bea84	0.0026232312
48	0xbd8a3e20	-0.06750131
49	0xb9dc3bea	-0.0004200631
50	0xbd8e924b	-0.06961497
51	0xbcdc3541	-0.026880862
52	0x3d90d85f	0.070725195
53	0x3b8f6643	0.004376204
54	0xbc0c3e55	-0.008559783
55	0xbc7bb3c5	-0.015362685
56	0x3d96746d	0.07346425
57	0x3d469c5d	0.048488963
58	0xbd2e0b85	-0.042491455
59	0xb93aaec4	-0.00017803448
60	0x3d8ec16c	0.06970486
61	0xbdaa37a4	-0.08311394
62	0xbb2d4f0a	-0.0026444816
63	0xbd2da300	-0.042391777
64	0xbd50a6b9	-0.05094025
65	0xbcaa16fd	-0.020762915
66	0x3c590afa	0.013247246
67	0xbd9be39e	-0.07611774
68	0xbc5b55c2	-0.0133871455
69	0xbd5bb4ed	-0.05363934
70	0x3c5bf5e7	0.013425327
71	0x3cd4ce6e	0.02597734
72	0x3d11e7cf	0.03562146
73	0xbc51c8ba	-0.012804205
74	0xbcb44402	-0.022005085
75	0xbcd50db4	-0.02600751
76	0x3c911ba0	0.017713368
77	0xbd1e34b7	-0.03862449
78	0xbcda02c8	-0.026612654
79	0x3d135e0d	0.035978366
80	0xbd1586fe	-0.03650569
81	0xbc7af69c	-0.015317585
82	0x3c83e428	0.016100004
83	0xbd027d2e	-0.031857662
84	0x3d192b56	0.037394844
85	0xbd2c9056	-0.042129837
86	0x3bee1b7c	0.00726646
87	0xbd01bac8	-0.03167227
88	0xbd785c46	-0.060634874
89	0xbd528a2a	-0.051401295
90	0xbbe5b724	-0.0070103575
91	0x3b9c0372	0.004761153
92	0xbd40527c	-0.046953663
93	0x3c0e7196	0.008694073
94	0x3c9fa4f9	0.019487845
95	0xbc550df1	-0.013003812
96	0x3c306404	0.010766033
97	0xbc1b8a49	-0.009493419
98	0xbd8731e8	-0.06601316
99	0xbd0d1827	-0.03444686
100	0x3d3810fd	0.044938076
101	0xbd03d272	-0.03218312
102	0xbdc0f57f	-0.09421825
103	0x3dc129f3	0.09431829
104	0x3b366251	0.0027829597
105	0x3c949f8d	0.018142486
106	0x3cc4a006	0.024002086
107	0xbd4728cd	-0.048622895
108	0xbd1761f4	-0.03695865
109	0x3c08c258	0.008347116
110	0x3c553052	0.013012009
111	0xbd38255d	-0.044957507
112	0xbc1ce881	-0.009576918
113	0xbcbad33c	-0.022805803
114	0x3d2e6d5a	0.042584755
115	0xbcc429e0	-0.023945749
116	0xbd9383e4	-0.072028905
117	0xbc655b6b	-0.0139988465
118	0xbcda41db	-0.02664273
119	0x3cc3b504	0.023890026
120	0x3bc3788c	0.005965298
121	0x3d083eaf	0.033262905
122	0x3de857b9	0.11344857
123	0x3d7a3fb9	0.061095927
124	0x3d22575b	0.03963409
125	0x3bc197a6	0.0059079705
126	0xbcd95058	-0.026527569
127	0xbcad6003	-0.021163946
128	0x3c90de7c	0.017684214
129	0xb8d883d7	-0.0001032424
130	0xbcbce135	-0.023056606
131	0xbad16fc9	-0.0015978749
132	0xbaea219a	-0.0017862797
133	0x3c6e8c7c	0.014559861
134	0x3d7ee6c4	0.062231794
135	0x3c6d2aba	0.014475519
136	0xbda96c19	-0.08272571
137	0xbb6899ef	-0.0035492142
138	0x3bbb6e4f	0.005719937
139	0xbc53b17a	-0.012920732
140	0xbd427ded	-0.047483373
141	0xbdce7700	-0.10081291
142	0xbc853f4d	-0.016265536
143	0xbc1d7244	-0.009609763
144	0x3dbd2076	0.09234707
145	0xbd643443	-0.055713903
146	0xbb109429	-0.0022060967
147	0x3ae9ac72	0.0017827882
148	0xbd8e7f13	-0.06957831
149	0xbdad83e3	-0.08472421
150	0x3c285303	0.010273698
151	0xbd270c48	-0.040783197
152	0xbda64fac	-0.08120665
153	0x3d7c60c4	0.06161572
154	0x3be61954	0.0070220623
155	0x3d0581be	0.032594435
156	0xbcd37ade	-0.025815424
157	0x3d9e887e	0.077408776
158	0x3c2cc2c1	0.01054448
159	0xbcd3a2c4	-0.025834449
160	0x3d82dd28	0.063898385
161	0xbda1191a	-0.07866116
162	0xbb36e86f	-0.0027909537
163	0xbbffdd8c	-0.007808393
164	0xbc8b2bae	-0.016988602
165	0xbd952aa3	-0.07283523
166	0xbd098e84	-0.03358318
167	0xbd3b089a	-0.0456625
168	0xbc902e76	-0.01760028
169	0xbbe5c1ee	-0.0070116436
170	0x3cfbed86	0.030752908
171	0x3cd01745	0.02540172
172	0x3a649e8f	0.0008721137
173	0x3bf5c715	0.007500539
174	0xbced9308	-0.029000774
175	0x3def4df4	0.1168479
176	0xbc043f08	-0.008071668
177	0xbd6e4d8e	-0.05817943
178	0x3dadc08c	0.08483991
179	0xbd1ac260	-0.037783027
180	0x3c04e00b	0.008110057
181	0x3d73370f	0.05937868
182	0xbc0e82c6	-0.008698171
183	0xbb10a3b3	-0.0022070229
184	0x3d024c14	0.031810835
185	0x3d1f7880	0.038933277
186	0x3d97bf6b	0.07409557
187	0x3d2557aa	0.040366806
188	0xbd81219b	-0.06305238
189	0x3d055d9f	0.032559987
190	0xbc2a5bda	-0.010397876
191	0xbd98ee89	-0.07467372
192	0xbca88057	-0.02056901
193	0xbc5c0ad9	-0.013430321
194	0xbc6645b8	-0.014054708
195	0xbd8d3329	-0.06894524
196	0xbda709a0	-0.08156133
197	0xbd7411e5	-0.059587378
198	0xbc3a5a20	-0.011374027
199	0x3d571c48	0.052517205
200	0xbd87e52f	-0.0663551
201	0x3bf07ee2	0.0073393444
202	0x3d64adf5	0.05582996
203	0x3c937770	0.018001288
204	0xbc8f11a2	-0.017464463
205	0x3ce527c7	0.027973069
206	0x3d1af6ea	0.03783313
207	0xbe029dea	-0.12755552
208	0x3c992a6c	0.018696986
209	0xbcff8295	-0.031190196
210	0x3ce13eb5	0.027495721
211	0xbce4e3c1	-0.027940633
212	0x3d7457bd	0.059653986
213	0x3d89e6e3	0.06733491
214	0xbca6387a	-0.020290602
215	0xbccfbfef	-0.025360076
216	0xbd14de26	-0.03634467
217	0xbc552c71	-0.013011084
218	0xbd8321f2	-0.06402959
219	0xbcb363c4	-0.021898158
220	0x3d5935cd	0.053029824
221	0x3c13c5c1	0.009019316
222	0xbd8e8e4b	-0.06960734
223	0xbd1f66b0	-0.03891629
224	0x3d3fe2fb	0.046847325
225	0xbcf01e29	-0.029311256
226	0xbcaf5412	-0.021402393
227	0x3c4fad58	0.012675606
228	0x3d022d00	0.031781197
229	0xbd22cecb	-0.039747994
230	0xbd0e0e08	-0.03468135
231	0xbd3c5996	-0.045983873
232	0x3d5312e2	0.05153168
233	0xbd4f1005	-0.050552387
234	0xbc22b31d	-0.009930399
235	0x3cd0e95b	0.025501898
236	0xbcdab16c	-0.02669593
237	0x3d8641f4	0.06555548
238	0xbcc62f45	-0.024192462
239	0xbca5ff41	-0.020263316
240	0x3bff33a5	0.007788139
241	0xbc13402a	-0.008987466
242	0xbd002252	-0.03128273
243	0xbd120174	-0.035645917
244	0xbd54b3c6	-0.051929258
245	0x3cdd8e65	0.027045438
246	0x3c94ebd7	0.018178863
247	0xbd77b995	-0.06047972
248	0x3bdc9f63	0.0067328676
249	0x38acbe7c	8.2370796e-05
250	0xbd60e7ea	-0.05490867
251	0x3d62b9cf	0.055352982
252	0xbd246b48	-0.040141374
253	0xbc1e7e2d	-0.009673637
254	0x3d9f9fa9	0.07794125
255	0x3d85da4d	0.06535778

m_transform.0.7.bias f4 [96]
0	0x3d0a2b3f	0.03373265
1	0x3d069184	0.03285362
2	0x3b6738ca	0.0035281652
3	0xbd2c09a2	-0.042001374
4	0xbc3f0bae	-0.0116604995
5	0x3d7bbfe2	0.06146229
6	0x3c9c3e39	0.019072639
7	0x3a6bad03	0.00089903193
8	0xbd9795a4	-0.074015886
9	0xbc37198e	-0.011175526
10	0xbcbcc2ba	-0.023042072
11	0xbd43a7c5	-0.04776742
12	0x3d51e5c1	0.0512445
13	0xbc3abf44	-0.01139814
14	0x3d85d45f	0.06534647
15	0xbc4f567a	-0.012654895
16	0x3d47245d	0.048618663
17	0xbd28cfc0	-0.04121375
18	0x3cdc94c4	0.026926406
19	0x3cb9ba53	0.022671854
20	0xbd8fb3c2	-0.07016708
21	0x3c4cad59	0.012492501
22	0x3d55251c	0.052037343
23	0x3ca7bf5d	0.020476991
24	0x3d0d32e4	0.03447236
25	0xbb8e7013	-0.0043468564
26	0x3d1a5f26	0.037688397
27	0x3c392772	0.011300908
28	0xbd153803	-0.03643037
29	0xbd6226af	-0.055212673
30	0xbca5a3b0	-0.020219654
31	0x3cd27fab	0.025695642
32	0x3d145638	0.036215037
33	0x3d46891c	0.0484706
34	0xbc2e72c2	-0.010647478
35	0x3d629c86	0.055325054
36	0xbba428e3	-0.005009757
37	0xbbc9fa5f	-0.0061638798
38	0xbcdacb9c	-0.026708417
39	0xbccbbd3c	-0.024870507
40	0x3c9e4012	0.01931766
41	0xbd2610c5	-0.040543336
42	0xbdc89db8	-0.097957075
43	0xbb211692	-0.0024580103
44	0x3c9f1d10	0.019423038
45	0xbdac47c4	-0.08412126
46	0xbd20978c	-0.039207026
47	0xbc41bc0a	-0.011824617
48	0xbb7f0225	-0.003891119
49	0x3d5d0537	0.05396005
50	0x3b3783c2	0.0028002118
51	0x3d522523	0.051304948
52	0xbce19284	-0.027535684
53	0xbd57095f	-0.05249917
54	0xbae36258	-0.0017348034
55	0x3d1df5ea	0.0385646
56	0x3d9cf99c	0.07664797
57	0x3b4da9d6	0.0031381748
58	0xbca496ef	-0.020091502
59	0x3d6c2a27	0.057657387
60	0x3d040ff7	0.032241788
61	0xbac1cd12	-0.0014785847
62	0x3cc9f9b9	0.02465521
63	0xbd46c737	-0.04852983
64	0x3b283a1d	0.0025669404
65	0x3c085f95	0.00832357
66	0xbd5df1bb	-0.05418561
67	0xbd476ca8	-0.048687607
68	0xbc869e65	-0.01643295
69	0xbce9fdb3	-0.028563356
70	0xbaee5a1b	-0.0018184813
71	0x3d7e4975	0.062081773
72	0xbd1241a5	-0.035707135
73	0xbc44b32f	-0.012005611
74	0xbb871b9d	-0.004123165
75	0xbd291d32	-0.04128761
76	0x3ca61286	0.020272505
77	0x3c2ff165	0.010738705
78	0xbd42016e	-0.047364645
79	0xbcc688c8	-0.024235144
80	0xbd47a592	-0.048741885
81	0xbcbddeca	-0.023177523
82	0x3d56013e	0.05224728
83	0xbd8e61ed	-0.069522716
84	0xbc25a21d	-0.010109452
85	0x3c9544a6	0.01822121
86	0xbceae8a7	-0.02867539
87	0xbc5e4f53	-0.013568717
88	0x3d86a4ce	0.06574403
89	0x3c8eedf4	0.01744745
90	0x3ca4818d	0.020081306
91	0xbd1d3cfe	-0.038388245
92	0xbd47989d	-0.048729528
93	0x3dd430ba	0.10360856
94	0xbb8cd24a	-0.0042975293
95	0x3d2f83fc	0.04285048

m_transform.0.10.running_mean f4 [48]
0	0x4005dd40	2.091629
1	0x3fc4e6b4	1.5382905
2	0x3fcc72d8	1.5972548
3	0x3fd285a1	1.644703
4	0x3fd872c6	1.6910026
5	0x3f8c42ba	1.0957863
6	0x3fae04d7	1.3595227
7	0x3f9b924b	1.215402
8	0x3f964cce	1.1742189
9	0x3fb9c1de	1.4512289
10	0x3f954d30	1.1664181
11	0x3fa6293a	1.2981331
12	0x3f8249db	1.0178789
13	0x4009cbf9	2.1530745
14	0x3fd12165	1.6338316
15	0x3fe3b96a	1.7790959
16	0x3fcb9e60	1.5907707
17	0x3f8cd595	1.100268
18	0x400c3284	2.1905832
19	0x401fde65	2.497949
20	0x3fc2f889	1.5232097
21	0x3fda4082	1.7050936
22	0x3fb09aaa	1.37972
23	0x3fd4c9e5	1.6624113
24	0x3fe1a411	1.7628194
25	0x3ff259f9	1.8933707
26	0x3fc73283	1.556229
27	0x3f98b7f0	1.1931133
28	0x3fc799c1	1.5593797
29	0x3ff1d168	1.8892031
30	0x3fd979b4	1.6990266
31	0x3fecede9	1.8510104
32	0x3fc49007	1.5356454
33	0x3fffd5ef	1.9987162
34	0x3f8929e1	1.0715905
35	0x3fc6646b	1.5499395
36	0x3fa858df	1.3152121
37	0x3fd5051c	1.6642184
38	0x3fafa5f0	1.3722515
39	0x3fd6138f	1.6724719
40	0x3fc23825	1.5173384
41	0x3ffe2343	1.9854511
42	0x3f92e448	1.1475916
43	0x3fc2b9ef	1.5212992
44	0x40144426	2.3166595
45	0x3f8c3cbd	1.0956036
46	0x40056af4	2.084653
47	0x3ff2160f	1.8912982

m_transform.0.10.running_var f4 [48]
0	0x3f266758	0.6500144
1	0x3f4a6897	0.7906584
2	0x4031bae6	2.7770324
3	0x3fa7f434	1.31214
4	0x3f196225	0.5991538
5	0x3f68f29b	0.90995187
6	0x3fe6d129	1.8032581
7	0x4000810b	2.0078762
8	0x3fa7be62	1.3104975
9	0x3fddb375	1.7320391
10	0x3f53e53c	0.8277166
11	0x4031174b	2.7670467
12	0x3fb03c59	1.3768417
13	0x3fc230a7	1.5171098
14	0x3fe9e578	1.8273153
15	0x3fe2d538	1.7721319
16	0x3f071875	0.52771693
17	0x401e9455	2.4778035
18	0x3fbab4f7	1.4586476
19	0x3fc9e7f2	1.5773909
20	0x3fea32e6	1.8296783
21	0x405de563	3.4671257
22	0x3fdf55b2	1.7448027
23	0x3ee81b80	0.4533348
24	0x3f1de511	0.6167765
25	0x3f646531	0.89216906
26	0x4088d344	4.2757893
27	0x3fbb23fa	1.4620354
28	0x3f97b065	1.1850706
29	0x3fdb3c94	1.7127862
30	0x3f5c4d67	0.86055607
31	0x40520aeb	3.2819164
32	0x3f8d2609	1.1027232
33	0x3f8e242a	1.1104786
34	0x3fe7f2f8	1.8121023
35	0x40370e34	2.860242
36	0x3f0e20e3	0.5551893
37	0x3f82399e	1.0173833
38	0x3fbb13d4	1.4615426
39	0x3fa8e646	1.3195274
40	0x3fd48684	1.6603551
41	0x3f6791c4	0.90456796
42	0x3f8493e4	1.0357633
43	0x3f6e6dc0	0.93136215
44	0x3fcb1698	1.586627
45	0x3f04967f	0.5179214
46	0x3f90d167	1.1313905
47	0x3fcc3286	1.5952919

m_transform.0.11.weight f4 [96, 48, 1, 1]
0	0x3b8c4668	0.004280854
1	0xbdf05d44	-0.11736539
2	0xbd7145ce	-0.05890446
3	0xbce7350f	-0.028223542
4	0x3e1efc47	0.15525924
5	0xbd5559b9	-0.05208752
6	0xbca0e0ef	-0.019638507
7	0x3e0dca03	0.13846593
8	0x3ce0b1bb	0.027428498
9	0xbe0c6fd5	-0.13714536
10	0x3e241a2c	0.16025609
11	0xbcdcc2ea	-0.026948411
12	0xbd822b52	-0.06355919
13	0x3de385f4	0.11109534
14	0xbd16981f	-0.036766168
15	0xbddf7913	-0.10911765
16	0x3e056a18	0.13028753
17	0x3d9bd3d9	0.07608766
18	0x3dcf8e42	0.101345554
19	0x3d994bcf	0.074851625
20	0xbbdaf4d7	-0.006682019
21	0xbcfd6cd3	-0.03093568
22	0x3cf26ae8	0.029591992
23	0x3df1e5ee	0.11811434
24	0x3d96ca0a	0.07362755
25	0x3e022881	0.12710764
26	0xbcfc8dbb	-0.030829301
27	0x3d261e28	0.040556103
28	0x3e17bacd	0.14817353
29	0x3d83c37d	0.06433771
30	0x3d25d74f	0.040488537
31	0x3cb43e90	0.022002488
32	0xbd753eaa	-0.059874214
33	0x3d0e41b8	0.034730643
34	0xbe0557fe	-0.13021848
35	0xbda48bb9	-0.080344625
36	0xbde0f921	-0.109850176
37	0xbd6effba	-0.05834935
38	0x3c8bce01	0.017066004
39	0x3d0e5b39	0.034754965
40	0x3dcd4ae1	0.10024048
41	0x3e0cbfb9	0.13745011
42	0xbe020d61	-0.12700416
43	0x3d93c625	0.072155274
44	0x3e019876	0.12655815
45	0x3c304a85	0.010759954
46	0x3df612d7	0.12015312
47	0xbe02ff06	-0.12792596
48	0x3d655b37	0.055995192
49	0x3dae2484	0.085030586
50	0xbd1d1d4f	-0.03835803
51	0xbdad7bf8	-0.08470911
52	0x3db373c2	0.087623134
53	0xbe0f6447	-0.14003097
54	0xbd136751	-0.035987202
55	0xbd9a4b48	-0.0753389
56	0xbd7c7d9c	-0.061643228
57	0x3d132a45	0.035928983
58	0x3d780c0e	0.06055837
59	0x3e081ad9	0.13291492
60	0x3d656875	0.05600782
61	0xbd0fc5dd	-0.035100807
62	0xbb44fb5c	-0.0030057048
63	0x3c904fff	0.01761627
64	0x3df7cc0c	0.12099466
65	0xbdd77c15	-0.10521714
66	0xbe395e07	-0.18102275
67	0xbdc64523	-0.096811555
68	0xbd9b264c	-0.07575664
69	0xbdcb8b8e	-0.09938727
70	0x3d6c8d3e	0.057751887
71	0xbd93c7a8	-0.07215816
72	0x3e1155a6	0.14192829
73	0x3d09113e	0.03346371
74	0x3da07842	0.07835437
75	0x3df2c339	0.11853642
76	0xbdd04cf3	-0.10170927
77	0x3c424d57	0.01185926
78	0xbda920cb	-0.08258208
79	0x3d63a2a5	0.05557503
80	0x3d473c9f	0.048641797
81	0x3cbea71c	0.023273043
82	0xbd933fe0	-0.071899176
83	0x3bd8a134	0.006611014
84	0x3cc30c48	0.023809567
85	0xbd2fe11c	-0.04293929
86	0xbd24607d	-0.04013108
87	0x3d75f680	0.060049534
88	0x3d0c2b31	0.034220878
89	0xbdb337f0	-0.087509036
90	0xbe08251e	-0.13295409
91	0xbdfe7faf	-0.124266975
92	0x3d1f0d56	0.038831078
93	0x3d990dc8	0.07473332
94	0x3dfe1be1	0.12407661
95	0xbc70becf	-0.01469393
96	0x3e037f13	0.12841444
97	0xbe19f3ae	-0.15034363
98	0xbd8934f3	-0.066995524
99	0xbd2a1ddb	-0.04153238
100	0x3cc32929	0.023823338
101	0x3d587528	0.052846104
102	0xbd802a20	-0.06258035
103	0xbe25473d	-0.16140456
104	0xbe0bee07	-0.13665019
105	0xbd91de1b	-0.071224414
106	0xbd15731b	-0.036486726
107	0x3c3c61dc	0.011497941
108	0xbe04b34d	-0.12959023
109	0x3dea0ff6	0.114288256
110	0x3d4ce0c3	0.050019037
111	0x3e0fd74b	0.14046971
112	0xbdc712a7	-0.097203545
113	0x3d2f7517	0.042836275
114	0x3d169547	0.036763456
115	0xbd44e8c5	-0.04807355
116	0x3d30bf58	0.04315123
117	0xbddcdc92	-0.10784258
118	0x3b94f458	0.0045457296
119	0xbc5bdc7e	-0.013419269
120	0xbe1ccce6	-0.15312538
121	0x3deaaf5e	0.1145923
122	0x3dd88b3c	0.10573432
123	0x3bb1caae	0.0054257726
124	0x3cfdb62b	0.030970654
125	0xbc9fafec	-0.019493066
126	0x3b3f5307	0.0029193775
127	0xbdb55726	-0.08854513
128	0x3de9b375	0.11411182
129	0x3c85f5b7	0.016352518
130	0x3da59df9	0.080867715
131	0xbc3430d9	-0.010997974
132	0xbdd62fb5	-0.10458318
133	0xbcb8f71f	-0.022578774
134	0xbddfa91f	-0.10920929
135	0x3de5c991	0.11220086
136	0xbd8389e8	-0.06422788
137	0x3dd73224	0.105076104
138	0x3cb38b1e	0.021916922
139	0xbd9e00a3	-0.07714965
140	0x3da1c12f	0.07898175
141	0x3d8d0840	0.06886339
142	0xbdbe6781	-0.092970856
143	0x3d29eb76	0.04148432
144	0x3dfbee58	0.1230132
145	0xbd9bb7be	-0.076034054
146	0x3ddd4329	0.108038254
147	0x3dc15cae	0.09441505
148	0xbdcbd181	-0.09952069
149	0xbdcbb232	-0.099460974
150	0x3cbbcb56	0.022924107
151	0x3dcaa1c3	0.09894135
152	0xbd94e5f9	-0.07270426
153	0x3e1c6a67	0.15274964
154	0xbe0c878d	-0.13723584
155	0x3dac6b9d	0.08418963
156	0x3cc9be86	0.024626981
157	0x3db2a639	0.08723111
158	0x3d555fa4	0.052093163
159	0x3d3277ed	0.0435714
160	0x3bfc9a39	0.0077088145
161	0xbd135792	-0.035972185
162	0x3cfe27bd	0.031024808
163	0xbdb86b56	-0.09004848
164	0xba8a3b56	-0.0010546248
165	0xbe0ed545	-0.13948543
166	0xbc8c6a50	-0.017140538
167	0xbd950297	-0.072758846
168	0xbe1d9962	-0.15390542
169	0xbd5ab7b8	-0.053397864
170	0x3d91ce2c	0.07119402
171	0xbdc886fa	-0.0979137
172	0xbd67bb8b	-0.05657534
173	0x3e26b517	0.16280018
174	0x3d0f333f	0.03496098
175	0x3d378ef0	0.04481405
176	0xbc7f1c01	-0.0155706415
177	0x3d96af2d	0.07357631
178	0xbda3e344	-0.08002332
179	0x3c077070	0.008266553
180	0xbe186408	-0.14881909
181	0x3c9648f7	0.01834534
182	0x3d8240d5	0.06360022
183	0xbe02f268	-0.12787783
184	0x3c9b46d1	0.018954666
185	0x3db0d1ae	0.08633743
186	0x3df4c039	0.11950726
187	0xbd3a54f1	-0.045491163
188	0x3cfd2d07	0.03090526
189	0xbde41f9c	-0.111388415
190	0x3d8256e7	0.063642316
191	0x3dda4d40	0.106592655
192	0x3d67e7ea	0.056617655
193	0xbd48257c	-0.048863873
194	0xbd1a18b3	-0.03762121
195	0x3e106d7f	0.1410427
196	0xbdda55ba	-0.10660882
197	0x3cda3be2	0.026639882
198	0xbd327922	-0.043572553
199	0x3da50cde	0.08059095
200	0xbc9a2ad3	-0.018819248
201	0x3dff2a4b	0.124592386
202	0x3cc27676	0.023738127
203	0x3bcfe534	0.006344462
204	0xbd3694c2	-0.04457546
205	0xbe002bb5	-0.12516673
206	0xbd8e923b	-0.06961485
207	0xbcdca835	-0.026935676
208	0x3cb22e21	0.021750512
209	0xbcf27b61	-0.029599847
210	0xbdd99e18	-0.10625857
211	0xbe111471	-0.14167954
212	0xbe053bfa	-0.1301116
213	0xbdecc9d4	-0.11561933
214	0xbdbbd60b	-0.09171685
215	0x3d726b2f	0.05918425
216	0x3c2f532d	0.010700983
217	0xbceb093d	-0.028690929
218	0x3dac4edd	0.084134795
219	0x3d1f6162	0.03891123
220	0x3e0f3258	0.13984048
221	0x3c52fb7c	0.012877341
222	0xbcfab658	-0.030604526
223	0x3dea44f1	0.11438931
224	0xbcb0f82d	-0.021602714
225	0x3dabc451	0.08387054
226	0xbd5da8aa	-0.05411593
227	0x3c6268f1	0.013818965
228	0xbdc9a68f	-0.09846222
229	0x3dca699c	0.09883425
230	0x3dbbb1d6	0.09164779
231	0xbd76a25d	-0.060213435
232	0xbe233f8b	-0.15942208
233	0x3dd88002	0.105712906
234	0xbc6440c4	-0.013931457
235	0x3dd21620	0.10258126
236	0x3d4db534	0.050221637
237	0x3d068cd4	0.032849148
238	0xbdac7f43	-0.08422711
239	0xbe37620d	-0.17908497
240	0x3d52751f	0.051381227
241	0xbd6e75b4	-0.05821772
242	0xbdbb41aa	-0.09143384
243	0x3e01d7a4	0.12679917
244	0xbd83a0d5	-0.06427161
245	0x3de01b80	0.10942745
246	0x3c4494ba	0.01199835
247	0x3dfee964	0.124468595
248	0x3d1fc6d7	0.039007988
249	0xbcfe2f65	-0.031028459
250	0x3d20a3ca	0.0392187
251	0xbdf6b95d	-0.12047074
252	0x3db7c0f9	0.089723535
253	0x3c5aa9c9	0.013346144
254	0xbd296d5c	-0.04136406
255	0x3cbb65e0	0.022875726

m_transform.0.11.bias f4 [96]
0	0xbbdc069d	-0.0067146556
1	0xbc9731a2	-0.018456284
2	0x3db1eed1	0.08688129
3	0x3c47a2bd	0.012184796
4	0x3d955605	0.072917975
5	0xbd82c3ba	-0.06384988
6	0x3da16a5d	0.07881615
7	0xbe110d91	-0.14165331
8	0x3cf4ef7d	0.029899353
9	0x3da4ecf1	0.080530055
10	0xbd751132	-0.05983085
11	0x3dd7579d	0.10514758
12	0x3e14c767	0.14529191
13	0x3d8b7355	0.06809107
14	0xbe0e6bc9	-0.13908304
15	0x3e116c9c	0.14201587
16	0xb9e7e0e1	-0.000442273
17	0xbd327636	-0.043569766
18	0x3d822b07	0.06355863
19	0x3d88ce2e	0.06679951
20	0xbe108d36	-0.14116368
21	0x3dcd8f34	0.100370795
22	0x3e1eda1b	0.15512888
23	0x3d87270d	0.06599245
24	0xbcfe08d2	-0.031010065
25	0xbd2d5782	-0.042319782
26	0x3d96213b	0.07330557
27	0xbc839489	-0.016062038
28	0x3d99d008	0.07510382
29	0x3da56b44	0.080771
30	0x3d7886c3	0.060675394
31	0xbd7c1a1d	-0.06154834
32	0x3dfe10e2	0.12405564
33	0xbd3f7753	-0.046744656
34	0x3d851abe	0.06499241
35	0xbd9e2b33	-0.07723083
36	0x3cf2410f	0.029572038
37	0xbc0b9ef1	-0.008521781
38	0x3d7a8940	0.061166048
39	0xbde74cac	-0.11293921
40	0x3ddc5c9d	0.10759852
41	0xbda4e062	-0.0805061
42	0x3d86b655	0.06577746
43	0xbba616de	-0.005068644
44	0x3d97c23b	0.074100934
45	0x3e17c00e	0.14819357
46	0xbdc71de8	-0.09722501
47	0x3dff784f	0.12474119
48	0x3d96d40f	0.07364666
49	0x3d89f0ee	0.06735407
50	0xbdc4ef1d	-0.0961592
51	0x3c1761ae	0.009239597
52	0xbd256959	-0.04038367
53	0x3e013ce0	0.12620878
54	0x3d79a90e	0.06095224
55	0xbd41706d	-0.04722636
56	0x3cd24d16	0.025671523
57	0x3b905ee9	0.0044058454
58	0x3d83e93a	0.06440969
59	0xbdcac850	-0.09901488
60	0xbe014b8f	-0.1262648
61	0xbdacf08d	-0.08444319
62	0x3d0d16b4	0.03444548
63	0xbd39fa01	-0.045404438
64	0xbe018bb8	-0.12650955
65	0x3daadf0d	0.08343325
66	0xbd15bccd	-0.036557008
67	0x3dd102a3	0.10205581
68	0xbcdc9677	-0.026927216
69	0x3cc516ba	0.024058688
70	0x3deda0a1	0.11602903
71	0x3d38496d	0.0449919
72	0x3dbadebb	0.09124514
73	0x3d44c95d	0.048043597
74	0x3d8841cd	0.066531755
75	0x3e02b7e8	0.12765467
76	0x3d3399aa	0.043847717
77	0xbe0274e4	-0.12739903
78	0xbdbcd2fd	-0.0921993
79	0x3d78ba93	0.060724806
80	0xbd581186	-0.052751087
81	0x3e09bf39	0.13451852
82	0xb994491a	-0.00028283225
83	0xbe1247f9	-0.14285268
84	0x3db56588	0.08857256
85	0x3d730117	0.05932721
86	0x3c431da3	0.011908921
87	0x3d8ff889	0.07029826
88	0xbe003450	-0.12519956
89	0xbdb9914c	-0.09060916
90	0xbcd3674f	-0.025806097
91	0xbd30935c	-0.043109283
92	0xbd8d4185	-0.068972625
93	0x3de6b60e	0.11265193
94	0x3d847ccc	0.064691156
95	0x3dde34b3	0.10849895

m_transform.0.13.running_mean f4 [48]
0	0x3eb3e17f	0.35132977
1	0x3ea0e3af	0.3142371
2	0x3f048baf	0.5177564
3	0x3f1203ed	0.5703724
4	0x3f0f83c4	0.56060433
5	0x3eef2834	0.4671036
6	0x3ead6fff	0.3387451
7	0x3e68020d	0.22657032
8	0x3eadc383	0.33938226
9	0x3ecde754	0.40215552
10	0x3ed7dd85	0.42161193
11	0x3ecabb16	0.3959586
12	0x3eb0a5c3	0.34501466
13	0x3ef76388	0.48318124
14	0x3edfae70	0.43687773
15	0x3f064243	0.5244486
16	0x3f0fdfb4	0.5620072
17	0x3ed26948	0.41095948
18	0x3f06d99d	0.526758
19	0x3f31b539	0.6941715
20	0x3ee56e39	0.44810656
21	0x3ebc6af6	0.36800355
22	0x3f0591cb	0.5217559
23	0x3f047a0d	0.51748735
24	0x3f00a240	0.50247574
25	0x3eb1f97a	0.34760648
26	0x3f07009b	0.527353
27	0x3ebee70a	0.37285644
28	0x3ef69e79	0.4816778
29	0x3ee3e52d	0.44510785
30	0x3eb57e9c	0.35448158
31	0x3efa8b03	0.48934183
32	0x3eeff340	0.46865273
33	0x3f23b73f	0.63951486
34	0x3e9c7ac0	0.305624
35	0x3e7f1393	0.2490981
36	0x3ea755c8	0.32682633
37	0x3f343e92	0.70407975
38	0x3f067ffa	0.52539027
39	0x3ec9e58e	0.3943295
40	0x3eda1dfd	0.42601004
41	0x3e8703a4	0.26369965
42	0x3eb3bb82	0.35103995
43	0x3e82c223	0.2553874
44	0x3f05137e	0.5198287
45	0x3ef60970	0.48054075
46	0x3ec1f4a8	0.3788197
47	0x3ee0b95a	0.43891412

m_transform.0.13.running_var f4 [48]
0	0x3e6d2eae	0.23162338
1	0x3e7222fe	0.23646161
2	0x3e9d281b	0.3069466
3	0x3e4a520b	0.1975786
4	0x3e905797	0.28191826
5	0x3e49dfe0	0.19714308
6	0x3ecaee62	0.39634997
7	0x3e670a4e	0.22562525
8	0x3e2335e5	0.15938528
9	0x3e4414e0	0.19148588
10	0x3e4b3b14	0.19846755
11	0x3e80ec44	0.25180256
12	0x3e829cf1	0.25510362
13	0x3eb9d8d7	0.36298248
14	0x3e7ec7d6	0.24880919
15	0x3e08ec03	0.13371281
16	0x3e9edd49	0.31028202
17	0x3f5444e3	0.8291761
18	0x3e1ee48c	0.15516871
19	0x3ee9c79b	0.456601
20	0x3e756509	0.23964323
21	0x3e16c237	0.14722525
22	0x3e9a57e8	0.30145192
23	0x3e3a23bb	0.18177693
24	0x3e952d85	0.2913629
25	0x3e30df4b	0.1727268
26	0x3e801d6a	0.2502244
27	0x3eeb1e40	0.45921516
28	0x3ed44a89	0.41463116
29	0x3e17e338	0.14832771
30	0x3e3d55c0	0.18489742
31	0x3e94d46f	0.29068324
32	0x3e9dec4f	0.30844352
33	0x3e1c6a23	0.15274863
34	0x3e78dcaf	0.24302934
35	0x3e418f10	0.1890223
36	0x3e60109a	0.21881333
37	0x3e924493	0.28567943
38	0x3e44486f	0.19168256
39	0x3eac54a1	0.33658317
40	0x3f0070d2	0.5017215
41	0x3e92e38f	0.28689238
42	0x3e6eacfc	0.23308176
43	0x3e3e652a	0.18593279
44	0x3e161879	0.14657773
45	0x3e2a968c	0.16658992
46	0x3e97993d	0.296091
47	0x3e24b0a9	0.16083016
