Auxillary_Code/LCNN/project/03-asvspoof-mega/spec2-lcnn-attention-am/06/__pretrained/trained_network.pt (torch, 760388 bytes, 35 tensors)

m_transform.0.0.weight f4 [257, 60]
0	0x3bf6e6e1	0.007534847
1	0x3c01fade	0.007933347
2	0xbcc125bb	-0.023577562
3	0xbcb9599b	-0.022625735
4	0xbb1e48ff	-0.0024152396
5	0xbd0b37bf	-0.03398871
6	0x3c52f5a1	0.012875945
7	0x3c724604	0.014787201
8	0xbc85f69a	-0.01635294
9	0xbc008b73	-0.007845747
10	0xbb903fa4	-0.004402118
11	0xbb456478	-0.0030119698
12	0xbd6692c1	-0.0562923
13	0xbcc7e659	-0.02440183
14	0x3bcceb73	0.0062536537
15	0xbb918ebc	-0.004442064
16	0xbcbe4a1c	-0.023228697
17	0x3d37004f	0.04467803
18	0x3ca12850	0.019672543
19	0x3ad90a31	0.0016558823
20	0xbcc0685d	-0.023487264
21	0x3ca5864f	0.020205645
22	0x3d422b47	0.047404554
23	0xbcadf98d	-0.02123716
24	0x3d911459	0.07083959
25	0x3c8c1259	0.017098593
26	0x3d6577dd	0.056022514
27	0x3d44550c	0.04793267
28	0xbd1dc724	-0.038519993
29	0x3af0cd8d	0.0018371806
30	0x3c88d45d	0.016702825
31	0x3c39f294	0.011349339
32	0xbc44027e	-0.011963485
33	0xbd12d646	-0.03584888
34	0x3c8fc7cc	0.017551325
35	0x3d02f838	0.031975
36	0xbc9af00f	-0.018913297
37	0x3d0620c3	0.032746088
38	0x3d5ed5c1	0.05440307
39	0xbd35345c	-0.044239387
40	0x3cc69756	0.024242084
41	0x3d37597f	0.044763085
42	0xbc9810b3	-0.01856265
43	0xbc1fc89c	-0.009752419
44	0xbc418957	-0.0118125295
45	0x3bb6b710	0.005576022
46	0x3cabaa57	0.020955248
47	0xbb033bf5	-0.002002475
48	0x3b3dd0dd	0.0028963604
49	0x3aedbd72	0.0018138124
50	0x3cda26bc	0.026629798
51	0x3b82bf95	0.0039901235
52	0xbd1a46f5	-0.037665326
53	0x3b5f25e2	0.003404968
54	0x3c2697da	0.01016804
55	0x3d0241c6	0.031801008
56	0xbbaa6810	-0.0052003935
57	0xb991d515	-0.00027815314
58	0x3d246f2d	0.040145088
59	0x3d300aa3	0.042978894
60	0x3eab3881	0.33441547
61	0x3ce3c6aa	0.027804691
62	0xbd04e7b0	-0.032447517
63	0xbd0e6574	-0.034764722
64	0xbce8416c	-0.028351508
65	0x3c4ef27e	0.012631057
66	0x3be2d0ab	0.006921848
67	0x3bd169fd	0.0063908086
68	0xbc9e72ae	-0.019341793
69	0x3a911c7e	0.0011071113
70	0xbd19ce8d	-0.037550498
71	0x3d0d26c8	0.034460813
72	0xbd53ab60	-0.051677108
73	0xbcd78a3a	-0.026311029
74	0x3d187e4d	0.037229825
75	0xbbba1564	-0.0056788195
76	0xbccf5dd1	-0.02531329
77	0x3d8e1543	0.06937649
78	0x3cd6d130	0.026222795
79	0x3c6afccf	0.014342501
80	0xbd2a0e91	-0.041517798
81	0x3cd3cb49	0.02585377
82	0x3d1dc9fa	0.038522698
83	0xbc35bae5	-0.011091922
84	0x3d0bb885	0.03411152
85	0x3df22db8	0.118251264
86	0x3d65f0c0	0.0561378
87	0x3d491bae	0.049098663
88	0xbca941f5	-0.020661334
89	0x3a9b61f8	0.0011854758
90	0x3d509691	0.05092484
91	0xbb70b3d0	-0.003672827
92	0xbc7f521e	-0.015583543
93	0xbc863cdb	-0.01638644
94	0xbb47aff0	-0.0030469857
95	0x3c9f4db7	0.019446237
96	0xbbe3b6ad	-0.006949267
97	0x3ca62c90	0.02028492
98	0x3d45a89f	0.048256513
99	0xbd828580	-0.06373119
100	0x3d4fa445	0.05069377
101	0x3d23dfc8	0.040008336
102	0xbc7627e2	-0.015024157
103	0xbc2b06e9	-0.010438659
104	0xbc0cdd5b	-0.008597697
105	0x3b7caa9c	0.003855384
106	0x3cedfb70	0.029050559
107	0xbc9dc5ff	-0.019259451
108	0xbcc5798b	-0.024105808
109	0xbc385740	-0.011251271
110	0x3c870856	0.016483467
111	0x3c7c657e	0.015405057
112	0xbc40f512	-0.011777179
113	0xbd7123bd	-0.058871973
114	0x3c49a5fe	0.012307642
115	0x3be8db69	0.007106234
116	0xb9524556	-0.0002005299
117	0xbb371353	-0.0027935102
118	0x3cbf47c0	0.023349643
119	0x3d1b5f89	0.037932906
120	0x3f099f61	0.5375882
121	0x3d0f6fa3	0.035018574
122	0xbcd4a2e7	-0.025956584
123	0xbccbc945	-0.024876246
124	0xbd008413	-0.031375956
125	0x3c286263	0.0102773635
126	0x3c32fc73	0.010924446
127	0xbc87b795	-0.01656703
128	0xbcd6c3ec	-0.02621647
129	0x3b9831b1	0.0046445956
130	0xbd7a2d37	-0.061078276
131	0x3c9b3348	0.018945351
132	0xbd17f4cd	-0.037098695
133	0xbd2035c6	-0.039113782
134	0x3d75049a	0.05981884
135	0xbc864d7d	-0.016394371
136	0xbc953bc8	-0.018216982
137	0x3d1e612d	0.038666893
138	0x3c2bdd1e	0.01048973
139	0x3c11f81d	0.0089092525
140	0xbd0832d4	-0.0332516
141	0x3cd954e9	0.026529746
142	0x3cf4063f	0.029788135
143	0xbc8a0a0b	-0.016850492
144	0x3c7cc71f	0.015428334
145	0x3d8fffeb	0.07031234
146	0x3d232c79	0.039837334
147	0x3cfcd962	0.030865375
148	0xbb83c099	-0.004020762
149	0x3ba65bd9	0.005076867
150	0x3d6d49b2	0.05793161
151	0x3cfb3d61	0.030668916
152	0xbcf0e1e8	-0.029404595
153	0xbd13e8e0	-0.03611076
154	0xbbf2c68c	-0.0074089225
155	0xbc36a27b	-0.011147137
156	0xbc3dfefb	-0.011596437
157	0x3c21c691	0.009874002
158	0x3d256fdb	0.040389877
159	0xbd6230d7	-0.05522236
160	0x3ca1327c	0.019677393
161	0x3d056587	0.032567527
162	0xbc87ba58	-0.016568348
163	0xbc425b1e	-0.011862544
164	0xbc180ffc	-0.009281155
165	0xbc1c1818	-0.009527229
166	0x3cc74a71	0.024327489
167	0xbc925aed	-0.017865622
168	0xbc93bdd4	-0.018034853
169	0xbb3ec5e6	-0.0029109656
170	0x3c38a9d5	0.01127096
171	0x3cb17649	0.021662848
172	0x3b1a900d	0.0023584396
173	0xbd504c36	-0.05085393
174	0x3c8f1192	0.017464433
175	0xbc9aa13a	-0.018875707
176	0xbbb51b88	-0.0055269636
177	0xbb742090	-0.0037250854
178	0x3c713bd5	0.014723738
179	0x3c1b1217	0.009464762
180	0x3f3add9f	0.72994417
181	0x3d0f9a6f	0.03505939
182	0xbb8d72b2	-0.0043166513
183	0xbbf8b47b	-0.0075898743
184	0xbcd46a14	-0.025929488
185	0x3c2269d5	0.009912928
186	0x3c2ed4d7	0.010670862
187	0xbc942687	-0.018084778
188	0xbc893e0d	-0.01675322
189	0x3bbae386	0.0057033924
190	0xbd7e4722	-0.062079556
191	0xbb654ea3	-0.0034989498
192	0xbcbbf331	-0.022943111
193	0xbd41837f	-0.047244545
194	0x3d8bbfc3	0.06823685
195	0xbcc31108	-0.023811832
196	0xbc61c75b	-0.01378044
197	0x3c0470da	0.0080835465
198	0x3bbafd77	0.005706485
199	0x3c2ccee5	0.010547374
200	0xbcc5f4b5	-0.024164537
201	0x3d06cfec	0.032913134
202	0x3cc1c4c4	0.023653395
203	0xbcaacadb	-0.020848682
204	0x3bb17874	0.0054159705
205	0x3d18b9be	0.037286513
206	0x3c8c904d	0.017158652
207	0x3c751f77	0.014961115
208	0x3c786553	0.015160876
209	0x3be20b7a	0.006898341
210	0x3d6a9f0e	0.057280593
211	0x3d57955f	0.052632686
212	0xbcfb0a36	-0.030644517
213	0xbd26b90f	-0.04070383
214	0xbadd64b6	-0.0016890976
215	0xbce99763	-0.02851457
216	0xbc5d004b	-0.013488839
217	0xba7e7aa9	-0.0009707609
218	0x3d05a688	0.03262952
219	0xbd2989e6	-0.041391276
220	0xbb4aa9a3	-0.0030923865
221	0x3cb670d5	0.0222706
222	0xbc13e116	-0.009025833
223	0xbc18c56d	-0.009324414
224	0xbc66fc98	-0.014098309
225	0xbc622a01	-0.01380396
226	0x3c8b41b8	0.01699911
227	0xbc0ab115	-0.008465071
228	0xbc50e054	-0.0127487965
229	0x3b77d446	0.0037815734
230	0x3c5d0c6b	0.01349173
231	0x3c971584	0.018442877
232	0x3c0ef271	0.008724795
233	0xbd22721b	-0.0396596
234	0x3cd5ae10	0.026083976
235	0xbd16ec38	-0.03684637
236	0xbc56ef0d	-0.013118518
237	0xbc7c31ef	-0.0153927645
238	0xbb281d00	-0.002565205
239	0xbc43260f	-0.011910929
240	0x3f732647	0.9498028
241	0x3c97a983	0.018513447
242	0x3d0d8206	0.03454783
243	0x3c82bc88	0.01595904
244	0xbb026b22	-0.0019900282
245	0xbbeadc54	-0.0071673784
246	0xbb7662a7	-0.0037595422
247	0x3b07486c	0.0020642532
248	0x3b362322	0.0027791937
249	0xbb861c09	-0.0040926975
250	0xbcebf5dd	-0.02880376
251	0xbb75e770	-0.003752198
252	0xb9d3c3e2	-0.00040391
253	0xbd1c248e	-0.0381208
254	0x3d29c703	0.041449558
255	0xbcf2de6f	-0.02964708

m_transform.0.1.weight f4 [64, 1, 5, 5]
0	0x3c2e4d7e	0.010638593
1	0xbd789d8a	-0.060697116
2	0xbe5a8b38	-0.2134217
3	0xbbe80c22	-0.0070815245
4	0xbc5e2e57	-0.013560853
5	0x3ddf4628	0.10902053
6	0xbe49038c	-0.1963026
7	0x3e1f49e3	0.1555553
8	0xbdc52457	-0.09626072
9	0x3d72400c	0.05914311
10	0xbdc0b5fd	-0.094097115
11	0x3dc814aa	0.09769566
12	0x3e6263c2	0.22108367
13	0x3d8fb130	0.07016218
14	0xbe23d33c	-0.15998548
15	0x3e113d18	0.14183462
16	0x3e24d51d	0.16096921
17	0xbe133ac7	-0.1437789
18	0xbdebfbbf	-0.11522626
19	0xbd5b26ce	-0.053503804
20	0xbd4b1676	-0.049581967
21	0xbdb000cb	-0.08593901
22	0xbdf9ff8e	-0.12206946
23	0x3db8a1ae	0.09015213
24	0x3e22363f	0.15841006
25	0xbc003e9c	-0.007827427
26	0xbd74ea85	-0.059793968
27	0xbe3d87b2	-0.18508795
28	0x3dc5f434	0.09665719
29	0xbd35f45f	-0.044422504
30	0xbc6cb560	-0.01444754
31	0x3c49e7be	0.012323318
32	0x3d6d6280	0.057955265
33	0xbdcf1a5e	-0.10112451
34	0xbde0d445	-0.10977987
35	0xbe4a6ca0	-0.19768
36	0xbe14711f	-0.14496277
37	0x3d3c3ad9	0.04595456
38	0x3da6711f	0.08127045
39	0xbd94d79e	-0.07267688
40	0x3ddc9a77	0.10771649
41	0x3d750d69	0.059827242
42	0x3e3b5cc8	0.18297112
43	0x3d96bf3f	0.07360696
44	0x3dfc3464	0.1231468
45	0x3dab2428	0.08356506
46	0xbd909836	-0.07060282
47	0xbe1a3b8e	-0.15061781
48	0x3ddc244f	0.10749113
49	0x3d3b3248	0.04570225
50	0x3bf0a0b7	0.0073433775
51	0x3c5bff5c	0.013427582
52	0x3d0024f0	0.031285226
53	0x3d2a6d0a	0.041607894
54	0x3da28aa1	0.079365976
55	0x3d976e92	0.073941365
56	0x3d301e19	0.042997453
57	0xbe254131	-0.1613815
58	0x3d483bb8	0.048885077
59	0x3db12d5d	0.086512305
60	0x3dd58693	0.104260586
61	0xbe0f9687	-0.14022265
62	0xbda35777	-0.07975667
63	0x3e3fa3bf	0.18714808
64	0x3dd2c2f3	0.1029109
65	0x3ddc6996	0.107623264
66	0x3e10439d	0.14088292
67	0x3c3dde2d	0.011588615
68	0x3daa29e6	0.08308773
69	0x3e17691b	0.14786188
70	0x3e107651	0.14107634
71	0xbd1df6c9	-0.03856543
72	0x3e126ebf	0.14300059
73	0xbded2ac2	-0.11580421
74	0x3dad0610	0.08448422
75	0x3dbc5440	0.09195757
76	0x3e31b203	0.17353062
77	0xbd7983db	-0.060916763
78	0xbe136138	-0.14392555
79	0x3c1f62dd	0.009728161
80	0xbcae6437	-0.02128802
81	0xbe58ed53	-0.21184282
82	0x3b6ef783	0.0036463446
83	0xbe243bca	-0.16038433
84	0xbc30b714	-0.010785837
85	0xbd0b78c6	-0.034050725
86	0x3d637ff9	0.055541966
87	0xbe317053	-0.17328005
88	0xbd6e5f98	-0.058196634
89	0xbe2476ea	-0.16060987
90	0x3e0e52f9	0.13898839
91	0xbe151eb7	-0.14562498
92	0xbaec356a	-0.001802129
93	0x3dcab0b7	0.09896987
94	0xbd87dbce	-0.06633721
95	0xbc8384bd	-0.016054505
96	0x3e434a3e	0.1907129
97	0xbddf7816	-0.109115764
98	0xbe38dc37	-0.18052755
99	0xbcb5c8af	-0.02219042
100	0x3dbff81a	0.093734935
101	0x3c715832	0.0147305
102	0x3c94b750	0.018153816
103	0xbe097fc5	-0.13427646
104	0xbe15b7d5	-0.14620908
105	0xbd2db4e7	-0.04240885
106	0xbe1663e9	-0.1468655
107	0x3e168034	0.14697343
108	0x3e0e778f	0.13912795
109	0x3dbd5eff	0.09246635
110	0xbd21f8f5	-0.039544065
111	0x3e2c7764	0.16842419
112	0x3e135e79	0.14391507
113	0xbded0f91	-0.11575235
114	0xbde361bb	-0.11102625
115	0x3cfc1978	0.030773863
116	0x3db584a8	0.08863193
117	0x3dcb89d2	0.099383965
118	0xbcadc37d	-0.02121138
119	0xbe38ad08	-0.18034756
120	0x3d5aa8ef	0.053383764
121	0x3e3db713	0.18526869
122	0x3d04b96b	0.03240339
123	0xbdd1f53d	-0.102518536
124	0xbe1c6dcb	-0.15276258
125	0x3d09b667	0.033621218
126	0x3df9029d	0.121587016
127	0xbe318643	-0.17336373
128	0x3e0fc101	0.14038469
129	0xbe35c30a	-0.17750183
130	0x3db595f0	0.08866489
131	0xbe306e99	-0.1722969
132	0x3c911834	0.017711736
133	0x3d2cb420	0.042163968
134	0x3d1be624	0.038061276
135	0xbe20543b	-0.15657131
136	0xbd4e7b54	-0.050410584
137	0xbe3ca3de	-0.18421885
138	0x3d1ab28a	0.037767924
139	0x3d447214	0.047960356
140	0xbd58e6cc	-0.05295448
141	0x3cb36123	0.021896904
142	0x3d8642dd	0.06555722
143	0x3e14871c	0.14504665
144	0xbce7b0db	-0.028282573
145	0x3cc6b6e5	0.024257133
146	0xbd05b5a8	-0.032643944
147	0xbd0427ee	-0.032264642
148	0xbd04d785	-0.032432098
149	0xbdaa5913	-0.08317771
150	0x3e65a18b	0.22424905
151	0x3dff8dd1	0.12478221
152	0xbe0a56c1	-0.13509656
153	0xbde38592	-0.11109461
154	0xbd2fc4c1	-0.04291225
155	0x3e2425a2	0.16029981
156	0xbd3ccf97	-0.04609641
157	0x3d722ecd	0.059126664
158	0x3ba21e39	0.0049474505
159	0x3c7891b2	0.015171455
160	0xbb9e2481	-0.004826129
161	0x3d85ead5	0.06538931
162	0x3c231ce9	0.009955623
163	0xbd4f14df	-0.050557014
164	0xba5df0b2	-0.00084663474
165	0x3d26ef5b	0.04075561
166	0xbcfd6bef	-0.030935256
167	0x3c2497b8	0.010045938
168	0xbcf51773	-0.029918408
169	0x3d5f4725	0.054511208
170	0x3de94110	0.11389363
171	0x3e5ac0f7	0.21362673
172	0xbd814860	-0.063126326
173	0x3ded7210	0.11594021
174	0x3d0c1049	0.03419522
175	0x3e06fa0a	0.1318132
176	0xbdc299e3	-0.09502008
177	0xbe231abe	-0.1592817
178	0xbe0a3036	-0.13494954
179	0xbcec5016	-0.028846782
180	0x3de05ef7	0.10955613
181	0x3df397ee	0.11894213
182	0xbe04feb1	-0.12987782
183	0xbcaa19d7	-0.020764275
184	0x3d3e09a4	0.046395913
185	0x3e2cb0e9	0.16864361
186	0xbd9f1f81	-0.07769681
187	0xbd6222bb	-0.055208903
188	0x3d6c8640	0.05774522
189	0x3de458d7	0.11149757
190	0xbe1bdde0	-0.15221357
191	0xbe27482e	-0.16336128
192	0xbb2b0137	-0.0026093253
193	0xbe292df2	-0.16521433
194	0x3e1702d7	0.14747177
195	0x3e388527	0.18019544
196	0x3dca544c	0.098793596
197	0xbdd3b1e6	-0.10336666
198	0xbe20e661	-0.15712883
199	0x3e24378b	0.16036813
200	0x3da1e192	0.07904352
201	0xbe24328b	-0.16034906
202	0xbe13ab8b	-0.14420907
203	0xbe0d8141	-0.13818838
204	0x3df1e18f	0.118106
205	0x3d9c6af4	0.07637587
206	0xbd4ca51c	-0.049962148
207	0x3c15391a	0.009107852
208	0x3e36cefc	0.17852396
209	0xbe19afc2	-0.15008453
210	0x3cc88f6c	0.024482451
211	0x3de379b4	0.111071974
212	0xbc63cd7b	-0.013903971
213	0xbdc96d7b	-0.09835335
214	0x3da18d37	0.07888263
215	0x3dcf7c83	0.101311706
216	0x3c029f4f	0.007972552
217	0xbe2b22fa	-0.16712561
218	0x3dad6de7	0.08468228
219	0xbe0d4630	-0.13796306
220	0xbd9e1854	-0.07719484
221	0x3daa1835	0.083053984
222	0xbd2ab793	-0.041678976
223	0x3ba442d7	0.0050128507
224	0x3d817a76	0.06322186
225	0x3e41594b	0.18881719
226	0x3cb849de	0.02249616
227	0x3de633a5	0.11240319
228	0xbe7a7627	-0.24459134
229	0xbc389359	-0.011265599
230	0x3e4921f1	0.19641854
231	0x3ace1cf0	0.0015725177
232	0x3cc95c48	0.024580136
233	0xbe448672	-0.19191912
234	0x3e10a544	0.14125544
235	0x3e518ba4	0.20463425
236	0x3cef9b45	0.029248843
237	0xbda5b6a8	-0.080914795
238	0xbd161486	-0.036640666
239	0xbe02a248	-0.12757218
240	0x3d9ea162	0.07745625
241	0x3de3a414	0.1111528
242	0x3e0065c4	0.1253882
243	0xbceaeec1	-0.0286783
244	0xbdfe43ff	-0.12415313
245	0x3d59bcf0	0.0531587
246	0xbd47d132	-0.04878349
247	0xbdc7eba6	-0.09761743
248	0xbdb5a51e	-0.08869384
249	0xbe451861	-0.19247581
250	0xbe2b2a42	-0.16715339
251	0x3e577060	0.21038961
252	0x3caf4096	0.021393102
253	0xbe4d48eb	-0.20047347
254	0xbe2dce94	-0.16973335
255	0x3dfa03f6	0.12207787

m_transform.0.1.bias f4 [64]
0	0x3dcd519c	0.100253314
1	0xbe3ccb11	-0.18436839
2	0xbd09887c	-0.033577427
3	0xbda558d0	-0.0807358
4	0xbd829326	-0.063757226
5	0xbcf7f6a5	-0.030268976
6	0xbe28cb60	-0.16483831
7	0x3b6e82d6	0.0036393902
8	0x3e0f42a5	0.13990267
9	0x3c95f1c0	0.018303752
10	0xbd1b7593	-0.037953924
11	0xbe058390	-0.13038468
12	0xbd586f4e	-0.052840523
13	0xbb78ab08	-0.003794374
14	0xbe256f9b	-0.16155855
15	0xbe232916	-0.15933642
16	0x3d89781c	0.06712362
17	0xbdb1355f	-0.08652758
18	0x3c6a85e7	0.014314151
19	0x3df4d7fa	0.11955257
20	0x3c820644	0.015872128
21	0xbdce7dcc	-0.100825876
22	0x3c90c4fa	0.01767205
23	0xbe29f04c	-0.16595572
24	0xbd5542fa	-0.052065827
25	0xbe11dd8e	-0.14244673
26	0x3c9972fe	0.01873159
27	0xbdc28124	-0.09497288
28	0xbe6d4029	-0.23169006
29	0x3e7a7569	0.24458851
30	0x3bafda1d	0.0053665773
31	0xbe3b7ebd	-0.18310066
32	0xbe63bb4e	-0.2223942
33	0xbdee2881	-0.11628819
34	0x3e6e1dc7	0.23253547
35	0xbe578272	-0.21045855
36	0xbdeff0f9	-0.11715884
37	0xbd6e385a	-0.05815921
38	0x3cab896f	0.020939557
39	0x3d72ca33	0.059274863
40	0xbd1868a0	-0.037209153
41	0x3d2ca346	0.042147897
42	0xbe1ff498	-0.15620649
43	0x3dec3ab2	0.11534633
44	0x3e229907	0.15878688
45	0xbe612e64	-0.21990353
46	0x3e3c6031	0.18396069
47	0x3e2f12b3	0.17096977
48	0xbe660fbe	-0.22466943
49	0x3dc91416	0.09818284
50	0xbde50ba9	-0.111838646
51	0x3d2a3e52	0.04156334
52	0x3dcc48ad	0.09974799
53	0xbd8cb3b8	-0.06870216
54	0xbe60648a	-0.21913353
55	0xbc086f35	-0.008327295
56	0xbddb201f	-0.10699486
57	0xbdb440e9	-0.08801443
58	0xbd9ed1a8	-0.077548325
59	0x3ca61f7b	0.020278683
60	0x3e309bdb	0.17246954
61	0x3b88341d	0.004156603
62	0xbe26c193	-0.1628478
63	0xbd2aa286	-0.0416589

m_transform.0.4.weight f4 [64, 32, 1, 1]
0	0x3e0b1d2a	0.13585344
1	0xbd91f7e3	-0.07127359
2	0x3d9960fb	0.07489201
3	0x3df9c582	0.12195875
4	0xbe37cab9	-0.17948426
5	0x3df5b3d0	0.11997187
6	0x3d998bbf	0.074973576
7	0xbd1b1b32	-0.037867732
8	0xbe50ae80	-0.20379066
9	0x3c22fc60	0.009947866
10	0xbd47b979	-0.048760865
11	0xbe13a29b	-0.14417498
12	0x3e247a6d	0.16062327
13	0x3df14fbb	0.117827855
14	0xbd1a45fa	-0.03766439
15	0x3a48085f	0.0007630642
16	0xbe2348f4	-0.15945798
17	0xbbb7f8f6	-0.0056143953
18	0x3e12ea62	0.14347222
19	0xbcfb5f87	-0.0306852
20	0x3e17d94d	0.14828987
21	0x3c5ca85e	0.013467876
22	0x3e0b0ea6	0.13579807
23	0xbe3db322	-0.18525365
24	0x3e46250e	0.19350073
25	0xbcc420ac	-0.02394136
26	0xbc32cf58	-0.010913692
27	0xbdcbedb0	-0.09957445
28	0x3d8ee4ec	0.06977257
29	0xbca74db9	-0.020422803
30	0xbd12273b	-0.035681944
31	0x3df3260f	0.118724935
32	0xbe0c9f52	-0.13732651
33	0xbd03a3e7	-0.03213873
34	0x3e1a2b9a	0.15055695
35	0x3e0172ba	0.12641421
36	0x3dfc47a1	0.1231835
37	0x3d30ecda	0.04319463
38	0x3d29932c	0.04140012
39	0x3e1176c1	0.14205457
40	0xbdfbf114	-0.123018414
41	0xbe0103a0	-0.12599039
42	0x3d81b34a	0.06333025
43	0xbd438ff1	-0.047744695
44	0xbe0b8e74	-0.1362856
45	0xbd9a127c	-0.07523057
46	0x3d9a336c	0.07529339
47	0x3dc92d90	0.098231435
48	0xbe296b12	-0.1654475
49	0xbe26c663	-0.16286616
50	0xbd50e3f8	-0.050998658
51	0xbdef23cb	-0.11676749
52	0xbe3aa829	-0.1822821
53	0x3e2041ed	0.15650149
54	0xbe027b96	-0.12742457
55	0x3d1373fc	0.035999283
56	0x3d80e973	0.06294527
57	0x3d2ac73e	0.04169392
58	0xbce02065	-0.027359197
59	0xbe15f35c	-0.14643615
60	0xbb3243fc	-0.0027201166
61	0xbe15fe6d	-0.14647837
62	0x3e0fcb2e	0.1404235
63	0x3cceb9ac	0.02523502
64	0xbdf93bac	-0.12169585
65	0x3dfdda6d	0.12395177
66	0xbce1dff8	-0.027572617
67	0x3dd866bc	0.1056647
68	0x3d8c2802	0.068435684
69	0x3e08ab0d	0.133465
70	0x3e2b405f	0.16723774
71	0xbddafad6	-0.106923744
72	0x3e133c41	0.14378454
73	0xbe068b18	-0.13138998
74	0x3cbb7421	0.022882523
75	0x3d47346f	0.04863399
76	0x3e0aaf96	0.13543543
77	0xbdfaae5d	-0.122402884
78	0x3e102e5c	0.14080185
79	0xbdc52767	-0.09626656
80	0x3e20d5b0	0.15706515
81	0x3e136b4e	0.14396402
82	0xbe44134f	-0.1914799
83	0xbd9dd889	-0.077073164
84	0xbe33933c	-0.17536634
85	0x3df9f151	0.122042306
86	0x3d80b4a0	0.062844515
87	0xbd1e841e	-0.038700216
88	0xbdc0ccf6	-0.09414093
89	0x3d1b0ad3	0.03785212
90	0xbc1f2e9f	-0.009715705
91	0xbc43f352	-0.011959868
92	0xbd4e827e	-0.050417416
93	0xbe345232	-0.1760948
94	0xbd95a026	-0.073059365
95	0xbd61186b	-0.054954927
96	0x3dec8819	0.11549396
97	0x3e2780c1	0.1635771
98	0x3df1a58c	0.11799154
99	0xbc0989ae	-0.008394642
100	0x3d8adeef	0.067808025
101	0x3d4193c7	0.047260072
102	0xbe21c73e	-0.15798661
103	0xbce910ac	-0.028450333
104	0xbe0d42b3	-0.13794975
105	0x3d104204	0.035219207
106	0x3e1ca36c	0.15296715
107	0x3e182d84	0.14861113
108	0x3de1d43a	0.11026807
109	0xbdd6b663	-0.10484006
110	0xbccc4b1d	-0.02493816
111	0x3d646129	0.05575672
112	0x3ded23f9	0.11579127
113	0x3e109dd7	0.14122711
114	0x3c14da24	0.009085212
115	0x3e3ce03e	0.18444917
116	0xbd398ef9	-0.045302365
117	0xbd43c3cc	-0.04779415
118	0xbd0c5ae8	-0.034266382
119	0xbda908d0	-0.08253634
120	0x3c16ccb4	0.0092040785
121	0xbe0e48c8	-0.13894951
122	0x3db04706	0.08607297
123	0x3d9ab3fe	0.07553862
124	0x3da3d754	0.08000055
125	0x3d2bccb3	0.041943263
126	0xbd14167a	-0.036154248
127	0xbcd792d0	-0.026315123
128	0xbda85e4f	-0.08221113
129	0x3db19daa	0.0867265
130	0x3bb59f0b	0.005542641
131	0x3d139494	0.036030367
132	0xbd89f402	-0.06735994
133	0xbdd01ba8	-0.10161525
134	0xbc192324	-0.009346757
135	0x3e0823c3	0.13294892
136	0xbe34f944	-0.17673212
137	0x3e0cd14e	0.13751718
138	0xbdc78927	-0.097429566
139	0xbe1c98f1	-0.15292718
140	0xbcca5a52	-0.024701271
141	0xbde40801	-0.11134339
142	0x3dcb85ab	0.099376045
143	0xbe53a53f	-0.20668505
144	0x3b67fb1f	0.0035397483
145	0x3dfbc16f	0.12292754
146	0xbc8cd9f2	-0.017193768
147	0xbd9851ce	-0.07437478
148	0xbde3509b	-0.11099359
149	0x3dd42a67	0.1035965
150	0xbd30a780	-0.04312849
151	0xbdc4fcfd	-0.09618566
152	0x3d44212d	0.0478832
153	0x3d76133f	0.06007695
154	0x3d595acb	0.053065103
155	0x3da9ff0c	0.083005995
156	0x3e04ff71	0.12988068
157	0x3d849755	0.06474177
158	0xbd61c6bf	-0.05512118
159	0x3db1ae81	0.08675862
160	0x3bd7f2c1	0.006590218
161	0xbe310dd6	-0.17290434
162	0x3d58ed56	0.052960716
163	0xbe2c2780	-0.16811943
164	0xbe13d039	-0.144349
165	0xb9a87053	-0.00032127145
166	0xbd60148c	-0.054707095
167	0xbb976a93	-0.004620859
168	0x3cd57b70	0.026059836
169	0xbdebade0	-0.115077734
170	0x3d2e34c7	0.0425308
171	0x3e0da512	0.138325
172	0xbe06a467	-0.13148652
173	0xbb0561c5	-0.0020352465
174	0x3a0b4af2	0.0005313597
175	0x3b4dfa3a	0.0031429664
176	0x3d071adb	0.032984596
177	0x3dbda111	0.092592366
178	0x3dd9d365	0.106360234
179	0xbe0d72df	-0.13813351
180	0xbe48089e	-0.19534537
181	0xbe23cdea	-0.15996519
182	0xbcd7a3f9	-0.026323305
183	0x3da29018	0.0793764
184	0x3e1ea797	0.15493618
185	0xbdf0b062	-0.11752392
186	0x3e1bc7eb	0.15212981
187	0x3d38877f	0.045051094
188	0xbe019154	-0.12653095
189	0x3d13bfd1	0.036071602
190	0x3d1fc250	0.03900367
191	0xbd472bbe	-0.0486257
192	0xbd963324	-0.07333973
193	0x3db4c1d4	0.08826032
194	0xbdcb5d4b	-0.099299036
195	0x3e02fb7b	0.12791245
196	0x3d9846a0	0.07435346
197	0x3c8846b6	0.01663528
198	0xbdf75bb4	-0.12078038
199	0xbe523bcd	-0.20530625
200	0xbe056f1a	-0.13030663
201	0x3dab99cf	0.08378946
202	0xbbc29359	-0.0059379754
203	0x3dec7fe1	0.115478285
204	0x39850f3b	0.00025379084
205	0x3cc7f65c	0.024409465
206	0xbd449a8f	-0.04799896
207	0xbdd59456	-0.104286835
208	0xba9e444a	-0.0012074795
209	0x3d74a4d5	0.05972751
210	0x3d645edc	0.055754527
211	0x3d239e4f	0.039945897
212	0x3e198c76	0.14994988
213	0x3de4507d	0.111481644
214	0x3bc2ece0	0.005948648
215	0x3c79b87a	0.015241737
216	0xbdac498a	-0.08412464
217	0x3e62e739	0.22158517
218	0xbcdc7d81	-0.026915314
219	0x3d87fd8b	0.06640156
220	0x3e319e45	0.17345531
221	0x3dbe21ab	0.092837654
222	0x3c348292	0.0110174585
223	0x3d9bb8bd	0.076035954
224	0xbcaf2494	-0.021379746
225	0x3dfed578	0.1244306
226	0x3e2841a3	0.16431288
227	0xbdc3a366	-0.0955265
228	0xbd27cf52	-0.0409692
229	0xbda29135	-0.07937852
230	0x3e38ea0f	0.18058036
231	0x3e38b904	0.18039328
232	0x3dc842be	0.09778355
233	0xbe0aaf74	-0.13543493
234	0x3de0d7ab	0.109786354
235	0xbdf3111f	-0.118685
236	0xbcfa73e9	-0.030572848
237	0xbe04b5ce	-0.12959978
238	0xbe09cacb	-0.13456266
239	0x3d6a780b	0.05724339
240	0xbcb6e127	-0.022324158
241	0xbc59380b	-0.013257991
242	0xbd3fb695	-0.046804983
243	0x3dc4f6fe	0.096174225
244	0xbdb0bfbb	-0.0863032
245	0xbd323d42	-0.04351545
246	0x3c5ecb02	0.0135982055
247	0xbd74614c	-0.059663102
248	0x3da611ae	0.08108841
249	0x3e2289bd	0.15872855
250	0x3c8d8a4f	0.017277865
251	0xbe6c05b3	-0.23049049
252	0xbd76dfa1	-0.060271863
253	0xbd3de5ac	-0.04636161
254	0xbe13c7a6	-0.14431629
255	0x3e31c6ae	0.17360947

m_transform.0.4.bias f4 [64]
0	0xbd75ce15	-0.06001099
1	0xbdfa7d1a	-0.122308925
2	0xbdb8f94d	-0.09031925
3	0xbdf877a9	-0.12132198
4	0x3cfae857	0.030628366
5	0xbc0b9f45	-0.0085218595
6	0xbd351e8f	-0.044218596
7	0xbe353ece	-0.1769974
8	0x3cabfd3d	0.020994777
9	0x3da3c572	0.07996644
10	0xbdef789d	-0.11692927
11	0x3ddd6bc5	0.10811571
12	0x3d531da7	0.05154195
13	0x3ca957df	0.020671783
14	0xbcb55d2c	-0.022139154
15	0x3cc28015	0.023742715
16	0x3dbd666c	0.09248051
17	0xbe31ef3d	-0.17376418
18	0x3e1ec4dd	0.15504785
19	0xbb9e1ab7	-0.004824962
20	0x3dd70816	0.10499589
21	0xbe2eaca1	-0.1705804
22	0x3dde7bd3	0.10863461
23	0xbccd478a	-0.025058527
24	0x3e3bfb31	0.1835754
25	0x3de9bd40	0.1141305
26	0xbe0e7546	-0.13911924
27	0x3cc6e9a2	0.024281327
28	0x3e5d61b6	0.21619305
29	0x3da1a0f0	0.078920245
30	0x3da817f9	0.082076974
31	0x3e389bc4	0.1802817
32	0x3e05b21d	0.13056226
33	0xbd72e714	-0.059302405
34	0xbe04829e	-0.12940452
35	0xbc477b0d	-0.012175334
36	0xbe4a8bba	-0.19779864
37	0x3e0a7386	0.13520631
38	0xbbdb010e	-0.0066834753
39	0xbc428099	-0.01187148
40	0x3dd31ae7	0.103078656
41	0x3e26206d	0.16223307
42	0xbd016f84	-0.03160049
43	0x392b96f4	0.00016364065
44	0x3e45c3c1	0.19312955
45	0xbda12cf8	-0.07869905
46	0x3c1433e2	0.009045573
47	0x3d80cd62	0.06289174
48	0x3dff5d60	0.12468982
49	0xbcfe766e	-0.031062331
50	0x3d40eeae	0.047102623
51	0x3ba8641b	0.0051388866
52	0x3cda9e29	0.026686745
53	0xbe1a50b5	-0.1506985
54	0x3d605e1a	0.054777242
55	0x3daae701	0.08344842
56	0xbe04c4a7	-0.12965642
57	0xbda6aba2	-0.08138205
58	0xbc39f188	-0.011349089
59	0xbde6b693	-0.11265292
60	0xbd8375ee	-0.06418978
61	0xbc882d8b	-0.01662328
62	0x3e1e8161	0.15479042
63	0xbe13a77f	-0.14419363

m_transform.0.6.running_mean f4 [32]
0	0x3f6524ae	0.89509094
1	0xbef3550a	-0.47525817
2	0x3f5cc470	0.8623724
3	0x3fb9149b	1.4459413
4	0xbde7095e	-0.112810835
5	0xbdd98a21	-0.10622049
6	0x3ecb2104	0.39673626
7	0x3ed01b46	0.40645808
8	0x3a8f7839	0.0010945863
9	0x3f593f02	0.8486177
10	0xbf1b6407	-0.60699505
11	0xbe5109e8	-0.20413935
12	0x3ec22bf8	0.3792417
13	0x3ef54a85	0.47908416
14	0x3f713e78	0.94235945
15	0x3f49d2a3	0.7883703
16	0x3f08b2eb	0.5339801
17	0xbf0bd869	-0.5462709
18	0x3f7d4f35	0.98948985
19	0x3f9fcbc5	1.248406
20	0xbd8c69a6	-0.06856088
21	0x3b0d49ba	0.0021558837
22	0x3f9bfc45	1.2186362
23	0x3e872c16	0.26400822
24	0x3ca7e1a1	0.02049333
25	0x3f6e551b	0.9309861
26	0x3e09d6bc	0.13460821
27	0x3ee587e5	0.44830242
28	0x3f8a782f	1.0817927
29	0x3f90b854	1.1306252
30	0x3f9c6065	1.2216917
31	0x3f47d26a	0.7805544

m_transform.0.6.running_var f4 [32]
0	0x3eb7c368	0.3589127
1	0x3daf43e7	0.08557873
2	0x3f5a6c1c	0.8532121
3	0x3ea5a4a7	0.32352182
4	0x3db10f9f	0.086455576
5	0x3e1a9adb	0.15098135
6	0x3d81438c	0.06311712
7	0x3de368d1	0.111039765
8	0x3e1dc746	0.15408048
9	0x3e9e9c63	0.3097869
10	0x3e124f28	0.14288008
11	0x3d54bae4	0.051936045
12	0x3d8a6696	0.06757848
13	0x3e32e80c	0.17471331
14	0x3e8e8801	0.27838138
15	0x3e2bb37e	0.1676769
16	0x3ee01d1a	0.43772203
17	0x3e70d214	0.23517638
18	0x3e822298	0.25417018
19	0x3e9e9561	0.30973342
20	0x3d997368	0.07492715
21	0x3e08e63a	0.13369074
22	0x3ecc8cf4	0.3995129
23	0x3d8da501	0.069162376
24	0x3db56610	0.088573575
25	0x3f06449f	0.5244846
26	0x3e390202	0.18067172
27	0x3dcb46cb	0.09925612
28	0x3ecb1f55	0.39672342
29	0x3e86a582	0.26298147
30	0x3e8ee354	0.27907813
31	0x3e03002e	0.12793037

m_transform.0.7.weight f4 [96, 32, 3, 3]
0	0xbd58fff5	-0.052978475
1	0x393c1d3a	0.00017939965
2	0xbcdc08b6	-0.026859622
3	0xbd67c42f	-0.05658358
4	0xbc0a830e	-0.008454097
5	0x3d5bcb67	0.053660776
6	0x3d2f1970	0.04274887
7	0xbc323127	-0.010875977
8	0x3cab7386	0.02092911
9	0xbc60dd7d	-0.013724682
10	0x3d880ac7	0.066426806
11	0x3b920bb5	0.004456962
12	0x3c92fa1a	0.017941523
13	0x3c34a82b	0.0110264225
14	0xbd3dc382	-0.04632903
15	0xbc1f97d2	-0.009740787
16	0xbce25a75	-0.027631024
17	0x3d693b86	0.05694153
18	0xbce3d35b	-0.027810743
19	0xbcb8cdb4	-0.022559024
20	0xbcf27bd5	-0.029600063
21	0xbcbc9049	-0.02301802
22	0xbd1f5474	-0.0388989
23	0xbc0ee1ec	-0.008720856
24	0xbd7d482b	-0.061836403
25	0x3a886f85	0.0010409212
26	0x3c6f3342	0.014599623
27	0x3c884f2b	0.016639313
28	0xbd17302c	-0.036911175
29	0xbd366fe4	-0.0445403
30	0xbd70d1fb	-0.058794003
31	0x3c453202	0.012035849
32	0xbd271d23	-0.04079927
33	0xbce69e00	-0.028151512
34	0x3c051397	0.008122346
35	0x3da1fa6d	0.07909093
36	0x3d3c6345	0.04599311
37	0xbd179bff	-0.037014004
38	0x3bfd556d	0.007731131
39	0xbcb5a05c	-0.022171192
40	0xbda0786b	-0.07835468
41	0xbcb60d0e	-0.022223022
42	0xbd730d0a	-0.059338607
43	0x3c183c45	0.009291713
44	0x3da6b9d7	0.08140915
45	0x3d9ad047	0.07559257
46	0x3c04ee99	0.008113527
47	0x3d72777f	0.05919599
48	0x3c07bc0a	0.008284578
49	0xb9f6245a	-0.0004694786
50	0x3d17e512	0.037083693
51	0xbd591afd	-0.053004254
52	0xbc5d4dc0	-0.013507307
53	0x3c9d728b	0.019219657
54	0xbd111c2f	-0.03542727
55	0xbdb62b5d	-0.0889499
56	0xbc4c0c8a	-0.012454161
57	0xbd6ace89	-0.057325874
58	0xbca399f0	-0.019970864
59	0xbd719c4f	-0.058986958
60	0x3d81f3af	0.06345307
61	0xbcca8a5c	-0.024724178
62	0xbd50cece	-0.050978474
63	0xbd80fd60	-0.062983274
64	0x3c8dcece	0.017310526
65	0x3ba5e389	0.0050625247
66	0xbc820711	-0.01587251
67	0x3d32ed72	0.043683477
68	0x3d4455bb	0.04793332
69	0x3b765dee	0.0037592608
70	0x3d367515	0.044545252
71	0x3d8723d3	0.0659863
72	0xbc34b18a	-0.011028657
73	0x3d845bbf	0.06462812
74	0xbd48f62b	-0.04906289
75	0x3aa16281	0.0012312682
76	0x3d3eaeb5	0.046553332
77	0xbcebf8eb	-0.028805217
78	0x3d6a3205	0.05717661
79	0xbc30e790	-0.010797396
80	0x3d54ec50	0.051983178
81	0xbd5e6a86	-0.054300807
82	0x3d14dba8	0.036342293
83	0xbd5515ee	-0.052022867
84	0xbcff52a7	-0.031167341
85	0x3a81a63b	0.000989146
86	0xbbe77135	-0.007063056
87	0xbcab7cbf	-0.020933507
88	0x3cdede89	0.027205722
89	0x3d549d0b	0.05190758
90	0xbc5d7df4	-0.013518799
91	0xbd011f2c	-0.03152387
92	0xbd9a512c	-0.075350136
93	0xbce10d25	-0.027472088
94	0xba4e459c	-0.0007868649
95	0xbdafded4	-0.08587423
96	0xbd568e67	-0.0523819
97	0x3c8b7a1a	0.017025996
98	0xbdb6feb2	-0.08935298
99	0xbca7fda2	-0.020506684
100	0x3abc025b	0.0014343964
101	0x3cda810b	0.02667286
102	0x3c9c578c	0.019084714
103	0x3cb6ba43	0.022305613
104	0x3d503154	0.050828293
105	0xbd6f3c89	-0.05840734
106	0x3d0c3017	0.03422555
107	0xbc86f70d	-0.016475225
108	0x3d24303e	0.04008507
109	0xbd6b5142	-0.05745054
110	0x3c39727d	0.0113188
111	0x3d851904	0.06498912
112	0x3d83f72a	0.06443627
113	0xbc16c41c	-0.00920203
114	0x3c3c2d8c	0.011485469
115	0x3cf3d24d	0.029763365
116	0x3d534497	0.051579084
117	0xbd3a0b32	-0.045420833
118	0x3d4d7762	0.05016268
119	0x3ca9879c	0.020694546
120	0xbd9daf1a	-0.076994136
121	0xbc3a9e9a	-0.011390353
122	0xbd01a1bc	-0.031648383
123	0x3cbe6304	0.023240574
124	0x3c72f256	0.014828285
125	0x3d052d1c	0.032513723
126	0xbb9de61a	-0.00481869
127	0xbcbe2678	-0.023211703
128	0xbcea0158	-0.028565094
129	0xbdace4a4	-0.08442047
130	0x3c77375a	0.01508888
131	0xbd393eb2	-0.045225807
132	0xbd505707	-0.050864246
133	0x3c9127b5	0.01771913
134	0x3d5d9bc5	0.05410363
135	0x3b2c9bbd	0.0026337944
136	0xbcce3b76	-0.025174838
137	0xbd2b41fb	-0.04181097
138	0xbd8b44b8	-0.068002164
139	0xbc81da11	-0.015851052
140	0xbd5efc70	-0.054439962
141	0xbdabe120	-0.083925486
142	0xbd3cabb6	-0.046062194
143	0xbd54b4de	-0.0519303
144	0x3d4b13d5	0.04957946
145	0x3cc07141	0.023491504
146	0xbcc6c828	-0.024265364
147	0x3d4afd1f	0.0495578
148	0xbcaf012f	-0.02136287
149	0xbc6608c1	-0.014040173
150	0x3cfe3501	0.031031134
151	0x3b794eb7	0.0038041302
152	0xbd866efb	-0.065641366
153	0xbce95ecd	-0.028487587
154	0xbd034d47	-0.03205612
155	0xbd3547a7	-0.044257786
156	0xbbc6c13a	-0.006065515
157	0xbc53a69c	-0.012918141
158	0xbd502e4b	-0.0508254
159	0xbd329edb	-0.043608528
160	0x3c9ec13c	0.01937925
161	0x3ccfd45f	0.025369821
162	0x3d83efc9	0.0644222
163	0x3ca40802	0.02002335
164	0x3d961de1	0.07329918
165	0xbc8caf36	-0.01717339
166	0xbd411c84	-0.047146335
167	0x3cb3ea91	0.021962436
168	0x3c988aee	0.018620934
169	0x3d2daf92	0.042403765
170	0x3d99163f	0.07474946
171	0xbd8abbd3	-0.06774106
172	0x3d5d2d03	0.053998005
173	0x3a8e1837	0.0010840957
174	0xbd89cd03	-0.06728556
175	0x3d5fd9da	0.05465112
176	0x3d5bd357	0.053668346
177	0xbd44a363	-0.04800738
178	0x3ca12db0	0.019675106
179	0xbc2c6e32	-0.0105243195
180	0xbca70255	-0.020386854
181	0xbc9d2dda	-0.019186903
182	0xbd0b7673	-0.03404851
183	0x3c59d43e	0.013295231
184	0xbc5193d0	-0.012791589
185	0xbd2ea06a	-0.04263345
186	0xbd1efe42	-0.038816698
187	0x3d273a2f	0.040826973
188	0xbc2ab3eb	-0.010418872
189	0x3ccb9528	0.024851397
190	0x3d126083	0.035736572
191	0x3d9ebb54	0.07750574
192	0xbc49fe26	-0.01232866
193	0x3d0908c7	0.033455636
194	0x3d40f16d	0.04710524
195	0xbcb07c85	-0.02154375
196	0xbcbdf84e	-0.02318969
197	0xbcb2b45f	-0.021814523
198	0xbaff0098	-0.0019455133
199	0xbc9bcec8	-0.0190195
200	0x3d26aa4a	0.040689744
201	0xbbef0351	-0.0072940965
202	0xbd42abee	-0.047527246
203	0x3cfcb296	0.030846875
204	0x3c97a1bc	0.018509738
205	0x3b8cf517	0.004301678
206	0x3cadd0e7	0.021217776
207	0xbd62316b	-0.05522291
208	0xbd1fd7cc	-0.03902416
209	0xbd4db4a3	-0.050221097
210	0x3b5c04c1	0.003357217
211	0x3d15d546	0.036580347
212	0xbcfea7dc	-0.031085901
213	0x3cd61a4e	0.02613559
214	0x3c2e8652	0.010652142
215	0x3d8f42d5	0.06995169
216	0xbbd1c075	-0.0064011165
217	0xbd7c08f8	-0.06153199
218	0x3c29024c	0.010315489
219	0xbaca71ae	-0.0015445256
220	0x3a7cabba	0.00096386264
221	0xbd179196	-0.037004076
222	0x3c0a4105	0.008438353
223	0xbd4f516f	-0.05061477
224	0x3cc24f61	0.023719491
225	0x3cfff623	0.031245297
226	0x3b62efb3	0.0034627735
227	0xbd1de0b5	-0.038544375
228	0x3cb0f370	0.021600455
229	0x3c821760	0.015880287
230	0x3c39abe3	0.011332485
231	0x3d3f1b54	0.04665692
232	0x3d0c577c	0.03426312
233	0x3d322571	0.04349274
234	0xbd7cbbd9	-0.061702583
235	0xbd81b44b	-0.06333216
236	0xba38eb94	-0.0007054147
237	0xbd21ebd7	-0.039531555
238	0x3c70ed2c	0.014704984
239	0x3cac9bf3	0.021070456
240	0xbcc558d6	-0.024090212
241	0x3d10b23b	0.035326224
242	0xbc10ee44	-0.008845869
243	0xbc884744	-0.016635545
244	0x3b0ae2af	0.0021192243
245	0x3d1beaee	0.038065843
246	0x3ab0ae3f	0.0013479664
247	0x3d713441	0.058887724
248	0xbcba4438	-0.022737607
249	0x3b7b43ad	0.0038339898
250	0x3d484841	0.04889703
251	0x3d603ccb	0.054745477
252	0xbcf1a41c	-0.029497199
253	0x3d52153c	0.051289782
254	0xbd6025c6	-0.054723524
255	0x3c86f0bf	0.016472219

m_transform.0.7.bias f4 [96]
0	0x3d006bd8	0.031352848
1	0x3b90d3b6	0.004419769
2	0xbd2a271e	-0.04154121
3	0xbdaf8d2f	-0.085718505
4	0xbb36f222	-0.0027915318
5	0x3cf74e49	0.030188696
6	0x3d1d2eec	0.038374826
7	0xbbfff841	-0.0078115766
8	0xbd1c770c	-0.03819947
9	0xbd8290db	-0.06375285
10	0xbd266af7	-0.040629353
11	0xbc95b790	-0.018276006
12	0xbd476266	-0.048677824
13	0xbd4917c2	-0.049094923
14	0x3a67b6e3	0.0008839203
15	0x3d639c41	0.055568937
16	0xbd5fb1bd	-0.054612864
17	0x3d3c1afe	0.04592418
18	0xbdab138f	-0.0835334
19	0x3cdf6b40	0.02727282
20	0x3cafeb95	0.021474639
21	0xbc85bb71	-0.01632473
22	0xbd8970b7	-0.06710952
23	0xbc98fc8c	-0.018675111
24	0xbd0b922e	-0.034074955
25	0x3c9002ea	0.017579515
26	0x3d91c604	0.071178466
27	0xbc3c2417	-0.011483214
28	0x3d448c0d	0.047985125
29	0xbc2a7247	-0.010403222
30	0xbd26a83e	-0.040687792
31	0xbd432143	-0.047639143
32	0xbd186f78	-0.03721568
33	0xbcda32a2	-0.026635472
34	0xbbf29dca	-0.007404064
35	0xbd717461	-0.05894888
36	0xbba76200	-0.005108118
37	0xbd0cd737	-0.034384932
38	0xbc19df52	-0.009391623
39	0x3d7056af	0.058676418
40	0xbb2eee7a	-0.0026692436
41	0x3d1db5b7	0.038503375
42	0x3d1b994f	0.037988003
43	0xbc2b902e	-0.010471387
44	0xbcccac61	-0.02498454
45	0xbd139d58	-0.036038727
46	0xbcec09f1	-0.028813334
47	0x3cb34d77	0.021887524
48	0x3d43b534	0.04778023
49	0xbcd44d80	-0.025915861
50	0xbd3a6ce9	-0.04551402
51	0xbb9edc75	-0.004848058
52	0xbbfc9e09	-0.007709269
53	0xbcb51c08	-0.022108093
54	0xbd4f6d47	-0.050641324
55	0xbd142b6b	-0.03617422
56	0x3ba0a565	0.004902529
57	0x3d1a9aff	0.037745472
58	0xbd5159dd	-0.05111109
59	0xbd1e7910	-0.038689673
60	0x3db63e5d	0.088986136
61	0x3c54fad0	0.0129992515
62	0x3cbac4c3	0.022798901
63	0xbd117db4	-0.03552027
64	0x3bc9f25b	0.006162924
65	0xbd4d91d5	-0.050187904
66	0xbcdf8cb1	-0.027288767
67	0xbce7793e	-0.028256055
68	0x3d3e48be	0.04645609
69	0xbd397137	-0.045273986
70	0x3cb4c638	0.022067174
71	0xbcc86074	-0.024460055
72	0xbc7e81e7	-0.015533901
73	0xbd4bbde2	-0.049741633
74	0xbd88e374	-0.06684008
75	0xbce7348a	-0.028223295
76	0xbd5a05ef	-0.053228315
77	0xbca121e7	-0.019669486
78	0xbb03d0c1	-0.002011344
79	0x3c5bdd95	0.0134195285
80	0xbd01d3b0	-0.03169602
81	0x3d2038c7	0.039116647
82	0xbd856ba3	-0.06514671
83	0xbcbdeb57	-0.023183508
84	0xbd212097	-0.03933772
85	0xbd868a1e	-0.065693125
86	0xbd4d322d	-0.05009668
87	0xbd0a3415	-0.033741076
88	0xbd1a702c	-0.03770463
89	0xbc96850e	-0.018373992
90	0xbd06fe99	-0.032957647
91	0x3cff06c2	0.031131152
92	0xbd59a34f	-0.05313426
93	0xbd1ec44f	-0.038761433
94	0xbcab64b7	-0.020922048
95	0x3d9faee2	0.07797028

m_transform.0.10.running_mean f4 [48]
0	0x3fd8d90e	1.694124
1	0x3fbf36c2	1.4938586
2	0x3fc1336d	1.5093819
3	0x3fcdceac	1.6078696
4	0x3fd460f2	1.6592085
5	0x3fb659bd	1.4246136
6	0x3fc279bc	1.51934
7	0x3f8a1490	1.0787525
8	0x3fbd8788	1.4806986
9	0x3fc2d0f1	1.5220014
10	0x3fefea89	1.874345
11	0x3fca0cf3	1.5785202
12	0x3f8c60d9	1.0967056
13	0x3faf3ee4	1.3691068
14	0x3fdea7aa	1.7394917
15	0x3fde9b03	1.7391056
16	0x3fc4c4fa	1.5372612
17	0x3ff1370a	1.8844922
18	0x3f7f5658	0.99741125
19	0x3f849bb3	1.0360016
20	0x3fbd0012	1.4765646
21	0x3fa2f46e	1.2730844
22	0x3fde8f67	1.7387513
23	0x3f5abea0	0.8544712
24	0x3fb050cf	1.3774661
25	0x3f9aa76e	1.2082345
26	0x3f9918fc	1.196075
27	0x3f73009f	0.9492282
28	0x3fc16aa1	1.5110666
29	0x3ffb2136	1.961951
30	0x3feec814	1.8654809
31	0x3fd2bd20	1.6463966
32	0x3fbbc6f9	1.4670097
33	0x3fba01d1	1.4531804
34	0x3fd613ef	1.6724833
35	0x3fb1557a	1.385421
36	0x3fb3c465	1.404431
37	0x3fdefd45	1.7421042
38	0x3fcc65cd	1.5968567
39	0x3fa50212	1.2891257
40	0x3f8dbcee	1.1073282
41	0x3fd8b702	1.693085
42	0x40064f8c	2.0986052
43	0x3fb369d0	1.4016666
44	0x3fa9c510	1.3263264
45	0x3fd587a9	1.6682025
46	0x3f89ac64	1.0755734
47	0x3fe1783d	1.7614819

m_transform.0.10.running_var f4 [48]
0	0x3fbf31c4	1.4937062
1	0x3fd81bdc	1.6883502
2	0x3f22da70	0.6361456
3	0x40532ce4	3.299615
4	0x40204831	2.5044062
5	0x3f8c956b	1.0983099
6	0x3f6414b3	0.89094085
7	0x3f2396c6	0.63901937
8	0x3f1f7b6f	0.6229772
9	0x3fe66b19	1.8001434
10	0x3f38a183	0.7212145
11	0x3f3a8ed9	0.7287422
12	0x400d012b	2.2031963
13	0x3fb7150b	1.4303297
14	0x3f259201	0.6467591
15	0x3fdadf8f	1.7099475
16	0x3fdea310	1.7393513
17	0x3f8f5440	1.1197586
18	0x3feca64e	1.8488252
19	0x403265b5	2.7874577
20	0x3fa88cea	1.3168004
21	0x3fc8d9e2	1.5691493
22	0x3f3afaa4	0.730387
23	0x3f11cb3b	0.5695073
24	0x3f252b3e	0.6451911
25	0x3fef4a2b	1.8694509
26	0x3f6e497d	0.93080884
27	0x3f0ee8fa	0.55824244
28	0x3f2f8258	0.68558264
29	0x3ff4b845	1.9118735
30	0x3fa730a0	1.3061714
31	0x401c0de0	2.4383469
32	0x3f5a1cf3	0.85200423
33	0x3fdd8709	1.7306834
34	0x3f8e2b5e	1.1106985
35	0x3fd1c007	1.6386727
36	0x3f714450	0.9424486
37	0x3f16292d	0.5865658
38	0x3f69196a	0.91054404
39	0x40076c8c	2.1160002
40	0x40438fd5	3.0556538
41	0x3f877a44	1.0584188
42	0x3f2ec154	0.68263745
43	0x3f56dd2e	0.83931243
44	0x3f328bd8	0.69744635
45	0x3fd856bc	1.6901469
46	0x3eef77b6	0.4677102
47	0x3f1c06a3	0.60947627

m_transform.0.11.weight f4 [96, 48, 1, 1]
0	0x3dfd1374	0.12357226
1	0x3e0b3a43	0.13596444
2	0xbd8a31da	-0.0674779
3	0xbdf70474	-0.12061396
4	0xbe042946	-0.1290637
5	0x3de491fd	0.111606576
6	0x3d6a44ea	0.057194628
7	0x3baf077b	0.005341468
8	0x3d6b0d8a	0.05738596
9	0xbdaa5e3b	-0.08318754
10	0xbdd1a644	-0.10236791
11	0x3dab1b74	0.08354846
12	0x3e0c3801	0.13693239
13	0x3d934073	0.07190027
14	0xbd83cdd3	-0.06435742
15	0x3cd0dbc3	0.025495416
16	0x3c0b767f	0.008512138
17	0x3d3f575d	0.046714175
18	0x3d8f8181	0.07007123
19	0xbd1759f8	-0.036951035
20	0x3e15e11a	0.1463665
21	0x3c95e497	0.018297477
22	0x3da66ad0	0.081258416
23	0x3d5464ba	0.051853873
24	0xbdf60b5b	-0.12013885
25	0x3dc0ca27	0.094135575
26	0x3e0bf06e	0.13665935
27	0x3d491914	0.049096182
28	0xbe1915f7	-0.14949785
29	0x3ca44bc0	0.020055652
30	0x3e02889c	0.12747425
31	0x3e0369b6	0.12833294
32	0xbdcc9ac2	-0.09990455
33	0x3e06740d	0.13130207
34	0xbd5365e9	-0.05161086
35	0xbd80b7a4	-0.06285027
36	0x3cbd2162	0.023087207
37	0xbe069eff	-0.1314659
38	0x3dc5f4bd	0.09665821
39	0x3e06f176	0.13178048
40	0x3ce7f9a1	0.028317275
41	0xbdeedc04	-0.116630584
42	0xbe06c411	-0.13160731
43	0x3db58f12	0.08865179
44	0xbe06ac71	-0.13151719
45	0x3c5153c0	0.012776315
46	0x3e026377	0.12733255
47	0x3c5729ae	0.013132496
48	0x3c02940c	0.007969867
49	0xbde6ec18	-0.112755
50	0xbdaceb46	-0.08443312
51	0xbc4e896d	-0.012606007
52	0xbc741db7	-0.014899663
53	0x3dd796f2	0.105268374
54	0x3bd8d98b	0.00661773
55	0xbdeaef45	-0.11471418
56	0xbdb56256	-0.08856647
57	0x3da5a805	0.08088688
58	0x3e0c013c	0.13672346
59	0x3db829e2	0.089923635
60	0x3d3992ec	0.04530613
61	0xbdc9b1b2	-0.09848346
62	0x3c166bb6	0.009180954
63	0xbe0987ae	-0.13430664
64	0xbd90dae1	-0.07072998
65	0xbd509846	-0.05092647
66	0x3d5a4b11	0.053294245
67	0xbd8eeba9	-0.06978542
68	0x3e227b3e	0.15867326
69	0x3cb1029a	0.021607686
70	0x3dbaef27	0.09127646
71	0xbcceb6a6	-0.025233578
72	0xbd919983	-0.07109358
73	0x3d8f2dbb	0.06991144
74	0x3ccd6742	0.025073651
75	0x3d655ab3	0.0559947
76	0x3d844718	0.064588726
77	0x3c076a2a	0.008265058
78	0xbc04730a	-0.008084068
79	0xbd97fcd8	-0.07421273
80	0xbd02f43e	-0.03197121
81	0xbe04f12e	-0.12982628
82	0x3b9a027f	0.0047000046
83	0x3d006fc8	0.031356603
84	0xbdda11f9	-0.10647959
85	0x398e2b14	0.00027116446
86	0x3d11fc70	0.035641134
87	0xbe059e77	-0.13048731
88	0xbd8a418a	-0.06750782
89	0x3d711f89	0.058867965
90	0x3c30581c	0.010763194
91	0xbd1c1f85	-0.038115997
92	0x3a5d3a3c	0.00084391586
93	0xbd882b5e	-0.06648897
94	0xbdaa525c	-0.0831649
95	0x3d6d63ef	0.057956632
96	0x3d6ca33d	0.057772864
97	0x3dec021d	0.115238406
98	0xbd35a632	-0.04434795
99	0xbd2ad7ed	-0.04170983
100	0xba8dd1c5	-0.0010819962
101	0xbe10705d	-0.14105363
102	0x3dc5ddf5	0.096614756
103	0xbcb3b962	-0.021938983
104	0x3d5cf531	0.05394477
105	0x3d2c1c3c	0.042019114
106	0x3db8ae5e	0.09017633
107	0xbda2321b	-0.07919713
108	0xbddfa25d	-0.1091964
109	0x3dfd68df	0.12373518
110	0x3af6ecbd	0.0018838864
111	0xbcdf49e2	-0.02725691
112	0x3d4456e0	0.047934413
113	0xbe24f9e2	-0.16110948
114	0x3d84cc7a	0.06484313
115	0x3d08606c	0.03329508
116	0x3dbc3bcf	0.09191095
117	0x3d952c19	0.072838016
118	0x3e0f4152	0.13989761
119	0xbdf4200a	-0.119201735
120	0x3d1cea01	0.0383091
121	0xbd5566bc	-0.05209993
122	0xbd321bc6	-0.043483518
123	0x3e0d6399	0.13807525
124	0x3dd6bea4	0.104855806
125	0xbdf5fca5	-0.12011079
126	0x3db9a608	0.09064871
127	0x3c2305a7	0.009950078
128	0xbd759b1b	-0.059962373
129	0xbb705782	-0.0036673252
130	0xbde1da26	-0.11027937
131	0xbc386cb4	-0.011256386
132	0x3cbef389	0.023309486
133	0xbd08b797	-0.03337821
134	0xbdc8dcbf	-0.09807729
135	0x3dc27ee3	0.09496858
136	0xbdcb396b	-0.09923061
137	0xbd16946b	-0.036762636
138	0xbddcd2c9	-0.107823916
139	0x3dcc14fc	0.0996494
140	0x3b3f533b	0.0029193896
141	0xbc067168	-0.008205749
142	0x3dbf5517	0.093424015
143	0xbe0ed245	-0.13947399
144	0xbc45c17f	-0.012070059
145	0x3c8f73ac	0.017511211
146	0xbcfe53d2	-0.031045828
147	0x3da0cc80	0.07851505
148	0xbd8acac4	-0.06776956
149	0xbcacac81	-0.02107835
150	0x3e24a4c7	0.16078483
151	0x3dedb25f	0.11606287
152	0xbbb57b98	-0.005538415
153	0x3e118275	0.14209922
154	0xbd1dfeea	-0.038573183
155	0x3e00bbaa	0.12571588
156	0xbd200905	-0.0390711
157	0x3cdb1150	0.026741654
158	0x3de41e77	0.11138623
159	0x3d4ba76c	0.049720213
160	0xbd82d934	-0.063890845
161	0xbe023f34	-0.12719423
162	0x3defc2ca	0.11707075
163	0xbd005d6c	-0.031339094
164	0xbd81c3a1	-0.063361414
165	0x3de786ce	0.11305009
166	0x3d8ca7cb	0.068679415
167	0x3c138d8c	0.009005915
168	0xbe111688	-0.14168751
169	0xbdcc77ab	-0.09983762
170	0x3dc55c24	0.09636715
171	0x3d6dc1cb	0.058046144
172	0x3e10fdfc	0.14159387
173	0x3df6ff5b	0.12060424
174	0xbd0b916a	-0.034074225
175	0xbc25ae35	-0.010112335
176	0x3dfbd0ec	0.12295708
177	0x3e0b3c27	0.13597165
178	0xbe05dd26	-0.13072643
179	0xbde630e7	-0.11239796
180	0xbce32d13	-0.027731454
181	0x3d497a3d	0.04918884
182	0x3dd04cbd	0.10170887
183	0xbccf9892	-0.025341306
184	0x3ce1a344	0.027543671
185	0xbd3cf712	-0.046134062
186	0xbd27b5c8	-0.040944844
187	0x3d358b29	0.044322167
188	0x3dd9caf3	0.106344126
189	0xbb0499a5	-0.002023318
190	0x3cb749d2	0.022374067
191	0xbe1a9a69	-0.15097965
192	0xbc2e0fca	-0.010623882
193	0xbdce7370	-0.10080612
194	0xbdf0d3c8	-0.11759144
195	0xbd5ed936	-0.054406367
196	0x3caf82a3	0.021424597
197	0xbdc3da32	-0.09563102
198	0xbcbd8cfa	-0.023138512
199	0xbb633459	-0.0034668653
200	0x3c3d30b2	0.011547254
201	0x3de6c407	0.11267858
202	0xbdd8bb18	-0.1058256
203	0x3d1d2621	0.03836644
204	0x3c5023d6	0.012703856
205	0x3dddaeae	0.10824333
206	0x3d8b6b01	0.06807519
207	0xbd86ccae	-0.06582008
208	0x3d448717	0.047980394
209	0xbcdb4d7a	-0.026770342
210	0x3dbd0b5d	0.09230683
211	0xbdc611db	-0.096713744
212	0x3e0afe3b	0.13573544
213	0xbdd081bc	-0.10180995
214	0x3df1037e	0.11768244
215	0x3d92ddb0	0.0717119
216	0x3e00c670	0.12575698
217	0xbd459217	-0.048235025
218	0x3bceb544	0.0063082296
219	0x3cee5de9	0.029097514
220	0x3de3eed6	0.11129539
221	0xbd946886	-0.07246499
222	0x3cfbfeed	0.030761207
223	0xbdb59bd7	-0.08867615
224	0x3bb08a39	0.005387571
225	0xbddce386	-0.10785584
226	0x3d45cb7c	0.04828976
227	0x3d6ae000	0.05734253
228	0xbd88109a	-0.066437915
229	0xbd7ecac5	-0.062205095
230	0xbe07cdff	-0.13262175
231	0x3e016e0c	0.12639636
232	0x3dafb4a1	0.08579374
233	0x3c8cbd27	0.017180039
234	0xbd01b50f	-0.03166681
235	0xbd1a1ea7	-0.03762689
236	0xbda807ed	-0.08204637
237	0x395b516b	0.00020915798
238	0x3e1f282c	0.15542668
239	0x3d92fde0	0.07177329
240	0xbd15ef30	-0.03660506
241	0x3dbe41b4	0.092898756
242	0x3ca90e83	0.020636803
243	0x3e0b8624	0.1362539
244	0xbdbf08cb	-0.09327849
245	0x3d604c77	0.054760423
246	0x3c870428	0.016481474
247	0xbdd90d40	-0.1059823
248	0x3cd84f19	0.026404904
249	0x3dbf0cab	0.09328588
250	0x3de0c1d5	0.109744705
251	0xbdefe0d1	-0.11712802
252	0xbd53ce5e	-0.05171048
253	0x3de6c1b7	0.11267417
254	0x3e1c1223	0.15241294
255	0xbdfaf946	-0.122545764

m_transform.0.11.bias f4 [96]
0	0x3bb72478	0.005589064
1	0x3dc984ca	0.09839781
2	0x3df69e30	0.120418906
3	0xbc914fb6	-0.017738204
4	0xbdf77665	-0.12083129
5	0xbdfb0528	-0.12256843
6	0xbdc5acf1	-0.096521266
7	0xbdb3a126	-0.08770971
8	0x3d25ce24	0.040479794
9	0x3de7bf96	0.11315839
10	0x3dcd8e83	0.100369476
11	0xbdb16446	-0.08661704
12	0x3989752c	0.00026217976
13	0xbcf139c5	-0.029446492
14	0xbdee6e40	-0.11642122
15	0x3d04aa9e	0.032389276
16	0xbdac41dd	-0.08411
17	0xbdd95ff1	-0.106140025
18	0xbd34d0b2	-0.04414434
19	0xbd529277	-0.05140921
20	0x3cb170bb	0.0216602
21	0xbce77fc7	-0.028259171
22	0x3e1891d2	0.14899376
23	0x3dc32177	0.09527867
24	0xbd8a59ee	-0.06755434
25	0xbdc4da85	-0.09611992
26	0x3dd588d4	0.104264885
27	0x3d49ef0b	0.049300235
28	0xbe134697	-0.14382397
29	0xbd27b7da	-0.04094682
30	0xbe079463	-0.13240199
31	0xbd6778ce	-0.056511693
32	0x3b266130	0.0025387518
33	0xbddcdaea	-0.10783942
34	0x3dad7e19	0.08471317
35	0xbd325190	-0.043534815
36	0x3cf28ab3	0.029607153
37	0xbc77978b	-0.015111814
38	0xbd2909b6	-0.041269027
39	0xbd423b04	-0.047419563
40	0xbdf4cf1c	-0.119535655
41	0xbd8dcfde	-0.06924413
42	0xbcb3cd3c	-0.02194845
43	0x3dd8ae29	0.105800934
44	0x3b66fd89	0.0035246334
45	0x3d97e463	0.07416608
46	0xbdc595b4	-0.09647694
47	0xbd935df5	-0.07195655
48	0xbe155004	-0.14581305
49	0xbdbb0f37	-0.091337614
50	0x3d042b9b	0.032268148
51	0xbc3bcd5d	-0.011462537
52	0xbde83d9e	-0.113398775
53	0x3d9d3a11	0.07677091
54	0xbd1e0b4e	-0.038585
55	0x3c94715f	0.018120466
56	0x3e275f1b	0.16344874
57	0xbb96bbd4	-0.0046000276
58	0x3dd881d2	0.10571636
59	0x3af8b12a	0.0018973697
60	0x3d4041d9	0.046937797
61	0xbe030bc0	-0.12797451
62	0x3cd84de1	0.026404323
63	0xbdf4c804	-0.119522125
64	0xbd7a29ee	-0.061075144
65	0x3d25fb1d	0.040522683
66	0xbd29d7b7	-0.041465487
67	0x3de32a62	0.11092068
68	0xbcc84a3b	-0.024449458
69	0x3c34d54f	0.011037185
70	0xbde1e88e	-0.110306844
71	0xbdd88c98	-0.10573691
72	0xbdd47994	-0.10374752
73	0xbe3af159	-0.1825613
74	0xbd802498	-0.0625698
75	0x3d7e24be	0.06204676
76	0x3dc5ec7a	0.09664245
77	0x3dc6331d	0.09677718
78	0x3df14a5b	0.1178176
79	0xbe1622bc	-0.14661688
80	0x3e07a689	0.13247122
81	0x3c554b15	0.013018389
82	0xbdcaea6e	-0.09907995
83	0xbaaf6458	-0.0013381345
84	0x3d7763dd	0.06039797
85	0x3d97e048	0.07415825
86	0x3e4258b4	0.1897915
87	0xbd5b165f	-0.05348813
88	0xbcd16794	-0.025562085
89	0x3e30264e	0.17202112
90	0x3d9ce6c8	0.076612055
91	0xbdc3023d	-0.09521911
92	0xbd856373	-0.06513109
93	0xbca52b97	-0.020162387
94	0x3d496f57	0.049178448
95	0xbb034242	-0.0020028506

m_transform.0.13.running_mean f4 [48]
0	0x3f036934	0.513324
1	0x3f0f9927	0.56093067
2	0x3f060023	0.5234396
3	0x3e9ee36d	0.31032887
4	0x3e724977	0.23660837
5	0x3ee88ff9	0.45422342
6	0x3ea6836a	0.32522136
7	0x3eb10e73	0.34581336
8	0x3f1e85e5	0.61923057
9	0x3ec5639a	0.38552552
10	0x3ed403db	0.4140919
11	0x3f00dd20	0.5033741
12	0x3f1b6150	0.6069536
13	0x3f012ce8	0.50459146
14	0x3e9a1418	0.30093455
15	0x3e8efbf7	0.2792661
16	0x3ee2c95e	0.44294256
17	0x3f0a5146	0.54030263
18	0x3ec50c1b	0.38485798
19	0x3f00a634	0.50253606
20	0x3e96090f	0.29303786
21	0x3e5d036d	0.21583338
22	0x3ebf893e	0.37409395
23	0x3e944311	0.28957418
24	0x3e382d2f	0.17985986
25	0x3e887069	0.26648262
26	0x3eb65a60	0.35615826
27	0x3efb34cb	0.49063715
28	0x3ed8e887	0.42364904
29	0x3f1a48a1	0.6026707
30	0x3f0e68a2	0.55628407
31	0x3eebd181	0.46058276
32	0x3eca1ca2	0.3947497
33	0x3e58c711	0.21169688
34	0x3ea920a0	0.33032703
35	0x3ea30332	0.31838375
36	0x3ec0115a	0.37513238
37	0x3f4c0479	0.79694325
38	0x3f0af397	0.5427794
39	0x3ee8b15e	0.4544782
40	0x3ee577cf	0.4481797
41	0x3ec62350	0.38698816
42	0x3f2bc275	0.6709359
43	0x3eb6ba92	0.35689217
44	0x3f5c45e0	0.8604412
45	0x3f018710	0.50596714
46	0x3f05d852	0.52283204
47	0x3ea192a0	0.31557178

m_transform.0.13.running_var f4 [48]
0	0x3e4eb49d	0.20186086
1	0x3e3ef57b	0.18648331
2	0x3e32dfa2	0.17468122
3	0x3edca083	0.4309121
4	0x3e70adde	0.23503825
5	0x3ec6d394	0.38833296
6	0x3e20e3b1	0.15711857
7	0x3e8ba42c	0.2727369
8	0x3e88cc78	0.26718497
9	0x3e539f3e	0.20666215
10	0x3e80bc20	0.25143528
11	0x3e871501	0.26383212
12	0x3e818f89	0.2530482
13	0x3e9d088e	0.3067059
14	0x3e4371ae	0.19086334
15	0x3ef2a526	0.47391623
16	0x3e80e1d0	0.2517228
17	0x3eb5fe60	0.35545635
18	0x3eb56171	0.35425904
19	0x3e30489e	0.17215201
20	0x3e30eb1b	0.17277186
21	0x3edb84a8	0.42874646
22	0x3e8c96a3	0.27458677
23	0x3e55d371	0.2088144
24	0x3e6e2288	0.2325536
25	0x3f05c118	0.5224776
26	0x3e9b5609	0.30339077
27	0x3e230573	0.15920047
28	0x3e9b4262	0.30324084
29	0x3e76cb9d	0.2410111
30	0x3e6c5f38	0.23083198
31	0x3e927ad5	0.28609338
32	0x3e848364	0.25881493
33	0x3f1b3887	0.6063313
34	0x3ee9b8b0	0.45648718
35	0x3e19bf26	0.15014324
36	0x3e75020d	0.23926564
37	0x3e6f6a4f	0.23380397
38	0x3e752a92	0.2394202
39	0x3e89e806	0.26934832
40	0x3e9d7bef	0.30758616
41	0x3ea5ec3f	0.32406804
42	0x3eb74f86	0.3580286
43	0x3e7f7a82	0.24949077
44	0x3eaeeb43	0.34163865
45	0x3e5bf530	0.2148025
46	0x3e874087	0.26416418
47	0x3e97df96	0.2966277
