Auxillary_Code/LCNN/project/03-asvspoof-mega/lfb-lcnn-attention-am/01/__pretrained/trained_network.pt (torch, 775117 bytes, 35 tensors)

m_frontend.0.lfcc_fb f4 [257, 60]
000000 00 00 00 00 00 00 00 00 00 00 00 00 00 00 00 00
       0.0 0.0 0.0 0.0
000010 00 00 00 00 00 00 00 00 00 00 00 00 00 00 00 00
       0.0 0.0 0.0 0.0
000020 00 00 00 00 00 00 00 00 00 00 00 00 00 00 00 00
       0.0 0.0 0.0 0.0
000030 00 00 00 00 00 00 00 00 00 00 00 00 00 00 00 00
       0.0 0.0 0.0 0.0
000040 00 00 00 00 00 00 00 00 00 00 00 00 00 00 00 00
       0.0 0.0 0.0 0.0
000050 00 00 00 00 00 00 00 00 00 00 00 00 00 00 00 00
       0.0 0.0 0.0 0.0
000060 00 00 00 00 00 00 00 00 00 00 00 00 00 00 00 00
       0.0 0.0 0.0 0.0
000070 00 00 00 00 00 00 00 00 00 00 00 00 00 00 00 00
       0.0 0.0 0.0 0.0
000080 00 00 00 00 00 00 00 00 00 00 00 00 00 00 00 00
       0.0 0.0 0.0 0.0
000090 00 00 00 00 00 00 00 00 00 00 00 00 00 00 00 00
       0.0 0.0 0.0 0.0
0000a0 00 00 00 00 00 00 00 00 00 00 00 00 00 00 00 00
       0.0 0.0 0.0 0.0
0000b0 00 00 00 00 00 00 00 00 00 00 00 00 00 00 00 00
       0.0 0.0 0.0 0.0
0000c0 00 00 00 00 00 00 00 00 00 00 00 00 00 00 00 00
       0.0 0.0 0.0 0.0
0000d0 00 00 00 00 00 00 00 00 00 00 00 00 00 00 00 00
       0.0 0.0 0.0 0.0
0000e0 00 00 00 00 00 00 00 00 00 00 00 00 00 00 00 00
       0.0 0.0 0.0 0.0
0000f0 00 00 74 3e 00 00 00 00 00 00 00 00 00 00 00 00
       0.23828125 0.0 0.0 0.0
000100 00 00 00 00 00 00 00 00 00 00 00 00 00 00 00 00
       0.0 0.0 0.0 0.0
000110 00 00 00 00 00 00 00 00 00 00 00 00 00 00 00 00
       0.0 0.0 0.0 0.0
000120 00 00 00 00 00 00 00 00 00 00 00 00 00 00 00 00
       0.0 0.0 0.0 0.0
000130 00 00 00 00 00 00 00 00 00 00 00 00 00 00 00 00
       0.0 0.0 0.0 0.0
000140 00 00 00 00 00 00 00 00 00 00 00 00 00 00 00 00
       0.0 0.0 0.0 0.0
000150 00 00 00 00 00 00 00 00 00 00 00 00 00 00 00 00
       0.0 0.0 0.0 0.0
000160 00 00 00 00 00 00 00 00 00 00 00 00 00 00 00 00
       0.0 0.0 0.0 0.0
000170 00 00 00 00 00 00 00 00 00 00 00 00 00 00 00 00
       0.0 0.0 0.0 0.0
000180 00 00 00 00 00 00 00 00 00 00 00 00 00 00 00 00
       0.0 0.0 0.0 0.0
000190 00 00 00 00 00 00 00 00 00 00 00 00 00 00 00 00
       0.0 0.0 0.0 0.0
0001a0 00 00 00 00 00 00 00 00 00 00 00 00 00 00 00 00
       0.0 0.0 0.0 0.0
0001b0 00 00 00 00 00 00 00 00 00 00 00 00 00 00 00 00
       0.0 0.0 0.0 0.0
0001c0 00 00 00 00 00 00 00 00 00 00 00 00 00 00 00 00
       0.0 0.0 0.0 0.0
0001d0 00 00 00 00 00 00 00 00 00 00 00 00 00 00 00 00
       0.0 0.0 0.0 0.0
0001e0 00 00 f4 3e 00 00 00 00 00 00 00 00 00 00 00 00
       0.4765625 0.0 0.0 0.0
0001f0 00 00 00 00 00 00 00 00 00 00 00 00 00 00 00 00
       0.0 0.0 0.0 0.0
000200 00 00 00 00 00 00 00 00 00 00 00 00 00 00 00 00
       0.0 0.0 0.0 0.0
000210 00 00 00 00 00 00 00 00 00 00 00 00 00 00 00 00
       0.0 0.0 0.0 0.0
000220 00 00 00 00 00 00 00 00 00 00 00 00 00 00 00 00
       0.0 0.0 0.0 0.0
000230 00 00 00 00 00 00 00 00 00 00 00 00 00 00 00 00
       0.0 0.0 0.0 0.0
000240 00 00 00 00 00 00 00 00 00 00 00 00 00 00 00 00
       0.0 0.0 0.0 0.0
000250 00 00 00 00 00 00 00 00 00 00 00 00 00 00 00 00
       0.0 0.0 0.0 0.0
000260 00 00 00 00 00 00 00 00 00 00 00 00 00 00 00 00
       0.0 0.0 0.0 0.0
000270 00 00 00 00 00 00 00 00 00 00 00 00 00 00 00 00
       0.0 0.0 0.0 0.0
000280 00 00 00 00 00 00 00 00 00 00 00 00 00 00 00 00
       0.0 0.0 0.0 0.0
000290 00 00 00 00 00 00 00 00 00 00 00 00 00 00 00 00
       0.0 0.0 0.0 0.0
0002a0 00 00 00 00 00 00 00 00 00 00 00 00 00 00 00 00
       0.0 0.0 0.0 0.0
0002b0 00 00 00 00 00 00 00 00 00 00 00 00 00 00 00 00
       0.0 0.0 0.0 0.0
0002c0 00 00 00 00 00 00 00 00 00 00 00 00 00 00 00 00
       0.0 0.0 0.0 0.0
0002d0 00 00 37 3f 00 00 00 00 00 00 00 00 00 00 00 00
       0.71484375 0.0 0.0 0.0
0002e0 00 00 00 00 00 00 00 00 00 00 00 00 00 00 00 00
       0.0 0.0 0.0 0.0
0002f0 00 00 00 00 00 00 00 00 00 00 00 00 00 00 00 00
       0.0 0.0 0.0 0.0
000300 00 00 00 00 00 00 00 00 00 00 00 00 00 00 00 00
       0.0 0.0 0.0 0.0
000310 00 00 00 00 00 00 00 00 00 00 00 00 00 00 00 00
       0.0 0.0 0.0 0.0
000320 00 00 00 00 00 00 00 00 00 00 00 00 00 00 00 00
       0.0 0.0 0.0 0.0
000330 00 00 00 00 00 00 00 00 00 00 00 00 00 00 00 00
       0.0 0.0 0.0 0.0
000340 00 00 00 00 00 00 00 00 00 00 00 00 00 00 00 00
       0.0 0.0 0.0 0.0
000350 00 00 00 00 00 00 00 00 00 00 00 00 00 00 00 00
       0.0 0.0 0.0 0.0
000360 00 00 00 00 00 00 00 00 00 00 00 00 00 00 00 00
       0.0 0.0 0.0 0.0
000370 00 00 00 00 00 00 00 00 00 00 00 00 00 00 00 00
       0.0 0.0 0.0 0.0
000380 00 00 00 00 00 00 00 00 00 00 00 00 00 00 00 00
       0.0 0.0 0.0 0.0
000390 00 00 00 00 00 00 00 00 00 00 00 00 00 00 00 00
       0.0 0.0 0.0 0.0
0003a0 00 00 00 00 00 00 00 00 00 00 00 00 00 00 00 00
       0.0 0.0 0.0 0.0
0003b0 00 00 00 00 00 00 00 00 00 00 00 00 00 00 00 00
       0.0 0.0 0.0 0.0
0003c0 00 00 74 3f 00 00 00 00 00 00 00 00 00 00 00 00
       0.953125 0.0 0.0 0.0
0003d0 00 00 00 00 00 00 00 00 00 00 00 00 00 00 00 00
       0.0 0.0 0.0 0.0
0003e0 00 00 00 00 00 00 00 00 00 00 00 00 00 00 00 00
       0.0 0.0 0.0 0.0
0003f0 00 00 00 00 00 00 00 00 00 00 00 00 00 00 00 00
       0.0 0.0 0.0 0.0

m_transform.0.0.weight f4 [64, 1, 5, 5]
000000 32 dc ce 3d 06 e2 cc bd 76 38 d6 bc c4 bb c6 3d
       0.10100593 -0.10004048 -0.02614997 0.09703782
000010 b0 f0 3d be de e4 ed 3d a1 90 4f bd 7a 4e f4 3d
       -0.18548846 0.116159186 -0.05067504 0.11929031
000020 f0 f4 09 3d 70 e0 a1 bc 1a 6a 58 3d a8 28 83 ba
       0.033680856 -0.01976034 0.05283556 -0.0010006623
000030 e1 6b be 3d fa 81 8b bd f3 bb e6 bb 22 7b eb bc
       0.0929792 -0.068119004 -0.0070414483 -0.028745238
000040 29 db 6b 3c 6e 11 4c 3c 56 44 32 3e 40 b2 70 3d
       0.014395514 0.012455327 0.1740888 0.058763742
000050 2c a2 a7 bd b6 76 0a be 3d 45 c8 bc 91 45 ad bd
       -0.08185229 -0.13521847 -0.024447078 -0.08460534
000060 37 6e 87 bd ad 94 66 3c 70 73 03 3e 4c a3 d5 3d
       -0.06612819 0.014073533 0.12837005 0.10431537
000070 1e 15 5a be 2f d2 da 3d dd 57 91 3d 90 cf 51 3e
       -0.21297118 0.106846206 0.07096837 0.20489335
000080 1e d4 0a 3e 14 af 4a be 5e 25 54 be 74 0e a3 bd
       0.13557479 -0.1979335 -0.2071738 -0.07961741
000090 d7 8d 49 3e 16 46 06 bd 44 6e 8c 3d 46 20 e5 bd
       0.19683014 -0.032781683 0.06856969 -0.11187796
0000a0 bc ec 63 3e 09 36 6e bd 8a 25 17 3e 21 15 6e bc
       0.22258276 -0.058157 0.14760414 -0.014531405
0000b0 34 a8 fe bd 96 2b 01 3e f9 f2 c0 bd 2c 99 4c 3d
       -0.12434426 0.12614283 -0.09421343 0.049950764
0000c0 1e 2a 97 bd b9 c1 10 bd 9d ba 4b be 17 30 a1 bd
       -0.0738108 -0.035341 -0.19895406 -0.078705005
0000d0 2b 47 fe 3d d5 4d 8b bc 84 b0 51 3e 3d 92 2a 3e
       0.12415918 -0.017004887 0.20477492 0.16657348
0000e0 9e 22 77 3c 32 e8 e2 bd 76 1e 17 3e 98 d2 4b 3d
       0.015083937 -0.11079444 0.14757714 0.049761385
0000f0 7d f8 e0 bd e5 20 24 3e c9 4d 0e 3e af 95 41 3e
       -0.109848954 0.16028173 0.1389686 0.18904756
000100 4e fa 13 be 0d be 2d bc 2f 63 8a 3c ae 54 e8 3c
       -0.14450952 -0.010604394 0.016892998 0.02836069
000110 ac 64 2c be 80 ea 3b be 28 f2 ff 3d 4a 87 ea bc
       -0.16835278 -0.18351173 0.124973595 -0.028628964
000120 34 2c bf 3d f2 fb 4d bc 7a 48 f5 3c cd 38 3f 3d
       0.09334603 -0.0125722755 0.029941786 0.04668503
000130 fb 6d 88 3d fe 15 c0 3d 4b 68 35 be ec 2f cb 3d
       0.06661602 0.09379195 -0.17715566 0.0992125
000140 d0 55 10 be 75 d6 26 be 8f 61 c7 3b 09 3e c6 bc
       -0.14095235 -0.16292746 0.006084628 -0.024199503
000150 29 b5 e5 3d f2 e1 e3 bd de 54 3d be ea 13 14 3e
       0.11216194 -0.1112708 -0.18489406 0.14460722
000160 1f 7d 4e bc ee b1 eb 3d f7 aa 90 3d c9 d9 21 be
       -0.012603073 0.11508547 0.07063859 -0.15805735
000170 6a 0f 2a 3d 97 ad 7f 3d 8d 38 0a be 34 31 b2 bd
       0.041518606 0.062421408 -0.13498135 -0.08700791
000180 ea 7e 80 3d 10 64 0d 3d 24 65 9f bd 86 12 81 bd
       0.06274207 0.034519255 -0.07782963 -0.06302361
000190 7f f8 3d 3e dc 5e e0 bc ff f4 f6 3d 0f 18 b4 3d
       0.18551825 -0.027388982 0.12058448 0.08793651
0001a0 1d 1e fb bd 11 ba 1d be d3 ae 61 3e 9f 88 cd 3c
       -0.12261603 -0.1540301 0.22039346 0.02508956
0001b0 db 14 0e 3e 25 bb 3e 3d ef 6a 87 3d be 8b 26 3e
       0.13875143 0.046565194 0.06612193 0.16264245
0001c0 ed 0f 4b 3e 5b cc 0f be 44 a0 a5 3c 24 11 1d 3e
       0.19830294 -0.14042799 0.020218022 0.1533857
0001d0 59 2e 27 3e e6 e6 0b 3e 0e 44 18 be b0 29 16 be
       0.16326274 0.136623 -0.14869711 -0.1466434
0001e0 0b 39 f4 bd ac 63 1f 3d 45 e3 59 3e 75 63 00 be
       -0.119249426 0.038913414 0.21278103 -0.1253794
0001f0 17 d7 e1 3d da 47 e3 bd a3 f1 4c be 27 b3 58 bd
       0.11027353 -0.11097689 -0.20014052 -0.052905228
000200 aa 03 d1 3d 4d 07 33 3e cb f8 f2 bd e9 4e 1c 3d
       0.10205777 0.17483254 -0.1186386 0.038161192
000210 e5 61 29 3e f1 38 f8 3d ab e2 e9 3d 67 bc 14 3e
       0.1654125 0.12120236 0.114201866 0.14524995
000220 e2 3c 00 3e 2a 10 4f 3d ea ed 13 be fe b5 32 be
       0.12523225 0.050552525 -0.14446226 -0.17452237
000230 d5 e8 bd bd 9e 5a 05 bd d3 78 07 be 1a a0 7c 3d
       -0.09272925 -0.032557122 -0.13229685 0.061676122
000240 77 cc 5d 3d eb e0 14 bd 53 e5 8f 3d 2b 9a 6a 3d
       0.05415007 -0.03634731 0.07026162 0.057275932
000250 73 40 e2 3d f3 68 03 3e 51 ad 99 bd 7f 7d 4e 3e
       0.11047449 0.12833004 -0.075037606 0.2016506
000260 b9 64 e0 bb 45 64 20 3b 14 ae 3e be 99 88 0d be
       -0.0068479446 0.0024473828 -0.18621093 -0.13821639
000270 6a c6 e1 bd 8b b5 9b bd 99 ca 17 3e 1b 74 82 bd
       -0.110241726 -0.07602986 0.14823379 -0.063698016
000280 08 c9 23 be 81 55 a3 3d fc 2d 8a 3d 5b 62 03 3e
       -0.15994656 0.07975293 0.06747052 0.12830488
000290 42 ec e0 bd 51 6c 01 3d 82 82 93 bd c3 2d 2a bd
       -0.109825626 0.03159744 -0.07202627 -0.041547548
0002a0 cb e8 22 be 33 04 c2 bd a8 ca a3 bd 78 0c a6 3d
       -0.15909116 -0.09473457 -0.07997638 0.08107847
0002b0 ae 58 fd 3c 1d 6b 2e 3d 77 28 42 3e ea 56 59 3e
       0.030926075 0.04258262 0.18960749 0.21224561
0002c0 b4 c4 15 3e d7 8b 12 3b 97 bf 06 be 42 ee 16 3e
       0.14625818 0.0022361183 -0.13159023 0.14739326
0002d0 3a ab 02 bd c3 4c ac bb d9 7d 30 be 0b d9 e7 bc
       -0.031901576 -0.005258174 -0.17235507 -0.028301736
0002e0 51 b7 05 be 17 59 54 3e 2d dc 21 be c5 23 1a be
       -0.13058211 0.2073711 -0.15806647 -0.15052707
0002f0 ec 89 8c 3c b2 c5 cf bd d7 94 ab 3d d5 75 8e bd
       0.01715561 -0.10145129 0.08377998 -0.069560684
000300 2d 36 bc bd c0 3a e1 3c 4e d5 12 3e 32 48 10 be
       -0.09190021 0.027493834 0.14339182 -0.1409004
000310 40 59 c0 3d 0c 70 00 3e 8f 9c 47 3e b7 fe 23 be
       0.09392023 0.12542742 0.19493316 -0.16015135
000320 db f2 47 3d 95 cd 0e be d5 05 2e 3e d7 04 9c bd
       0.04881559 -0.13945611 0.16994412 -0.076181106
000330 3d a1 ca 3d 4f 00 c2 3a 60 fa 94 bc 4d 7e 91 bc
       0.09894035 0.0014801117 -0.018185794 -0.01776042
000340 6f a8 d4 3c 36 80 8f 3d 78 a5 05 3d 92 6e 6f 3d
       0.025959222 0.07006876 0.032628506 0.058455057
000350 55 9f 44 be 42 2d 08 3e 3a 3a 1d 3e 0a 2f 35 3e
       -0.19201405 0.13298514 0.15354243 0.17693725
000360 6e 24 22 3e c9 b2 12 be 23 f9 a3 bd 54 69 28 3e
       0.1583421 -0.14326014 -0.080065034 0.1644643
000370 0f 19 09 be 63 18 48 3e 13 f1 1f be 7c 6e 16 be
       -0.13388465 0.19540553 -0.15619306 -0.14690584
000380 02 c8 b6 3d 1c 45 0b be 07 db 86 bd 10 3f 1a 3e
       0.08924867 -0.13600582 -0.06584745 0.15063119
000390 66 82 1d 3e 8a c3 3f 3e dd b6 05 bd d2 b2 33 be
       0.15381774 0.18726936 -0.032645095 -0.17548683
0003a0 32 0e 51 3e cc c7 2f bd 90 06 9f bd 5e 2d 52 3d
       0.20415571 -0.04291515 -0.077649236 0.051312797
0003b0 c6 66 28 be e3 0a 0b 3e 6f d7 00 3e f0 15 1b be
       -0.16445455 0.13578372 0.12582181 -0.15145087
0003c0 79 0d 23 be 19 d1 21 bd e9 60 bb 3d e0 1f 63 bb
       -0.15923108 -0.03950605 0.091493435 -0.003465645
0003d0 8b 63 c1 bd c6 4b 2f 3c f7 ab 52 be 5a 17 03 be
       -0.094428144 0.010699218 -0.20573412 -0.12801877
0003e0 94 fc 03 be 8f b3 2e 3e a2 a6 45 3e 4b 3f 77 bd
       -0.1288932 0.17060684 0.19301847 -0.060363095
0003f0 7d 68 47 3a ac b2 ac 3d c5 00 58 3c 83 0f b4 bd
       0.00076068175 0.084325165 0.013183777 -0.08792021

m_transform.0.0.bias f4 [64]
000000 a0 79 bc bc da 62 91 3c 8f 19 da bd 27 60 36 3e
       -0.023007214 0.017747331 -0.10649406 0.17810117
000010 08 0a 09 3e 6e e4 bd bd b5 9e 23 3e d1 ce 54 3e
       0.13382733 -0.09272085 0.1597851 0.20782019
000020 ff ce 03 be a2 06 5e bc 9f 1b 5c 3e 17 6c 08 be
       -0.12871931 -0.013551386 0.21494912 -0.13322483
000030 8a 08 40 bc 6e 6f 2c be 09 34 1e 3e 3e 80 33 3d
       -0.011720786 -0.16839382 0.15449537 0.043823473
000040 91 bf bb 3d d6 86 fc 3d 40 66 f2 bc 12 57 4f be
       0.09167398 0.123304054 -0.029589772 -0.20248058
000050 94 ee 6b 3c 0d 79 85 bc 00 1d 8e 3d f3 6b a7 3d
       0.014400143 -0.016293073 0.06939125 0.081748866
000060 fc ac ab bd 7a 3b 9d bd 74 15 c3 3d 72 fb 86 3d
       -0.083826035 -0.0767736 0.09525576 0.06590928
000070 ab 3e 32 3d cd cd 84 3d 85 e9 d8 3d e7 fa 25 be
       0.043516796 0.06484566 0.10591415 -0.16208993
000080 6c 84 0c 3b 9f 6b 24 3c 88 0c 54 be 9c 7e 98 3c
       0.0021441234 0.0100354245 -0.20707905 0.01861506
000090 1b cc 0e bc 4a eb 0b 3e 1f ed 34 be e3 12 28 3e
       -0.008715655 0.13663974 -0.1766858 0.16413455
0000a0 b4 90 c7 bd 61 02 08 3e 35 09 01 3e eb 9d fd bc
       -0.09744397 0.13282157 0.12601168 -0.03095909
0000b0 96 be 0d be 8c 0e 86 bc 68 34 08 be fb a4 8f 3b
       -0.13842234 -0.016364358 -0.13301241 0.004383681
0000c0 99 42 6b 3d 10 c8 32 3d f7 cb 0e be 48 f6 0b 3e
       0.05743656 0.043647826 -0.13944994 0.13668168
0000d0 66 74 49 3e 4e d6 3c bd 37 9e df 3d 45 38 bc bc
       0.19673309 -0.046102814 0.10918849 -0.02297605
0000e0 41 de a6 3d a6 8f 1f be c7 57 15 be 62 43 79 bc
       0.0814786 -0.15582141 -0.14584266 -0.015213819
0000f0 a0 6c 33 be c7 74 b4 3d 8e 92 31 3e d2 63 83 bc
       -0.17521906 0.08811336 0.17341062 -0.016038809

m_transform.0.3.weight f4 [64, 32, 1, 1]
000000 c0 4e b7 ba 3d 6e 95 3c bb d1 ca bd 92 89 66 bc
       -0.0013985261 0.018241042 -0.09903284 -0.014070885
000010 81 93 23 3d b8 0e 11 3e 8b 7f 20 be 09 7a 02 bc
       0.039935593 0.14165771 -0.15673654 -0.007963666
000020 4b 3f 20 be 14 db a2 bc 4d 48 da bb 2a 86 90 bd
       -0.15649144 -0.019879855 -0.006661451 -0.0705684
000030 e0 3c cf 3d fa 6b ea 3d 7c f3 9f bd 1d dd f2 bc
       0.10119033 0.11446376 -0.07810113 -0.02964645
000040 3f 6b 75 bd b8 89 03 3a 1b bd 5c 3d ce 43 22 3e
       -0.05991673 0.0005017775 0.053891283 0.15846178
000050 2f 62 1f be 1d 65 5b 3d 2e c5 e0 bd ba e3 16 be
       -0.15564798 0.053563226 -0.10975109 -0.14735308
000060 80 69 07 3e 6c 12 70 bd 90 c8 d6 bd de cb 21 3d
       0.13223839 -0.05861132 -0.10487473 0.039501064
000070 6c 1d 27 bd 51 6b 28 be 4b 73 c6 bd 7f fe 9b bd
       -0.040799543 -0.16447188 -0.09689959 -0.07616901
000080 7a a0 d6 3c 31 06 cb bd e8 bf 32 be c0 fc c0 3d
       0.026199568 -0.0991329 -0.17456019 0.09423208
000090 03 5d 11 be 40 35 51 bc ff 98 22 3e ba cf bc bc
       -0.14195637 -0.012769043 0.15878676 -0.02304827
0000a0 b2 8d e0 bd ae cc 40 3d 4d d8 3e 3e ae 61 a3 bc
       -0.10964526 0.047070198 0.186372 -0.019944038
0000b0 e1 c1 b9 ba 53 50 a3 3d 05 03 f2 3c 25 e0 5a 3d
       -0.001417216 0.07974305 0.029542455 0.053436417
0000c0 9d fc be 3d 8f a3 cc 3d 44 d6 ce bd 04 dd 82 bd
       0.09325526 0.09992134 -0.10099462 -0.06389812
0000d0 0b a0 ee 3d c4 0e 05 3d d7 06 5b 3d fe 7c 40 3e
       0.116516195 0.032484785 0.05347332 0.1879768
0000e0 32 05 f3 3d 20 a0 d7 3d 56 9f 3a 3e 97 5a 20 be
       0.11866225 0.10528588 0.18224844 -0.15659557
0000f0 06 7c 9e 3d 95 fc e0 3d 01 bf c5 bc 39 e5 a0 bd
       0.07738499 0.10985676 -0.02413893 -0.07856221
000100 fe 4b fe ba 38 5c 2a be e6 63 7b bd b8 2d 10 3e
       -0.001940131 -0.16636741 -0.061374567 0.1407994
000110 78 86 be bd 32 7e 8c bd ee d7 af 3d cc 92 8c bd
       -0.09302992 -0.06860007 0.08586107 -0.06863937
000120 6e a2 15 3d 03 f7 25 be f5 d7 bd 3d 7b 1d 20 be
       0.03653186 -0.16207509 0.09269706 -0.15636246
000130 4c 17 81 3c 89 7c 1b be c3 73 19 be a8 59 01 3e
       0.01575818 -0.15184225 -0.14985566 0.12631857
000140 52 06 c0 bd 9c ce 0b bd a2 30 8e bc 79 fe 0f 3e
       -0.093762055 -0.034132585 -0.017357174 0.14061917
000150 1d ef a8 3d 12 06 c6 3d 38 24 89 bd c7 f7 71 bd
       0.08248732 0.096691266 -0.06696361 -0.05907419
000160 c1 2a 0c 3e f8 71 7b 3c 2a 83 cf 3c 6b 6d ee bd
       0.13688184 0.0153469965 0.025331099 -0.116419636
000170 50 44 44 be 52 5f 00 bd c5 93 e8 bd e8 50 0c 3e
       -0.19166684 -0.031340905 -0.1135631 0.13702738
000180 e1 2b 26 3e 1b 51 b3 bd 3c 8e 01 be b6 60 22 3e
       0.16227676 -0.08755704 -0.12651914 0.15857205
000190 46 51 a8 bd 6f 2a 0c be 5f 2a 19 be 57 ee 85 ba
       -0.08218627 -0.13688062 -0.1495757 -0.0010218126
0001a0 41 5b a7 3c 87 b1 fc 3d 0d 1e fd 3d 03 fd 8a 3d
       0.020429255 0.12338548 0.12359247 0.067865394
0001b0 56 fa 92 3c f7 05 0f 3e fe 76 e9 bd bd 09 55 bc
       0.017941635 0.13967119 -0.11399649 -0.01300281
0001c0 04 6c f2 3d 54 15 d8 bd e7 6f 0b 3e 12 b6 bc 3d
       0.118370086 -0.10550943 0.13616906 0.09214415
0001d0 7f 04 20 3d 6f 01 78 bd 59 4b 34 be 38 15 0e 3e
       0.039066788 -0.060548242 -0.17606868 0.13875282
0001e0 69 63 02 3e 24 0c f8 bd 16 31 d7 bd 75 56 28 bc
       0.12733234 -0.12111691 -0.10507409 -0.010274519
0001f0 46 a6 e8 3b 83 21 3f bc 3a 71 e6 bd fb e7 e1 3d
       0.0070998995 -0.011665705 -0.11252065 0.11030575
000200 00 07 dc bd c1 68 33 3e 32 a1 ec ba 41 ab b6 3d
       -0.10743523 0.17520429 -0.0018053411 0.08919383
000210 e0 dd 28 3d 37 b6 0d 3d 36 dd e8 3d 00 d1 5c bc
       0.04122722 0.0345976 0.11370318 -0.013477564
000220 6e 4d e1 3d 36 57 45 3d fa f3 ab bd a4 91 d5 3d
       0.11001097 0.048178874 -0.08396144 0.10428169
000230 b2 08 fb bd 40 c2 9e 3d a3 8b 57 bd b0 7d 54 3d
       -0.12257518 0.07751894 -0.052623402 0.051877677
000240 72 72 0e bd a9 2f ad 3c 74 ae 34 bd 5f e1 9b 3d
       -0.034777112 0.02114089 -0.044111684 0.076113455
000250 73 f0 ab 3d 58 e0 31 be cb c8 18 3e 05 85 09 be
       0.083954714 -0.17370737 0.14920346 -0.13429649
000260 36 97 c5 bd cf bd b6 3d 3b b1 1f 3e d8 cc 0f 3d
       -0.09647982 0.08922922 0.15594952 0.035107464
000270 60 13 23 be 2d af 71 3d ab 34 05 be d9 49 94 3d
       -0.1592536 0.05900495 -0.13008372 0.07240648
000280 59 46 cb 3c cd 54 64 3c d5 eb fc bd 43 89 f2 3d
       0.024813818 0.013936234 -0.12349669 0.11842587
000290 fc 34 3f 3e ea 51 cd bd 19 0f 9b 3d 3d 22 c9 bd
       0.18672556 -0.100253895 0.07571239 -0.098209836
0002a0 20 8f 06 bd b3 29 44 3e 75 42 1a be ee 75 61 3a
       -0.03285134 0.19156532 -0.15064414 0.0008600642
0002b0 22 fa 86 3d 13 44 ae 3d 52 bb 90 bd 76 15 92 bd
       0.06590678 0.08509078 -0.070669785 -0.071329996
0002c0 99 dc 3d 3d 0e 5d 21 be 92 60 2a 3d a4 b7 b0 bd
       0.046352956 -0.15758154 0.041596003 -0.08628777
0002d0 9e 78 dd bb f0 2d 28 3e 61 31 09 be 7e 8d 8b bd
       -0.0067587635 0.16423774 -0.13397743 -0.06814097
0002e0 93 39 f8 bd c5 d8 a6 3d c5 63 1a 3e d9 81 c0 bd
       -0.121203564 0.08146814 0.15077122 -0.093997665
0002f0 3b 18 dc 3d 6b 42 fa 3d ed b8 1a be 2f 9a a5 3d
       0.10746809 0.122196995 -0.15109606 0.08086049
000300 35 c8 5d 3d 4e e1 5e bd 30 7a e6 3d 6f 20 10 bd
       0.05414601 -0.054414086 0.11253774 -0.03518718
000310 52 e5 87 bc 81 93 cd 3d 6f 9b 3d be 35 56 55 be
       -0.01658884 0.100379 -0.18516324 -0.20833667
000320 eb a2 34 3c 38 c6 21 bc 61 e8 45 bc c9 0f 06 be
       0.011025171 -0.009873919 -0.012079329 -0.13091959
000330 43 36 eb 3d 62 dd 03 be da 2b d3 bd d9 80 0d be
       0.11484959 -0.1287742 -0.103110984 -0.13818683
000340 a8 9f 46 be ea 2f 6b 3c 09 91 67 bd 21 11 f6 3d
       -0.19396842 0.014354685 -0.0565348 0.12014986
000350 63 02 1d 3e ce 01 17 3d 56 68 06 3e e3 a3 f3 bd
       0.15332942 0.036866955 0.13125739 -0.11896493
000360 67 e1 99 3d cd 0c b7 3d bb 20 b8 bd ce cf f7 bc
       0.07513695 0.089379884 -0.08990618 -0.030250456
000370 18 68 61 be ca b7 be 3c a9 6a 52 be 84 ed 00 be
       -0.22012365 0.023280997 -0.205485 -0.12590605
000380 32 72 bd bd 89 d7 66 3c 74 57 09 3d 72 be fa bd
       -0.09250297 0.0140894735 0.033530667 -0.12243356
000390 f2 9c e3 bb 0b 30 1f 3e 9d 0f 63 3c 20 71 8b 3d
       -0.0069461996 0.1554567 0.013858703 0.06808686
0003a0 2d 1a 24 bd e3 1b ec bc 2b bb f3 bd ee e7 2f 3e
       -0.040064026 -0.028821891 -0.11900934 0.17178318
0003b0 23 fa f5 3c 0c 68 b5 3d 0a aa e2 3d 1e ee 66 3e
       0.030026501 0.08857736 0.110675886 0.22551772
0003c0 1c 4d df bd a2 c0 9b 3d 53 27 e5 bd 25 a6 fd 3d
       -0.10903379 0.07605101 -0.11189141 0.12385205
0003d0 8d 5d bd bd 52 52 94 3d 5b 85 ea bd 40 8e 0c 3e
       -0.09246359 0.07242264 -0.11451217 0.13726139
0003e0 9c 6b 1c 3e 61 0f 00 3e 11 69 03 be 6e 33 f6 3d
       0.15275425 0.12505867 -0.12833048 0.12021528
0003f0 17 e3 94 bd 6a dc ca bd d6 0e ff 3d dd 13 53 3d
       -0.072698765 -0.09905322 0.124540016 0.051532615

m_transform.0.3.bias f4 [64]
000000 2b b2 22 3d 6c e7 23 3e 77 7f ee 3d c2 d1 0d be
       0.039720695 0.16006249 0.11645406 -0.13849548
000010 51 3d df bd 64 51 af 3d 81 31 73 bd 27 45 0a bd
       -0.10900367 0.08560446 -0.059373382 -0.033757355
000020 15 6d 75 bd 48 08 15 be c2 e9 ab ba b0 16 e1 3c
       -0.05991848 -0.1455394 -0.001311593 0.027476639
000030 7d f2 1c bd 70 1d e0 bd fc 3e 00 be d1 51 32 3e
       -0.038317192 -0.10943115 -0.12524027 0.17414023
000040 3d 6b 13 3e 92 e1 ab bd d5 67 03 be 4e 76 de bc
       0.14396377 -0.083926335 -0.12832578 -0.027156021
000050 84 20 e2 bd 79 e8 4a be c1 b4 12 be 41 ee 23 3e
       -0.11041358 -0.19815244 -0.14326765 0.16008855
000060 a9 fc bb bc a5 75 12 3e ea 50 8d 3d 58 c4 07 bd
       -0.022947626 0.1430269 0.06900199 -0.033146232
000070 30 b5 93 bd cb 5c f3 3d 1b 2c f6 bc b8 b0 01 be
       -0.07212293 0.11882933 -0.030050328 -0.12665069
000080 2e 39 92 3d 08 66 c5 bd 70 15 74 3d 34 13 00 3d
       0.071398124 -0.096386015 0.059590757 0.031268314
000090 96 3d 1c be 9b 6c cf bd 46 9b 9b 3c d7 aa 70 bc
       -0.15257868 -0.10128137 0.018994939 -0.014689169
0000a0 b9 83 31 3d a5 53 16 bc 76 23 45 bd cc a4 ba bc
       0.04333851 -0.009175216 -0.04812952 -0.02278366
0000b0 28 e0 c1 3d d3 dd 9a bd 04 a6 61 bd 5c b5 09 3e
       0.094665825 -0.07561841 -0.055089965 0.1344809
0000c0 c3 8f 30 3e f9 31 03 3e 9c 50 23 3e d4 6b 01 be
       0.1724234 0.12812032 0.15948719 -0.1263879
0000d0 33 0c 23 bd 57 1f d5 bd d0 33 80 bd b2 7f ab 3d
       -0.039806556 -0.10406368 -0.062598825 0.08373965
0000e0 34 56 13 3e 3a 35 35 be 8f 53 fc 3d 92 4b 4d bd
       0.14388353 -0.17696086 0.12320625 -0.050120898
0000f0 92 2e 18 3e 72 9a 23 3d d1 d5 00 be 22 ce 00 3e
       0.14861515 0.039942212 -0.12581564 0.12578633

m_transform.0.5.running_mean f4 [32]
000000 34 7f 9e 3f 47 d1 f7 3f 26 5b 7e bf 1f ab 80 be
       1.2382569 1.9360741 -0.9935783 -0.25130555
000010 fa 68 ff 3e 5f 2c 0b 3f d3 98 bc 3e 50 9f 66 3f
       0.49884778 0.5436458 0.36835346 0.9008684
000020 11 9e a4 bf eb 12 4d 3f 1d db 3d be c3 c4 93 3e
       -1.2860738 0.8010699 -0.18540616 0.28861055
000030 9c 71 b0 3e aa 38 14 3e ce 57 27 3e 3e ed 12 40
       0.34461677 0.1447474 0.16342089 2.29573
000040 6b a6 70 3c 75 ea 58 3d ef 3d ab 3e b4 ba c4 bd
       0.014688115 0.05295797 0.3344569 -0.09605923
000050 3e c4 57 bf 0a 81 c8 bd b9 24 fa bc 50 5e 5f 3f
       -0.84283817 -0.09790237 -0.030535089 0.87253284
000060 9e 60 b3 be 93 fa e2 3e 47 03 1f be 60 9b 6e be
       -0.3503465 0.44331798 -0.15528594 -0.23301458
000070 ad 17 81 3f f2 9c a4 3f 2f d7 fd 3d a4 23 2e 40
       1.008535 1.2860396 0.12394559 2.7209253

m_transform.0.5.running_var f4 [32]
000000 a7 b7 f4 3e e7 a1 5d 3f 00 30 af 3e 74 10 5c 3d
       0.47796366 0.8657517 0.3421631 0.05372663
000010 c4 f4 a3 3d c7 81 84 3e 29 23 1c 3e 11 30 64 3e
       0.0800567 0.25880262 0.15247788 0.22283961
000020 4d a2 6e 3e 08 93 b2 3e 14 bd 6c 3d 94 46 d3 3c
       0.233041 0.348778 0.057797506 0.02579049
000030 de 8f 8f 3d b9 fc 2f 3d 52 d8 1e 3d 7b 8a c2 3f
       0.07009862 0.042965624 0.038780518 1.5198511
000040 33 6b 16 3d fc 51 7a 3d 2d bd 37 3d e5 9d ec 3c
       0.036723327 0.061113343 0.044858146 0.028883884
000050 2f cf a8 3e 60 59 5a 3d 9c 88 33 3d f7 9c 32 3e
       0.3297057 0.05330789 0.043831453 0.1744269
000060 1d da 8c 3d cb 57 aa 3d 40 8a 61 3d 2f 53 55 3d
       0.06877539 0.083175264 0.055063486 0.052081283
000070 ff 2b 0d 3f 1b d7 f6 3e 4d 14 a4 3c 7d a9 d8 3f
       0.5514526 0.48210987 0.020029211 1.6926724

m_transform.0.6.weight f4 [96, 32, 3, 3]
000000 49 51 26 bd 86 38 18 bd 97 05 1c bd 29 2d 06 3d
       -0.040604863 -0.03716328 -0.03809127 0.03275791
000010 c8 d2 8f 3c 3c a1 09 bd a1 53 dc bc 30 b5 03 3b
       0.017556563 -0.03360103 -0.026895346 0.002009701
000020 61 ef c6 3c 60 4b 14 3d 49 f9 3f bd 5d a6 97 3c
       0.024284067 0.036204696 -0.046868596 0.018511945
000030 b8 23 71 bd 10 b2 99 bc 06 c8 7e bc 44 30 7d bd
       -0.058871955 -0.018761665 -0.015550619 -0.061813608
000040 a9 0e de 3c 76 a9 5d bd ff 57 20 3c 17 ad 19 bd
       0.0271066 -0.05411669 0.009786605 -0.037518587
000050 f1 95 14 3d 87 59 e0 3c 6c b1 ba 3c e1 9e 88 bb
       0.036275808 0.02738644 0.02278968 -0.0041693305
000060 5d 46 42 bc 93 32 c4 bc 10 b5 52 3d cf a8 f6 bb
       -0.011857596 -0.023949897 0.051442206 -0.007527448
000070 9d 39 80 ba 4b 75 dd bc 59 f5 3d bd e1 8f c4 bc
       -0.0009782795 -0.027033469 -0.04637656 -0.023994388
000080 89 c8 3b bd ba 87 0d 3d 53 53 cf bc 32 30 64 3d
       -0.045845542 0.034553267 -0.025308287 0.055710025
000090 cd 15 48 3d ca 31 35 bd 8c f5 1e 3c 64 6e 3e bd
       0.048848916 -0.044236936 0.009702098 -0.046491995
0000a0 4c 4f bb 3b 66 fa 58 bd 82 d0 28 bd 41 d8 94 3c
       0.00571624 -0.052973174 -0.041214474 0.018169524
0000b0 83 76 86 3b a4 02 ad bc e3 31 38 bc b6 68 5a 3c
       0.004103483 -0.021119423 -0.011242363 0.013330629
0000c0 42 61 8d bd 48 10 0f bc 31 56 93 bd 6b 46 eb bc
       -0.06903316 -0.008731909 -0.07194174 -0.028720101
0000d0 c3 8e 21 3d 91 05 0f bd 05 00 3e bd 18 59 69 bd
       0.03944279 -0.034917418 -0.046386737 -0.056969732
0000e0 9f f4 f9 3b 7c b1 80 3c 61 89 2c bd b1 a4 51 bd
       0.007628038 0.015709631 -0.042123202 -0.051182453
0000f0 f2 48 30 3d 71 67 91 bd e3 ff 05 bd 20 2d 4c bd
       0.043038316 -0.07099808 -0.032714736 -0.049847722
000100 7c b8 43 bd 6f 54 46 bc b6 38 1e 3c 68 8d 90 bd
       -0.04778336 -0.0121050915 0.009657076 -0.07058221
000110 72 a0 1e bd c4 fa 87 bd 15 67 cd bc d2 98 1a bd
       -0.03872723 -0.066396266 -0.025073567 -0.037743397
000120 5b b0 d8 3c 50 32 a6 3b c3 0b 12 3b 09 20 5c bd
       0.02645128 0.0050719157 0.0022284843 -0.05374149
000130 c9 f5 30 3c 38 01 46 bd 82 af 5a bd 01 68 ee 3c
       0.010800787 -0.048341006 -0.053390034 0.029102327
000140 ba 88 3e bd ef 95 88 3b b9 e6 fd 3b e7 f6 0d bc
       -0.04651711 0.004168264 0.0077484515 -0.008664823
000150 07 1e 22 3d 01 f5 9c bc ac 7b 04 3d f8 04 1e bd
       0.039579418 -0.019159796 0.032344505 -0.038578957
000160 42 61 87 bd 38 5e 57 bd ea 79 93 3c d0 f2 ec 3b
       -0.06610347 -0.05258009 0.01800247 0.007231094
000170 a2 79 ec bb cf a6 46 bb 77 47 43 3c ea 83 e1 3c
       -0.007216648 -0.0030311828 0.011918894 0.027528722
000180 b8 e1 2a 3c bc d7 b1 3c 9f d5 19 bc 9c 97 d9 bc
       0.010429792 0.021709315 -0.00938931 -0.02656155
000190 ee c9 32 3d 1f e9 58 3c ac e1 ca bc d4 e5 d0 3d
       0.043649606 0.013239174 -0.024765812 0.10200086
0001a0 1b ae 60 3d 8f d2 2b 3d 63 a7 e2 3c c9 60 a1 bc
       0.05485354 0.04194885 0.027667707 -0.019699471
0001b0 27 ce 5a bc d3 fe 2c 3c 6a 1e b1 3b 43 64 49 bd
       -0.013354815 0.010558802 0.005405237 -0.049167883
0001c0 23 78 10 bd 71 fe 50 bb f9 47 18 3c f6 ad 19 bd
       -0.03527082 -0.003188994 0.009294503 -0.037519418
0001d0 36 11 1f bd dc ea d7 bc e8 e2 89 bd 24 5b a5 3c
       -0.038834773 -0.026357107 -0.06732732 0.02018506
0001e0 39 d7 6b 3a 8d 8d ba 3b 06 d5 81 3d ee 87 9d 3c
       0.0008996609 0.0056931437 0.06339459 0.019229855
0001f0 3e ae c9 3c 01 8c 09 ba 9a 56 e5 bc 97 4e de 3b
       0.024619218 -0.00052469975 -0.027995396 0.006784271
000200 3d 3d c0 3c 92 4d 94 bc 4f 33 9b 3b 77 93 db 3a
       0.0234667 -0.018103395 0.004736341 0.0016752322
000210 dd a7 ce bc e0 c8 ea 3c 6f 85 89 3d 0d 6b 56 3d
       -0.025226528 0.028660238 0.067149036 0.052348185
000220 c8 e5 43 bd 46 08 92 bc 28 96 85 3c 40 33 f1 3c
       -0.04782656 -0.01782621 0.016306952 0.029443383
000230 46 b5 5c bd b7 6d 74 bd 19 df f4 3b a7 39 5a bd
       -0.053883813 -0.059674945 0.0074728844 -0.053277638
000240 db 28 03 3d 50 38 7a bd fa ca 25 3c ac 1f 9b bc
       0.032021385 -0.06108886 0.010119194 -0.018936
000250 fa b4 89 bd 31 ed a3 bd d0 99 e0 3c ab f7 0f bd
       -0.06723972 -0.08004225 0.027417094 -0.035148304
000260 12 8d 83 bd 26 50 65 3d e1 1b 29 3d 7b 13 2a 3d
       -0.064233914 0.05598464 0.041286353 0.041522484
000270 e9 02 02 bd 49 d4 04 3c d8 33 b7 3c eb 29 1f bb
       -0.031741057 0.008107253 0.022363588 -0.002428646
000280 f6 a3 52 3d b9 a5 ca ba 19 32 ad bc b0 77 11 bc
       0.051425897 -0.0015460766 -0.021142052 -0.008878633
000290 45 05 66 bc ab 33 18 bd 4c 55 a8 bc 61 d4 49 bc
       -0.014039342 -0.03715865 -0.020548485 -0.0123187015
0002a0 02 0a 85 bb 21 5a 47 bd 3d 5c 0f 3d f1 9b da bc
       -0.004060031 -0.048669938 0.035000075 -0.026685687
0002b0 7c 4f 1b 3d 81 de 47 3c f9 80 fc bc e8 61 87 3d
       0.0379176 0.012199045 -0.030823218 0.06610471
0002c0 8f 45 23 3b d0 63 7b bd 0c 0c 48 3d ca 3b bc bc
       0.0024913286 -0.061374485 0.048839614 -0.022977728
0002d0 95 a1 f7 3c d3 30 f8 3c ca a9 e3 bc f7 fc ec bc
       0.030228416 0.030296719 -0.027790923 -0.028929217
0002e0 20 07 78 3b ec a8 e1 3c 53 8d 44 3d 16 9b 29 3c
       0.0037846044 0.027546369 0.04798634 0.010351917
0002f0 a6 0b a6 bb 55 51 00 3d 40 a8 d1 bc f7 20 8e bd
       -0.0050673066 0.031327564 -0.025592923 -0.06939881
000300 1a f7 c8 bc 77 39 94 bc d4 ed 79 3b e0 7c 93 bd
       -0.02453189 -0.018093808 0.0038136141 -0.072015524
000310 30 01 a5 bd 9a 3c 5e bd 96 ad f4 3c b3 62 98 3d
       -0.08056867 -0.054257013 0.029867928 0.074407004
000320 b3 bc 50 bd e1 4d 7a 3c cd f9 8c 3c 22 0e e3 3c
       -0.050961208 0.015277357 0.017208958 0.0277167
000330 8c 0b bc bc a2 a4 17 bb 72 fc 2b 3c f2 9f 8f bd
       -0.022954725 -0.00231389 0.010497199 -0.07012929
000340 30 f4 20 3d cc 03 3c bd c6 3e 41 3b 01 9d f2 bc
       0.039295375 -0.04590206 0.0029486879 -0.02961588
000350 d0 d5 04 3d ff 28 14 3b 14 fb 19 3c e5 ef 35 bd
       0.03243047 0.0022607443 0.009398241 -0.044418234
000360 22 e4 8c bd 9c 5e 6b 3c 04 3a 57 bd 97 ee 24 bd
       -0.068794504 0.014365818 -0.052545562 -0.0402666
000370 70 9e 28 3d c3 11 c7 bb b5 89 6c bd 6e e9 0b bd
       0.041166723 -0.0060751154 -0.057748515 -0.034158163
000380 d0 02 a9 3c f4 25 22 bd c4 ed 3a bd 44 6c d2 bb
       0.020631224 -0.039586976 -0.045636907 -0.0064215977
000390 b3 d2 02 3d 94 17 04 bd 24 dd a2 bc 9d 40 0f bd
       0.03193922 -0.03224905 -0.019880839 -0.03497373
0003a0 64 f4 db 3c db 07 32 bd fc 95 ad bc a9 9e dc 3c
       0.026849933 -0.043464523 -0.021189682 0.026931124
0003b0 14 9a ee bc c8 e3 e3 3c ce dd 36 bd 09 c2 02 bd
       -0.029126205 0.027818576 -0.044645123 -0.031923328
0003c0 fd 4c 1a bd 41 5d 26 bd 07 eb 80 bd 50 59 9b bd
       -0.037671078 -0.040616278 -0.06294828 -0.075853944
0003d0 7b 25 ac bd 13 fa 6c 3c 4a 00 47 3b 30 91 13 bd
       -0.08405586 0.014463919 0.0030365163 -0.036027133
0003e0 47 0f fd ba 52 b4 75 bc 95 a1 4a bd 5b 53 2d 3c
       -0.0019306921 -0.014996605 -0.049470503 0.0105789555
0003f0 eb 6b 20 bd d6 54 66 bd 30 97 1c 3d 4d 1f 05 3d
       -0.03916542 -0.05623325 0.03823012 0.032500554

m_transform.0.6.bias f4 [96]
000000 7c 75 31 3c 4c c1 0d 3d b9 1e 47 bc 45 2f 06 bd
       0.010831233 0.03460817 -0.012153321 -0.032759923
000010 ed 51 85 bc f0 4d ed bb fc 3b 39 3c 34 47 8c ba
       -0.016274417 -0.007241957 0.011305805 -0.0010702373
000020 fc a9 19 bd f9 94 36 bd d4 9b c0 bc 76 22 3a bd
       -0.037515625 -0.044575665 -0.023511805 -0.04544302
000030 48 1e 87 3d 62 e0 a4 3c fe 47 19 3d 46 92 27 bd
       0.065975726 0.020126525 0.037422173 -0.04091098
000040 cc 29 0d 3d 66 27 9e bc 63 30 a4 3b 12 66 14 3c
       0.03446369 -0.019305896 0.005010651 0.009057539
000050 13 ca 4c bd e7 ca 30 3d d0 a5 00 3d f5 21 ac 3c
       -0.0499974 0.043162253 0.03140813 0.021012286
000060 06 c0 0d 3d f7 7f 3a bc 75 5f 22 3c 5e 56 90 ba
       0.034606956 -0.011383048 0.009910454 -0.0011012068
000070 94 3d 76 bd 29 ff 20 bd 60 e9 bf bc e2 59 d1 3b
       -0.06011732 -0.03930584 -0.023426712 0.0063888887
000080 ad df d1 3c 0a 01 0f 3d e4 a9 90 3c 5b 11 ba 3c
       0.025619352 0.0349131 0.017659135 0.022713354
000090 05 cc bc ba ea d7 88 3b 0c 38 55 bd c7 aa 8c bc
       -0.0014404064 0.0041761296 -0.052055404 -0.017171277
0000a0 53 53 74 bb d7 d5 75 bc b8 6d 4b bd 55 22 49 3c
       -0.003728111 -0.015004597 -0.049665183 0.012276252
0000b0 10 aa b2 bb 0a 27 b1 bc 9e aa 38 bd 6e 33 63 3b
       -0.005452402 -0.02162506 -0.04508459 0.0034668106
0000c0 76 bb 9b 3c 77 d5 55 3d 68 66 97 3c c5 4a 2c 3d
       0.019010287 0.05220553 0.018481448 0.042063493
0000d0 54 c6 bb bc 9c c0 84 3c 62 a7 c5 3b 12 08 26 3d
       -0.022921719 0.016205125 0.0060319165 0.04053504
0000e0 ec 71 24 3d 22 a9 15 3d db bd a0 bc be a4 62 3d
       0.040147707 0.03653825 -0.01962178 0.05533289
0000f0 fe 6a 8f 3c 27 2f 07 bd f9 5d 57 3d 86 14 a6 bc
       0.017507073 -0.033003952 0.052579854 -0.020273458
000100 4b fe 88 3c bf 8f 5e bc 8b 2b 04 bd 89 a7 0f bd
       0.016722819 -0.013584076 -0.03226809 -0.035071883
000110 02 ed 15 bd 43 9e 72 bd 0f 1a 9a 3c 0d 19 7c 3d
       -0.03660298 -0.05923296 0.018811254 0.061547328
000120 b2 ce 12 bd 92 d7 a2 bb 58 c7 c1 3c f6 a0 ec bc
       -0.03584165 -0.0049695456 0.023654625 -0.028885346
000130 47 0f 34 3d fd 66 a9 bb 29 df 34 bd 34 7e a1 bb
       0.043959882 -0.005169748 -0.044158135 -0.0049283747
000140 39 40 1c bd 35 95 1d bc d2 1f c4 3c ff 2f 17 bd
       -0.038147185 -0.009618093 0.023940954 -0.036911007
000150 f6 1c 60 bc 34 20 01 3c 9d fe 59 bb 60 3a ae bc
       -0.01367878 0.007881213 -0.0033263334 -0.02126807
000160 43 d8 b5 3d a3 92 04 bc 3a 18 e7 bc 13 96 59 bd
       0.08879139 -0.008091602 -0.028209794 -0.053121638
000170 13 6a c3 bc e0 66 28 3d a1 f5 ce 3a 1c c4 e1 3c
       -0.023854291 0.041113734 0.0015789756 0.027559333

m_transform.0.9.running_mean f4 [48]
000000 42 90 76 3f 13 28 6d 3f ac b1 bd 3f ea e1 a2 3f
       0.9631387 0.92639273 1.4819846 1.2725194
000010 87 a7 29 3f 55 b1 67 3f 75 59 3f 3f 0f 62 83 3f
       0.6627125 0.9050496 0.74745876 1.02643
000020 a0 72 89 3f 41 be 4b 3f b9 59 b6 3f ae bc a2 3f
       1.0738106 0.7958718 1.4246131 1.271383
000030 76 00 a0 3f 61 77 bb 3f 1e 3c fc 3f 18 c3 b5 3f
       1.2500141 1.4645807 1.9705846 1.4200163
000040 91 cc 5f 3f b6 72 8c 3f cc 38 db 3f 62 06 9f 3f
       0.8742152 1.0972507 1.7126708 1.2423823
000050 48 e7 41 3f 78 e4 c4 3f 78 60 aa 3f 96 03 b3 3f
       0.7574353 1.5382223 1.331069 1.3985469
000060 97 ca 94 3f 5e 05 89 3f ec 56 bb 3f e7 1a 89 3f
       1.1624326 1.0704763 1.4635901 1.0711335
000070 df 68 8f 3f ff ba 91 3f c9 25 3e 3f 0c 26 b3 3f
       1.1203879 1.1385192 0.74276406 1.3995986
000080 81 e4 64 3f cf 47 84 3f 53 41 68 3f 0d e3 ae 3f
       0.8941117 1.0334414 0.90724677 1.366304
000090 25 63 90 3f bd 46 3b 3f 36 9c 6c 3f eb d4 48 3f
       1.1280257 0.73154813 0.9242586 0.7844989
0000a0 d1 e1 9c 3f a4 6a 46 3f ac 52 87 3f 2e 44 ca 3f
       1.2256414 0.7750647 1.0572104 1.5802057
0000b0 4d d9 6b 3f c1 52 98 3f d7 58 47 3f f7 50 7c 3f
       0.9212845 1.1900254 0.77869934 0.9856104

m_transform.0.9.running_var f4 [48]
000000 5d 7c cb 3f e7 e5 58 3f 08 e0 4b 3f 78 66 9f 3f
       1.5897328 0.84725803 0.7963872 1.2453146
000010 c1 66 e5 3e a0 76 e6 3e 85 e9 cb 3f 96 11 13 3f
       0.44804958 0.4501238 1.593064 0.5744871
000020 44 6e 3b 3f 11 13 e1 3e e7 b3 00 3f 4b a8 15 3f
       0.73215127 0.4395986 0.5027451 0.5845992
000030 6d 6d ac 3f 44 fd 60 40 39 ca da 3f 09 8d 5a 3f
       1.3470894 3.515458 1.7092963 0.8537145
000040 55 7a 0e 3f 6d 8e aa 3e 4d c6 84 3f ac 23 08 40
       0.55655414 0.33311787 1.0373017 2.1271772
000050 73 3f c6 3f 12 6a d8 3f 2f e4 05 40 5d 2e 0e 40
       1.5488113 1.690737 2.0920522 2.2215798
000060 ea 42 04 3f b9 3e 41 3f ef c1 5f 3f e4 31 bc 3e
       0.516646 0.7548633 0.87405294 0.36756814
000070 d1 ef b6 3e dd bd bb 3f b6 f3 e3 3f 8f 5e 86 3f
       0.3572984 1.4667317 1.780875 1.0497607
000080 a6 e8 b8 3f f8 3b be 3f 1c 0e d0 3e 4f 4a 1b 3f
       1.4445999 1.4862051 0.40635765 0.6066026
000090 6f 4c 7c 3f 61 b2 6e 40 2d b9 ae 3f a1 cb 9c 3f
       0.9855413 3.7296374 1.3650261 1.2249643
0000a0 a7 e1 b4 3f 78 46 34 3f a1 b7 54 3f a5 2f 58 3f
       1.4131364 0.70420027 0.83092695 0.844477
0000b0 ef a5 1a 3f 59 fb 05 3f c7 63 20 3f f3 c5 0c 3f
       0.60409445 0.5233665 0.6265225 0.54989547

m_transform.0.10.weight f4 [96, 48, 1, 1]
000000 99 53 75 bd e8 13 11 be 42 1f ab bd 6e 1c 27 bd
       -0.059894178 -0.1416775 -0.08355571 -0.040798597
000010 65 3d 12 3e ab d4 26 bd ea c5 e7 bc af 3f e4 3d
       0.14281233 -0.04073016 -0.028292615 0.11144959
000020 50 f0 52 3c 89 01 2a be 74 3d dc 3d 6c f6 1d bd
       0.012874678 -0.16602148 0.10753909 -0.038565084
000030 d5 92 e5 bd 2b 85 a2 3d 67 1a 83 bd 81 20 05 be
       -0.112096466 0.07935556 -0.0640152 -0.1300068
000040 64 b4 8f 3d 2f 79 a5 3d 55 0a 5e 3d 28 7b 65 3d
       0.07016829 0.080797546 0.054209072 0.056025654
000050 04 80 a6 bc f5 1a 34 bd 88 53 f5 3b b3 0a d6 3d
       -0.020324714 -0.04397102 0.0074867643 0.104512595
000060 2f 11 fb 3c e7 9f 91 3d c5 49 5e bd 50 c8 34 3c
       0.030647842 0.07110577 -0.05426957 0.011034086
000070 5b ce f7 3d 58 b6 49 3d e6 be 13 3d 3f d6 c5 3c
       0.12099906 0.049246162 0.036070727 0.024150012
000080 b6 60 bd bd a8 d0 9a 3c 36 fa 12 be 85 82 d1 bd
       -0.09246962 0.018898323 -0.1435326 -0.10229973
000090 3e 56 25 be 2e 2a 97 bd c3 43 f6 3a 60 b1 81 39
       -0.1614618 -0.07381092 0.0018788505 0.00024736952
0000a0 2f a1 0e 3e 81 6c ed 3d 92 cd 00 be ed f2 36 3d
       0.13928674 0.11592961 -0.12578419 0.044665266
0000b0 eb 4a bf 3d c4 69 7d bd b3 de 02 3e b4 21 1c be
       0.09340461 -0.061868444 0.12780266 -0.15247232
0000c0 b9 01 29 3d 6f d9 72 3d f5 e5 a1 bd 1e ed db bd
       0.04126141 0.059289392 -0.07905189 -0.10738586
0000d0 74 66 a2 3d 66 7b 19 be 51 f7 38 bd c2 33 a5 bd
       0.07929698 -0.14988479 -0.045157734 -0.08066513
0000e0 20 d4 17 bd c3 2c b4 3c f3 92 94 3d 5f 64 c0 3d
       -0.037067533 0.021994 0.07254591 0.09394144
0000f0 86 9c 0e 3d 39 bb 8c bd 88 f8 02 b9 8a 2b 63 3c
       0.03481724 -0.068716474 -0.00012490351 0.013865361
000100 78 8b 1b 3e 83 21 0e be 2a 06 f1 bd f5 bf 55 bd
       0.15189922 -0.13879971 -0.11768754 -0.052185018
000110 4c ca 59 bd f2 49 d3 bd 12 43 14 3d 5b e3 0f bd
       -0.05317144 -0.10316838 0.036196776 -0.035128932
000120 45 79 1e 3e 1c db 56 3d b0 82 5f 3d 89 51 24 3e
       0.15475948 0.052455053 0.054567993 0.16046728
000130 70 63 bb bd 0f a1 ca 3c 21 74 80 bd cd 8e 56 3d
       -0.091498256 0.024735002 -0.0627215 0.05238228
000140 5e 70 2e 3d 6a 07 81 3d 58 43 b0 bd 15 94 f4 bc
       0.04258763 0.06300242 -0.08606595 -0.029855767
000150 3b ec a4 3c 1b d1 68 bd d8 84 98 bd 44 9a 56 3d
       0.020132175 -0.056840044 -0.07447213 0.052393213
000160 e2 43 df 3c 01 5f ee bd 65 1e 08 be 25 44 ca bd
       0.027254049 -0.11639214 -0.13292845 -0.09876279
000170 e0 ca a0 3d 39 33 6e 3d e9 e3 e2 3d cf 14 5d 3c
       0.07851195 0.05815432 0.11078627 0.013493731
000180 0e dc bb 3d 3c bc 1e be bc 41 d9 bd f1 b2 2d bd
       0.091728315 -0.15501493 -0.10608241 -0.04240698
000190 c1 d8 89 3c 8c cc f5 3c 62 c6 af bd 01 cd 1f be
       0.01682699 0.030004762 -0.085827604 -0.15605547
0001a0 da b7 c2 bd e2 61 8c bd 70 e1 57 bd 4c 4b 8d bb
       -0.09507723 -0.06854607 -0.05270523 -0.0043119546
0001b0 8f 2a ca bd 06 46 ce 3d 80 16 36 3d 67 16 0c 3e
       -0.09871399 0.1007195 0.04445505 0.13680421
0001c0 22 6e 9c bd f0 7b 7a 3c 12 15 16 3c 36 5b 30 bd
       -0.07638194 0.015288338 0.009160297 -0.043055736
0001d0 f2 f2 61 3d ec 60 e5 bd 80 d7 36 bc 82 3c 2e bd
       0.05516333 -0.11200127 -0.011159778 -0.042538173
0001e0 2c a7 ed bd cc 5b 09 3e a8 bd b5 3d a8 23 32 bc
       -0.11604151 0.13413924 0.08874065 -0.010872759
0001f0 1e d6 27 3d 69 16 e2 bc fd 94 a2 3b 73 e4 c1 bd
       0.040975682 -0.027598577 0.0049616084 -0.09467401
000200 0a 49 e4 3d 45 6e 08 3d af 80 73 3d e9 38 48 bd
       0.111467436 0.033308286 0.059448894 -0.0488824
000210 cc f7 f3 bd 22 69 b8 3b be 34 da bd a6 be f4 3d
       -0.11912498 0.005627767 -0.10654591 0.11950426
000220 7a 16 9a bd 3c 35 dd 3d ef b7 cc 3c 5d 9c 89 bd
       -0.07523818 0.10801169 0.02499005 -0.06719277
000230 54 1b e4 3d 5a 0c 43 3d 04 91 e1 bd 32 67 62 3d
       0.11138025 0.0476192 -0.11013988 0.055274196
000240 4c 1b fe 3d d1 82 d2 bd e8 ba a8 3d 1a a7 e3 3d
       0.1240755 -0.102788575 0.082387745 0.111158565
000250 18 99 dc bd c2 6d de bd 96 66 27 b9 db 8c 92 3d
       -0.10771388 -0.108607784 -0.00015964577 0.07155772
000260 15 50 b7 bd 03 6d 19 3e b3 c4 1e be 5e e9 85 3d
       -0.08950821 0.14982991 -0.15504722 0.06538652
000270 d3 1a f0 3c 49 24 e5 3c 77 5d bf 3c 55 1e 3e bb
       0.029309666 0.027971404 0.023359997 -0.0029009779
000280 d5 5b 1e bc d9 97 32 bd 95 c5 9f bc 0a f0 bd bd
       -0.009665449 -0.043601844 -0.019503394 -0.092742994
000290 e3 c7 bf 3c 40 8a d5 bd 9f 9f 42 bb c0 f3 5f bd
       0.023410743 -0.1042676 -0.0029697192 -0.054675817
0002a0 02 e8 1c be f7 a6 2b bd 15 99 45 3d 69 48 6d bd
       -0.15322879 -0.041907277 0.048241694 -0.057930384
0002b0 cf c1 81 bd d4 0d 1f 3e 49 b0 81 3d ff dc 19 3d
       -0.06335794 0.15532619 0.06332452 0.037564274
0002c0 6a 96 67 bd bc 13 e9 3d b0 b0 b3 bd 25 9d 7a 3c
       -0.05653993 0.11380717 -0.08773935 0.015296255
0002d0 20 45 f8 bd 02 b0 4d 3c fb 41 49 3d 54 26 24 be
       -0.121225595 0.012554171 0.04913519 -0.16030246
0002e0 d8 c9 3b 3c 18 1f e1 3c 77 30 fd 3d 17 17 51 bd
       0.0114616975 0.027480647 0.123627596 -0.05104741
0002f0 4c c0 8e 3d bb a2 aa bd a2 86 4a 3d 78 fe 14 3e
       0.069702715 -0.083318196 0.049444802 0.14550197
000300 9a 07 aa 3d ca 0b 53 bd 90 cb 9a bd 2e 68 0c 3e
       0.08302231 -0.051524915 -0.07558358 0.13711616
000310 be e1 06 be 7b ef 41 bd e4 e5 d1 bb 1c 80 df 3d
       -0.13172051 -0.047347527 -0.006405579 0.10913107
000320 86 53 8e bd 51 df ff 3d 69 3e d3 3b f2 2d 29 3c
       -0.069495246 0.12493766 0.006446649 0.010325896
000330 01 cb 9d bc 39 1a 17 be d4 8c 64 bd 0f f7 2d bd
       -0.019261839 -0.14756097 -0.055798367 -0.04247194
000340 67 1f c3 3d 43 f5 95 bd fe bd 86 bd 10 60 ed bd
       0.09527474 -0.073221706 -0.06579207 -0.11590588
000350 76 6d 07 be ad 9b a1 bd ea ee aa bd 85 ec 92 3d
       -0.1322535 -0.07891021 -0.083463505 0.07174019
000360 f5 1b 1f 3d e2 4e 0e bd 8f 41 8d 3d 07 a3 21 3d
       0.03884502 -0.034743197 0.0689727 0.039462116
000370 ed 55 10 3e 60 09 90 3c b2 b6 12 bc db 19 fc 3d
       0.14095278 0.017582595 -0.008954691 0.12309619
000380 c9 c6 29 3c d7 ac a7 3d 3a 4d 83 bd 6e 55 f2 3c
       0.0103623355 0.081872635 -0.06411214 0.029581752
000390 d1 09 86 bd 47 d3 e4 3d 08 8f 80 3d f7 11 c5 bc
       -0.06544841 0.111731105 0.06277281 -0.024056418
0003a0 71 4f 11 be 71 ca d2 3d a9 40 f2 3b 6d a2 d6 3d
       -0.1419046 0.10292519 0.007392962 0.10480199
0003b0 b0 9d b3 3d 21 81 82 3d de 42 99 bd 3f bb 27 be
       0.08770311 0.06372286 -0.07483457 -0.16380022
0003c0 b0 83 5d 3d f1 71 36 bd 73 8f 83 bd a8 43 e0 3d
       0.054080665 -0.044542257 -0.06423845 0.109504044
0003d0 52 dd 5d bd fa 34 b1 3d ac b7 3f 3d db 38 fa 3d
       -0.054166146 0.086526826 0.046806023 0.122178756
0003e0 36 2a 18 3d 96 9f 78 3a cf 0e e2 3b 6d 0f ef bd
       0.03714963 0.00094842294 0.006898738 -0.11672864
0003f0 5a 3a f9 3d 23 eb 34 3d 8d ed 85 bd 1c e2 f1 3c
       0.12169333 0.044169556 -0.0653945 0.029526763

m_transform.0.10.bias f4 [96]
000000 02 b3 21 3c 3e 20 8c bd d0 63 e0 3d 3b b2 43 3d
       0.009869339 -0.06842087 0.10956538 0.047777396
000010 32 e3 01 3e 7a cc 8d bd 4c e3 8f 3d c9 7a 22 be
       0.12684324 -0.069237664 0.07025775 -0.15867151
000020 d7 6d bc 3c f5 11 a1 3d 32 1c 38 bd 76 26 ae 3d
       0.023001594 0.07864753 -0.044948764 0.085034296
000030 f7 87 01 3e a6 e5 8c 3d c4 b8 ff bd 45 7a c6 3d
       0.12649523 0.068797395 -0.12486413 0.0969129
000040 2c e4 10 3b a0 f8 46 bd fd 7e 32 3d 79 69 aa 3d
       0.0022108657 -0.04857695 0.043578137 0.083208986
000050 3a e2 08 be 64 4a e6 3d 96 1a 08 3e db 3f 88 3d
       -0.13367549 0.11244658 0.13291392 0.066528045
000060 66 51 86 3b b1 ad 9a bd 51 a4 6d 3d 99 09 88 3b
       0.004099059 -0.0755266 0.058018032 0.0041515348
000070 e1 dd 55 3d 2a b0 a2 3d 05 6b 80 3d 7a 94 d0 bd
       0.052213553 0.07943757 0.06270412 -0.1018457
000080 48 1b fc 3d 35 8d 3f bd 12 0f 88 3d e3 7d cd bd
       0.12309891 -0.046765525 0.066434994 -0.100337766
000090 b8 ca 60 3d d8 78 dc bc 68 06 75 3d eb d4 e9 bd
       0.054880828 -0.026913092 0.059820563 -0.11417564
0000a0 5f 7f d7 3d 23 81 d3 bd 89 f2 68 3d 99 90 91 bd
       0.10522341 -0.10327365 0.056871925 -0.07107658
0000b0 85 98 71 3d 09 b4 08 3e fd 07 ac bd 54 41 16 3e
       0.058983345 0.13349928 -0.08399961 0.14673358
0000c0 f5 ba 69 3d f9 44 f0 3d 22 64 f3 bd ef e2 d7 bc
       0.05706306 0.117319055 -0.11884333 -0.026353328
0000d0 ec 28 c1 bd c8 c0 06 3e 81 5b 8e 3d cb 61 f7 bc
       -0.09431633 0.13159478 0.06951047 -0.030197999
0000e0 d4 67 05 3d fd e0 cd 3b a0 dd 4a 3d 35 97 a1 bd
       0.03256972 0.006282924 0.049527764 -0.078901686
0000f0 a4 1e dc bd e8 62 ae bd b9 bd a5 3c 34 54 9b b9
       -0.10748032 -0.085149586 0.020232068 -0.0002962664
000100 81 3f 04 be 7a 1f b5 3d bf c9 87 bc 66 67 af 3d
       -0.1291485 0.08843894 -0.016575692 0.085646436
000110 1c f6 0c bd 89 67 44 3c ef 8f 0d 3e 82 1a 36 3d
       -0.034414396 0.011987575 0.13824438 0.044458874
000120 4f ef 65 3d 92 66 a6 3d 1a 91 a7 3d 3a 0c dc 3d
       0.056136426 0.081250325 0.08181973 0.107445195
000130 ae ae 88 3d 32 1a 01 be 6a f9 c0 bd d5 e4 ce 3d
       0.066739425 -0.12607649 -0.09422572 0.1010224
000140 c2 25 54 bd 1f c7 09 3e 80 90 e1 ba 69 3d f5 bd
       -0.05179382 0.13454865 -0.0017209202 -0.11974604
000150 f5 91 81 3d f4 2c 9f 3d 2d 31 59 3c da 80 92 3d
       0.06326667 0.07772246 0.013256353 0.07153483
000160 90 8b fb bd 6e f0 8a bd 50 75 8a bc 75 95 bb 3c
       -0.12282479 -0.067841396 -0.016901642 0.022898415
000170 e6 96 5c bd 20 67 02 3e 73 ca 52 3d 71 27 b1 3d
       -0.053854845 0.12734652 0.051462602 0.08650101

m_transform.0.12.running_mean f4 [48]
000000 08 af 0a 3f 1a f8 5d 3e 29 2d bc 3e d2 b0 02 3f
       0.54173326 0.21676674 0.36753204 0.51051056
000010 14 9b cb 3e 59 b2 f5 3e 95 0b 7a 3e 96 ef ca 3e
       0.39766753 0.4798763 0.2441848 0.39635915
000020 06 d4 e3 3e 2a fe df 3e 8a 78 06 3f fe 55 91 3e
       0.444977 0.437486 0.5252768 0.2838592
000030 af 0f 1b 3f ed fa bc 3e a8 f0 72 3e 1e 24 01 3f
       0.60570806 0.3691019 0.23724616 0.50445735
000040 a5 02 af 3e 41 f8 d9 3e b8 0e 7c 3e a3 6b cd 3e
       0.34181705 0.42572215 0.2461499 0.40121183
000050 86 14 57 3e 07 41 b1 3e 19 10 05 3f 60 5a c6 3e
       0.21003923 0.34619924 0.5197769 0.38740826
000060 ea 28 fb 3e b5 1a f6 3e a7 e1 44 3f 8f 17 04 3f
       0.49054652 0.4806725 0.7690682 0.5159845
000070 4f 84 a6 3e d3 b6 84 3e 81 1d e7 3e 86 9b 05 3f
       0.32522818 0.25920734 0.45139697 0.52190435
000080 0e fc a4 3e 55 f1 c5 3e 7a ad da 3e 90 1b 9d 3e
       0.32223552 0.38660684 0.42710477 0.3068509
000090 44 30 04 3f 06 81 ca 3e e1 7c 85 3e 17 a0 e0 3e
       0.5163615 0.39551562 0.26071838 0.4387214
0000a0 3c 93 01 3f 3b 7a ba 3e 5b 56 90 3e 8b e3 fc 3e
       0.50615287 0.3642138 0.28190884 0.49392352
0000b0 0b c5 84 3e 0d 40 4b 3f d3 29 9f 3e 08 20 f0 3e
       0.25931582 0.7939461 0.31086597 0.46899438

m_transform.0.12.running_var f4 [48]
000000 f0 10 73 3e 85 25 25 3e de dd 3a 3e a3 d3 43 3e
       0.2373693 0.16127594 0.18248698 0.19123702
000010 c2 78 23 3e 9e da 1d 3e b4 b2 01 3e 6e 97 a8 3e
       0.15964034 0.15415427 0.12665826 0.32928032
000020 64 13 12 3e 1a 0e 60 3e ed 29 be 3e 5e 2a 49 3e
       0.1426521 0.2188038 0.37141362 0.19645068
000030 a2 16 b4 3e 3f 34 78 3e 25 26 86 3e b7 90 c7 3e
       0.35173517 0.2423868 0.26200977 0.38977596
000040 33 6f 85 3e c1 28 2f 3e 25 84 48 3e 53 1e 0f 3e
       0.260614 0.1710539 0.19581659 0.13976412
000050 69 30 5b 3e c9 ba c3 3e 41 62 46 3e a1 b8 a8 3e
       0.21405186 0.38228443 0.19373418 0.3295336
000060 fd 5f 44 3e 94 4a 3f 3e f9 8e a8 3e 4f 9b b8 3e
       0.19177242 0.18680793 0.3292158 0.3605599
000070 ca 57 ee 3e e6 5d 89 3e 2a c0 2c 3e 3e 7e 5d 3e
       0.46551353 0.2682945 0.1687018 0.21630189
000080 11 4a cb 3e 2c f4 06 3e 6d 88 6e 3e f5 f0 70 3e
       0.39704946 0.13179082 0.2329423 0.23529418
000090 e7 eb a4 3e 2f 9d 4c 3e f6 bf 56 3e ca a1 36 3e
       0.3221123 0.19981836 0.20971665 0.17835155
0000a0 66 79 e1 3e f8 1a 67 3e e5 fb 0a 3e 6b 27 89 3e
       0.44037932 0.22568882 0.13572653 0.26787886
0000b0 b3 a2 03 3f f1 b1 a7 3e 0f 43 d9 3e 9a 71 e7 3e
       0.51420134 0.32752946 0.42433974 0.4520386
