Auxillary_Code/LCNN/project/03-asvspoof-mega/lfb-lcnn-attention-am/06/__pretrained/trained_network.pt (torch, 775117 bytes, 35 tensors)

m_frontend.0.lfcc_fb f4 [257, 60]
000000 00 00 00 00 00 00 00 00 00 00 00 00 00 00 00 00
       0.0 0.0 0.0 0.0
000010 00 00 00 00 00 00 00 00 00 00 00 00 00 00 00 00
       0.0 0.0 0.0 0.0
000020 00 00 00 00 00 00 00 00 00 00 00 00 00 00 00 00
       0.0 0.0 0.0 0.0
000030 00 00 00 00 00 00 00 00 00 00 00 00 00 00 00 00
       0.0 0.0 0.0 0.0
000040 00 00 00 00 00 00 00 00 00 00 00 00 00 00 00 00
       0.0 0.0 0.0 0.0
000050 00 00 00 00 00 00 00 00 00 00 00 00 00 00 00 00
       0.0 0.0 0.0 0.0
000060 00 00 00 00 00 00 00 00 00 00 00 00 00 00 00 00
       0.0 0.0 0.0 0.0
000070 00 00 00 00 00 00 00 00 00 00 00 00 00 00 00 00
       0.0 0.0 0.0 0.0
000080 00 00 00 00 00 00 00 00 00 00 00 00 00 00 00 00
       0.0 0.0 0.0 0.0
000090 00 00 00 00 00 00 00 00 00 00 00 00 00 00 00 00
       0.0 0.0 0.0 0.0
0000a0 00 00 00 00 00 00 00 00 00 00 00 00 00 00 00 00
       0.0 0.0 0.0 0.0
0000b0 00 00 00 00 00 00 00 00 00 00 00 00 00 00 00 00
       0.0 0.0 0.0 0.0
0000c0 00 00 00 00 00 00 00 00 00 00 00 00 00 00 00 00
       0.0 0.0 0.0 0.0
0000d0 00 00 00 00 00 00 00 00 00 00 00 00 00 00 00 00
       0.0 0.0 0.0 0.0
0000e0 00 00 00 00 00 00 00 00 00 00 00 00 00 00 00 00
       0.0 0.0 0.0 0.0
0000f0 00 00 74 3e 00 00 00 00 00 00 00 00 00 00 00 00
       0.23828125 0.0 0.0 0.0
000100 00 00 00 00 00 00 00 00 00 00 00 00 00 00 00 00
       0.0 0.0 0.0 0.0
000110 00 00 00 00 00 00 00 00 00 00 00 00 00 00 00 00
       0.0 0.0 0.0 0.0
000120 00 00 00 00 00 00 00 00 00 00 00 00 00 00 00 00
       0.0 0.0 0.0 0.0
000130 00 00 00 00 00 00 00 00 00 00 00 00 00 00 00 00
       0.0 0.0 0.0 0.0
000140 00 00 00 00 00 00 00 00 00 00 00 00 00 00 00 00
       0.0 0.0 0.0 0.0
000150 00 00 00 00 00 00 00 00 00 00 00 00 00 00 00 00
       0.0 0.0 0.0 0.0
000160 00 00 00 00 00 00 00 00 00 00 00 00 00 00 00 00
       0.0 0.0 0.0 0.0
000170 00 00 00 00 00 00 00 00 00 00 00 00 00 00 00 00
       0.0 0.0 0.0 0.0
000180 00 00 00 00 00 00 00 00 00 00 00 00 00 00 00 00
       0.0 0.0 0.0 0.0
000190 00 00 00 00 00 00 00 00 00 00 00 00 00 00 00 00
       0.0 0.0 0.0 0.0
0001a0 00 00 00 00 00 00 00 00 00 00 00 00 00 00 00 00
       0.0 0.0 0.0 0.0
0001b0 00 00 00 00 00 00 00 00 00 00 00 00 00 00 00 00
       0.0 0.0 0.0 0.0
0001c0 00 00 00 00 00 00 00 00 00 00 00 00 00 00 00 00
       0.0 0.0 0.0 0.0
0001d0 00 00 00 00 00 00 00 00 00 00 00 00 00 00 00 00
       0.0 0.0 0.0 0.0
0001e0 00 00 f4 3e 00 00 00 00 00 00 00 00 00 00 00 00
       0.4765625 0.0 0.0 0.0
0001f0 00 00 00 00 00 00 00 00 00 00 00 00 00 00 00 00
       0.0 0.0 0.0 0.0
000200 00 00 00 00 00 00 00 00 00 00 00 00 00 00 00 00
       0.0 0.0 0.0 0.0
000210 00 00 00 00 00 00 00 00 00 00 00 00 00 00 00 00
       0.0 0.0 0.0 0.0
000220 00 00 00 00 00 00 00 00 00 00 00 00 00 00 00 00
       0.0 0.0 0.0 0.0
000230 00 00 00 00 00 00 00 00 00 00 00 00 00 00 00 00
       0.0 0.0 0.0 0.0
000240 00 00 00 00 00 00 00 00 00 00 00 00 00 00 00 00
       0.0 0.0 0.0 0.0
000250 00 00 00 00 00 00 00 00 00 00 00 00 00 00 00 00
       0.0 0.0 0.0 0.0
000260 00 00 00 00 00 00 00 00 00 00 00 00 00 00 00 00
       0.0 0.0 0.0 0.0
000270 00 00 00 00 00 00 00 00 00 00 00 00 00 00 00 00
       0.0 0.0 0.0 0.0
000280 00 00 00 00 00 00 00 00 00 00 00 00 00 00 00 00
       0.0 0.0 0.0 0.0
000290 00 00 00 00 00 00 00 00 00 00 00 00 00 00 00 00
       0.0 0.0 0.0 0.0
0002a0 00 00 00 00 00 00 00 00 00 00 00 00 00 00 00 00
       0.0 0.0 0.0 0.0
0002b0 00 00 00 00 00 00 00 00 00 00 00 00 00 00 00 00
       0.0 0.0 0.0 0.0
0002c0 00 00 00 00 00 00 00 00 00 00 00 00 00 00 00 00
       0.0 0.0 0.0 0.0
0002d0 00 00 37 3f 00 00 00 00 00 00 00 00 00 00 00 00
       0.71484375 0.0 0.0 0.0
0002e0 00 00 00 00 00 00 00 00 00 00 00 00 00 00 00 00
       0.0 0.0 0.0 0.0
0002f0 00 00 00 00 00 00 00 00 00 00 00 00 00 00 00 00
       0.0 0.0 0.0 0.0
000300 00 00 00 00 00 00 00 00 00 00 00 00 00 00 00 00
       0.0 0.0 0.0 0.0
000310 00 00 00 00 00 00 00 00 00 00 00 00 00 00 00 00
       0.0 0.0 0.0 0.0
000320 00 00 00 00 00 00 00 00 00 00 00 00 00 00 00 00
       0.0 0.0 0.0 0.0
000330 00 00 00 00 00 00 00 00 00 00 00 00 00 00 00 00
       0.0 0.0 0.0 0.0
000340 00 00 00 00 00 00 00 00 00 00 00 00 00 00 00 00
       0.0 0.0 0.0 0.0
000350 00 00 00 00 00 00 00 00 00 00 00 00 00 00 00 00
       0.0 0.0 0.0 0.0
000360 00 00 00 00 00 00 00 00 00 00 00 00 00 00 00 00
       0.0 0.0 0.0 0.0
000370 00 00 00 00 00 00 00 00 00 00 00 00 00 00 00 00
       0.0 0.0 0.0 0.0
000380 00 00 00 00 00 00 00 00 00 00 00 00 00 00 00 00
       0.0 0.0 0.0 0.0
000390 00 00 00 00 00 00 00 00 00 00 00 00 00 00 00 00
       0.0 0.0 0.0 0.0
0003a0 00 00 00 00 00 00 00 00 00 00 00 00 00 00 00 00
       0.0 0.0 0.0 0.0
0003b0 00 00 00 00 00 00 00 00 00 00 00 00 00 00 00 00
       0.0 0.0 0.0 0.0
0003c0 00 00 74 3f 00 00 00 00 00 00 00 00 00 00 00 00
       0.953125 0.0 0.0 0.0
0003d0 00 00 00 00 00 00 00 00 00 00 00 00 00 00 00 00
       0.0 0.0 0.0 0.0
0003e0 00 00 00 00 00 00 00 00 00 00 00 00 00 00 00 00
       0.0 0.0 0.0 0.0
0003f0 00 00 00 00 00 00 00 00 00 00 00 00 00 00 00 00
       0.0 0.0 0.0 0.0

m_transform.0.0.weight f4 [64, 1, 5, 5]
000000 52 42 68 3a f5 97 26 bd 95 09 4f be 31 05 06 bd
       0.000885998 -0.04067226 -0.20218499 -0.032719795
000010 e3 d4 1e bd 6d 18 c1 3d fe d9 46 be 71 5e 15 3e
       -0.038777243 0.09428487 -0.19419095 0.14586808
000020 d3 e1 d8 bd d0 06 9b 3d ad 08 e8 bd ea da ac 3d
       -0.105899476 0.07569659 -0.1132978 0.08440192
000030 7d 28 2f 3e 0d a4 14 3d 5a aa fe bd 26 37 18 3e
       0.17105289 0.036289264 -0.12434836 0.14864787
000040 ae 6e 40 3e 88 ff 2d be 30 8b c1 bd 10 4f c2 bc
       0.18792221 -0.16992009 -0.09450376 -0.02371934
000050 cb 30 09 bd 60 1b c4 bc 20 ab 1d be 19 6e 9f 3d
       -0.0334938 -0.023938835 -0.1539731 0.07784671
000060 30 c2 2b 3e 14 89 4d 3c 59 56 82 bd 1f 63 44 be
       0.16773295 0.012544889 -0.06364126 -0.19178437
000070 e5 09 9e 3d 61 d5 5e bd 00 71 71 3c 4a 16 df 3c
       0.07716731 -0.054402713 0.014736414 0.027232308
000080 29 fe 9d 3d 80 a5 cd bd 1b 0a d9 bd 87 38 1d be
       0.07714493 -0.10041332 -0.105976306 -0.15353595
000090 43 fd 00 be c7 e5 b9 3d 97 0c ce 3d b8 4f 32 bd
       -0.12596612 0.0907703 0.10060995 -0.043533057
0000a0 5f 98 e4 3d 74 95 42 3d b4 c7 3a 3e d0 27 49 3d
       0.11161875 0.04750581 0.18240243 0.049110234
0000b0 06 03 ce 3d 8e 23 dd 3d b5 01 a0 bd 79 d9 0b be
       0.100591704 0.10797797 -0.078128256 -0.13657178
0000c0 e2 aa cb 3d b4 fd 16 3d 2a e0 8a bc b7 15 ce 3c
       0.09944703 0.036863044 -0.016952593 0.025156839
0000d0 26 b1 5d 3d 9b aa 43 bc 95 6c 80 3d 2c a7 1a 3d
       0.05412402 -0.011942531 0.062707104 0.037757084
0000e0 1b 30 e3 3c 83 b3 31 be f7 58 ac bc d9 7c 33 3d
       0.0277329 -0.17353635 -0.021038515 0.043820236
0000f0 90 6d 8b 3d 14 8a 32 be dd f9 87 bd e1 91 2b 3e
       0.06808007 -0.17435485 -0.066394545 0.16754867
000100 5d ff 97 3d f6 04 e6 3d 8f 74 31 3e 19 bd a5 3d
       0.074217536 0.11231415 0.1732962 0.08092708
000110 42 0d e9 3d a2 40 2e 3e dd d5 12 3e 60 a3 ff bc
       0.11379482 0.17016843 0.14339395 -0.031205833
000120 f4 f8 2e 3e 0f bd 20 be 14 43 ac 3d 58 40 a9 3d
       0.17087156 -0.1569712 0.08411232 0.08264226
000130 bf 05 36 3e a0 aa ba bd 2a e6 18 be f8 c3 01 bb
       0.1777563 -0.091145754 -0.1493155 -0.0019800644
000140 ef 63 f5 bb e6 ba 34 be ee e3 1b 3b bd 7c 0f be
       -0.0074887197 -0.17649421 0.002378698 -0.14012428
000150 ff b0 b3 bb 74 8a 1b bd a8 f0 9e 3d 4a e3 37 be
       -0.005483746 -0.037973836 0.07760745 -0.17957798
000160 a2 69 3e bd d8 f0 22 be a5 ee ee 3d 86 9e 0d be
       -0.046487458 -0.15912187 0.116666116 -0.13830003
000170 94 5e 24 bc ab 3e d4 3d fc 4c 8a bd 93 14 c7 bc
       -0.010032315 0.103635155 -0.06752965 -0.024301803
000180 18 a7 46 3e f8 f6 0a be 6b b6 30 be d3 7c 20 bd
       0.19399679 -0.13570774 -0.17257087 -0.03918154
000190 b6 9b c5 3d fd d0 41 3c b1 65 9b 3c de b7 08 be
       0.0964884 0.011829612 0.018969389 -0.1335139
0001a0 7f a7 2d be 40 73 95 bc f6 9d 14 be 68 a3 0a 3e
       -0.16958426 -0.018243432 -0.14513382 0.13538897
0001b0 97 92 1e 3e 77 84 c1 3d da 4d e7 bb 02 8a 1c 3e
       0.15485607 0.09449094 -0.007058841 0.15287021
0001c0 49 ff 04 3e 14 0e bb bd f5 50 d1 bd 5c c3 6c 3d
       0.12988009 -0.091335446 -0.102205195 0.057803497
0001d0 4b 91 8c 3d 1a fd cc 3d c9 bc 6a 3c 35 28 32 be
       0.0686365 0.10009213 0.014327236 -0.1739815
0001e0 b0 19 9c 3d a8 06 28 3e 75 88 1c 3d 30 3c 88 bd
       0.07622087 0.16408789 0.038216073 -0.06652105
0001f0 fb df 15 be a0 7f 35 3d 8f 91 19 3e 6f fe 39 be
       -0.14636223 0.044311166 0.14996932 -0.18163465
000200 f7 f7 db 3d a7 d3 44 be 6b 65 f0 3d 79 99 0b be
       0.10740655 -0.19221364 0.11738094 -0.13632764
000210 a9 a7 54 3c 51 31 18 3d 4a 50 27 3d 76 f7 2a be
       0.012979426 0.037156407 0.040848054 -0.16695961
000220 0b 5a 05 bd e4 35 2f be a6 41 03 3d 80 3b 58 3d
       -0.032556575 -0.17110401 0.03204503 0.05279112
000230 02 07 42 bd 67 58 83 3d ec c3 b0 3d 9d f0 0b 3e
       -0.047369964 0.06413346 0.08631119 0.13666005
000240 42 60 d8 bc e6 7f 52 3b 7e 38 87 bc 28 60 b2 bc
       -0.026413087 0.003211969 -0.01650643 -0.021774366
000250 8b b1 0c bd 41 40 9e bd be 15 34 3e 60 7f be 3d
       -0.034349006 -0.07727099 0.17586419 0.093016386
000260 71 cb 4d be 7b eb 29 be eb 1a 92 bd 30 bc d5 3d
       -0.20097138 -0.16593735 -0.071340404 0.104362845
000270 2d b4 64 bd 00 ca 55 3d 30 30 13 3c 2f 91 72 3c
       -0.05583589 0.052194595 0.008983657 0.014805122
000280 69 8b a8 bd ea 7d 85 3c f9 3c eb bc 74 fa 4a bd
       -0.082297154 0.016295392 -0.028715597 -0.049555257
000290 f8 cf c1 bb 3d 9c 1c bd 13 8a cf bd 59 72 4c bd
       -0.0059146844 -0.038234938 -0.101337574 -0.049913738
0002a0 5d 2e 3e bd ce 1a 8e 3d 1f 67 69 3d 9c c4 1d 3e
       -0.046430934 0.06938706 0.05698311 0.15407032
0002b0 db 73 cc bd f8 21 2b 3e 9a be ef 3d c1 bf de 3d
       -0.09983035 0.16712177 0.11706276 0.10876418
0002c0 7a bd dc bd 9e b7 3d be a7 76 17 be 3e 08 15 bd
       -0.10778327 -0.18527076 -0.14791356 -0.036384813
0002d0 04 74 c7 3d c3 af 06 3e 06 49 10 be f2 01 9e bb
       0.09738925 0.13152985 -0.14090356 -0.0048220092
0002e0 05 a4 71 3d 9d 8f 03 3e 63 2c c0 bd 54 e5 9c bd
       0.05899431 0.12847753 -0.09383466 -0.07660928
0002f0 69 97 68 3d 81 db cf 3d 41 41 19 be 17 0a 31 be
       0.05678502 0.10149289 -0.14966299 -0.17289005
000300 3b 95 43 3b 12 e2 2e be 98 58 1a 3e 22 c4 17 3e
       0.0029843587 -0.17078426 0.15072858 0.14820912
000310 ce 5a c4 3d f4 e8 fb bd 64 bb 2d be 0c 64 21 3e
       0.09587632 -0.12300292 -0.16966015 0.15760821
000320 5f 34 a9 3d 41 ce 16 be b7 72 10 be b7 a5 fc bd
       0.08261942 -0.14727117 -0.1410626 -0.12336295
000330 5f 56 1b 3e fb 0f 90 3d 6a ab 33 bd 5f f6 be 3b
       0.15169667 0.07034298 -0.043864645 0.0058277096
000340 72 c2 44 3e 4d ca 15 be f3 e2 4b 3c d1 8c da 3d
       0.192148 -0.14627953 0.012444246 0.1067139
000350 ff 1f 1a bd 30 56 d5 bd 3c 32 84 3d 1d f5 ce 3d
       -0.03762817 -0.104168296 0.06454894 0.101053454
000360 d4 6f cc 3c 07 7d 37 be 47 de c0 3d ea 65 17 be
       0.024955668 -0.17918788 0.09417396 -0.14784971
000370 ca 0f a4 bd 96 91 d4 3d 9c 6e 39 bd 6f 45 ab 3c
       -0.08010824 0.10379331 -0.0452715 0.020907132
000380 9a 94 95 3d e8 37 48 3e 4f f8 d8 3c 34 14 2d 3e
       0.07303734 0.19552577 0.02648559 0.16902238
000390 ff d5 5c be 0f 1c 9c 3b a4 c4 4a 3e f6 27 bc bc
       -0.21566008 0.004764087 0.19801575 -0.022968274
0003a0 c3 f2 43 3d 68 28 39 be 31 a1 0a 3e 59 53 61 3e
       0.047838937 -0.1808182 0.13538052 0.22004451
0003b0 4f 3e 62 3c 5d 7d 9a bd 10 d0 42 bd e5 c7 11 be
       0.013808801 -0.075434424 -0.047561705 -0.1423641
0003c0 81 ae 05 3e 72 3f 02 3e e3 97 0e 3e d9 35 08 bd
       0.13054849 0.12719515 0.13925128 -0.033254478
0003d0 1f 76 05 be 7a f9 e3 3d 83 97 21 bd 38 b9 c5 bd
       -0.13033341 0.11131568 -0.039451133 -0.09654468
0003e0 e8 c1 c9 bd 72 bd 4d be 4f 3b 24 be a4 a3 52 3e
       -0.09851438 -0.20091799 -0.1603825 0.20570236
0003f0 56 c2 6b 3c 8c a4 51 be cf b2 38 be ed d7 fe 3d
       0.014389595 -0.20472926 -0.1803696 0.12443528

m_transform.0.0.bias f4 [64]
000000 b7 06 e6 3d bb 7f 56 be 3f 20 0a 3d c8 93 28 be
       0.112317495 -0.20947163 0.03372216 -0.16462624
000010 c7 27 e8 bd bd b9 ba bc bc ff 0f be a6 07 a1 3b
       -0.11335712 -0.022793645 -0.14062399 0.004914242
000020 8b be 36 3e 96 49 56 3d 71 ac a4 bb 65 50 53 bd
       0.17846124 0.05231627 -0.0050254394 -0.051590342
000030 08 6d b1 bb d0 1c 99 bc b9 a9 f5 bd 0e 78 32 bd
       -0.005414609 -0.018690497 -0.11995263 -0.043571524
000040 a9 62 d7 3d 1f 06 c9 bd 87 f6 1e 3d 0e 6c b0 3d
       0.10516865 -0.09815621 0.038809326 0.0861436
000050 f6 be 35 bd 96 3e 08 be a7 3f f6 bc 5b 0e a8 bd
       -0.044371568 -0.13305125 -0.030059649 -0.08205863
000060 8e b5 a6 bd 55 ae 35 be b9 be 13 3c ec 09 0b be
       -0.081400976 -0.17742284 0.00901764 -0.13578004
000070 42 d3 0b be 92 fb 50 3e 3e 68 23 bd f1 05 40 be
       -0.13654807 0.20408466 -0.039894335 -0.18752266
000080 ae 7d 39 be ba f2 da bd 23 07 10 3e 9e 1b 34 be
       -0.18114349 -0.10690828 0.14065222 -0.1758866
000090 f3 eb dc bc 25 ba 89 bc a8 1a c8 bc e0 2f ad 3c
       -0.026967978 -0.016812393 -0.024426773 0.021140993
0000a0 07 b8 9a bd 87 f2 fa 3c 69 b9 1a be 7c d3 f6 3d
       -0.07554632 0.030633224 -0.15109791 0.12052056
0000b0 29 83 0e 3e ea 76 48 be 49 27 1c 3e f9 42 e3 3d
       0.13917221 -0.19576612 0.15249361 0.110967584
0000c0 94 f3 35 be 1a 07 05 3e 12 50 fe bd 25 ab 30 3d
       -0.17768699 0.1299099 -0.12417616 0.043131966
0000d0 0b b9 0c 3e f5 16 93 bd 59 48 05 be 6a e5 9c bd
       0.13742463 -0.07182113 -0.1301588 -0.07660945
0000e0 ab 6d c0 bd 27 0e d1 bd fa 04 7f bd 51 31 fa 3c
       -0.093959175 -0.102077775 -0.062260605 0.030541094
0000f0 21 45 af 3d 5b 7b 5e 3d ae 3d 33 be e2 20 25 bd
       0.08558107 0.05431686 -0.17503998 -0.040314563

m_transform.0.3.weight f4 [64, 32, 1, 1]
000000 2a 7a 1b 3e a1 36 b7 bd 1d 59 8c 3d c3 29 fd 3d
       0.1518332 -0.089459665 0.068529345 0.12361481
000010 b9 b6 13 be ce 80 00 3e 97 a3 9e 3d cc a5 3c bd
       -0.14425172 0.12549135 0.07746046 -0.046056554
000020 d1 3f 36 be ce 23 fb bc f6 62 80 bd 88 44 00 be
       -0.17797782 -0.030656721 -0.06268875 -0.12526143
000030 e2 c8 2b 3e 2b 25 11 3e 59 26 00 bc 72 dd 8c 3c
       0.1677585 0.14174335 -0.007821643 0.017195437
000040 25 84 18 be 97 9c 3f 3c 2c d0 22 3e 71 6d 88 bd
       -0.14894159 0.011695049 0.15899724 -0.06661499
000050 1a cc 1a 3e 72 99 9a 3b eb 3e 0a 3e 5a 75 4b be
       0.15116921 0.004717999 0.13500564 -0.19868985
000060 38 ea 3b 3e d1 d7 9c bd d6 1c 0d bd 6f 98 bc bd
       0.18351066 -0.07658351 -0.03445133 -0.09208762
000070 38 ff 3d 3d 1a 0a a5 bb 8a 20 c7 bc 23 39 b5 3d
       0.046385974 -0.0050366046 -0.024307508 0.088487886
000080 33 3c f7 bd 50 e3 9a bc 04 50 16 3e f5 c3 f2 3d
       -0.12072029 -0.01890722 0.14678961 0.11853782
000090 f4 df d6 3d 0b 81 82 3d 74 b4 e5 3c 3b f3 05 3e
       0.104919344 0.06372269 0.028040148 0.13081066
0000a0 7e 39 f4 bd fa df 0d be 87 2c 33 3d 23 6a 22 bd
       -0.11925028 -0.13854972 0.043743636 -0.039652
0000b0 2d 5e 27 be a2 38 9c bd 36 53 85 3d ef 7f b9 3d
       -0.16344519 -0.07627989 0.06510012 0.090576045
0000c0 63 24 2f be a9 40 28 be db 9b 91 bd 32 04 fc bd
       -0.17103724 -0.16430916 -0.07109805 -0.12305488
0000d0 05 51 12 be 71 1e 20 3e b2 67 03 be f0 7e 46 3d
       -0.14288719 0.15636612 -0.12832525 0.0484609
0000e0 82 e7 70 3d 29 a6 4d 3d 04 a2 0e bc f8 32 12 be
       0.058814533 0.05020729 -0.00870562 -0.14277256
0000f0 83 8f 20 ba 72 85 2a be 8a 96 27 3e 1d 44 0d 3d
       -0.00061249005 -0.16652468 0.1636602 0.034488786
000100 37 72 c9 bd 83 d8 28 3e 80 46 b4 39 a3 77 b6 3d
       -0.09836238 0.16488843 0.00034384802 0.08909538
000110 68 49 b2 3d b8 21 12 3e 60 52 30 3e 00 5c 07 be
       0.087054074 0.14270675 0.17218924 -0.13218689
000120 71 18 06 3e 7b 4d 0a be fb 9a 50 3d cb 64 7f 3d
       0.13095261 -0.13506119 0.05092905 0.062351983
000130 48 a3 e4 3d e6 96 08 be b2 f1 01 3e 0a 3e 08 be
       0.11163956 -0.13338813 0.12689856 -0.13304916
000140 43 78 18 3e 14 17 03 3e 11 94 1b be 0d e6 e8 bd
       0.14889626 0.12801772 -0.15193202 -0.11372004
000150 f7 26 35 be b5 bd df 3d 72 05 ad 3d 14 59 23 3c
       -0.17690645 0.109248556 0.08448304 0.009969968
000160 98 3d ce bd 50 d2 e4 3c 99 42 a7 ba 50 9e 07 3c
       -0.10070342 0.027932316 -0.0012760937 0.008277491
000170 32 ac 88 bd b2 23 24 be d6 72 97 bd ad 1c a0 bd
       -0.06673469 -0.16029242 -0.0739495 -0.078179695
000180 c8 1f f0 3d d3 6e 1e 3e c8 24 00 3e dc 61 79 bb
       0.11724812 0.15471964 0.12514031 -0.0038052713
000190 c3 fb 72 3d e0 66 5b 3d 0e 35 07 be 00 29 be bc
       0.05932213 0.053564906 -0.13203833 -0.02321291
0001a0 80 cc 82 bd 51 94 32 3d 9b 1b 1f 3e 7e 67 1a 3e
       -0.063866615 0.043598477 0.15537874 0.15078542
0001b0 47 c7 08 3e 80 43 cb bd 02 7c dd bb e8 bb 80 3d
       0.13357268 -0.09924984 -0.0067591676 0.0628584
0001c0 6e 5f 00 3e 22 ee 27 3e 06 b8 e2 3c e1 38 33 3e
       0.12536404 0.16399434 0.02767564 0.17502166
0001d0 62 32 94 bd f3 4d 6d bd ab 24 c3 bc 72 a2 da bd
       -0.07236172 -0.057935666 -0.023821196 -0.10675515
0001e0 77 58 d5 3b f5 50 fd bd 30 73 cb 3d 9d a7 71 3d
       0.00651079 -0.12368957 0.0993408 0.05899774
0001f0 ca bc 99 3d e6 58 8e 3c 75 a9 67 bd 99 62 56 bc
       0.07506712 0.017376374 -0.05655809 -0.013085031
000200 0c 20 8e bd 89 28 a6 3d c1 41 c0 3b 10 6b 09 3d
       -0.06939706 0.081132 0.0058672135 0.03354937
000210 bf ba 76 bd dc 16 e0 bd 4d 7f e4 bc 5d ed 0c 3e
       -0.06023669 -0.1094186 -0.027892733 0.13762422
000220 6f 41 19 be e8 f5 ca 3d d4 11 00 be 6f d1 09 be
       -0.14966367 0.09910184 -0.12506801 -0.13458799
000230 1d fa 60 bc 90 7c e0 bd 2e b4 ae 3d c3 39 5f be
       -0.013731507 -0.109612584 0.0853046 -0.21799378
000240 c9 a2 bd 3b 03 5f 0e 3e f7 8e bd bc 63 80 fd bd
       0.005787228 0.13903432 -0.02313946 -0.123780034
000250 fc 39 c2 bd d4 ce b5 3d 36 a6 78 bd bf b2 2f bd
       -0.09483716 0.0887734 -0.060705386 -0.042895075
000260 fb b6 82 3d 2b 03 f7 3d d1 2f 3f 3d e1 3f da 3d
       0.06382557 0.12061151 0.04667646 0.10656715
000270 29 e6 14 3e f8 f5 90 3d 7d b2 8d bd 4e 27 c9 3d
       0.14540924 0.07078165 -0.069188096 0.0982195
000280 58 9b 14 3c 43 12 0d be 37 99 81 3d 4e 2f 30 be
       0.00907024 -0.13776498 0.063280515 -0.17205545
000290 6e 34 0b be 92 ec 73 3b 3e 6f 72 bd 03 56 36 bc
       -0.13594219 0.0037219864 -0.05918812 -0.011128905
0002a0 72 42 83 3c 0c 26 09 be 6d 58 8e 3d 43 57 04 3e
       0.016022895 -0.1339342 0.0695046 0.12923913
0002b0 c1 08 0a be 50 b2 c4 bb 0d f4 2f bc b1 3a c2 3c
       -0.13479902 -0.006002702 -0.010739339 0.023709627
0002c0 d4 f6 ce 3c d0 b2 db 3d 37 a3 ce 3d 28 ad 15 be
       0.025264181 0.10727465 0.100897245 -0.14616835
0002d0 85 9e 53 be e3 e9 04 be 1e 47 0c bc d1 38 e1 3d
       -0.20665939 -0.12979846 -0.0085618775 0.10997165
0002e0 13 4e 21 3e 5b 59 dc bd f4 db 21 3e 24 ac 3f 3d
       0.15752439 -0.10759231 0.15806562 0.046795025
0002f0 9b 49 ed bd 78 92 35 3d 12 b1 51 3c a7 5a 11 bc
       -0.11586305 0.044329137 0.0127985645 -0.008871711
000300 b7 8b 0a be b6 76 70 3d 74 81 f9 bd 41 c1 03 3e
       -0.1352986 0.05870696 -0.12182894 0.1286669
000310 c3 21 c2 3d 87 61 48 bb 8a b2 de bd 96 cc 24 be
       0.09479096 -0.003057571 -0.108738974 -0.16093668
000320 56 11 91 bd 61 e7 ec 3d 1a 4b e0 3b 96 f6 bc 3d
       -0.07083385 0.115675695 0.0068448903 0.0922672
000330 c7 01 5b bc f3 34 89 3c 9c 06 2a bd 02 fc b6 bd
       -0.013367123 0.016748881 -0.04151021 -0.089347854
000340 0c a7 1d bc c7 9a cc 3c bd c9 67 3d 23 62 98 3d
       -0.009622347 0.024976147 0.056588877 0.07440593
000350 14 b9 1e 3e 5a 6a 07 3e a5 e0 b9 3c 3a 45 fd bc
       0.15500289 0.13224164 0.022690127 -0.030916799
000360 8f 1f d2 bd a6 d1 48 3e d6 9f 52 bd 14 99 8a 3d
       -0.102599256 0.19611225 -0.051421963 0.067674786
000370 24 03 19 3e 7c 46 a3 3d 8a e5 82 3b b4 c5 9e 3d
       0.14942604 0.07972428 0.0039946483 0.07752553
000380 d0 ee 39 bc 69 03 ed 3d 6b 44 2a 3e a8 2a d8 bd
       -0.011348441 0.11572916 0.16627662 -0.10555011
000390 80 94 a9 bd c8 3a 9b bd f5 79 36 3e fb b3 36 3e
       -0.08280277 -0.07579571 0.1781996 0.17842095
0003a0 f5 f1 d0 3d 68 39 12 be 2c f3 f1 3d ef 56 f3 bd
       0.102024 -0.14279711 0.118139595 -0.11881816
0003b0 f5 a6 b9 bc 00 96 fc bd 7a 69 f6 bd 48 82 c9 3d
       -0.02266262 -0.12333298 -0.12031837 0.09839302
0003c0 39 14 f0 bc 57 a7 24 bc c0 3b 64 bd c1 36 2f 3e
       -0.029306518 -0.010049663 -0.055721045 0.1711073
0003d0 6c 55 b6 bd 1b 57 0f bc d9 8f ce 3b 12 f0 1b bd
       -0.08903012 -0.008748795 0.006303769 -0.038070746
0003e0 6f 0e 9c 3d 9b 30 33 3e 42 3b 73 3c a6 e7 0a be
       0.076199405 0.1749901 0.014845671 -0.1356493
0003f0 9a 6b 72 bd 7a 70 55 bd ba 97 92 bd 04 c9 35 3e
       -0.059184648 -0.05210922 -0.07157846 0.17752463

m_transform.0.3.bias f4 [64]
000000 b9 20 18 bd 1c 45 27 be 53 e8 bd bd c8 f5 c2 bd
       -0.03714058 -0.16334957 -0.09272828 -0.09519535
000010 dc 75 5d 3b e6 8c db bc 1d 84 b9 bd 05 dc 21 be
       0.0033792173 -0.026800584 -0.09058402 -0.15806587
000020 ee 70 3e 3c 67 6a a7 3d f6 27 c0 bd c9 23 81 3d
       0.011623604 0.081745915 -0.09382622 0.063056536
000030 69 a9 a2 3d 8c 31 87 3b 8a 16 76 bd 3c 21 a4 3c
       0.07942469 0.0041257795 -0.06008009 0.020035379
000040 05 99 0c 3e db b2 db bd 66 fa 3a 3e a5 bd bf bc
       0.13730247 -0.10727473 0.18259582 -0.02340586
000050 39 10 e4 3d 97 09 07 be 3d a5 04 3e 76 35 b8 bb
       0.11135907 -0.13187252 0.12953658 -0.0056216074
000060 48 83 48 3e 5a ea 11 3e 18 a5 02 be f4 9d 9b 3c
       0.1958133 0.14249554 -0.12758291 0.018996216
000070 26 4a 41 3e a4 9d ff 3d 79 91 f5 3d cb 05 21 3e
       0.18875942 0.124812394 0.11990637 0.15724866
000080 c2 8b dc 3d 93 90 95 bc 43 09 02 be 5b e2 1c bd
       0.10768844 -0.018257415 -0.12698846 -0.038301807
000090 78 a2 2e be 04 2d 1d 3e 52 8b 22 3d bc 47 fc bc
       -0.17054164 0.15349203 0.039683647 -0.030795924
0000a0 0d 4c e6 3d db 51 24 3e d6 0c 60 bd ac 39 39 3d
       0.11244974 0.1604685 -0.05469974 0.045221016
0000b0 c0 35 29 3e 35 94 7e bd 37 74 40 3d b2 66 88 3d
       0.1652441 -0.06215306 0.04698583 0.066602126
0000c0 0a 90 a3 3d 9e c9 c7 bd 20 2d a0 3c c1 4d c2 3c
       0.07986458 -0.09755252 0.019552767 0.023718717
0000d0 82 81 a6 3c d0 f3 41 be 96 af 0a 3d b1 17 83 3d
       0.020325426 -0.18940663 0.033858858 0.06401003
0000e0 0e 9a 11 be 19 ca e0 bd 1f 69 bb bc 16 e5 db bd
       -0.14218923 -0.10976047 -0.022877274 -0.10737054
0000f0 2c 92 16 bd b4 08 80 bd b9 88 ef 3d f9 26 f8 bd
       -0.036760494 -0.0625166 0.11696 -0.121168084

m_transform.0.5.running_mean f4 [32]
000000 8b 03 a2 3f 26 e5 89 be de e9 d0 bc 1d 5d cd 3f
       1.2657331 -0.2693264 -0.025502142 1.6044041
000010 e4 5d f7 bd ca 1a c2 3e 32 0c df bd b4 20 90 3e
       -0.12078455 0.37911063 -0.10890998 0.2814995
000020 28 81 d4 3e d7 82 8d 3f 38 4c cc be 28 19 b5 bd
       0.41504788 1.1055554 -0.399019 -0.08842689
000030 6c 7d f5 3e 8f 04 29 3f d2 8d ba 3f 82 03 2b 3f
       0.47947252 0.6602258 1.457453 0.6680223
000040 9b 75 0e bd c5 17 25 3e e0 c0 2f 3f 8a 72 15 40
       -0.034780126 0.16122349 0.6865368 2.335116
000050 95 10 80 3e e0 aa 8a 3d cf 6b 3c 3f 5e 62 aa 3e
       0.2501265 0.06770873 0.73602 0.33278173
000060 a2 f5 87 3b a2 86 eb 3e af 03 c5 be 8f 9a e7 bd
       0.0041491548 0.46001154 -0.38479373 -0.113087766
000070 8c 7d 09 40 26 36 4f 3f 36 b2 91 3e 20 33 db 3f
       2.1482878 0.80942 0.28456277 1.7124977

m_transform.0.5.running_var f4 [32]
000000 8f a5 12 3f 10 ce 9f 3c f0 3c 1a 3e fe be 01 3f
       0.5728387 0.019507438 0.15062308 0.50682056
000010 1c 2b 07 3d 54 98 de 3d 3f 9a 1f 3d e5 66 53 3d
       0.033000097 0.10868898 0.03896546 0.0516118
000020 c0 28 45 3d 5e 45 98 3e 6c 31 b6 3d 4c bd 9c 3d
       0.048134565 0.29740423 0.08896145 0.07653293
000030 44 76 f3 3d 32 09 1b 3e 96 17 0c 3f ff e8 22 3e
       0.11887792 0.15140226 0.5472349 0.15909193
000040 73 a8 6e 3d 02 7f a6 3d e0 8b 17 3e 91 f5 cb 3f
       0.058266114 0.081296936 0.14799452 1.5934316
000050 a2 34 2f 3d 94 cd 92 3d 85 3f ea 3d 55 82 55 3d
       0.042774804 0.07168117 0.11437897 0.052126247
000060 f1 7e 5f 3d ab 9b cb 3d eb b1 49 3d fe 3a cb 3d
       0.05456442 0.09941801 0.04924194 0.09923361
000070 e7 81 9d 3f 6c b6 67 3e 88 46 ef 3c dd ed 15 3f
       1.2305268 0.22628182 0.029208437 0.58566076

m_transform.0.6.weight f4 [96, 32, 3, 3]
000000 6b c1 43 bd 94 21 4c 3a 7f f5 2c bd d5 d1 17 bd
       -0.04779188 0.0007786986 -0.04222631 -0.037065346
000010 c5 fd 38 3c 19 88 57 3d 56 3c 60 3d 17 f8 c9 3b
       0.011290972 0.052620027 0.05474504 0.006163608
000020 ce 01 87 3c 8f 0a be bc 0f 0e 38 3d 60 c0 64 3b
       0.016480353 -0.023198394 0.044935282 0.0034904703
000030 0e 00 32 bc 21 39 6d bc 6a f4 6f bd b2 ac 25 bd
       -0.010864271 -0.014478953 -0.0585827 -0.0404479
000040 47 60 2e bd 1e a7 33 3d 2d a7 24 bd ef 22 43 bd
       -0.042572286 0.043860547 -0.040198494 -0.047640737
000050 d5 ce 39 bd 56 17 a6 bc ae bd 2f bd 45 cd 3f bc
       -0.045363266 -0.0202748 -0.042905502 -0.011706655
000060 6c 3d 4c bd 68 82 4a 3b b2 e1 c2 3c df c0 63 3d
       -0.049863264 0.0030900482 0.02378926 0.055603858
000070 3c 8f 5c bd e7 6c 27 bd 99 f4 dd bc 7a fe 2a bc
       -0.053847536 -0.04087534 -0.027094172 -0.0104366485
000080 f0 8b 0b bd b4 f5 c8 bc a7 ed f9 bc 1f c7 7b 3d
       -0.034069 -0.024531223 -0.03050883 0.061469194
000090 81 f3 85 3d b9 ef 3a bc e2 87 4c bb 09 65 68 bc
       0.06540585 -0.011409693 -0.0031208922 -0.014184245
0000a0 8a 1e 0a bd de 4f e1 bc 7f 45 72 bd 92 97 2b 3d
       -0.03372053 -0.027503904 -0.059148308 0.041892596
0000b0 16 d4 82 3d 07 d8 2a 3d 67 98 c8 3b 84 af 22 3d
       0.063881084 0.041709926 0.0061216834 0.039718166
0000c0 15 09 c5 bb 61 2d 89 3c f3 1c 29 3d 3b 23 55 bd
       -0.0060130456 0.016745271 0.041287374 -0.05203555
0000d0 96 df 05 3d 03 18 4e 3d 1e 76 86 3c f2 c7 1c bd
       0.03268393 0.050315868 0.016413745 -0.03827662
0000e0 ed a9 d4 3c 5e 94 bc bc 21 b6 5e 3c 7d 53 c0 bc
       0.025959933 -0.023019966 0.013593228 -0.02347731
0000f0 20 b8 7f 3d fb 83 46 bd 53 95 52 bd 77 23 46 bd
       0.062431455 -0.04846571 -0.051411938 -0.048373666
000100 43 12 0e 3c 24 66 8e bc 91 09 86 bc 09 73 dd 3b
       0.008671346 -0.017382689 -0.016361983 0.006758098
000110 98 bd 4b bc 69 ef 20 3c 8d eb 6b 3c 0b cc cd 3c
       -0.012435339 0.009822705 0.014399421 0.02512171
000120 96 a8 63 bd 43 81 80 3d f6 0b 28 bd 9b d1 80 bc
       -0.055580698 0.06274655 -0.04102703 -0.015724948
000130 7e 3e 40 3d 4a 80 1d bd 2b d6 39 3d 15 8a ae bc
       0.046934597 -0.038452424 0.045370262 -0.021306077
000140 6d f4 3f 3d ea 1e fd bc 3a 5f 7a 3c b6 cb 57 bd
       0.046863962 -0.03089853 0.015281493 -0.05268451
000150 cc 44 e9 bb 14 7c 8c bc 19 c3 a2 ba 12 e2 87 bb
       -0.007118797 -0.017149009 -0.0012417763 -0.0041468227
000160 f4 7e b9 3b 38 3e 67 3d 54 77 d9 bc 08 e7 f8 bc
       0.005660886 0.05645582 -0.026546158 -0.030383602
000170 b4 86 ff bc 90 1f f2 bc 5a 44 f0 3b 09 cb 1e bd
       -0.031192161 -0.029556066 0.007332367 -0.03876785
000180 9d cc 1c bd ff 92 c2 3c 7d 39 22 bd b6 2e b3 bc
       -0.038281072 0.023751734 -0.039605606 -0.02187286
000190 76 8c 03 bc bd dd 0d bc 92 d2 a3 3c 85 a7 dc 3c
       -0.008029094 -0.008658824 0.019997869 0.026935348
0001a0 ff dc 18 3b 4f 48 d4 bc 56 59 65 3d 13 fe 40 bd
       0.0023325083 -0.025913386 0.0559934 -0.047117304
0001b0 60 ef 7d 3d 9f 5f 32 bd dd 49 00 3c b4 7e 6c 3d
       0.061995864 -0.043548223 0.00783011 0.05773802
0001c0 aa 4f 5d 3d c6 59 e2 bc 1f 0e a2 bc 2a a8 cb 3c
       0.05403105 -0.027630698 -0.019782124 0.02486046
0001d0 c2 99 0c 3d df 54 bb 3b ae 35 3c 3d 18 55 7a 3d
       0.034326322 0.0057169045 0.04594963 0.061116308
0001e0 c2 03 3d bd 97 f9 fa bc 1f 9c 44 bc 14 86 37 3d
       -0.04614616 -0.030636592 -0.012000113 0.0448056
0001f0 de 60 31 3b 47 7c e5 3c e6 0a 15 3d 62 ff e7 bc
       0.0027065794 0.028013362 0.036387347 -0.028320018
000200 b0 69 8b ba 08 84 48 bd ee 58 88 3b d1 26 10 bd
       -0.0010636356 -0.04895404 0.004160992 -0.03519327
000210 01 75 1f bd 81 06 f1 3a cf 6f 27 3d 1e 49 4d 3c
       -0.038929943 0.0018388779 0.040878113 0.0125296395
000220 99 ec 44 bc 1b 71 dc bc a7 26 27 bd 4f 2e 68 3a
       -0.0120193 -0.026909402 -0.040808346 0.0008856998
000230 90 b9 2c bd a0 c4 8c bd 24 38 08 bd 40 72 14 bd
       -0.042169154 -0.06873441 -0.033256665 -0.03624177
000240 7d f7 19 3d 37 47 33 3c cd db da bc 03 8e 3b 3d
       0.03758954 0.010942272 -0.026716137 0.04578973
000250 1e e7 af bc 61 ba be bb 90 28 09 3d d5 d1 24 3c
       -0.02147251 -0.005820558 0.03348595 0.0100597935
000260 79 53 3e bd c1 83 6f bc bf 97 1b bc fa 46 fc bc
       -0.046466324 -0.014618815 -0.009496628 -0.030795563
000270 b5 d0 69 bc de 08 9a bc f7 0d 5d bd a6 1d 4d bd
       -0.014270951 -0.018803056 -0.053968396 -0.050077103
000280 b0 f9 97 3b 02 8d 9f 3c 13 ad 5c 3d 87 1d e3 3c
       0.0046379194 0.019476417 0.053875994 0.02772404
000290 24 de 69 3d 59 10 1a bd 55 6e 57 bd 93 2f 7b bb
       0.057096615 -0.037613247 -0.052595455 -0.0038327917
0002a0 0e ca a0 bb d2 a8 54 3d 14 51 5f 3d 9e 3b fe bc
       -0.0049068993 0.051918812 0.05452068 -0.031034287
0002b0 5c 86 3e 3d 2b b1 d4 3b 72 9a d3 bc c0 e3 29 3d
       0.046514854 0.0064908466 -0.025830481 0.041476965
0002c0 32 cd 85 3d 02 fd bc bc 62 fa a6 ba dc 23 5c bc
       0.065332785 -0.023069862 -0.0012739415 -0.013436284
0002d0 eb 3a 21 3c d9 d1 e3 bc 43 43 5e 3c a7 0d 33 3d
       0.009840707 -0.027810024 0.013565841 0.04371419
0002e0 9e 72 05 3a 28 2b 4c 3c 11 0c d5 bc 9f db dc 3c
       0.00050906267 0.012461461 -0.02600673 0.026960192
0002f0 e9 20 42 3c b8 23 47 3c 8b f0 23 3d 83 56 1d 3d
       0.011848667 0.012154512 0.04002432 0.038412582
000300 e6 c9 8d bc e3 37 56 3d af e9 13 3d 00 7a b8 bc
       -0.017308187 0.05229939 0.03611153 -0.022519112
000310 25 2b 60 3c 92 17 89 bc b6 02 9d ba e1 ea 05 bd
       0.013682161 -0.016734872 -0.0011978957 -0.0326947
000320 e2 88 c3 3c 2b c8 0d bc ce 87 54 bd c3 f9 9e 3c
       0.023868982 -0.008653681 -0.051887326 0.019406205
000330 35 a6 f2 3c b3 2f db 3b e0 40 cb 3b 84 c5 63 bd
       0.02962027 0.006689036 0.006202802 -0.055608287
000340 8b 36 38 bd 11 68 75 bd 8b 77 2a 3a 66 2f 8c bc
       -0.04497389 -0.0599137 0.00065027986 -0.017112445
000350 18 f4 98 bd 3a 8c 9e 3c d3 51 1a bd 35 79 1a 3d
       -0.07468432 0.019353975 -0.03767569 0.03771325
000360 ba 38 8e bc 3e e0 e3 bc a2 45 51 3c 64 3f 50 bc
       -0.017361034 -0.027816888 0.012772949 -0.012710426
000370 fe 99 07 3d a0 03 52 bd 23 1f 3c bc 16 11 71 bc
       0.033105843 -0.05127299 -0.011482033 -0.014713546
000380 c4 8c ed 3b 99 28 e1 3c aa 94 4c bc 17 bc 35 bd
       0.0072494466 0.027485179 -0.012486616 -0.04436883
000390 fe 81 eb 3c b0 74 b0 3c 8c 5c a5 3c 13 cd 7e 3d
       0.028748509 0.021540016 0.020185731 0.062207293
0003a0 65 3e 2f 3d 05 58 62 3d 0e d9 58 bd fe 41 81 bd
       0.042784113 0.055259723 -0.052941374 -0.06311415
0003b0 5b 51 bd 3b 33 bd ce bc 77 a9 1a 3d 14 36 3c 3d
       0.0057775206 -0.025236702 0.03775927 0.04595001
0003c0 63 86 ab bc 37 a6 58 3d 19 5f 1e 3b 4e fd 1e 3c
       -0.020938104 0.05289289 0.002416557 0.009703947
0003d0 39 a7 11 bd 02 7f 49 3c 83 97 83 3c 4b 1e 6f 3c
       -0.035559867 0.012298347 0.016063457 0.014594625
0003e0 26 82 3b bd e7 fe 5f 3c 94 00 dc 3b b8 94 c8 3c
       -0.045778416 0.013671613 0.006713936 0.024484977
0003f0 94 59 4c bc 90 f1 1b 3d c0 ab 40 bd 7c a3 2f 3d
       -0.012472529 0.03807217 -0.047038794 0.04288052

m_transform.0.6.bias f4 [96]
000000 f5 5b dc 3c 8f 67 0d 3d cf e5 34 bd df cb ed bc
       0.026899317 0.03452259 -0.044164475 -0.029027877
000010 14 80 90 3c 28 51 0e 3d cc 06 cd 3c 6a 49 e2 3b
       0.017639197 0.034745365 0.025027655 0.0069057243
000020 82 1e f5 bc 52 98 23 bd 7a 4d 6f bd f5 a9 66 bd
       -0.029921774 -0.039940186 -0.058423497 -0.056314427
000030 a6 06 06 3b 98 6a e7 bc b0 9a ee bc 68 a7 6c 3d
       0.002045074 -0.02824907 -0.029126495 0.05777684
000040 3d ba 92 bd 2f aa 19 3d 24 8f 81 bd 15 cd f7 3c
       -0.071644284 0.037515815 -0.0632613 0.030249158
000050 e2 b6 17 3d d3 13 3c bc d2 fa 65 bd 84 c4 63 bc
       0.037039645 -0.011479336 -0.056147404 -0.013901833
000060 0e 7d af bc 76 3f c7 3c 8e 5f d1 3c 73 9e 28 bd
       -0.021421935 0.024322253 0.02555826 -0.041166734
000070 a6 44 5e 3d 52 fb ea 3c 20 72 88 bd 48 ca 52 bd
       0.054264687 0.028684292 -0.066623926 -0.05146244
000080 46 ad 1a bd 39 d6 8f bb 36 6a d4 3a 0a 38 3b bd
       -0.037762903 -0.004389551 0.001620597 -0.04570774
000090 ec 68 24 ba 14 87 e8 bc 73 e2 65 3c 50 b2 89 3d
       -0.0006271738 -0.028384723 0.0140310405 0.067234635
0000a0 2b 80 46 bd 14 d8 36 3d 2e 2d 33 3d 9d 0a 29 3d
       -0.048462074 0.044639662 0.04374426 0.041269887
0000b0 25 40 22 bd c6 2d a3 bd 31 25 96 bc 1a dd 38 3d
       -0.039611954 -0.07967715 -0.018328281 0.045132734
0000c0 c1 f3 55 3d f5 73 65 bd 5d ae 2f bd 80 0e 7c bd
       0.052234415 -0.05601879 -0.042890895 -0.061537266
0000d0 17 86 e6 bc d3 6f da bc 98 c2 18 bd f2 73 50 bd
       -0.02814011 -0.02666465 -0.037294954 -0.050891824
0000e0 d5 2d 5d bb bb 45 64 3c 6d 77 08 bd 1d 8b 2a ba
       -0.0033749242 0.013932641 -0.03331702 -0.0006505715
0000f0 23 ba 1c 3d e9 8f 00 bc 2d 4e 58 3d ea 88 1a bd
       0.03826345 -0.007846811 0.05280893 -0.037728228
000100 93 05 be 3c 11 21 2b bd eb ce 42 bd 45 da ff bc
       0.023196017 -0.04177958 -0.047560614 -0.031232009
000110 19 0e fd 3c 94 4a 4d bd d4 f2 35 3c 4d 7a ef bc
       0.030890511 -0.05011995 0.011105258 -0.029233122
000120 f5 e7 e6 bc f6 5a 67 bd 1b d5 ad bc 8e 63 bf 3a
       -0.028186778 -0.05648323 -0.02121978 0.0014601813
000130 6e be 73 bd 20 ab 70 bd 27 02 c4 3c 87 3f 8d 3c
       -0.05950778 -0.058756948 0.023926808 0.017242206
000140 19 2c ff bc 42 34 8a 3c e0 e5 97 bd 00 32 15 bd
       -0.031148957 0.016870622 -0.07416892 -0.036424637
000150 94 7c 33 bd 65 d4 92 bd 11 90 96 bd 51 41 2d bd
       -0.04381998 -0.07169417 -0.07351697 -0.04229862
000160 cf 85 04 3c 94 ca c8 bc 70 92 1e bd f5 d6 a8 bc
       0.008088543 -0.02451066 -0.038713872 -0.020610312
000170 3f b9 1d bd ed a9 9f 3b 6f a4 00 bd 76 27 60 3d
       -0.038506743 0.0048725517 -0.031406816 0.054725133

m_transform.0.9.running_mean f4 [48]
000000 94 20 4f 3f 13 0c 94 3f 32 7e 79 3f b7 db a9 3f
       0.80909085 1.1566185 0.97458184 1.3270177
000010 bf fa 80 3f e6 de 8e 3f ef 88 b7 3f c5 1a 40 3f
       1.0076522 1.1161773 1.4338664 0.7504085
000020 16 b3 8c 3f 31 7f 9a 3f dc 52 b3 3f f9 db 9b 3f
       1.0992153 1.2070066 1.4009662 1.2176505
000030 d4 19 a3 3f fb 99 2b 3f 92 e8 89 3f d8 30 af 3f
       1.2742257 0.6703183 1.07741 1.3686781
000040 21 2c 31 3f 8b 4c 84 3f 3e 8b 8a 3f 4c 00 61 3f
       0.6920796 1.0335859 1.0823743 0.8789108
000050 a6 cb ce 3f 53 a4 93 3f 60 d7 79 3f 62 6e 61 3f
       1.6155899 1.1534523 0.9759426 0.88059056
000060 23 46 98 3f fb 1a 2e 3f 35 b2 5d 3f 4d 79 aa 3f
       1.1896404 0.6800992 0.8660005 1.3318268
000070 5e e5 51 3f 9e cd 9e 3f bc fe 43 3f 6d 16 bf 3f
       0.8199061 1.2406499 0.7656057 1.4928719
000080 9c 9c 52 3f 24 78 69 3f 7c f5 5d 3f 86 f9 50 3f
       0.82270217 0.91198945 0.86702704 0.8163074
000090 7a 8a 88 3f 3a e8 53 3f cb d6 2a 3f df 24 93 3f
       1.066726 0.82776225 0.66734 1.1495627
0000a0 e3 e1 a4 3f 4e e1 2f 3f b1 2d 5f 3f fc 63 4c 3f
       1.2881435 0.6870316 0.87179095 0.79840064
0000b0 54 a4 4a 3f be 5b 1e 3f 5c 92 8e 3f 25 29 a3 3f
       0.79156995 0.6185874 1.1138415 1.2746931

m_transform.0.9.running_var f4 [48]
000000 b0 dd 40 3f d3 8c 1f 3f 42 f4 87 3f a3 7a 3e 3f
       0.7533827 0.62324256 1.0621417 0.7440588
000010 5f 18 e2 3f 20 83 0f 3f 10 69 16 3f a9 20 31 3f
       1.7663687 0.56059456 0.5875406 0.6919046
000020 2d 12 8c 3f f5 1a ba 3f 81 e1 ba 3f 9e 19 c0 3f
       1.0943047 1.4539477 1.4600068 1.5007818
000030 09 82 04 40 cb cd 50 3f 6c d2 a1 3f 59 d9 eb 3f
       2.0704367 0.81564015 1.2642341 1.8425704
000040 2c ed 6a 3f ac e6 38 3f 30 d1 c9 3f 47 a7 07 3f
       0.91768146 0.7222698 1.5766964 0.5298962
000050 d2 2a 05 40 c8 e5 4f 3f 82 f0 f6 3e 52 7d 1e 3f
       2.0807385 0.81209993 0.48230368 0.61909974
000060 9a 8f 18 3f 09 7e b3 3f 9e 8a d5 3e b1 9e 00 40
       0.5959412 1.4022838 0.4170732 2.0096858
000070 49 3c a5 3f ab b4 1e 40 76 19 ce 3f 95 c4 67 3f
       1.2909023 2.479777 1.610152 0.90534335
000080 15 44 24 3f cc 08 03 40 6f ae e9 3e 16 55 3f 3f
       0.64166385 2.047412 0.45640895 0.74739206
000090 38 f2 8a 3f 5f 05 12 3f d0 e2 9c 3f 8a 37 62 3f
       1.0855169 0.57039446 1.2256718 0.88365996
0000a0 c6 8f 71 3f a9 35 08 3f d0 20 11 3f 26 29 f7 3e
       0.94360006 0.5320688 0.5669069 0.4827358
0000b0 3c 9d 17 3f 9b 1a 72 3f 8a f6 f7 3e b5 68 00 3f
       0.59224296 0.94571847 0.48430282 0.5015977

m_transform.0.10.weight f4 [96, 48, 1, 1]
000000 cc ab d3 3d 3c b8 12 3e a6 69 96 bd 24 99 d8 bd
       0.10335502 0.14328092 -0.073443696 -0.10576084
000010 4f 7f c0 bd c4 ac d9 3d 7c 73 73 3d c9 76 4b bd
       -0.09399282 0.106286556 0.059436306 -0.04967383
000020 7e 3d 1d 3d b8 31 b7 bd 7f c5 ae bd bf 6e de 3d
       0.03838872 -0.0894503 -0.08533763 0.10860967
000030 bb c4 fc 3d f4 06 a4 3d 34 46 d1 bd ef 18 76 3b
       0.12342211 0.08009139 -0.10218468 0.0037551483
000040 c4 4d 4c 3d b2 08 92 3d 9c 1e 28 3d af c9 e4 bc
       0.04987885 0.07130565 0.041044816 -0.027928201
000050 48 4c 04 3e 3c 5e 4e 3d 6a e7 b4 3d 95 ec 08 3d
       0.12919724 0.050382838 0.08833201 0.033428747
000060 99 00 a2 bd 69 ba f7 3d 9b 3e 1b 3e 64 8a fd 3c
       -0.0791027 0.12096102 0.15160601 0.030949779
000070 d4 6a 01 be f5 3e 24 bb af 99 01 3e 20 a6 b7 3d
       -0.12638408 -0.002506194 0.12656282 0.08967233
000080 7d 16 d6 bd 01 99 d9 3d e1 0e 83 bd 62 5e 96 bd
       -0.10453508 0.10624886 -0.06399322 -0.07342221
000090 58 8a 1f 3d 1e 59 2e be 3d e7 99 3d 81 35 cc 3d
       0.038950294 -0.17026183 0.07514808 0.099711426
0000a0 a4 f5 23 bb 36 e1 05 be bf bd ca bd 28 db 9a 3d
       -0.002501824 -0.13074192 -0.098994724 0.07561332
0000b0 08 ba 18 be 4a 70 fa 3c 3e ad e5 3d 36 8b 32 3d
       -0.14914715 0.030571122 0.11214684 0.043589793
0000c0 57 a0 98 3c f3 e9 76 bd 56 f9 c7 bd 47 ee 62 bb
       0.018631143 -0.060281705 -0.09764354 -0.0034626888
0000d0 50 dd 51 bc 2d fa f2 3d c8 22 47 3a 58 41 04 be
       -0.012809113 0.118641235 0.00075964304 -0.12915552
0000e0 8e 28 bc bd 98 77 c3 3d f9 d1 0a 3e 90 22 60 3d
       -0.09187423 0.09544295 0.1355666 0.05472046
0000f0 37 ea 56 3d c1 53 93 bd 99 74 43 bb d5 55 dd bd
       0.05246946 -0.07193709 -0.0029824136 -0.10807387
000100 77 4d 4e bd 79 48 0f bd 51 84 86 3d 62 87 84 bd
       -0.050366845 -0.034981225 0.06568206 -0.06471135
000110 a6 97 23 3e ce fe 80 bc dd fb aa 3d 95 c2 25 bd
       0.15975818 -0.0157465 0.0834882 -0.04046877
000120 cd 22 29 bd 99 57 9e 3d 63 96 29 bc d8 13 78 3d
       -0.041292954 0.07731552 -0.010350796 0.0605658
000130 10 9c 0d 3d ed 4a f4 3b f2 9b 42 bc 56 07 5f bd
       0.03457266 0.007455221 -0.011878001 -0.054450355
000140 12 60 fd bc 2e 7f f7 bd d3 a5 27 3d 27 7f e1 3c
       -0.030929599 -0.120848045 0.040929627 0.027526451
000150 42 0c f6 bd de 55 ea b9 31 6e 1c 3c c3 ab e2 bd
       -0.12014057 -0.00044695934 0.009547756 -0.11067917
000160 44 59 5f bd 9d 04 b3 3d ac 18 40 3d ed 8a 4d bd
       -0.05452849 0.08741114 0.04689853 -0.050181318
000170 2d 23 5b 3d f1 42 56 bd 45 46 b8 bd c8 03 f5 3d
       0.053500343 -0.052309934 -0.08997778 0.11963612
000180 56 42 1e 3d 2d da 86 3d da de 7e bd 80 98 23 bd
       0.03863748 0.065845825 -0.062224247 -0.039940357
000190 cc 5e 76 bc cc 50 04 be 2d 42 dd 3d 78 a7 61 3c
       -0.01503725 -0.12921447 0.10803638 0.013772838
0001a0 fd 87 2a 3d 91 d0 40 3c 0b 1f 7c 3d 74 a1 a7 bd
       0.041633595 0.011768476 0.061553042 -0.081850916
0001b0 a0 cc 13 be 55 a0 b2 3d 64 e7 a2 3c 10 31 28 bd
       -0.14433527 0.08721987 0.019885726 -0.041062415
0001c0 bf 9f da 3d e2 e2 f9 bd 1a ce 78 3d fa f7 84 bc
       0.106750004 -0.122014776 0.06074343 -0.016231526
0001d0 ca d3 93 3d 6d a6 c8 3d 21 dc 0b 3e 54 e2 e5 bd
       0.0721813 0.09797368 0.13658191 -0.11224809
0001e0 f2 d6 51 3b 95 08 e6 bd 7b 8f f5 bc 60 53 e4 3d
       0.0032018987 -0.11232106 -0.029975643 0.11148715
0001f0 dc 5a 85 3d c6 7c 0a be 59 28 4a 3d 62 5c 26 bd
       0.06511471 -0.1352416 0.049354885 -0.040615447
000200 c7 cc 8e bd f3 78 47 bd e4 f4 f8 bd 76 59 20 bd
       -0.06972652 -0.04869933 -0.12156084 -0.039147817
000210 42 c3 76 3d 62 d8 25 bd a9 86 7f bd 60 30 d7 3d
       0.060244806 -0.04048956 -0.06238428 0.10507274
000220 38 3f f4 bd 71 b7 87 bd d6 62 fa bd 7f 05 8a 3d
       -0.119261205 -0.066267855 -0.12225883 0.067393295
000230 bb 2a bc 3c 22 06 0b 3b ca 7f fd 3d 71 bd e9 bd
       0.022969594 0.0021213372 0.123778895 -0.11413086
000240 c5 ca 00 3c b2 ca 61 3d b5 be 8e bc 8c 4a e5 3d
       0.007860844 0.055124946 -0.01742492 0.11195859
000250 d0 f2 a0 bd 9a 0c 9f bc dd 5a e7 3d 14 63 85 3d
       -0.07858813 -0.019415189 0.11296628 0.06513038
000260 72 6c 96 3c 0e a2 0a 3e f1 56 95 bd 19 52 96 3d
       0.018362258 0.13538381 -0.072919734 0.07339878
000270 fc 79 61 bc 29 8d fe bb bf ad e0 3d d7 51 45 3d
       -0.0137619935 -0.0077682924 0.109706394 0.04817375
000280 12 5c fb bc 82 c9 b8 bd 82 ee d1 3d de 7a 2a bd
       -0.030683551 -0.090228096 0.1025057 -0.04162108
000290 da 05 a0 bd bb c9 cf 3d 4e c3 42 3d 74 21 b9 3b
       -0.07813616 0.10145899 0.04754954 0.00564974
0002a0 07 72 e0 bd 73 2c c7 bd be 1d ab 3d 06 e8 35 3d
       -0.10959249 -0.09725275 0.08355282 0.044410728
0002b0 d2 dd dd 3d 20 7f 00 3e a4 8d f4 bc 5c 00 b6 3c
       0.108333245 0.12548494 -0.029852696 0.022216968
0002c0 2c 77 20 3e e1 b0 12 3e 95 ff 0c be fa ad 99 bd
       0.1567046 0.14325286 -0.13769372 -0.075038865
0002d0 4c 0d a8 bc fb df a5 3d 43 ea f7 3d 38 aa f2 bb
       -0.020514153 0.080993615 0.12105229 -0.0074055456
0002e0 9f 14 5c 3d 7e d7 89 bd 1e 3f 98 bb 0c 1a 15 3d
       0.053730603 -0.06730555 -0.004646196 0.036401793
0002f0 71 b2 d9 3d c9 22 9b bc 61 6b 08 3d 7f 47 14 be
       0.10629738 -0.018937485 0.03330553 -0.14480399
000300 1a a3 b7 bc 4a 41 fb bd d4 a5 ed bd 4e 1e 7b bd
       -0.02241664 -0.12268312 -0.11603895 -0.061308198
000310 30 bb 90 3c e4 c6 fb bd 34 9c 2d bd bb c2 3d bd
       0.017667383 -0.12293795 -0.042385295 -0.046328288
000320 99 ab 91 bc 09 d6 0f 3e 60 ed b3 bd 60 25 2b 3d
       -0.01778202 0.14046492 -0.0878551 0.04178369
000330 87 ba f2 3c f8 92 f0 3d ef dc a9 3d f7 d1 8b bd
       0.029629959 0.11746782 0.08294093 -0.06827157
000340 25 76 30 3d e5 cc 8c bd 06 c2 e4 3d f9 93 c9 bd
       0.04308142 -0.06875018 0.111698195 -0.09842677
000350 12 73 e0 3d 73 50 1b bd ee 9a cc 3d 87 11 66 3d
       0.10959448 -0.03791852 0.09990488 0.05616906
000360 4b f7 d0 3d 9c 4e 8a bd 8d 95 d2 3c d8 32 6e 3d
       0.102034174 -0.06753275 0.025706077 0.058153957
000370 8d ff fe 3d 7b a1 81 bd 4f b7 b9 3c 38 e4 b9 bd
       0.12451086 -0.06329628 0.022670416 -0.090767324
000380 63 7a 62 bd bd 9a c6 bd c6 f9 5f bc 7b 3c 25 3d
       -0.0552925 -0.09697483 -0.0136703905 0.04034088
000390 56 5f 78 bd e4 2c da bd 39 9e 0a be 82 9b 04 3e
       -0.060637794 -0.106530935 -0.1353692 0.12949947
0003a0 5a d9 96 3d 86 93 20 3c 88 dc 9d bd 7f a7 7c bd
       0.07365675 0.009800797 -0.077080786 -0.061683174
0003b0 86 ff 76 bd f2 96 1d 3b 5a ff f9 3d 23 00 6b 3d
       -0.06030228 0.002404627 0.122069076 0.057373177
0003c0 58 94 61 bd 0e da 0e 3e 06 91 07 3d 55 f7 15 3e
       -0.055073112 0.13950369 0.03309729 0.14645131
0003d0 8c 82 cd bd 62 b3 85 3d 75 fc 01 3d d3 b2 13 be
       -0.100346655 0.06528355 0.031734902 -0.14423685
0003e0 21 e8 29 3d 99 42 9c 3d 99 f4 cb 3d ec fb c0 bd
       0.04148114 0.0762989 0.09958763 -0.0942305
0003f0 fa 2f 1d bd 20 36 cb 3d 3d 58 1a 3e 61 e4 fe bd
       -0.038375832 0.09922433 0.15072723 -0.124459036

m_transform.0.10.bias f4 [96]
000000 40 66 c4 bc 9f 3c b2 3d 28 e2 04 3e b2 09 c5 3b
       -0.023974538 0.08702969 0.12976897 0.0060131187
000010 c0 84 de bd d5 fa c2 bd 06 c3 85 bd 07 d4 a9 bd
       -0.10865164 -0.09520499 -0.065313384 -0.08292394
000020 83 51 b7 3d 09 00 00 3e 53 26 ca 3d 25 b9 b8 bd
       0.08951094 0.12500013 0.09870591 -0.090196885
000030 96 7f f1 3c 44 a3 0d 3c f8 1f c8 bd cc 9c 6d 3c
       0.029479783 0.008644883 -0.097717226 0.014502715
000040 59 ac bc bd 52 48 f6 bd 19 5d a2 3b 6e ec d6 bc
       -0.0921256 -0.12025513 0.0049549458 -0.026235785
000050 2b 00 00 bc 23 aa 16 bd e6 d2 fb 3d 17 d7 a1 3d
       -0.00781254 -0.03678335 0.12296085 0.07902353
000060 6a 8b bb bd 42 28 17 be ab 1c e1 3d 55 d1 f2 3c
       -0.091574505 -0.14761451 0.10991796 0.029640833
000070 ac a8 ff bd 33 f6 9f bd 33 4d 08 be 02 5d 85 bd
       -0.124833435 -0.07810631 -0.13310699 -0.065118805
000080 50 d9 17 3c 39 66 0b be d4 ea b0 3d 8e 45 35 bd
       0.00926812 -0.13613214 0.0863854 -0.044255786
000090 f3 a7 20 3a 76 f9 fb bb 87 66 97 3c f9 bb f1 bc
       0.0006128542 -0.00768965 0.018481506 -0.029508578
0000a0 c3 81 0b be 7c b5 16 bd 15 88 48 bc 03 4c 04 3e
       -0.13623719 -0.03679417 -0.012239476 0.12919621
0000b0 ad d9 e7 3b b1 ce fa 3c d3 20 f3 bd 75 0a dd bd
       0.0070755095 0.030616136 -0.11871495 -0.1079301
0000c0 d6 12 ee bd 0e c7 a3 bd 29 c7 bb 3c ae 3c 10 bd
       -0.116246864 -0.07996951 0.022922115 -0.03521412
0000d0 34 98 00 be c8 5c 4a 3d b7 ef 8e bd 0d 70 5a 3c
       -0.12558061 0.04940489 -0.06979316 0.013332379
0000e0 40 53 ea 3d f3 aa 86 bc 00 ea db 3d 07 6c b3 3b
       0.1144166 -0.016438937 0.10737991 0.0054755243
0000f0 ed 28 91 3c 44 0c 2a be 79 41 fc 3b aa 27 d0 bd
       0.01771971 -0.16606241 0.0076982346 -0.10163815
000100 0b 54 59 bd ef ca 5f 3d 3c 79 b9 bd 4d 9d af 3d
       -0.053058665 0.054636892 -0.09056327 0.085749246
000110 6f 9a a4 3b 0d 3f a0 3c 95 97 ac bd 15 42 b7 bd
       0.0050232927 0.019561315 -0.084273495 -0.08948151
000120 19 48 a3 bd 42 36 06 be d1 b8 8b bd 09 54 a7 3d
       -0.07972736 -0.13106635 -0.0682236 0.08170325
000130 76 0d 9f 3d ff 23 09 3e bf b3 f2 3d 6c 50 0d be
       0.07766239 0.13392638 0.1185069 -0.1380021
000140 37 c4 00 3e 30 3a 29 3d 25 57 ce bd a0 c3 21 ba
       0.1257485 0.041315258 -0.10075215 -0.0006170813
000150 85 14 b7 3d e6 ad 88 3d 15 2a 05 3e 8f 38 92 bd
       0.08939461 0.066737935 0.13004334 -0.07139694
000160 07 46 11 bc 7c eb 0e 3e 58 05 89 3d 35 e9 f2 bd
       -0.0088667935 0.13957018 0.06690472 -0.11860887
000170 54 a8 8c bd 0a 97 bf 3c df 42 92 3d 6f 24 0b 3d
       -0.068680435 0.02338745 0.07141661 0.033970293

m_transform.0.12.running_mean f4 [48]
000000 4d 66 86 3e bf 09 7e 3e c6 1f 90 3e 8e 52 b8 3e
       0.26249924 0.24808405 0.2814924 0.36000484
000010 90 8b 14 3e 1d c4 0d 3f 2f 14 a3 3e 24 f1 d8 3e
       0.14506364 0.5537737 0.31851336 0.42371476
000020 56 cc d4 3e f1 5f d3 3e ca 46 25 3f a9 48 ff 3e
       0.41562146 0.41284135 0.6456114 0.49860123
000030 0a 21 d3 3e ee 84 9b 3e 75 36 a2 3e 9b a6 56 3e
       0.41236144 0.30374855 0.31682172 0.20961992
000040 06 ba a6 3e 25 bf c4 3e 68 d6 88 3e 13 a2 e4 3e
       0.325638 0.38427082 0.2672608 0.44654903
000050 67 c6 8e 3e 01 0f 66 3e db 91 ea 3e 6d 20 d1 3e
       0.27885744 0.22466661 0.45814404 0.4084505
000060 66 7f a8 3e 88 c2 ec 3e eb 79 bb 3e 31 24 0a 3f
       0.32909697 0.46242166 0.36616454 0.53961474
000070 b5 49 cd 3e 61 37 d3 3e 22 df af 3e e6 8a aa 3e
       0.40095297 0.41253188 0.34349924 0.33309096
000080 0a 2c 05 3f 7b 4e 9e 3e 35 b2 04 3f 81 54 a2 3e
       0.52020323 0.3091925 0.5183442 0.31705096
000090 fb cc 00 3f b2 c6 f9 3e e0 3d c1 3e 85 c0 0e 3f
       0.50312775 0.48784405 0.3774252 0.5576251
0000a0 3b 3d 03 3f fa 23 01 3f 62 91 ea 3e 92 32 42 3f
       0.51265305 0.5044552 0.45814043 0.75858414
0000b0 9c be 4a 3f 97 81 04 3f d4 81 0b 3f 87 77 58 3e
       0.79197097 0.5176024 0.54494977 0.21139346

m_transform.0.12.running_var f4 [48]
000000 84 81 46 3e 8c d3 1d 3e f8 e9 e5 3d 1e d1 92 3e
       0.19385344 0.1541273 0.112262666 0.2867517
000010 e8 2d 20 3e 77 98 2c 3e 9f 69 67 3e 8d 3f 98 3e
       0.15642512 0.16855036 0.22598885 0.29735985
000020 55 ad f5 3e 3a 86 11 3e 95 3b b2 3e d7 dd 20 3f
       0.47983804 0.1421136 0.34811082 0.628385
000030 d9 82 86 3e dc 2f 87 3e b3 3b 5f 3e b0 7b 3e 3e
       0.26271704 0.264037 0.21800117 0.1860187
000040 43 7e 39 3e c1 6e 9d 3e 8a 7a d2 3e f6 d6 21 3e
       0.18114571 0.3074856 0.41109115 0.15804657
000050 7b 13 2c 3e 02 93 71 3e 05 56 7c 3e 28 80 b4 3e
       0.16804306 0.23591235 0.24642189 0.35254025
000060 77 56 29 3e 8c 50 c5 3e a7 64 c7 3e 21 b2 a8 3e
       0.1653689 0.38538015 0.3894398 0.32948402
000070 e4 b0 c4 3e fc fe 87 3e af 6d a5 3e c2 b2 99 3e
       0.38416207 0.26561725 0.32310244 0.30019194
000080 df ce 74 3e a8 51 c2 3e 2b ea b1 3e 98 e6 6e 3e
       0.2390704 0.37952924 0.34748968 0.23330152
000090 b2 4b 17 3e 17 32 b8 3e 5c 18 04 3f c2 7d d6 3e
       0.14774969 0.35975716 0.5159967 0.4189282
0000a0 07 ed 73 3e 10 7b 72 3e 17 f4 59 3e d1 db 38 3f
       0.23820888 0.23679757 0.21284519 0.72210413
0000b0 48 d8 82 3e 45 c8 17 3e a3 d6 a6 3e 43 e2 ac 3e
       0.25555634 0.1482249 0.3258563 0.33766374
