Auxillary_Code/LCNN/project/03-asvspoof-mega/lfb-lcnn-attention-sig/06/__pretrained/trained_network.pt (torch, 725636 bytes, 33 tensors)

m_frontend.0.lfcc_fb f4 [257, 60]
0	0x00000000	0.0
1	0x00000000	0.0
2	0x00000000	0.0
3	0x00000000	0.0
4	0x00000000	0.0
5	0x00000000	0.0
6	0x00000000	0.0
7	0x00000000	0.0
8	0x00000000	0.0
9	0x00000000	0.0
10	0x00000000	0.0
11	0x00000000	0.0
12	0x00000000	0.0
13	0x00000000	0.0
14	0x00000000	0.0
15	0x00000000	0.0
16	0x00000000	0.0
17	0x00000000	0.0
18	0x00000000	0.0
19	0x00000000	0.0
20	0x00000000	0.0
21	0x00000000	0.0
22	0x00000000	0.0
23	0x00000000	0.0
24	0x00000000	0.0
25	0x00000000	0.0
26	0x00000000	0.0
27	0x00000000	0.0
28	0x00000000	0.0
29	0x00000000	0.0
30	0x00000000	0.0
31	0x00000000	0.0
32	0x00000000	0.0
33	0x00000000	0.0
34	0x00000000	0.0
35	0x00000000	0.0
36	0x00000000	0.0
37	0x00000000	0.0
38	0x00000000	0.0
39	0x00000000	0.0
40	0x00000000	0.0
41	0x00000000	0.0
42	0x00000000	0.0
43	0x00000000	0.0
44	0x00000000	0.0
45	0x00000000	0.0
46	0x00000000	0.0
47	0x00000000	0.0
48	0x00000000	0.0
49	0x00000000	0.0
50	0x00000000	0.0
51	0x00000000	0.0
52	0x00000000	0.0
53	0x00000000	0.0
54	0x00000000	0.0
55	0x00000000	0.0
56	0x00000000	0.0
57	0x00000000	0.0
58	0x00000000	0.0
59	0x00000000	0.0
60	0x3e740000	0.23828125
61	0x00000000	0.0
62	0x00000000	0.0
63	0x00000000	0.0
64	0x00000000	0.0
65	0x00000000	0.0
66	0x00000000	0.0
67	0x00000000	0.0
68	0x00000000	0.0
69	0x00000000	0.0
70	0x00000000	0.0
71	0x00000000	0.0
72	0x00000000	0.0
73	0x00000000	0.0
74	0x00000000	0.0
75	0x00000000	0.0
76	0x00000000	0.0
77	0x00000000	0.0
78	0x00000000	0.0
79	0x00000000	0.0
80	0x00000000	0.0
81	0x00000000	0.0
82	0x00000000	0.0
83	0x00000000	0.0
84	0x00000000	0.0
85	0x00000000	0.0
86	0x00000000	0.0
87	0x00000000	0.0
88	0x00000000	0.0
89	0x00000000	0.0
90	0x00000000	0.0
91	0x00000000	0.0
92	0x00000000	0.0
93	0x00000000	0.0
94	0x00000000	0.0
95	0x00000000	0.0
96	0x00000000	0.0
97	0x00000000	0.0
98	0x00000000	0.0
99	0x00000000	0.0
100	0x00000000	0.0
101	0x00000000	0.0
102	0x00000000	0.0
103	0x00000000	0.0
104	0x00000000	0.0
105	0x00000000	0.0
106	0x00000000	0.0
107	0x00000000	0.0
108	0x00000000	0.0
109	0x00000000	0.0
110	0x00000000	0.0
111	0x00000000	0.0
112	0x00000000	0.0
113	0x00000000	0.0
114	0x00000000	0.0
115	0x00000000	0.0
116	0x00000000	0.0
117	0x00000000	0.0
118	0x00000000	0.0
119	0x00000000	0.0
120	0x3ef40000	0.4765625
121	0x00000000	0.0
122	0x00000000	0.0
123	0x00000000	0.0
124	0x00000000	0.0
125	0x00000000	0.0
126	0x00000000	0.0
127	0x00000000	0.0
128	0x00000000	0.0
129	0x00000000	0.0
130	0x00000000	0.0
131	0x00000000	0.0
132	0x00000000	0.0
133	0x00000000	0.0
134	0x00000000	0.0
135	0x00000000	0.0
136	0x00000000	0.0
137	0x00000000	0.0
138	0x00000000	0.0
139	0x00000000	0.0
140	0x00000000	0.0
141	0x00000000	0.0
142	0x00000000	0.0
143	0x00000000	0.0
144	0x00000000	0.0
145	0x00000000	0.0
146	0x00000000	0.0
147	0x00000000	0.0
148	0x00000000	0.0
149	0x00000000	0.0
150	0x00000000	0.0
151	0x00000000	0.0
152	0x00000000	0.0
153	0x00000000	0.0
154	0x00000000	0.0
155	0x00000000	0.0
156	0x00000000	0.0
157	0x00000000	0.0
158	0x00000000	0.0
159	0x00000000	0.0
160	0x00000000	0.0
161	0x00000000	0.0
162	0x00000000	0.0
163	0x00000000	0.0
164	0x00000000	0.0
165	0x00000000	0.0
166	0x00000000	0.0
167	0x00000000	0.0
168	0x00000000	0.0
169	0x00000000	0.0
170	0x00000000	0.0
171	0x00000000	0.0
172	0x00000000	0.0
173	0x00000000	0.0
174	0x00000000	0.0
175	0x00000000	0.0
176	0x00000000	0.0
177	0x00000000	0.0
178	0x00000000	0.0
179	0x00000000	0.0
180	0x3f370000	0.71484375
181	0x00000000	0.0
182	0x00000000	0.0
183	0x00000000	0.0
184	0x00000000	0.0
185	0x00000000	0.0
186	0x00000000	0.0
187	0x00000000	0.0
188	0x00000000	0.0
189	0x00000000	0.0
190	0x00000000	0.0
191	0x00000000	0.0
192	0x00000000	0.0
193	0x00000000	0.0
194	0x00000000	0.0
195	0x00000000	0.0
196	0x00000000	0.0
197	0x00000000	0.0
198	0x00000000	0.0
199	0x00000000	0.0
200	0x00000000	0.0
201	0x00000000	0.0
202	0x00000000	0.0
203	0x00000000	0.0
204	0x00000000	0.0
205	0x00000000	0.0
206	0x00000000	0.0
207	0x00000000	0.0
208	0x00000000	0.0
209	0x00000000	0.0
210	0x00000000	0.0
211	0x00000000	0.0
212	0x00000000	0.0
213	0x00000000	0.0
214	0x00000000	0.0
215	0x00000000	0.0
216	0x00000000	0.0
217	0x00000000	0.0
218	0x00000000	0.0
219	0x00000000	0.0
220	0x00000000	0.0
221	0x00000000	0.0
222	0x00000000	0.0
223	0x00000000	0.0
224	0x00000000	0.0
225	0x00000000	0.0
226	0x00000000	0.0
227	0x00000000	0.0
228	0x00000000	0.0
229	0x00000000	0.0
230	0x00000000	0.0
231	0x00000000	0.0
232	0x00000000	0.0
233	0x00000000	0.0
234	0x00000000	0.0
235	0x00000000	0.0
236	0x00000000	0.0
237	0x00000000	0.0
238	0x00000000	0.0
239	0x00000000	0.0
240	0x3f740000	0.953125
241	0x00000000	0.0
242	0x00000000	0.0
243	0x00000000	0.0
244	0x00000000	0.0
245	0x00000000	0.0
246	0x00000000	0.0
247	0x00000000	0.0
248	0x00000000	0.0
249	0x00000000	0.0
250	0x00000000	0.0
251	0x00000000	0.0
252	0x00000000	0.0
253	0x00000000	0.0
254	0x00000000	0.0
255	0x00000000	0.0

m_transform.0.0.weight f4 [64, 1, 5, 5]
0	0x3d547ba6	0.051875733
1	0x3b883a5d	0.004157348
2	0xbe1b9cbe	-0.15196511
3	0x3c46a95d	0.01212534
4	0xbbda9fc8	-0.0066718794
5	0x3e16e2e0	0.14734983
6	0xbe1384e7	-0.14406167
7	0x3e4f00f6	0.2021521
8	0xbd842c9e	-0.064538226
9	0x3dc894db	0.09794017
10	0xbda63436	-0.08115427
11	0x3dfe63a7	0.12421351
12	0x3e580479	0.21095456
13	0x3d85a9d5	0.065265335
14	0xbdf6d836	-0.12052958
15	0x3e291abf	0.16514109
16	0x3e504b24	0.20341164
17	0xbe162b4b	-0.14664952
18	0xbda7341d	-0.08164237
19	0xbc9ddf8c	-0.019271635
20	0xbc07724f	-0.008266999
21	0xbc37c6de	-0.011216847
22	0xbe0c9d32	-0.1373184
23	0x3dc96926	0.098345086
24	0x3e3d0a07	0.18460856
25	0x3b83ac7b	0.004018364
26	0xbd92aac5	-0.07161478
27	0xbe3a4c6d	-0.18193217
28	0x3daffcb1	0.08593119
29	0xbd532121	-0.051545266
30	0x3bbb9164	0.005724119
31	0x3c704790	0.014665499
32	0x3da02301	0.078191765
33	0xbdc1211e	-0.09430145
34	0xbdd3888e	-0.1032878
35	0xbe19c210	-0.15015435
36	0xbe061630	-0.13094401
37	0x3dc7e870	0.09761131
38	0x3de2fcfd	0.1108341
39	0xbd19df5d	-0.03756653
40	0x3df015b0	0.117228866
41	0x3d4e18b1	0.050316516
42	0x3e4a65c8	0.19765389
43	0x3d86832e	0.06567989
44	0x3de82519	0.11335201
45	0x3dec855c	0.11548874
46	0xbd934013	-0.071899556
47	0xbdf8e234	-0.1215252
48	0x3def0d8b	0.11672505
49	0x3d43d75a	0.047812797
50	0xbd05d858	-0.032677025
51	0x3c6fe149	0.0146411145
52	0x3d4a41eb	0.04937927
53	0xbc86333b	-0.01638185
54	0x3d39f25e	0.045397155
55	0x3c9fd09c	0.019508652
56	0x3ba87741	0.0051411693
57	0xbe45e915	-0.19327195
58	0xbd3c50e0	-0.045975566
59	0x3c5e9f02	0.013587715
60	0x3d797a78	0.06090781
61	0xbe3593de	-0.17732188
62	0xbd710bb1	-0.05884904
63	0x3e3079fd	0.17234035
64	0x3d708214	0.058717802
65	0x3de097cb	0.10966452
66	0x3e369200	0.17829132
67	0x3dba4249	0.09094674
68	0x3df0ae8d	0.11752043
69	0x3e1ace62	0.15117791
70	0x3e0d49db	0.13797705
71	0xbce8ff58	-0.02844207
72	0x3e394adf	0.18094967
73	0xbe1b2445	-0.15150554
74	0x3d764926	0.060128354
75	0x3d968809	0.073501654
76	0x3e333ed7	0.1750444
77	0xbdb9e138	-0.0907616
78	0xbe0b9150	-0.13629651
79	0x3bbedb42	0.0058244774
80	0xbcee82fd	-0.029115194
81	0xbe400fab	-0.18755977
82	0xbbef5bba	-0.007304636
83	0xbe071bc6	-0.13194188
84	0xbafe1b12	-0.001938673
85	0xbd843b09	-0.064565726
86	0x3d73fe6b	0.059568804
87	0xbe3cba17	-0.18430363
88	0xbd1eda38	-0.03878233
89	0xbe2028ce	-0.15640566
90	0x3db74aa4	0.089497834
91	0xbe1a33fe	-0.15058896
92	0xbc19e970	-0.009394035
93	0x3de95063	0.11392286
94	0xbd7cbbc2	-0.061702497
95	0xbd4fe002	-0.05075074
96	0x3e3c12d5	0.18366559
97	0xbe071459	-0.13191356
98	0xbe2104c7	-0.15724479
99	0xbcff1146	-0.031136166
100	0x3dbe9c65	0.09307174
101	0x3cb38d87	0.021918071
102	0x3d24ae60	0.04020536
103	0xbe075097	-0.13214336
104	0xbe334d9d	-0.17510076
105	0xbcb1ada6	-0.021689247
106	0xbe0a49b1	-0.13504674
107	0x3e1c6ecf	0.15276645
108	0x3e196d52	0.14983109
109	0x3dac9090	0.084260106
110	0xbc237460	-0.009976476
111	0x3e280710	0.16408944
112	0x3e1b2419	0.15150489
113	0xbdc18f86	-0.09451203
114	0xbde51eaf	-0.11187493
115	0x3d53bd19	0.05169401
116	0x3d9aa2a5	0.07550553
117	0x3df02ed5	0.117276825
118	0x3ba3ffa7	0.0050048414
119	0xbe41df3e	-0.18932816
120	0x3d8fe333	0.07025757
121	0x3e2fb369	0.17158283
122	0x3d64953a	0.055806376
123	0xbda3d841	-0.080002315
124	0xbe276242	-0.16346076
125	0x3d2fe9a5	0.04294743
126	0x3e280515	0.16408189
127	0xbe3f6d2f	-0.18693994
128	0x3dd0ee26	0.10201673
129	0xbe3d2549	-0.18471254
130	0x3df1c3fe	0.11804961
131	0xbde9cf14	-0.1141645
132	0x3c1521c9	0.009102293
133	0x3d088df9	0.03333852
134	0x3d2ea943	0.04264189
135	0xbe1c8f84	-0.15289122
136	0xbb803ebe	-0.0039137295
137	0xbe2918e2	-0.16513398
138	0x3d0e397e	0.034722798
139	0x3d5aafb8	0.053390235
140	0xbd3e615f	-0.04647958
141	0x3d9fc51e	0.07801269
142	0x3d9b0199	0.07568664
143	0x3e06a477	0.13148676
144	0xbcf2ea60	-0.029652774
145	0x3c20352d	0.009778303
146	0x3ba71b4d	0.00509969
147	0xbcc39ca1	-0.023878397
148	0xbd00b05a	-0.031418182
149	0xbd9705df	-0.07374167
150	0x3e35efff	0.17767332
151	0x3dc7bcc0	0.09752798
152	0xbe49cbfd	-0.19706722
153	0xbe272b41	-0.16325094
154	0xbd8973fe	-0.06711577
155	0x3dcff480	0.101540565
156	0xbd708db1	-0.058728877
157	0x3d7e48e7	0.062081244
158	0x3c8a32c2	0.016869906
159	0x3c64b638	0.01395946
160	0xbdc724fe	-0.097238526
161	0x3b85bf00	0.004081607
162	0xbce1ee25	-0.027579376
163	0xbd78e218	-0.060762495
164	0xbd0bbab4	-0.0341136
165	0xbd5ac449	-0.05340985
166	0xbde9e803	-0.11421206
167	0xbd7a0f3c	-0.061049685
168	0xbd99533e	-0.0748658
169	0x3d03691f	0.032082673
170	0x3d18b9b5	0.03728648
171	0x3e0a8763	0.13528208
172	0xbdf8d4da	-0.12149973
173	0x3e04a272	0.12952593
174	0x3d816355	0.06317774
175	0x3dd8433f	0.10559701
176	0xbde9fbcb	-0.11424979
177	0xbe321d14	-0.17393905
178	0xbe0c48b1	-0.13699605
179	0xbd1059f5	-0.03524204
180	0x3dc05993	0.09392085
181	0x3e04eb50	0.1298039
182	0xbdf1c8cb	-0.11805876
183	0x3c615aa4	0.013754521
184	0x3d7807c4	0.06055428
185	0x3e006d02	0.12541583
186	0xbdcc2e85	-0.099698104
187	0xbd795c4b	-0.060879033
188	0x3d8c8a86	0.06862359
189	0x3dc904f6	0.09815399
190	0xbe1b4a67	-0.15165101
191	0xbe38d148	-0.18048584
192	0x3c7d180a	0.015447626
193	0xbe23c174	-0.15991765
194	0x3e1b40d4	0.15161449
195	0x3e161607	0.1465684
196	0x3db43842	0.08799793
197	0xbde796ae	-0.11308037
198	0xbe203fec	-0.15649384
199	0x3e26229b	0.16224138
200	0x3d9f6494	0.07782856
201	0xbe1a4235	-0.15064318
202	0xbe12c657	-0.14333473
203	0xbe00218f	-0.12512802
204	0x3e16b929	0.1471907
205	0x3d8b792c	0.06810221
206	0xbd35b2a3	-0.044359814
207	0x3c031f27	0.008003033
208	0x3e44ca49	0.1921779
209	0xbe1ae716	-0.15127215
210	0x3c2aa0f6	0.010414353
211	0x3dd7e6e1	0.105420835
212	0xbd1bbb5d	-0.03802048
213	0xbde061ac	-0.109561294
214	0x3d680cc1	0.056652788
215	0x3dc6d665	0.09708861
216	0x3ca9a0d1	0.020706566
217	0xbe39afab	-0.18133418
218	0x3db5736b	0.08859905
219	0xbe21c3aa	-0.15797296
220	0xbdb2f386	-0.08737855
221	0x3dc99a88	0.098439276
222	0xbd3917d2	-0.045188732
223	0x3c8f934f	0.017526297
224	0x3d84897b	0.06471535
225	0x3e279a52	0.16367462
226	0xbc153686	-0.009107238
227	0x3e22ebf8	0.15910327
228	0xbe5c4407	-0.21510325
229	0xbc02901f	-0.007968931
230	0x3e21cbf6	0.15800461
231	0xbd635326	-0.05549922
232	0x3d355c1a	0.044277288
233	0xbe2f910e	-0.17145178
234	0x3e07915c	0.13239044
235	0x3e45c6e3	0.1931415
236	0xbcc89c65	-0.024488637
237	0xbd9d326f	-0.07675635
238	0xbd1abc83	-0.037777435
239	0xbe157871	-0.14596726
240	0x3de861fb	0.11346813
241	0x3daca24a	0.08429392
242	0x3e1104fd	0.14162059
243	0xbc8d4dd8	-0.017249033
244	0xbe02acb2	-0.1276119
245	0x3d8fe8ac	0.070268005
246	0xbdb8467c	-0.08997819
247	0xbdce7e52	-0.100826874
248	0xbdbdba00	-0.09263992
249	0xbe545db4	-0.2073887
250	0xbe2bd82e	-0.16781685
251	0x3e513c32	0.20433119
252	0x3cdea204	0.027176864
253	0xbe53f3eb	-0.20698516
254	0xbe3e42a8	-0.18580115
255	0x3df1b244	0.118015796

m_transform.0.0.bias f4 [64]
0	0x3e08e109	0.13367094
1	0xbe53db0c	-0.20689029
2	0x3d22ad4a	0.039716043
3	0xbe12825e	-0.14307544
4	0xbdd442cc	-0.10364303
5	0xbd545b7c	-0.05184506
6	0xbe102d62	-0.14079812
7	0xbc313e02	-0.0108180065
8	0x3e496369	0.19666828
9	0x3d999fe1	0.075011976
10	0xbc4f240b	-0.012642871
11	0xbd7fb7a7	-0.062431004
12	0xbd0a153e	-0.033711664
13	0xbcb4fce5	-0.022093246
14	0xbe15505c	-0.14581436
15	0xbdbbeee8	-0.09176427
16	0x3dad581d	0.08464072
17	0xbdbc0d70	-0.091822505
18	0x3daf572d	0.08561549
19	0x3db7ef13	0.08981147
20	0xbcefc9b0	-0.029270977
21	0xbe09408a	-0.13403526
22	0x3c679740	0.014135182
23	0xbdd28937	-0.10280078
24	0xbdda14a7	-0.1064847
25	0xbe2d7586	-0.16939363
26	0x3c1e366d	0.009656531
27	0xbe17169c	-0.14754719
28	0xbe1445f8	-0.14479816
29	0x3e4235e7	0.18965875
30	0xbd54fed6	-0.052000843
31	0xbe458d33	-0.19292144
32	0xbe44ed82	-0.19231227
33	0xbdefde78	-0.117123544
34	0x3e108fd7	0.1411737
35	0xbe406cbc	-0.18791479
36	0xbcb443c7	-0.022004975
37	0xbb1ef978	-0.0024257582
38	0xbc6f5fe2	-0.014610263
39	0x3cb948e1	0.02261776
40	0xbd8c1f35	-0.0684189
41	0x3c9a4bf2	0.018835042
42	0xbe065170	-0.13117003
43	0x3e012204	0.12610632
44	0x3e2660dc	0.16247886
45	0xbe4364d4	-0.19081432
46	0x3e1d2705	0.15346916
47	0x3dfb9a23	0.122852586
48	0xbe33b525	-0.1754957
49	0x3dfe6b0e	0.12422763
50	0xbe1da197	-0.15393673
51	0x3d89c252	0.06726517
52	0x3e0c9c82	0.13731578
53	0xbdb27c26	-0.08715086
54	0xbe2d2ccd	-0.16911621
55	0xbda644f4	-0.081186205
56	0xbd9f673d	-0.07783363
57	0xbde6c8f4	-0.112687975
58	0xbd8209bc	-0.06349513
59	0x3d307a9f	0.04308569
60	0x3dd6c49c	0.10486719
61	0x3d9585d3	0.073009156
62	0xbe1d05ff	-0.15334319
63	0xbcd361de	-0.025803503

m_transform.0.3.weight f4 [64, 32, 1, 1]
0	0x3e2ccac8	0.1687423
1	0xbdb483dd	-0.088142134
2	0x3d9053fa	0.07047267
3	0x3e094b0d	0.13407536
4	0xbe134bed	-0.14384432
5	0x3dead584	0.11466506
6	0x3d9b59a9	0.07585461
7	0xbd0fa918	-0.03507337
8	0xbe243af0	-0.16038108
9	0xbc99b7d3	-0.018764412
10	0xbd820a2d	-0.06349597
11	0xbe01b189	-0.1266538
12	0x3e2b3989	0.16721167
13	0x3e081e3c	0.13292783
14	0xbb501077	-0.0031748095
15	0x3cdb82da	0.026795793
16	0xbe1e1a61	-0.1543975
17	0x3ae6c748	0.0017606998
18	0x3e2ce309	0.16883482
19	0xbd574672	-0.052557416
20	0x3e14b090	0.14520478
21	0x3c911898	0.017711923
22	0x3e0f5d24	0.14000374
23	0xbe37648c	-0.1790945
24	0x3e3748f1	0.17898919
25	0xbdacd7b1	-0.08439577
26	0xbd2b06c6	-0.041754507
27	0xbde536ae	-0.1119207
28	0x3d5b8e53	0.053602528
29	0xbcd91a0e	-0.026501682
30	0xbc633a2e	-0.013868852
31	0x3db425dd	0.08796284
32	0xbdf5d039	-0.12002606
33	0xbd1bfaf0	-0.03808111
34	0x3e0cf63a	0.13765803
35	0x3df80747	0.12110763
36	0x3dd40d49	0.103540964
37	0x3d5672fd	0.052355755
38	0x3d1b2641	0.03787828
39	0x3e0280b5	0.1274441
40	0xbde16400	-0.110054016
41	0xbe13e25c	-0.14441818
42	0x3c76e3c7	0.015068955
43	0xbd32fb96	-0.043696962
44	0xbe22e363	-0.15907054
45	0xbd98f8e4	-0.07469347
46	0x3d843d90	0.064570546
47	0x3db42997	0.08796995
48	0xbe310e84	-0.17290694
49	0xbe2660f5	-0.16247924
50	0xbd89bef2	-0.06725873
51	0xbe0914b1	-0.133868
52	0xbe2c4a5d	-0.16825242
53	0x3e1c03cb	0.15235822
54	0xbe0d5271	-0.1380098
55	0x3d09d332	0.033648677
56	0x3d759440	0.059955835
57	0x3d034586	0.032048725
58	0xbc9fc862	-0.01950473
59	0xbe1c0a67	-0.15238343
60	0xbb8d2779	-0.004307684
61	0xbe34c9e6	-0.17655143
62	0x3e235c91	0.1595328
63	0x3ce0b001	0.027427675
64	0xbddc5ae8	-0.107595265
65	0x3e3098e7	0.17245828
66	0xbccd19fe	-0.025036808
67	0x3dc37e66	0.09545593
68	0x3d9f2fae	0.07772766
69	0x3e17fd8a	0.14842811
70	0x3e1a15a9	0.15047325
71	0xbe102442	-0.14076331
72	0x3dd9d4d8	0.106363
73	0xbe143458	-0.14473093
74	0x3d813396	0.06308667
75	0x3d41841a	0.047245122
76	0x3dd46ae2	0.10371949
77	0xbdf2dead	-0.11858878
78	0x3e04bc28	0.12962401
79	0xbe12a5db	-0.14321081
80	0x3e209498	0.15681684
81	0x3e1f4e3c	0.15557188
82	0xbe25d2b8	-0.16193664
83	0xbde7ee11	-0.113247044
84	0xbe256956	-0.16153464
85	0x3dce85a1	0.100840814
86	0x3d89c445	0.067268886
87	0xbd06720f	-0.03282362
88	0xbdf9399b	-0.121691905
89	0x3c994066	0.018707465
90	0x3cb4ea08	0.022084251
91	0xbc3fd097	-0.011707447
92	0xbd951a87	-0.0728045
93	0xbe1bd6e1	-0.15218689
94	0xbda2291d	-0.07917998
95	0xbdc664b5	-0.09687177
96	0x3dac0fb1	0.084014304
97	0x3e3e72e7	0.1859852
98	0x3db53408	0.08847815
99	0xbd0b82b9	-0.034060214
100	0x3dbb004c	0.09130916
101	0x3cb18cbd	0.021673555
102	0xbe2630e4	-0.16229588
103	0xbd4c0e05	-0.049818058
104	0xbde573a8	-0.112037
105	0x3c4eb2eb	0.0126159
106	0x3e2e1686	0.1700078
107	0x3ded4534	0.11585465
108	0x3dcead59	0.10091657
109	0xbe030339	-0.12794198
110	0xbd11f46a	-0.035633482
111	0x3cfbbdef	0.030730216
112	0x3dbdc3ae	0.092658386
113	0x3e04e2f4	0.12977201
114	0x3b464a30	0.0030256622
115	0x3e3fe689	0.18740286
116	0xbd8cb139	-0.0686974
117	0xbd8e8532	-0.06958999
118	0x3c255d34	0.010093022
119	0xbe02c3bf	-0.12769984
120	0xbcfe5f66	-0.031051349
121	0xbe1c77b8	-0.15280044
122	0x3d9625d8	0.07331437
123	0x3d9b85bc	0.07593867
124	0x3d7c3751	0.06157619
125	0x3cc21f3f	0.02369654
126	0xbd969e46	-0.07354407
127	0xbd3020b6	-0.042999946
128	0xbd63ba97	-0.055597868
129	0x3da648c8	0.08119351
130	0x3c8f4a8f	0.017491607
131	0x3d11aaff	0.035563465
132	0xbdb23e05	-0.087032355
133	0xbde0b960	-0.109728575
134	0xbb66b8e5	-0.003520542
135	0x3e12e7de	0.14346263
136	0xbe12edfb	-0.14348595
137	0x3dc9edea	0.09859832
138	0xbe183fe1	-0.14868118
139	0xbde4f4e5	-0.111795224
140	0xbcae0133	-0.021240806
141	0xbdd03ca5	-0.10167817
142	0x3dba1635	0.09086267
143	0xbe655e7e	-0.22399327
144	0x3c5a40cb	0.013321112
145	0x3e0873c4	0.13325411
146	0xbbcd9939	-0.006274369
147	0xbe11df03	-0.14245228
148	0xbdcdc46e	-0.100472316
149	0x3db163de	0.08661626
150	0xbda12243	-0.07867863
151	0xbce17563	-0.027521795
152	0x3d8e1753	0.069380425
153	0x3d23ad73	0.039960336
154	0x3d06071e	0.03272163
155	0x3d71ea3b	0.05906127
156	0x3def46bc	0.116834134
157	0x3d0b225c	0.033968315
158	0xbd79f183	-0.06102134
159	0x3da1e94c	0.07905826
160	0x3b581724	0.0032972777
161	0xbe0378cd	-0.1283905
162	0x3d833d5f	0.0640819
163	0xbe33e50f	-0.17567848
164	0xbe06d0b2	-0.13165548
165	0xbcad83b1	-0.02118096
166	0xbd768d9e	-0.06019365
167	0xbbcc1d93	-0.0062291115
168	0x3cecb699	0.028895663
169	0xbe18c990	-0.1492064
170	0x3d9d4f48	0.07681137
171	0x3e03292b	0.12808673
172	0xbe161b61	-0.14658882
173	0xbc83cc0f	-0.016088514
174	0xbc7a9b1c	-0.01529577
175	0x3bc9af98	0.0061549656
176	0x3c89afe9	0.016807513
177	0x3dc4f50c	0.096170515
178	0x3dc1a4db	0.09455272
179	0xbe0a6b45	-0.13517483
180	0xbe3d3d05	-0.18480308
181	0xbe00df20	-0.12585115
182	0x3bdcaefb	0.0067347265
183	0x3df1707b	0.11789032
184	0x3e18c9d2	0.14920738
185	0xbdfb3282	-0.12265493
186	0x3e1c57f7	0.15267931
187	0x3d139210	0.036027968
188	0xbdf11e85	-0.11773399
189	0x3d6a636d	0.057223726
190	0x3c0c45e3	0.008561584
191	0xbc9153c3	-0.017740136
192	0xbdfe1cb1	-0.12407816
193	0x3d5b47e7	0.05353537
194	0xbde28cf0	-0.11062038
195	0x3e0ffcac	0.1406123
196	0x3da3ed86	0.080042884
197	0x3c6a27e5	0.014291738
198	0xbdd6e346	-0.10492568
199	0xbe2c44c0	-0.16823101
200	0xbdde5560	-0.10856128
201	0x3de4602c	0.11151156
202	0xbc37ca27	-0.0112176305
203	0x3dd094b3	0.10184612
204	0x3c208811	0.009798066
205	0x3d032e58	0.03202662
206	0xbd36c557	-0.04462179
207	0xbdc301ea	-0.095218495
208	0xbb7c95a3	-0.003854134
209	0x3cfb8147	0.030701293
210	0x3d889b28	0.06670219
211	0x3d9d08f8	0.07667726
212	0x3e1c292f	0.15250085
213	0x3e065351	0.1311772
214	0x3c691e62	0.014228435
215	0xbbd26ef2	-0.006421917
216	0xbdc3160f	-0.09525692
217	0x3e45e6dc	0.19326347
218	0xbd4da602	-0.050207146
219	0x3d91b8eb	0.071153484
220	0x3e2b318c	0.1671812
221	0x3d6a5373	0.05720849
222	0x3c944e15	0.018103639
223	0x3dbb275c	0.091383666
224	0xbba309da	-0.0049755396
225	0x3dc03c77	0.09386533
226	0x3e3b2471	0.1827562
227	0xbdc9f509	-0.0986119
228	0xbdb7edcd	-0.08980904
229	0xbd906d9c	-0.07052156
230	0x3e352c96	0.1769279
231	0x3e47217a	0.19446364
232	0x3dca7ddd	0.09887288
233	0xbe0d63a2	-0.13807538
234	0x3df7baa7	0.12096148
235	0xbde57ce4	-0.112054616
236	0xbc8bbc65	-0.017057607
237	0xbdfc162e	-0.12308918
238	0xbdfd57c3	-0.12370255
239	0x3dfea185	0.12433151
240	0xbcf42ccd	-0.029806519
241	0xbc5f26b3	-0.013620066
242	0xbd4714fb	-0.048603993
243	0x3e4b95b0	0.1988132
244	0xbdac8cb1	-0.08425272
245	0x3c00968f	0.007848396
246	0x3c409921	0.011755259
247	0xbc330b49	-0.010927984
248	0x3da27980	0.079333305
249	0x3e37f341	0.17963888
250	0x3c8cf8ec	0.017208539
251	0xbe0bb42b	-0.13642947
252	0xbcd12f81	-0.025535347
253	0xbcfce332	-0.030870054
254	0xbd778183	-0.060426246
255	0x3e479b85	0.1949292

m_transform.0.3.bias f4 [64]
0	0xbd349bbb	-0.04409383
1	0xbe3e611e	-0.18591735
2	0xbdbe4ff4	-0.092925936
3	0xbe08c227	-0.13355313
4	0xbc6aa0e2	-0.014320584
5	0xbcb653f6	-0.022256833
6	0xbd818806	-0.063247725
7	0xbe1f9785	-0.15585144
8	0x3c4443d5	0.011979063
9	0x3d86db93	0.06584849
10	0xbdbf6603	-0.09345629
11	0x3db246c8	0.08704907
12	0x3d901658	0.07035512
13	0x3ce8356d	0.028345788
14	0xbd3aafc9	-0.045577798
15	0x3cb96285	0.022629986
16	0x3e03cfe4	0.12872273
17	0xbe176cdb	-0.14787619
18	0x3e4656b5	0.19369014
19	0x3b42cdd1	0.0029724727
20	0x3dda7742	0.10667278
21	0xbe15be99	-0.14623488
22	0x3e0f4a52	0.13993195
23	0xbc3d15f2	-0.011540877
24	0x3e4a0bb5	0.19731028
25	0x3e001d5f	0.12511204
26	0xbe0899a8	-0.13339865
27	0x3cfdb991	0.030972274
28	0x3e2a6408	0.16639721
29	0x3dec87ee	0.11549364
30	0x3deddb66	0.116141126
31	0x3e2f1fe7	0.17102014
32	0x3deaca7a	0.114644006
33	0x3b8d1475	0.004305417
34	0xbe01d766	-0.12679824
35	0x3872ee13	5.791902e-05
36	0xbe1c842a	-0.15284792
37	0x3e188472	0.14894274
38	0x3c4a45b7	0.012345723
39	0xbd073a83	-0.033014785
40	0x3de59186	0.11209397
41	0x3e349937	0.17636572
42	0xbd6193b6	-0.05507251
43	0x3cadebb7	0.021230562
44	0x3e327f86	0.17431459
45	0xbdb0e491	-0.086373456
46	0x3d050de2	0.032483943
47	0x3d8314ce	0.064004526
48	0x3db523c8	0.08844715
49	0xbd69446c	-0.056950018
50	0x3c0a98a9	0.008459249
51	0xbb2e799a	-0.0026622773
52	0x3ccce399	0.02501087
53	0xbe333ecb	-0.17504422
54	0x3cc0575d	0.023479158
55	0x3d8f3764	0.06992987
56	0xbe12a70f	-0.1432154
57	0xbdbd299a	-0.092364505
58	0xbc8bd5e2	-0.01706976
59	0xbdf46b53	-0.11934533
60	0xbc6bd991	-0.014395134
61	0xbd59e5fb	-0.053197842
62	0x3df73f49	0.120726176
63	0xbe0a2b25	-0.13493021

m_transform.0.5.running_mean f4 [32]
0	0x3fc40924	1.531529
1	0x3d003b04	0.03130628
2	0x3d7eb9a6	0.062188767
3	0x3f92bf61	1.1464654
4	0xbc854073	-0.016266083
5	0xbd53598d	-0.051599074
6	0x3e7a8f98	0.24468839
7	0xbd00fd7a	-0.031491734
8	0x3ed179a9	0.40913132
9	0x3fb50dc6	1.4144828
10	0xbe8bfdcd	-0.27342072
11	0xbd9e6d50	-0.077356935
12	0x3e8b1cf5	0.2717053
13	0x3f228a52	0.6349231
14	0x3f70d911	0.9408122
15	0x3f199397	0.5999083
16	0x3f3f1d57	0.74654144
17	0xbf94e50d	-1.1632401
18	0x3fcc9594	1.5983148
19	0x401e58c7	2.4741685
20	0x3e8d975d	0.27654544
21	0xbde253ed	-0.11051164
22	0x3ee6df88	0.45092416
23	0x3ea5dfd3	0.32397327
24	0xbd000d94	-0.03126295
25	0x3dfc7610	0.12327206
26	0x3d8d53f4	0.069007784
27	0x3e2860ac	0.16443127
28	0x4016ecdc	2.3582067
29	0x3ee2fb68	0.44332433
30	0x3eccdf14	0.40013945
31	0x3daca73f	0.08430337

m_transform.0.5.running_var f4 [32]
0	0x3f3ee59c	0.74569106
1	0x3ca1cda9	0.019751387
2	0x3e2e00ea	0.16992536
3	0x3e2c68c1	0.16836835
4	0x3d6bb0c0	0.05754161
5	0x3d0e194b	0.03469209
6	0x3d01ad70	0.031659544
7	0x3d9a53f7	0.07535546
8	0x3da1e7bc	0.07905528
9	0x3ed6dad4	0.41963828
10	0x3dae08ff	0.084978096
11	0x3d36fc62	0.044674285
12	0x3cfbe981	0.030750992
13	0x3e304bc7	0.17216407
14	0x3e52da13	0.20591001
15	0x3dddd2ee	0.10831247
16	0x3e8b6bc1	0.27230647
17	0x3ea62fc2	0.3245831
18	0x3eaf2c6a	0.34213573
19	0x3fb93634	1.4469666
20	0x3d313645	0.043264646
21	0x3d362581	0.04446936
22	0x3d601649	0.054708753
23	0x3d9a4aec	0.075338215
24	0x3d554a93	0.052073073
25	0x3da004ed	0.078134395
26	0x3d713442	0.058887728
27	0x3d2c74e3	0.04210366
28	0x3fb05a0a	1.3777478
29	0x3d9e90db	0.07742473
30	0x3d21e438	0.039524287
31	0x3d724bd7	0.059154358

m_transform.0.6.weight f4 [96, 32, 3, 3]
0	0xbd7988b1	-0.060921375
1	0xbc56e156	-0.013115248
2	0xbd43dcc0	-0.047817945
3	0xbd47b1f4	-0.048753694
4	0x3be463dc	0.006969912
5	0x3d5e9837	0.054344382
6	0x3d3a202f	0.04544085
7	0x3b80e907	0.003934029
8	0x3c9d58c1	0.01920736
9	0xbc19ad14	-0.009379644
10	0x3db465b7	0.08808463
11	0x3cea4291	0.028596194
12	0x3c69ba18	0.01426556
13	0x3d585756	0.052817665
14	0xbce5cc2f	-0.028051464
15	0xbce9c47a	-0.02853607
16	0x3bee9d0f	0.0072819064
17	0x3d692660	0.056921363
18	0xbd4602aa	-0.048342384
19	0xbd7293e2	-0.059223063
20	0xbd831a20	-0.06401467
21	0xbcb4e7e7	-0.022083236
22	0xbd5d9676	-0.05409857
23	0xbc8b9fd1	-0.01704398
24	0xbd6ee9be	-0.058328383
25	0x3b5fd959	0.003415665
26	0x3cb54f3c	0.022132508
27	0x3d1b4f3e	0.037917368
28	0xbd50a95e	-0.05094277
29	0xbd380aac	-0.044932052
30	0xbd23975a	-0.039939262
31	0xbbf1c136	-0.007377769
32	0xbd22de0b	-0.039762538
33	0xbcf66412	-0.030077014
34	0xbcf15d44	-0.029463418
35	0x3d5d4950	0.054024994
36	0x3d37b85d	0.044853557
37	0xbd0deb21	-0.034648065
38	0xbca2dd48	-0.019880906
39	0xbd01fb39	-0.031733725
40	0xbd6a5746	-0.057212137
41	0xbd3eadc5	-0.04655244
42	0xbd960bc5	-0.073264636
43	0x3cdd20ed	0.02699324
44	0x3d64c3ae	0.055850677
45	0x3d1a7074	0.0377049
46	0xbac3bffc	-0.0014934535
47	0x3d713083	0.058884155
48	0xbc45f24a	-0.012081692
49	0x3ccd6bd6	0.025075834
50	0x3d882ea7	0.06649523
51	0xbd48835e	-0.048953407
52	0x3d0b271e	0.033972852
53	0x3d998fe2	0.074981466
54	0x3c47f350	0.012204006
55	0xbd35f301	-0.0444212
56	0x3bd27b37	0.0064233798
57	0xbd105e9a	-0.03524647
58	0xbc32288b	-0.010873924
59	0xbd79bef2	-0.060973115
60	0x3d33c6ca	0.043890752
61	0xbd8c5c1e	-0.068535075
62	0xbda6ce71	-0.08144844
63	0xbd588f8a	-0.052871265
64	0x3cb33d54	0.02187983
65	0xbbcf33eb	-0.006323328
66	0xbcbef6ba	-0.023311008
67	0x3ba69c0f	0.0050845216
68	0xbc2baa02	-0.010477545
69	0x3c858a87	0.016301407
70	0x3c05243e	0.008126317
71	0x3cb9e5a1	0.022692503
72	0xbd2f63d9	-0.04281983
73	0x3d6c61f9	0.05771062
74	0xbd089c0e	-0.03335195
75	0xbc212c48	-0.009837218
76	0x3d44eb17	0.04807576
77	0xbc0c8150	-0.008575752
78	0x3d4851c4	0.048906103
79	0x3abe9642	0.001454063
80	0x3d9aa9b7	0.07551902
81	0xbd45515b	-0.04817329
82	0x3b29cc1b	0.002590901
83	0xbd8ad98a	-0.067797735
84	0xbccdf604	-0.025141723
85	0xbce7de9c	-0.02830439
86	0xbc31daf6	-0.010855427
87	0xbc91a816	-0.017780345
88	0xba7f0e9c	-0.0009729655
89	0x3d45f6bf	0.04833102
90	0xbcbdccc8	-0.023168936
91	0xbccfa7cf	-0.025348572
92	0xbd801a00	-0.06254959
93	0xbce04c1d	-0.027380044
94	0x3cc115d6	0.023569982
95	0xbd8ba085	-0.06817726
96	0xbd57d97f	-0.052697655
97	0x3d318d37	0.043347564
98	0xbd885486	-0.066567466
99	0xbca590d7	-0.020210667
100	0xbc5eae63	-0.013591382
101	0xbd2d6460	-0.042332053
102	0x3d10d5eb	0.035360258
103	0x3d24a5a3	0.040197026
104	0xbcfd0793	-0.0308874
105	0xbc473e76	-0.012160888
106	0x3d97378d	0.07383642
107	0xbd99db97	-0.075125866
108	0x3d3f3944	0.046685472
109	0xbd882eee	-0.06649576
110	0xbb3a6ff0	-0.0028448068
111	0x3d1ae2fa	0.037814118
112	0x3d3763b1	0.044772808
113	0xbce7396e	-0.028225627
114	0xbcf5863e	-0.029971238
115	0x3c447f2c	0.011993211
116	0x3ce58c82	0.0280211
117	0xbc1f7cae	-0.009734316
118	0x3d4f909e	0.050675027
119	0x3d8987eb	0.067153774
120	0xbd6446ac	-0.05573146
121	0xbcab7a16	-0.020932239
122	0xbad2e789	-0.0016090731
123	0x3d1e5313	0.038653444
124	0x3c4b961f	0.012425928
125	0x3d1376bf	0.036001917
126	0x3c89c390	0.016816884
127	0xbd21ec79	-0.03953216
128	0xbabcda2a	-0.001440828
129	0xbd8b63e0	-0.06806159
130	0xbb1d5be5	-0.0024011072
131	0xbcfde314	-0.030992068
132	0xbd43b45b	-0.047779422
133	0x3935c7e8	0.00017335976
134	0x3d428304	0.047488227
135	0xba21f242	-0.0006177762
136	0xbcd2e814	-0.02574543
137	0xbbe7eb09	-0.007077579
138	0xbd5789f3	-0.052621793
139	0xba63e366	-0.0008693248
140	0xbc4b84cb	-0.012421797
141	0xbd899cd5	-0.067193665
142	0xbcdc798b	-0.026913425
143	0xbb89108d	-0.004182881
144	0x3ce8ab1b	0.028401902
145	0x3b850f8f	0.0040606926
146	0xbcb382f6	-0.021913033
147	0x3d1d938e	0.038470797
148	0xbcb2cb9a	-0.0218256
149	0x3bcdc2e6	0.006279337
150	0x3cf03e13	0.029326474
151	0x3c6a13bc	0.014286932
152	0xbd15ae9a	-0.036543466
153	0xbc532d6c	-0.012889247
154	0xbcba6fa7	-0.022758318
155	0xbd17400c	-0.036926314
156	0xbc0ba1c0	-0.008522451
157	0xbce2fd49	-0.027708666
158	0xbd52a34d	-0.051425267
159	0xbd4a6257	-0.04941019
160	0xbc287bd4	-0.010283429
161	0x3c1cc0c3	0.009567442
162	0x3d13f649	0.036123548
163	0x3c66dc76	0.014090648
164	0x3d8171d7	0.06320541
165	0xbd6929eb	-0.05692474
166	0xbd871457	-0.065956764
167	0x3b8d7014	0.0043163393
168	0xbcb5f7c1	-0.022212865
169	0x3d30c179	0.04315326
170	0x3d870b7b	0.065939866
171	0xbd3ab863	-0.045586
172	0x3d367345	0.044543523
173	0xbb17f851	-0.002318878
174	0xbd18929f	-0.037249204
175	0x3d391bb9	0.045192454
176	0x3d729b93	0.0592304
177	0xbcf35d98	-0.029707715
178	0x3b6b5d30	0.0035913698
179	0xbc8bfda1	-0.017088713
180	0x3cdb29e5	0.026753375
181	0x3b8f7157	0.004377525
182	0x3c88c725	0.016696522
183	0x3d80a460	0.06281352
184	0x3d1bfdc1	0.038083795
185	0x3c2da655	0.010598739
186	0xbc92e815	-0.017932931
187	0x3d503cab	0.050839107
188	0x3c0b91e8	0.0085186735
189	0xbbf11d1a	-0.0073582055
190	0x3cee8a70	0.029118747
191	0x3cae7051	0.021293791
192	0xbd200d87	-0.0390754
193	0x3d345131	0.044022743
194	0x3c63f54c	0.013913464
195	0xbd2efc6e	-0.042721204
196	0xbb146911	-0.0022645632
197	0xbd13fe57	-0.03613123
198	0xbc9deb7b	-0.019277325
199	0xbd514118	-0.05108747
200	0x3ce05497	0.027384086
201	0xbcbbade3	-0.022910064
202	0xbd78f188	-0.060777217
203	0x3cb0de65	0.021590421
204	0x3c96b37b	0.01839613
205	0xbb656bc5	-0.0035006863
206	0x3c831cd7	0.016004963
207	0xbd55fffa	-0.05224607
208	0xbd256274	-0.040377095
209	0xbd687c5f	-0.056759235
210	0xba2ee25b	-0.0006671303
211	0xbca632d9	-0.020287918
212	0xbd9d66de	-0.07685636
213	0x3cbf1494	0.023325242
214	0xbd18fdf2	-0.037351556
215	0x3ce69594	0.028147496
216	0xbd19c19e	-0.037538163
217	0xbd6f6e0b	-0.058454555
218	0xbb180da0	-0.002320148
219	0xbcf6c3e8	-0.030122712
220	0xbc2fef44	-0.010738198
221	0xbd3d524b	-0.04622106
222	0xbc4a9aad	-0.012365979
223	0xbd0f8bf6	-0.035045587
224	0x3bfb0d5e	0.0076615056
225	0x3cd1ce09	0.02561094
226	0xbb9d29b0	-0.0047962293
227	0xbd3f7537	-0.046742644
228	0x3cf5e6f9	0.030017363
229	0x3d01a052	0.031647034
230	0x3caaaf8d	0.020835662
231	0x3d830c8f	0.0639888
232	0x3d4f948a	0.050678767
233	0x3d70e3db	0.05881105
234	0xbd73619e	-0.059419267
235	0xbd506be8	-0.050884157
236	0x3c994e13	0.018713987
237	0xbd23283f	-0.039833304
238	0x3d0ea381	0.0348239
239	0x3d32b46a	0.043629088
240	0xbcfcaee8	-0.03084512
241	0x3d71dcf4	0.059048608
242	0x3c257b76	0.010100236
243	0x3c1ad17c	0.009449359
244	0x3c49a846	0.012308186
245	0x3c8db18e	0.017296579
246	0x3cbaf19a	0.022820283
247	0x3d7048c8	0.05866316
248	0xbd51a62f	-0.051183876
249	0x3c59692b	0.013269703
250	0x3d0d5360	0.03450334
251	0x3c2c64ec	0.0105221085
252	0xbcfb598b	-0.030682346
253	0x3d12aafb	0.03580759
254	0xbd47e69d	-0.048803914
255	0x3ce8c309	0.028413313

m_transform.0.6.bias f4 [96]
0	0x3d50e4cf	0.05099946
1	0x3d22aafb	0.03971384
2	0xbd040577	-0.032231774
3	0xbd17d645	-0.037069578
4	0x3c852834	0.016254522
5	0x3d120b6a	0.035655417
6	0x3c8d6a79	0.017262684
7	0x3c477ab5	0.012175252
8	0xbc0c372f	-0.008558079
9	0xbd67b535	-0.056569297
10	0xbd78a5bf	-0.060704943
11	0xbd164822	-0.036689885
12	0xbbcf77f8	-0.00633144
13	0xbd85cc51	-0.06533111
14	0xbd0e0d1d	-0.034680475
15	0x3d0bc46e	0.034122877
16	0xbda8b94f	-0.0823847
17	0x3d3f6067	0.046722796
18	0xbd72e819	-0.059303377
19	0x3cc35c86	0.02384783
20	0x3d164084	0.03668262
21	0xbca52936	-0.020161252
22	0xbd49c66f	-0.049261507
23	0xbc9e79bb	-0.019345155
24	0xbc839357	-0.016061468
25	0x3d1f3ab5	0.038874347
26	0x3d7ed970	0.062219083
27	0xbd62a310	-0.05533129
28	0x3d3456f0	0.044028223
29	0x3c8499e9	0.016186671
30	0xbd73eb97	-0.059550848
31	0xbd322616	-0.043493353
32	0xbc9f4817	-0.019443555
33	0xbd233cf6	-0.03985306
34	0x3b0ff7cb	0.0021967764
35	0xbd240d1e	-0.040051572
36	0xbc779432	-0.015111016
37	0xbd4aa1c5	-0.04947068
38	0xbc87da79	-0.016583668
39	0x3d233cb0	0.039852798
40	0xbd239ec0	-0.039946318
41	0x3d006582	0.031346805
42	0x3d1011e1	0.0351733
43	0x3c52069c	0.012818959
44	0xbceba034	-0.028762914
45	0xbd87699c	-0.0661194
46	0xba6ba750	-0.000898947
47	0x3ce9a307	0.02852012
48	0x3ce67865	0.02813358
49	0xbd7ab740	-0.061209917
50	0xbd608e7e	-0.05482339
51	0xbd5b1fb2	-0.053497024
52	0xbcdb2dff	-0.026755331
53	0xbce1e528	-0.02757509
54	0xbcf1e746	-0.029529225
55	0xbd660900	-0.056160927
56	0xbccaa8b8	-0.024738654
57	0x3cfa5d43	0.030562049
58	0xbcfe3e10	-0.031035453
59	0xbca6182e	-0.020275202
60	0x3d3f0931	0.046639625
61	0x3cef7e64	0.029235072
62	0x3d6f0e6d	0.058363367
63	0xbc66976f	-0.0140741905
64	0x3d0afe7f	0.033934113
65	0xbd50d73d	-0.050986517
66	0xbd53055e	-0.05151879
67	0xbccb6a34	-0.024830915
68	0x3cfffad5	0.031247536
69	0xbd29ba90	-0.041437685
70	0x3b8a41fc	0.0042192917
71	0xbcc2e388	-0.023790136
72	0xbd0968e4	-0.033547297
73	0xbd917b34	-0.07103577
74	0xbd6d1453	-0.05788071
75	0x3c7fff14	0.01562478
76	0xbd49d0b9	-0.04927132
77	0xbd3d7a39	-0.04625914
78	0x3c8a0dc3	0.016852265
79	0x3c17efab	0.00927345
80	0xbd4a9f1d	-0.04946815
81	0x3d565c22	0.05233396
82	0xbd99151b	-0.07474729
83	0xbd2c5cf3	-0.04208083
84	0xbcf05021	-0.029335083
85	0xbd4f49ac	-0.05060737
86	0xbd2fbd3e	-0.042905085
87	0xbc7467ff	-0.014917373
88	0xb9e04010	-0.0004277234
89	0xbc37cbe1	-0.011218042
90	0xbcf6ee24	-0.030142851
91	0x3c00763f	0.007840692
92	0xbd4a2956	-0.049355827
93	0xbc0e38d6	-0.008680543
94	0xbd48089f	-0.048836347
95	0x3d9219b3	0.07133808

m_transform.0.9.running_mean f4 [48]
0	0x3f8a0fd0	1.0786076
1	0x3f9033c3	1.1265796
2	0x3f92294d	1.1418854
3	0x3fb5daa1	1.4207345
4	0x3f99a8ad	1.2004601
5	0x3f9824f9	1.1886283
6	0x3f6cea97	0.92545456
7	0x3fd06831	1.6281797
8	0x3f489f3e	0.78367984
9	0x3fad0c17	1.3519315
10	0x3f50f543	0.8162424
11	0x3f9cd08a	1.2251141
12	0x3f54aa7c	0.8307264
13	0x3f8f73a8	1.120717
14	0x3f74b98d	0.9559563
15	0x3fcc6ed6	1.5971324
16	0x3f82c48c	1.0216231
17	0x3f8e64cf	1.1124514
18	0x3f771435	0.9651521
19	0x3f9cdc10	1.2254658
20	0x3fe97b33	1.8240722
21	0x3f787f5b	0.9706933
22	0x3f2e76b9	0.68149906
23	0x3fb71a29	1.4304858
24	0x3fbc4490	1.4708424
25	0x3f25d721	0.64781386
26	0x3fa5d596	1.2955806
27	0x3f535772	0.82555306
28	0x3f6091a1	0.8772221
29	0x3fad2993	1.3528312
30	0x3f447bb0	0.7675123
31	0x3fa70982	1.3049777
32	0x3f932d84	1.1498265
33	0x40068e06	2.1024184
34	0x3f17527e	0.5911025
35	0x3f5d6d3f	0.8649482
36	0x3f9e655e	1.2374685
37	0x3f619a68	0.8812623
38	0x3fab921b	1.3403963
39	0x3fb907ec	1.4455543
40	0x3fb62dc7	1.423272
41	0x3fa2af92	1.270983
42	0x3f76fe18	0.96481466
43	0x3f929632	1.1452086
44	0x3fef2bdb	1.8685259
45	0x3f7c5cde	0.98579204
46	0x3f804abc	1.0022807
47	0x3f976455	1.1827494

m_transform.0.9.running_var f4 [48]
0	0x3ef3ef88	0.47643685
1	0x3f0aadc5	0.541714
2	0x3f515afb	0.8177945
3	0x3f89e4a6	1.0772903
4	0x3f10df86	0.5659107
5	0x3ee697e9	0.45037773
6	0x3efc191f	0.49237916
7	0x3f9dc82f	1.2326716
8	0x3e991a60	0.29902935
9	0x3f31cc6f	0.69452566
10	0x3f301225	0.68777686
11	0x3f9c6da5	1.2220961
12	0x3f918b0b	1.1370558
13	0x3f29d2f0	0.6633749
14	0x3eb4ee9d	0.35338297
15	0x402b588c	2.6772795
16	0x3f626994	0.8844235
17	0x3fa22533	1.2667602
18	0x3f26987b	0.65076417
19	0x3eccdf2c	0.40014017
20	0x3f385619	0.72006375
21	0x3fbe3772	1.486067
22	0x3f4d9359	0.8030296
23	0x3f0bd7ff	0.5462646
24	0x3f349090	0.70533085
25	0x3f29d3ac	0.6633861
26	0x3f80a6ce	1.0050905
27	0x3ef803a5	0.4844028
28	0x403da44d	2.9631531
29	0x401bb3a4	2.4328394
30	0x3f14dc89	0.5814901
31	0x3fd4a3c8	1.6612482
32	0x3fa75e3e	1.3075635
33	0x40652789	3.580538
34	0x3fc14183	1.5098118
35	0x3f85df2e	1.0458734
36	0x3fa27cec	1.2694373
37	0x3f7e9315	0.9944318
38	0x3fbdfad7	1.4842175
39	0x3f91abee	1.1380594
40	0x3f301d26	0.68794477
41	0x3f9cff52	1.2265418
42	0x3efa60f5	0.48902097
43	0x3fb388d9	1.4026138
44	0x3f800684	1.0001988
45	0x3f6ac7ae	0.9171094
46	0x3eed7a29	0.46382263
47	0x3e98bb3b	0.29830346

m_transform.0.10.weight f4 [96, 48, 1, 1]
0	0x3e074aec	0.13212174
1	0x3e1c5cd0	0.1526978
2	0xbd78cd9a	-0.060742952
3	0xbde22c64	-0.11043623
4	0xbd7057fb	-0.058677655
5	0x3dc8175b	0.0977008
6	0x3d6d1a83	0.05788661
7	0xbd085c43	-0.033291113
8	0x3d70520a	0.05867199
9	0xbddd8338	-0.108160436
10	0xbdb1cc43	-0.08681538
11	0x3df63c3b	0.12023207
12	0x3e05709b	0.13031237
13	0x3d77b4c7	0.060475137
14	0xbd8ac250	-0.067753434
15	0x3b7eed03	0.0038898594
16	0x3cdc1c49	0.026868956
17	0x3d5f8359	0.054568622
18	0x3d842a12	0.06453337
19	0xbcedafef	-0.029014556
20	0x3e0a5131	0.13507535
21	0x3d787419	0.060657594
22	0x3da2dcf2	0.07952298
23	0x3c6da1f7	0.014503947
24	0xbd868fda	-0.06570406
25	0x3e0be571	0.13661744
26	0x3e091980	0.13388634
27	0x3cb41e1e	0.021987017
28	0xbdf5210d	-0.119691946
29	0x3c25cd55	0.010119756
30	0x3e08f798	0.133757
31	0x3dd73096	0.10507314
32	0xbdec02b6	-0.115239546
33	0x3dcb10ea	0.099153355
34	0xbd8a946b	-0.0676659
35	0xbd47ab55	-0.04874738
36	0x3d0e82ca	0.0347927
37	0xbe0a50bf	-0.13507365
38	0x3da4ad64	0.08040884
39	0x3df0accf	0.117517106
40	0x3d2a1968	0.041528136
41	0xbe017b37	-0.12644659
42	0xbdca52b5	-0.09879056
43	0x3d889509	0.06669051
44	0xbe02ca92	-0.12772587
45	0x3d04aefa	0.032393433
46	0x3e062013	0.13098173
47	0x3d496295	0.04916628
48	0x3d0e95b0	0.034810722
49	0xbdbcf2cb	-0.092259966
50	0xbdf5a014	-0.11993423
51	0xbc9d0b69	-0.01917048
52	0xbcdea4de	-0.027178224
53	0x3de65006	0.11245732
54	0xbc5e769a	-0.0135780815
55	0xbdedfdf3	-0.116207026
56	0xbdd22a3a	-0.1026196
57	0x3d9ce806	0.076614425
58	0x3e14a4c0	0.14515972
59	0x3d4695cb	0.048482697
60	0x3d14047f	0.0361371
61	0xbd790a51	-0.060800854
62	0x3bc7156f	0.006075553
63	0xbde0c24d	-0.1097456
64	0xbd38c648	-0.04511097
65	0xbcdfb530	-0.027308077
66	0x3d753141	0.059861425
67	0xbd8f0d98	-0.06985015
68	0x3e0e4245	0.13892467
69	0xbc2871f6	-0.010281077
70	0x3d96cfbb	0.0736384
71	0xbd820eae	-0.06350456
72	0xbd391d8c	-0.045194194
73	0x3d8a45ee	0.06751619
74	0xbc969cad	-0.018385256
75	0x3d86f2d3	0.06589284
76	0x3d04fbea	0.032466806
77	0x3bed7cd5	0.007247547
78	0xbc95c3eb	-0.018281898
79	0xbd9677af	-0.073470466
80	0xbd685216	-0.05671891
81	0xbe05dd76	-0.13072762
82	0x3d36052c	0.044438526
83	0x3c7a8add	0.015291897
84	0xbde46678	-0.11152357
85	0x3b847529	0.004042287
86	0xbb3f9890	-0.0029235221
87	0xbdf17417	-0.117897205
88	0xbd9db110	-0.076997876
89	0x3db973d3	0.09055295
90	0x3d19bed5	0.037535507
91	0xbd4bbf6a	-0.049743094
92	0x3cfe4c77	0.03104232
93	0xbd31e9f5	-0.04343601
94	0xbdfb9532	-0.12284316
95	0x3daa23bf	0.08307599
96	0x3cc31e8b	0.023818275
97	0x3dbcd018	0.09219378
98	0xbcbe0795	-0.023196975
99	0xbce7bad6	-0.028287333
100	0x391ac109	0.00014758496
101	0xbe0e69d9	-0.13907565
102	0x3dc6e66e	0.0971192
103	0xbb3f9b37	-0.0029236802
104	0x3d792248	0.06082371
105	0xbc02e5b7	-0.007989339
106	0x3d95d7e2	0.07316567
107	0xbd94dc9b	-0.0726864
108	0xbe1eb277	-0.15497766
109	0x3d978693	0.07398715
110	0x3c34760e	0.011014475
111	0xbd027541	-0.031850103
112	0x3dcb0129	0.09912331
113	0xbdfba5ff	-0.122875206
114	0x3cfa2385	0.030534515
115	0xbb0447a1	-0.0020184296
116	0x3d9cf378	0.076636255
117	0x3d8a57e9	0.06755049
118	0x3e087111	0.13324381
119	0xbde7f897	-0.113267116
120	0x3c2ae82e	0.0104313325
121	0xbde55447	-0.11197715
122	0xbcd9b2cb	-0.026574513
123	0x3d9b47d9	0.07582063
124	0x3d7211ef	0.059099134
125	0xbe291d1f	-0.16515015
126	0x3d4ee668	0.0505127
127	0xbac483b4	-0.0014992864
128	0xbd6f81d6	-0.05847343
129	0xbd9ceee8	-0.07662755
130	0xbddbf53b	-0.107401334
131	0xbd018013	-0.03161628
132	0x3d543407	0.05180743
133	0xbd80b8cc	-0.06285247
134	0xbd842816	-0.06452958
135	0x3dc574f5	0.096414484
136	0xbe206aee	-0.1566579
137	0xbd8f7f6b	-0.07006725
138	0xbe10cb57	-0.14140068
139	0x3dae7096	0.08517568
140	0x3a1fa8a3	0.00060904975
141	0xbcb6903a	-0.02228557
142	0x3e0d5be5	0.13804586
143	0xbddf67fa	-0.10908504
144	0x3cf9b138	0.030480012
145	0x3df363ff	0.11884307
146	0xbcd571e1	-0.026055278
147	0x3dc23caf	0.09484231
148	0xbd835675	-0.06412975
149	0xbbbfcd8f	-0.005853362
150	0x3e0f747f	0.14009283
151	0x3da0dc03	0.07854464
152	0x3c2ec3e2	0.010666819
153	0x3df7dbcb	0.12102469
154	0xbd67c116	-0.056580625
155	0x3e182a97	0.14859997
156	0xba367cb4	-0.0006961331
157	0xbc046260	-0.008080095
158	0x3dbcc663	0.09217527
159	0x3cfe9040	0.031074643
160	0xbd0fc5b7	-0.035100665
161	0xbdc3b978	-0.0955686
162	0x3de46895	0.1115276
163	0xbd25cc5a	-0.040478088
164	0xbda754e2	-0.08170487
165	0x3e0eee9c	0.1395821
166	0x3d9ddc2d	0.07708011
167	0x3cd68046	0.026184212
168	0xbda9d8ee	-0.08293329
169	0xbd97c499	-0.07410545
170	0x3daace73	0.08340158
171	0x3d64bc34	0.055843547
172	0x3df8e281	0.12152577
173	0x3e082f26	0.13299236
174	0xbb34a270	-0.002756264
175	0x3ade6250	0.0016966555
176	0x3e062568	0.13100207
177	0x3e1caaee	0.1529958
178	0xbe0947e9	-0.13406338
179	0xbd9b4e76	-0.075833246
180	0xbd00065d	-0.03125607
181	0x3d89f038	0.06735271
182	0x3e038d05	0.12846763
183	0xbb146a92	-0.0022646529
184	0x3d6a810a	0.057251967
185	0xbd625ed1	-0.055266205
186	0xbcd8f5c3	-0.026484376
187	0x3d1be839	0.03806326
188	0x3df43826	0.11924772
189	0x3c8ca614	0.017169036
190	0x3d1ce42a	0.03830353
191	0xbdca166c	-0.09867558
192	0xbced725e	-0.028985199
193	0xbe133cad	-0.14378615
194	0xbddb3b06	-0.10704617
195	0xbd4d8a43	-0.050180685
196	0x3c90437c	0.017610304
197	0xbdb1480f	-0.08656322
198	0xbd25c3d9	-0.040469978
199	0xbc6da773	-0.014505255
200	0xbc71d978	-0.014761321
201	0x3e083ac5	0.13303669
202	0xbd9aa753	-0.07551446
203	0x3c30c162	0.010788294
204	0x3c5abba7	0.013350404
205	0x3e1c6b64	0.15275341
206	0x3d9a76d0	0.07542193
207	0xbd723aea	-0.059138216
208	0x3cdbecce	0.026846316
209	0xbd81003b	-0.06298872
210	0x3dd68916	0.10475366
211	0xbda717c9	-0.081588335
212	0x3dda5abd	0.10661838
213	0xbd57d65a	-0.052694656
214	0x3dddeccc	0.10836181
215	0x3d418d35	0.047253806
216	0x3dfdb4a2	0.123879686
217	0xbdca0d8f	-0.09865867
218	0x3c40ddbe	0.011771617
219	0x3da83b0a	0.08214386
220	0x3e12499d	0.14285894
221	0xbd91ffb2	-0.07128848
222	0x3cedb83b	0.029018512
223	0xbdb60c8e	-0.08889113
224	0xbd4ea873	-0.050453614
225	0xbdcbce81	-0.09951497
226	0xbc3da489	-0.011574873
227	0x3d254b9a	0.040355302
228	0xbd83e405	-0.06439976
229	0xbdca1ef8	-0.09869188
230	0xbddea37f	-0.10871028
231	0x3e16df7e	0.14733693
232	0x3d99a2c5	0.07501749
233	0xbc8275bc	-0.01592528
234	0xbd8d2753	-0.06892266
235	0xbd113492	-0.035450526
236	0xbdcab849	-0.09898431
237	0xbbac4012	-0.005256661
238	0x3e24e5d3	0.16103296
239	0x3d58c21c	0.052919492
240	0xbd16924d	-0.036760617
241	0x3e1193c2	0.14216521
242	0x3c5d3309	0.013500937
243	0x3df86d77	0.12130254
244	0xbdd149cd	-0.102191545
245	0x3d752242	0.059847124
246	0x3c94f301	0.01818228
247	0xbe1ab75b	-0.15109007
248	0x3d0e1ecd	0.034697343
249	0x3d9d3a28	0.07677108
250	0x3dba6916	0.09102075
251	0xbdbbde82	-0.09173299
252	0xbd7485f4	-0.05969806
253	0x3daa4985	0.08314804
254	0x3df68db5	0.12038747
255	0xbe0046cf	-0.12527011

m_transform.0.10.bias f4 [96]
0	0xbd11957d	-0.035542954
1	0x3dec3ecc	0.11535415
2	0x3e022b00	0.12711716
3	0x3bf844a6	0.007576543
4	0xbddf1c1a	-0.10894032
5	0xbdeaf408	-0.114723265
6	0xbd514f82	-0.051101215
7	0xbd9d0ba4	-0.07668236
8	0x3d853d46	0.065058276
9	0x3ddf7678	0.10911268
10	0x3db1b993	0.086779736
11	0xbd820c15	-0.06349961
12	0x3d511fb9	0.051055644
13	0x3a84f30a	0.0010143232
14	0xbda2eccd	-0.079553224
15	0x3d535afb	0.051600438
16	0xbdb683be	-0.089118466
17	0xbe01e296	-0.12684092
18	0xbca84e18	-0.02054505
19	0xbcf99bc2	-0.030469779
20	0xbbebdbff	-0.0071978564
21	0xbcdb4299	-0.026765155
22	0x3e1ccff5	0.15313704
23	0x3d8e327f	0.06943225
24	0xbde2fac1	-0.11082984
25	0xbe0fec5d	-0.14055009
26	0x3dcfbac7	0.10143047
27	0x3d45c856	0.04828676
28	0xbdeab5d2	-0.11460461
29	0xbd824d46	-0.06362395
30	0xbe097455	-0.13423283
31	0xbd8a235d	-0.06745026
32	0xbd00f790	-0.031486094
33	0xbdb454a2	-0.08805205
34	0x3dc6c037	0.09704631
35	0xbd93f981	-0.072253235
36	0x3c6fcd14	0.014636297
37	0xbc5c836f	-0.013459071
38	0x3cda1fd2	0.026626501
39	0xbd5dae54	-0.05412133
40	0xbe293ba6	-0.1652666
41	0xbd012a00	-0.031534195
42	0xbd2104bc	-0.039311156
43	0x3df3c62f	0.11903035
44	0x3b375278	0.002797274
45	0x3c26daf0	0.010184035
46	0xbe008876	-0.12552056
47	0xbdbf7ffb	-0.09350582
48	0xbdd66326	-0.1046813
49	0xbdddc93a	-0.108293965
50	0x3cd178f5	0.025570372
51	0xbd16a37c	-0.036777005
52	0xbe004c20	-0.1252904
53	0x3d8d28ce	0.068925485
54	0xbdac0b4c	-0.08400592
55	0x3be871e7	0.0070936563
56	0x3e0e33b6	0.13886914
57	0xba11724a	-0.00055483414
58	0x3df456bc	0.11930606
59	0xbcadd411	-0.021219285
60	0xbb7cb784	-0.0038561532
61	0xbe223cad	-0.15843458
62	0xbc2b6db6	-0.010463169
63	0xbe0e1029	-0.13873352
64	0xbd65a659	-0.056066845
65	0x3d7ac65a	0.06122432
66	0xbd8540b0	-0.06506479
67	0x3db84833	0.08998146
68	0x3b90766b	0.004408648
69	0x3c1c5b97	0.009543321
70	0xbdea6547	-0.11445098
71	0xbda39d7b	-0.079890214
72	0xbd77b178	-0.06047198
73	0xbe0d722a	-0.13813081
74	0xbd74ad67	-0.05973568
75	0x3d81255b	0.06305953
76	0x3d8a1426	0.06742124
77	0x3df4a3fd	0.11945341
78	0x3df50928	0.11964637
79	0xbe0aef03	-0.13567738
80	0x3e2a7dd0	0.16649556
81	0xbbddd7c1	-0.0067701046
82	0xbde42c8a	-0.11141308
83	0x3ce04b46	0.027379643
84	0x3d9a5b06	0.075368926
85	0x3d947dbb	0.07250544
86	0x3df9a4d7	0.12189644
87	0xbd3fa32c	-0.046786472
88	0x3ca537f2	0.020168278
89	0x3e098930	0.13431239
90	0x3dc07617	0.09397524
91	0xbdde1a71	-0.10844887
92	0xbd83e676	-0.06440441
93	0x3d337be3	0.04381932
94	0x3da032d6	0.07822196
95	0x3ca02082	0.019546751

m_transform.0.12.running_mean f4 [48]
0	0x3ee821d1	0.453383
1	0x3e61a7d5	0.22036679
2	0x3efd6086	0.49487704
3	0x3f50341f	0.8132953
4	0x3ea90f3f	0.33019444
5	0x3e853a9a	0.26021272
6	0x3e9c38d6	0.30512112
7	0x3f0c702b	0.54858655
8	0x3ee648dd	0.44977465
9	0x3ef7076a	0.48247844
10	0x3f056fc6	0.5212368
11	0x3eb22f5b	0.34801754
12	0x3f062a81	0.52408606
13	0x3eb4863b	0.3525866
14	0x3e631bcd	0.22178574
15	0x3e969275	0.29408613
16	0x3e07eccf	0.13273929
17	0x3ea50d2d	0.32236615
18	0x3eb6cf62	0.35705096
19	0x3f059e84	0.52195
20	0x3e8225dd	0.25419512
21	0x3eb84df9	0.35996988
22	0x3eaaf811	0.33392385
23	0x3e85ff2b	0.2617124
24	0x3ea3b1b9	0.3197153
25	0x3edb6f96	0.4285857
26	0x3ef1ab85	0.47201172
27	0x3ebc3287	0.367573
28	0x3f010dac	0.50411487
29	0x3eb63878	0.35589957
30	0x3e876806	0.2644655
31	0x3e7c6837	0.2464913
32	0x3ee0dc53	0.43918094
33	0x3f084710	0.5323343
34	0x3f09dd53	0.5385334
35	0x3ed8989b	0.4230393
36	0x3ead39ce	0.33833164
37	0x3e97fd6d	0.29685536
38	0x3eb286fc	0.3486861
39	0x3ea459e4	0.3209983
40	0x3ea71e7c	0.32640445
41	0x3ed1e0ab	0.4099172
42	0x3f0e2b9f	0.5553531
43	0x3f1dc8ed	0.61634713
44	0x3ee6f7d2	0.45110947
45	0x3eda26c8	0.42607713
46	0x3e940d88	0.28916574
47	0x3f580428	0.8438134

m_transform.0.12.running_var f4 [48]
0	0x3e8cf760	0.27532482
1	0x3e271605	0.16316994
2	0x3e79c154	0.24390155
3	0x3f016ea6	0.5055946
4	0x3e9e9ba4	0.3097812
5	0x3e34804c	0.17627066
6	0x3e089a26	0.13340053
7	0x3ea943e5	0.33059612
8	0x3e752f1e	0.23943755
9	0x3e754712	0.23952892
10	0x3e699ad1	0.22812964
11	0x3e91d4fd	0.2848281
12	0x3ed2bfe7	0.41162035
13	0x3eb7597b	0.35810456
14	0x3e6faba8	0.23405325
15	0x3e29ef78	0.16595256
16	0x3e521629	0.20516266
17	0x3e698ec9	0.22808374
18	0x3f031f70	0.51219845
19	0x3e67d3e5	0.22639425
20	0x3e919782	0.28435904
21	0x3e8358b8	0.25653625
22	0x3eecbb1f	0.46236512
23	0x3e815086	0.25256747
24	0x3e8e8223	0.2783366
25	0x3e8af31f	0.27138612
26	0x3ec5f7f6	0.38665742
27	0x3ea980d8	0.33106112
28	0x3ed0e068	0.40796208
29	0x3de2108b	0.110383116
30	0x3e279385	0.16364868
31	0x3e5ddd5b	0.21666472
32	0x3f062a09	0.5240789
33	0x3f16c77c	0.5889814
34	0x3ef0dccf	0.47043464
35	0x3dfd28f6	0.12361328
36	0x3f004bf8	0.5011592
37	0x3e41a1e1	0.18909408
38	0x3ecf7a60	0.40523052
39	0x3e90214a	0.28150398
40	0x3e30644c	0.1722576
41	0x3e8f826d	0.28029194
42	0x3e9b4afc	0.30330646
43	0x3ebe2705	0.37139145
44	0x3e57ec3f	0.21086214
45	0x3e9a1a47	0.30098173
46	0x3e4c9947	0.19980346
47	0x3ec524df	0.38504693
