Auxillary_Code/LCNN/project/03-asvspoof-mega/lfb-lcnn-attention-sig/01/__pretrained/trained_network.pt (torch, 725636 bytes, 33 tensors)

m_frontend.0.lfcc_fb f4 [257, 60]
0.0 0.0 0.0 0.0 0.0 0.0 0.0 0.0
0.0 0.0 0.0 0.0 0.0 0.0 0.0 0.0
0.0 0.0 0.0 0.0 0.0 0.0 0.0 0.0
0.0 0.0 0.0 0.0 0.0 0.0 0.0 0.0
0.0 0.0 0.0 0.0 0.0 0.0 0.0 0.0
0.0 0.0 0.0 0.0 0.0 0.0 0.0 0.0
0.0 0.0 0.0 0.0 0.0 0.0 0.0 0.0
0.0 0.0 0.0 0.0 0.23828125 0.0 0.0 0.0
0.0 0.0 0.0 0.0 0.0 0.0 0.0 0.0
0.0 0.0 0.0 0.0 0.0 0.0 0.0 0.0
0.0 0.0 0.0 0.0 0.0 0.0 0.0 0.0
0.0 0.0 0.0 0.0 0.0 0.0 0.0 0.0
0.0 0.0 0.0 0.0 0.0 0.0 0.0 0.0
0.0 0.0 0.0 0.0 0.0 0.0 0.0 0.0
0.0 0.0 0.0 0.0 0.0 0.0 0.0 0.0
0.4765625 0.0 0.0 0.0 0.0 0.0 0.0 0.0
0.0 0.0 0.0 0.0 0.0 0.0 0.0 0.0
0.0 0.0 0.0 0.0 0.0 0.0 0.0 0.0
0.0 0.0 0.0 0.0 0.0 0.0 0.0 0.0
0.0 0.0 0.0 0.0 0.0 0.0 0.0 0.0
0.0 0.0 0.0 0.0 0.0 0.0 0.0 0.0
0.0 0.0 0.0 0.0 0.0 0.0 0.0 0.0
0.0 0.0 0.0 0.0 0.71484375 0.0 0.0 0.0
0.0 0.0 0.0 0.0 0.0 0.0 0.0 0.0
0.0 0.0 0.0 0.0 0.0 0.0 0.0 0.0
0.0 0.0 0.0 0.0 0.0 0.0 0.0 0.0
0.0 0.0 0.0 0.0 0.0 0.0 0.0 0.0
0.0 0.0 0.0 0.0 0.0 0.0 0.0 0.0
0.0 0.0 0.0 0.0 0.0 0.0 0.0 0.0
0.0 0.0 0.0 0.0 0.0 0.0 0.0 0.0
0.953125 0.0 0.0 0.0 0.0 0.0 0.0 0.0
0.0 0.0 0.0 0.0 0.0 0.0 0.0 0.0
00000000: 0000 0000 0000 0000 0000 0000 0000 0000
00000010: 0000 0000 0000 0000 0000 0000 0000 0000
00000020: 0000 0000 0000 0000 0000 0000 0000 0000
00000030: 0000 0000 0000 0000 0000 0000 0000 0000
00000040: 0000 0000 0000 0000 0000 0000 0000 0000
00000050: 0000 0000 0000 0000 0000 0000 0000 0000
00000060: 0000 0000 0000 0000 0000 0000 0000 0000
00000070: 0000 0000 0000 0000 0000 0000 0000 0000
00000080: 0000 0000 0000 0000 0000 0000 0000 0000
00000090: 0000 0000 0000 0000 0000 0000 0000 0000
000000a0: 0000 0000 0000 0000 0000 0000 0000 0000
000000b0: 0000 0000 0000 0000 0000 0000 0000 0000
000000c0: 0000 0000 0000 0000 0000 0000 0000 0000
000000d0: 0000 0000 0000 0000 0000 0000 0000 0000
000000e0: 0000 0000 0000 0000 0000 0000 0000 0000
000000f0: 0000 743e 0000 0000 0000 0000 0000 0000
00000100: 0000 0000 0000 0000 0000 0000 0000 0000
00000110: 0000 0000 0000 0000 0000 0000 0000 0000
00000120: 0000 0000 0000 0000 0000 0000 0000 0000
00000130: 0000 0000 0000 0000 0000 0000 0000 0000
00000140: 0000 0000 0000 0000 0000 0000 0000 0000
00000150: 0000 0000 0000 0000 0000 0000 0000 0000
00000160: 0000 0000 0000 0000 0000 0000 0000 0000
00000170: 0000 0000 0000 0000 0000 0000 0000 0000
00000180: 0000 0000 0000 0000 0000 0000 0000 0000
00000190: 0000 0000 0000 0000 0000 0000 0000 0000
000001a0: 0000 0000 0000 0000 0000 0000 0000 0000
000001b0: 0000 0000 0000 0000 0000 0000 0000 0000
000001c0: 0000 0000 0000 0000 0000 0000 0000 0000
000001d0: 0000 0000 0000 0000 0000 0000 0000 0000
000001e0: 0000 f43e 0000 0000 0000 0000 0000 0000
000001f0: 0000 0000 0000 0000 0000 0000 0000 0000
00000200: 0000 0000 0000 0000 0000 0000 0000 0000
00000210: 0000 0000 0000 0000 0000 0000 0000 0000
00000220: 0000 0000 0000 0000 0000 0000 0000 0000
00000230: 0000 0000 0000 0000 0000 0000 0000 0000
00000240: 0000 0000 0000 0000 0000 0000 0000 0000
00000250: 0000 0000 0000 0000 0000 0000 0000 0000
00000260: 0000 0000 0000 0000 0000 0000 0000 0000
00000270: 0000 0000 0000 0000 0000 0000 0000 0000
00000280: 0000 0000 0000 0000 0000 0000 0000 0000
00000290: 0000 0000 0000 0000 0000 0000 0000 0000
000002a0: 0000 0000 0000 0000 0000 0000 0000 0000
000002b0: 0000 0000 0000 0000 0000 0000 0000 0000
000002c0: 0000 0000 0000 0000 0000 0000 0000 0000
000002d0: 0000 373f 0000 0000 0000 0000 0000 0000
000002e0: 0000 0000 0000 0000 0000 0000 0000 0000
000002f0: 0000 0000 0000 0000 0000 0000 0000 0000
00000300: 0000 0000 0000 0000 0000 0000 0000 0000
00000310: 0000 0000 0000 0000 0000 0000 0000 0000
00000320: 0000 0000 0000 0000 0000 0000 0000 0000
00000330: 0000 0000 0000 0000 0000 0000 0000 0000
00000340: 0000 0000 0000 0000 0000 0000 0000 0000
00000350: 0000 0000 0000 0000 0000 0000 0000 0000
00000360: 0000 0000 0000 0000 0000 0000 0000 0000
00000370: 0000 0000 0000 0000 0000 0000 0000 0000
00000380: 0000 0000 0000 0000 0000 0000 0000 0000
00000390: 0000 0000 0000 0000 0000 0000 0000 0000
000003a0: 0000 0000 0000 0000 0000 0000 0000 0000
000003b0: 0000 0000 0000 0000 0000 0000 0000 0000
000003c0: 0000 743f 0000 0000 0000 0000 0000 0000
000003d0: 0000 0000 0000 0000 0000 0000 0000 0000
000003e0: 0000 0000 0000 0000 0000 0000 0000 0000
000003f0: 0000 0000 0000 0000 0000 0000 0000 0000

m_transform.0.0.weight f4 [64, 1, 5, 5]
0.084741496 -0.11180846 -0.031490397 0.08592047 -0.18524255 0.107378475 -0.058588665 0.11606209
0.02612388 -0.015885053 0.047954615 -0.005640995 0.089272015 -0.072777346 -0.0043076444 -0.028883364
0.013529449 0.013204859 0.1704002 0.066120476 -0.084422015 -0.13364592 -0.021775823 -0.08645828
-0.060351174 0.003865134 0.1284131 0.12418212 -0.19218005 0.121768214 0.05067112 0.20389612
0.14871359 -0.18546036 -0.19610986 -0.10364938 0.19042693 -0.017734999 0.08164473 -0.10074728
0.18698503 -0.07075917 0.16516022 0.00028223448 -0.11088508 0.081441365 -0.10916335 0.07071056
-0.05945915 -0.024263507 -0.20011014 -0.08805004 0.11729471 -0.050420817 0.18554194 0.17129435
0.0117614735 -0.11508224 0.119507365 0.04624474 -0.11223811 0.16005103 0.1460655 0.18288618
-0.12449684 -0.01516464 0.025577249 0.061210696 -0.1371753 -0.15247597 0.12649664 -0.016600382
0.1268824 0.021756373 0.053981956 0.0551637 0.069997415 0.10188172 -0.18669674 0.10051066
-0.12576903 -0.15622538 0.01381897 -0.031226983 0.11790116 -0.100780144 -0.18315011 0.15285024
-0.022953374 0.11419417 0.08259588 -0.15334181 0.04828011 0.058153298 -0.12917687 -0.08092534
0.06419287 0.04307915 -0.07763266 -0.05667916 0.15882047 -0.0641746 0.12052666 0.116256714
-0.07300106 -0.19536276 0.16830853 0.02691288 0.1752873 0.09778964 0.023112752 0.11408399
0.19590074 -0.104785115 0.06667083 0.107539594 0.11477343 0.1268732 -0.12039961 -0.10829734
-0.14557238 0.0067138164 0.20954032 -0.09855757 0.14550684 -0.11438842 -0.19316229 -0.048519526
0.11657548 0.18866235 -0.12157964 0.042172134 0.16958036 0.13560222 0.13053332 0.14269985
0.1221947 0.047822583 -0.1329397 -0.15946102 -0.09446486 -0.03142544 -0.12856363 0.07523464
0.06878993 -0.04077272 0.07131513 0.05913496 0.121701345 0.13858256 -0.05663523 0.2093583
-0.0042851716 0.0097632995 -0.18421952 -0.12257706 -0.10589274 -0.07298047 0.14925665 -0.06402478
-0.14540026 0.08620323 0.07301933 0.13419244 -0.10818871 0.039770544 -0.07171377 -0.04306012
-0.16007416 -0.10244012 -0.06706119 0.08478603 0.032351926 0.04043668 0.17801973 0.19282392
0.13824731 -0.0020732307 -0.12018957 0.16543427 -0.0467616 -0.007224923 -0.17422327 -0.011408747
-0.112320475 0.1881666 -0.1661958 -0.15726015 0.02355887 -0.08958024 0.059605572 -0.08272527
-0.10499424 0.028555546 0.150136 -0.16422758 0.08068045 0.11325084 0.20298861 -0.14853562
0.060636356 -0.13840695 0.16783156 -0.06768189 0.12519996 0.012213767 -0.016003959 -0.016736642
0.037629317 0.0943998 0.041200887 0.061657418 -0.18732786 0.1498077 0.17570062 0.17941149
0.15456927 -0.14885291 -0.066667914 0.17669569 -0.13486154 0.19337578 -0.15883808 -0.13336009
0.08795108 -0.1426343 -0.07448497 0.1594634 0.15189272 0.18106706 -0.03958147 -0.18824527
0.20796551 -0.04975654 -0.088793926 0.046711665 -0.1739424 0.14728267 0.12184134 -0.1624963
-0.16383338 -0.04813376 0.10385363 -0.006085857 -0.10199124 0.011280021 -0.20703195 -0.11571369
-0.1296062 0.1710844 0.19207859 -0.06711544 0.005273517 0.08034706 0.0027171772 -0.09057729
00000000: f38c ad3d d5fb e4bd 13fc 00bd 12f7 af3d
00000010: 39b0 3dbe 3fe9 db3d abfa 6fbd f6b1 ed3d
00000020: bf01 d63c 5f21 82bc 0f6c 443d 19d8 b8bb
00000030: 3fd4 b63d 4a0c 95bd 2427 8dbb ce9c ecbc
00000040: 9faa 5d3c 3159 583c 647d 2e3e 2c6a 873d
00000050: 73e5 acbd 7ada 08be 3663 b2bc 0a11 b1bd
00000060: cb32 77bd 304e 7d3b b97e 033e 3253 fe3d
00000070: d9ca 44be 9d61 f93d 858c 4f3d 25ca 503e
00000080: 6048 183e 52e9 3dbe 06d1 48be 2046 d4bd
00000090: 47ff 423e fd48 91bc 5a35 a73d 9754 cebd
000000a0: 0179 3f3e 2fea 90bd c31f 293e dff8 9339
000000b0: b817 e3bd bbca a63d 0991 dfbd b3d0 903d
000000c0: 708b 73bd 43c4 c6bc ace9 4cbe 9453 b4bd
000000d0: 3538 f03d 0f86 4ebd b5fe 3d3e c967 2f3e
000000e0: 32b3 403c 3db0 ebbd 47c0 f43d 206b 3d3d
000000f0: 18dd e5bd 6be4 233e 3292 153e 8446 3b3e
00000100: 33f8 febd 1c75 78bc 6187 d13c 11b8 7a3d
00000110: af77 0cbe a922 1cbe 5688 013e 86fd 87bc
00000120: 76ed 013e 6c3a b23c 2f1c 5d3d 55f3 613d
00000130: ce5a 8f3d 5da7 d03d 6e2d 3fbe 88d8 cd3d
00000140: 99c9 00be 8cf9 1fbe f668 623c bbcf ffbc
00000150: 2a76 f13d d265 cebd b48b 3bbe c684 1c3e
00000160: b708 bcbc a2de e93d 0728 a93d a305 1dbe
00000170: 5dc1 453d 2732 6e3d f146 04be 2fbc a5bd
00000180: 8d77 833d c373 303d dffd 9ebd 6828 68bd
00000190: d5a1 223e f96d 83bd aed6 f63d 0018 ee3d
000001a0: 9481 95bd 2d0d 48be 1259 2c3e 6678 dc3c
000001b0: 847e 333e ef45 c83d f456 bd3c dea4 e93d
000001c0: 349a 483e 9499 d6bd b78a 883d b83d dc3d
000001d0: 550e eb3d 0ceb 013e 1294 f6bd ffca ddbd
000001e0: ed10 15be 93ff db3b bd91 563e 8dd8 c9bd
000001f0: bfff 143e 7a44 eabd 56cc 45be 69bc 46bd
00000200: 20bf ee3d b430 413e bffe f8bd b0bc 2c3d
00000210: 79a6 2d3e 4fdb 0a3e 87aa 053e e91f 123e
00000220: 3741 fa3d 9de1 433d 5821 08be c049 23be
00000230: cb76 c1bd f6b7 00bd 2fa6 03be 9e14 9a3d
00000240: bce1 8c3d 4c01 27bd ab0d 923d 8037 723d
00000250: 8e3e f93d 96e8 0d3e 58fa 67bd 0662 563e
00000260: a06a 8cbb 3ff6 1f3c 0ba4 3cbe ae09 fbbd
00000270: 4bde d8bd c976 95bd bcd6 183e 6d1f 83bd
00000280: cee3 14be 528b b03d 298b 953d be69 093e
00000290: 0b92 ddbd 70e6 223d abde 92bd cf5f 30bd
000002a0: 7bea 23be 20cc d1bd 6157 89bd 4ca4 ad3d
000002b0: 7483 043d efa0 253d ce4a 363e a273 453e
000002c0: b490 0d3e 0adf 07bb f325 f6bd 9a67 293e
000002d0: 1789 3fbd 0cbf ecbb 9667 32be c1eb 3abc
000002e0: 4708 e6bd bfae 403e 3b2f 2abe ce08 21be
000002f0: 88fe c03c d875 b7bd f924 743d de6b a9bd
00000300: 3807 d7bd 52ed e93c 40bd 193e 462b 28be
00000310: cb3b a53d 0ef0 e73d 3fdc 4f3e b919 18be
00000320: d45d 783d 8dba 0dbe 09dc 2b3e ce9c 8abd
00000330: 6b34 003e 401c 483c bc1a 83bc 481b 89bc
00000340: 3321 1a3d af54 c13d 43c2 283d 7d8c 7c3d
00000350: e0d2 3fbe 3167 193e ddea 333e a5b7 373e
00000360: 6847 1e3e e66c 18be 3089 88bd b7ef 343e
00000370: 2519 0abe 4d04 463e 73a6 22be 8c8f 08be
00000380: b21f b43d ba0e 12be 938b 98bd 604a 233e
00000390: c489 1b3e a569 393e 2e20 22bd 5ec3 40be
000003a0: e9f4 543e 84cd 4bbd 97d9 b5bd bb54 3f3d
000003b0: f51d 32be 45d1 163e f487 f93d 6e65 26be
000003c0: f0c3 27be e827 45bd 36b1 d43d de6b c7bb
000003d0: c9e0 d0bd d6cf 383c 2f00 54be 4dfb ecbd
000003e0: 7db7 04be c030 2f3e 40b0 443e d273 89bd
000003f0: 78cd ac3b 008d a43d ab12 323b 9680 b9bd

m_transform.0.0.bias f4 [64]
-0.0078926645 -0.008539575 -0.09753767 0.18269376 0.12012145 -0.12603733 0.15828405 0.19950719
-0.10443005 -0.0101187285 0.20266639 -0.103355296 -0.045482937 -0.124695 0.14709958 0.0110249575
0.07066199 0.13296029 -0.015453708 -0.20644705 0.004381802 0.0032595263 0.08616203 0.074353494
-0.0888805 -0.06567494 0.09243064 0.07152709 0.025117245 0.06435577 0.099079706 -0.16023166
-0.017931782 0.04315052 -0.18702407 0.0019076989 -0.023169495 0.1464746 -0.1684267 0.16952404
-0.1020058 0.10140847 0.1592675 -0.05131915 -0.08690939 -0.040475674 -0.13826466 0.0405368
0.078284 0.0680979 -0.1563874 0.122667454 0.1930194 -0.069783576 0.11401954 -0.004999869
0.07152506 -0.157827 -0.13688345 -0.027606389 -0.15126644 0.0994524 0.16981424 -0.028146155
00000000: 3c50 01bc 93e9 0bbc d4c1 c7bd 1314 3b3e
00000010: 3c02 f63d ee0f 01be 3715 223e 9d4b 4c3e
00000020: 6cdf d5bd 06c9 25bc c787 4f3e f1ab d3bd
00000030: 514c 3abd 1860 ffbd 46a1 163e 06a2 343c
00000040: 3cb7 903d be26 083e 8d31 7dbc db66 53be
00000050: 3895 8f3b c79d 553b b875 b03d a546 983d
00000060: fb06 b6bd 9580 86bd 464c bd3d cc7c 923d
00000070: aec2 cd3c f5cc 833d 4dea ca3d c513 24be
00000080: ace5 92bc 9abe 303d 3d83 3fbe c10b fa3a
00000090: f4cd bdbc 70fd 153e 0d78 2cbe b697 2d3e
000000a0: 6be8 d0bd 3eaf cf3d 0517 233e 0734 52bd
000000b0: 8dfd b1bd d2c9 25bd 4095 0dbe ea09 263d
000000c0: 5d53 a03d e976 8b3d 0524 20be 1339 fb3d
000000d0: e1a6 453e b1ea 8ebd 1483 e93d f1d5 a3bb
000000e0: bb7b 923d 679d 21be 2d2b 0cbe cb26 e2bc
000000f0: 97e5 1abe b3ad cb3d c9e3 2d3e c492 e6bc

m_transform.0.3.weight f4 [64, 32, 1, 1]
0.00083836884 0.04152141 -0.08065104 -0.0035872106 0.050788548 0.1389358 -0.14372924 0.00935947
-0.13427837 -0.006622679 0.0019966399 -0.06642258 0.1133624 0.13013506 -0.07035495 -0.023779025
-0.05451234 0.008700105 0.061815318 0.17522468 -0.16318743 0.10637361 -0.10714642 -0.13981876
0.1373088 -0.04881686 -0.082519345 0.081063345 -0.027488405 -0.15174007 -0.08651199 -0.06883017
-0.028858485 -0.14380167 -0.18512513 0.07917138 -0.17261955 -0.040112656 0.12702227 -0.08778453
-0.13630813 0.025936225 0.13721633 -0.04048705 -0.03358325 0.074224405 0.0033537236 0.016237374
0.068182595 0.06223492 -0.13516812 -0.09202744 0.10205941 0.017040417 0.026424676 0.15673812
0.09250572 0.054781184 0.14857726 -0.15741034 0.0001134514 0.027301038 -0.056353837 -0.102723464
0.05586554 -0.13159938 -0.054447655 0.11888133 -0.058895033 -0.049737897 0.08094102 -0.03486877
0.04415152 -0.20248246 0.10716763 -0.1603488 0.017984916 -0.17245108 -0.13974772 0.1561101
-0.080754094 0.0040595904 0.003999387 0.16445845 0.0641544 0.09437845 -0.06784908 -0.06984251
0.14439872 0.06604797 0.055131115 -0.12784447 -0.12633917 0.039732326 -0.12835512 0.14734657
0.1505312 -0.095085956 -0.12394416 0.15874848 -0.08138554 -0.13034718 -0.12799683 0.011647794
0.015818493 0.12594448 0.123867564 0.07313795 0.036843274 0.14503044 -0.10177322 -0.021905104
0.1305806 -0.098260224 0.12212996 0.079430014 0.049245305 -0.056625035 -0.17051545 0.123906136
0.13048889 -0.122404434 -0.10020237 -0.005839228 0.028205384 -0.02190582 -0.09634408 0.12184293
-0.118171625 0.17624085 0.004531236 0.10481398 0.052328244 0.04147303 0.12511007 -0.021440946
0.0876865 0.05760142 -0.10996586 0.102583274 -0.110482976 0.070719 -0.088422254 0.0339074
-0.020320656 -0.002006532 -0.04338674 0.074518226 0.098532915 -0.18436477 0.13190246 -0.1404768
-0.11143498 0.079965465 0.1315806 0.06308264 -0.13420516 0.051901005 -0.118640326 0.08902986
-0.00044646993 -0.01557099 -0.14051843 0.07968235 0.16777846 -0.12354397 0.04650983 -0.11043608
-0.0646392 0.14898874 -0.1684562 -0.056580372 0.049946323 0.05610528 -0.08390331 -0.092698306
0.031862114 -0.1880839 0.02831598 -0.10766143 -0.046605196 0.14390473 -0.14880106 -0.08460506
-0.13622728 0.08016446 0.117346734 -0.13049056 0.07163521 0.096643776 -0.18544732 0.059915606
0.059759766 -0.037469357 0.118087105 -0.018634725 -0.025109848 0.09547471 -0.17447637 -0.19832546
0.007962308 0.01737732 -0.002228772 -0.119359545 0.119805604 -0.119355716 -0.09463318 -0.14743476
-0.1904364 0.021304753 -0.059271578 0.1216393 0.16653313 0.048005458 0.1399545 -0.108958595
0.07857876 0.09665099 -0.08138425 -0.013909193 -0.17204261 0.03417604 -0.1911985 -0.11579225
-0.12768745 -0.029168315 0.0056843716 -0.14806072 -0.0609224 0.10136634 -0.014086064 0.038567275
-0.062553704 -0.07379341 -0.15839414 0.14781603 -0.019500528 0.07250318 0.09340331 0.1903821
-0.13715495 0.06157688 -0.14197673 0.07659879 -0.11498482 0.058683064 -0.14339526 0.111875325
0.11160378 0.1523065 -0.1609138 0.096606776 -0.099739276 -0.119533665 0.105392426 0.012367699
00000000: fbc5 5b3a 5b12 2a3d 5f2c a5bd 6817 6bbb
00000010: a707 503d 3045 0e3e c22d 13be 7658 193c
00000020: 4580 09be 0f03 d9bb 0fda 023b 9008 88bd
00000030: 8c2a e83d 2042 053e 4216 90bd 3bcc c2bc
00000040: 5548 5fbd e38a 0e3c 0f32 7d3d 196e 333e
00000050: 9b1a 27be 68da d93d 956f dbbd a62c 0fbe
00000060: ae9a 0c3e 30f4 47bd e7ff a8bd 8a04 a63d
00000070: 5d2f e1bc c061 1bbe 332d b1bd d5f6 8cbd
00000080: a168 ecbc bf40 13be 7191 3dbe 9b24 a23d
00000090: 2ec3 30be 2b4d 24bd 2012 023e 60c8 b3bd
000000a0: 5c94 0bbe 3578 d43c 7082 0c3e c0d5 25bd
000000b0: 978e 09bd f702 983d 25ca 5b3b 3e04 853c
000000c0: 51a3 8b3d 0bea 7e3d 8369 0abe e278 bcbd
000000d0: 8604 d13d 5898 8b3c 9078 d83c f57f 203e
000000e0: a473 bd3d 3c62 603d a324 183e 2d30 21be
000000f0: c2ec ed38 6da6 df3c 48d3 66bd ae60 d2bd
00000100: 44d3 643d fdc1 06be 8104 5fbd 0e78 f33d
00000110: eb3b 71bd f7b9 4bbd 68c4 a53d 8ed2 0ebd
00000120: 39d8 343d 9057 4fbe b47a db3d 7a32 24be
00000130: 1a55 933c 0497 30be 071a 0fbe 53db 1f3e
00000140: 6762 a5bd 5006 853b 4a0d 833b cc67 283e
00000150: 6263 833d 7d49 c13d 75f4 8abd 9709 8fbd
00000160: 42dd 133e 2844 873d 2ad1 613d a9e9 02be
00000170: 0e5f 01be 5dbe 223d 866f 03be 05e2 163e
00000180: da24 1a3e 6dbc c2bd 70d6 fdbd f68e 223e
00000190: 76ad a6bd bb79 05be 9a11 03be 64d6 3e3c
000001a0: c995 813c 97f7 003e 47ae fd3d 59c9 953d
000001b0: f9e8 163d dc82 143e 7a6e d0bd 5572 b3bc
000001c0: ecb6 053e a83c c9bd 461f fa3d 34ac a23d
000001d0: 72b5 493d a7ef 67bd 9a9b 2ebe 80c2 fd3d
000001e0: e19e 053e 2daf fabd e636 cdbd ff56 bfbb
000001f0: fa0e e73c d673 b3bc 0c50 c5bd c988 f93d
00000200: f703 f2bd 7b78 343e c37a 943b b6a8 d63d
00000210: 2456 563d a0df 293d db1c 003e eca4 afbc
00000220: fb94 b33d 77ef 6b3d c835 e1bd 2e17 d23d
00000230: e644 e2bd 20d5 903d ba16 b5bd 7ce2 0a3d
00000240: 8177 a6bc 0580 03bb 4bb6 31bd 039d 983d
00000250: a0cb c93d 1eca 3cbe 7011 073e 26d9 0fbe
00000260: 0638 e4bd efc4 a33d 11bd 063e 7931 813d
00000270: 146d 09be 2696 543d b3f9 f2bd 4a55 b63d
00000280: 2e14 eab9 771d 7fbc 10e4 0fbe 8030 a33d
00000290: 1ece 2b3e 9f04 fdbd 1781 3e3d 502c e2bd
000002a0: 8f61 84bd 8190 183e c87f 2cbe d2c0 67bd
000002b0: 8494 4c3d a6ce 653d 80d5 abbd 9cd8 bdbd
000002c0: d981 023d 1199 40be eaf6 e73c 997d dcbd
000002d0: 17e5 3ebd c35b 133e 4e5f 18be 6b45 adbd
000002e0: 2a7f 0bbe 442d a43d 7c53 f03d 519f 05be
000002f0: 7bb5 923d 2ced c53d e7e5 3dbe 116a 753d
00000300: a8c6 743d 7879 19bd a7d7 f13d daa7 98bc
00000310: 2bb3 cdbc 3f88 c33d efa9 32be d415 4bbe
00000320: 5774 023c e25a 8e3c 9710 12bb c772 f4bd
00000330: a45c f53d c570 f4bd 0acf c1bd 23f9 16be
00000340: c201 43be 4e87 ae3c c1c6 72bd 061e f93d
00000350: a987 2a3e 5fa1 443d 3c50 0f3e af25 dfbd
00000360: e7ed a03d f4f0 c53d c9ac a6bd 62e3 63bc
00000370: f02b 30be 2dfc 0b3d 8ac9 43be 7d24 edbd
00000380: 80c0 02be 64f2 eebc f743 ba3b 3b9d 17be
00000390: c489 79bd 2899 cf3d 3cc9 66bc b8f8 1d3d
000003a0: 281c 80bd 0021 97bd 1332 22be 165d 173e
000003b0: 92bf 9fbc 8c7c 943d 3c4a bf3d 86f3 423e
000003c0: 5972 0cbe 0a38 7c3d 5962 11be d4df 9c3d
000003d0: 297d ebbd a75d 703d 35d6 12be e41e e53d
000003e0: 8690 e43d 3cf6 1b3e 96c6 24be c6d9 c53d
000003f0: 1b44 ccbd 11ce f4bd fcd7 d73d e4a1 4a3c

m_transform.0.3.bias f4 [64]
0.050157417 0.123691484 0.068952605 -0.1420467 -0.10034291 0.057569854 -0.05251761 -0.080169104
-0.06941197 -0.121826865 -0.003345411 0.027738594 -0.02498505 -0.10988156 -0.13029093 0.17533104
0.1571846 -0.08251256 -0.13668105 -0.033244222 -0.08817778 -0.15433413 -0.15643778 0.13518596
-0.014561586 0.11583482 0.09713707 -0.020517193 -0.05020685 0.10677006 -0.05166769 -0.12966722
0.060955334 -0.0600101 0.1070936 0.03482656 -0.16124022 -0.073246166 0.01214004 0.031722408
0.052832317 -0.032898642 -0.046093874 -0.01160513 0.081334524 -0.07516806 -0.05004181 0.13329002
0.15920268 0.1267085 0.16778451 -0.120299555 -0.06204187 -0.14788462 -0.049425114 0.10864645
0.13549621 -0.14976957 0.09507166 -0.06275087 0.12668979 0.05200357 -0.104201265 0.12880275
00000000: dd71 4d3d f651 fd3d 0637 8d3d b174 11be
00000010: 9580 cdbd 5ece 6b3d b51c 57bd b32f a4bd
00000020: dd27 8ebd 5d80 f9bd af3e 5bbb 0c3c e33c
00000030: 73ad ccbc 9509 e1bd fc6a 05be fb89 333e
00000040: 00f5 203e 58fc a8bd 1ef6 0bbe 182b 08bd
00000050: 8d96 b4bd c409 1ebe 3a31 20be 306e 0a3e
00000060: b893 6ebc ce3a ed3d cdef c63d ac13 a8bc
00000070: b3a5 4dbd 43aa da3d 80a1 53bd 7cc7 04be
00000080: 4dac 793d 27cd 75bd e453 db3d 4ca6 0e3d
00000090: 281c 25be 1602 96bd 05e7 463c 5bef 013d
000000a0: b366 583d bac0 06bd eecc 3cbd 7123 3ebc
000000b0: b792 a63d b6f1 99bd a4f8 4cbd 2e7d 083e
000000c0: 0706 233e dfbf 013e b4cf 2b3e 9d5f f6bd
000000d0: 9e1f 7ebd 116f 17be fd71 4abd 0882 de3d
000000e0: 85bf 0a3e 325d 19be eeb4 c23d 8783 80bd
000000f0: f8ba 013e b201 553d 7967 d5bd dee4 033e

m_transform.0.5.running_mean f4 [32]
1.1101214 2.1243126 -1.215995 -0.098667726 1.1170007 -0.5597151 -0.028034601 -0.012522271
-1.1625241 0.2684938 -0.07662776 0.58166784 0.17734982 -0.055336796 -0.04127325 0.9494414
-0.050597496 0.36112916 0.0103415875 -0.08050602 -0.016223116 0.8989771 -0.0012404071 0.84604895
-0.3670497 0.73700416 -0.041910335 0.010172809 1.1660546 0.9854065 0.59060526 2.5502017
00000000: 7518 8e3f bdf4 0740 b9a5 9bbf 4e12 cabd
00000010: e1f9 8e3f 7d49 0fbf d2a8 e5bc 362a 4dbc
00000020: 97cd 94bf 0578 893e 04ef 9cbd 2fe8 143f
00000030: 319b 353e d6a8 62bd 240e 29bd 970e 733f
00000040: 523f 4fbd ece5 b83e c36f 293c 57e0 a4bd
00000050: 57e6 84bc 5d23 663f 2895 a2ba aa96 583f
00000060: f0ed bbbe 4eac 3c3f 2caa 2bbd daab 263c
00000070: 4741 953f 9a43 7c3f e831 173f 8136 2340

m_transform.0.5.running_var f4 [32]
0.48498413 1.5204931 0.721723 0.04778653 0.4195691 0.059413258 0.05870921 0.050795604
0.24060267 0.115453795 0.047339316 0.036288057 0.10026379 0.02397551 0.047927015 0.3035524
0.02792761 0.043250587 0.06654939 0.058359515 0.05958711 0.3664121 0.06015317 0.19975796
0.06940883 0.19757676 0.06980002 0.10735692 0.93509793 0.32717484 0.18688157 1.4697118
00000000: d74f f83e 859f c23f d7c2 383f cfbb 433d
00000010: c3d1 d63e 515b 733d 1279 703d 0d0f 503d
00000020: 8c60 763e 0a73 ec3d dfe6 413d c9a2 143d
00000030: 1a57 cd3d 4a68 c43c 1e4f 443d 386b 9b3e
00000040: 71c8 e43c 8727 313d 0c4b 883d 630a 6f3d
00000050: 9d11 743d 5e9a bb3e 2c63 763d 5a8d 4c3e
00000060: 3726 8e3d 9051 4a3e 50f3 8e3d f2dd db3d
00000070: 9462 6f3f 7683 a73e e25d 3f3e 841f bc3f

m_transform.0.6.weight f4 [96, 32, 3, 3]
-0.031926177 -0.025816415 -0.029907951 0.02658459 0.018345552 -0.03384661 -0.032723848 0.008027705
0.026501818 0.030341187 -0.048241347 0.01369705 -0.04895579 -0.009713378 -0.007138681 -0.044042666
0.038571827 -0.039698903 0.012422561 -0.03811252 0.028989734 0.016930105 0.019017065 -0.008723744
-0.029185148 -0.03491334 0.037418015 -0.018171076 -0.014873014 -0.034161873 -0.039112706 -0.011338938
-0.020051267 0.031382132 -0.009927839 0.059087224 0.049215 -0.030063795 0.022306908 -0.053099245
0.009768241 -0.042387992 -0.03570729 0.017985882 0.023021812 -0.013392332 0.00540037 0.027083237
-0.05025483 0.010662093 -0.048028115 -0.007889579 0.060490258 -0.011294052 -0.029563092 -0.05282776
0.021764176 0.015730686 -0.053915773 -0.0558969 0.04972017 -0.059776846 -0.022915214 -0.053914595
-0.06268028 -0.021248104 0.0137067875 -0.07984405 -0.04084084 -0.05311418 -0.022647385 -0.029254358
0.03577925 0.0020984975 0.0034077927 -0.04859765 0.005959179 -0.043564815 -0.053027555 0.024135
-0.052001435 -0.0021950877 0.012807922 -0.011367952 0.03229064 -0.024483787 0.02420155 -0.035942923
-0.057138763 -0.046286907 0.0062426305 0.015666649 -0.013912413 -0.030582307 -0.0035551426 0.008370765
-0.02303393 0.016564429 -0.030461265 -0.046552196 0.0004570323 -0.013152997 -0.070777625 0.042004254
-0.0013202628 0.028301341 0.017961869 -0.036214672 0.022782298 0.019479305 0.019324958 -0.021424467
-0.050803345 -0.011266412 0.03969537 -0.0600573 -0.045010936 -0.019595973 -0.057182755 0.021022791
0.011008263 0.0049481457 0.06971124 0.03061852 0.048189726 0.027884211 0.008432359 0.039855823
0.028743578 0.0018279442 0.002618452 -0.026159693 -0.005776436 0.036915794 0.052323263 0.05457949
-0.03617075 -0.006309546 0.022829536 0.0481549 -0.03528648 -0.04209404 0.03134598 -0.031131955
0.08069303 -0.050053246 0.0360519 0.0065955743 -0.06067653 -0.047293678 0.051372733 -0.027531795
-0.021610014 0.04431035 0.04735361 0.043834187 -0.035004742 0.016464202 0.020777 -0.02048606
0.044867747 -0.011668784 -0.0110783 -0.024729567 -0.025125716 -0.038329713 -0.024937678 -0.02770972
-0.017531354 -0.04399653 0.018062258 -0.0072111604 0.06384667 0.028691994 -0.014596327 0.0765054
-0.0010724855 -0.046525076 0.052628648 -0.02165096 0.042582184 0.04049968 -0.024571614 -0.023068845
0.0089453 0.011183911 0.04372727 -0.0022353234 -0.008914312 0.060049765 0.019357607 -0.047112662
-0.010473022 0.0032560946 0.019014008 -0.049642306 -0.05133534 -0.03112082 0.019810032 0.05216638
-0.04509247 0.033138372 0.013047774 0.053728912 -0.026250727 -0.009403733 0.02384605 -0.049756724
0.042968053 -0.026968483 0.019783152 -0.029027913 0.047271613 0.029400628 0.01653508 -0.024198588
-0.05572385 0.0329895 -0.035696253 -0.0057931924 0.08232541 0.029361218 -0.020231029 0.014392362
0.033961404 -0.046741944 -0.050005693 -0.009067037 0.032404825 -0.036770683 -0.015848072 -0.024782756
0.038869403 -0.0295168 0.00014091346 0.031383224 -0.016575383 0.068067566 -0.023478298 -0.004337942
0.01649335 -0.01935339 -0.03628211 -0.042335715 -0.037615165 0.054197367 0.010052277 -0.009580939
0.023874624 0.004578206 -0.026283564 0.033450197 -0.032952983 -0.042108268 0.041751184 0.031373598
00000000: 06c5 02bd f27c d3bc 8501 f5bc edc7 d93c
00000010: 6949 963c bea2 0abd 7109 06bd a386 033c
00000020: 571a d93c 158e f83c b898 45bd 9769 603c
00000030: de85 48bd dc24 1fbc 99eb e9bb 1566 34bd
00000040: 7efd 1d3d 519b 22bd ff87 4b3c e01b 1cbd
00000050: e17b ed3c 01b1 8a3c adc9 9b3c 09ee 0ebc
00000060: b115 efbc 4a01 0fbd a243 193d 82db 94bc
00000070: f1ad 73bc 52ed 0bbd a534 20bd f4c6 39bc
00000080: 8e42 a4bc 8d8a 003d 60a8 22bc 7205 723d
00000090: ab95 493d 5948 f6bc fabc b63c 987e 59bd
000000a0: f90a 203c 089f 2dbd cf41 12bd 2157 933c
000000b0: 3d98 bc3c 836b 5bbc 96f5 b03b aadd dd3c
000000c0: 02d8 4dbd 0fb0 2e3c 21b9 44bd 4b43 01bc
000000d0: a2c4 773d b00a 39bc 4c2e f2bc ec61 58bd
000000e0: c94a b23c a4dd 803c c9d6 5cbd 26f4 64bd
000000f0: 61a7 4b3d 91d8 74bd b0b8 bbbc 8dd5 5cbd
00000100: 855e 80bd 8110 aebc 6f92 603c 4785 a3bd
00000110: ba48 27bd 418e 59bd 0287 b9bc d6a6 efbc
00000120: 438d 123d f286 093b 4655 5f3b 540e 47bd
00000130: 3745 c33b 0571 32bd 6c33 59bd c3b6 c53c
00000140: 75ff 54bd 76db 0fbb 52d8 513c a640 3abc
00000150: 3143 043d 3992 c8bc 5442 c63c e338 13bd
00000160: 560a 6abd 5797 3dbd fb8e cc3b 5857 803c
00000170: e4f0 63bc bf87 fabc 65fd 68bb 8825 093c
00000180: a7b1 bcbc 20b2 873c e789 f9bc 84ad 3ebd
00000190: d69d ef39 ab7f 57bc dcf3 90bd a70c 2c3d
000001a0: ab0c adba 37d8 e73c c524 933c d655 14bd
000001b0: f1a1 ba3c 1093 9f3c 604f 9e3c 5d82 afbc
000001c0: 2b17 50bd c296 38bc 9d97 223d a5fe 75bd
000001d0: 635d 38bd bc87 a0bc 7738 6abd fd37 ac3c
000001e0: 005c 343c 0e24 a23b c4c4 8e3d b1d3 fa3c
000001f0: 9762 453d 6e6d e43c e127 0a3c dc3f 233d
00000200: a777 eb3c a197 ef3a 569a 2b3b da4c d6bc
00000210: 4248 bdbb 0435 173d eb50 563d be8e 5f3d
00000220: c827 14bd 4fc0 cebb 0205 bb3c 133e 453d
00000230: 8e88 10bd cd6a 2cbd a464 003d 7108 ffbc
00000240: 6342 a53d a204 4dbd 28ab 133d b01f d83b
00000250: f487 78bd 04b7 41bd 376c 523d 5c8a e1bc
00000260: 7c07 b1bc c57e 353d dcf5 413d 7a8b 333d
00000270: 2261 0fbd efdf 863c 8734 aa3c 62d2 a7bc
00000280: 3ec7 373d 6d2e 3fbc c281 35bc a995 cabc
00000290: 72d4 cdbc 9eff 1cbd 1a4a ccbc 7fff e2bc
000002a0: ea9d 8fbc b535 34bd 4df7 933c 994b ecbb
000002b0: 0bc2 823d 790b eb3c 6f25 6fbc ddae 9c3d
000002c0: a492 8cba 1491 3ebd 2391 573d 5b5d b1bc
000002d0: a86a 2e3d fee2 253d 694a c9bc e0fa bcbc
000002e0: 4f8f 123c b93c 373c 5e1b 333d 817e 12bb
000002f0: 560d 12bc bef6 753d d893 9e3c 35f9 40bd
00000300: 0a97 2bbc 3464 553b 44c3 9b3c bb55 4bbd
00000310: 0145 52bd 17f1 febc a648 a23c 6aac 553d
00000320: e2b2 38bd 1abc 073d 55c6 553c d912 5c3d
00000330: c40b d7bc 1d12 1abc cb58 c33c b5cd 4bbd
00000340: 45ff 2f3d 02ed dcbc 4710 a23c f2cb edbc
00000350: e19f 413d 96d9 f03c 9374 873c 1e3c c6bc
00000360: b13e 64bd ff1f 073d 3c36 12bd d2d4 bdbb
00000370: 399a a83d f086 f03c 8bbb a5bc f1cd 6b3c
00000380: 1d1b 0b3d 7b74 3fbd c5d2 4cbd e98d 14bc
00000390: ecba 043d db9c 16bd d1d3 81bc 3505 cbbc
000003a0: 8635 1f3d 37cd f1bc 2bc2 1339 b28b 003d
000003b0: 19c9 87bc 0267 8b3d 8f55 c0bc 4c25 8ebb
000003c0: 101d 873c 008b 9ebc 8d9c 14bd 3768 2dbd
000003d0: 5c12 1abd 0ffe 5d3d 4eb2 243c 5ff9 1cbc
000003e0: b794 c33c c704 963b a150 d7bc 1303 093d
000003f0: b5f9 06bd b879 2cbd 4a03 2b3d 9a81 003d

m_transform.0.6.bias f4 [96]
0.0052149864 0.04329771 -0.045847155 -0.036503002 0.014957844 -0.013621644 0.01856323 0.007741696
-0.04033251 -0.037379045 -0.044162497 -0.060413636 0.059685424 0.02430354 0.06004212 -0.048793744
0.04205722 0.0023425003 -0.006379398 -0.006221677 -0.058039587 0.04782955 0.0178076 0.043277826
0.036565553 -0.03851718 -0.011000467 0.018765103 -0.038214132 -0.041628852 -0.046428945 0.036724478
0.045342688 0.020995894 -0.021933215 0.030307297 3.3532488e-05 0.007557084 -0.038986836 -0.0345947
0.03146384 -0.019905634 -0.037565418 -0.00703812 0.00755517 -0.03188714 -0.008444691 -0.00033551164
0.024626497 0.04351594 0.052175466 0.045806542 -0.05415355 0.022584734 -0.0012256113 0.03172162
0.042964593 0.029341439 0.0010290795 0.07030396 0.023800433 -0.03718029 0.029959884 -0.012391126
0.009128875 -0.035232376 -0.020880198 -0.019794421 -0.028561443 -0.0638998 0.03241135 0.03928142
-0.03780023 0.022164542 0.044565726 -0.04875182 0.022056863 -0.002845712 -0.021155413 -0.035263915
-0.05786951 0.0042970944 0.06353285 -0.044505447 -0.015152941 0.00450029 -0.01639663 -0.0038445976
0.053598356 -0.0031905468 -0.040310528 -0.03380847 -0.036861554 0.051374443 -0.035060253 0.031361796
00000000: 7ae2 aa3b f158 313d 3aca 3bbd 2c84 15bd
00000010: bf11 753c 512d 5fbc ea11 983c 0eae fd3b
00000020: b433 25bd c51a 19bd bce3 34bd 4a74 77bd
00000030: b478 743d 3818 c73c baee 753d f3db 47bd
00000040: 3144 2c3d a284 193b 450a d1bb 36df cbbb
00000050: ebba 6dbd ebe8 433d 3ee1 913c 1744 313d
00000060: c3c5 153d 31c4 1dbd 4e3b 34bc 46b9 993c
00000070: 6c86 1cbd 0483 2abd 472c 3ebd 686c 163d
00000080: 41b9 393d 95ff ab3c 49ad b3bc 0247 f83c
00000090: 3ca5 0c38 6aa1 f73b a9b0 1fbd 2cb3 0dbd
000000a0: 3ae0 003d 2411 a3bc 32de 19bd 08a0 e6bb
000000b0: 5c91 f73b 179c 02bd 9a5b 0abc 9ce7 afb9
000000c0: 82bd c93c c53d 323d f1b5 553d a49f 3b3d
000000d0: 1dd0 5dbd 9f03 b93c b1a4 a0ba 88ee 013d
000000e0: a4fb 2f3d 755d f03c 2ee2 863a 86fb 8f3d
000000f0: 20f9 c23c 5c4a 18bd 6e6e f53c 2604 4bbc
00000100: 4791 153c d34f 10bd f30c abbc e927 a2bc
00000110: b0f9 e9bc e6dd 82bd c4c1 043d 8ee5 203d
00000120: 6ad4 1abd 6a92 b53c 8d8a 363d fdaf 47bd
00000130: 98b0 b43c 207f 3abb 1e4e adbc e570 10bd
00000140: 9408 6dbd a4ce 8c3b 831d 823d 584b 36bd
00000150: 0b44 78bc 2b77 933b 3a52 86bc a5f5 7bbb
00000160: f389 5b3d 7e18 51bb a71c 25bd c07a 0abd
00000170: 24fc 16bd 026e 523d 579b 0fbd 3a75 003d

m_transform.0.9.running_mean f4 [48]
1.0619115 1.2254494 0.6531523 1.0391703 1.2106973 0.86433303 0.89278436 0.8807229
1.2957553 1.2125239 0.9860342 1.2727414 1.1125636 1.8060583 2.0177226 1.142304
1.2324768 0.78499764 1.4082762 1.326961 0.73304623 1.0462674 0.9314526 1.2978275
1.2918106 0.9702846 0.92951196 1.0165612 1.7544154 1.0033852 0.7595699 1.5168058
1.3438499 1.3466661 1.2434925 1.2801334 0.9003121 1.6760107 0.82343715 0.66689247
1.0443239 0.96914554 0.8219359 1.6590247 0.6622094 0.9410251 0.9615164 0.85518986
00000000: b7ec 873f 87db 9c3f fd34 273f 8803 853f
00000010: 21f8 9a3f ee44 5d3f 848d 643f 0e77 613f
00000020: 4fdb a53f fc33 9b3f bd6c 7c3f 31e9 a23f
00000030: 7c68 8e3f eb2c e73f 5e22 0140 0437 923f
00000040: cdc1 9d3f 9bf5 483f 6542 b43f dcd9 a93f
00000050: eba8 3b3f 17ec 853f ad73 6e3f 361f a63f
00000060: 0d5a a53f 9264 783f 7ff4 6d3f ad1e 823f
00000070: af90 e03f ed6e 803f 2c73 423f b126 c23f
00000080: 4603 ac3f 8e5f ac3f c32a 9f3f 69db a33f
00000090: db7a 663f 8587 d63f c7cc 523f 77b9 2a3f
000000a0: 68ac 853f ec19 783f 646a 523f ec5a d43f
000000b0: 8e86 293f 05e7 703f f025 763f b9ed 5a3f

m_transform.0.9.running_var f4 [48]
0.5446064 0.41898623 0.8470828 1.7334601 0.5302846 1.5353622 1.5948759 0.6356914
2.5047321 0.54963714 0.45083943 0.7529765 2.2892618 1.0160176 3.3381164 0.36135995
0.69521475 0.57043135 0.7192807 0.8034469 1.2449332 0.8505394 0.39178213 0.70736635
0.7926921 0.97320557 1.1165994 0.44663432 0.78344834 0.88514924 0.8978452 2.3419702
0.5637657 0.4942774 0.6592361 1.4684528 0.5173471 1.7292696 1.4261857 0.6137303
1.5385056 0.43408456 1.0152931 1.0644317 1.2313609 0.7940421 0.5889801 1.3555089
00000000: 536b 0b3f 5d85 d63e 6bda 583f 05e2 dd3f
00000010: bbc0 073f c086 c43f e524 cc3f acbc 223f
00000020: 884d 2040 05b5 0c3f 6dd4 e63e 11c3 403f
00000030: 4483 1240 dd0c 823f b3a3 5540 2c04 b93e
00000040: 98f9 313f ca07 123f c822 383f b2ae 4d3f
00000050: f959 9f3f f3bc 593f ab97 c83e f615 353f
00000060: dfed 4a3f 0024 793f bbec 8e3f 41ad e43e
00000070: 1290 483f 2499 623f 2fd9 653f d7e2 1540
00000080: f352 103f ed11 fd3e b2c3 283f 43f6 bb3f
00000090: dc70 043f b558 dd3f 418d b63f 6e1d 1d3f
000000a0: c0ed c43f 5540 de3e 20f5 813f 4c3f 883f
000000b0: 3c9d 9d3f 5846 4b3f 66c7 163f 5181 ad3f

m_transform.0.10.weight f4 [96, 48, 1, 1]
-0.045319594 -0.11631651 -0.06724018 -0.06278659 0.11041002 -0.034192048 0.007601355 0.13332556
0.04427326 -0.1351435 0.12814936 -0.039259207 -0.050790537 0.10601197 -0.0050100326 -0.12028346
0.08512851 0.10130268 0.11233054 0.08221822 -0.019139167 -0.0333832 0.02853082 0.07935525
0.057641085 0.09163169 -0.0037891602 -0.011072775 0.14412914 0.058410257 0.0691524 0.051569402
-0.053217653 0.03863543 -0.10242982 -0.054105915 -0.14708063 -0.061957758 0.009706663 0.0023169927
0.16441557 0.12484592 -0.11277198 0.08822284 0.11375721 -0.022504773 0.10802796 -0.15715341
0.0050891857 0.043657523 -0.067604646 -0.10443264 0.11017048 -0.1376759 -0.03997343 -0.09774695
-0.07269039 -0.020162666 0.07772032 0.11484399 -0.0034291623 -0.09688776 -0.0073496215 -0.019617159
0.13646807 -0.118199475 -0.13491854 -0.08826602 -0.061845798 -0.124624126 0.03464851 -0.032584872
0.15563516 0.050495718 0.06766969 0.1459185 -0.120337784 0.022500373 -0.06438985 0.008465687
0.026456395 0.060113806 -0.054591253 -0.03879517 0.02700439 -0.08010181 -0.06962889 0.065297335
0.022108877 -0.1561515 -0.113951325 -0.09826922 0.0541663 0.07329134 0.10634703 0.011071533
0.06528729 -0.14939447 -0.09729472 -0.044274878 0.004522815 0.07343946 -0.07456564 -0.18016684
-0.075114235 -0.082189925 -0.072252735 0.0056073717 -0.09637628 0.08199991 0.057297092 0.12280708
-0.052596502 0.035236605 -0.020527001 -0.07231677 0.032477673 -0.10290327 -0.048805103 -0.062700726
-0.14328459 0.10352963 0.109425105 -0.027201273 0.008589703 -0.043502133 0.022077553 -0.10599533
0.110812604 -0.0008902208 0.07481087 -0.034680273 -0.11461135 -0.0039924984 -0.085782066 0.1128512
-0.04884435 0.08535576 0.029863978 -0.054414768 0.07825019 0.032933492 -0.106196746 0.02945201
0.13602802 -0.09178044 0.08456606 0.12636316 -0.09201483 -0.06995405 -0.0065342383 0.109283894
-0.051098146 0.15881382 -0.13284867 0.052955303 0.048000965 0.06408039 0.052837793 0.021586217
-0.019395052 -0.019610446 0.029934239 -0.09605443 0.057781074 -0.10916287 0.0013797446 -0.09568576
-0.14024471 -0.044747427 0.044417094 -0.058755316 -0.058014363 0.15512727 0.04385516 0.060403164
-0.04532623 0.114847526 -0.14823808 0.013924119 -0.07723098 0.009758794 0.0623928 -0.12987106
0.0031110642 0.067316055 0.13143933 -0.07365449 0.023749977 -0.083334446 0.0648633 0.13019529
0.05003244 -0.06689405 -0.065449424 0.09441033 -0.13095784 0.010776636 0.0051100785 0.09510057
-0.04707917 0.10289081 0.010384297 -0.0016415863 -0.027233507 -0.15808506 -0.07483625 -0.043598287
0.043955717 -0.042701088 -0.09389791 -0.10845403 -0.13813616 -0.09757302 -0.10691446 0.05126451
0.03432237 -0.05454773 0.0637167 0.026083227 0.1058184 0.022694796 7.291183e-05 0.12710643
-0.026894197 0.07589161 -0.08558242 0.006637474 -0.09374884 0.0891378 0.06842641 -0.03716815
-0.1373086 0.11944932 -0.0079215625 0.07527685 0.04143366 0.015552097 -0.05694928 -0.15418006
0.03108019 -0.053628962 -0.08907384 0.098662384 -0.053917784 0.08914886 0.04957428 0.09655493
0.058244787 0.007649575 -0.006702334 -0.11830569 0.11757307 0.019906472 -0.083317265 0.020748787
00000000: 0aa1 39bd 5a37 eebd 38b5 89bd 4196 80bd
00000010: a61e e23d f60c 0cbd ca14 f93b 7f86 083e
00000020: e157 353d 0f63 0abe 9639 033e 43ce 20bd
00000030: bd09 50bd ce1c d93d 332b a4bb 2d57 f6bd
00000040: db57 ae3d c877 cf3d 8e0d e63d 0762 a83d
00000050: bec9 9cbc d3bc 08bd 77b9 e93c 0185 a23d
00000060: 0f19 6c3d 65a9 bb3d 8f53 78bb 966a 35bc
00000070: 9796 133e 983f 6f3d c69f 8d3d 703a 533d
00000080: c1fa 59bd 2f40 1e3d bac6 d1bd 2a9e 5dbd
00000090: 4e9c 16be 6bc7 7dbd b208 1f3c b0d8 173b
000000a0: 8e5c 283e 38af ff3d fff4 e6bd 2dae b43d
000000b0: 8af9 e83d ee5b b8bc c33d dd3d d3ec 20be
000000c0: 2fc3 a63b 3bd2 323d 4e74 8abd c8e0 d5bd
000000d0: 10a1 e13d e9fa 0cbe 2ebb 23bd 8e2f c8bd
000000e0: b3de 94bd 2d2c a5bc d52b 9f3d 5333 eb3d
000000f0: ccbb 60bb 176d c6bd 18d5 f0bb 2ab4 a0bc
00000100: 49be 0b3e 9112 f2bd 1628 0abe d1c4 b4bd
00000110: 0552 7dbd ef3a ffbd 99eb 0d3d b777 05bd
00000120: d35e 1f3e 99d4 4e3d 6896 8a3d a96b 153e
00000130: a873 f6bd b452 b83c d3de 83bd aab3 0a3c
00000140: 15bb d83c e539 763d 149b 5fbd afe7 1ebd
00000150: 4f38 dd3c 6b0c a4bd 9799 8ebd 9cba 853d
00000160: ad1d b53c 2ee6 1fbe 505f e9bd 5f41 c9bd
00000170: 7bdd 5d3d c519 963d 79cc d93d 6065 353c
00000180: 58b5 853d ddfa 18be 7442 c7bd 9359 35bd
00000190: 1f34 943b 6d67 963d dfb5 98bd a87d 38be
000001a0: 7ed5 99bd 3153 a8bd 3ef9 93bd 0bbe b73b
000001b0: ed60 c5bd 92ef a73d 5bb0 6a3d 4782 fb3d
000001c0: 6e6f 57bd 4254 103d 3e28 a8bc d11a 94bd
000001d0: 4f07 053d f3be d2bd dce7 47bd 3d69 80bd
000001e0: 32b9 12be 5807 d43d 451a e03d 34d5 debc
000001f0: d3bb 0c3c 4b2f 32bd fcdb b43c 1414 d9bd
00000200: b8f1 e23d b55d 69ba 7136 993d e70c 0ebd
00000210: 5bb9 eabd 81d3 82bb 82ae afbd 881e e73d
00000220: 0311 48bd 00cf ae3d 4da5 f43c 05e2 5ebd
00000230: a341 a03d 45e5 063d ae7d d9bd 5745 f13c
00000240: ee4a 0b3e 62f7 bbbd f830 ad3d 5865 013e
00000250: 4572 bcbd 1244 8fbd 2a1d d6bb 3cd0 df3d
00000260: 4a4c 51bd 17a0 223e 7b09 08be a9e7 583d
00000270: a99c 443d 943c 833d 716c 583d 94d5 b03c
00000280: 5fe2 9ebc 16a6 a0bc a638 f53c 2fb8 c4bd
00000290: d9ab 6c3d c890 dfbd 8cd8 b43a e5f6 c3bd
000002a0: 4f9c 0fbe 1449 37bd b3ee 353d 6aa9 70bd
000002b0: 78a0 6dbd afd9 1e3e 78a1 333d 4f69 773d
000002c0: ffa7 39bd 2e35 eb3d b9cb 17be fd21 643c
000002d0: 472b 9ebd 59e3 1f3c 988f 7f3d ebfc 04be
000002e0: ffe2 4b3b 00dd 893d 0898 063e 2ad8 96bd
000002f0: 508f c23c 40ab aabd 0dd7 843d ea51 053e
00000300: d1ee 4c3d bfff 88bd 590a 86bd 345a c13d
00000310: d019 06be 7d90 303c 7272 a73b 16c4 c23d
00000320: 16d6 40bd 6bb8 d23d e622 2a3c 7f2a d7ba
00000330: ce18 dfbc 0de1 21be bf43 99bd 1e94 32bd
00000340: e90a 343d 56e7 2ebd 8c4d c0bd 251d debd
00000350: 9173 0dbe 5dd4 c7bd f8f5 dabd bcfa 513d
00000360: 9d95 0c3d 716d 5fbd e77d 823d 7eac d53c
00000370: 51b7 d83d 70ea b93c 3ee8 9838 3028 023e
00000380: 3851 dcbc 0f6d 9b3d d645 afbd 2b7f d93b
00000390: 64ff bfbd e18d b63d 2523 8c3d a13d 18bd
000003a0: a09a 0cbe d8a1 f43d 71c9 01bc c02a 9a3d
000003b0: 57b6 293d 39ce 7e3c a643 69bd 61e1 1dbe
000003c0: e29b fe3c 0baa 5bbd 586c b6bd 810f ca3d
000003d0: e5d8 5cbd ad93 b63d 660e 4b3d 97be c53d
000003e0: 1692 6e3d 49a9 fa3b 419f dbbb 414a f2bd
000003f0: 26ca f03d e612 a33c 3ea2 aabd 5cf9 a93c

m_transform.0.10.bias f4 [96]
-0.030714525 -0.032760397 0.11590099 -0.013429584 0.13329442 -0.06278736 0.08038568 -0.14723241
0.025824498 0.079320006 -0.059526358 0.10733491 0.14093255 0.12108993 -0.14931569 0.13365377
-0.046904817 -0.042450406 0.030296395 0.05477451 -0.13914193 0.09995766 0.15533586 0.07534176
-0.009054632 -0.068871185 0.03142274 -0.012867637 0.07176632 0.113338664 0.088144116 -0.10689431
0.14523864 -0.03309647 0.066391334 -0.07230879 0.041219622 -0.009523986 0.04443024 -0.13722208
0.10349218 -0.12529683 0.03668877 -0.058359116 0.07883882 0.12833418 -0.06155019 0.11248609
0.097646184 0.08165848 -0.12518 0.034853965 -0.10076062 0.12514661 0.05938229 -0.041647255
0.029746298 0.005615931 0.0641048 -0.10120229 -0.121904254 -0.13744292 0.044679448 -0.037042607
-0.080046706 0.082314976 -0.0032940558 0.11408072 -0.02894863 0.02447256 0.115820885 0.0356429
0.06929018 0.07459494 0.10841445 0.124461055 0.047184877 -0.15996695 -0.11966843 0.10607102
-0.073934846 0.12087149 -0.0016810301 -0.14777401 0.076924495 0.060329743 0.02864483 0.09458053
-0.12109351 -0.0458162 0.0032825628 0.010181196 -0.07371047 0.13251139 0.029016227 0.12075335
00000000: 079d fbbc c42f 06bd 805d ed3d c207 5cbc
00000010: 557e 083e a996 80bd 3fa1 a43d 18c4 16be
00000020: e68d d33c 8772 a23d e9d1 73bd 68d2 db3d
00000030: 9f50 103e fffd f73d 36e6 18be 89dc 083e
00000040: 441f 40bd 7ae0 2dbd 2530 f83c 3d5b 603d
00000050: 397b 0ebe 9ab6 cc3d 5d10 1f3e c84c 9a3d
00000060: e159 14bc 560c 8dbd 22b5 003d c8d2 52bc
00000070: 38fa 923d 1a1e e83d e784 b43d 67eb dabd
00000080: 70b9 143e 2a90 07bd 2ef8 873d a216 94bd
00000090: e8d5 283d 7e0a 1cbc 7cfc 353d f283 0cbe
000000a0: b5f3 d33d d04d 00be f746 163d f809 6fbd
000000b0: 3f76 a13d 096a 033e 0d1c 7cbd 1b5f e63d
000000c0: b9fa c73d 903c a73d 302f 00be 08c3 0e3d
000000d0: 955b cebd 6f26 003e d83a 733d 5096 2abd
000000e0: 82ae f33c d805 b83b 6149 833d 2543 cfbd
000000f0: f0a8 f9bd d6bd 0cbe cc01 373d fdb9 17bd
00000100: 87ef a3bd c194 a83d 16e1 57bb 27a3 e93d
00000110: ad25 edbc ae7a c83c 8033 ed3d 4afe 113d
00000120: 03e8 8d3d 3bc5 983d 6508 de3d 70e5 fe3d
00000130: ee44 413d 60ce 23be b914 f5bd c33b d93d
00000140: 276b 97bd 798b f73d 0356 dcba 1252 17be
00000150: 978a 9d3d 521c 773d 90a8 ea3c 70b3 c13d
00000160: e0ff f7bd c5a9 3bbd 4420 573b 08cf 263c
00000170: 84f5 96bd 11b1 073e 70b3 ed3c 884d f73d

m_transform.0.12.running_mean f4 [48]
0.44941378 0.34116215 0.38176972 0.4705189 0.37561175 0.37567234 0.36786366 0.3264189
0.45336804 0.5080018 0.32436222 0.322298 0.3648337 0.25162324 0.21256849 0.32694376
0.2166683 0.29049894 0.31257266 0.44682303 0.31221592 0.41053692 0.6968035 0.29749602
0.2941954 0.3264776 0.5411071 0.26754326 0.40981108 0.25153747 0.35592046 0.38745004
0.36701655 0.47313738 0.2968184 0.31165344 0.2901948 0.33997965 0.51999426 0.34910348
0.38299617 0.3173579 0.35064957 0.39364496 0.46835652 0.40240178 0.40713903 0.43952546
00000000: 9019 e63e ceac ae3e 5277 c33e dae7 f03e
00000010: 2f50 c03e 2058 c03e a058 bc3e 6120 a73e
00000020: db1f e83e 680c 023f ce12 a63e 3e04 a53e
00000030: 7ccb ba3e c3d4 803e 8eab 593e 2c65 a73e
00000040: 4bde 5d3e 47bc 943e 8609 a03e fdc5 e43e
00000050: c4da 9f3e e531 d23e b761 323f 6651 983e
00000060: c8a0 963e 1228 a73e ff85 0a3f 6efb 883e
00000070: c2d2 d13e 85c9 803e 353b b63e da5f c63e
00000080: 98e9 bb3e 103f f23e 95f8 973e 0a91 9f3e
00000090: 6a94 943e d011 ae3e 581e 053f b1bd b23e
000000a0: 1318 c43e bc7c a23e 5788 b33e d58b c93e
000000b0: 6dcc ef3e 9b07 ce3e 8774 d03e 7b09 e13e

m_transform.0.12.running_var f4 [48]
0.15817112 0.20254084 0.3051509 0.22768465 0.20453937 0.33524576 0.33549005 0.24021691
0.19875173 0.1948174 0.2990966 0.26950297 0.3917751 0.44881764 0.4297407 0.27051723
0.26704228 0.43443412 0.14614622 0.16063799 0.17641364 0.1441802 0.27196988 0.22227648
0.18751876 0.16117911 0.2728691 0.22511259 0.2917049 0.43983218 0.16011277 0.16847257
0.42611313 0.27856138 0.25520772 0.22900555 0.19634154 0.13903745 0.26132506 0.19109443
0.3018632 0.343037 0.1833483 0.3065391 0.22581492 0.24891743 0.42098132 0.16339959
00000000: 9cf7 213e de66 4f3e bd3c 9c3e 2a26 693e
00000010: c572 513e 55a5 ab3e 5ac5 ab3e 6cfb 753e
00000020: 9385 4b3e 367e 473e 3123 993e 4bfc 893e
00000030: bf96 c83e 6dcb e53e f906 dc3e 3c81 8a3e
00000040: c4b9 883e 266e de3e 5ba7 153e 497e 243e
00000050: c7a5 343e f9a3 133e a33f 8b3e 729c 633e
00000060: eb04 403e 230c 253e 80b5 8b3e ea83 663e
00000070: 585a 953e af31 e13e 9af4 233e 1384 2c3e
00000080: 802b da3e 999f 8e3e 96aa 823e 6e80 6a3e
00000090: c20d 493e d55f 0e3e 66cc 853e 42ae 433e
000000a0: d08d 9a3e 8ca2 af3e a8bf 3b3e b1f2 9c3e
000000b0: 073c 673e 36e4 7e3e dd8a d73e 3952 273e

m_transform.0.13.weight f4 [128, 48, 3, 3]
0.0088228425 0.03855614 -0.008846194 0.018313685 0.021710606 -0.04787881 -0.00876838 -0.010413905
-0.027612116 -0.032541182 0.0113262925 -0.015819546 -0.03721254 0.040886123 -0.011605956 0.037033852
-0.020649789 0.04457246 0.024957974 0.016278695 -0.011036816 0.024423247 0.0041473447 0.008594621
0.033231985 0.02653705 -0.05168508 -0.016978625 -0.020584177 0.02003505 -0.02310169 -0.048483532
-0.03676865 0.026351089 -0.012964513 0.05021369 0.049095064 0.010467338 -0.051840615 0.0030313774
0.04614047 -0.018644042 0.059064258 0.042451452 -0.01739787 -0.006924019 -0.018573519 0.029490871
-0.02141201 -0.026654717 0.046271835 -0.03996111 -0.025944836 0.03714412 -0.023780921 0.02020013
0.038991395 0.0013941205 0.027873402 0.011928072 0.0072207926 -0.0089716595 -0.018231634 -0.05438262
-0.037973218 -0.053488042 -0.049027584 -0.029743873 -0.008036138 -0.03284414 0.047256857 -0.049211804
0.039171703 0.03940551 0.012514305 0.045865934 0.027273858 -0.019361937 -0.043159388 -0.04405953
0.008338552 0.013752164 0.039656863 0.028229455 0.03597294 0.033350263 0.03298377 0.037665445
-0.015138726 -0.007993887 -0.016278286 -0.020461513 0.0334415 0.019030375 0.07842138 0.033338852
-0.05720663 0.040577605 0.04987172 -0.023894543 -0.04980162 0.052854855 -0.017493313 -0.016064622
0.0130209485 0.023710636 -0.028430656 0.036189917 0.024354633 0.00034583377 -0.036618706 0.067079626
0.033067606 0.0065012807 0.009638822 0.024801454 -0.037065428 -0.032795344 -0.030094447 -0.04776878
-0.03197431 -0.027558662 0.02635344 0.007608359 0.009218163 -0.008662214 0.061190117 -0.0023646932
0.011648512 0.0077569876 0.014841983 -0.0144417705 0.008764668 -0.01576214 -0.009744716 -0.04610437
0.023680337 -0.011894055 -0.033085607 -0.037263248 -0.031060636 -0.0033569552 -0.031763002 0.045053184
-0.03399811 0.022331052 5.3052743e-05 0.06310845 -0.02254481 0.037079565 0.03762494 0.0076961503
0.021729127 -0.03202111 0.05476705 -0.028522968 -0.0015749112 -0.027200092 0.007211069 -0.002287145
-0.0065901135 0.009635419 0.0031753355 0.07310689 0.061278258 -0.014043892 0.03213748 0.00599394
-0.03092993 0.0155658135 0.035705056 0.03421557 0.049672876 -0.035597187 -0.010924662 0.01031142
-0.013856604 0.038447596 0.016186703 0.029403044 0.0089494875 -0.044611104 0.0065345555 0.03786148
-0.032414973 -0.041395124 0.026802445 -0.02976174 -0.030418126 -0.035683013 -0.01495096 -0.04484215
-0.0043334663 -0.02340789 -0.011163037 0.007621276 -0.048095528 -0.05007536 0.00021144847 0.020015404
-0.013865758 -0.01942728 -0.015745657 0.00886665 0.050688438 0.06034278 0.01812145 0.016059896
-0.030589359 -0.0060580354 0.020977486 0.006670979 -0.022749782 0.043997284 0.026681708 0.04083546
0.006744876 0.0026217673 -0.00968157 -0.018152012 -0.024393406 0.019864503 0.017822312 -0.028680399
-0.033313617 -0.005285631 0.05199446 0.02515958 -0.0059394734 0.028109135 0.013366873 -0.015612827
-0.012533078 0.0055948547 0.050796416 0.035022028 -0.048153482 0.026883025 0.009761461 0.020739267
0.057750314 -0.013359276 -0.05107969 0.011245251 -0.035451792 -0.029042192 -0.0241267 -0.019167304
-0.0057951245 -0.028788242 -0.03352802 0.02546787 -0.019426513 -0.038252804 -0.042083967 0.011816759
00000000: af8d 103c 0bed 1d3d a0ef 10bc 9506 963c
00000010: 71da b13c 921c 44bd 40a9 0fbc 159f 2abc
00000020: ce32 e2bc e749 05bd ea91 393c fe97 81bc
00000030: 2d6c 18bd 3578 273d e826 3ebc cfb0 173d
00000040: bf29 a9bc 9d91 363d aa74 cc3c e65a 853c
00000050: c3d3 34bc 4313 c83c 73e6 873b 74d0 0c3c
00000060: 431e 083d 3a64 d93c bcb3 53bd c216 8bbc
00000070: 26a0 a8bc 8c20 a43c c13f bdbc ab96 46bd
00000080: b99a 16bd 3dde d73c 1c69 54bc dfac 4d3d
00000090: e817 493d 337f 2b3c d356 54bd 13aa 463b
000000a0: cafd 3c3d 64bb 98bc 5ded 713d 93e1 2d3d
000000b0: fa85 8ebc e2e2 e2bb 7e27 98bc d796 f13c
000000c0: 3d68 afbc fe5a dabc 8987 3d3d 43ae 23bd
000000d0: 448a d4bc 6f24 183d 35d0 c2bc be7a a53c
000000e0: 71b5 1f3d ecba b63a c356 e43c f66d 433c
000000f0: 669c ec3b defd 12bc 825a 95bc 4fc0 5ebd
00000100: ce89 1bbd 4716 5bbd 26d1 48bd 6ca9 f3bc
00000110: 01aa 03bc 9487 06bd 6890 413d 5192 49bd
00000120: 8272 203d ac67 213d cd08 4d3c ebdd 3b3d
00000130: 6d6d df3c ed9c 9ebc e6c7 30bd c477 34bd
00000140: 6c9e 083c c250 613c 3c6f 223d 7541 e73c
00000150: 5d58 133d 499a 083d fd19 073d 1547 1a3d
00000160: 6b08 78bc cbf8 02bc 0a5a 85bc e79e a7bc
00000170: f4f9 083d 97e5 9b3c 639b a03d 528e 083d
00000180: 8051 6abd b434 263d 4a46 4c3d 7dbe c3bc
00000190: c9fc 4bbd 557e 583d 234e 8fbc f499 83bc
000001a0: d155 553c cf3c c23c 68e7 e8bc e13b 143d
000001b0: 5e83 c73c 0651 b539 7ffd 15bd 0b61 893d
000001c0: e671 073d b208 d53b 26ec 1d3c 6b2c cb3c
000001d0: ebd1 17bd 6954 06bd a188 f6bc 32a9 43bd
000001e0: 7ef7 02bd b4c2 e1bc 2be3 d73c 8b4f f93b
000001f0: c707 173c f5eb 0dbc 7da2 7a3d f8f8 1abb
00000200: 67d9 3e3c 542e fe3b ca2b 733c 2d9d 6cbc
00000210: af99 0f3c 9a1f 81bc 4da8 1fbc f0d7 3cbd
00000220: 44fd c13c 48df 42bc c684 07bd 59a1 18bd
00000230: e072 febc 5d00 5cbb ec19 02bd b089 383d
00000240: 9a41 0bbd 9cef b63c f384 5e38 013f 813d
00000250: e5af b8bc bee0 173d 9c1c 1a3d fd2f fc3b
00000260: 4801 b23c 9128 03bd 6a53 603d 00a9 e9bc
00000270: 406d ceba bad2 debc d54a ec3b ede3 15bb
00000280: e1f1 d7bb e0dd 1d3c 4a19 503b 11b9 953d
00000290: e9fe 7a3d 5a18 66bc 97a2 033d d068 c43b
000002a0: c460 fdbc c107 7f3c 773f 123d a025 0c3d
000002b0: c975 4b3d 5bce 11bd 5bfd 32bc 3bf1 283c
000002c0: cf06 63bc 3a7b 1d3d fa99 843c a7de f03c
000002d0: dfa0 123c 22ba 36bd d31f d63b a414 1b3d
000002e0: 90c5 04bd ef8d 29bd cd90 db3c e4ce f3bc
000002f0: 6f2f f9bc 5a28 12bd dff4 74bc 67ac 37bd
00000300: c0ff 8dbb e7c1 bfbc 2ce5 36bc e6bb f93b
00000310: d1ff 44bd d21b 4dbd 44b8 5d39 58f7 a33c
00000320: 342d 63bc f625 9fbc 09fd 80bc 6d45 113c
00000330: ae9e 4f3d fe29 773d 6f73 943c 0b90 833c
00000340: 8996 fabc 7c82 c6bb fad8 ab3c 3a98 da3b
00000350: c05d babc 7f36 343d 9993 da3c 1543 273d
00000360: 1f04 dd3b f5d1 2b3b 739f 1ebc 87b3 94bc
00000370: aed4 c7bc e2ba a23c 1900 923c 28f3 eabc
00000380: dc73 08bd 1633 adbb 25f8 543d 771b ce3c
00000390: ea9f c2bb 2145 e63c bb00 5b3c f1cc 7fbc
000003a0: 8a57 4dbc 0b55 b73b e70f 503d 4273 0f3d
000003b0: 963c 45bd ca39 dc3c 89ee 1f3c 65e5 a93c
000003c0: 988b 6c3d dde0 5abc f038 51bd 003e 383c
000003d0: e635 11bd e4e9 edbc 5ba5 c5bc c004 9dbc
000003e0: 07e5 bdbb 52d5 ebbc ad54 09bd ffa1 d03c
000003f0: 5a24 9fbc f9ae 1cbd 3d60 2cbd 149b 413c
