Auxillary Code/LCNN/project/03-asvspoof-mega/spec2-lcnn-attention-sig/04/__pretrained/trained_network.pt (torch, 710843 bytes, 33 tensors)

m_transform.0.0.weight f4 [257, 60]
000000 27 e4 ce 3c 7c 01 86 3d 69 45 4f 3b a8 84 45 bb
       0.025255276 0.06543252 0.0031627065 -0.0030138884
000010 5f 8f a7 3a 5b cb 28 bd 8d ad 2d 3b 25 1f 3f bc
       0.0012783817 -0.04120956 0.002650115 -0.01166514
000020 78 94 b8 3c e5 51 2c 3c 22 c8 ec bb 6f 22 96 bc
       0.022531733 0.010517572 -0.007226006 -0.018326966
000030 b9 5a 8d 3c 0d 03 0c 3d fc ab f6 bb 7b be ec 3b
       0.017255174 0.034182597 -0.0075278264 0.0072248555
000040 2d 01 d2 3c f2 0d 80 bc 4e b8 3a 3d 6a 90 b9 bc
       0.025635326 -0.01563165 0.045585923 -0.02265187
000050 a4 90 55 3c 25 62 80 bb ac 57 73 bb 97 b1 87 3c
       0.013034973 -0.0039179497 -0.0037131114 0.016564174
000060 8f 4e 12 bd 7b f4 0e bb 73 23 80 bc 2d aa b0 3b
       -0.03571945 -0.0021813202 -0.015641904 0.0053913803
000070 04 60 ad bb 0b ff e0 3b 0d 97 fc 3c 25 91 9d 3b
       -0.005290987 0.006866341 0.030833745 0.0048085623
000080 00 4a d0 3c 86 9f be bb e9 6b de ba 83 1d 17 bd
       0.025425911 -0.0058173565 -0.0016969416 -0.03689338
000090 bc 7e 20 bc 8a 5a a5 ba 96 9d 2f 3c de c6 85 bc
       -0.009795841 -0.0012615484 0.010718724 -0.016330179
0000a0 f1 da 10 3c 97 d8 7d 3c 75 b7 ad 3c f4 05 a6 3b
       0.008841262 0.015493534 0.021205643 0.0050666276
0000b0 bb 37 d5 3b 0f 4a 08 3c ae 9d d8 ba 76 ec 2e bc
       0.0065068877 0.008318438 -0.0016526484 -0.010676494
0000c0 93 21 aa 3c 00 c4 76 bc 2e 28 9d bc 51 e5 92 bc
       0.020767963 -0.0150613785 -0.019184198 -0.017931612
0000d0 96 5f 0b bc 9e 48 93 3c 32 5d 92 3c 1c be 10 3d
       -0.008506676 0.017978963 0.017866705 0.035337552
0000e0 3c 01 eb 3c 5b d7 8d 3c cf ac 0a 3d b0 b0 17 3d
       0.028687112 0.017314604 0.03385621 0.037033737
0000f0 5e 7c 91 3e 7d ed 88 3d 1a 5c f1 3c 8e f0 0b bc
       0.28415197 0.06685922 0.029462863 -0.008541239
000100 41 c5 da 3c ca 38 5f bc c9 c9 ab bc b3 ab 78 3c
       0.026705386 -0.013624379 -0.020970242 0.015177655
000110 0d dd e9 3c 80 e9 80 3c e9 19 05 3d 66 16 51 bd
       0.028547788 0.015736341 0.032495413 -0.05104675
000120 97 e1 28 3d ba 76 1f 3d 4f 64 f4 3c 5c a1 8e 3b
       0.041230764 0.038931586 0.029832987 0.0043527316
000130 32 14 30 3c 49 e2 ab bb d6 18 14 3d e7 b8 bd bc
       0.010747002 -0.005245481 0.036156498 -0.023159457
000140 cb 8a 39 3c 13 a8 20 3b ae 6a 51 bc 83 9e 29 bb
       0.011324595 0.0024514243 -0.012781782 -0.0025881834
000150 3c 3d 88 bb 88 91 7d 3b 2a 8c b8 bc e5 ba 4d 3c
       -0.0041576903 0.003869148 -0.022527773 0.012556766
000160 d8 a4 36 bc 58 bb 72 3c ab 0f a4 3c 63 f2 b3 3c
       -0.0111477 0.014815174 0.020027002 0.021966165
000170 cc 91 c1 3c fb 94 71 3c f6 b1 a9 3a 48 a8 ec ba
       0.023629092 0.014744992 0.0012946713 -0.0018055523
000180 ba 2d a4 bc a6 fa 21 3c 53 87 d6 ba b4 54 10 3d
       -0.020041335 0.009886419 -0.0016367234 0.03523703
000190 d5 b3 8e bc 04 0f c7 bb 6d 0a d6 bb 32 a4 a8 3a
       -0.017419735 -0.006074788 -0.0065320046 0.0012866317
0001a0 b3 a7 73 ba 5c 17 72 3c 06 77 1b bc ea b5 18 3c
       -0.00092947035 0.014776077 -0.009488827 0.009320715
0001b0 1f b4 e3 3c e4 15 81 bc 61 8e b0 3c dc 72 98 bc
       0.02779585 -0.015757509 0.021552267 -0.018609457
0001c0 d0 47 9f bc 3f 10 3c bc f1 bc 03 bd 11 6a 9b 3c
       -0.019443423 -0.011478483 -0.03216261 0.018971475
0001d0 1b ea 5b 3d 5d 60 b0 bc f5 66 46 3d ed a2 80 bb
       0.053690057 -0.021530325 0.04843803 -0.0039256723
0001e0 69 38 04 3f 45 02 84 3d 90 dd 7f 3d e8 47 4d bc
       0.51648575 0.064457454 0.062467158 -0.012529351
0001f0 e6 7e 00 3c 37 5d 45 3c 60 c0 c0 bc b0 ba 80 3c
       0.007842755 0.01204615 -0.023529232 0.01571402
000200 c8 32 de 3c 2b e2 3a 3c 8c 71 9c 3c 56 e2 1e bd
       0.027123824 0.011406462 0.019097112 -0.03879007
000210 04 0e 00 3d 32 65 39 3d c3 c5 d9 3c cd 74 87 3c
       0.031263366 0.045262523 0.026583558 0.016535187
000220 b4 7e 01 bc 31 b7 43 bb 02 a9 9a 3c de 1e c2 bb
       -0.007903744 -0.002986383 0.018879417 -0.00592409
000230 38 cb 21 bb ab 10 a6 3c ce 22 0a bc 53 5c 8b bc
       -0.0024687778 0.02027162 -0.00843115 -0.017011797
000240 da 38 d8 bb 51 77 f5 ba 95 3f cf bc 20 5d 8a 3c
       -0.006598574 -0.0018727576 -0.025298873 0.016890109
000250 d4 d2 8c bb 45 97 88 3c cb 76 4a 3b cc 6f b3 3c
       -0.0042975936 0.016673693 0.003089356 0.021903895
000260 bf d6 8b 3c 45 4c a2 3c 92 7d 10 bc 45 c9 42 bb
       0.017070172 0.019811759 -0.008819001 -0.0029722017
000270 e3 f7 94 bc 9d 0a ae 3b ce 36 8a bb e0 74 05 3d
       -0.018184608 0.005311324 -0.004217959 0.032582164
000280 ba a7 80 bc 9f cb 13 bc 62 76 85 bc 85 1d ba bb
       -0.015704978 -0.009020715 -0.0162918 -0.0056797885
000290 7a d7 0e 3c ff 05 99 3c b4 61 b4 bb 61 2b 9b 3b
       0.008718366 0.018679617 -0.005504811 0.004735396
0002a0 4e 18 ed 3c 9e ab f2 bb 87 5f d7 3c 3e 7d a9 bc
       0.028942253 -0.0074057123 0.026290668 -0.020689603
0002b0 7e 99 12 3b d1 f1 75 3b 86 f4 f7 bc 69 d9 05 3c
       0.002236932 0.0037528167 -0.030267965 0.00816951
0002c0 38 31 12 3d 72 2c 9a bc 59 f8 05 3d 27 c9 91 bc
       0.03569147 -0.018820021 0.032707546 -0.017796112
0002d0 a2 68 3b 3f 67 1e 5b 3d 22 e1 c0 3d 6b f1 29 bc
       0.7320653 0.05349579 0.09417941 -0.0103725
0002e0 21 c0 87 bb 50 2a c6 3c 64 4d 83 bc 21 cc 20 3c
       -0.0041427766 0.024190098 -0.016028114 0.009814293
0002f0 94 a1 bf 3c 12 36 ad 3b 69 c9 78 3c dd 1b af bc
       0.023392476 0.0052859867 0.015184739 -0.021375591
000300 d2 6f f1 3c 1f ee 44 3d 55 a5 c8 3c b7 2e 14 3d
       0.029472265 0.048078652 0.024492899 0.036177363
000310 67 4d 2d bc bc ed c4 bb 40 17 85 3c d1 f5 ee bb
       -0.010577536 -0.0060097855 0.016246438 -0.007292487
000320 bf d9 44 bc 93 8b bc 3c 86 01 ce ba 3f ae ec bc
       -0.012014805 0.023015773 -0.0015717007 -0.02889168
000330 3a c1 1a bb 58 6a 01 bc 12 a1 cc bc 2d 10 ee 3c
       -0.0023613707 -0.0078988895 -0.024979148 0.029060448
000340 83 9a 31 3c 2c 08 c1 3c 46 e0 61 b9 4a 37 b0 3c
       0.010840061 0.023563467 -0.0002154122 0.021510739
000350 8e 69 8f 3c 8e 68 38 3c 62 7a 59 bc 36 4e e5 ba
       0.017506387 0.0112553965 -0.013273807 -0.0017494622
000360 a2 ae 8e bc be fa 9a 3b b0 3d b0 bb 1b 54 be 3c
       -0.017417256 0.004729598 -0.0053784475 0.023233464
000370 96 aa 7f bc 04 81 27 bb 80 8a bc bc fb 9a 81 bc
       -0.015604636 -0.0025559077 -0.02301526 -0.01582097
000380 4e fb 5d 3c c7 d9 bf 3c 1f 58 a6 bb e9 7a bc bb
       0.013548685 0.023419274 -0.005076423 -0.0057519567
000390 37 ab f1 3c 50 66 8c b9 22 9f a3 3c bb eb 9a bc
       0.029500587 -0.0002677911 0.019973341 -0.018911233
0003a0 0f 59 6d 3c e1 cc 75 3c b7 a4 a0 bc aa 4b 23 3c
       0.014486565 0.01500246 -0.019609792 0.00996677
0003b0 36 84 8c 3c 73 6a 91 bb 5a 2b b8 3b 44 bd e4 bc
       0.017152887 -0.0044377386 0.0056204023 -0.02792228
0003c0 1f a5 71 3f f6 7c 28 3d bc 48 b9 3d d3 6f 44 ba
       0.9439258 0.041134797 0.09047076 -0.000749347
0003d0 a9 6f b9 bb d0 00 83 3c 4b 98 8f bc e6 4f ca bb
       -0.005659063 0.015991598 -0.017528674 -0.0061740754
0003e0 4e a1 4c 3c 39 92 d7 3a 6b b2 eb 3c e4 bc 84 bb
       0.01248963 0.0016446776 0.0287716 -0.004050838
0003f0 a1 db ec 3c 60 c3 21 3d 5d 26 a6 3c 79 53 44 3d
       0.028913321 0.039492965 0.020281965 0.04793117

m_transform.0.1.weight f4 [64, 1, 5, 5]
000000 0a 4e 61 bd a6 41 82 3d d7 a1 1a bc 19 c0 d8 bd
       -0.055006064 0.06360178 -0.009438 -0.10583515
000010 b9 ba a1 bd 31 0f 9a 3d 42 00 34 bb 52 d9 3c bd
       -0.07896943 0.07522429 -0.0027465974 -0.04610569
000020 d4 91 ad bd e6 b7 f6 3c c6 6d 00 bd 99 2c 90 3c
       -0.0847508 0.030116986 -0.031354688 0.01759939
000030 51 0c b9 bc 57 08 2b be ef ea 7c 3d 84 ee 16 be
       -0.02258888 -0.167024 0.061747488 -0.14739424
000040 a5 8e d3 3d 55 d7 26 be 0d 20 0a bd 85 b7 2e be
       0.10329942 -0.1629308 -0.033721972 -0.17062195
000050 d7 d6 2a be 32 31 0d 3e 3c cd 0d be 46 0c 1c be
       -0.16683517 0.13788298 -0.13847822 -0.15239057
000060 65 78 eb bc b7 53 21 bd 85 01 91 3d b0 0d 04 bd
       -0.028743932 -0.039386477 0.07080368 -0.032239616
000070 23 f8 04 bd 97 e9 c9 3d eb 25 d0 3d fd 96 cb bd
       -0.032463204 0.09859007 0.10163482 -0.09940908
000080 eb 4b 0e 3d 15 65 4f 3e 1d ab 3a 3e 7e 50 31 3e
       0.03474037 0.20253403 0.18229337 0.17315862
000090 8d 24 85 bd c1 53 17 3c 3b 4b 10 bd 0b 84 ae 3d
       -0.06501112 0.009236277 -0.035227995 0.08521279
0000a0 c0 7d 6d bd aa 9d 4d be 8c bc 94 bd cd 31 3a 3e
       -0.057981253 -0.20079675 -0.07262525 0.1818306
0000b0 70 89 4e 3e 5a 44 40 bb 02 0d de 3d 62 32 5d be
       0.20169616 -0.0029337616 0.10842325 -0.21601251
0000c0 2a 38 f7 3c 25 30 1b bd 13 fb 3a 3e e9 0a af 3d
       0.030178148 -0.03788771 0.1825984 0.08547003
0000d0 d5 fd 07 3e bf e4 72 3d 9d 32 d8 bd 38 4b 09 be
       0.13280423 0.05930018 -0.10556529 -0.134076
0000e0 be 77 47 be 1c bf 70 3d f6 71 0f 3e 82 e9 42 3e
       -0.19479272 0.058776006 0.14008316 0.19034389
0000f0 77 53 b8 3c 58 8a c5 bd 2b 06 88 bc 6a 10 59 be
       0.022500737 -0.096455276 -0.016604504 -0.21197668
000100 d9 3e a8 3d 26 a6 f1 3c 53 a9 33 be ad 28 f0 bc
       0.08215112 0.029498171 -0.17545061 -0.02931627
000110 c2 28 3d 3d 61 b6 a8 3c 99 f9 01 be fe 0b 21 bd
       0.046181448 0.020594778 -0.1269287 -0.039318077
000120 0a c1 7b 3d 65 d0 21 3c 5b b6 50 3e 2a e6 00 3e
       0.061463393 0.009876345 0.20382063 0.125878
000130 81 49 38 be 10 f6 58 3d d8 bb b5 bd 13 a3 a4 3d
       -0.1799679 0.05296904 -0.08873719 0.080389164
000140 d8 6b b6 3d ff 9c 10 be fd b0 78 3d f0 fe ee 3d
       0.08907288 -0.1412239 0.060715664 0.11669719
000150 15 79 48 be 05 85 25 bd 7c de f5 bd 74 1f 17 3e
       -0.19577439 -0.04041006 -0.12005326 0.14758092
000160 c9 fd 10 3e 15 39 16 3d bd fe a1 bd 35 b4 4d be
       0.14159311 0.03667553 -0.079099156 -0.20088275
000170 2f 6a 30 be 99 7d 8f bd 54 c7 fb 3d 10 9d f5 bd
       -0.17228006 -0.07006378 0.12293878 -0.11992848
000180 88 14 36 3d 6b cc ed 3d 3a f4 a2 bd 1c 8e 7d 3e
       0.044453174 0.11611255 -0.07956739 0.24761242
000190 40 8c 4b be b2 1b 3b 3e 37 2c db bb 62 ee d4 3d
       -0.1987772 0.18272284 -0.0066886204 0.103970304
0001a0 bc 5a cb 3b a3 95 81 bc b6 92 c6 bc dd cc 80 bd
       0.0062058847 -0.015818423 -0.02423988 -0.062890746
0001b0 59 3b 44 be 55 85 78 bd cc 25 15 3e e4 86 84 3d
       -0.19163264 -0.06067403 0.145652 0.06471041
0001c0 3c a9 57 3e 3e e8 da 3d 0c 3d 06 be 5c 0b 10 3c
       0.21060652 0.10688828 -0.13109225 0.008791771
0001d0 37 e1 a8 3d 70 9d ee 3d d8 77 28 be 7e 12 c7 bd
       0.08246081 0.116511226 -0.16451967 -0.09720324
0001e0 38 63 88 bc f2 94 16 bd b7 47 42 3e 02 d1 23 be
       -0.016648874 -0.03676314 0.1897267 -0.15997699
0001f0 c9 22 2f be 9a 6b 41 bd 23 ad 05 3e 83 b3 c7 bd
       -0.17103113 -0.047221757 0.13054328 -0.09751036
000200 97 e3 16 be ba 2c 0b bc 44 38 5e bd a8 a2 f8 bd
       -0.14735256 -0.00849455 -0.054252878 -0.12140399
000210 79 c4 fd bd 05 bc 1e bd 69 fa 57 3c c7 45 15 bd
       -0.1239099 -0.03875353 0.013182261 -0.036443498
000220 ee e1 36 3e 76 0b c5 bd c9 8e 1f 3d 5d f2 1c 3e
       0.17859623 -0.096213266 0.03895453 0.15326829
000230 37 92 3a 3e 75 73 26 be 6c 41 e4 3d a7 97 85 3d
       0.18219839 -0.16254981 0.11145291 0.06523066
000240 98 c9 37 3e 40 f9 0b 3e 58 3c d4 3d e5 6b b7 bd
       0.17947996 0.136693 0.10363072 -0.08956126
000250 d7 40 16 be 8f 7e 47 bd 74 ba e9 3d fe df 14 3e
       -0.14673172 -0.04870468 0.11412516 0.14538571
000260 cc e7 9c bc d4 22 ba bd da e1 30 3e 5d c0 43 3e
       -0.019153498 -0.09088674 0.17273656 0.1911635
000270 4d 36 9f 3c 26 6f 35 3e 85 16 e8 3d 43 46 28 be
       0.019435072 0.17718181 0.1133242 -0.16433053
000280 ab 8c c7 bd 97 93 c7 bd 89 60 33 bd 9d c7 73 be
       -0.09743627 -0.097449474 -0.043793235 -0.23806615
000290 a7 65 36 3e bd 52 15 3e 05 14 d7 bd e9 06 e7 3c
       0.17812215 0.14582343 -0.10501865 0.028201537
0002a0 1b 23 db 3d 12 30 80 bc 23 1d 06 3e 36 8c 4b 3e
       0.10700055 -0.015647922 0.13097052 0.19877705
0002b0 e4 57 10 be 10 48 a3 bb 5d 71 f4 3c cf a9 e3 bd
       -0.14096028 -0.0049829558 0.029839212 -0.11116373
0002c0 c6 89 b1 3d a3 de d1 bc 95 16 d3 3d 2c 05 74 bd
       0.08668856 -0.025618857 0.103070416 -0.059575245
0002d0 30 1f 02 be 92 06 3a 3e 14 0a 8c 3e a2 98 02 be
       -0.1270721 0.18166569 0.2735144 -0.12753537
0002e0 41 11 0d be c7 ff f4 3c 9c 7f 26 3d d6 82 30 bd
       -0.13776113 0.02990712 0.04064904 -0.043093525
0002f0 41 6a 42 3d f4 f2 b8 bd 0d cc dd 3c 57 5b 58 3e
       0.047464613 -0.09030715 0.027074838 0.21128593
000300 75 c6 41 bd 63 81 07 be a8 5b 9d 3d f2 4e ff 3d
       -0.047308404 -0.13232951 0.07683498 0.124662295
000310 b5 df 0f 3e d3 07 05 3e 53 fc 55 bd 22 64 ef bd
       0.14050181 0.12991266 -0.05224259 -0.11689021
000320 91 98 1e be 0c b3 0d 3d c6 22 23 3e c6 0a 19 be
       -0.15487887 0.03459458 0.15931234 -0.14945516
000330 8e bd b3 ba 7e 52 91 bd 59 e7 5d 3e 96 75 03 3e
       -0.0013713108 -0.07095812 0.21670283 0.12837824
000340 fa da c9 3c 83 e6 71 bd 1e 0c b0 bd 6b 6b c0 bd
       0.024640549 -0.059057724 -0.08596061 -0.09395488
000350 e9 25 b3 bd 9c 0d 37 3c 99 99 fb bd d2 62 f7 3d
       -0.08747465 0.011172678 -0.12285156 0.12079395
000360 cd 4c b4 bd b4 e7 57 3d 4a 70 ea 3d 1c 39 16 3c
       -0.08803711 0.052711204 0.11447199 0.009168889
000370 d3 ea 58 3c 53 bd 1f be 7a 0c 1e bd c3 30 56 3b
       0.01323958 -0.15599565 -0.038586117 0.0032682873
000380 06 6b 37 3e 14 21 08 3d 51 43 13 be 38 62 f0 bc
       0.1791192 0.03323467 -0.14381148 -0.02934371
000390 95 41 37 3e a2 0e 91 bd ef b7 c8 bd 89 dd 46 3c
       0.17896111 -0.07082869 -0.098007075 0.012137779
0003a0 7e 84 27 3e 19 fb 4d 3d 34 1a 21 3e b7 4a 99 bd
       0.16359136 0.050288294 0.15732652 -0.07484954
0003b0 94 66 ad bd 77 29 ca 3c 9f 97 3f be 25 a9 06 be
       -0.08466831 0.024677975 -0.18710183 -0.13150461
0003c0 18 20 3e bd 7c ad bc bc 66 ce b2 3d 13 4b 10 be
       -0.046417326 -0.023031943 0.08730774 -0.14091139
0003d0 7a 47 37 be a1 8d 43 be f5 76 14 3e 63 c6 39 3e
       -0.1789836 -0.19096996 0.14498504 0.18142085
0003e0 93 c9 7f 3d 59 fe f6 bd ac 2d 3e be 4e 0c 9d bd
       0.062448096 -0.12060232 -0.1857211 -0.076683626
0003f0 e5 b6 6a bd 5f 26 89 3c 64 bf 51 bd 29 64 43 3e
       -0.057303328 0.01674193 -0.051207915 0.19081177

m_transform.0.1.bias f4 [64]
000000 1e 9d 69 3d cf 6c 03 be d3 d2 ea bc 18 9c 03 3e
       0.057034604 -0.12834476 -0.028664982 0.12852514
000010 d6 36 d3 3b 05 e1 43 be 37 cb 57 3d 44 80 dc bd
       0.006445746 -0.19128807 0.052684035 -0.10766652
000020 c1 8c 02 be c3 ce cc bd 51 03 6e 3d b0 28 01 3e
       -0.12749006 -0.10000374 0.05810863 0.12613177
000030 0c 37 4a 3e 1c c1 a0 bd 0d b1 83 be fd 4d 84 3e
       0.19747561 -0.07849333 -0.25721017 0.2584075
000040 ae 23 13 3e 06 71 10 bd d9 01 de 3d a6 fe ff bc
       0.1436908 -0.035264038 0.10840196 -0.031249356
000050 67 bd 82 3d d0 bd 1e 3d 72 76 b5 bc 1d aa 23 3c
       0.06383782 0.038755238 -0.022151206 0.009989289
000060 00 e7 0d 3e 4e 54 f4 bd 97 b9 32 3d d0 35 97 bd
       0.13857651 -0.11930142 0.043634024 -0.07383311
000070 95 bb 9d 3d 54 b8 26 3e b8 45 f1 3d 60 1a 52 3d
       0.07701794 0.16281253 0.11780876 0.051294684
000080 6e 07 20 3d 01 dd a4 bd 17 4b 31 be 80 07 46 3d
       0.039069586 -0.08049966 -0.17313801 0.048346996
000090 39 e3 40 be 9c 74 90 3d 22 f3 c5 3d c0 b7 9a bc
       -0.18836679 0.070534915 0.096655145 -0.018886447
0000a0 80 ec 9b 3d b5 f3 ec bc 7c 57 03 bd 43 ea ef 3d
       0.07613468 -0.028924802 -0.032065853 0.11714604
0000b0 16 b5 1b 3e 79 cc e1 bd 15 ec 4e bc 3d fd 82 be
       0.15205798 -0.11025328 -0.0126295285 -0.2558383
0000c0 e8 a3 53 be 95 77 aa bc ba 13 90 bd 4c 19 8b bd
       -0.20667994 -0.020808974 -0.070350125 -0.06791934
0000d0 ef 49 64 3e a0 08 90 3d a3 04 54 bd 9b 6f cc bd
       0.22293828 0.07032895 -0.051762234 -0.099822246
0000e0 06 cd bd 3d 75 b8 bc 3d 3e 27 d6 bc 1f 85 f9 3d
       0.09267621 0.0921487 -0.026141759 0.12183594
0000f0 21 0b 26 3e e9 6f dd bb 3d ce 98 3d 56 a9 1b 3e
       0.16215183 -0.0067577255 0.07461212 0.15201315

m_transform.0.4.weight f4 [64, 32, 1, 1]
000000 f7 9e ec bd 33 13 ef 3c b2 c6 f4 3c ce 9a c6 3d
       -0.11553758 0.02918396 0.029879902 0.096974954
000010 83 76 89 3d c9 bc 11 be bb 95 b4 bd a3 d8 3c 3c
       0.067120574 -0.14232172 -0.08817621 0.01152626
000020 08 90 f6 bd 98 09 ce bc f5 bb 22 3e 13 ba 19 be
       -0.120391905 -0.025151059 0.15892012 -0.15012388
000030 e2 2b e7 bd c2 64 97 39 68 60 87 3d ae eb 09 3e
       -0.11287667 0.00028876035 0.06610185 0.13468811
000040 b0 30 0f 3e f4 b7 e6 bd bc cb f1 bd 6e 74 2e 3e
       0.13983417 -0.11265555 -0.118064374 0.17036602
000050 b8 c4 c0 3d 8a d6 0e 3e e0 16 d0 3c 4b 3e 36 be
       0.09412521 0.13949028 0.025401533 -0.177972
000060 4e 5c 5b be 94 51 21 be a3 40 a2 bd c4 ee 24 bd
       -0.2142193 -0.15753776 -0.07922485 -0.040266767
000070 1f 0d 31 3c 46 40 aa bd 85 9e 08 3e be ec 3b 3e
       0.010806351 -0.083130404 0.1334172 0.18352029
000080 59 01 28 be 9b ec d3 bd 00 86 37 3e 40 68 b3 3d
       -0.16406764 -0.10347863 0.1792221 0.087601185
000090 d3 54 04 be 21 7c 52 3d 6a f1 f6 3d 84 4a d6 3d
       -0.12922983 0.05138791 0.12057765 0.104634315
0000a0 8d 9c 65 bd a5 b1 d2 3d 81 67 d3 bd 11 7a 14 3d
       -0.0560575 0.10287789 -0.10322476 0.036249224
0000b0 8b 38 82 3d b7 86 28 3e 80 03 fd 3d a5 ee ab 3d
       0.06358441 0.1645764 0.12354183 0.08395127
0000c0 83 eb 30 3e 88 2b 5a be d7 8f d9 bd ef 49 aa bc
       0.1727734 -0.21305668 -0.106231384 -0.020787207
0000d0 fb 66 58 be 19 4f 1c bd 0c 39 20 be a1 d8 90 bd
       -0.21133034 -0.03816137 -0.15646762 -0.07072569
0000e0 4f 29 77 bd db 39 bc 3d 8a 88 a7 3d ec 27 b9 3d
       -0.06034213 0.091907226 0.0818034 0.090408176
0000f0 74 6c 6a 3d ee 68 ea 3d 09 52 ff 3b ce ae 19 3e
       0.057232335 0.11445795 0.007791762 0.15008089
000100 d5 df 06 3e 94 50 e3 3d 67 f4 0c 3d 7e 83 9c 3d
       0.13171323 0.110993534 0.034412768 0.07642268
000110 e4 0e 3b 3e 7a 2b b4 3d db a3 a3 bd 41 07 14 3e
       0.18267399 0.08797355 -0.07990237 0.14455892
000120 8d ea f8 bd fb ad b3 bd 84 d8 9c bd 92 5d 70 bd
       -0.12154112 -0.087734185 -0.076584846 -0.058682986
000130 a3 08 0a 3e 42 6f 29 be a4 0a 9f 3d 55 44 eb bd
       0.13479857 -0.16546348 0.077657014 -0.11487643
000140 54 82 41 bd 8b a0 fb bd 92 79 e3 bd 8b 54 e2 3d
       -0.04724343 -0.122864805 -0.11107172 0.110512815
000150 2d ee d6 bc cd 1d 44 3d dd 37 19 be 4e 1e fc 3d
       -0.026236618 0.047879983 -0.14962716 0.12310468
000160 c8 e6 7e 3d a3 a2 f8 3d 19 2d 09 3e 6a e8 16 3e
       0.06223181 0.121403955 0.1339611 0.14737096
000170 49 12 1f 3e 1e f8 15 3e b6 9d 24 3e 51 5d 19 be
       0.15534319 0.1464543 0.16075787 -0.14977004
000180 23 6c 25 bd 0d a4 c7 3d 8c 95 12 bd 15 6d 0c be
       -0.04038633 0.09748087 -0.03578715 -0.13713486
000190 18 0e de 3d 52 21 e4 bd fc d1 1f 3e 0f de 85 3d
       0.10842532 -0.11139168 0.15607446 0.06536495
0001a0 81 26 2a bd de 10 1a 3e 12 4c 83 bd f1 52 a6 bd
       -0.041540626 0.15045497 -0.06410994 -0.081212886
0001b0 02 69 49 3d 11 9c 04 be 0a 7b 94 3d d9 57 5b 3c
       0.04917241 -0.1295016 0.0725003 0.013387644
0001c0 c1 0e 59 bd 83 70 39 3d d3 32 48 bd 45 06 b3 3d
       -0.052992586 0.045273315 -0.048876595 0.0874143
0001d0 a8 26 b4 bd 09 ba ef 3d 96 61 c4 bd 30 5d 05 be
       -0.087964356 0.11705405 -0.095889255 -0.1302383
0001e0 15 72 16 3e 48 31 35 3e d7 c4 13 be 95 c3 d2 bc
       0.14691956 0.1769458 -0.14430557 -0.025728026
0001f0 15 64 b9 3d 11 6c 9b bd 53 ec ea bd 96 63 00 3e
       0.09052292 -0.075889714 -0.114708565 0.12537989
000200 cf e6 c3 3d 2a cf 78 bb 78 76 61 bd 51 06 3e bd
       0.095655076 -0.0037965276 -0.05504462 -0.046392743
000210 a4 bf 5a 3d 1b 9f 1d 3e 5e be 9a bc 24 1e 16 3e
       0.05340542 0.15392725 -0.018889602 0.14659935
000220 c4 c5 2c be f6 c5 8c 3c 89 ae 95 bd 25 05 d8 bd
       -0.16872317 0.017184239 -0.073086806 -0.10547856
000230 4c 3a 69 bd f8 a4 b6 bd cf 49 b2 bd db 18 bf 3d
       -0.05694036 -0.08918184 -0.08705484 0.09330913
000240 2a 2e dc bd 66 6d ca 3d 58 45 2e 3e 2a 40 26 be
       -0.107509926 0.09884147 0.1701864 -0.16235414
000250 f2 cd 85 bd 75 4b a4 bc 46 e8 18 3e 84 62 be bd
       -0.065334216 -0.020055512 0.14932355 -0.09296134
000260 ce ce b6 bd 4a 80 33 be 35 1c 27 be 08 39 00 bc
       -0.089261636 -0.17529407 -0.16319354 -0.007826097
000270 30 82 d1 3c 7e 73 86 bd a0 63 05 3e 46 1d 95 bd
       0.025574774 -0.06564997 0.13026285 -0.07280974
000280 3c 63 cd bc fd f1 a0 3d 44 da 2e 3e 0e 85 3c be
       -0.025071733 0.078586556 0.17075449 -0.18410131
000290 35 58 48 bd b2 b1 d5 bd 93 04 c3 bd 2b 47 fa 3d
       -0.048912246 -0.10434283 -0.09522357 0.122206055
0002a0 70 69 b4 bd 56 7c 9f bd 2d 85 02 be 88 18 cd 3c
       -0.08809173 -0.07787387 -0.12746115 0.025036111
0002b0 f0 70 1c be 99 76 83 3d f4 92 17 be f5 84 1e bd
       -0.15277457 0.06419105 -0.14802152 -0.038701016
0002c0 56 15 33 be ed 6a d7 bd 0d 34 d9 3c 63 20 09 be
       -0.17488608 -0.10518441 0.026514078 -0.13391261
0002d0 0c 30 0b be 9c e7 d5 3d b1 b0 3f bd 60 5f 85 bd
       -0.13592547 0.104445666 -0.046799365 -0.06512332
0002e0 da 65 25 3e 23 e9 bd 3d 82 41 38 be 2f 69 86 bd
       0.16152135 0.09272983 -0.17993739 -0.06563031
0002f0 b5 47 b1 bd 5f 4f 6d 3d 01 b5 01 3c ba dc 25 be
       -0.08656255 0.057937022 0.00791669 -0.16197482
000300 5e 27 b9 3d a3 9a a3 bd ec fc 7d bd 25 10 13 be
       0.09040712 -0.07988479 -0.062008783 -0.14361627
000310 bd 58 2f be 34 f9 f0 bd 84 54 aa 3d fd fe 28 be
       -0.17123695 -0.11766282 0.08316901 -0.1650352
000320 be 0b 4d bd bd 68 02 3e 74 00 88 3b bd 6c 8a 3d
       -0.050060026 0.12735267 0.0041504446 0.067590214
000330 c1 6d a0 3d b9 32 50 be 42 43 dd 3c 94 e6 8a bd
       0.07833434 -0.20331849 0.02700961 -0.067822605
000340 5d 64 e9 3d d4 67 aa 3d 92 1c ae bd ef 09 83 3d
       0.11396096 0.08320585 -0.08501543 0.06398379
000350 e1 c9 a7 3d 45 6c c8 bd 1c dc c4 3c 16 dc 20 3e
       0.08192802 -0.09786276 0.024030738 0.15708956
000360 d0 12 21 3e 54 78 3d bd 9d 51 96 bd a7 f9 09 bd
       0.15729833 -0.046257332 -0.07339785 -0.033685353
000370 ff 7d 87 3d e0 da 45 be 72 03 12 be a4 48 2c bd
       0.06615829 -0.19321775 -0.14259127 -0.042061463
000380 86 00 93 bd bd f0 29 3e 1f 83 97 bd cd f6 0e be
       -0.07177834 0.1659574 -0.07398056 -0.13961335
000390 07 91 08 be af e5 8b 3c d3 e6 32 3d 2a a1 02 3e
       -0.13336574 0.017077295 0.043677162 0.12756792
0003a0 46 f7 07 3e ee 87 f7 3c 16 99 00 3e 7f 23 08 be
       0.13277921 0.030216184 0.12558398 -0.1329479
0003b0 3f 97 32 3e 39 a3 3f be b0 cb 92 3c db 8d 2b 3e
       0.17440508 -0.18714608 0.017919391 0.16753332
0003c0 2e 88 04 3e c1 d6 1c bc df 62 8b 3d 4a c9 65 bd
       0.12942573 -0.009572686 0.068059675 -0.056100167
0003d0 77 b9 93 bd a8 2f 22 bd 9a 30 4b 3d d5 6f b8 3d
       -0.07213109 -0.03959623 0.049606897 0.09005705
0003e0 71 a6 ee bd b8 ad 83 bd 6f 81 d0 3b 93 b5 bf bb
       -0.1165284 -0.064296186 0.006363086 -0.0058505028
0003f0 3f 7c 11 be 30 f4 d9 3d 5f b1 7c bd 2e 42 de bd
       -0.14207552 0.10642278 -0.06169259 -0.108524665

m_transform.0.4.bias f4 [64]
000000 a7 d8 15 be 53 1b c1 3d ba a9 bd b9 5b 68 d6 3c
       -0.14633428 0.0942904 -0.00036175345 0.026172807
000010 71 00 1a be 45 4f 07 3e e6 75 d2 bd d7 f6 0f 3e
       -0.15039231 0.13213833 -0.102763936 0.14059006
000020 52 f5 4c bd b6 ae 0f 3e 49 a2 f6 bd b2 b7 dc bd
       -0.050038643 0.1403149 -0.12042672 -0.107772246
000030 40 ab 3d bd 1d 5f 37 3c 13 39 17 3e f1 0c 5a bd
       -0.046305895 0.01119211 0.14767866 -0.053234998
000040 15 97 b8 bd ee ab 58 be c5 62 3f 3e 4b db f7 bd
       -0.090131916 -0.21159336 0.18690021 -0.12102374
000050 c5 00 aa 3c 6d 3b 0b bc c2 a4 17 3e 14 d8 69 bd
       0.02075232 -0.008498055 0.14808944 -0.057090834
000060 0a a6 3b 3e 7d 8a ee bd 26 b7 02 be 9d b4 2c 3d
       0.18325058 -0.11647508 -0.12765178 0.042164434
000070 06 1f 1d 3d 70 81 c5 3d 69 48 4c bc 3b 1d f4 bd
       0.038359664 0.09643829 -0.012468436 -0.11919638
000080 3e e2 70 3d 13 2c f8 bd 1b 69 8e bd db e6 9a 3d
       0.05880951 -0.121177815 -0.06953641 0.075635634
000090 7c db 18 be db b7 b5 3d c3 20 82 bd 7c 33 16 be
       -0.14927477 0.08872958 -0.06353905 -0.14668077
0000a0 88 1e 77 bd 0a 48 c7 bd 2a 58 18 3e 77 82 c3 3d
       -0.06033185 -0.09730537 0.14877382 0.095463686
0000b0 4e 10 13 3e 7d b1 66 3d d3 f0 5d 3d 09 62 7b 3d
       0.14361688 0.05632161 0.054184746 0.06137279
0000c0 22 64 98 bd 47 45 99 3c 5e 78 14 be 62 ba 01 be
       -0.07440974 0.018709792 -0.14499041 -0.12668756
0000d0 1b e0 13 3e 20 af 0e 3e a7 89 90 bd de 59 28 3d
       0.14440958 0.13933992 -0.07057505 0.04110133
0000e0 72 16 2f bd dc fa 1d be 7f f3 6d 3d d6 04 a0 bc
       -0.042746015 -0.15427727 0.058093544 -0.019533556
0000f0 bb d0 19 3d 91 e8 ce bc e7 83 a5 bd 75 69 d9 3d
       0.037552577 -0.02525738 -0.08081799 0.106158175

m_transform.0.6.running_mean f4 [32]
000000 44 a5 66 3e cc fb bb 3f a3 14 2b 40 0a dd 11 3f
       0.22523981 1.4686217 2.6731346 0.56977904
000010 00 6d bd bd 79 5c 11 bf f5 27 8f be 82 75 ae 3e
       -0.09249306 -0.5678173 -0.27960172 0.34074026
000020 89 29 ce be 04 c2 19 3f 62 10 8a 3e 82 ea 4c 3f
       -0.40266064 0.6006167 0.26965624 0.8004533
000030 49 67 c2 3f 36 6e c7 3e 62 e7 e7 3e 71 07 94 3f
       1.518777 0.38951272 0.4529372 1.1564771
000040 a6 15 c8 3e 68 62 c3 be 59 94 09 40 aa ea db 3e
       0.39079016 -0.38161016 2.1496794 0.42952472
000050 02 9f 0f bd ca 84 10 40 63 a0 ef bd a0 0f e3 3d
       -0.03506375 2.2581048 -0.11700513 0.110869646
000060 f3 3c b9 3f dc ca 8a 3e e7 85 3f 3f 21 69 be 3d
       1.4471725 0.27107894 0.74813694 0.092973955
000070 d5 b5 c5 3e f4 88 90 3f da cb 1f 40 97 cc f4 bd
       0.3861529 1.1291795 2.496817 -0.11953085

m_transform.0.6.running_var f4 [32]
000000 ad 0f 04 3e f7 0d cf 3e ff 3f 08 40 0c a4 1a 3e
       0.12896605 0.40440342 2.128906 0.15101641
000010 c7 1f 38 3e ac 79 c4 3e 17 3a 0d 3e c5 b4 bd 3d
       0.17980872 0.38374078 0.13791691 0.09262995
000020 28 cb b5 3d 18 ca 3d 3e 43 13 78 3d b0 6c 15 3f
       0.088766396 0.18534124 0.060565244 0.5836897
000030 ab b6 2a 3f d4 cc 98 3d 82 aa b0 3e 24 07 b5 3e
       0.6668498 0.07460943 0.34505087 0.3535701
000040 28 bb 5d 3e f6 04 1f 3e f7 bd 8c 3f 05 58 9d 3d
       0.21653426 0.15529236 1.0995473 0.07682804
000050 5f bb 7f 3e be 58 95 3f b8 f4 19 3f 4e b5 9e 3d
       0.2497382 1.1667707 0.60139036 0.07749425
000060 5f c0 15 3f a3 2a 41 3e 76 b7 41 3e 4f 97 e2 3d
       0.5849666 0.18863921 0.18917641 0.11064016
000070 1b 3c 5e 3e 93 a5 4d 3e 9f 6e f6 3f 60 47 17 3d
       0.21702616 0.20082693 1.9252509 0.036933303

m_transform.0.7.weight f4 [96, 32, 3, 3]
000000 b0 32 79 bd 70 ef 8d bc 2c 5b ea bb 11 33 71 bb
       -0.060839355 -0.017326087 -0.007151982 -0.003680412
000010 bb 73 3b bd e0 40 99 bd d6 c6 8c 3b 67 3a 4c bd
       -0.045764666 -0.07483077 0.004296164 -0.049860384
000020 c0 fb 9b 3c 48 13 86 3d 20 ff 4b bc 60 9b a3 bc
       0.019040942 0.06546646 -0.012450963 -0.01997155
000030 bb 60 de bc ae af 65 3c 47 7a bb 3c 51 31 a4 3d
       -0.027145734 0.014018936 0.022885455 0.08017219
000040 9f 4a 4b bd 22 1b 53 bc 56 7e 89 3c 2d 37 70 3d
       -0.04963171 -0.012884887 0.016783874 0.05864637
000050 38 13 cb bc 85 3d b6 3c b9 71 e4 3b 14 d9 48 3d
       -0.024789438 0.022246132 0.0069715646 0.049035147
000060 34 b4 39 3d a1 87 49 3d 01 ad 83 bc 3c 29 58 3c
       0.04533787 0.04920161 -0.016073706 0.013193425
000070 c4 ee 29 bd 74 a3 0c 3d 73 bb 8b bc dc e2 92 3d
       -0.04148747 0.03433557 -0.017057156 0.07172176
000080 57 20 89 3d 6a 00 bc 3c f8 67 3e 3d 8f 58 75 3d
       0.066956215 0.022949416 0.04648587 0.05989891
000090 08 8a 7b bc fa b1 08 3a 20 b7 81 3d 30 f1 fc bc
       -0.015352733 0.0005214509 0.063337564 -0.030876726
0000a0 30 2c 08 3d 7c d4 21 3c ed 7e 5d bb 25 8c e8 3c
       0.033245265 0.00987732 -0.0033797577 0.028387139
0000b0 8a 07 61 3d 2a 68 5a bd f9 09 f2 bc 42 95 15 bd
       0.05493883 -0.053321995 -0.029545771 -0.036519296
0000c0 15 4f 50 bd 71 f6 91 bc 29 67 19 3d 8f d5 0a bd
       -0.05085667 -0.017817708 0.037451897 -0.03389507
0000d0 44 26 ab 3c dc 04 d4 3c 64 00 4d bc ec 06 5f 3d
       0.02089227 0.025881223 -0.0125123 0.05444996
0000e0 30 b4 08 3d 5f 45 93 bb 66 64 93 3d db 5d 3f 3d
       0.033374965 -0.0044943537 0.07196884 0.046720367
0000f0 82 26 59 bc d2 09 7d 3d 5d 93 62 bc 04 5b 07 bd
       -0.01325381 0.061776944 -0.013829079 -0.033045784
000100 b5 b2 37 3d 07 88 eb bc 90 f7 ba 3c 73 bc a7 3d
       0.044848163 -0.028751386 0.022823125 0.08190241
000110 1b a5 e4 bc 04 2b 32 bd ab 27 82 3d d6 52 5b bc
       -0.02791076 -0.043498054 0.06355222 -0.013386449
000120 63 0c 79 bb d2 a7 d5 bd 36 fd 14 3d f6 4b 16 3d
       -0.0038001768 -0.104324 0.036374293 0.036693536
000130 f8 cb 8b bd ec bc 5b bd c7 d4 9c 3d 59 e1 a1 3c
       -0.06826013 -0.053646967 0.076577716 0.019760774
000140 9b 2c 46 3d 19 21 0e 3d 74 cc e9 3c 3d c5 e9 3a
       0.048382383 0.034699533 0.028539874 0.0017835271
000150 ff 0c 4f bd 2c ac 0e bc dc 23 47 bd 5a c4 87 3d
       -0.050549503 -0.008708041 -0.048618183 0.06629248
000160 cb 79 df bb 58 86 2c bd 07 10 a1 3c ca 5f f2 3a
       -0.006819939 -0.042120308 0.019660963 0.0018491682
000170 93 50 20 bd dc a4 3f bd 85 45 76 3c b1 8f 80 bd
       -0.03913934 -0.04678808 0.015031223 -0.06277407
000180 80 7d 94 3c 27 a7 42 3c 3c ff 0d bd ce 79 be bc
       0.01812625 0.011880673 -0.03466724 -0.02325144
000190 cd 3d 91 bc dd d5 20 3c 4b 65 9e 3c 40 8f 05 3d
       -0.017729664 0.009816614 0.01933541 0.032607317
0001a0 6a a9 1a 3d ba dd 84 bc cc 97 c5 3a cc 24 51 3d
       0.037759222 -0.016219009 0.0015075146 0.051060483
0001b0 3e 19 a8 3d 78 b6 44 3d 43 03 ad bb 24 e6 62 3d
       0.082079396 0.04802558 -0.00527993 0.05539526
0001c0 28 a3 77 3d 61 e6 13 3d a4 ff 52 3c 75 85 61 3c
       0.060458332 0.03610838 0.012878332 0.013764729
0001d0 74 60 90 bc 3f 47 05 3d 91 cd 57 3d fc 43 c9 3c
       -0.017624117 0.03253865 0.052686278 0.02456855
0001e0 02 f8 9d 3d f0 a2 6b 3b cb ec 92 bc eb 58 07 3c
       0.07713319 0.0035955273 -0.017935177 0.008260946
0001f0 1f 07 ca 3c f7 25 45 3d 67 48 60 3c b3 dc 3b bd
       0.024661599 0.04813191 0.013689137 -0.045864772
000200 cf 1f 83 3d 1d f5 fc 3c f8 53 44 bc d5 91 9d 3b
       0.064025514 0.030878598 -0.01198291 0.0048086443
000210 01 ab de bc 06 40 fe 3c 0b 7b 16 3d f8 96 ea 3c
       -0.02718115 0.031036388 0.036738437 0.02863644
000220 83 d1 89 bc ce 68 05 3d 83 84 41 3d 7b b3 99 3a
       -0.016823536 0.032570653 0.047245514 0.0011726463
000230 8d 0a de bc c8 84 5d bd 25 72 71 bb 74 0c 19 3d
       -0.02710464 -0.05408171 -0.0036841717 0.03736539
000240 24 56 56 3d 66 a5 c4 3d d7 eb aa 39 00 43 90 3c
       0.052328244 0.0960186 0.0003260064 0.017610073
000250 b5 07 5d 3d b1 cf 05 3d bf ac 0a 3d 6f 86 2b 3d
       0.053962428 0.032668773 0.03385615 0.041876253
000260 ff ba 79 bc 13 d2 59 3c a3 b2 03 3b 41 e5 04 3c
       -0.015242337 0.0132947145 0.002009549 0.008111299
000270 d5 7e 6f bd 37 c2 a3 3c 25 ce 52 3d 8d e2 98 bc
       -0.058470566 0.01999007 0.051466126 -0.018662715
000280 6f 2c 73 bd ba 5d 8d bc cf 81 6b 3d 40 5d c1 bc
       -0.059368547 -0.017256606 0.057496842 -0.023604035
000290 04 2b b3 3d 7d 0a c1 bc 4e 80 67 3d e7 4d 03 3d
       0.08748439 -0.023564572 0.056518845 0.032056715
0002a0 de 6f 89 bc 8a 22 2e bd 3f 2e 9c 3d a2 0f d3 3c
       -0.016776975 -0.042513408 0.07626008 0.02576429
0002b0 67 64 a1 bc 62 34 ca 3c bb b3 3c bd 41 eb 6a bc
       -0.019701196 0.024683181 -0.04606984 -0.014338315
0002c0 9a 8b 70 bd bd 5e 78 bc 0c 4d 90 bd 88 a6 b8 3c
       -0.058726884 -0.015159306 -0.070459455 0.022540346
0002d0 cd 5c a7 bc 9d a6 01 3b 34 aa 06 3d 7e e6 f6 bc
       -0.020429993 0.0019783147 0.032877162 -0.030139204
0002e0 bb 9f 2d 3d 07 29 17 3d f3 94 9d bd 3c 22 d3 3c
       0.04238866 0.03690436 -0.076944254 0.02577316
0002f0 27 a1 8c 3c 7a 7d cc 3c 73 c8 bd 3d fb 4d db bb
       0.017166687 0.024962176 0.09266748 -0.0066926456
000300 be 83 03 3d f7 eb 55 3d c4 2e 60 3c 6a 44 c5 3c
       0.03210806 0.052226987 0.013683025 0.024080474
000310 97 47 12 bd 54 64 e8 bb 5e b0 19 3d dc 76 8d bd
       -0.035712805 -0.007092038 0.037521712 -0.06907436
000320 85 d1 8b 3c dd 54 70 bc a3 65 9b bd 82 dd a1 bc
       0.01706768 -0.0146686705 -0.07587745 -0.019758943
000330 23 13 8f bd 84 d8 41 bd ab 2a 88 b9 cb 57 83 bd
       -0.06986072 -0.047325626 -0.00025971732 -0.064132296
000340 d1 81 09 bd 9f f1 d7 3c 99 bb 92 bc 69 82 22 3d
       -0.03357107 0.026360331 -0.01791172 0.03967515
000350 80 0e bc 3d af be 62 3d 00 54 f4 bc 28 f5 3f bc
       0.09182453 0.05535763 -0.02982521 -0.011716165
000360 ed 43 ac bb 3e ad 8f 3d eb f5 b1 3c d1 ef 9d 3b
       -0.005257121 0.07015465 0.021723708 0.004819848
000370 02 68 71 3d a8 0b 95 3d dd cb 5b 3d 23 ef 1a bd
       0.05893708 0.07277614 0.053661216 -0.037825715
000380 07 5b 86 bc b9 fc 85 3c 4a af 11 bd a3 91 dc 3c
       -0.016400827 0.01635586 -0.03556756 0.026924914
000390 e5 77 46 3c c5 94 c1 bd 6c ee 01 bc 16 27 c8 3c
       0.012113546 -0.09452204 -0.007930379 0.0244327
0003a0 96 11 49 bd 42 6a 11 3d 7f f4 c7 bc db 2d 53 3d
       -0.049089037 0.035501726 -0.024408577 0.051557403
0003b0 b4 5c c1 bc d9 a5 85 bd 0b 72 90 bc 1a 0b 55 3d
       -0.023603775 -0.065257736 -0.017632505 0.05201254
0003c0 6d cb 27 bd ae 61 bc 3c a0 5b 89 bd 70 e7 61 bd
       -0.040965486 0.022995796 -0.06706929 -0.055152357
0003d0 66 97 8c bc 56 6b 51 3d e2 1e 30 3d 4c aa 84 3d
       -0.017162036 0.051127754 0.042998202 0.06477794
0003e0 16 9f 4d 3d ba d3 55 bc 25 61 a7 ba 8d 64 92 3a
       0.050200544 -0.013050968 -0.001277004 0.0011168882
0003f0 82 2d 8a 3d 01 e0 9e bc 8e 45 3e bd 6d 46 8c bc
       0.06746961 -0.019393923 -0.04645305 -0.017123425

m_transform.0.7.bias f4 [96]
000000 8b 58 3e bd 52 0d 45 bd 99 0e 5b bd 40 92 58 3c
       -0.04647116 -0.048108406 -0.05348072 0.0132184625
000010 d9 86 36 3d 55 eb 5e bc 2c 36 5b 3d 16 e3 dd bc
       0.044562194 -0.013605912 0.05351846 -0.027085822
000020 77 a2 43 bc bd 79 01 3d c5 37 fa bc 96 93 2f bc
       -0.01194059 0.03161024 -0.030544171 -0.01071634
000030 71 c3 12 bd 84 78 34 bd 01 b2 14 3d c4 6b 2d 3d
       -0.03583092 -0.044060245 0.03630257 0.0423391
000040 96 10 22 3d ec 64 5d bd 25 00 1f 3c 6a 5a 56 3d
       0.0395666 -0.054051325 0.009704624 0.05233232
000050 7d c8 29 bd 9d f8 86 3d b5 31 b9 bc b1 05 06 bd
       -0.041450966 0.06590388 -0.02260671 -0.03272027
000060 1e 68 5d bd e7 c7 2d 3d 4f 0f 54 bc 34 d4 3a bd
       -0.054054372 0.04242697 -0.012943103 -0.04561253
000070 07 55 d9 3b 99 42 8d bc f7 16 82 bc fd 19 da 3c
       0.0066324505 -0.01724367 -0.015880091 0.02662372
000080 89 5b d4 bb 21 0b 3e bd d5 40 da 3c 69 92 91 3c
       -0.0064806384 -0.046397332 0.026642242 0.01777001
000090 7a 07 91 3c ba 70 32 3b 9f 0c 3d 3c 95 52 4f ba
       0.01770376 0.0027227835 0.011538654 -0.0007908729
0000a0 35 e7 60 bc 1d 3b 70 bc cc c3 8e bd bf bc 5c 3d
       -0.013726999 -0.014662531 -0.06970939 0.05389094
0000b0 0f 70 09 3d 93 96 dc bc 89 43 fd 3c 5c fe 58 3d
       0.033554133 -0.026927268 0.030915992 0.05297695
0000c0 27 a0 3b 3d b9 6e 9b 3d fc 17 76 3d 59 bf c8 bc
       0.04580703 0.07589478 0.060081467 -0.024505304
0000d0 df aa 7c 3d 8d 48 04 bd 15 48 dc bc c4 39 09 bc
       0.061686393 -0.032295752 -0.02688984 -0.008375589
0000e0 72 c7 6f 3d 55 c5 22 bd 39 0b 93 3b 0e b5 47 bd
       0.058539815 -0.03973897 0.004487422 -0.04875665
0000f0 00 33 85 bc b3 88 1d bd 29 e8 b5 bd dc 08 4c bd
       -0.01625967 -0.038460445 -0.08882172 -0.049813136
000100 1b a0 7e bc 92 b2 98 bc 20 41 4d 3d 01 e8 d5 bc
       -0.015541102 -0.018639836 0.050110936 -0.026111605
000110 91 9e 51 bd 79 0d 35 3c fe e3 4c 3d 7e 99 f9 bc
       -0.05117661 0.011050575 0.050022118 -0.030468699
000120 37 41 42 bb b9 bb 00 bd 2f 79 6d bd 5f cc ff bc
       -0.0029640922 -0.031429026 -0.057976898 -0.031225381
000130 25 19 67 bd c2 bd 8f 3b 7b 26 15 ba dd a9 49 3d
       -0.056420464 0.0043866346 -0.0005689633 0.04923426
000140 eb 79 03 3d 32 55 e9 3c 6a 0e a2 bc 2d 88 34 3d
       0.032098692 0.028483007 -0.019782264 0.04407518
000150 b3 0a 44 bd a2 f8 16 bd 6d 82 ab 3b 84 b6 26 3d
       -0.047861766 -0.03685821 0.005234054 0.040701404
000160 5f 2d 19 bd 1c 90 c3 bc 8c d6 a9 3c 0c b3 3f bd
       -0.037396785 -0.023872428 0.020732187 -0.04680161
000170 ca 86 cd bc 74 84 88 3b 8a 88 83 3d c3 2d 0a bc
       -0.025088686 0.0041661803 0.06422527 -0.008433762

m_transform.0.10.running_mean f4 [48]
000000 ad 8a c2 3f 7c 98 e2 3f 0c 6e e4 3f 6a 12 59 3f
       1.519857 1.7702785 1.7846084 0.8479372
000010 b9 a2 87 3f 84 61 c0 3f fb 40 91 3f 4e 8f e2 3f
       1.0596534 1.502976 1.1347955 1.7699983
000020 6a a0 8e 3f f6 30 e1 3f 46 9c 9c 3f fc 6e 8f 3f
       1.1142704 1.7593067 1.2235191 1.1205745
000030 36 03 dd 3f 71 69 6c 3f fd 29 d3 3f 62 6c 92 3f
       1.7266605 0.9234839 1.6497189 1.1439326
000040 2d bf f0 3f 39 18 ae 3f ae 03 4c 3f 37 15 b9 3f
       1.8808342 1.3601142 0.79693115 1.4459599
000050 6c 83 90 3f 97 5b af 3f 86 19 a8 3f 96 9f cb 3f
       1.1290107 1.3699826 1.3132789 1.5908077
000060 cd 17 b6 3f 9b e7 90 3f a0 2d 9a 3f 2b 33 a4 3f
       1.4226013 1.132068 1.2045174 1.2828115
000070 dc f1 b3 3f 93 f9 b0 3f 43 22 bc 3f 07 15 81 3f
       1.4058185 1.3826164 1.4697956 1.0084542
000080 61 2e 87 3f 2c fb a0 3f 9b f4 b6 3f 83 96 c6 3f
       1.0561029 1.2576652 1.4293398 1.5514683
000090 33 10 a2 3f e5 cd 84 3f fe 50 88 3f b4 c1 c1 3f
       1.2661194 1.0375334 1.0649717 1.5137239
0000a0 5b ff 78 3f 1d d5 a2 3f 5c be 63 3f 2a 84 a5 3f
       0.9726464 1.2721287 0.8896234 1.2930958
0000b0 6a 2c a2 3f c1 d0 c0 3f 06 c8 65 3f 09 5b 0b 40
       1.2669804 1.5063707 0.89758337 2.1774313

m_transform.0.10.running_var f4 [48]
000000 f9 97 c7 3f f9 39 25 40 76 13 2a 3f 74 c5 e7 3e
       1.5593253 2.5816634 0.66435945 0.45267832
000010 50 f4 00 40 dc 78 0a 3f d5 d8 19 3f 54 38 a6 3f
       2.0149117 0.54090667 0.60096484 1.298594
000020 f2 f9 c0 3e 5d 70 9c 3f 44 03 35 3f 94 d9 ad 3f
       0.37690693 1.222179 0.7070811 1.3582025
000030 c4 38 19 3f d3 91 09 3f a9 bb e3 3f 65 16 f4 3f
       0.5985224 0.53738135 1.7791644 1.9069334
000040 fd f5 05 3f 12 7e 0f 3f 5e 94 12 3f 28 63 bc 3f
       0.52328473 0.56051743 0.5725764 1.471776
000050 91 13 25 3f 48 01 3b 3f b9 fd 7e 3f 62 b0 17 3f
       0.6448298 0.7304883 0.996059 0.59253514
000060 13 e1 d8 3f ed 42 32 3f 25 93 1c 3f 4d 9d d0 3f
       1.6943687 0.6963337 0.61162025 1.6298004
000070 13 e1 b7 3f e2 c3 29 3f 22 61 50 3f 77 37 f1 3f
       1.4365562 0.6631452 0.8139821 1.8845052
000080 b3 26 2a 3f 9c e4 0d 3f 4f 03 0a 3f 41 8f af 3f
       0.664653 0.55426955 0.539113 1.3715593
000090 cc 4b 61 3f 77 71 c0 3f 09 ef ce 3f 26 3f 27 3f
       0.8800628 1.5034627 1.6166698 0.6533073
0000a0 65 ca 23 3f ba 8d 3c 3f a8 a7 0c 3f 64 35 65 3f
       0.63980705 0.7365376 0.54943323 0.8953459
0000b0 95 93 46 3f e1 c1 c1 3f e9 e3 cd 3f d5 7c 96 3f
       0.7756894 1.5137292 1.6085178 1.1756846

m_transform.0.11.weight f4 [96, 48, 1, 1]
000000 18 5d 1a be 97 3a 28 3d 86 9a 5e bd 51 95 28 bd
       -0.15074575 0.0410715 -0.054346584 -0.041158024
000010 48 79 be 3c e6 77 5b bd 67 8a 17 be 6f f9 61 3d
       0.02325119 -0.05358114 -0.1479889 0.05516952
000020 3d 9a d0 bd e7 32 c1 3d e1 7d 43 bc 20 6e 61 3d
       -0.101856686 0.09433537 -0.011931867 0.055036664
000030 6d 88 0c 3d 5a fa b4 bd 99 30 29 3e dd b5 85 3d
       0.034309793 -0.08836813 0.16522445 0.06528828
000040 69 83 5a bd 8e 20 f5 3d dc 4f 2a 3d 61 a1 90 3d
       -0.05334798 0.119691 0.041580066 0.070620306
000050 a4 1e 7e 3d e3 19 a8 bd 4b 58 91 3d 65 99 b4 bd
       0.06204094 -0.082080625 0.07096919 -0.0881832
000060 15 90 15 3e e4 b5 17 3e 0a 91 cb bd 19 58 cb bd
       0.14605744 0.1481548 -0.099397734 -0.09928913
000070 84 46 02 be 3e 70 88 3d 65 92 05 bd 39 36 a9 3d
       -0.12722212 0.066620335 -0.032610316 0.08262295
000080 63 4a 56 3d 5e 36 e5 3d 74 78 bf bd 62 0c eb 3d
       0.052317034 0.1119201 -0.093491465 0.11476971
000090 d9 8e 3b bc bd e0 0f 3e 0e 92 06 bd 1c 97 11 be
       -0.011447632 0.14050575 -0.032854132 -0.142178
0000a0 ef 06 a9 3c 05 04 86 3c 29 5f fa 3d 9c 9a f9 3d
       0.020633189 0.016359339 0.122251816 0.121876925
0000b0 b3 b3 df bd 08 35 ba 3d 2c ac 01 be 84 2a 48 3d
       -0.10922947 0.09092146 -0.12663335 0.04886867
0000c0 db c1 ee bd 31 39 1a 3c 4f 76 0d 3d 42 bf b8 bd
       -0.11658069 0.00941305 0.034536656 -0.090208545
0000d0 cc 56 92 bd c8 37 6e bc 5b 5e 03 be 82 2f 06 bd
       -0.071454614 -0.0145396665 -0.12828963 -0.03276015
0000e0 8b a4 21 bd 48 60 1c be f5 b0 55 3b 20 3c d0 bd
       -0.03946356 -0.15271103 0.0032606695 -0.10167718
0000f0 13 1e 1b bc fb 0a c0 3d fa 37 f0 3d b0 e6 cc bd
       -0.0094676195 0.09377094 0.11729427 -0.10004938
000100 ae 07 92 bd d6 8b 11 be e6 9c 12 be 7c 65 e1 3d
       -0.07130371 -0.142135 -0.14317665 0.11005685
000110 3c 83 ea bc 8a cf de bc 72 c1 94 3d 3f 26 95 3d
       -0.02862703 -0.027198572 0.07263459 0.072826855
000120 24 38 d6 bc e9 49 39 3c 90 e9 23 be 2c fb da 3c
       -0.026149817 0.011309125 -0.16007066 0.026731096
000130 40 82 03 be 5e a9 5b bd 6d 71 09 bd 1d b2 68 bb
       -0.12842655 -0.053628318 -0.033555437 -0.0035506554
000140 6a 68 d1 3d 64 58 81 bd d8 c6 73 bc 44 db e0 3d
       0.102249935 -0.06315687 -0.014878951 0.109793216
000150 e0 c2 ae bd 1d 0e 04 be 1e 77 be 3d bf 4b 6b 3d
       -0.08533263 -0.12896009 0.093000636 0.057445284
000160 cd f4 18 bd e8 ac e5 bc 9a 5b d4 bd 78 ef 22 be
       -0.037342835 -0.02803655 -0.10369034 -0.15911663
000170 bb e1 c0 bd 28 d6 0f 3d 1e fa 77 bc 64 6a 24 bd
       -0.09418055 0.035116345 -0.015135316 -0.040140525
000180 b7 a2 99 bd 6a 0b 16 bb 79 21 8e bd ec 71 07 be
       -0.075017385 -0.0022894987 -0.06939978 -0.13227051
000190 64 6c fb bd bb 72 cc ba f5 b5 0c 3e 25 da c7 3d
       -0.12276533 -0.0015598157 0.13741286 0.09758405
0001a0 7e a9 c7 bd 56 48 91 bd fe ac 85 3c 3a fe 0c bb
       -0.09749125 -0.07093875 0.01631784 -0.0021513836
0001b0 11 d1 b7 bd 21 bc 09 be 6d 7d d1 bd 34 d1 10 3d
       -0.08975423 -0.13450672 -0.10229001 0.03535576
0001c0 11 d0 79 bd 39 8b 87 3b b2 1c 9c bd 35 6d da bd
       -0.060989443 0.0041364697 -0.07622661 -0.10665361
0001d0 3f df 94 3d 81 f1 9b 3d 5d ff 8f bd 18 73 d8 bb
       0.07269143 0.076144226 -0.070311286 -0.006605517
0001e0 86 f1 7c 3c 01 65 e6 bd c6 5c e0 bd b7 58 b2 3d
       0.015438443 -0.11249734 -0.10955195 0.08708327
0001f0 ff 8c 8f bd 34 cd c0 3d 26 40 94 bd d4 b6 39 3c
       -0.07009315 0.094141394 -0.07238798 0.0113350935
000200 bc dc c0 3d 8f cd a5 3d 27 93 3e bc b6 e0 ee 3d
       0.09417102 0.08095848 -0.011631764 0.11663954
000210 00 06 56 bd d0 18 da bd 37 cf dc bd 6d d1 c3 3c
       -0.052251816 -0.10649264 -0.107817106 0.023903573
000220 ca 96 f6 bd f2 14 a9 bd b1 93 9e bd a0 da ce 3d
       -0.120404795 -0.08255948 -0.07743014 0.10100293
000230 32 d1 07 3d 59 09 6d bd 34 f2 e1 bc 14 fc 92 bb
       0.03315849 -0.057870243 -0.027581312 -0.0044856165
000240 99 51 f9 bc b0 a0 08 be 8c 80 68 bd a3 13 05 3d
       -0.030434417 -0.13342547 -0.056763217 0.03248943
000250 83 35 22 be c6 41 11 3b dc 77 29 be 9c 6b 08 3e
       -0.15840726 0.0022164448 -0.16549629 0.133223
000260 b1 62 b1 bd 14 53 d3 bb f4 c1 83 3d 8f ea f4 3b
       -0.08661402 -0.0064491127 0.06433478 0.0074742506
000270 5f df 23 3d 7e 3b 7f 3d 0a 98 c2 bd 51 4d ac bd
       0.040007945 0.062312596 -0.095016554 -0.084131844
000280 09 29 a9 3d ad ed 52 bd 97 39 f1 bd 44 83 18 3d
       0.0825978 -0.051496197 -0.117785625 0.03723456
000290 2c db f1 bd 43 28 79 3d 71 34 c8 bd e2 35 62 bd
       -0.11809382 0.060829412 -0.097756274 -0.055227168
0002a0 53 90 c3 bc 41 1b 90 bd bd f7 96 3d f0 0c 17 3d
       -0.02387253 -0.07036448 0.07371471 0.036877573
0002b0 27 30 7b bb 14 6e 83 3c 45 c4 a6 3d ff 40 b7 bd
       -0.0038328262 0.0160437 0.08142904 -0.08947944
0002c0 95 14 99 bd 41 d6 dc bd 5c 44 1f 3e 10 22 16 be
       -0.07474629 -0.10783053 0.15553421 -0.14661431
0002d0 e0 fc c4 bb d0 e6 bc 3d cb 1a 47 3d ed 91 f8 3d
       -0.0060115904 0.092237115 0.048609536 0.12137208
0002e0 aa 28 17 be 91 ca f4 bd c7 ca 6a bd 08 ed c1 3d
       -0.14761606 -0.11952699 -0.05732229 0.09469038
0002f0 d2 72 05 3e 01 80 f8 bc 25 a4 a5 3c c3 1b f1 3d
       0.13032082 -0.030334475 0.020219872 0.11772873
000300 3a d0 bc bd 84 2d 05 be 02 24 69 3d 0e 27 fb 3d
       -0.092194036 -0.13005644 0.056919105 0.122633085
000310 ce 1f 94 3c 93 44 1f 3d 44 a3 9d bd fd 80 d0 3d
       0.018081572 0.038883757 -0.07697156 0.101808526
000320 ad 7b ac 3c 4f 9c 39 bd 6d b2 62 bc bc 06 ba bd
       0.021055067 -0.045315083 -0.013836485 -0.09083316
000330 44 64 88 3c cc c6 07 be 58 64 04 3e d3 5f 1b ba
       0.016649373 -0.13259429 0.12928903 -0.00059270597
000340 bc a9 03 3e 4e f1 1d 3d 27 bc 95 bd 84 98 82 bd
       0.12857717 0.038560204 -0.07311278 -0.06376746
000350 24 ec bd bd f6 69 f3 bc 4f d5 10 3d 81 c9 03 3c
       -0.09273556 -0.029713612 0.035359677 0.008043648
000360 83 48 7d 3d 2f b5 4a bd 24 cf de bc 5f 2d 07 bd
       0.06183673 -0.049489196 -0.027198382 -0.033002254
000370 cd 67 8f 3d 3e c0 a8 bd 9f 9e 93 3c 1d 48 4a bc
       0.0700222 -0.08239792 0.018019972 -0.012346295
000380 84 b6 40 3d 1d 2a 36 be 0d c4 46 bd 0b ce 06 bd
       0.04704906 -0.17789502 -0.048526812 -0.03291134
000390 27 b6 95 3d 48 11 bc bc ea 95 d0 bd 47 0d 2d bd
       0.073101334 -0.02295746 -0.10184844 -0.04224899
0003a0 06 56 d9 3d 90 fa 51 bb c0 a0 20 3e 17 e3 4d 3d
       0.10612111 -0.0032040216 0.15686321 0.050265398
0003b0 e1 00 d2 3d 9a bc 96 bd db 5b d2 bc da 27 b6 3c
       0.10254074 -0.07360192 -0.025678566 0.0222358
0003c0 8c c8 ce 3c 2b 17 24 3c d4 0c d7 bd 4f 45 e6 bc
       0.025242113 0.010015289 -0.10500494 -0.02810922
0003d0 63 f5 f4 3d 83 ca 04 be e6 9c 27 bd fe 3d 9f 3d
       0.11960866 -0.12967877 -0.040921114 0.07775496
0003e0 ff 9b 80 3a 7b f5 00 be 69 83 0b 3e be 13 9d bc
       0.0009812115 -0.12593643 0.13624348 -0.019174453
0003f0 8c fa 04 3d 26 94 c2 3d b0 3e 28 ba f6 73 97 3d
       0.032465503 0.09500913 -0.00064180326 0.07395165

m_transform.0.11.bias f4 [96]
000000 f7 bd 7f bd 4a ad 71 3d 5a 28 9c bd e6 41 9f 3c
       -0.062437024 0.059003152 -0.07624884 0.019440603
000010 8f 87 b2 3c 61 3d 0a bd 81 80 0a 3e 57 1d 3a bd
       0.021793155 -0.03374994 0.13525583 -0.045438137
000020 fc 4e 24 3d 95 79 b2 3c 35 78 17 be 07 28 44 bd
       0.040114388 0.02178649 -0.14791949 -0.047889736
000030 54 c2 8c 3d cb af fe bd fc bf 03 3e f0 5a 47 bc
       0.06873003 -0.124358736 0.12866205 -0.012167677
000040 7b 02 1f be 11 02 c1 3d 47 fa bb 3d bf b4 f5 3c
       -0.1552829 0.09424222 0.09178596 0.029993413
000050 38 da d6 bd 2f 92 28 3d f6 41 9e bd 98 c5 0d 3d
       -0.10490841 0.041155037 -0.07727425 0.03461227
000060 cc bf 91 bd 7a 05 82 3d 55 1b 36 bd 51 f2 27 bd
       -0.071166605 0.06348701 -0.04445966 -0.041002575
000070 04 2b 38 3b e2 71 db bc bf 3d d0 3d 08 fb 20 3d
       0.0028101811 -0.026787702 0.10168027 0.039301902
000080 10 bb c8 bd 14 e1 d3 3d 7b 70 a6 bc 58 90 1b be
       -0.09801304 0.103456646 -0.020317307 -0.15191782
000090 87 c3 87 3d d3 ea c0 bd 35 b8 54 bc 7a eb c3 bc
       0.06629091 -0.09419789 -0.0129833715 -0.023915995
0000a0 fa dd 1c 3d 60 c8 54 bc 3e 37 e6 bd 4e f0 f1 3d
       0.03829763 -0.012987226 -0.11241005 0.118134126
0000b0 f3 9c 5f 3b 62 08 8c bc 31 67 75 bd f9 23 df 3d
       0.0034120649 -0.017093841 -0.059912864 0.10895533
0000c0 ed 22 f2 bd ac de 84 3d bd 7a 9a 3d 59 e0 b9 3d
       -0.11823068 0.06487784 0.07542942 0.09075994
0000d0 02 3e 0f be 5a 41 3e 3d d0 5d 0d 3d 2f 32 c3 bc
       -0.13988498 0.046449043 0.034513295 -0.02382764
0000e0 87 7f 9e bd c7 5c a1 3b dc d4 6b 3d e0 63 ba 3d
       -0.07739168 0.00492439 0.057576045 0.09101081
0000f0 45 bb cb 3d e1 b9 b5 3d b6 df 62 bd 0f 42 89 3c
       0.09947828 0.08873344 -0.05538913 0.016755132
000100 52 2e fe bc dc 17 f6 bc 1b 89 5e 3d e5 a5 1e 3e
       -0.031027947 -0.030040674 0.054329973 0.15492971
000110 a7 f2 bb bd a8 3a ae 3d 56 56 aa 3d ab 4b 03 3e
       -0.09177142 0.085072815 0.083172485 0.12821834
000120 34 71 b3 bd d0 56 92 bd c6 97 b5 bc ab fd a0 bd
       -0.08761826 -0.071454644 -0.022167098 -0.07860883
000130 69 8a dd 3d 57 70 8e 3d 27 1c 24 be d1 86 36 bd
       0.10817415 0.06955021 -0.16026364 -0.044562165
000140 f8 fa 51 3d ee 50 c5 3d 67 87 4b bd 2b c5 11 bd
       0.051264733 0.09634577 -0.049689677 -0.035588425
000150 6b 3f cb bd 21 81 60 3d f2 d0 2f bd 7b b7 ad 3d
       -0.099242054 0.054810647 -0.042923875 0.08482262
000160 a3 35 d0 3b cc f5 e5 bd fb 4e 89 bd 16 1c 4e 3d
       0.0063540502 -0.11228523 -0.067045175 0.050319754
000170 07 e1 a4 3d 84 b6 a9 bd 21 d6 f7 3d 0a 49 c1 3c
       0.08050733 -0.08286765 0.12101389 0.023594398

m_transform.0.13.running_mean f4 [48]
000000 55 32 e9 3e b1 80 1f 3f 2d 23 8d 3e ab 26 e5 3e
       0.45546213 0.6230574 0.275659 0.44756064
000010 9c 68 8a 3e 29 2f 1a 3f af fb 20 3f 8a de bb 3e
       0.27032936 0.6022821 0.6288404 0.3669322
000020 00 98 ca 3e 83 4a fc 3e e7 d0 dd 3e 88 3c 92 3e
       0.39569092 0.49275598 0.43323442 0.28561807
000030 3c aa 99 3e 28 3c 00 3f f1 c5 ed 3e 5e 24 49 3f
       0.3001269 0.5009179 0.4644008 0.78571117
000040 bc 91 cf 3e 2e a7 98 3e 04 33 da 3e 11 83 ca 3e
       0.40540874 0.29815048 0.42617047 0.3955312
000050 20 30 ef 3e d2 f2 c6 3e 62 6c dd 3e fb 97 d7 3e
       0.46716404 0.38857132 0.43246752 0.4210814
000060 6a 9b e7 3d 09 f1 ff 3e 7a 2e b4 3e 35 eb 05 3f
       0.1130894 0.49988583 0.3519171 0.5231202
000070 ee fc fa 3e 0d b8 c3 3e f8 a0 f9 3e e9 da 98 3e
       0.49021095 0.38226357 0.48755622 0.29854515
000080 41 e0 c9 3e b9 5b 10 3f 29 c4 c3 3e 04 13 95 3e
       0.39428905 0.5638996 0.38235596 0.2911607
000090 4a d0 a4 3e 88 c3 ec 3e 8a 2f b5 3e c1 ed b3 3e
       0.32190162 0.46242929 0.35387832 0.3514233
0000a0 9c 44 05 3f 8b ce 70 3e c0 2d f3 3e bd f6 18 3f
       0.52057815 0.2351629 0.47495842 0.5975149
0000b0 1a 45 29 3f fd 10 e4 3e 38 e6 00 3f 42 f4 d4 3e
       0.66121066 0.4454421 0.50351286 0.41592604
