Auxillary_Code/LCNN/project/03-asvspoof-mega/lfcc-lcnn-attention-oc/01/__pretrained/trained_network.pt (torch, 720973 bytes, 35 tensors)

m_frontend.0.lfcc_fb f4 [257, 20]
00000000: 0000 0000 0000 0000 0000 0000 0000 0000
00000010: 0000 0000 0000 0000 0000 0000 0000 0000
00000020: 0000 0000 0000 0000 0000 0000 0000 0000
00000030: 0000 0000 0000 0000 0000 0000 0000 0000
00000040: 0000 0000 0000 0000 0000 0000 0000 0000
00000050: 0000 a83d 0000 0000 0000 0000 0000 0000
00000060: 0000 0000 0000 0000 0000 0000 0000 0000
00000070: 0000 0000 0000 0000 0000 0000 0000 0000
00000080: 0000 0000 0000 0000 0000 0000 0000 0000
00000090: 0000 0000 0000 0000 0000 0000 0000 0000
000000a0: 0000 283e 0000 0000 0000 0000 0000 0000
000000b0: 0000 0000 0000 0000 0000 0000 0000 0000
000000c0: 0000 0000 0000 0000 0000 0000 0000 0000
000000d0: 0000 0000 0000 0000 0000 0000 0000 0000
000000e0: 0000 0000 0000 0000 0000 0000 0000 0000
000000f0: ffff 7b3e 0000 0000 0000 0000 0000 0000
00000100: 0000 0000 0000 0000 0000 0000 0000 0000
00000110: 0000 0000 0000 0000 0000 0000 0000 0000
00000120: 0000 0000 0000 0000 0000 0000 0000 0000
00000130: 0000 0000 0000 0000 0000 0000 0000 0000
00000140: 0000 a83e 0000 0000 0000 0000 0000 0000
00000150: 0000 0000 0000 0000 0000 0000 0000 0000
00000160: 0000 0000 0000 0000 0000 0000 0000 0000
00000170: 0000 0000 0000 0000 0000 0000 0000 0000
00000180: 0000 0000 0000 0000 0000 0000 0000 0000
00000190: 0000 d23e 0000 0000 0000 0000 0000 0000
000001a0: 0000 0000 0000 0000 0000 0000 0000 0000
000001b0: 0000 0000 0000 0000 0000 0000 0000 0000
000001c0: 0000 0000 0000 0000 0000 0000 0000 0000
000001d0: 0000 0000 0000 0000 0000 0000 0000 0000
000001e0: ffff fb3e 0000 0000 0000 0000 0000 0000
000001f0: 0000 0000 0000 0000 0000 0000 0000 0000
00000200: 0000 0000 0000 0000 0000 0000 0000 0000
00000210: 0000 0000 0000 0000 0000 0000 0000 0000
00000220: 0000 0000 0000 0000 0000 0000 0000 0000
00000230: 0000 133f 0000 0000 0000 0000 0000 0000
00000240: 0000 0000 0000 0000 0000 0000 0000 0000
00000250: 0000 0000 0000 0000 0000 0000 0000 0000
00000260: 0000 0000 0000 0000 0000 0000 0000 0000
00000270: 0000 0000 0000 0000 0000 0000 0000 0000
00000280: 0000 283f 0000 0000 0000 0000 0000 0000
00000290: 0000 0000 0000 0000 0000 0000 0000 0000
000002a0: 0000 0000 0000 0000 0000 0000 0000 0000
000002b0: 0000 0000 0000 0000 0000 0000 0000 0000
000002c0: 0000 0000 0000 0000 0000 0000 0000 0000
000002d0: 0000 3d3f 0000 0000 0000 0000 0000 0000
000002e0: 0000 0000 0000 0000 0000 0000 0000 0000
000002f0: 0000 0000 0000 0000 0000 0000 0000 0000
00000300: 0000 0000 0000 0000 0000 0000 0000 0000
00000310: 0000 0000 0000 0000 0000 0000 0000 0000
00000320: 0000 523f 0000 0000 0000 0000 0000 0000
00000330: 0000 0000 0000 0000 0000 0000 0000 0000
00000340: 0000 0000 0000 0000 0000 0000 0000 0000
00000350: 0000 0000 0000 0000 0000 0000 0000 0000
00000360: 0000 0000 0000 0000 0000 0000 0000 0000
00000370: 0000 673f 0000 0000 0000 0000 0000 0000
00000380: 0000 0000 0000 0000 0000 0000 0000 0000
00000390: 0000 0000 0000 0000 0000 0000 0000 0000
000003a0: 0000 0000 0000 0000 0000 0000 0000 0000
000003b0: 0000 0000 0000 0000 0000 0000 0000 0000
000003c0: ffff 7b3f 0000 0000 0000 0000 0000 0000
000003d0: 0000 0000 0000 0000 0000 0000 0000 0000
000003e0: 0000 0000 0000 0000 0000 0000 0000 0000
000003f0: 0000 0000 0000 0000 0000 0000 0000 0000
0.0 0.0 0.0 0.0 0.0 0.0 0.0 0.0
0.0 0.0 0.0 0.0 0.0 0.0 0.0 0.0
0.0 0.0 0.0 0.0 0.08203125 0.0 0.0 0.0
0.0 0.0 0.0 0.0 0.0 0.0 0.0 0.0
0.0 0.0 0.0 0.0 0.0 0.0 0.0 0.0
0.1640625 0.0 0.0 0.0 0.0 0.0 0.0 0.0
0.0 0.0 0.0 0.0 0.0 0.0 0.0 0.0
0.0 0.0 0.0 0.0 0.24609374 0.0 0.0 0.0
0.0 0.0 0.0 0.0 0.0 0.0 0.0 0.0
0.0 0.0 0.0 0.0 0.0 0.0 0.0 0.0
0.328125 0.0 0.0 0.0 0.0 0.0 0.0 0.0
0.0 0.0 0.0 0.0 0.0 0.0 0.0 0.0
0.0 0.0 0.0 0.0 0.41015625 0.0 0.0 0.0
0.0 0.0 0.0 0.0 0.0 0.0 0.0 0.0
0.0 0.0 0.0 0.0 0.0 0.0 0.0 0.0
0.49218747 0.0 0.0 0.0 0.0 0.0 0.0 0.0
0.0 0.0 0.0 0.0 0.0 0.0 0.0 0.0
0.0 0.0 0.0 0.0 0.57421875 0.0 0.0 0.0
0.0 0.0 0.0 0.0 0.0 0.0 0.0 0.0
0.0 0.0 0.0 0.0 0.0 0.0 0.0 0.0
0.65625 0.0 0.0 0.0 0.0 0.0 0.0 0.0
0.0 0.0 0.0 0.0 0.0 0.0 0.0 0.0
0.0 0.0 0.0 0.0 0.73828125 0.0 0.0 0.0
0.0 0.0 0.0 0.0 0.0 0.0 0.0 0.0
0.0 0.0 0.0 0.0 0.0 0.0 0.0 0.0
0.8203125 0.0 0.0 0.0 0.0 0.0 0.0 0.0
0.0 0.0 0.0 0.0 0.0 0.0 0.0 0.0
0.0 0.0 0.0 0.0 0.90234375 0.0 0.0 0.0
0.0 0.0 0.0 0.0 0.0 0.0 0.0 0.0
0.0 0.0 0.0 0.0 0.0 0.0 0.0 0.0
0.98437494 0.0 0.0 0.0 0.0 0.0 0.0 0.0
0.0 0.0 0.0 0.0 0.0 0.0 0.0 0.0

m_transform.0.0.weight f4 [64, 1, 5, 5]
00000000: 4b62 bc3d 65de 8fbd 9e26 04bd e2ae 9c3d
00000010: d08d 3fbe 1683 013e 52a7 bebc 1a27 d13d
00000020: d75d f93c 8f23 4bbc d448 a53d 0659 f03c
00000030: f42a 703d 26ea 93bd de1d 1ebc 5de8 85bb
00000040: 25fc 7c3d 96ca 983a 699c 2e3e 877d 3c3d
00000050: 590b a9bd cb82 efbd 9475 10bd 1e26 c3bd
00000060: 4077 cebd 77de fb3b 78a7 c63d d6c9 b23d
00000070: 4439 3cbe a325 d23d 6455 983d b634 313e
00000080: 693f 0a3e fbfb 3fbe 6082 56be de03 a7bd
00000090: 682e 263e ff66 66bc 7304 9f3d 05a5 afbd
000000a0: f9ff 533e 3930 c4bd 15da 293e d876 f9bc
000000b0: fd50 d7bd 7c46 ad3d 69be e7bd adec 943d
000000c0: 79bc 9ebd 4275 0dbd 8ad9 64be 80b5 c8bd
000000d0: 3fbc d73d 7da3 eebc b80b 3e3e cd64 ff3d
000000e0: ba3b a7bc 8669 ddbd 8307 d33d dd0d ab3c
000000f0: 0be2 0dbe 9eba 093e de91 253e 80d2 4a3e
00000100: 45bc c1bd 0467 c4bc f949 a43c 8b55 a93c
00000110: 1692 88bd b04c edbd ffcc a73d e404 08bd
00000120: 3329 e73d b1f0 6b3d 102e 7c3d 147c 2e3d
00000130: 28f7 313d 847d 153e aea8 2abe 74ff da3d
00000140: 9522 12be 4e93 1fbe 505a de3c 2ef5 3fbd
00000150: 50d7 e33d 77f1 f6bd abc1 3cbe 26b8 263e
00000160: d000 5cbd 4365 c83d f0b8 663d 49d1 21be
00000170: 518b a83d 1831 f83b de21 d3bd 9eb4 c0bd
00000180: e81f 453d 29b5 693d 652d 01be 9b2a 21bd
00000190: d781 423e 6470 dcbc 65ee c03d 5b55 893d
000001a0: 790d 0cbe 4a98 34be 8195 4c3e b136 4abc
000001b0: cc58 063e 71ba 1e3d bebf a03d 660d 213e
000001c0: 85a5 3a3e 386c 00be b86a 2b3d 627e 293e
000001d0: 3b6d 1f3e 4b35 e23d 183f 16be e449 08be
000001e0: 0e36 08be 9c99 223d ed2d 533e ef2f e7bd
000001f0: b602 003e 4897 00be 4cb7 3abe f518 a5bd
00000200: 37f4 e13d 26e9 0c3e 9223 1dbe 8c28 2e3d
00000210: 72f4 033e 8e3b d13d 4666 c23d 5ae1 f93d
00000220: b6a8 063e d826 7a3c f9d7 0fbe 17db 1dbe
00000230: 924f e0bd ddfb a5bc 353f 14be f3ea b13d
00000240: 4ce1 d93d 6ec3 9bbd e36a a33d d424 183d
00000250: b319 003e 2e16 013e 82b8 abbd 5d0f 503e
00000260: ecfd 26bd e698 653c 04ca 75be 2d94 1fbe
00000270: 8f3a d0bd 25ee c8bd dabd 283e 59dd f2bd
00000280: 2c74 2ebe fc86 a13d 2579 b63c 229d fb3d
00000290: 969c 06be 615c 023d b493 9c3b a3a8 a6bd
000002a0: 3350 d5bd 164c 06be 2d0d 64bd 873b 043e
000002b0: 8cff afbc fb3c cc3d 4bd4 123e a0e3 673e
000002c0: 2ba4 143e 7b34 093d 0c60 1bbe 1680 243e
000002d0: 23f4 24bd 1945 e039 7eb8 2cbe f90f 0ebd
000002e0: fba6 d1bd d5cc 533e 5dfb 08be 900e 06be
000002f0: 8904 1fbc 4191 a7bd cef3 b53d acfe 47bd
00000300: 402c bdbd 8bc5 7139 3241 0d3e a898 04be
00000310: 2068 fd3d 7179 083e 96e1 533e fa3a ffbd
00000320: b0d4 0f3d 1096 25be 5192 1b3e 5f5e f3bd
00000330: 8bb6 1b3e 4a5a 76bb f4b2 28bc 3bee 29bd
00000340: 0641 57bc 1db1 043e a3df 3a3c f49c 8c3d
00000350: 5342 44be 30e1 103e 3d2b 543e 0315 253e
00000360: a0b5 0b3e d554 23be d688 b7bd 8205 433e
00000370: 3b94 29be 8172 2c3e 5536 3dbe 8615 d5bd
00000380: 3eaf cb3d c095 06be d7d3 27bd abfd 1a3e
00000390: 9590 133e cc45 163e 8b97 efbc 3ccb 18be
000003a0: 7f8c 5b3e 5089 42bd 5c34 d2bd 5ede 733d
000003b0: 9897 1cbe 3380 1c3e d10c d73d 9130 32be
000003c0: 7bcf 1bbe ee2d 08bd 768b e73d 1904 0ebc
000003d0: 5d94 15be f9fe 6c3c 84b4 3fbe 1af6 f4bd
000003e0: 945f 04be 7767 033e ea05 043e a47e 13bd
000003f0: 1961 09bd e46b e43d 5439 e7bc 9f96 edbd
0.091984354 -0.0702484 -0.03226339 0.07650544 -0.18706441 0.12647662 -0.023273144 0.10212536
0.030440254 -0.012398615 0.080705315 0.029339325 0.058634713 -0.07222395 -0.009650676 -0.0040865378
0.0617639 0.0011657055 0.17051853 0.04601815 -0.082541175 -0.11694869 -0.03526838 -0.09528755
-0.10081339 0.007686432 0.09699911 0.087299034 -0.1838122 0.10261085 0.07438162 0.17305264
0.13500752 -0.18748467 -0.20948172 -0.081550345 0.1622864 -0.014062642 0.077645205 -0.08576397
0.20703115 -0.0957951 0.16587098 -0.030452177 -0.10513494 0.084607095 -0.11315615 0.07271705
-0.07750792 -0.034535654 -0.2234861 -0.098002434 0.10533952 -0.029130692 0.18559158 0.12470398
-0.020414222 -0.108111426 0.10304167 0.020880634 -0.1385576 0.13450095 0.16168925 0.19806862
-0.09459738 -0.023974903 0.020054804 0.020670673 -0.06668489 -0.115868926 0.08193397 -0.03320779
0.11287155 0.057602588 0.061567366 0.0425988 0.043448597 0.14598662 -0.16665909 0.10693255
-0.14271004 -0.15583536 0.027142674 -0.04686468 0.11125052 -0.120577745 -0.18433253 0.16281185
-0.053711712 0.09784939 0.056328714 -0.15802492 0.082296975 0.007574212 -0.10309194 -0.0940945
0.04812613 0.057057533 -0.12614973 -0.039347272 0.18994842 -0.02690906 0.0942047 0.067057334
-0.13677014 -0.17636219 0.19978906 -0.012342141 0.13119811 0.038752023 0.07849072 0.15727767
0.18227203 -0.12541282 0.04184982 0.16552117 0.15569012 0.11045321 -0.14672506 -0.13309437
-0.1330187 0.039697275 0.20622988 -0.112884395 0.12501034 -0.12557709 -0.18233985 -0.08061401
0.110329084 0.13760814 -0.153456 0.042519137 0.12886217 0.10216437 0.09492163 0.122011855
0.13150296 0.01526805 -0.14047231 -0.15415607 -0.10952677 -0.0202617 -0.14477237 0.08687391
0.10638675 -0.07605635 0.079793714 0.037144497 0.12509803 0.12606117 -0.083848014 0.2031836
-0.040769503 0.014013505 -0.24002844 -0.15583868 -0.10167419 -0.098110475 0.16478673 -0.11858625
-0.17036504 0.07887074 0.022274563 0.1228583 -0.1314567 0.03182638 0.00477835 -0.08137634
-0.104156874 -0.13114962 -0.055676628 0.12913333 -0.021484159 0.099725686 0.14338796 0.22645426
0.1451575 0.033497315 -0.15173358 0.16064486 -0.04027189 0.0004277609 -0.16867253 -0.0346832
-0.10236927 0.20683606 -0.13377137 -0.13091493 -0.009705671 -0.08182002 0.08884393 -0.04882686
-0.09236956 0.00023057142 0.13794401 -0.12948859 0.12373376 0.13327576 0.20691523 -0.12462421
0.035114944 -0.16170526 0.15192534 -0.11883234 0.15206353 -0.0037590438 -0.010296572 -0.04148696
-0.013138061 0.12958188 0.011405858 0.06865874 -0.19165926 0.14148402 0.20719619 0.16121297
0.13643503 -0.1595033 -0.08961646 0.1904507 -0.16560452 0.16840555 -0.18477757 -0.10404496
0.09945534 -0.13143063 -0.04097351 0.15135829 0.14410622 0.14675063 -0.029247066 -0.14921278
0.21440314 -0.047494233 -0.10263893 0.059538238 -0.15292203 0.15283279 0.105004914 -0.17401339
-0.15215866 -0.033246927 0.11305897 -0.008667969 -0.14607377 0.014465087 -0.18721205 -0.11961003
-0.12927085 0.12832437 0.12892881 -0.036009446 -0.033539865 0.11153391 -0.028225578 -0.11600994

m_transform.0.0.bias f4 [64]
00000000: 4d23 eebc 3fda 493b ad86 02be 766e 313e
00000010: bcdf 233e a14c 0dbe 18a1 503e a56f 603e
00000020: 9f89 debd b963 1bbd 525a 583e e084 0fbe
00000030: b038 f5bb f89e 12be 82f8 253e ed07 8d3d
00000040: 049b bf3d 0689 033e 0fee 0abd 3b69 48be
00000050: 33f5 be3c be22 88bc b7f5 963d 64a8 853d
00000060: cd50 efbd 75ce 3ebd ffef 013e afbe 8f3d
00000070: 0fe9 533d a855 043e d3ba d03d 058f 0abe
00000080: 3132 1b3a 2645 b53c 50fb 4abe 69e9 063d
00000090: 540d 06bc f1cb 123e 74bf 6bbe 1791 2b3e
000000a0: 8448 e3bd 9388 0a3e 4757 e93d 69aa 0cbd
000000b0: 06a6 1dbe 9033 37bd 130e 0fbe f645 943b
000000c0: 9dc6 563d c507 7b3d 471b 01be 0d07 d93d
000000d0: c575 3a3e 9df6 93bd e09c e43d d5c2 a5ba
000000e0: 52a6 b33d 709e 35be ac18 3fbe 27b7 68bd
000000f0: 57b4 3dbe 0c5d a63c 67d5 293e d828 48bd
-0.029069567 0.003080025 -0.12746687 0.17327294 0.16003317 -0.13798763 0.20373952 0.21917589
-0.10866093 -0.0379369 0.21128204 -0.14015532 -0.0074835643 -0.14318454 0.1620808 0.06886277
0.09355739 0.12845239 -0.033918437 -0.19571392 0.02331028 -0.016618129 0.07371085 0.065262586
-0.116853334 -0.04658361 0.12689207 0.07018792 0.051735934 0.129233 0.10191884 -0.1353112
0.000592026 0.0221277 -0.1982243 0.03293744 -0.008181889 0.1433561 -0.23022252 0.16754566
-0.11097816 0.13528661 0.113936 -0.034342203 -0.15395364 -0.04472691 -0.13970213 0.0045249416
0.052435506 0.061286706 -0.12608062 0.10597048 0.18208988 -0.07224772 0.11162734 -0.0012646565
0.087719575 -0.1773622 -0.18661755 -0.056815293 -0.18525825 0.02030804 0.16585313 -0.048867077

m_transform.0.3.weight f4 [64, 32, 1, 1]
00000000: 2e3a 6b3c ba02 303d 1bbb acbd 0b10 bf3b
00000010: 8853 5e3d 298c 0a3e 34ca f3bd 9e68 1bbc
00000020: f9bc 0dbe ce54 c83b 6868 de3b 83b6 2cbd
00000030: 66f9 0f3e d044 e73d 054b 84bd 4498 81bc
00000040: 768c 62bd d12b a63c 5b95 a63d 9440 333e
00000050: b649 1ebe 3b3a ca3d 7e75 debd 5929 07be
00000060: 96b4 193e a9c8 7ebc 767c babd 741d 6c3d
00000070: e050 b1bc 9171 19be 7652 9cbd aa76 7fbd
00000080: 56aa 9bbc afd3 04be ba5e 40be e054 c63d
00000090: 883d 22be 0d06 cfbc ab56 083e 14ed abbd
000000a0: f96c 09be 8275 033c 9f9b 2e3e 0f6e 12ba
000000b0: 4fa1 3ebc 2bce 5a3d c1b2 643c ab33 de3c
000000c0: 0ca4 953d 6e6f 9f3d 2359 ebbd 15ed 8cbd
000000d0: 2736 f73d d4f6 a43b 380a 713d b893 3d3e
000000e0: 4179 cb3d f42b d23d 73cd 1e3e e7b3 2bbe
000000f0: 6e67 063c 8280 653d 6a76 65bd 595a abbd
00000100: a242 d63c 41f0 20be 1566 81bd 2f34 2c3e
00000110: 3e6a 94bd 97ae 68bd d1a0 e03d 82a2 0cbd
00000120: 1f2c ab3c 065d 32be d739 e63d 0514 0fbe
00000130: 5c0e 263c 68fc 36be 8960 28be 5c86 1a3e
00000140: 9f26 b9bd 2427 6b3b 217b b039 06ba 373e
00000150: bc5c 553d d5b6 b93d 85f7 b5bd 1477 69bd
00000160: bdc6 283e 6601 c03d 0bf5 823d 45a1 f4bd
00000170: e279 1bbe 0add ba3c b87a 1cbe b076 d73d
00000180: 99e5 1b3e fd46 c6bd 3dd1 eebd bc62 2f3e
00000190: 668d e0bd e758 08be 7a34 1dbe 5190 d33c
000001a0: f809 5b3c 34fd dc3d d0ed 073e d172 7e3d
000001b0: 4c87 db3c e7ee 1e3e 12a5 9cbd 3ce2 f8bc
000001c0: e273 0d3e 4d97 81bd 97c7 ca3d b25e ea3c
000001d0: 701d 253d a3fe 7cbd 7af8 1cbe c13a 0d3e
000001e0: 6a0f 0b3e a18b 10be 1b09 e0bd 5061 0abc
000001f0: de88 a53d 0ead a2bc 3413 aabd ed63 043e
00000200: 7753 b9bd 98c7 2d3e 50d7 2fba 1a5d ab3d
00000210: 0fd7 263d 4105 d23c 6a55 fa3d ec2a 94bc
00000220: 0ee7 ff3d 1d7d 413d 87df d5bd 27e7 dd3d
00000230: 755a 08be c7a8 d13d f931 14bd 3fa3 363d
00000240: 8b4a d6bc 2167 2d3d 8408 27bd db6f b13d
00000250: cbf6 ab3d 1a7a 21be 990b 183e 6a83 14be
00000260: 7ffc bdbd a658 d23d 0058 273e e15c 863d
00000270: 8cad debd 0c30 ae3c 8f0c e7bd f2b7 933d
00000280: 96fc cc3b 62a3 7c3c 92a1 0abe a3e4 d73d
00000290: d5cc 2d3e 7e13 14be 9de2 773d 822e 70bd
000002a0: 9f0c 3dbd 461e 1d3e 50e2 1cbe a503 4ebc
000002b0: 96ac 283c 041b b03d b0e0 1ebd 5f99 91bd
000002c0: 75ea 8b3c 648c 17be 31aa 8e3c b775 cebd
000002d0: d904 6fbd 21df 213e ae17 2fbe f722 91bd
000002e0: df9d e1bd 7e0a 0d3e ad26 1b3e ea32 edbd
000002f0: fb04 f33d ce3b e43d abf7 21be 5b75 f23c
00000300: a6ae 773d 3ffb 5bbd 4f29 de3d 62cf cdbc
00000310: b9fc 74bb 674f 973d b0c6 2abe 789a 42be
00000320: 0b6e a83c 74d6 103b ddc0 93ba 60f6 f3bd
00000330: 2ac2 003e 51a4 04be 72f0 90bd 8d64 ebbd
00000340: 72d3 35be bde8 1b3d 3c97 9dbd 01a3 bb3d
00000350: cf50 153e 5f5a 543d cbc3 073e a0e7 24be
00000360: c6b6 ac3d e235 e93d e612 b3bd 4954 99bc
00000370: 0c0f dfbd 23c5 01b9 e194 15be 0177 07be
00000380: df52 27be 19b9 1bbd a6e5 953b 5886 0bbe
00000390: 8c07 82bd cd5d fc3d ec8a 3dbc 6800 163d
000003a0: c275 a8bd 2348 59bd 1251 18be 1437 253e
000003b0: 3258 7b3c 1f9c a03d d19c eb3d 3021 243e
000003c0: bfd0 fdbd b70d 773d 4117 21be bfbe 8a3d
000003d0: 7667 c9bd c467 4a3d a399 00be 79d0 ce3d
000003e0: 4f66 f43d 98f4 b93d 15c3 1bbe 6e2e c93d
000003f0: a0cf f3bd 6cf3 25be 4d23 dc3d b8e7 c73c
0.014357133 0.04297135 -0.08434125 0.00583077 0.05427888 0.1353003 -0.119038016 -0.009485392
-0.13841619 0.006113625 0.0067873485 -0.042166244 0.14059982 0.11292422 -0.06459621 -0.015819676
-0.055309735 0.020284565 0.08133956 0.17505103 -0.15457806 0.09874388 -0.108622536 -0.13199367
0.15010294 -0.015550771 -0.0910577 0.057645276 -0.02164501 -0.14984728 -0.07632916 -0.062369026
-0.019002121 -0.12971376 -0.18786135 0.09684157 -0.15843785 -0.02527144 0.13314311 -0.083948284
-0.13420476 0.0080236215 0.17051552 -0.0005585858 -0.011635139 0.053419273 0.013958634 0.027124247
0.0730668 0.077849254 -0.11491611 -0.06881157 0.120708756 0.005034307 0.058847636 0.18513381
0.09935237 0.1026229 0.1550806 -0.16767846 0.0082033705 0.056030758 -0.05602113 -0.08366842
0.02615482 -0.1571665 -0.06318299 0.16816781 -0.072468266 -0.056807127 0.10968173 -0.034334667
0.020895062 -0.17418298 0.11241501 -0.1397248 0.0101352595 -0.17869723 -0.16443075 0.15090317
-0.090405695 0.0035881484 0.00033661074 0.17942056 0.05209039 0.090680756 -0.08885101 -0.056998327
0.16482063 0.09375267 0.063943945 -0.11944822 -0.15183213 0.022810478 -0.15281188 0.10520685
0.15224303 -0.09681509 -0.11661003 0.17127508 -0.109644696 -0.13315164 -0.1535205 0.025825651
0.013369076 0.10790482 0.13274312 0.062121216 0.026797913 0.15520822 -0.07648672 -0.030381314
0.13813737 -0.063276865 0.0990135 0.028609607 0.040311277 -0.061766278 -0.15329161 0.13791944
0.13580099 -0.14115764 -0.10939237 -0.008446053 0.08082746 -0.01985791 -0.08304444 0.12928744
-0.09049123 0.1697067 -0.0006707804 0.08367367 0.04073244 0.02563727 0.12223323 -0.018086873
0.12495242 0.047238458 -0.10443025 0.108351044 -0.13315757 0.1023727 -0.03618047 0.044589277
-0.026158592 0.04233468 -0.040779606 0.08663913 0.083966814 -0.15769234 0.14848174 -0.14503255
-0.092766754 0.102708146 0.16342163 0.06560684 -0.10872945 0.021263145 -0.11281692 0.07212819
0.0062556965 0.015419813 -0.13538197 0.10541656 0.16972668 -0.1446056 0.06051885 -0.058638103
-0.046154615 0.1534358 -0.15320706 -0.012574111 0.010295054 0.08598903 -0.038788497 -0.07109331
0.017079571 -0.14799649 0.017415138 -0.10081046 -0.058354232 0.15807773 -0.17098877 -0.07086747
-0.1101644 0.13773534 0.15151472 -0.11581977 0.11866184 0.11144219 -0.15817134 0.029596975
0.060469292 -0.053706404 0.10847723 -0.025123302 -0.003738208 0.07388192 -0.16677356 -0.19004238
0.020560285 0.002210048 -0.0011272688 -0.11912227 0.12574068 -0.12953307 -0.07077111 -0.11493788
-0.17756441 0.038063753 -0.07694861 0.0916195 0.14581607 0.051843997 0.13258283 -0.16103983
0.08433299 0.113872305 -0.08743839 -0.018716948 -0.10891542 -0.00012375838 -0.14607574 -0.1322899
-0.16340207 -0.03801832 0.0045744954 -0.13625467 -0.06349096 0.123225786 -0.011568766 0.03662148
-0.082255855 -0.05304731 -0.14874676 0.16134292 0.015340852 0.07842278 0.1150452 0.16028285
-0.12393331 0.060315814 -0.15731527 0.06774663 -0.09834187 0.049415365 -0.12558608 0.10098357
0.11933576 0.09079856 -0.15211137 0.09823309 -0.11904836 -0.1620614 0.107489206 0.024402484

m_transform.0.3.bias f4 [64]
00000000: d1bd 053d 5731 293e 376f ca3d 7d85 2ebe
00000010: ffab f7bd c9c9 a53d bff5 c9bd 2f23 0ebd
00000020: 0173 7bbd f179 ecbd 8fcd 7dbc 29a3 013d
00000030: 0fe9 d339 59ca debd 0d20 07be 5914 303e
00000040: f612 093e d748 a8bd 437a e4bd 1e6c cebc
00000050: 40c1 babd 1f06 48be d94d 09be dc2d 2a3e
00000060: baac 3ebd 1f3f f73d 7f7d d83d 0005 05bd
00000070: e917 7abd 57cf f53d b43d f0bc accb c0bd
00000080: 3cb1 a03d 10f7 cfbd 981b 9e3d 3575 813d
00000090: cc06 10be 01e5 c5bd 9688 6e3d 9834 61bc
000000a0: b889 373d c7cc 20bd 000d 0bbd b1c9 ddbc
000000b0: a527 653d f130 9cbd da23 46bd d8f2 0b3e
000000c0: 03e8 3a3e 2066 013e 6316 123e 1d6d 03be
000000d0: e7c9 71bd 48e5 dabd e0ff 92bd 5803 9f3d
000000e0: 6581 2b3e 2c5f 1ebe 3d27 b13d 210b 50bd
000000f0: f3d7 0c3e fdb8 1e3d 6e94 01be 8f06 bf3d
0.032651726 0.16522728 0.09884494 -0.17043109 -0.120933525 0.08095128 -0.098613255 -0.034701522
-0.061388973 -0.11546696 -0.0154909035 0.031649742 0.00040418698 -0.108784385 -0.1319582 0.17195262
0.1338614 -0.08217018 -0.11156132 -0.025198039 -0.09118891 -0.19533585 -0.13408603 0.16619056
-0.046551444 0.12072586 0.105708115 -0.03247547 -0.06105796 0.120024376 -0.029326297 -0.09413847
0.07846305 -0.10154545 0.07720107 0.063211836 -0.14065093 -0.0966282 0.058235727 -0.0137454495
0.044809073 -0.03925779 -0.033947945 -0.027073713 0.05594601 -0.07626522 -0.048374034 0.13666856
0.18252568 0.12636614 0.14266352 -0.12834592 -0.05903044 -0.10688263 -0.071777105 0.0776431
0.16748579 -0.15465993 0.08650062 -0.050791863 0.13754253 0.038750637 -0.12654278 0.09327423

m_transform.0.5.running_mean f4 [32]
00000000: 0b41 383e 8a80 bd3e 23d3 2a3d effb 62bb
00000010: 787d 693e 729b 81bd 3add d43d 3e54 903c
00000020: 326f 10bf 4d7b ba3d 503b 87bd 31a9 c73e
00000030: 67d5 7e3e 0b87 d4bd 3f8a d53c 98d2 ca3e
00000040: 8375 aa3d 9501 4a3d 22d8 f03d 51cd 07bd
00000050: 8add 93bd e3cc 04be db68 08bd 1a37 763e
00000060: 0c57 12be 4925 a03d 5a4c 11be 6ae6 64bd
00000070: 66a9 b23d feb8 013e d4b3 56bd b1ff 173f
0.17993562 0.3701213 0.041705262 -0.0034635027 0.22801769 -0.06328477 0.10393758 0.017618295
-0.5641967 0.09105549 -0.0660311 0.3899627 0.24886094 -0.1037732 0.026066897 0.39613795
0.08323195 0.049317915 0.11759974 -0.03315479 -0.072199896 -0.12968783 -0.033303123 0.24044457
-0.14291018 0.078196116 -0.14189282 -0.055883802 0.087237164 0.12668225 -0.05241759 0.5937453

m_transform.0.5.running_var f4 [32]
00000000: bacf b73c 0fd0 2b3d bf73 133d b449 3c3d
00000010: 0fb7 113e 5ba4 093d 5078 3f3d b436 df3c
00000020: 40e0 443e 35b8 033d a845 283d 6f03 1f3e
00000030: 47ae 043e 5603 af3c 6148 b73c 19c1 633d
00000040: 8820 c93c 584d 473d 1d90 f73c 6ef8 c83c
00000050: d9a7 993c edcd 9f3c f953 d33c 3e22 093d
00000060: a643 f93c b3e3 923d d122 9f3d 9001 193d
00000070: d4a8 043d b27d b33c 85ba 8d3c be7e 953e
0.022437919 0.041946467 0.035999056 0.045968726 0.14229988 0.033604007 0.0467456 0.027247764
0.1922617 0.032158095 0.041082054 0.15528654 0.12957107 0.021363895 0.02237338 0.055604074
0.024551645 0.048657745 0.030220086 0.024532523 0.018756794 0.019507373 0.025796877 0.03347992
0.030427765 0.071723364 0.077703126 0.037355006 0.03238757 0.021910522 0.017300854 0.2919826

m_transform.0.6.weight f4 [96, 32, 3, 3]
00000000: bce8 03bd 8ae3 803b cdee 24bd d7af b63c
00000010: e6a8 3c3d 7e62 15bd 07c1 5ebd 25bf 843b
00000020: dbbd ba3c 9676 7d3c 9859 83bd d3e0 5a3c
00000030: 6388 59bd 7c73 ecbc b821 debb a4fd 77bd
00000040: bb7b c33c 9cee 26bd 3a0f b23c 380a 1bbc
00000050: e2bf 083d a951 d53c 9377 083d de9e 32bc
00000060: 7280 b5bc c379 2e3b 41e3 643d 1d79 b23c
00000070: 4ab3 bfbc c7b6 33bd cb49 78bc 2896 d1bc
00000080: 89c3 2abd 744d 4a3d 65eb 0abd a799 fc3c
00000090: 6071 693d c7f3 d6bc 3e5f 173d 153d 87bd
000000a0: e631 5e3c 654a 01bd f027 6dbd 1259 4c3c
000000b0: 2ef5 063d 2c2d 13bd 4d8b 6e3c 1537 1a3d
000000c0: 2512 8bbd 2aec 373c 5ee9 21bd 320d 3dbd
000000d0: 5dd4 5f3d f3c4 00bd 2fa8 3b3c d4a3 74bd
000000e0: 28ef ba3b 4d2e 633d ae12 42bd d1ca 2bbd
000000f0: e551 b33d 4d4e 86bd eb7b fcbb accf 3abd
00000100: ea42 9fbc 1966 8139 6ffa 3b3d b2f2 96bc
00000110: 09d6 3bbc cc2e 1abd 1e64 4ebb b038 7fbc
00000120: a95e 233c a64a bdbb 17fe 9cbb 44d4 9ebd
00000130: d798 33bc 39ce 8ebd fa19 98bd e049 b93c
00000140: d851 76bd 802f af3a 2938 bb3c a22d 03bb
00000150: 40e4 383d fcd4 e0bb b81f 6a3d e092 99bc
00000160: e227 0fbd 1f3b 0cbd 21c3 193d ff27 cfbb
00000170: 3bdb 2bbd 0a86 11bd e132 78bd 0699 9ebc
00000180: 65b8 9bbc edee d6bc ba52 08bd 2ad2 10bd
00000190: 8c70 263c 06c5 c63b 7fee 31bd 0ab1 4b3d
000001a0: 165e 053d 507b 313d f40f 873c a167 5bbc
000001b0: e53d 613c 5f0d 2c3d a020 083d c401 19bc
000001c0: 32af 9bbc 972c fdbb 81e7 303d 73ef d2bc
000001d0: a9c2 a8bc 4cea dfbc d8fc 7bbd 06d6 e63a
000001e0: 6c91 ebbb 26c6 26bc 525e 2e3d b249 9b3c
000001f0: ac73 083d 561a aebb 60cd a1bc 3081 243d
00000200: af4d a13a 3eb7 86bc dec6 463c 5c91 18bd
00000210: 2d90 f4ba 1f33 113d 5dc2 223d f3f4 7a3d
00000220: 92bb 7ebd c881 3fbd c972 543d 1eea cc3c
00000230: a06c 92bd d058 d0bc 07cb 86bb 0c90 79bd
00000240: 41ed 8fbc f6bf bebb 01b5 9b3d f60e 8cbd
00000250: 37ac f2bc 9c32 b5bb 8ecc 34bd 0d59 e2bb
00000260: e091 a9bc 7781 893d 1d25 123d 5ffd 0f3d
00000270: 3f33 48bd d7e6 ba3b b9fb 55bc 5b59 5ebc
00000280: fda3 d93c 0188 acbc c8b0 cdbc 6be0 503b
00000290: ce9b ba38 842f 63bd 3511 8dba 492b 48bc
000002a0: d3ff 64bd 31fb 70bc d8af 233d 8c57 a03c
000002b0: 731a f83c 2eff b03c 780d f4bc 704c 4a3d
000002c0: 458e 3cbc 33d8 dcbc 57b5 093d 7608 fabc
000002d0: b0f4 1abc 42f3 2b3d a6c3 27bc b708 b9bd
000002e0: 0c63 ee3b 2cfa 403d 6dd6 b5bc 8d0e 823c
000002f0: dbf7 28bc 3811 c93c a84a ba3c 9699 41bd
00000300: d90e cebc 8f64 27bc 50ba 483c 25d3 b3bd
00000310: 9024 93bd ea3a 86bc 5aa9 093c d1ad 6f3d
00000320: 82bd 4dbd 4e19 063d 49ea a33c a585 8c3d
00000330: 81a9 0fbd 5ff4 b9b9 971e 2cbb f313 87bd
00000340: 1ff9 063d 8baf 44bd 3f34 f83b 71ed 37bd
00000350: a631 613c 4265 103c 9d2a 63bc 4736 67bd
00000360: 9be4 73bd 35fd 673c 6f13 8abd db7c 3a3c
00000370: 2a77 6c3d 5e51 e1ba 2a87 423b 5944 62bc
00000380: ad9f ec3c 7499 8bbd 2f70 3ebd d2a1 b23a
00000390: b5bd 813c b3c0 11bd c46b 04bb 939c 36bd
000003a0: 8119 b73c dae3 09bd 42f1 07bd 42e2 ea3c
000003b0: edf8 ccbc 31ff 3b3d ef16 0cbd 7c0f c5bc
000003c0: e461 dbbb fee3 55bc d702 5dbd fc6a 8ebd
000003d0: c340 74bd 2cb6 8a3d 21a7 80bc 6219 24bd
000003e0: 5d89 223d 763c febb e452 4abd 6f1f 793d
000003f0: 9e9e 28bd cdf3 96bd bd5e 913c 797e fe3c
-0.032204375 0.003933375 -0.0402668 0.022300644 0.04605951 -0.036470883 -0.054383304 0.0040511065
0.022795608 0.015470168 -0.06413573 0.013359266 -0.053108584 -0.028863661 -0.006778922 -0.060544625
0.02386271 -0.0407549 0.021735776 -0.009462886 0.03338612 0.026039915 0.03331716 -0.010902135
-0.022155974 0.0026622869 0.05588079 0.021786267 -0.023400921 -0.043875482 -0.015154312 -0.025584295
-0.041690383 0.04939027 -0.033915896 0.030834986 0.05699289 -0.026239289 0.036956064 -0.06603447
0.013561701 -0.03156509 -0.057899415 0.012472408 0.032948665 -0.03593175 0.014559579 0.037650187
-0.0679057 0.0112257395 -0.039529197 -0.046155162 0.054645885 -0.031437825 0.011453672 -0.05972655
0.005704779 0.055464078 -0.047381096 -0.041941468 0.087558545 -0.065579034 -0.007705202 -0.045608208
-0.019441087 0.00024680866 0.04589313 -0.018426273 -0.011464604 -0.037642285 -0.003149278 -0.01557748
0.009971299 -0.005776721 -0.004791032 -0.0775533 -0.010961733 -0.069729276 -0.0742683 0.022618234
-0.060136646 0.0013365597 0.022853928 -0.0020016213 0.04513955 -0.006861327 0.057159156 -0.018746793
-0.034950145 -0.03423607 0.037539605 -0.0063219066 -0.04195712 -0.03552822 -0.060595397 -0.019360077
-0.019008825 -0.026236976 -0.03328202 -0.035356678 0.010158669 0.0060659675 -0.04344034 0.049729384
0.03256043 0.04333049 0.0164871 -0.013391406 0.013747667 0.04200494 0.03323424 -0.0093388
-0.019004438 -0.007726263 0.04318953 -0.025748944 -0.020600634 -0.027333401 -0.061520427 0.0017611391
-0.0071889665 -0.010179078 0.04257042 0.01895604 0.03331344 -0.005313198 -0.01975125 0.040162265
0.0012306477 -0.016444799 0.012132375 -0.037248 -0.001865869 0.035449143 0.03973614 0.061268758
-0.0621906 -0.04675463 0.05186728 0.02501398 -0.07149625 -0.025432974 -0.004113558 -0.06092839
-0.017569186 -0.0058212234 0.07602883 -0.06838791 -0.029623134 -0.0055297147 -0.04414039 -0.0069075883
-0.020699441 0.067141466 0.035679925 0.035153743 -0.048876997 0.005703788 -0.013060504 -0.013571109
0.026567454 -0.021060945 -0.02510871 0.0031872045 8.898192e-05 -0.055465236 -0.0010762574 -0.012217351
-0.055908035 -0.014708326 0.03996262 0.019572996 0.03028605 0.021606054 -0.029791579 0.049389303
-0.011508529 -0.02695856 0.033620205 -0.030521613 -0.009457752 0.041980036 -0.010239517 -0.09034865
0.007274991 0.047113582 -0.022196973 0.015876079 -0.010313 0.024544343 0.022740677 -0.04726561
-0.025153564 -0.010216846 0.012251452 -0.08780507 -0.07184708 -0.016385514 0.008402193 0.058515374
-0.050229557 0.032738976 0.020009177 0.06861428 -0.03507376 -0.0003546802 -0.002626335 -0.06595602
0.032952424 -0.048018973 0.0075745876 -0.044904176 0.013744747 0.008813204 -0.01386514 -0.056448247
-0.059544187 0.01415949 -0.06741988 0.011382307 0.05773083 -0.0017190387 0.0029682615 -0.013810241
0.028884733 -0.06816378 -0.046493705 0.0013628548 0.01583753 -0.035584163 -0.0020205835 -0.044582915
0.022351028 -0.03366456 -0.033189066 0.028672341 -0.02502104 0.045897666 -0.03420156 -0.024055235
-0.006695019 -0.013054846 -0.053957786 -0.069539994 -0.059632074 0.06773028 -0.015704693 -0.04006327
0.03968178 -0.0077586723 -0.049395457 0.060820993 -0.041166894 -0.0737072 0.01774537 0.031066166

m_transform.0.6.bias f4 [96]
00000000: 4b0f 983c b7e2 423d 438f afbb 6f44 e8bb
00000010: 804e bcbc 69d4 bfbc 4316 933c 3b91 11bb
00000020: 8a5c 6cbd fdb3 29bc 34dd 39bd 5cbf 65bd
00000030: e8b6 7c3d 48ef 103c 33c3 8f3d eb49 f4bc
00000040: e4b1 883c 183a 2abd c4fe eb3c 7259 a73c
00000050: 5d58 52bd 7a69 823d 81d8 bb3c 963a 253d
00000060: b183 523d ff28 9c39 02e3 323d d8a5 eb3c
00000070: d666 58bd e978 0bbd 6b55 22bd 95fe d23c
00000080: 549a 083d 801b e83c 6203 623c 8a3a 3d3d
00000090: 1670 363c fd49 10bd 4a6f c9bc bcf5 2bbc
000000a0: 0dd9 cf3c 9ba9 ebbc 119a 8dbc 34f6 79bc
000000b0: fd5d 9e3c c910 99bc a048 93bb f04a 14bd
000000c0: 4ecd 383c 0cb4 203d fc76 3f3c 5348 863c
000000d0: d9c9 84bc 96a0 043d 2cd2 21ba ebbd 2a3d
000000e0: 5124 773d fb11 183b a807 133b 0921 873d
000000f0: 657e b23c 06f4 b1bc 753f a23c d777 00bd
00000100: 4a4f 0d3d 6109 0e3c cca6 65bd 8c3c 3ebd
00000110: be5e 10bd 6153 a3bd 458c df3c 0cef 2c3d
00000120: 5a92 57bd 5d66 88bc 869c 25bc 0ba6 70bd
00000130: 8938 163d 75c7 2abc c7fb e4bc b807 c7bc
00000140: a3e9 3bbd 3144 47bb b4c7 e33c f461 77bd
00000150: 2513 d7bc f5ac 413d be44 fcbc 83ea e4bc
00000160: 067e 743d 11d6 b93b 4a2e 78bd 42a2 d1bc
00000170: e638 47bd 535a 1c3d 1ec9 1fbd 0eb0 893d
0.01856198 0.047579493 -0.0053576543 -0.007088236 -0.02298665 -0.023416715 0.017954951 -0.0022211808
-0.05770544 -0.010357854 -0.04537697 -0.056090698 0.06169787 0.008846112 0.07019653 -0.029820403
0.016686387 -0.04155931 0.028808005 0.020428393 -0.0513538 0.06367774 0.022930386 0.040339075
0.051395122 0.00029785183 0.043673523 0.028765604 -0.052832447 -0.034050856 -0.039632242 0.02575616
0.033350304 0.028333426 0.013794752 0.046198405 0.011135122 -0.03522681 -0.0245892 -0.010495599
0.025372053 -0.028767398 -0.017285379 -0.015256453 0.019331926 -0.018684762 -0.0044947416 -0.03620428
0.011279417 0.039234206 0.011686083 0.016391909 -0.01620953 0.03237971 -0.00061729806 0.041685026
0.06033737 0.0023204077 0.0022434983 0.06598098 0.021788785 -0.021722805 0.01980565 -0.03136429
0.034499444 0.008669228 -0.056067273 -0.04644446 -0.035246603 -0.07974888 0.027288565 0.04222016
-0.052629806 -0.016650373 -0.010108119 -0.0587521 0.03667501 -0.010423531 -0.027952088 -0.024295673
-0.04587711 -0.0030405635 0.027805187 -0.06039615 -0.026254246 0.047284085 -0.030794498 -0.027943855
0.059690498 0.0056712707 -0.06059102 -0.025590066 -0.048638247 0.038172077 -0.03901016 0.06723033

m_transform.0.9.running_mean f4 [48]
00000000: 2ab6 7b3f f541 803f 8143 653f 219e c33f
00000010: 1ebd 463f 868d 3b3f 8fa4 663f 8b99 893f
00000020: c0d4 803f 6eb9 6c3f bb45 613f f360 803f
00000030: b195 893f c10d b03f d0f5 723f ca21 593f
00000040: 3b6c 753f 03e8 a03f d65b 743f 52a5 b63f
00000050: 9892 893f 6c48 693f 3d80 633f 5ee9 8b3f
00000060: 7353 6f3f 7cce 913f 284e a73f d5d3 743f
00000070: ab89 763f a5c6 803f c9aa 6c3f a09c a03f
00000080: 51cb 933f 1545 663f f09c 953f 58c2 ba3f
00000090: 8d27 923f e916 cb3f 4764 393f c392 953f
000000a0: 346a 8c3f 98d1 623f 3952 793f 24ad 893f
000000b0: ab54 4f3f b558 883f e87d 783f cdd2 943f
0.98324835 1.0020128 0.8955613 1.5282632 0.7763232 0.7326282 0.90094846 1.0749983
1.0064926 0.92470443 0.87997025 1.0029587 1.0748807 1.3754197 0.9490633 0.84817183
0.9586827 1.2570804 0.9545263 1.4269202 1.0747862 0.9112613 0.8886755 1.0930593
0.9348671 1.1391139 1.3070726 0.9563573 0.96303815 1.0060622 0.924481 1.2547798
1.1546422 0.8994916 1.1688519 1.4590559 1.141832 1.5866367 0.72418636 1.1685413
1.0969911 0.88601065 0.97391087 1.0755963 0.8098857 1.0652071 0.9706712 1.1626831

m_transform.0.9.running_var f4 [48]
00000000: c830 053f 9775 1c3f 37d1 943e 4144 043f
00000010: d97a c73f 3b06 a83f 4707 2e3f ed70 c63e
00000020: 60ae 1b3f 8460 853f fe2d b83f c736 f23f
00000030: 3616 3b3f 9097 133f e599 883e bba8 2d3f
00000040: d05c 4c3f 6dde f23e 6afd 903e 09b7 123f
00000050: ca0f 563f 4636 ac3f 5db7 223f 2d68 2a3f
00000060: 3e4d 8e3f b33f 463f 7de6 b43e 0282 c33e
00000070: 999e 593f da0d 5e3f ec30 ec3e 88ac 0a3f
00000080: b7f7 713f 65ae 323f d317 a83e 6dee e13e
00000090: 1081 273f 9510 ed3e a7ca 193f bd12 423f
000000a0: 348d 2f3f d669 ae3e d276 2e3f d3a4 a23f
000000b0: e9bd cc3f 2be5 db3e 4625 d73f 8f94 773f
0.5202756 0.6111693 0.29065868 0.5166665 1.5584365 1.3126901 0.67979854 0.3875803
0.6081295 1.0420079 1.4389036 1.8922967 0.73080766 0.5765314 0.26679912 0.6783559
0.7982912 0.47435322 0.2831834 0.5731054 0.8361784 1.3454063 0.6356104 0.6656521
1.1117322 0.7744095 0.353321 0.38185126 0.85007626 0.86739886 0.46131074 0.5416951
0.9451861 0.69797355 0.32830676 0.44127217 0.6543131 0.46301714 0.6007485 0.7580984
0.68574834 0.3406512 0.68150055 1.270655 1.5995456 0.4294828 1.680825 0.9671106

m_transform.0.10.weight f4 [96, 48, 1, 1]
00000000: cef8 03bd 0e52 05be 3bef 8abd 4bb5 5bbd
00000010: 279d 023e d090 65bd 59a8 dabb 51e7 d33d
00000020: 3c8a 883c d364 20be 3454 103e 6901 33bd
00000030: 1538 d1bd d6f4 e03d 9c76 95bd 6d4f 12be
00000040: 2b78 5a3d ae4b a23d 0fc3 713d 2e77 903d
00000050: 3af8 24bc 58d7 83bd 93bd 443c 1dd6 b53d
00000060: 9948 c73c 5359 a83d ed94 b6bc 6e3d c63b
00000070: b14a 0a3e 2421 523d b802 d03c b0d4 8f3c
00000080: d547 c5bd 9887 393d e19d d3bd 6b4c a5bd
00000090: c4fa 16be 082e 95bd 954c 63bb ba5a 35bc
000000a0: 4833 0d3e 330b 0b3e f31b 2dbe 591e 0e3d
000000b0: 6da9 033e 36c9 98bd 1bd4 ba3d 0296 2abe
000000c0: 6e9e 0c3d f49e 0d3d 8d96 acbd 38ea c6bd
000000d0: 418d a43d 88e6 03be 8a2b 10bd a11d bfbd
000000e0: 78be 51bd 664c be3c f7eb 903d 340e ca3d
000000f0: a04f 993c 88c5 98bd 4218 d93c 58e6 b2bb
00000100: 8459 093e 46a3 b1bd f6dd f1bd 7c6c afbd
00000110: a7a1 85bd b875 bdbd 02b2 eb3c afdb c2bc
00000120: cbb9 0e3e 86e7 013d ec10 6a3d 16cb d63d
00000130: 3d32 cfbd 83af b03c 9021 9dbd d82b 693d
00000140: 8b15 1b3d 4423 453d 3334 b7bd 6aa7 c6bc
00000150: c67b 013c 69d3 9abd 30e9 a3bd 8e3c 633d
00000160: 1f47 343d 881f eabd 2ca0 02be 1211 f0bd
00000170: 5415 6b3d bb2e 843d 4754 e03d a918 1c3d
00000180: 6d84 d33d 50d8 20be a37d e8bd af2b f1bc
00000190: 80f3 67bc 685c c33c 545a eabd cb97 29be
000001a0: 1715 c7bd 441c b3bd b8ab 54bd 082d cdbc
000001b0: 6313 f5bd 95c0 ec3d 7653 493c 5811 073e
000001c0: 7f22 f5bd d6a5 bb3c 8f56 bb3c ec4b 75bd
000001d0: d61a 843d 9339 f3bd 5404 34bd b712 58bd
000001e0: 0ca8 0dbe e066 c93d cc5e 033e 69a1 1fbd
000001f0: d740 ca3c c446 49bd cec1 dc3b 75de dfbd
00000200: 888d cb3d 53e3 103d 2d7e ac3d 0e2c 8bbd
00000210: e9fd 13be aa7a 9f3a 0f05 13be 886b e23d
00000220: b9ed 9bbd dd59 ca3d ca13 a33c f5e4 a2bd
00000230: 9d1b 9e3d b64a 5f3d a7fd 0abe 178d 443d
00000240: df20 043e 9fa7 c2bd 895b eb3d db0a 103e
00000250: 3a5c abbd e00c b5bd 8745 b5bc 2ddd e93d
00000260: 729b 22bd 3f89 0a3e 2263 e3bd 98ab ab3d
00000270: b990 1a3d cf7c 563d d56d 213d 343f 713c
00000280: 05fe 81bc 16e0 31bc fdfd 473c a447 9cbd
00000290: 603b 713d f6f4 e8bd c93d f83a 8f4e 98bd
000002a0: 8384 12be ebb9 17bd 7617 4b3d 94a9 a8bd
000002b0: dffe 5ebd d632 0d3e a608 e93c 374a 483d
000002c0: c117 3bbd b918 c53d 425d efbd 5366 56bc
000002d0: 613b d2bd 7589 da3c 1fa5 823d 5451 01be
000002e0: 0833 6ebb 16ff 253d bdd9 0d3e f30e 73bd
000002f0: f256 6a3d dca5 cbbd 3c30 423d bb4a 1a3e
00000300: 6f5b b13d 0c93 46bd 5f8b 97bd 0a67 043e
00000310: 35e4 f7bd 8106 b43c ee93 4e3c f397 a73d
00000320: 0ad3 96bd 804b d03d d975 013d f907 f0bb
00000330: 65fe 25bd 28e8 11be ffbc e5bd 1476 b5bc
00000340: 949a 373d 7fde 56bd 2c39 b9bd d361 1dbe
00000350: c29b d5bd f032 8bbd 6ede c0bd 9884 ad3d
00000360: f237 413d 07bd 11bd 823d 5e3d fb55 ba3c
00000370: a87d 063e 94a5 d53c 0f09 21bd 1e4a df3d
00000380: 5100 4ebc 89fe ce3d 3146 60bd c908 84bb
00000390: a3d3 c7bd eca3 e03d 7ca8 b13d 4e6e 2dbd
000003a0: e844 e1bd 0f69 0b3e 6564 1dbd 71ae cf3d
000003b0: d32a a93d 2c7a 0a3c 5a07 12bd 3bf1 1abe
000003c0: 1862 70ba 1fa9 5ebd 020e a3bd 5eae 0f3e
000003d0: 75df 83bd 3118 8c3d 797a 0c3d 155a ab3d
000003e0: 9767 183d dae2 c1bb 1afd f2b8 7385 0abe
000003f0: c9c0 b03d b888 6c3d f38d 9abd c223 ab3c
-0.0322197 -0.13019583 -0.06783911 -0.05363969 0.12755261 -0.056046307 -0.0066729006 0.103468545
0.016667478 -0.15663461 0.14094621 -0.043702517 -0.10215775 0.10984199 -0.072980136 -0.14288111
0.053337257 0.07924591 0.059023913 0.07053982 -0.010068947 -0.06437558 0.012008089 0.088787295
0.02432661 0.08220162 -0.02228781 0.0060498035 0.13505055 0.051301137 0.025391921 0.017557472
-0.096328415 0.045295328 -0.103328474 -0.08071216 -0.14744097 -0.072841704 -0.0034683098 -0.011068994
0.13789093 0.13578491 -0.16905193 0.03469691 0.128576 -0.07460253 0.09122487 -0.16658786
0.034330778 0.034575418 -0.08427153 -0.097126424 0.080347545 -0.1288091 -0.035197772 -0.09331823
-0.051207036 0.023229789 0.07076257 0.0986599 0.018714726 -0.07459551 0.026500825 -0.005459588
0.13413054 -0.0867372 -0.11809914 -0.085656136 -0.06524973 -0.09250969 0.028771404 -0.023786394
0.13938062 0.03171494 0.057145044 0.10487954 -0.10117004 0.021568066 -0.07672417 0.05692658
0.03786234 0.048129335 -0.08945503 -0.024249751 0.007903045 -0.075598545 -0.08003461 0.05547767
0.04401314 -0.11431795 -0.12756413 -0.11722006 0.057393387 0.06454226 0.10953575 0.038109455
0.103279926 -0.15707517 -0.11352088 -0.029439775 -0.014157176 0.023847774 -0.1144301 -0.1656181
-0.097208194 -0.087456256 -0.051921576 -0.025045887 -0.11966588 0.115601696 0.012287965 0.1319021
-0.1196947 0.022906225 0.022868423 -0.059886858 0.06450431 -0.11876216 -0.04394944 -0.052752223
-0.13833636 0.09834075 0.12829131 -0.038972292 0.024689121 -0.049139753 0.0067369705 -0.10931102
0.09939104 0.035373043 0.084225036 -0.06795512 -0.14452328 0.0012167294 -0.14357398 0.11055666
-0.076137014 0.09880421 0.019906897 -0.07953826 0.077201106 0.05451461 -0.13573323 0.047986116
0.12903164 -0.095046274 0.11492068 0.14066641 -0.083672 -0.08840346 -0.02212788 0.11419139
-0.039699025 0.13528918 -0.111028925 0.08382338 0.037735675 0.05236512 0.039411385 0.014724541
-0.015868196 -0.010856649 0.012206552 -0.07630852 0.058894515 -0.113748476 0.0018939312 -0.07436859
-0.14308362 -0.03704254 0.04958292 -0.082354695 -0.054442283 0.13788924 0.028446507 0.0488989
-0.04567695 0.09623856 -0.116877094 -0.013085919 -0.10265232 0.026676873 0.063791506 -0.1262868
-0.0036346335 0.040526472 0.13852592 -0.05934043 0.057211824 -0.099437445 0.04740928 0.1506757
0.08660018 -0.04848008 -0.0739963 0.12929931 -0.12104074 0.021975758 0.012608511 0.08183279
-0.07364471 0.101706505 0.03160653 -0.007325169 -0.040525813 -0.14248717 -0.11217689 -0.02215103
0.04482515 -0.052458283 -0.09044108 -0.15369348 -0.10430099 -0.06796825 -0.09417425 0.08472556
0.047172494 -0.03558066 0.054257877 0.022746077 0.13133872 0.02607993 -0.03931528 0.109028086
-0.012573318 0.101071425 -0.05475444 -0.0040293676 -0.097571634 0.109687656 0.08674714 -0.042341523
-0.10999471 0.13614295 -0.03842582 0.10140694 0.08260121 0.00845198 -0.035651542 -0.15131085
-0.00091698905 -0.054360505 -0.07961656 0.1403136 -0.064391054 0.06840552 0.034296487 0.08366791
0.037208166 -0.0059169354 -0.00011586603 -0.1352747 0.08630521 0.057747573 -0.07546606 0.020891074

m_transform.0.10.bias f4 [96]
00000000: d81d 46bc 1058 54bd 4651 d93d 1573 083b
00000010: c72e db3d f8ca 43bd 36e4 c43d 9d39 12be
00000020: da7d e03c ecb3 a23d 4257 95bd 9b62 ec3d
00000030: 2721 183e 1c9d 983d 9b35 f5bd 9e2f f93d
00000040: ca83 a0bc ca76 e3bc 2841 9e3d 9384 903d
00000050: 537c 08be b813 c03d 42a8 ec3d 8fcc 833d
00000060: 84aa dfbc a3fc 7bbd afcb 023d f459 b43c
00000070: c2cc 983d 0af2 013e fca9 223d eb62 dcbd
00000080: 465b 033e 5f50 51bc a5c5 9d3d e61e bbbd
00000090: 94c7 6a3d f645 dcbc 1627 803d 18d3 03be
000000a0: e512 af3d 8078 b7bd 22f4 483d 38a2 4bbd
000000b0: 40ef 8d3d eab5 0a3e 7b6f c5bd 9d8c e53d
000000c0: 4ed7 a13d cd50 ce3d 9a51 ecbd 6673 9e3c
000000d0: 908d 98bd 1b9c e13d 62b5 323d 82c0 3cbd
000000e0: c6be e63c 00ef b33b 00b8 9e3d 58d3 dfbd
000000f0: 3ba5 04be 5f1a babd 6d4c 773c 514a cdbc
00000100: 0fde dbbd 8681 8a3d 3fe8 4dbd 3d4c c93d
00000110: a38d 0ebd 5705 fb3c fb55 1f3e 54ff 3e3d
00000120: f746 b33d 3ab7 893d 46fd dc3d 2c74 b73d
00000130: 3aa0 353d 8bb1 31be dee4 91bd 44b3 da3d
00000140: ce5c 69bd 28ed cd3d 7df8 49bc 49ce 03be
00000150: 3023 793d 7c1e 9f3d 4d0a 2c3c 9352 b03d
00000160: 0f1f d3bd 30f9 a6bd 83ec 14bc cd7d c93a
00000170: 666e 83bd 4f65 003e 62ce 823d 4120 f83d
-0.012092076 -0.051841795 0.10611205 0.0020820547 0.107022814 -0.047800988 0.0961384 -0.1427979
0.02740376 0.079444736 -0.07292034 0.11542245 0.14856397 0.07451841 -0.11973115 0.121672854
-0.019594092 -0.027766604 0.07727271 0.070565365 -0.13328676 0.09378761 0.1155553 0.06435501
-0.027302988 -0.06152023 0.03193253 0.02201555 0.074609295 0.12689987 0.03971289 -0.107610546
0.12827787 -0.01277551 0.07703713 -0.09136753 0.05731924 -0.026888829 0.06257455 -0.12873495
0.08548526 -0.089585304 0.04906095 -0.04971525 0.06930399 0.13545957 -0.09640404 0.112084605
0.07902394 0.10074005 -0.11539002 0.019342136 -0.07448876 0.11016103 0.04363001 -0.046082027
0.02816714 0.0054911375 0.07749939 -0.109289825 -0.12953655 -0.09087061 0.015093905 -0.02505985
-0.10735714 0.06762986 -0.050270315 0.098289944 -0.034803044 0.030642195 0.15560143 0.04663022
0.0875377 0.06724401 0.107904956 0.08957705 0.044342257 -0.17352884 -0.07123731 0.106787235
-0.05697327 0.100549996 -0.012327311 -0.1287166 0.060824573 0.07769486 0.010500503 0.086095
-0.10308658 -0.081529975 -0.009089592 0.0015372575 -0.06417541 0.12538646 0.06387021 0.12115527

m_transform.0.12.running_mean f4 [48]
00000000: 1214 9e3e 3b61 963e 8d16 1b3f 3dbd 803e
00000010: 7b07 bf3e 121f ef3e 6b18 a83e 8f1a a73e
00000020: 0068 c43e c3b5 a53e b74a fc3e 4808 7a3e
00000030: 0620 c93e 8a9a 373e 9017 433e 13f3 e43e
00000040: b454 3d3e 73e5 7d3e 9349 cd3e f128 db3e
00000050: b03c 8a3e 3a8c a43e 827e fb3e bb7a e23e
00000060: eddd cf3e 2c71 173f 94e0 1b3f 81fa bd3e
00000070: e97b a13e 6f30 4c3e d09d bc3e 102f a13e
00000080: 819f a03e b613 de3e b30a 853e 84f1 3e3e
00000090: 1d15 183f 17ed 933e c300 213f 9c2f ba3e
000000a0: b162 093f c896 3e3e 8b53 943e 634e ba3e
000000b0: 4428 b83e c263 c13e c9c7 1e3f 0d2a 023f
0.30874687 0.29371056 0.60581285 0.25144377 0.37310395 0.46703392 0.3283113 0.3263745
0.38360596 0.32365236 0.49275753 0.24417222 0.39282244 0.17930046 0.19051957 0.447167
0.18489343 0.24794559 0.40095195 0.42804673 0.26999426 0.32138234 0.49119955 0.4423426
0.40599003 0.5915706 0.60889554 0.37105182 0.31539848 0.19940351 0.3683915 0.31481218
0.31371692 0.43374413 0.25984725 0.18646818 0.59407216 0.28891823 0.6289179 0.36364448
0.53666216 0.18612206 0.28969988 0.3638793 0.3596822 0.37771422 0.620236 0.50845414

m_transform.0.12.running_var f4 [48]
00000000: 8b00 803e 8385 713e 5502 1c3e 565d 3b3e
00000010: 4a90 233e 71c6 803e e8a0 bb3e f476 a53e
00000020: 8f8e 4b3e ba2a 2a3e 47c1 5b3e 345a 5b3e
00000030: c1e9 9b3e 9276 983e 02ec 2e3e 4275 803e
00000040: 5e82 213e b954 5a3e 7cb8 853e b854 ed3d
00000050: c7a0 5e3e fa2d 073e b5b8 f13e 0930 2d3e
00000060: 2a20 173e 66a3 693e 446c 5a3e 3983 383e
00000070: 2856 503f 47ed c83e 6c0c 373e bf56 773e
00000080: 59e9 523e ef17 b43e 8e44 443e 2cae 2e3e
00000090: 8f26 363e e470 703e ffc8 713e e226 1e3e
000000a0: 90d1 e53e 03f8 943e a1ab 403e d233 533e
000000b0: 8505 443e bc90 0d3e f627 503f e351 e53d
0.25000414 0.23586087 0.15235265 0.18297324 0.1597301 0.251514 0.366462 0.32317317
0.198786 0.16617861 0.21460448 0.21421129 0.30451778 0.29777962 0.17082217 0.2508946
0.15772387 0.21321382 0.26117313 0.115884244 0.21741019 0.13201132 0.47211233 0.16912855
0.14758363 0.22816238 0.21330363 0.18018807 0.81381464 0.39243528 0.17875832 0.24154185
0.20596828 0.3517451 0.19166777 0.17058629 0.17788146 0.23480564 0.2361183 0.1544452
0.44886446 0.29095468 0.18815471 0.20625237 0.1914273 0.13824743 0.81310976 0.11197259

m_transform.0.13.weight f4 [128, 48, 3, 3]
00000000: a3bb 2fbd 7182 3c3d fbe9 d3bb f39f 53bc
00000010: 391e b53c 6ac1 1abd 12dc a2bc 3c6e 5e3a
00000020: a83d b3bc 5f70 6dbc e98a 33bc 78d5 c4bc
00000030: 4a9c fbbc f118 c63c e237 a6bc 93e0 e33c
00000040: c15b 1dbd 392f 673d 26ba 3a3c 020d be3c
00000050: 7dcd 59bb 89f7 1a3c a752 b53c a9ef cb3c
00000060: 9226 6f3c 1ddb cb3c 7161 43bd f571 db3b
00000070: 3255 c0bc fcb5 a93c f509 0bbc 07ff 3ebd
00000080: c2a7 5abd 5a88 1e3d 2ba8 9cbb 5dd9 fb3c
00000090: e900 8c3a 2d03 b6bb 32c1 ebbc 9cf0 27bd
000000a0: 18ca c33c c936 b0bb 6aa1 333c 8837 ac3c
000000b0: 0965 aebc ae65 de3c 2e55 9cbc ed61 243c
000000c0: 4c2b 343a 450e 8ebc 1795 b13c be66 d3bc
000000d0: 6c8a e4bc a707 133d 2359 a6bc a87f dc3c
000000e0: 2bd0 793d 463c 84bb 5e03 433d 5812 f63c
000000f0: 1bea cd3b 0f41 3cba e0fb 35bd 31fb 21bd
00000100: 9939 03bd 33ef 79bd d7b0 09bd ebe6 3bbd
00000110: da48 b3ba 0c05 f63b d23c fc3c 2098 20bd
00000120: a1f6 e83c 83fc 153d e98b 8dbc e108 8e3c
00000130: 797e bd3c a0fc a0bd 0383 95bd 22ef 6bbd
00000140: 72d5 b9bc 4b82 a93c fd3b c73c 2bbc 4c3a
00000150: c030 2b3d de0c 0e3d 8e1d 1d3b 884f e03c
00000160: 8ffe 37bb 9d8e 45bd 342c d1bc 0d8f 4fbd
00000170: 8cad 143d e851 013d 88cd cf3c 43e9 b33b
00000180: bdd8 65bd efc3 893c b8dd 1e3d e437 45bd
00000190: 58bc 2abd da43 633a 3399 4dbd 8349 88b9
000001a0: ae87 96bc be25 c63b 0a48 63bc 2da2 153d
000001b0: 2a80 553b 6ce7 1abd ddfc 063a b10c bf3c
000001c0: 657a 743c 7ef0 e03c b299 8dbc 4d9e 993c
000001d0: d807 d2bc 2c70 b9bc d4bb ecbc 3749 20bd
000001e0: bcd8 a2bc 0564 80bc 8747 543d d44a 603b
000001f0: cba6 eb3c 06a7 74bc 0e17 4c3d 2140 d23c
00000200: a67c 7a3c 65a3 ad3b 4f1e fc3c 8d83 233c
00000210: e20f 8b3b dfaf 363c 7ca0 483c d6b3 39bd
00000220: 6a2f bc3c 2ab5 fdbc 2c67 01bd bbde 1bbd
00000230: bad3 41bd b67c a9bc 3663 f8bc 5952 333d
00000240: 78d8 35bd 7473 a53b faab 4f3d 5e58 5e3d
00000250: cbff 70bd ebf3 5b3d cb5c 403c d96c 94bc
00000260: 1032 0f3d c219 97bc ad86 003d 1f71 18bd
00000270: 853c d33b 662c 10bd d88e 333c 8607 afba
00000280: 0d2b 82bc 19de b3bb cdcd 00bc c3ff 173d
00000290: 4f5f 063d d9da 89bc 54fc 403b 257e 45bc
000002a0: ca6f 9cbc 52bf 60bc 3585 063d 0835 29bb
000002b0: f786 ee3c 5362 85bc 4430 61bd ea35 70bc
000002c0: 1f95 8fbc 62cd e93c 179f 88bc d211 1c3d
000002d0: 90af 66bc 6e0d 88bd eea4 263d 66b9 f43c
000002e0: 8189 64bc bb58 fdbc 00b9 bd3c eecd 3abc
000002f0: 618f fcbc 2ae9 3b3c 0533 3dbd b5a2 5bbd
00000300: e3c8 243c 38bf 0fbd 1186 44bb ef74 3b3d
00000310: bdec 7abd 3211 e0bb bb49 b2bb bc46 ab3c
00000320: c4ec 8fbc 038f 41bc d2e0 a1bc dda5 b93b
00000330: 12e8 5d3d e4ff 3d3d e4de 3e3c 2fc9 183d
00000340: 883c 39bd fa47 88bc 7938 e13c b74d 0bbc
00000350: fb06 5dbd e17d 0a3d 8f43 203b a3ef 743d
00000360: 3984 523c 986c 6339 4209 433d d745 79bc
00000370: 1412 09bd e317 b83d d03d f23b 7346 c4bc
00000380: 1e24 f33c b01f 943c 9859 9e3c 8962 013d
00000390: 2024 363c 02f7 a3bc 5d41 a73c 7de1 32bc
000003a0: 0caa 66bd 6e6d b739 203a 0f3d 6fbc 0f3d
000003b0: 54ef 45bd 1ad7 86bc 2cb6 053b 13ae dd3c
000003c0: a655 0d3d 93e1 27bc f2e6 2abd 9408 09bd
000003d0: 25c0 6dbc 057c 99bd 7abc 7dbd 2474 c8bc
000003e0: 346d 85bd 3053 95bd 72e0 2ebd c8ce 4dbc
000003f0: d58e 36bd 0b9f 88bd bbf5 0a39 15ff 8abc
-0.042903554 0.046022836 -0.0064671016 -0.012916553 0.022109138 -0.03778211 -0.019880328 0.0008485054
-0.021879986 -0.014492123 -0.010958412 -0.024027571 -0.030714173 0.024181815 -0.020290319 0.027817046
-0.03841758 0.05644152 0.01139692 0.023199562 -0.0033234053 0.009458431 0.022134138 0.024894552
0.014596598 0.024884755 -0.04770035 0.0066969343 -0.023478124 0.02071666 -0.008486261 -0.04662993
-0.053382643 0.038704254 -0.0047807894 0.030743295 0.0010681424 -0.005554578 -0.028778646 -0.041000947
0.023900077 -0.0053776246 0.010963777 0.021022573 -0.021288412 0.027148094 -0.019083586 0.010033113
0.0006872907 -0.017340789 0.021677537 -0.025805827 -0.027898036 0.03589597 -0.020306176 0.02691634
0.06098954 -0.0040355055 0.047610633 0.030038044 0.006284011 -0.00071813253 -0.04442966 -0.039546195
-0.03203735 -0.061019134 -0.033615913 -0.045874517 -0.0013678328 0.007507926 0.03079072 -0.039207578
0.028437914 0.036617767 -0.017278628 0.017338218 0.023131596 -0.078606844 -0.07300379 -0.0576011
-0.022684786 0.020692011 0.024320597 0.00078100216 0.04179454 0.03468024 0.0023973915 0.027381673
-0.0028075313 -0.04823171 -0.025533773 -0.050673533 0.03629832 0.031572253 0.02536656 0.0054904534
-0.0561149 0.016817061 0.038785666 -0.048149005 -0.041683525 0.00086694735 -0.05019493 -0.00025994712
-0.018375244 0.0060469797 -0.013872156 0.036531616 0.0032577612 -0.037818357 0.0005149374 0.023321481
0.014921759 0.027458426 -0.017285202 0.018752242 -0.025638506 -0.022636496 -0.028898157 -0.039132323
-0.019878738 -0.015672693 0.051826026 0.0034224289 0.028766057 -0.0149324 0.049826674 0.025665345
0.015288508 0.005299019 0.030776171 0.009980095 0.0042438367 0.011150329 0.012245294 -0.04533752
0.022971828 -0.030970175 -0.031592533 -0.03805421 -0.04732106 -0.02068935 -0.030320745 0.043779705
-0.044395894 0.0050491635 0.05070112 0.054283492 -0.058837693 0.053699415 0.011740874 -0.018118309
0.034959853 -0.0184449 0.031378437 -0.037217256 0.0064464235 -0.03519859 0.01095935 -0.0013353683
-0.015889669 -0.0054891226 -0.007861567 0.037109148 0.032805737 -0.016827988 0.0029447274 -0.012054001
-0.019096274 -0.013717489 0.03284188 -0.0025818963 0.02911709 -0.016282236 -0.05497767 -0.014661292
-0.017527161 0.028540317 -0.016677422 0.038102932 -0.014079943 -0.066431865 0.040684633 0.029873561
-0.013948799 -0.030926099 0.023159504 -0.0114016365 -0.030830087 0.011469165 -0.046191234 -0.053621966
0.010057661 -0.03509447 -0.0029987136 0.045765813 -0.061260927 -0.0068379873 -0.0054409183 0.020907752
-0.017568953 -0.011813882 -0.019760523 0.0056655244 0.054176398 0.046386614 0.011649821 0.03730124
-0.045223743 -0.016635884 0.027492749 -0.008502415 -0.053961735 0.033811454 0.002445433 0.059798848
0.012848907 0.00021688861 0.04761625 -0.015214405 -0.033464506 0.08988931 0.0073926225 -0.023959374
0.029680308 0.018081516 0.019329831 0.03158811 0.011117011 -0.020015243 0.02041691 -0.010918018
-0.056314513 0.0003498601 0.03496754 0.035091814 -0.048323944 -0.01645999 0.0020402772 0.027060544
0.03450551 -0.010246652 -0.041724153 -0.033455446 -0.014511143 -0.07494358 -0.061947323 -0.024469443
-0.065149695 -0.072912574 -0.042694516 -0.0125615075 -0.04456981 -0.0667096 0.00013252247 -0.016967336
