Auxillary Code/LCNN/project/03-asvspoof-mega/lfb-lcnn-attention-am/02/__pretrained/trained_network.pt (torch, 775117 bytes, 35 tensors)

m_frontend.0.lfcc_fb f4 [257, 60]
0.0 0.0 0.0 0.0 0.0 0.0 0.0 0.0
0.0 0.0 0.0 0.0 0.0 0.0 0.0 0.0
0.0 0.0 0.0 0.0 0.0 0.0 0.0 0.0
0.0 0.0 0.0 0.0 0.0 0.0 0.0 0.0
0.0 0.0 0.0 0.0 0.0 0.0 0.0 0.0
0.0 0.0 0.0 0.0 0.0 0.0 0.0 0.0
0.0 0.0 0.0 0.0 0.0 0.0 0.0 0.0
0.0 0.0 0.0 0.0 0.23828125 0.0 0.0 0.0
0.0 0.0 0.0 0.0 0.0 0.0 0.0 0.0
0.0 0.0 0.0 0.0 0.0 0.0 0.0 0.0
0.0 0.0 0.0 0.0 0.0 0.0 0.0 0.0
0.0 0.0 0.0 0.0 0.0 0.0 0.0 0.0
0.0 0.0 0.0 0.0 0.0 0.0 0.0 0.0
0.0 0.0 0.0 0.0 0.0 0.0 0.0 0.0
0.0 0.0 0.0 0.0 0.0 0.0 0.0 0.0
0.4765625 0.0 0.0 0.0 0.0 0.0 0.0 0.0
0.0 0.0 0.0 0.0 0.0 0.0 0.0 0.0
0.0 0.0 0.0 0.0 0.0 0.0 0.0 0.0
0.0 0.0 0.0 0.0 0.0 0.0 0.0 0.0
0.0 0.0 0.0 0.0 0.0 0.0 0.0 0.0
0.0 0.0 0.0 0.0 0.0 0.0 0.0 0.0
0.0 0.0 0.0 0.0 0.0 0.0 0.0 0.0
0.0 0.0 0.0 0.0 0.71484375 0.0 0.0 0.0
0.0 0.0 0.0 0.0 0.0 0.0 0.0 0.0
0.0 0.0 0.0 0.0 0.0 0.0 0.0 0.0
0.0 0.0 0.0 0.0 0.0 0.0 0.0 0.0
0.0 0.0 0.0 0.0 0.0 0.0 0.0 0.0
0.0 0.0 0.0 0.0 0.0 0.0 0.0 0.0
0.0 0.0 0.0 0.0 0.0 0.0 0.0 0.0
0.0 0.0 0.0 0.0 0.0 0.0 0.0 0.0
0.953125 0.0 0.0 0.0 0.0 0.0 0.0 0.0
0.0 0.0 0.0 0.0 0.0 0.0 0.0 0.0
00000000: 0000 0000 0000 0000 0000 0000 0000 0000
00000010: 0000 0000 0000 0000 0000 0000 0000 0000
00000020: 0000 0000 0000 0000 0000 0000 0000 0000
00000030: 0000 0000 0000 0000 0000 0000 0000 0000
00000040: 0000 0000 0000 0000 0000 0000 0000 0000
00000050: 0000 0000 0000 0000 0000 0000 0000 0000
00000060: 0000 0000 0000 0000 0000 0000 0000 0000
00000070: 0000 0000 0000 0000 0000 0000 0000 0000
00000080: 0000 0000 0000 0000 0000 0000 0000 0000
00000090: 0000 0000 0000 0000 0000 0000 0000 0000
000000a0: 0000 0000 0000 0000 0000 0000 0000 0000
000000b0: 0000 0000 0000 0000 0000 0000 0000 0000
000000c0: 0000 0000 0000 0000 0000 0000 0000 0000
000000d0: 0000 0000 0000 0000 0000 0000 0000 0000
000000e0: 0000 0000 0000 0000 0000 0000 0000 0000
000000f0: 0000 743e 0000 0000 0000 0000 0000 0000
00000100: 0000 0000 0000 0000 0000 0000 0000 0000
00000110: 0000 0000 0000 0000 0000 0000 0000 0000
00000120: 0000 0000 0000 0000 0000 0000 0000 0000
00000130: 0000 0000 0000 0000 0000 0000 0000 0000
00000140: 0000 0000 0000 0000 0000 0000 0000 0000
00000150: 0000 0000 0000 0000 0000 0000 0000 0000
00000160: 0000 0000 0000 0000 0000 0000 0000 0000
00000170: 0000 0000 0000 0000 0000 0000 0000 0000
00000180: 0000 0000 0000 0000 0000 0000 0000 0000
00000190: 0000 0000 0000 0000 0000 0000 0000 0000
000001a0: 0000 0000 0000 0000 0000 0000 0000 0000
000001b0: 0000 0000 0000 0000 0000 0000 0000 0000
000001c0: 0000 0000 0000 0000 0000 0000 0000 0000
000001d0: 0000 0000 0000 0000 0000 0000 0000 0000
000001e0: 0000 f43e 0000 0000 0000 0000 0000 0000
000001f0: 0000 0000 0000 0000 0000 0000 0000 0000
00000200: 0000 0000 0000 0000 0000 0000 0000 0000
00000210: 0000 0000 0000 0000 0000 0000 0000 0000
00000220: 0000 0000 0000 0000 0000 0000 0000 0000
00000230: 0000 0000 0000 0000 0000 0000 0000 0000
00000240: 0000 0000 0000 0000 0000 0000 0000 0000
00000250: 0000 0000 0000 0000 0000 0000 0000 0000
00000260: 0000 0000 0000 0000 0000 0000 0000 0000
00000270: 0000 0000 0000 0000 0000 0000 0000 0000
00000280: 0000 0000 0000 0000 0000 0000 0000 0000
00000290: 0000 0000 0000 0000 0000 0000 0000 0000
000002a0: 0000 0000 0000 0000 0000 0000 0000 0000
000002b0: 0000 0000 0000 0000 0000 0000 0000 0000
000002c0: 0000 0000 0000 0000 0000 0000 0000 0000
000002d0: 0000 373f 0000 0000 0000 0000 0000 0000
000002e0: 0000 0000 0000 0000 0000 0000 0000 0000
000002f0: 0000 0000 0000 0000 0000 0000 0000 0000
00000300: 0000 0000 0000 0000 0000 0000 0000 0000
00000310: 0000 0000 0000 0000 0000 0000 0000 0000
00000320: 0000 0000 0000 0000 0000 0000 0000 0000
00000330: 0000 0000 0000 0000 0000 0000 0000 0000
00000340: 0000 0000 0000 0000 0000 0000 0000 0000
00000350: 0000 0000 0000 0000 0000 0000 0000 0000
00000360: 0000 0000 0000 0000 0000 0000 0000 0000
00000370: 0000 0000 0000 0000 0000 0000 0000 0000
00000380: 0000 0000 0000 0000 0000 0000 0000 0000
00000390: 0000 0000 0000 0000 0000 0000 0000 0000
000003a0: 0000 0000 0000 0000 0000 0000 0000 0000
000003b0: 0000 0000 0000 0000 0000 0000 0000 0000
000003c0: 0000 743f 0000 0000 0000 0000 0000 0000
000003d0: 0000 0000 0000 0000 0000 0000 0000 0000
000003e0: 0000 0000 0000 0000 0000 0000 0000 0000
000003f0: 0000 0000 0000 0000 0000 0000 0000 0000

m_transform.0.0.weight f4 [64, 1, 5, 5]
-0.017459335 -0.009981668 -0.054653827 0.05442426 -0.10555977 -0.042825554 0.06848449 0.21014935
0.05439066 -0.06525149 0.01282631 -0.03302672 0.10083266 0.030489163 0.08250914 0.19375545
-0.08910665 0.015401094 0.053707104 0.006013048 -0.017488856 -0.18035558 -0.15650669 -0.17964807
-0.18851309 -0.19743413 -0.1594133 -0.17870331 -0.18058798 0.09285686 0.135316 0.15395819
0.13874955 0.106413595 0.12947334 -0.14774859 0.14176163 -0.027122121 0.1660333 0.059366465
0.11358744 0.118760236 -0.06423851 -0.0682266 0.025298217 -0.028341254 0.017785423 0.099826664
-0.14900172 0.0028219742 -0.1681723 0.1783835 -0.16378243 0.009564652 -0.08409608 0.11251976
-0.0039645843 -0.033393364 0.13644305 0.17294641 -0.15630548 -0.20845863 -0.0111670615 0.009884733
-0.008397764 0.18308803 0.08151176 -0.11314704 -0.16494188 0.12721193 0.19450472 -0.09903434
-0.14750247 0.056152675 -0.1632777 -0.045625824 -0.19721213 0.05649852 -0.06423312 -0.10551649
-0.13224459 -0.078793876 0.089308925 0.006796194 0.17256413 -0.058745902 -0.04600265 0.21616761
-0.16944155 -0.055134617 -0.11696255 0.2049314 0.12382527 -0.047790598 -0.06643967 0.06486474
-0.064250015 0.066868946 -0.093840756 -0.11293288 -0.037781358 0.097411565 0.15254585 0.04119716
-0.105098784 0.069890715 0.054691434 0.066301405 -0.069284685 -0.015987119 0.060986258 0.065917
0.109923705 -0.12551118 0.13976683 -0.10830103 -0.016172845 -0.11410094 -0.055923246 0.14829163
0.140888 0.06139843 -0.161645 -0.07360015 0.14010817 -0.048028007 -0.15379527 0.058550943
-0.16733894 0.009952489 -0.014666594 0.016311541 -0.030444846 -0.019923558 -0.115172505 -0.13154253
0.076020464 0.19158566 -0.16202798 -0.19493404 -0.11321214 0.19388354 0.18311125 -0.20530927
0.038325146 0.020668836 0.17191774 -0.06413954 0.04823548 -0.11468548 -0.18700385 0.035130147
-0.08434473 0.0012688645 -0.027321294 -0.14475386 0.15499564 0.17385347 0.18870091 0.0575029
-0.18481849 -0.14215927 -0.0064249844 -0.0043200566 -0.1665462 0.12659588 -0.13146186 -0.0005793588
-0.18275893 0.06616481 -0.0030570128 0.15292147 0.033053588 -0.15543094 0.19344471 -0.15354687
0.11031874 -0.13932194 0.10061762 0.04528007 0.06941403 -0.03538613 0.18194686 0.1867114
-0.026852973 -0.049887974 0.041237593 0.12797773 0.17645179 0.17040849 0.11314823 0.0423764
-0.14410415 -0.15905853 0.12538895 -0.14843093 0.022132032 0.17553711 -0.17089285 -0.13847323
-0.1943333 0.109597415 0.047225535 0.13951977 -0.026978845 -0.059506584 0.16944852 -0.13533618
-0.11624498 0.13549356 0.18709426 -0.10428089 -0.19933385 0.021824278 -0.005825306 0.065076664
0.11370286 0.022288151 -0.10983869 -0.013237439 0.09117003 0.031548046 -0.14551748 -0.0023384732
-0.044653896 -0.10744637 0.08137142 0.06133647 0.15010716 0.13151905 -0.02717733 -0.18068437
0.049952835 0.09655038 0.09662219 0.10283013 0.090780914 0.030943083 0.01645262 0.09911315
-0.21499255 0.08201176 0.044348136 0.058564615 -0.047062386 0.043843597 0.032902632 -0.2036744
-0.0797895 0.11737558 -0.15055738 -0.074914455 0.11910035 0.106510445 -0.14880024 0.07847952
00000000: e106 8fbc 268a 23bc b1dc 5fbd f9eb 5e3d
00000010: b82f d8bd d969 2fbd 9941 8c3d 6431 573e
00000020: bec8 5e3d 93a2 85bd 7125 523c 0747 07bd
00000030: 5b81 ce3d 69c4 f93c 8dfa a83d d467 463e
00000040: 8c7d b6bd df54 7c3c fbfb 5b3d 1a09 c53b
00000050: ca44 8fbc 22af 38be 4a43 20be aaf5 37be
00000060: 9309 41be 2c2c 4abe 3d3d 23be 00fe 36be
00000070: 0eec 38be bd2b be3d 4790 0a3e 37a7 1d3e
00000080: 5d14 0e3e 5fef d93d a994 043e 684b 17be
00000090: f629 113e 362f debc a204 2a3e 402a 733d
000000a0: 88a0 e83d 9138 f33d 7b8f 83bd 63ba 8bbd
000000b0: 353e cf3c eb2b e8bc bcb2 913c ec71 cc3d
000000c0: e893 18be dff0 383b 5c35 2cbe 2aaa 363e
000000d0: 95b6 27be 0fb5 1c3c 913a acbd c370 e63d
000000e0: 58e9 81bb 7bc7 08bd bab7 0b3e dd18 313e
000000f0: 8b0e 20be 2e76 55be 0df6 36bc 93f3 213c
00000100: c696 09bc 6e7b 3b3e a3ef a63d a3b9 e7bd
00000110: 86e6 28be d843 023e 3f2c 473e 84d2 cabd
00000120: e30a 17be 5900 663d 4532 27be 25e2 3abd
00000130: faf1 49be fe6a 673d a78c 83bd 0819 d8bd
00000140: 206b 07be af5e a1bd 99e7 b63d 9bb2 de3b
00000150: a7b4 303e 8b9f 70bd 466d 3cbd 0b5b 5d3e
00000160: 1682 2dbe d6d4 61bd 108a efbd 89d9 513e
00000170: 1a98 fd3d 13c0 43bd 8611 88bd ced7 843d
00000180: 8395 83bd 96f2 883d 952f c0bd 5b49 e7bd
00000190: a0c0 1abd b77f c73d fb34 1c3e 5abe 283d
000001a0: 083e d7bd dd22 8f3d 2004 603d 08c9 873d
000001b0: 21e5 8dbd 6bf7 82bc bacc 793d 7eff 863d
000001c0: ae1f e13d 0186 00be 091f 0f3e eecc ddbd
000001d0: ea7c 84bc c1ad e9bd c60f 65bd c3d9 173e
000001e0: f244 103e ec7c 7b3d 4486 25be adbb 96bd
000001f0: 8478 0f3e 04b9 44bd 827c 1dbe 1dd3 6f3d
00000200: e65a 2bbe c40f 233c 274c 70bc c89f 853c
00000210: 7867 f9bc bb36 a3bc 90df ebbd 16b3 06be
00000220: 9eb0 9b3d 082f 443e aaea 25be ca9c 47be
00000230: c4db e7bd 6889 463e 8481 3b3e 983c 52be
00000240: d4fa 1c3d b151 a93c 340b 303e 975b 83bd
00000250: 9192 453d 39e0 eabd f07d 3fbe a1e4 0f3d
00000260: eebc acbd 0750 a63a e8d0 dfbc 5b3a 14be
00000270: 2db7 1e3e a506 323e d03a 413e 2988 6b3d
00000280: 0f41 3dbe 3392 11be ad88 d2bb 438f 8dbb
00000290: 168b 2abe 5aa2 013e f09d 06be 1ce0 17ba
000002a0: 2825 3bbe 6a81 873d 2a58 48bb 7297 1c3e
000002b0: 3363 073d 4a29 1fbe 5f16 463e 643b 1dbe
000002c0: cbee e13d 69aa 0ebe 9c10 ce3d 9877 393d
000002d0: f128 8e3d 0cf1 10bd 4750 3a3e 4631 3f3e
000002e0: c4fa dbbc 5557 4cbd c0e8 283d 980c 033e
000002f0: c7af 343e 907f 2e3e 42ba e73d e092 2d3d
00000300: 0a90 13be 3de0 22be f665 003e 47fe 17be
00000310: 3c4e b53c 00c0 333e 89fe 2ebe edcb 0dbe
00000320: 4fff 46be 9c74 e03d 906f 413d 45de 0e3e
00000330: bd02 ddbc 2dbd 73bd ea83 2d3e 9195 0abe
00000340: d911 eebd d3be 0a3e a395 3f3e 3891 d5bd
00000350: 2c1e 4cbe d4c8 b23c 35e2 bebb ea46 853d
00000360: 0cdd e83d a495 b63c 1bf3 e0bd d8e1 58bc
00000370: 5ab7 ba3d 8638 013d 8902 15be 1241 19bb
00000380: 01e7 36bd d80c dcbd 0fa6 a63d f33b 7b3d
00000390: b1b5 193e eeac 063e fea2 debc 5305 39be
000003a0: 589b 4c3d 35bc c53d dbe1 c53d 9a98 d23d
000003b0: 58eb b93d 597c fd3c a5c7 863c d6fb ca3d
000003c0: 0227 5cbe c8f5 a73d 64a6 353d 73e1 6f3d
000003d0: 7dc4 40bd 5895 333d e9c4 063d 0690 50be
000003e0: ad68 a3bd 9c62 f03d b72b 1abe c06c 99bd
000003f0: e2ea f33d 2622 da3d 175f 18be dfb9 a03d

m_transform.0.0.bias f4 [64]
-0.087697536 -0.21397474 0.022679266 0.12001747 0.035173886 0.12758374 -0.06574493 0.085356995
-0.15200011 -0.039869927 -0.08332049 0.11310871 -0.057294734 -0.06595954 0.14668246 0.12273849
0.088506795 0.07796983 0.11750801 0.090161085 0.008215106 0.17422025 0.091487415 0.10534821
0.0012590089 0.037438326 -0.10680939 -0.16532893 0.0644207 -0.0735566 -0.11383619 0.056407385
0.15412502 0.19664893 -0.08959377 0.070868425 0.11378662 -0.19842069 0.12856069 -0.07724165
0.020176448 0.01809144 0.21498585 0.11067944 0.051903278 0.05572003 0.13874473 -0.118402556
-0.00044462067 -0.1843454 -0.020684868 0.044814754 0.09433552 0.05172893 0.1456246 -0.17365417
0.0050782715 0.074665554 0.19555236 0.1427777 0.13793121 0.18490906 0.0013800642 0.22464563
00000000: c49a b3bd 321c 5bbe dec9 b93c b8cb f53d
00000010: 7e12 103d 50a5 023e 47a5 86bd a6cf ae3d
00000020: eba5 1bbe a64e 23bd efa3 aabd 8aa5 e73d
00000030: e2ad 6abd cc15 87bd ed33 163e 515e fb3d
00000040: 0d43 b53d a5ae 9f3d 0aa8 f03d 60a6 b83d
00000050: a798 063c cb66 323e c15d bb3d cdc0 d73d
00000060: 5405 a53a ee58 193d e2be dabd fd4b 29be
00000070: 00ef 833d d8a4 96bd f322 e9bd 6e0b 673d
00000080: f3d2 1d3e 565e 493e f07c b7bd 7723 913d
00000090: f608 e93d cb2e 4bbe 6aa5 033e df30 9ebd
000000a0: 1449 a53c 8034 943c 4025 5c3e e7ab e23d
000000b0: 8898 543d b03a 643d 1913 0e3e 0a7d f2bd
000000c0: fa1b e9b9 0ac5 3cbe 5073 a9bc ad8f 373d
000000d0: fb32 c13d b7e1 533d 9d1e 153e 66d2 31be
000000e0: a167 a63b 41ea 983d e13e 483e 5134 123e
000000f0: d73d 0d3e cd58 3d3e 45e3 b43a 8109 663e

m_transform.0.3.weight f4 [64, 32, 1, 1]
0.16069824 0.0091870185 -0.14929228 -0.01071597 0.16916493 -0.13857679 0.016975097 0.029626014
-0.121879466 0.03189723 -0.08060546 0.018255709 0.099902 0.1649803 0.11730317 -0.16418143
-0.10623728 0.06349903 -0.014444425 0.13636515 -0.18923874 -0.011887621 0.04686692 0.048141066
0.14057586 -0.17022245 0.11153347 0.045144323 -0.10599973 -0.03069319 -0.14135286 0.00011488606
0.0023216847 -0.09614182 -0.18981488 -0.025457133 0.12653342 0.025373742 -0.13612695 -0.013570676
-0.082382 -0.18948041 0.10483257 0.08539879 0.045106456 -0.06976396 -0.09080942 0.14277552
-0.17137009 -0.043421745 0.040200092 0.086374804 0.12354696 0.065077744 0.14762574 -0.14679514
0.009988424 -0.18699072 -0.021693068 0.04547937 0.10545593 -0.037986305 -0.13891755 0.13591781
0.042776477 -0.12507688 0.048607104 0.012427175 0.013511298 0.089732885 -0.057793748 0.15397218
0.1429705 0.07672078 -0.06605876 -0.018668018 0.06827242 0.13953397 0.012813054 0.03802763
-0.15851864 -0.17406711 -0.03264257 0.03811575 -0.019463392 0.17928629 0.12455477 0.1720039
0.09662421 0.0075902888 -0.056597676 0.14039844 -0.16599382 -0.03859464 -0.09178284 -0.163563
-0.14185749 0.09159132 0.016182277 0.12313253 0.109221034 -0.11198605 -0.11197878 -0.13867328
-0.17410393 -0.091830246 -0.14378004 0.027323203 0.017786788 0.099744044 0.17437582 0.07700937
0.14679569 0.11516096 0.08286576 -0.03985049 -0.1561956 0.14121988 -0.13577771 0.022790711
0.14871816 0.030215003 -0.05282259 -0.053812783 0.13946177 -0.14379191 -0.022686452 -0.17081739
0.03909999 -0.043926883 -0.082261585 -0.15241991 0.1469139 0.07486639 0.0616168 -0.144515
-0.121630915 -0.061440486 0.10114748 -0.030468108 0.014255477 0.15516418 -0.04539102 0.043799452
0.051620267 -0.03260647 -0.09531781 0.109641 -0.10160005 0.17582233 0.021302652 0.06795131
-0.10883836 -0.059196316 0.03558523 -0.09682142 0.05088309 -0.08505427 -0.016975787 0.03134446
0.007421084 0.046909753 -0.01255935 -0.15846752 0.0838833 -0.084652044 -0.15620323 0.12159535
0.14713609 0.05309428 -0.01054397 -0.05069091 -0.081965014 0.01250887 -0.11827343 0.13873668
0.05047932 -0.11544654 0.090836495 -0.07748842 0.08116042 0.048090972 0.08820904 0.0789648
0.14504622 0.015690103 -0.057537325 -0.0657949 -0.07766055 -0.06820126 -0.104924254 -0.12602875
0.13790895 0.011680891 0.15067366 0.17398563 0.13164915 0.0998136 -0.0805338 -0.016296813
0.06729839 -0.13718958 0.10978676 0.05583179 -0.11324403 -0.023951307 0.06269328 0.13417454
0.16423099 -0.026693432 -0.022654073 0.14862432 -0.05767092 -0.022324705 -0.027419265 0.048612613
0.0007337765 0.09033247 0.0441358 0.026942397 -0.051763013 0.16784051 -0.002719511 -0.18332644
0.020573469 0.0695453 -0.04541051 -0.1837145 0.019595582 0.13516499 0.044919677 0.039957818
-0.1665331 0.01155565 -0.13015722 0.15959613 -0.15374953 0.06282143 -0.13985771 0.09938361
-0.09814228 0.026988419 0.16259195 0.060896195 0.03678455 0.1601754 -0.024202123 -0.111664735
-0.072503336 0.084784634 -0.18624847 -0.0034150083 -0.017715996 -0.1425402 -0.05047289 -0.12647708
00000000: 148e 243e 2685 163c 13e0 18be 0992 2fbc
00000010: 9239 2d3e 13e7 0dbe 5c0f 8b3c 41b2 f23c
00000020: f19b f9bd aba6 023d 7a14 a5bd ff8c 953c
00000030: 6b99 cc3d 99f0 283e a53c f03d 2d1f 28be
00000040: ee92 d9bd c80b 823d 4fa8 6cbc 4ea3 0b3e
00000050: cdc7 41be 4cc4 42bc 87f7 3f3d 912f 453d
00000060: 1ef3 0f3e cb4e 2ebe a96b e43d 41e9 383d
00000070: 6316 d9bd 4970 fbbc cebe 10be fcee f038
00000080: 6827 183b 01e6 c4bd d55e 42be 7a8b d0bc
00000090: fa91 013e 98dc cf3c dd64 0bbe 8a57 5ebc
000000a0: e5b7 a8bd 2707 42be 75b2 d63d 90e5 ae3d
000000b0: 8cc1 383d 68e0 8ebd 4afa b9bd bf33 123e
000000c0: a47b 2fbe 00db 31bd daa8 243d 46e5 b03d
000000d0: 3006 fd3d 7b47 853d 342b 173e 7751 16be
000000e0: 7da6 233c 7f7a 3fbe a9b5 b1bc 9348 3a3d
000000f0: 47f9 d73d 8797 1bbd 6740 0ebe 0a2e 0b3e
00000100: 6336 2f3d 2714 00be 3e18 473d 5a9b 4b3c
00000110: 7e5e 5d3c e0c5 b73d 23b9 6cbd e2aa 1d3e
00000120: dc66 123e c91f 9d3d d149 87bd aced 98bc
00000130: 69d2 8b3d fee1 0e3e d8ed 513c dcc2 1b3d
00000140: b652 22be a63e 32be 37b4 05bd 431f 1c3d
00000150: b171 9fbc d396 373e 9216 ff3d ca21 303e
00000160: eae2 c53d f5b7 f83b f7d2 67bd 9cc4 0f3e
00000170: 49fa 29be 6a15 1ebd a4f8 bbbd 0f7d 27be
00000180: 1743 11be 3b94 bb3d b290 843c e82c fc3d
00000190: 47af df3d f158 e5bd 2155 e5bd 5e00 0ebe
000001a0: 4d48 32be 7f11 bcbd 133b 13be e9d4 df3c
000001b0: 99b5 913c 9b46 cc3d 938f 323e 17b7 9d3d
000001c0: 9c51 163e 82d9 eb3d 86b5 a93d 443a 23bd
000001d0: bdf1 1fbe f29b 103e 5009 0bbe 96b3 ba3c
000001e0: 9349 183e 7485 f73c 805c 58bd cb6a 5cbd
000001f0: 11cf 0e3e 303e 13be f0d8 b9bc c1ea 2ebe
00000200: 5027 203d adec 33bd c378 a8bd f713 1cbe
00000210: 9970 163e 8d53 993d e661 7c3d bdfb 13be
00000220: a119 f9bd 05a9 7bbd 6926 cf3d 4198 f9bc
00000230: ce8f 693c 5ce3 1e3e efeb 39bd 0e67 333d
00000240: c66f 533d 5d8e 05bd fc35 c3bd 768b e03d
00000250: b013 d0bd c50a 343e e682 ae3c 0e2a 8b3d
00000260: a5e6 debd d677 72bd d1c1 113d 4f4a c6bd
00000270: c96a 503d ef30 aebd ce10 8bbc 0c63 003d
00000280: 912c f33b 7124 403d bbc5 4dbc 4f45 22be
00000290: 02cb ab3d 0d5e adbd bdf3 1fbe fc06 f93d
000002a0: d8aa 163e 6379 593d 9ec0 2cbc 46a1 4fbd
000002b0: 46dd a7bd 01f2 4c3c 5739 f2bd fd10 0e3e
000002c0: 67c3 4e3d 3c6f ecbd 7c08 ba3d 40b2 9ebd
000002d0: 6f37 a63d 0afb 443d f1a6 b43d 4cb8 a13d
000002e0: ff86 143e 8888 803c 42ac 6bbd 7abf 86bd
000002f0: 7f0c 9fbd 1aad 8bbd 87e2 d6bd ae0d 01be
00000300: 0138 0d3e 3561 3f3c 324a 1a3e 4a29 323e
00000310: 09cf 063e 136b cc3d e8ee a4bd e580 85bc
00000320: bdd3 893d 6d7b 0cbe e1d7 e03d e0af 643d
00000330: 7cec e7bd 8835 c4bc 5665 803d 0d65 093e
00000340: 2b2c 283e 2fac dabc 0995 b9bc f930 183e
00000350: 5838 6cbd 4de2 b6bc 5e9e e0bc 051e 473d
00000360: e85a 403a 3b00 b93d bec7 343d 4db6 dc3c
00000370: 7405 54bd 62de 2b3e d339 32bb edb9 3bbe
00000380: b189 a83c c46d 8e3d 5f00 3abd a71f 3cbe
00000390: ea86 a03c b168 0a3e b2fd 373d cfaa 233d
000003a0: a787 2abe e953 3d3c ef47 05be 2b6d 233e
000003b0: 8470 1dbe 86a8 803d dc36 0fbe a289 cb3d
000003c0: d2fe c8bd d116 dd3c 817e 263e 4a6e 793d
000003d0: 65ab 163d 0505 243e 8843 c6bc 7bb0 e4bd
000003e0: a17c 94bd 91a3 ad3d ebb7 3ebe 55ce 5fbb
000003f0: 2321 91bc 0ff6 11be a9bc 4ebd 3583 01be

m_transform.0.3.bias f4 [64]
-0.1277792 -0.12877084 -0.013296969 -0.047479797 -0.14235535 0.0762487 -0.10092051 -0.07482548
-0.12457906 0.16946828 0.015961887 0.17369413 -0.11562813 -0.060814444 -0.06731945 -0.14606169
0.06599527 -0.11925359 -0.11651607 0.10320104 -0.19000712 0.16148098 0.021682644 0.08021061
0.11758805 0.18068624 0.07715793 0.17234519 0.06505216 0.024913607 -0.11456497 0.019171968
-0.019956267 -0.19718862 0.065749526 -0.02764386 0.13791472 0.17319842 0.16353287 -0.07035976
0.1347493 -0.016818633 0.1452605 0.14165546 0.058281112 -0.031183382 -0.07512306 -0.008196923
0.004840296 -0.17474759 0.09843639 0.10303742 -0.014623179 -0.008355195 0.04264445 -0.0008175973
0.13593087 -0.06013849 -0.09445015 0.14344345 -0.13635243 0.14581501 -0.17469239 0.08029608
00000000: 8dd8 02be 81dc 03be 88db 59bc 2d7a 42bd
00000010: 9ac5 11be 4728 9c3d 6aaf cebd 1a3e 99bd
00000020: 4e23 ffbd 1889 2d3e 81c2 823c e0dc 313e
00000030: 71ce ecbd 9118 79bd c8de 89bd 3291 15be
00000040: 8728 873d 3a3b f4bd fa9f eebd 115b d33d
00000050: 3a91 42be 455b 253e cd9f b13c 7645 a43d
00000060: 01d2 f03d d005 393e fa04 9e3d 427b 303e
00000070: 113a 853d 9f17 cc3c 0aa1 eabd 880e 9d3c
00000080: 537b a3bc d0eb 49be b0a7 863d 6075 e2bc
00000090: 8439 0d3e ed5a 313e 2975 273e c718 90bd
000000a0: b8fb 093e 3bc7 89bc 2bbf 143e 210e 113e
000000b0: 2db8 6e3d 4b74 ffbc 1eda 99bd 634c 06bc
000000c0: 599b 9e3b 08f1 32be 0599 c93d 4805 d33d
000000d0: 0f96 6fbc 3ae4 08bc f2ab 2e3d 0754 56ba
000000e0: 7631 0b3e c753 76bd 156f c1bd d7e2 123e
000000f0: f99f 0bbe 8850 153e 90e2 32be 4572 a43d

m_transform.0.5.running_mean f4 [32]
-0.46550542 -0.093451925 -0.015289751 2.0835183 0.0978791 0.35393944 1.7684745 0.38887495
0.020901857 0.10409236 0.26470956 0.6729364 -0.33089224 1.4367454 -0.1962796 0.15080859
-0.85633594 0.19474113 0.02329499 1.2998394 0.111244805 0.438325 0.3115313 0.022295892
0.51838183 1.8833843 0.58006924 0.7984886 1.5731518 0.25837138 -0.045697484 0.09883607
00000000: ba56 eebe b963 bfbd dd81 7abc 5d58 0540
00000010: d674 c83d 8d37 b53e 5f5d e23f 9e1a c73e
00000020: 5f3a ab3c 602e d53d 0388 873e 8f45 2c3f
00000030: b56a a9be 46e7 b73f 85fd 48be 916d 1a3e
00000040: d538 5bbf 386a 473e 23d5 be3c 2361 a63f
00000050: 51d4 e33d 226c e03e 0881 9f3e e0a5 b63c
00000060: acb4 043f bd12 f13f 6b7f 143f c069 4c3f
00000070: 0a5d c93f 4149 843e 492d 3bbd 916a ca3d

m_transform.0.5.running_var f4 [32]
0.12053103 0.10761663 0.08649108 1.0350537 0.06128431 0.04564472 0.8591255 0.10315767
0.10561834 0.021587117 0.04950543 0.09111382 0.02939781 0.62612146 0.04907241 0.039411094
0.2885479 0.032072734 0.027924456 0.39102134 0.060846023 0.20269154 0.031727526 0.03002157
0.050319437 0.4917702 0.03396356 0.13994338 0.6595277 0.09546639 0.022371277 0.048959043
00000000: f9d8 f63d 1c66 dc3d 3c22 b13d a47c 843f
00000010: 4205 7b3d f5f5 3a3d a6ef 5b3f 5444 d33d
00000020: 6e4e d83d 77d7 b03c 35c6 4a3d e299 ba3d
00000030: add3 f03c 7f49 203f 2700 493d 876d 213d
00000040: 8dbc 933e b35e 033d d4c1 e43c f333 c83e
00000050: ae39 793d 5f8e 4f3e b9f4 013d ccef f53c
00000060: c11b 4e3d 4ec9 fb3e 601d 0b3d 514d 0f3e
00000070: cfd6 283f e283 c33d f843 b73c 4789 483d

m_transform.0.6.weight f4 [96, 32, 3, 3]
-0.006066277 -0.055140667 -0.047010664 -0.043105606 -0.045340076 0.04198871 0.010012967 -0.019698214
-0.044804826 -0.035136014 0.049054753 -0.05580421 0.07304837 -0.03724852 0.010669048 0.055154383
0.0024598218 0.0065652546 -0.0025071092 0.03711136 -0.024584014 -0.04844155 0.061224565 -0.039574377
0.040186618 -0.024932982 -0.017932914 -0.013970368 0.032311134 0.05174823 0.017514264 -0.03032007
0.01129107 -0.0024654367 0.03978844 -0.030231224 0.033949364 -0.06506391 0.03152818 -0.032763492
-0.06017169 0.023528688 0.052399553 -0.033323705 -0.029044202 -0.009920952 -0.006273623 -0.048501343
-0.014981954 -0.016243896 0.043087672 0.0740147 0.01508197 -0.0030695987 0.023667952 -0.033620495
0.02971414 0.03253652 -0.027401773 0.06875948 -0.010730293 0.025676528 -0.036927726 0.015680822
-0.023817249 -0.048402037 0.03210196 0.042610526 -0.014012716 0.03512309 -0.032845713 -6.291678e-05
-0.04716197 0.019241938 0.009020362 -0.05803826 -0.028813763 -0.03504845 0.033996854 0.049683936
0.04906246 0.036691565 0.043604665 -0.06015151 -0.02865797 0.060801964 0.034988124 -0.00057719345
-0.02297269 -0.05561682 -0.015555115 0.04935811 0.022217529 -0.032394182 -0.04849218 0.04668746
0.023567071 -0.0122607 0.037342053 0.0013363847 0.053309247 0.0246906 0.01243211 -0.008960309
0.035735384 -0.010755108 -0.041722633 0.054902263 0.042213928 -0.027857937 -0.07951213 0.023432756
0.053322274 -0.032632496 0.0019767587 0.0023912366 -0.06917986 -0.037770897 0.044557992 -0.02214714
0.02695889 0.009663893 -0.019135673 0.030268975 -0.04549378 -0.042601395 0.046011906 -0.022197518
-0.014350456 0.045152236 0.05306667 -0.038143523 -9.033152e-05 -0.022139749 0.038789954 -0.017312462
-0.043266628 -0.04477374 0.003831893 -0.06904935 0.01825423 -0.024403956 0.009100861 -0.054268472
-0.0008120364 -0.053835154 0.034180406 0.018296419 -0.008714434 -0.013247698 0.00235835 -0.05758494
-0.02688057 -0.068939544 0.08004769 -0.044902053 0.03363072 0.03167561 -0.06750317 0.013787671
0.06020541 -0.029631067 0.0827023 -0.017204275 0.048379987 0.052591436 -0.052482 0.01403915
0.020480163 -0.054600388 0.04052006 0.048910845 -0.0023279407 0.02684049 0.00034222504 0.043181755
0.043636948 0.009615185 0.004576028 0.0350869 0.04990137 -0.043382417 -0.011144509 0.016335769
0.007635908 -0.042858 0.030748732 -0.025434338 0.0108142495 -0.027698243 -0.009423298 0.034934804
-0.051950347 -0.0747264 0.055924036 -0.004777148 -0.05471644 0.00815618 -0.0393073 -0.010877169
-0.043618873 -0.0367023 0.04627603 -0.027960327 0.013397123 0.03568923 -0.039252467 -0.02865013
-0.005608562 0.06590616 -0.033497192 -0.0106984265 0.051260337 0.040332206 -0.032145035 0.05101579
-0.045865018 -0.038669717 0.050117254 0.02135827 -0.038858943 0.049466215 0.0103904605 0.032701343
0.07243565 0.04460785 -0.051446337 0.03804188 0.06403514 -0.016479015 -0.005774456 0.059198666
-0.046120197 -0.019807223 0.011884833 0.016604172 0.054540005 -0.056315586 -0.035652496 0.0108312825
0.024201287 -0.027848396 -0.0046347454 0.04679588 -0.06335249 0.022558704 -0.00037415363 -0.06048932
-0.054054797 0.023449417 -0.063836336 0.0017700609 -0.008292515 0.005986234 0.0009754344 -0.015525316
00000000: 9fc7 c6bb 2edb 61bd 418e 40bd 818f 30bd
00000010: 84b6 39bd 5bfc 2b3d 6d0d 243c 265e a1bc
00000020: 4485 37bd c8ea 0fbd a3ed 483d f592 64bd
00000030: 629a 953d e791 18bd 3bcd 2e3c 90e9 613d
00000040: f634 213b 5921 d73b 504e 24bb 1502 183d
00000050: 6a64 c9bc a66a 46bd 9cc6 7a3d be18 22bd
00000060: b99a 243d 4140 ccbc 0ce8 92bc f8e3 64bc
00000070: ae58 043d f4f5 533d 137a 8f3c cc61 f8bc
00000080: 2efe 383c 2a93 21bb 34f9 223d 79a7 f7bc
00000090: 7d0e 0b3d 3a40 85bd b123 013d 0333 06bd
000000a0: 9776 76bd 3cbf c03c eaa0 563d 707e 08bd
000000b0: 1bee edbc 7d8b 22bc f792 cdbb 58a9 46bd
000000c0: df76 75bc eb11 85bc b37c 303d 0595 973d
000000d0: 5e1a 773c 522b 49bb 4be3 c13c a5b5 09bd
000000e0: 116b f33c 0445 053d af79 e0bc c5d1 8c3d
000000f0: 1cce 2fbc 9557 d23c 8741 17bd 1175 803c
00000100: 641c c3bc 3741 46bd 587d 033d 6088 2e3d
00000110: 9795 65bc 3bdd 0f3d 3a89 06bd 30f2 83b8
00000120: e92c 41bd 45a1 9d3c 24ca 133c 87b9 6dbd
00000130: d70a ecbc f78e 0fbd 4940 0b3d 6281 4b3d
00000140: b8f5 483d e549 163d ce9a 323d 6e61 76bd
00000150: 1ec4 eabc 7b0b 793d b54f 0f3d cc4e 17ba
00000160: 3931 bcbc 76ce 63bd e2da 7ebc bb2b 4a3d
00000170: 8901 b63c c3af 04bd bc9f 46bd 5a3b 3f3d
00000180: bb0f c13c 1ae1 48bc fbf3 183d a129 af3a
00000190: cc5a 5a3d f143 ca3c 0cb0 4b3c 43ce 12bc
000001a0: 445f 123d 3136 30bc 5ae5 2abd 32e1 603d
000001b0: 83e8 2c3d 5436 e4bc 41d7 a2bd 0df6 bf3c
000001c0: 7568 5a3d a7a9 05bd 828c 013b 4bb6 1c3b
000001d0: 2cae 8dbd a8b5 1abd 7182 363d eb6d b5bc
000001e0: e4d8 dc3c 4e55 1e3c 6ac2 9cbc a4f6 f73c
000001f0: b057 3abd cd7e 2ebd fb76 3c3d 92d7 b5bc
00000200: 2d1e 6bbc 8df1 383d 705c 593d 623c 1cbd
00000210: 5e70 bdb8 6b5e b5bc 37e2 1e3d ddd2 8dbc
00000220: 5938 31bd ab64 37bd 7f20 7b3b bf69 8dbd
00000230: e589 953c ceea c7bc c71b 153c 9e48 5ebd
00000240: d7de 54ba 4082 5cbd c100 0c3d 5fe2 953c
00000250: fcc6 0ebc df0c 59bc 8c8e 1a3b 30de 6bbd
00000260: a434 dcbc 2d30 8dbd 0bf0 a33d 37eb 37bd
00000270: 5ec0 093d 49be 013d 1a3f 8abd afe5 613c
00000280: f399 763d dabc f2bc d35f a93d fbef 8cbc
00000290: 182a 463d 1e6a 573d 5ef7 56bd 7704 663c
000002a0: 04c6 a73c a8a4 5fbd 5df8 253d bd56 483d
000002b0: 5d90 18bb 96e0 db3c ab6c b339 5adf 303d
000002c0: a8bc 323d 0289 1d3c 81f2 953b 48b7 0f3d
000002d0: 6165 4c3d c3b1 31bd 7597 36bc 97d2 853c
000002e0: a436 fa3b df8b 2fbd c4e4 fb3c ac5b d0bc
000002f0: 402e 313c 6de7 e2bc 2d64 1abc cc17 0f3d
00000300: e3c9 54bd 280a 99bd 9a10 653d 9f89 9cbb
00000310: 591e 60bd 80a1 053c b100 21bd 2736 32bc
00000320: b4a9 32bd 2755 16bd ef8b 3d3d 0e0d e5bc
00000330: 9b7f 5b3c df2e 123d 32c7 20bd adb3 eabc
00000340: 07c8 b7bb cff9 863d 5a34 09bd 7448 2fbc
00000350: 5cf6 513d 6233 253d 83aa 03bd eff5 503d
00000360: f5dc 3bbd 2364 1ebd c047 4d3d 8af7 ae3c
00000370: 8e2a 1fbd 169d 4a3d c03c 2a3c d8f1 053d
00000380: 2459 943d b9b6 363d 65b9 52bd cdd1 1b3d
00000390: db24 833d 00ff 86bc a637 bdbb 4d7a 723d
000003a0: 88e8 3cbd c242 a2bc 9ab8 423c 7905 883c
000003b0: 5765 5f3d 2cab 66bd 5a08 12bd b175 313c
000003c0: c741 c63c 5222 e4bc 10df 97bb 09ad 3f3d
000003d0: f3be 81bd 08cd b83c 0d2a c4b9 a6c3 77bd
000003e0: 9068 5dbd fe18 c03c a0bc 82bd 6301 e83a
000003f0: 54dd 07bc 2c28 c43b 4bb4 7f3a e55d 7ebc

m_transform.0.6.bias f4 [96]
0.06619159 0.04774498 0.074260056 -0.043336406 -0.0025133304 -0.03175341 -0.07419355 -0.021248447
-0.009772375 -0.03796351 -0.068464234 -0.038417708 -0.049838457 -0.023998182 -0.022965664 0.046545982
0.04102582 -0.01190435 0.031461284 0.021539094 -0.013709685 -0.058318827 0.046411198 0.030349057
-0.050919436 -0.030221822 0.014456395 -0.0065568793 0.035196107 0.02549542 0.00031732273 -0.050035253
0.056890026 -0.059045717 -0.0039079003 0.00058701047 0.0075282366 -0.04044295 -0.01394408 0.0067138723
-0.034983113 0.049063355 0.0190326 -0.02184579 -0.056638107 0.0067399736 -0.0377613 0.06035006
-0.0021446997 -0.018062202 -0.026228629 0.042012412 0.04349491 -0.021790968 0.0087083895 0.016829638
0.0085801035 0.07418763 -0.023420747 0.019169662 -0.006263479 -0.018071473 -0.011697755 0.016344897
-0.02411618 0.012570087 0.02218316 -0.013135792 -0.07502996 -0.014647832 0.022347309 0.025198283
-0.010572056 -0.03164049 0.008671223 -0.048078228 0.034860943 0.031720035 0.0085267285 0.04456815
0.032996077 -0.0156801 -0.064354874 6.507156e-05 0.03981211 0.050295103 0.048423484 0.019935878
-0.052937634 -0.057171885 0.004825305 -0.028995411 -0.0061881226 0.00047508985 0.003829698 0.007962431
00000000: 758f 873d 3d90 433d a815 983d 8481 31bd
00000010: b0b6 24bb dd0f 02bd caf2 97bd 3911 aebc
00000020: 501c 20bc a07f 1bbd fa36 8cbd e35b 1dbd
00000030: 6923 4cbd d697 c4bc 7d22 bcbc 00a7 3e3d
00000040: b10a 283d 760a 43bc 8cdd 003d c172 b03c
00000050: 969e 60bc b9df 6ebd ab19 3e3d 969e f83c
00000060: e690 50bd c193 f7bc 84da 6c3c 17db d6bb
00000070: cb29 103d c5db d03c 565e a639 c4f1 4cbd
00000080: 8405 693d ecd9 71bd d80d 80bb 9be1 193a
00000090: 6daf f63b 82a7 25bd b675 64bc 0b00 dc3b
000000a0: 744a 0fbd a8f6 483d 41ea 9b3c f1f5 b2bc
000000b0: 5cfd 67bd ffda dc3b 98ab 1abd a031 773d
000000c0: 178e 0cbb 2ff7 93bc 6cdd d6bc 3515 2c3d
000000d0: b827 323d f982 b2bc a2ad 0e3c 4fde 893c
000000e0: 9093 0c3c afef 973d dedc bfbc b209 9d3c
000000f0: df3d cdbb a00a 94bc f1a7 3fbc bce5 853c
00000100: 4c8f c5bc c4f2 4d3c 75b9 b53c 8137 57bc
00000110: 4fa9 99bd 76fd 6fbc b411 b73c a16c ce3c
00000120: 6b36 2dbc 7599 01bd bf11 0e3c aded 44bd
00000130: 59ca 0e3d deec 013d b1b3 0b3c 188d 363d
00000140: e526 073d 8e73 80bc 7dcc 83bd 0777 8838
00000150: 0612 233d 3d02 4e3d b457 463d 9150 a33c
00000160: 22d5 58bd 112d 6abd 981d 9e3b c987 edbc
00000170: bcc5 cabb 7b15 f939 acfb 7a3b db74 023c

m_transform.0.9.running_mean f4 [48]
1.0899413 1.2390019 0.96452206 0.8874072 1.1119646 1.2902414 1.0235405 1.314891
0.87711084 0.9106827 1.1774658 1.1574217 1.0214196 1.274884 0.9106052 1.046211
1.4566779 1.0822731 1.2300631 1.0674337 0.8407024 1.186588 0.7899424 0.7627203
0.8596829 1.0250525 1.3554145 0.9519524 1.0553474 1.077991 0.95751446 0.98456466
1.036626 0.76891446 0.9467798 0.9761463 1.2657508 0.88218176 0.95865816 0.94064206
1.4580301 0.8082057 1.0753281 0.72598004 0.65125704 1.3627381 0.9496021 0.97798324
00000000: 3283 8b3f 9d97 9e3f ebea 763f 1e2d 633f
00000010: db54 8e3f a126 a53f 6003 833f 594e a83f
00000020: 568a 603f 8022 693f 33b7 963f 6526 943f
00000030: e1bd 823f 662f a33f 6c1d 693f 3eea 853f
00000040: 6c74 ba3f ed87 8a3f b572 9d3f aba1 883f
00000050: 4638 573f 1ee2 973f aa39 4a3f a341 433f
00000060: 2e14 5c3f ec34 833f 397e ad3f 27b3 733f
00000070: a015 873f 9cfb 893f ab1f 753f 6e0c 7c3f
00000080: 29b0 843f 94d7 443f 2960 723f b9e4 793f
00000090: 1f04 a23f aad6 613f 9f6a 753f ebcd 703f
000000a0: bba0 ba3f 92e6 4e3f 5aa4 893f d4d9 393f
000000b0: c8b8 263f 346e ae3f 2019 733f 1c5d 7a3f

m_transform.0.9.running_var f4 [48]
0.3938866 0.5485391 0.7542005 0.64194375 0.669627 0.9313712 0.4981806 0.54461485
0.40542522 0.98832536 1.0963899 0.872084 0.4443803 1.4261596 0.5936948 0.8650202
0.9416053 0.91275805 0.8141018 0.8123638 0.6053201 0.62141794 0.40116712 0.3312703
0.74710053 0.85370225 0.55462545 0.9691602 0.9248447 0.84815854 0.4263172 0.71488875
0.6449665 0.48842308 0.42270058 0.86498946 0.64731413 0.4018095 0.3374523 0.5603598
0.7574353 0.44716606 0.48942152 0.8010143 1.0034263 1.0944608 0.7346642 2.212254
00000000: 81ab c93e 0f6d 0c3f 4913 413f 6d56 243f
00000010: ad6c 2b3f 586e 6e3f 8711 ff3e e16b 0b3f
00000020: e593 cf3e e402 7d3f 8156 8c3f e640 5f3f
00000030: d185 e33e 668c b63f 62fc 173f f771 5d3f
00000040: 0c0d 713f 83aa 693f fa68 503f 13f7 4f3f
00000050: 42f6 1a3f 3f15 1f3f c765 cd3e 439c a93e
00000060: fb41 3f3f 3b8c 5a3f effb 0d3f e21a 783f
00000070: 9fc2 6c3f eb20 593f 3f46 da3e f302 373f
00000080: 861c 253f 9712 fa3e 366c d83e f36f 5d3f
00000090: 61b6 253f fab9 cd3e 8cc6 ac3e bd73 0f3f
000000a0: 48e7 413f f3f2 e43e 7595 fa3e 460f 4d3f
000000b0: 4670 803f 4b17 8c3f f412 3c3f 9295 0d40

m_transform.0.10.weight f4 [96, 48, 1, 1]
-0.044362064 0.056843407 0.10531456 -0.13644467 -0.097152546 -0.06818062 0.055566758 -0.1491288
0.019401193 0.06542857 -0.09945382 -0.053942546 -0.029908432 0.06268244 -0.019417603 -0.079211384
0.043592233 0.11929384 0.036005255 -0.1417492 0.019804053 0.002368735 0.14096168 0.029862126
0.032340933 -0.00011897691 -0.13991056 0.059925277 -0.0742644 0.0874133 -0.047765624 -0.12499579
0.11582273 -0.028402973 -0.072493896 0.009526244 0.06580029 0.10044846 -0.15836194 0.07082259
0.13547678 0.00069462246 -0.12155433 -0.08669919 0.11879447 -0.10913975 -0.060088802 -0.055617727
0.11369931 -0.025822517 -4.457275e-06 -0.15500684 -0.037130382 -0.021859862 0.009950592 -0.150163
-0.04652884 0.07813114 0.11709758 0.1094376 -0.15407594 -0.032785818 -0.10178621 0.051203888
-0.13758086 0.08134089 0.025755554 0.008583838 -0.07463582 -0.032320764 -0.067878075 -0.10814377
0.07895247 -0.03177581 -0.0742681 0.03997371 -0.070625596 0.13138202 0.13897651 -0.07489815
0.061132386 -0.04745029 -0.04719582 0.0660797 -0.0065589324 0.08817424 0.0556681 -0.01113941
-0.038111012 0.09230126 -0.15724061 -0.1161747 0.10845111 -0.11579124 0.02363047 -0.15721232
-0.06978105 -0.052489642 -0.060054068 0.054162238 -0.08987313 0.013293492 -0.01910704 -0.13573253
-0.1419947 -0.038962025 0.1186796 0.04930792 -0.054195657 0.065960094 -0.09414861 -0.004052213
-0.07433799 -0.06395284 -0.13266404 -0.0019163678 -0.1434734 -0.05351577 0.019569388 0.10307715
-0.12645608 0.082110405 0.009484674 0.029384973 -0.08019476 -0.039697386 -0.08824619 0.034370407
0.03669644 0.11935517 -0.11202978 0.028009037 0.060468383 0.13391055 -0.1553864 0.044649944
0.032746576 0.07435326 -0.12189266 0.032276496 -0.08207018 0.017891916 0.039934684 0.07435275
-0.14275627 0.11278926 0.13427979 0.1540722 0.025817646 0.027269412 -0.073222235 -0.13949184
0.058424447 0.10080543 0.06583444 0.024491312 0.04785882 0.010301157 -0.07418193 -0.047347996
-0.018953027 -0.11574319 -0.11880784 -0.13679242 0.02877338 -0.09445619 0.035397872 -0.02927023
0.06821781 0.090314634 -0.078118145 -0.12614739 0.089029446 -0.006600513 -0.085807815 0.1235827
0.0055935867 -0.07341616 0.02257001 -0.14172924 0.08136379 -0.110810794 -0.14621967 0.16429104
-0.10326169 -0.038351037 0.037575055 0.021490319 -0.120802104 0.030049214 0.028355809 0.04677296
-0.052185565 0.13759893 0.037908666 0.008961121 -0.05545558 -0.022765554 -0.08863601 -0.08674099
0.10024155 -0.102382205 -0.06418856 -0.069408566 -0.06589199 -0.05188028 0.13628736 0.1301742
0.084109396 -0.1095275 0.1516496 -0.10591089 -0.00071267964 -0.04524165 0.016969495 -0.046919554
-0.058216076 0.10164004 0.041128706 -0.13375358 -0.14693075 0.08320156 0.10250777 -0.014969174
0.025918856 0.0817891 0.07506687 -0.0917892 -0.043904386 0.12389612 0.076903 -0.0464192
-0.0527889 -0.032741554 0.032096654 -0.119974226 0.057617597 -0.10851408 0.036861267 0.07319246
-0.0924028 -0.05589302 -0.055013657 0.1342062 -0.06723587 0.02679987 0.10285721 0.030255929
-0.07102929 -0.07713945 0.096984506 0.031439003 -0.068077445 0.06778694 -0.033357136 0.13777605
00000000: ffb4 35bd a2d4 683d 29af d73d 27b8 0bbe
00000010: eaf7 c6bd 48a2 8bbd f899 633d 38b5 18be
00000020: 40ef 9e3c 6aff 853d 72ae cbbd dcf2 5cbd
00000030: 8702 f5bc a75f 803d aa11 9fbc 9439 a2bd
00000040: c58d 323d 5450 f43d 3f7a 133d b426 11be
00000050: 1c3c a23c c73c 1b3b 4258 103e 6ba1 f43c
00000060: ed77 043d 3e83 f9b8 b744 0fbe 3574 753d
00000070: ef17 98bd bf05 b33d e3a5 43bd cbfd ffbd
00000080: 7834 ed3d 5aad e8bc ae77 94bd f713 1c3c
00000090: 4dc2 863d ecb7 cd3d a229 22be 6f0b 913d
000000a0: 6dba 0a3e 5317 363a 7af1 f8bd 588f b1bd
000000b0: 844a f33d a984 dfbd ad1f 76bd 6acf 63bd
000000c0: 2fdb e83d be89 d3bc b38f 95b6 1dba 1ebe
000000d0: 0716 18bd 7413 b3bc cf07 233c 54c4 19be
000000e0: 0695 3ebd 3803 a03d dbd0 ef3d d220 e03d
000000f0: 15c6 1dbe 6c4a 06bd 4a75 d0bd 2bbb 513d
00000100: ffe1 0cbe 0d96 a63d 50fd d23c 3aa3 0c3c
00000110: aada 98bd c762 04bd a903 8bbd 7b7a ddbd
00000120: d5b1 a13d 5a27 02bd e019 98bd 79bb 233d
00000130: 27a4 90bd 0289 063e dc4f 0e3e 3464 99bd
00000140: f465 7a3d 3c5b 42bd 6750 41bd cb54 873d
00000150: 50ec d6bb b294 b43d 3c04 643d 1282 36bc
00000160: 4b1a 1cbd 7108 bd3d af03 21be 00ed edbd
00000170: 9e1b de3d f523 edbd b094 c13c 44fc 20be
00000180: 5ee9 8ebd 61ff 56bd 41fb 75bd 39d9 5d3d
00000190: 670f b8bd f2cc 593c 5e86 9cbc 78fd 0abe
000001a0: 0f67 11be a596 1fbd 4a0e f33d 1af7 493d
000001b0: 44fc 5dbd 1616 873d fdd0 c0bd 6dc8 84bb
000001c0: 843e 98bd b5f9 82bd 15d9 07be a22e fbba
000001d0: b1ea 12be 5a33 5bbd fb4f a03c 1d1a d33d
000001e0: b47d 01be 8029 a83d 9b65 1b3c c1b8 f03c
000001f0: 263d a4bd ba99 22bd 6bba b4bd fcc7 0c3d
00000200: 024f 163d 7c70 f43d df6f e5bd 3573 e53c
00000210: b2ad 773d d91f 093e 9d1d 1fbe dce2 363d
00000220: 4621 063d 8646 983d dca2 f9bd 5c34 043d
00000230: 6914 a8bd 1192 923c 8d92 233d 4146 983d
00000240: b32e 12be 0efe e63d a480 093e 1ac5 1d3e
00000250: 877f d33c 1a64 df3c 8af5 95bd f3d6 0ebe
00000260: 794e 6f3d 1473 ce3d 35d4 863d 01a2 c83c
00000270: 9c07 443d 2fc6 283c b2ec 97bd f9ef 41bd
00000280: 6143 9bbc c40a edbd 8651 f3bd 5013 0cbe
00000290: 27b6 eb3c 3f72 c1bd 5cfd 103d 1fc8 efbc
000002a0: c7b5 8b3d e1f6 b83d 68fc 9fbd c82c 01be
000002b0: 1255 b63d 1e49 d8bb 02bc afbd ed18 fd3d
000002c0: 684a b73b 365b 96bd bee4 b83c 7821 11be
000002d0: 0fa2 a63d c5f0 e2bd 9cba 15be e93b 283e
000002e0: dd7a d3bd fa15 1dbd 4de8 193d 770c b03c
000002f0: 1867 f7bd c529 f63c 714a e83c 0195 3f3d
00000300: 88c0 55bd bce6 0c3e 1e46 1b3d aad1 123c
00000310: 6425 63bd d47e babc cc86 b5bd 43a5 b1bd
00000320: 714b cd3d c3ad d1bd 4b75 83bd 1426 8ebd
00000330: 61f2 86bd 6b80 54bd ea8e 0b3e 634c 053e
00000340: 8c41 ac3d f44f e0bd 084a 1b3e cfe7 d8bd
00000350: 1fd3 3aba 4f4f 39bd 9c03 8b3c b82e 40bd
00000360: fb73 6ebd a728 d03d 9376 283d b3f6 08be
00000370: 0475 16be 9465 aa3d 98ef d13d 4441 75bc
00000380: c853 d43c 0b81 a73d a9bc 993d fafb bbbd
00000390: 16d5 33bd 40bd fd3d 527f 9d3d 0f22 3ebd
000003a0: 2c39 58bd 021c 06bd c877 033d 0cb5 f5bd
000003b0: 6e00 6c3d a13c debd d7fb 163d eee5 953d
000003c0: ae3d bdbd 14f0 64bd 0056 61bd 5a6d 093e
000003d0: f6b2 89bd 678b db3c cda6 d23d 48db f73c
000003e0: ce77 91bd 4afb 9dbd d09f c63d 2fc6 003d
000003f0: 306c 8bbd e1d3 8a3d 7ea1 08bd 2a15 0d3e

m_transform.0.10.bias f4 [96]
0.0119728455 -0.07612792 0.047304388 -0.108377986 -0.04838553 0.0063487524 0.14495358 0.08444182
-0.100438215 -0.12196771 -0.11444742 -0.03174909 -0.13844188 0.0026421845 0.07254807 0.07966778
-0.1098965 -0.01757655 -0.06689106 0.09296212 0.013494616 0.119431555 0.054416593 -0.03793581
0.13761204 0.071658574 0.04715179 -0.065195255 0.015385549 -0.059701383 -0.0950671 0.041819617
-0.04726901 -0.1300482 0.046287723 -0.015204911 0.1401118 0.107218824 -0.017140303 0.070956446
-0.050397698 -0.11663629 0.006562384 -0.052703258 -0.12905937 0.07125658 0.10132939 0.026318744
-0.08217162 -0.0024189393 0.0748839 0.11632402 0.07919344 -0.00025452883 -0.07030686 -0.010418292
0.07496302 0.043772265 0.09075534 -0.117149755 0.08788278 0.023779882 0.014493828 0.061540373
-0.06676874 0.11683925 0.06787318 0.07328146 0.06799208 0.14353555 0.05886351 -0.0056896955
-0.15119274 -0.12483158 -0.10143131 -0.12046348 -0.04363727 0.096887566 0.01356311 -0.0041919416
0.12817994 -0.0020350683 -0.1408194 -0.10140409 0.0076951743 -0.05489029 -0.020608852 0.022722356
-0.02924474 -0.108123474 -0.1148266 0.08541923 0.14648959 -0.1345098 -0.08393335 -0.0494564
00000000: c129 443c f4e8 9bbd 3fc2 413d 47f5 ddbd
00000010: e82f 46bd 3209 d03b b66e 143e d5ef ac3d
00000020: 8db2 cdbd 35ca f9bd 6963 eabd 550b 02bd
00000030: b5c3 0dbe 8028 2d3b 1594 943d dc28 a33d
00000040: 6b11 e1bd b2fc 8fbc 2efe 88bd ed62 be3d
00000050: 8618 5d3c 8898 f43d efe3 5e3d 9462 1bbd
00000060: 2cea 0c3e bbc1 923d 3c22 413d 1785 85bd
00000070: ab13 7c3c 7089 74bd 8ab2 c2bd 0c4b 2b3d
00000080: 269d 41bd 5b2b 05be 3298 3d3d 051e 79bc
00000090: 7879 0f3e 8b95 db3d d269 8cbc 9d51 913d
000000a0: d16d 4ebd 02df eebd 4409 d73b 5fdf 57bd
000000b0: 2428 04be f8ee 913d c985 cf3d 689a d73c
000000c0: 9849 a8bd 1187 1ebb bb5c 993d 4a3b ee3d
000000d0: 2c30 a23d 4872 85b9 0bfd 8fbd 7cb1 2abc
000000e0: 3686 993d 8c4a 333d f0dd b93d 36ec efbd
000000f0: e3fb b33d 07ce c23c 8577 6d3c c211 7c3d
00000100: 0dbe 88bd 6b49 ef3d 1801 8b3d 9714 963d
00000110: 6e3f 8b3d fcfa 123e dd1a 713d a070 babb
00000120: 45d2 1abe b3a7 ffbd 38bb cfbd 8fb5 f6bd
00000130: febc 32bd fd6c c63d ce37 5e3c 8e5c 89bb
00000140: 9a41 033e c85e 05bb f632 10be f3ac cfbd
00000150: cd27 fc3b a4d4 60bd e5d3 a8bc 3c24 ba3c
00000160: aa92 efbc d76f ddbd 352a ebbd 47f0 ae3d
00000170: 5e01 163e f0bc 09be 40e5 abbd cb92 4abd

m_transform.0.12.running_mean f4 [48]
0.35362482 0.38780975 0.49498317 0.4506881 0.5466519 0.40837696 0.452651 0.41416273
0.41558117 0.42228812 0.4435898 0.43179503 0.3192558 0.39679834 0.6076674 0.35071367
0.29678488 0.58620524 0.31212717 0.4928485 0.31525895 0.61446804 0.5644813 0.29233146
0.2530048 0.45335993 0.3873756 0.15512086 0.35112792 0.2815576 0.23062843 0.39072722
0.32790852 0.25388175 0.31907317 0.33381942 0.51136434 0.5068294 0.56150967 0.47118914
0.37223196 0.19850083 0.24754508 0.6291431 0.3962199 0.4243728 0.3917759 0.33445537
00000000: 500e b53e 008f c63e 6f6e fd3e 97c0 e63e
00000010: 61f1 0b3f c916 d13e dfc1 e73e 230d d43e
00000020: 0ec7 d43e 2636 d83e 341e e33e 3d14 dd3e
00000030: 7f75 a33e 2729 cb3e 1790 1b3f be90 b33e
00000040: 30f4 973e 8c11 163f 22cf 9f3e a356 fc3e
00000050: 9f69 a13e c74d 1d3f d981 103f 78ac 953e
00000060: d889 813e cb1e e83e 1856 c63e 01d8 1e3e
00000070: 0ac7 b33e 5128 903e dc29 6c3e 660d c83e
00000080: a0e3 a73e cafc 813e 8f5d a33e 61ea aa3e
00000090: c6e8 023f 92bf 013f 19bf 0f3f b43f f13e
000000a0: 3095 be3e cd43 4b3e 757c 7d3e 860f 213f
000000b0: 56dd ca3e 6447 d93e da96 c83e bc3d ab3e

m_transform.0.12.running_var f4 [48]
0.2700523 0.1780621 0.21545915 0.31170344 0.35022864 0.3765282 0.301891 0.3414621
0.20211531 0.2730212 0.17587756 0.28947982 0.25891384 0.2376022 0.2899432 0.1912034
0.19767566 0.24614869 0.31644595 0.2912397 0.24530712 0.40254182 0.35157347 0.17871824
0.2895195 0.3208784 0.24557191 0.3497558 0.30865195 0.45510995 0.21552832 0.17263669
0.49227595 0.34489346 0.30593085 0.27537775 0.30429766 0.13886239 0.2524462 0.34983355
0.16170728 0.22680224 0.30652648 0.253431 0.36472046 0.18937176 0.24803996 0.25343475
00000000: 4c44 8a3e e955 363e 53a1 5c3e 9897 9f3e
00000010: 2b51 b33e 4ec8 c03e 7591 9a3e 1fd4 ae3e
00000020: 51f7 4e3e 6fc9 8b3e 3f19 343e b336 943e
00000030: 5b90 843e fe4d 733e 6f73 943e d3ca 433e
00000040: 7d6b 4a3e 670e 7c3e 3405 a23e 5f1d 953e
00000050: ca31 7b3e f619 ce3e 7001 b43e ea01 373e
00000060: e63b 943e 2c4a a43e 3477 7b3e 3113 b33e
00000070: a107 9e3e 2c04 e93e 75b3 5c3e acc7 303e
00000080: 980b fc3e e095 b03e f8a2 9c3e 50fe 8c3e
00000090: e7cc 9b3e f131 0e3e a140 813e 621d b33e
000000a0: 9896 253e d93e 683e 0af1 9c3e b5c1 813e
000000b0: a4bc ba3e acea 413e 30fe 7d3e 33c2 813e

m_transform.0.13.weight f4 [128, 48, 3, 3]
-0.0015468487 -0.039984457 -0.059274014 0.027223345 -0.01962454 0.010419811 0.0300479 -0.016735762
-0.04489956 -0.008281666 0.008995373 -0.035372354 -0.05970276 -0.0038661268 0.0075390167 0.026350548
0.048766304 0.026573839 0.03891922 -0.05384376 -0.04037987 -0.034027312 -0.01992589 -0.044761695
0.011713864 -0.0033269015 0.003921087 0.0050673396 -0.017963344 0.007198523 0.001694087 -0.05953686
-0.017078087 0.019325847 -0.049570076 -0.036350276 -0.038900875 -0.027271222 -0.031281594 0.021313084
0.011581466 0.041856658 0.008315598 0.02272542 -0.038049527 -0.021175707 0.025852159 -0.04438372
-0.015241677 0.0155891925 -0.04058219 0.003000353 -0.05939347 0.020106608 0.028200183 -0.04614523
0.010419847 0.0026842237 -0.041398395 0.030406063 -0.021257326 -0.0033710955 -0.058646817 -0.0067336103
-0.00609137 -0.024569564 -0.050394814 -0.013993563 -0.05344467 -0.009783547 -0.01077108 -0.04595705
-0.0011717926 0.018612681 -0.00081728137 0.033789307 -0.054924328 0.06398971 0.032234102 -0.0026748544
-0.010072162 0.014883133 -0.03752565 0.01761707 0.044778053 0.006566013 0.035347097 -0.015785262
0.001628068 0.046086192 -0.009232351 -0.042106677 -0.045621127 0.001758276 -0.045357414 -0.04724223
-0.018788466 -0.007470416 -0.023053084 -0.026352258 -0.02953124 0.0156228375 0.026106065 -0.05192252
0.024475653 0.0013109468 -0.008009387 -0.041136116 0.0036865862 -0.051352553 0.026183613 -0.023359124
0.037544463 -0.04798687 -0.015130983 0.02085605 -0.033244506 0.0019042536 -0.033814453 0.046786685
-0.0154566895 0.010163431 0.010528232 -0.0037643993 -0.03503486 -0.039338797 -0.0020429052 -0.054129187
-0.004028503 -0.022977982 -0.05641579 0.0064741094 -0.0089491885 -0.0133854 -0.034564506 -0.0017333758
0.04807806 0.007186693 0.01763976 0.037057023 -0.017081995 -0.0078077526 -0.016254187 0.013843822
-0.02300014 -0.003814955 -0.051468316 -0.016169783 -0.01509746 -0.018913608 0.030239949 0.005097108
0.0216604 0.00081783155 0.00034486438 -0.053654335 0.033143792 0.02331328 -0.053709578 0.054503735
-0.006442201 -0.045299806 -0.036872536 -0.03447621 -0.020885408 -0.00019998214 -0.038791727 -0.043061994
-0.028945966 0.046999864 -0.0128474245 0.020059 -0.03840449 0.017320605 0.03213195 -0.03173298
-0.039791375 0.013110314 0.009843247 -0.0068839835 -0.02607795 0.009293928 0.040506165 -0.033566963
0.011576703 0.03760053 0.037064157 0.0033265008 -0.0016041119 0.024883673 0.012708822 0.029635923
0.038443062 -0.039421503 0.001826032 -0.050078552 0.037276443 -0.012654065 -0.011620367 -0.07056266
-0.06007524 -0.006609736 0.014392041 0.012170281 -0.01094073 -0.01622021 -0.03629787 -0.014229805
0.0034813627 -0.0048756627 -0.0074852267 -0.024512155 0.031748846 -0.0042296518 -0.022820242 0.007081182
-0.019883996 0.007841462 -0.014161915 -0.022348844 -0.018951643 0.0049530147 0.03172837 -0.0012785854
-0.03687034 0.023184039 0.016071057 -0.042280316 -0.002752121 0.02236543 -0.00530833 0.030555693
-0.040463578 -0.01054788 -0.033168554 -0.03739651 -0.019065015 0.041065704 -0.055039566 0.019586513
-0.030763043 -0.048164822 0.025216028 -0.027337141 -0.023978524 -0.03756257 -0.020641604 -0.03507842
-0.009644875 -0.009134345 -0.013355071 -0.043069288 0.050878696 -0.0004500171 0.0067495466 -0.042532507
00000000: a1bf caba bec6 23bd 4fc9 72bd 7e03 df3c
00000010: a5c3 a0bc dbb7 2a3c 0327 f63c 7019 89bc
00000020: 9ae8 37bd d3af 07bc 5461 133c 9ae2 10bd
00000030: e28a 74bd d85e 7dbb db09 f73b 1bdd d73c
00000040: 2dbf 473d 61b1 d93c c369 1f3d 468b 5cbd
00000050: 5d65 25bd 3960 0bbd 9f3b a3bc 0a58 37bd
00000060: 82eb 3f3c 2508 5abb 767c 803b ed0b a63b
00000070: dd27 93bc 96e1 eb3b 210c de3a ecdc 73bd
00000080: 58e7 8bbc 3d51 9e3c fe09 4bbd 07e4 14bd
00000090: 8656 1fbd e667 dfbc 2121 00bd c798 ae3c
000000a0: 30c0 3d3c e371 2b3d 253e 083c a92a ba3c
000000b0: d2d9 1bbd ad78 adbc e8c7 d33c b4cb 35bd
000000c0: 3ab8 79bc d069 7f3c 8339 26bd 92a1 443b
000000d0: 9146 73bd 9db6 a43c 1204 e73c c802 3dbd
000000e0: 02b8 2a3c cde9 2f3b 5d91 29bd 2316 f93c
000000f0: d823 aebc 99ed 5cbb a537 70bd 9ea5 dcbb
00000100: 1d9a c7bb 1c46 c9bc cb6a 4ebd 4245 65bc
00000110: cce8 5abd 2c4b 20bc 2f79 30bc 763d 3cbd
00000120: d696 99ba 9f79 983c d33e 56ba a866 0a3d
00000130: 55f8 60bd 090d 833d e807 043d 9c4c 2fbb
00000140: b605 25bc 62d8 733c 7fb4 19bd ac51 903c
00000150: 3169 373d b627 d73b 1ec8 103d 1850 81bc
00000160: e664 d53a e0c4 3c3d 4943 17bc 0d78 2cbd
00000170: 38dd 3abd f475 e63a b2c8 39bd 1281 41bd
00000180: 45ea 99bc 64ca f4bb d2d9 bcbc b1e0 d7bc
00000190: 80eb f1bc eef6 7f3c 63dc d53c b5ac 54bd
000001a0: 2a81 c83c 13d4 ab3a ce39 03bc 587e 28bd
000001b0: a79a 713b 0e57 52bd 047f d63c a25b bfbc
000001c0: 39c8 193d e18d 44bd f1e7 77bc 4fda aa3c
000001d0: 642b 08bd 2698 f93a 0681 0abd 65a3 3f3d
000001e0: 0e3e 7dbc 8584 263c 9b7e 2c3c 24b4 76bb
000001f0: b780 0fbd b821 21bd 43e2 05bb 91b6 5dbd
00000200: 8801 84bb 523c bcbc 3e14 67bd c424 d43b
00000210: 9e9f 12bc 704e 5bbc 8393 0dbd 7132 e3ba
00000220: 80ed 443d 5a7e eb3b 4281 903c 1bc9 173d
00000230: 8aef 8bbc 2dd8 ffbb 8027 85bc 33d1 623c
00000240: ca6a bcbc 5304 7abb 71d0 52bd 7e76 84bc
00000250: 565b 77bc b6f0 9abc c5b9 f73c a405 a73b
00000260: 2771 b13c bf63 563a eace b439 a6c4 5bbd
00000270: c9c1 073d 7efb be3c 93fe 5bbd 4f3f 5f3d
00000280: 1919 d3bb 4a8c 39bd a807 17bd ed36 0dbd
00000290: e017 abbc 4cb2 51b9 13e4 1ebd c661 30bd
000002a0: 1720 edbc ee82 403d 017e 52bc c652 a43c
000002b0: 074e 1dbd f1e3 8d3c cb9c 033d 71fa 01bd
000002c0: 48fc 22bd a4cc 563c 9245 213c 0a93 e1bb
000002d0: 6da1 d5bc 8f45 183c cbe9 253d 837d 09bd
000002e0: 36ac 3d3c 0303 1a3d 96d0 173d 6c01 5a3b
000002f0: 1041 d2ba d8d8 cb3c aa38 503c 09c7 f23c
00000300: 7976 1d3d 7178 21bd 7757 ef3a 2b1f 4dbd
00000310: 2faf 183d ff52 4fbc 5a63 3ebc 2883 90bd
00000320: 7411 76bd 7c96 d8bb 98cc 6b3c dc65 473c
00000330: bf40 33bc 3fe0 84bc 13ad 14bd 2124 69bc
00000340: 9327 643b 06c4 9fbb a246 f5bb b7cd c8bc
00000350: 140b 023d e498 8abb 84f1 babc 4309 e83b
00000360: c3e3 a2bc 7a79 003c 6007 68bc ec14 b7bc
00000370: 7a40 9bbc e64c a23b 9bf5 013d 3596 a7ba
00000380: 5b05 17bd 74ec bd3c 73a7 833c 202e 2dbd
00000390: ee5c 34bb b537 b73c 80f1 adbb ef4f fa3c
000003a0: 23bd 25bd 04d1 2cbc c0db 07bd 152d 19bd
000003b0: 3c2e 9cbc 8334 283d 2b71 61bd e573 a03c
000003c0: c702 fcbc 7a48 45bd d891 ce3c 24f2 dfbc
000003d0: 9c6e c4bc 36db 19bd 9518 a9bc 64ae 0fbd
000003e0: 8a05 1ebc 38a8 15bc 3acf 5abc 6c69 30bd
000003f0: 2e66 503d 46f0 ebb9 4d2b dd3b 9136 2ebd
