Auxillary Code/LCNN/project/03-asvspoof-mega/lfcc-lcnn-attention-oc/04/__pretrained/trained_network.pt (torch, 720973 bytes, 35 tensors)

m_frontend.0.lfcc_fb f4 [257, 20]
0.0 0.0 0.0 0.0 0.0 0.0 0.0 0.0
0.0 0.0 0.0 0.0 0.0 0.0 0.0 0.0
0.0 0.0 0.0 0.0 0.08203125 0.0 0.0 0.0
0.0 0.0 0.0 0.0 0.0 0.0 0.0 0.0
0.0 0.0 0.0 0.0 0.0 0.0 0.0 0.0
0.1640625 0.0 0.0 0.0 0.0 0.0 0.0 0.0
0.0 0.0 0.0 0.0 0.0 0.0 0.0 0.0
0.0 0.0 0.0 0.0 0.24609374 0.0 0.0 0.0
0.0 0.0 0.0 0.0 0.0 0.0 0.0 0.0
0.0 0.0 0.0 0.0 0.0 0.0 0.0 0.0
0.328125 0.0 0.0 0.0 0.0 0.0 0.0 0.0
0.0 0.0 0.0 0.0 0.0 0.0 0.0 0.0
0.0 0.0 0.0 0.0 0.41015625 0.0 0.0 0.0
0.0 0.0 0.0 0.0 0.0 0.0 0.0 0.0
0.0 0.0 0.0 0.0 0.0 0.0 0.0 0.0
0.49218747 0.0 0.0 0.0 0.0 0.0 0.0 0.0
0.0 0.0 0.0 0.0 0.0 0.0 0.0 0.0
0.0 0.0 0.0 0.0 0.57421875 0.0 0.0 0.0
0.0 0.0 0.0 0.0 0.0 0.0 0.0 0.0
0.0 0.0 0.0 0.0 0.0 0.0 0.0 0.0
0.65625 0.0 0.0 0.0 0.0 0.0 0.0 0.0
0.0 0.0 0.0 0.0 0.0 0.0 0.0 0.0
0.0 0.0 0.0 0.0 0.73828125 0.0 0.0 0.0
0.0 0.0 0.0 0.0 0.0 0.0 0.0 0.0
0.0 0.0 0.0 0.0 0.0 0.0 0.0 0.0
0.8203125 0.0 0.0 0.0 0.0 0.0 0.0 0.0
0.0 0.0 0.0 0.0 0.0 0.0 0.0 0.0
0.0 0.0 0.0 0.0 0.90234375 0.0 0.0 0.0
0.0 0.0 0.0 0.0 0.0 0.0 0.0 0.0
0.0 0.0 0.0 0.0 0.0 0.0 0.0 0.0
0.98437494 0.0 0.0 0.0 0.0 0.0 0.0 0.0
0.0 0.0 0.0 0.0 0.0 0.0 0.0 0.0
00000000: 0000 0000 0000 0000 0000 0000 0000 0000
00000010: 0000 0000 0000 0000 0000 0000 0000 0000
00000020: 0000 0000 0000 0000 0000 0000 0000 0000
00000030: 0000 0000 0000 0000 0000 0000 0000 0000
00000040: 0000 0000 0000 0000 0000 0000 0000 0000
00000050: 0000 a83d 0000 0000 0000 0000 0000 0000
00000060: 0000 0000 0000 0000 0000 0000 0000 0000
00000070: 0000 0000 0000 0000 0000 0000 0000 0000
00000080: 0000 0000 0000 0000 0000 0000 0000 0000
00000090: 0000 0000 0000 0000 0000 0000 0000 0000
000000a0: 0000 283e 0000 0000 0000 0000 0000 0000
000000b0: 0000 0000 0000 0000 0000 0000 0000 0000
000000c0: 0000 0000 0000 0000 0000 0000 0000 0000
000000d0: 0000 0000 0000 0000 0000 0000 0000 0000
000000e0: 0000 0000 0000 0000 0000 0000 0000 0000
000000f0: ffff 7b3e 0000 0000 0000 0000 0000 0000
00000100: 0000 0000 0000 0000 0000 0000 0000 0000
00000110: 0000 0000 0000 0000 0000 0000 0000 0000
00000120: 0000 0000 0000 0000 0000 0000 0000 0000
00000130: 0000 0000 0000 0000 0000 0000 0000 0000
00000140: 0000 a83e 0000 0000 0000 0000 0000 0000
00000150: 0000 0000 0000 0000 0000 0000 0000 0000
00000160: 0000 0000 0000 0000 0000 0000 0000 0000
00000170: 0000 0000 0000 0000 0000 0000 0000 0000
00000180: 0000 0000 0000 0000 0000 0000 0000 0000
00000190: 0000 d23e 0000 0000 0000 0000 0000 0000
000001a0: 0000 0000 0000 0000 0000 0000 0000 0000
000001b0: 0000 0000 0000 0000 0000 0000 0000 0000
000001c0: 0000 0000 0000 0000 0000 0000 0000 0000
000001d0: 0000 0000 0000 0000 0000 0000 0000 0000
000001e0: ffff fb3e 0000 0000 0000 0000 0000 0000
000001f0: 0000 0000 0000 0000 0000 0000 0000 0000
00000200: 0000 0000 0000 0000 0000 0000 0000 0000
00000210: 0000 0000 0000 0000 0000 0000 0000 0000
00000220: 0000 0000 0000 0000 0000 0000 0000 0000
00000230: 0000 133f 0000 0000 0000 0000 0000 0000
00000240: 0000 0000 0000 0000 0000 0000 0000 0000
00000250: 0000 0000 0000 0000 0000 0000 0000 0000
00000260: 0000 0000 0000 0000 0000 0000 0000 0000
00000270: 0000 0000 0000 0000 0000 0000 0000 0000
00000280: 0000 283f 0000 0000 0000 0000 0000 0000
00000290: 0000 0000 0000 0000 0000 0000 0000 0000
000002a0: 0000 0000 0000 0000 0000 0000 0000 0000
000002b0: 0000 0000 0000 0000 0000 0000 0000 0000
000002c0: 0000 0000 0000 0000 0000 0000 0000 0000
000002d0: 0000 3d3f 0000 0000 0000 0000 0000 0000
000002e0: 0000 0000 0000 0000 0000 0000 0000 0000
000002f0: 0000 0000 0000 0000 0000 0000 0000 0000
00000300: 0000 0000 0000 0000 0000 0000 0000 0000
00000310: 0000 0000 0000 0000 0000 0000 0000 0000
00000320: 0000 523f 0000 0000 0000 0000 0000 0000
00000330: 0000 0000 0000 0000 0000 0000 0000 0000
00000340: 0000 0000 0000 0000 0000 0000 0000 0000
00000350: 0000 0000 0000 0000 0000 0000 0000 0000
00000360: 0000 0000 0000 0000 0000 0000 0000 0000
00000370: 0000 673f 0000 0000 0000 0000 0000 0000
00000380: 0000 0000 0000 0000 0000 0000 0000 0000
00000390: 0000 0000 0000 0000 0000 0000 0000 0000
000003a0: 0000 0000 0000 0000 0000 0000 0000 0000
000003b0: 0000 0000 0000 0000 0000 0000 0000 0000
000003c0: ffff 7b3f 0000 0000 0000 0000 0000 0000
000003d0: 0000 0000 0000 0000 0000 0000 0000 0000
000003e0: 0000 0000 0000 0000 0000 0000 0000 0000
000003f0: 0000 0000 0000 0000 0000 0000 0000 0000

m_transform.0.0.weight f4 [64, 1, 5, 5]
-0.06441709 0.025196753 -0.04151119 -0.08176886 -0.10093466 0.056607164 -0.036178038 -0.07347543
-0.038090225 0.014778652 -0.045825448 -0.018162373 -0.04376331 -0.1422258 0.06348663 -0.16196334
0.057783477 -0.18330085 0.007868059 -0.21561421 -0.18263388 0.08393362 -0.16970037 -0.13013768
-0.052543715 -0.0058308933 0.06552946 -0.023499953 -0.042127598 0.09703325 0.10900745 -0.10797569
0.05260334 0.19900861 0.17029187 0.18535599 -0.037154187 0.05018408 -0.071581684 0.018764267
-0.06039166 -0.19125366 -0.03831028 0.1833646 0.18976264 0.0413868 0.17145807 -0.198366
0.06446147 -0.07555874 0.19904564 0.10551481 0.1458877 0.08219523 -0.02976901 -0.13991824
-0.20009024 0.061957955 0.13949068 0.17035052 0.027804406 -0.09268248 -0.035345446 -0.18620618
0.09462205 0.017854694 -0.17439227 -0.028507436 0.02671896 0.026584707 -0.14985906 -0.047145303
0.047618207 -0.0024297207 0.19662789 0.12907915 -0.15874177 0.041013084 -0.06741584 0.08643614
0.090804726 -0.15450676 0.04000448 0.1282627 -0.1884582 -0.05241071 -0.106436424 0.13488306
0.14109017 0.012215464 -0.12497827 -0.20837316 -0.1784618 -0.01797677 0.119125746 -0.1867958
0.028222755 0.099299744 -0.07503834 0.19013423 -0.17627327 0.21575949 -0.048336584 0.13656443
0.012620157 0.051354725 0.016907247 -0.07718905 -0.22003604 -0.06592105 0.15261774 0.05302036
0.18218443 0.11377439 -0.1404534 0.062989295 0.074289255 0.09158487 -0.1718394 -0.03533573
0.05306573 -0.0396286 0.15516432 -0.18675825 -0.16893984 -0.00428079 0.15799333 -0.03862978
-0.11282582 0.041426197 -0.040870693 -0.127552 -0.09343783 -0.06478039 0.03168717 -0.06066717
0.13412434 -0.089775175 -0.021224026 0.11503298 0.16634768 -0.19313434 0.12072055 0.029740462
0.15706281 0.14955372 0.11716676 -0.049028788 -0.11822935 -0.025497139 0.054748494 0.13593046
-0.008813676 -0.070843294 0.19379137 0.11420874 0.0028991352 0.18856403 0.1243466 -0.12494276
-0.12766726 -0.1208198 -0.0011223428 -0.20794803 0.22528754 0.09995199 -0.1384851 0.04684428
0.1589355 0.02444331 0.08438128 0.15409194 -0.15533352 0.015793342 0.07733838 -0.041589264
0.08575303 -0.15431339 0.08325799 -0.10814713 -0.037098523 0.15945719 0.16335475 -0.13468942
-0.1923799 0.10253573 0.035557423 -0.08618968 0.12588249 -0.12432131 0.0410548 0.1755914
-0.056314237 -0.09173454 0.06091283 0.16581142 0.13694862 0.14738312 -0.020940218 -0.1778375
-0.14801146 -0.0056407256 0.17369233 -0.11981441 0.043301024 -0.09637823 0.14063239 0.08446213
0.015079752 -0.0086802235 -0.08038238 -0.113361746 -0.08174241 0.009676634 -0.03190081 0.10352934
-0.11641365 0.018299323 0.062892966 0.016873682 0.035251167 -0.14500926 -0.008458855 0.0070052836
0.17167012 0.04715732 -0.10346541 -0.025961397 0.18983045 -0.07358782 -0.09515409 0.029770104
0.1350202 0.07415927 0.10726548 -0.108403146 -0.06577638 -0.0016372792 -0.16802713 -0.17664543
-0.07084085 -0.009979696 0.05637147 -0.15839645 -0.19772922 -0.18186647 0.15307546 0.15236801
0.02210744 -0.14264016 -0.1864601 -0.059619553 -0.09160639 0.03417698 -0.031348698 0.19934657
00000000: 1bed 83bd 6c69 ce3c a307 2abd 6f76 a7bd
00000010: d5b6 cebd eadc 673d 6c2f 14bd 497a 96bd
00000020: 7f04 1cbd 2922 723c 77b3 3bbd 42c9 94bc
00000030: 2841 33bd a4a3 11be 4705 823d b8d9 25be
00000040: 5eae 6c3d 38b3 3bbe 08e9 003c f9c9 5cbe
00000050: 6004 3bbe 64e5 ab3d efc5 2dbe d042 05be
00000060: 1438 57bd 1411 bfbb 4f34 863d f982 c0bc
00000070: fd8d 2cbd 5eb9 c63d 4c3f df3d 5c22 ddbd
00000080: 9a76 573d eac8 4b3e fe60 2e3e f6cd 3d3e
00000090: fd2e 18bd d28d 4d3d 6b99 92bd 85b7 993c
000000a0: 3f5d 77bd 00d8 43be 3deb 1cbd eec3 3b3e
000000b0: 2351 423e 3585 293d b492 2f3e 7520 4bbe
000000c0: 6004 843d 8abe 9abd 9fd2 4b3e 2618 d83d
000000d0: 9663 153e f955 a83d 24de f3bc ba46 0fbe
000000e0: 75e4 4cbe a0c7 7d3d a5d6 0e3e 5e70 2e3e
000000f0: 11c6 e33c 50d0 bdbd 63c6 10bd d5ac 3ebe
00000100: 35c9 c13d 0244 923c e393 32be 6d88 e9bc
00000110: b8e1 da3c 2cc8 d93c a774 19be 6f1b 41bd
00000120: 4f0b 433d f33b 1fbb d258 493e 532d 043e
00000130: 348d 22be 56fd 273d 5111 8abd 6e05 b13d
00000140: d4f7 b93d 0537 1ebe bddb 233d 4c57 033e
00000150: 30fb 40be 9dac 56bd 57fb d9bd c91e 0a3e
00000160: f179 103e 5f23 483c 9bf4 ffbd c65f 55be
00000170: b1be 36be 0544 93bc 33f8 f33d 6647 3fbe
00000180: 6833 e73c aa5d cb3d b4ad 99bd 8cb2 423e
00000190: fb80 34be 0ef0 5c3e 95fc 45bd 8cd7 0b3e
000001a0: c6c4 4e3c 5559 523d 1181 8a3c 4b15 9ebd
000001b0: 2151 61be 9e01 87bd d347 1c3e e12b 593d
000001c0: 8e8e 3a3e 8c02 e93d 04d3 0fbe 8800 813d
000001d0: f724 983d d990 bb3d abf6 2fbe 33bc 10bd
000001e0: 735b 593d 9951 22bd 65e3 1e3e 8e3d 3fbe
000001f0: 91fe 2cbe df45 8cbb 01c9 213e 433a 1ebd
00000200: 3911 e7bd 84ae 293d 0768 27bd fe9c 02be
00000210: 555c bfbd 95ab 84bd 68ca 013d 237e 78bd
00000220: e457 093e 0cdc b7bd 02de adbc 6996 eb3d
00000230: 0c57 2a3e 02c5 45be 563c f73d 45a2 f33c
00000240: 13d5 203e 9c24 193e 20f5 ef3d 69d2 48bd
00000250: 3b22 f2bd 60df d0bc f53f 603d 5b31 0b3e
00000260: 3d67 10bc 4a16 91bd 3f71 463e 46e6 e93d
00000270: 6bff 3d3b ee16 413e 6ea9 fe3d fde1 ffbd
00000280: 35bb 02be 5f70 f7bd 931b 93ba 54f0 54be
00000290: c7b1 663e a1b3 cc3d 0acf 0dbe cadf 3f3d
000002a0: fdbf 223e 563d c83c 18d0 ac3d 47ca 1d3e
000002b0: c00f 1fbe 0a61 813c 9663 9e3d 8159 2abd
000002c0: 499f af3d 5404 1ebe 2a83 aa3d 3e7c ddbd
000002d0: 9ff4 17bd bf48 233e 7846 273e 06ec 09be
000002e0: 3dff 44be 41fe d13d a9a4 113d 3784 b0bd
000002f0: 57e7 003e 2c9c febd 1429 283d 3bce 333e
00000300: c2a9 66bd 52df bbbd bb7f 793d 78ca 293e
00000310: 423c 0c3e 9aeb 163e d28a abbc 091b 36be
00000320: 5190 17be d6d5 b8bb 67dc 313e 4261 f5bd
00000330: 6a5c 313d f361 c5bd f001 103e 7bfa ac3d
00000340: 1011 773c 7f37 0ebc 849f a4bd 342a e8bd
00000350: 9168 a7bd bf8a 1e3c 6caa 02bd 3107 d43d
00000360: 486a eebd 76e8 953c 07ce 803d ad3a 8a3c
00000370: 8763 103d 4f7d 14be 0297 0abc 948c e53b
00000380: 4bca 2f3e 0928 413d ace5 d3bd ffac d4bc
00000390: ea62 423e 36b5 96bd 26e0 c2bd 6fe0 f33c
000003a0: bc42 0a3e d1e0 973d 01ae db3d 7802 debd
000003b0: c4b5 86bd f999 d6ba 4e0f 2cbe 8ae2 34be
000003c0: 0215 91bd e181 23bc c5e5 663d ae32 22be
000003d0: 8779 4abe 343b 3abe d0bf 1c3e 5c06 1c3e
000003e0: a91a b53c 4310 12be 65ef 3ebe a233 74bd
000003f0: 229c bbbd 29fd 0b3d 7e67 00bd 8221 4c3e

m_transform.0.0.bias f4 [64]
0.08304154 -0.10336433 -0.07934084 0.11465705 -0.0688576 -0.21658845 0.016247295 -0.077743664
-0.21729018 -0.1105568 0.099005036 0.087647274 0.16571474 -0.077388294 -0.1873525 0.21498923
0.051046293 0.062341597 0.11372125 -0.071110964 0.08739477 -0.009538956 0.012095942 -0.061093785
0.13466792 -0.12432722 -0.009437137 -0.04519208 0.03567654 0.18757679 0.11549578 0.08077307
0.033427615 -0.11146875 -0.15617123 0.11979842 -0.11516659 0.08302721 0.11487359 -0.067681804
0.089832574 -0.0091536 -0.05802527 0.16312389 0.18764302 -0.08812636 -0.03953898 -0.19791622
-0.13687782 -0.09451989 -0.06657648 -0.03043382 0.20327227 0.060690016 -0.094229855 -0.09032682
0.10114371 0.045539647 -0.0048108515 0.06930139 0.18365881 -0.04283726 0.11990021 0.14477398
00000000: af11 aa3d aeb0 d3bd 737d a2bd 51d1 ea3d
00000010: 3705 8dbd 5dc9 5dbe 0c19 853c 1238 9fbd
00000020: 5181 5ebe 9b6b e2bd 27c3 ca3d 6a80 b33d
00000030: 20b1 293e c17d 9ebd 55d9 3fbe 2326 5c3e
00000040: eb15 513d e759 7f3d b0e6 e83d a0a2 91bd
00000050: 07fc b23d 4849 1cbc 0f2e 463c 7a3d 7abd
00000060: 63e6 093e 459f febd 399e 1abc 551b 39bd
00000070: 9021 123d 2114 403e 0d89 ec3d 5a6c a53d
00000080: 65eb 083d ba49 e4bd 5aeb 1fbe e058 f53d
00000090: 76dc ebbd 2b0a aa3d d842 eb3d c29c 8abd
000000a0: 24fa b73d fbf8 15bc e8ab 6dbd f309 273e
000000b0: 7e25 403e 987b b4bd a0f3 21bd 8daa 4abe
000000c0: b329 0cbe a593 c1bd 4059 88bd 5950 f9bc
000000d0: 9b26 503e 1896 783d 95fb c0bd 45fd b8bd
000000e0: 6f24 cf3d c887 3a3d 59a4 9dbb e3ed 8d3d
000000f0: 0e11 3c3e 1f76 2fbd 3e8e f53d a13f 143e

m_transform.0.3.weight f4 [64, 32, 1, 1]
-0.16850053 0.062310133 0.047725286 0.09775191 0.06662938 -0.121673465 -0.062131934 0.036557976
-0.12998565 -0.061938245 0.15851563 -0.10014682 -0.12025418 0.0014084618 0.1128378 0.14111021
0.13564636 -0.14533311 -0.14054605 0.1372835 0.116865784 0.10866688 -0.0055415602 -0.17987098
-0.13284007 -0.1609998 -0.15320608 -0.062502384 0.024708332 -0.084218666 0.1361723 0.16780888
-0.17991535 -0.13993046 0.22428444 0.08847486 -0.14628974 0.06434698 0.15191658 0.12848367
-0.10066082 0.08852348 -0.08342058 0.035298266 0.069225825 0.15052734 0.1223777 0.08399466
0.18680166 -0.16129436 -0.078621864 0.012186009 -0.15963225 0.010073344 -0.16293602 -0.047780085
-0.06276351 0.08552962 0.07837757 0.10248977 0.08096923 0.0980629 -0.029890915 0.19472374
0.15984438 0.07501354 -0.010385868 0.06743024 0.18046272 0.031242656 -0.06962651 0.09707522
-0.15350583 -0.08768551 -0.0887988 -0.08103264 0.09494253 -0.18879633 0.017951762 -0.13132481
-0.067796305 -0.08826099 -0.09578899 0.12694573 -0.037588213 0.0511572 -0.150628 0.10624724
0.02391999 0.1327869 0.18727443 0.15674938 0.11970688 0.11344956 0.17151615 -0.17552844
-0.05410977 0.11960142 -0.018444598 -0.10185328 0.06688493 -0.13386795 0.12504263 0.06537838
0.01106366 0.15883243 -0.072524115 -0.06538277 0.054172933 -0.08927088 0.06796953 0.022608353
-0.03645466 0.0118636 -0.06765336 0.09273534 -0.12574866 0.1098816 -0.09464917 -0.14532374
0.155945 0.17056456 -0.15106058 -0.042635683 0.068740316 -0.08168607 -0.13147418 0.11875732
0.111849025 0.022273233 -0.012062315 0.0072528454 0.08399256 0.15939753 0.004116455 0.12207929
-0.07097206 0.018471524 -0.0732586 -0.12098125 -0.052694023 -0.017381385 -0.08456824 0.17525546
-0.123204164 0.10866849 0.17385742 -0.13045882 -0.070143126 -0.020964745 0.17587411 -0.066040196
-0.08311357 -0.15107033 -0.14669482 0.005373007 -0.013495193 -0.08512886 0.13917491 -0.045652743
0.012841027 0.11910267 0.16619442 -0.15116996 -0.0035635303 -0.06242168 -0.07301315 0.14114247
0.0019316899 -0.0136118755 -0.075504065 0.017043399 -0.12304582 0.09438922 -0.14663751 0.003954143
-0.1161433 -0.08719924 0.041452423 -0.16666155 -0.15868782 0.13382457 -0.046293657 0.0031100656
0.16185096 0.1269804 -0.12323449 -0.044457726 -0.07918589 0.09925075 0.039148528 -0.12588021
0.089690946 -0.1030632 -0.07707472 -0.12057347 -0.18526237 -0.1047644 0.08736754 -0.1783397
-0.0104047945 0.15941064 0.02462331 0.0356342 0.09680996 -0.1642608 0.03967178 -0.035095718
0.13937196 0.100047424 -0.103521116 0.06406936 0.124145664 -0.062904514 0.079379745 0.099296264
0.16009589 -0.041313592 -0.055033308 -0.0030005458 0.12252388 -0.17112722 -0.14577332 -0.017541675
-0.06792005 0.14414433 -0.11758183 -0.16188855 -0.09082924 0.014014622 0.10100483 0.123783976
0.13599354 0.018316725 0.10834348 -0.14221953 0.15776657 -0.15707685 0.0024463343 0.12056899
0.16678931 0.03432389 0.07614157 -0.043811172 -0.06065546 -0.037819803 0.074981466 0.039244905
-0.1078055 -0.07526565 0.0028516285 0.0047624717 -0.12913032 0.14277102 -0.1096104 -0.13436523
00000000: 678b 2cbe e938 7f3d 977b 433d 2732 c83d
00000010: fc74 883d f02f f9bd 0e7e 7ebd d1bd 153d
00000020: f51a 05be f5b2 7dbd ec51 223e c719 cdbd
00000030: d347 f6bd 239c b83a 8117 e73d 327f 103e
00000040: e1e6 0a3e 34d2 14be 4eeb 0fbe 0c94 0c3e
00000050: 5457 ef3d be8c de3d fa95 b5bb 1930 38be
00000060: 3a07 08be 22dd 24be 0ee2 1cbe 4001 80bd
00000070: 2169 ca3c d67a acbd c070 0b3e 17d6 2b3e
00000080: bb3b 38be ee49 0fbe d2aa 653e 4f32 b53d
00000090: facc 15be 59c8 833d 0590 1b3e 3991 033e
000000a0: 4327 cebd cc4b b53d 69d8 aabd ea94 103d
000000b0: 45c6 8d3d d723 1a3e 29a1 fa3d 6405 ac3d
000000c0: ef48 3f3e 592a 25be 8004 a1bd d4a7 473c
000000d0: a376 23be ab0a 253c b3d8 26be 0db5 43bd
000000e0: 288a 80bd 272a af3d 6b84 a03d 28e6 d13d
000000f0: 32d3 a53d 34d5 c83d cbdd f4bc a965 473e
00000100: 3fae 233e b3a0 993d 7d29 2abc de18 8a3d
00000110: 38cb 383e 99f0 ff3c 5898 8ebd 5fcf c63d
00000120: a230 1dbe 7694 b3bd 25dc b5bd 71f4 a5bd
00000130: 3b71 c23d d353 41be 930f 933c 037a 06be
00000140: cad8 8abd 2ec2 b4bd 052d c4bd 10fe 013e
00000150: 19f6 19bd 368a 513d 3a3e 1abe 2798 d93d
00000160: dbf3 c33c 4af9 073e dec4 3f3e e982 203e
00000170: e128 f53d 3e58 e83d eea1 2f3e babd 33be
00000180: 35a2 5dbd 97f1 f43d 2019 97bc 7498 d0bd
00000190: f7fa 883d ae14 09be 2d0b 003e 1ae5 853d
000001a0: 5a44 353c f8a4 223e 8687 94bd 67e7 85bd
000001b0: 70e4 5d3d a7d3 b6bd 9c33 8b3d 2735 b93c
000001c0: 7b51 15bd 8c5f 423c d88d 8abd 07ec bd3d
000001d0: 42c4 00be 9b09 e13d 6dd7 c1bd bfcf 14be
000001e0: 0cb0 1f3e 7aa8 2e3e a0af 1abe c1a2 2ebd
000001f0: b9c7 8c3d 074b a7bd 2ba1 06be 0a37 f33d
00000200: 1a11 e53d 5b76 b63c 04a1 45bc 47a9 ed3b
00000210: 4b04 ac3d 1b39 233e 54e3 863b b504 fa3d
00000220: cd59 91bd 9851 973c 9b08 96bd 05c5 f7bd
00000230: b0d5 57bd 6863 8ebc 1d32 adbd 2b76 333e
00000240: 7752 fcbd 968d de3d ae07 323e ff96 05be
00000250: 33a7 8fbd 42be abbc 5818 343e 1540 87bd
00000260: 7337 aabd 2eb2 1abe 2b37 16be 0d10 b03b
00000270: f11a 5dbc 0a58 aebd de83 0e3e 5ffe 3abd
00000280: 2c63 523c 1aec f33d df2e 2a3e 4ccc 1abe
00000290: 1e8a 69bb e0ad 7fbd eb87 95bd a787 103e
000002a0: c230 fd3a 5804 5fbc e0a1 9abd 999e 8b3c
000002b0: 72ff fbbd 234f c13d 2528 16be c191 813b
000002c0: 8adc edbd 8495 b2bd 04ca 293d 53a9 2abe
000002d0: 0f7f 22be 4f09 093e 6b9e 3dbd 3ed2 4b3b
000002e0: 42bc 253e 2607 023e 5d62 fcbd 4e19 36bd
000002f0: 362c a2bd fa43 cb3d 355a 203d bee6 00be
00000300: e3af b73d cd12 d3bd 5ad9 9dbd 39ef f6bd
00000310: 6bb5 3dbe b88e d6bd c1ed b23d af9e 36be
00000320: df78 2abc 8b3c 233e d3b6 c93c 2bf5 113d
00000330: 4d44 c63d fc33 28be e07e 223d 87c0 0fbd
00000340: 86b7 0e3e aae5 cc3d e102 d4bd cc36 833d
00000350: 1540 fe3d 15d4 80bd d991 a23d d75b cb3d
00000360: 2df0 233e 7138 29bd 9b6a 61bd cea4 44bb
00000370: cded fa3d f93b 2fbe 9a45 15be 8fb3 8fbc
00000380: ab19 8bbd 929a 133e bece f0bd 1dc6 25be
00000390: ae04 babd 969d 653c 9fdb ce3d 7482 fd3d
000003a0: e441 0b3e f50c 963c 30e3 dd3d ffa1 11be
000003b0: 8f8d 213e c1d8 20be ae52 203b e0ec f63d
000003c0: d1ca 2a3e 3597 0c3d 1df0 9b3d 5873 33bd
000003d0: dc71 78bd f0e8 1abd e28f 993d 44bf 203d
000003e0: 21c9 dcbd e124 9abd 63e2 3a3b 820e 9c3b
000003f0: bd3a 04be 9132 123e 6b7b e0bd 0a97 09be

m_transform.0.3.bias f4 [64]
-0.10336922 0.07767042 -0.03462568 -0.013095765 -0.11253742 0.17595871 -0.094319545 0.10557864
-0.07054325 0.16492791 -0.13612935 -0.14175664 -0.046799466 0.018117137 0.17350672 -0.058265235
-0.063250534 -0.17486875 0.15582898 -0.1105587 -0.019698115 0.0077006854 0.1797272 -0.10632559
0.15072481 -0.114672355 -0.10695739 0.09723168 0.09474652 0.09310345 -0.11259688 -0.1239914
0.01584331 -0.10455818 -0.035272114 0.11490408 -0.1871307 0.044908363 -0.07198408 -0.11166935
-0.039827116 -0.121918164 0.1644769 0.1294482 0.1441105 0.049556036 0.028434474 0.06640351
-0.101290956 -0.018015109 -0.13173482 -0.13725947 0.18485998 0.12314566 -0.10221242 0.09033615
-0.010220011 -0.15608113 0.03739213 -0.07460111 -0.018834595 -0.021714475 0.019310296 0.11095307
00000000: 3eb3 d3bd ab11 9f3d a8d3 0dbd 9f8f 56bc
00000010: 057a e6bd 852e 343e 9b2a c1bd 9d39 d83d
00000020: fb78 90bd dde2 283e 7e65 0bbe a728 11be
00000030: ccb0 3fbd 646a 943c bfab 313e 87a7 6ebd
00000040: 7f89 81bd cb10 33be a291 1f3e 9a6c e2bd
00000050: f15d a1bc 0856 fc3b 680a 383e 3bc1 d9bd
00000060: 9b57 1a3e 57d9 eabd 7a0c dbbd 6721 c73d
00000070: 770a c23d 06ad be3d 3199 e6bd 34ef fdbd
00000080: d4c9 813c 9922 d6bd 7e79 10bd d552 eb3d
00000090: 319f 3fbe d5f1 373d 646c 93bd e6b2 e4bd
000000a0: c221 23bd 3bb0 f9bd a26c 283e 128e 043e
000000b0: b491 133e 45fb 4a3d 6aef e83c 90fe 873d
000000c0: a271 cfbd 6c94 93bc 7ee5 06be bf8d 0cbe
000000d0: ef4b 3d3e cb33 fc3d bf54 d1bd 2902 b93d
000000e0: d571 27bc bbd3 1fbe 7d28 193d 77c8 98bd
000000f0: 024b 9abc 8ee2 b1bc a030 9e3c 5d3b e33d

m_transform.0.5.running_mean f4 [32]
-0.099678695 0.46880212 0.31353572 0.05668462 -0.15245096 -0.116761826 -0.05969491 0.09883383
-0.092689335 0.22294761 0.13168445 0.06135255 0.40126508 0.22472823 0.0957498 0.2350809
0.11598028 -0.18803789 0.6080747 0.030881172 0.10933746 0.36330873 0.12186007 0.024542063
0.23488988 -0.03305785 0.15669373 0.08373293 0.25377846 0.23483506 0.26940474 -0.05197501
00000000: 5824 ccbd d506 f03e c187 a03e 222e 683d
00000010: 1b1c 1cbe d320 efbd a682 74bd 6469 ca3d
00000020: e8d3 bdbd 614c 643e 4ad8 063e d04c 7b3d
00000030: 9e72 cd3e 281f 663e 7918 c43d 0cb9 703e
00000040: 1287 ed3d 018d 40be c9aa 1b3f 83fa fc3c
00000050: 51ec df3d 9a03 ba3e c691 f93d 700c c93c
00000060: f986 703e ab67 07bd 5274 203e 2c7c ab3d
00000070: 40ef 813e 9a78 703e 6bef 893e c0e3 54bd

m_transform.0.5.running_var f4 [32]
0.028986473 0.18301609 0.12948662 0.019212913 0.015500586 0.0758738 0.019017344 0.024861611
0.017661205 0.050638292 0.018912697 0.022631675 0.05738535 0.08174563 0.04636607 0.051982686
0.06898489 0.059019506 0.26624683 0.078533396 0.02617978 0.06457135 0.049963143 0.036344822
0.055414923 0.027112942 0.05813797 0.027693138 0.043759212 0.04628758 0.09550575 0.023597281
00000000: 0a75 ed3c 9268 3b3e 2498 043e 6664 9d3c
00000010: 2bf6 7d3c b963 9b3d 43ca 9b3c 94aa cb3c
00000020: 3bae 903c 196a 4f3d cdee 9a3c 1066 b93c
00000030: e70c 6b3d 416a a73d 59ea 3d3d cceb 543d
00000040: f347 8d3d 70be 713d 8151 883e 1ed6 a03d
00000050: fa76 d63c fc3d 843d 27a6 4c3d 4fde 143d
00000060: c2fa 623d f61b de3c 1422 6e3d b8dc e23c
00000070: dc3c 333d 0c98 3d3d 8598 c33d 164f c13c

m_transform.0.6.weight f4 [96, 32, 3, 3]
-0.0555514 -0.027110793 0.00035277897 0.04211746 -0.031862784 -0.032371193 0.056695037 -0.015727252
0.028977916 0.035121318 -0.036719203 -0.022097787 -0.045690313 0.0069765286 0.0054581338 0.059765637
-0.013667302 -0.031089649 0.014699021 0.028948385 -0.04479279 0.0055086673 -0.024364471 0.0010307452
0.029534925 0.031813126 -0.045838684 -0.008188413 -0.041612934 0.014625953 -0.023272939 0.064982854
0.039933424 0.0021395881 0.06701196 0.06963522 -0.0684461 -0.022496654 0.032314975 -0.07892383
0.038538225 -0.015407569 -0.029005282 0.026870625 0.049354386 -0.0481516 -0.028395096 -0.020434758
-0.04430946 -0.012126655 0.026527489 -0.05013786 -0.0030494863 0.008423569 -0.013088014 0.018674955
0.020492554 0.0016535369 -0.0044746706 0.052897587 0.003863973 0.0021545447 -0.015718134 -0.05649509
0.017324653 -0.0453629 0.011258828 0.03806292 -0.026247155 -0.05926878 0.058407992 -0.009868839
-0.024113845 -0.041390263 0.06759745 0.010986091 -0.0350915 -0.031102445 0.039357457 0.0037687125
0.05641266 0.019510426 0.066167705 -0.021035815 -0.057080064 0.03633077 -0.027602144 0.035066813
0.03782284 -0.045977093 0.0671079 0.057496093 0.022207726 -0.041708864 0.099659055 -0.051576167
0.05771365 0.07998228 -0.036252383 -0.04365236 -0.022305792 -0.010550442 0.00660317 0.031017369
0.010438902 -0.066447206 -0.013293354 0.026676763 0.040537942 0.0177039 -0.07532137 0.020222852
0.06404425 -0.017158099 -0.022854405 0.0242668 -0.07573871 0.03400065 0.04428125 0.04314109
0.053184144 -0.0305243 -0.029619817 0.0067283865 0.014477406 0.011342854 -0.009035218 -0.014434361
0.060232516 0.019522596 0.01482858 0.010274656 -0.037635878 0.053318065 0.06923372 0.016946869
-0.034522202 0.015234525 0.05533631 -0.014066876 -0.03226925 -0.03578786 0.0027940872 0.026950825
0.054645758 0.0637681 -0.034016967 0.0108980555 0.015983481 -0.00082390074 0.037813455 -0.0034908343
-0.05753775 -0.004507967 0.009072973 0.012502047 -0.06322385 0.012194007 0.04360464 -0.044706702
-0.06589914 -0.028302515 0.03830057 -0.049889963 0.03677205 -0.04497708 0.048765004 -0.016962705
-0.033200465 -0.044713445 0.040202543 0.05292949 -0.031022217 0.038831856 -0.00454758 0.009823326
-0.062176578 0.041694615 -0.010264829 0.056494154 0.0012582426 -0.040304974 0.016704574 -0.0057278243
0.027200906 0.014778918 -0.06428991 -0.00067640335 0.006484721 -0.0071892543 0.060616948 -0.050959386
0.0153194405 0.044833545 -0.010585683 -0.0046642683 -0.02206312 -0.03239773 0.0795444 -0.047627326
0.05211761 0.04251226 -0.03893462 0.012792448 0.0052088574 0.01066014 0.034502104 -0.031193541
-0.008943605 0.035130482 -0.025360035 0.051000252 0.05210478 0.060713507 -0.0068054753 -0.016290758
-0.026053946 0.050133683 -0.031987604 -0.01935759 0.053215202 0.01922152 0.021179054 -0.030905493
-0.051443923 0.029332161 -0.007814688 0.037421405 0.023218373 -0.013872594 -0.0002868869 0.039600536
0.030155128 0.05626866 -0.03364549 0.05337583 -0.014676718 -0.0536415 -0.012807195 0.0059694783
-0.034107424 0.03770074 -0.055155493 -0.046268072 -0.009145382 0.06856248 0.017044745 0.05929684
0.032803684 -0.025241228 0.044014424 0.0075763743 0.09089265 -0.018011939 -0.0532275 -0.0071897907
00000000: dd89 63bd 7417 debc 31f5 b839 5c83 2c3d
00000010: 8d82 02bd a897 04bd 0e39 683d 70d6 80bc
00000020: 1863 ed3c 5fdb 0f3d e066 16bd 6b06 b5bc
00000030: c425 3bbd 5d9b e43b 25da b23b d0cc 743d
00000040: d2ec 5fbc b8af febc 2ad4 703c 2a25 ed3c
00000050: a578 37bd 0d82 b43b 0098 c7bc 121a 873a
00000060: 3af3 f13c 7b4e 023d 58c1 3bbd b228 06bc
00000070: 5372 2abd b1a1 6f3c e4a6 bebc bb15 853d
00000080: 3b91 233d 5538 0c3b 913d 893d e99c 8e3d
00000090: 782d 8cbd e74a b8bc b55c 043d d1a2 a1bd
000000a0: 42da 1d3d 0770 7cbc 7c9c edbc c91f dc3c
000000b0: d327 4a3d 9d3a 45bd d59c e8bc cb66 a7bc
000000c0: d67d 35bd e1ae 46bc 2d50 d93c 5b5d 4dbd
000000d0: e4d9 47bb 0203 0a3c 1c6f 56bc 38fc 983c
000000e0: 00e0 a73c 7ebb d83a 42a0 92bb 24ab 583d
000000f0: b63a 7d3b 4333 0d3b 51c3 80bc 6567 67bd
00000100: 6eec 8d3c 73ce 39bd f376 383c dde7 1b3d
00000110: 4604 d7bc d2c3 72bd 383d 6f3d e9b0 21bc
00000120: 668a c5bc d688 29bd 8870 8a3d 01ff 333c
00000130: 1bbc 0fbd 8eca febc 4935 213d 81fc 763b
00000140: f610 673d 54d4 9f3c ef82 873d 4d53 acbc
00000150: c9cc 69bd 93cf 143d e41d e2bc 38a2 0f3d
00000160: 1fec 1a3d 7a52 3cbd de6f 893d 0681 6b3d
00000170: faec b53c ead6 2abd 0c1a cc3d 8841 53bd
00000180: 2665 6c3d c0cd a33d 617d 14bd d1cc 32bd
00000190: a3ba b6bc c3db 2cbc 685f d83b 2318 fe3c
000001a0: ee07 2b3c 7915 88bd 5ecc 59bc 3a89 da3c
000001b0: 1d0b 263d c507 913c 1742 9abd 65aa a53c
000001c0: a229 833d 248f 8cbc 2939 bbbc 2bcb c63c
000001d0: e61c 9bbd 4444 0b3d 4260 353d b6b4 303d
000001e0: 9ed7 593d 190e fabc 42a5 f2bc cc79 dc3b
000001f0: a432 6d3c 61d7 393c 7308 14bc 197e 6cbc
00000200: 5fb6 763d daed 9f3c 93f3 723c 0857 283c
00000210: 1428 1abd 0b64 5a3d 69ca 8d3d 29d4 8a3c
00000220: 2767 0dbd 3b9a 793c 54a8 623d c178 66bc
00000230: c32c 04bd 4b96 12bd 011d 373b fac7 dc3c
00000240: 3bd4 5f3d da98 823d 6055 0bbd c28d 323c
00000250: caef 823c 0bfb 57ba 48e2 1a3d 7bc6 64bb
00000260: b4ac 6bbd 91b7 93bb cfa6 143c 63d5 4c3c
00000270: 827b 81bd 5fc9 473c c79a 323d 601e 37bd
00000280: 21f6 86bd adda e7bc 0fe1 1c3d 6b59 4cbd
00000290: 4a9e 163d e339 38bd d0bd 473d 5ff5 8abc
000002a0: 36fd 07bd 7225 37bd 6cab 243d 98cc 583d
000002b0: 4e22 febc 270e 1f3d de03 95bb 04f2 203c
000002c0: deac 7ebd f9c7 2a3d d02d 28bc 6a66 673d
000002d0: 9eeb a43a d416 25bd 08d8 883c 79b0 bbbb
000002e0: 6fd4 de3c 4623 723c 6eaa 83bd a950 31ba
000002f0: c87d d43b d693 ebbb 7a49 783d caba 50bd
00000300: 64fe 7a3c 61a3 373d 936f 2dbc b8d6 98bb
00000310: b7bd b4bc 7bb3 04bd 2de8 a23d df14 43bd
00000320: 4679 553d 5621 2e3d e879 1fbd 6a97 513c
00000330: 10af aa3b dea7 2e3c 1452 0d3d 9989 ffbc
00000340: 3388 12bc fbe4 0f3d d9bf cfbc a4e5 503d
00000350: d26b 553d baae 783d 7700 dfbb 3274 85bc
00000360: 166f d5bc fa58 4d3d 6f05 03bd cf93 9ebc
00000370: 2ff8 593d 7376 9d3c b27f ad3c 842d fdbc
00000380: ddb6 52bd 004a f03c 2d09 00bc 3047 193d
00000390: 7534 be3c e049 63bc 4f69 96b9 2c34 223d
000003a0: e307 f73c f779 663d dacf 09bd 9da0 5a3d
000003b0: 9e76 70bc 31b7 5bbd 45d5 51bc 9d9b c33b
000003c0: 3ab4 0bbd 176c 1a3d baea 61bd 9783 3dbd
000003d0: 83d6 15bc 7c6a 8c3d 6ca1 8b3c 3ee1 723d
000003e0: 285d 063d b1c6 cebc 7848 343d 3c43 f83b
000003f0: ed25 ba3d c68d 93bc 1405 5abd 5698 ebbb

m_transform.0.6.bias f4 [96]
-0.08190952 -0.03531291 -0.041776244 0.024157967 0.060166895 -0.041147534 0.056789164 -0.043857455
-0.014873595 0.030385807 -0.07742958 -0.03429035 -0.055149402 -0.05843336 0.00014396313 0.039838232
0.026601586 -0.018863283 -0.024140373 0.084946245 -0.029667083 0.050655425 -0.010541622 -0.03776074
-0.025901645 0.035301033 -0.04479207 -0.032470245 -0.010594355 -0.009670242 -0.038378872 -0.004159274
0.03975147 -0.061852176 0.025486512 0.055696886 -0.019518582 0.029985908 0.0488764 -0.023888016
0.0035695496 -0.04807629 -0.031967204 0.06840606 0.0062497365 -0.014702045 0.036999963 0.029749813
0.081245415 0.06309939 0.048376903 -0.03544489 0.046081576 -0.004754452 -0.03016019 0.008396111
0.06147274 -0.038514555 0.05137212 -0.025182506 0.0030586896 -0.024087276 -0.05266351 -0.047312297
-0.0025762252 -0.05382762 0.08395585 -0.058725204 -0.06296029 0.026299618 0.03795713 -0.025428405
-0.031116698 -0.024302935 -0.026127527 -0.044367313 -0.039193813 -0.0031867602 0.021930033 0.08001791
-0.01413322 0.04393753 -0.018626692 0.006148216 -0.010639707 -0.06412132 -0.03210405 0.06379873
-0.054693405 0.0095412545 -0.017010272 -0.061316278 0.002216127 -0.008058992 0.05814173 0.0147932265
00000000: 2ec0 a7bd 45a4 10bd 911d 2bbd eee6 c53c
00000010: 9071 763d 518a 28bd c19b 683d e0a3 33bd
00000020: 61b0 73bc a8eb f83c 6693 9ebd 0a74 0cbd
00000030: 57e4 61bd d257 6fbd cff4 1639 6a2d 233d
00000040: 92eb d93c 2c87 9abc 08c2 c5bc 4cf8 ad3d
00000050: 6208 f3bc 107c 4f3d c4b6 2cbc 01ab 1abd
00000060: b02f d4bc d197 103d e477 37bd 85ff 04bd
00000070: f293 2dbc ef6f 1ebc 2a33 1dbd 854a 88bb
00000080: 70d2 223d b558 7dbd 17c9 d03c 6b22 643d
00000090: 6fe5 9fbc 02a5 f53c 9f32 483d cdb0 c3bc
000000a0: 1bef 693b a5eb 44bd 0bf0 02bd 7a18 8c3d
000000b0: 97ca cc3b d9e0 70bc 468d 173d e1b5 f33c
000000c0: ff63 a63d 413a 813d dc26 463d a92e 11bd
000000d0: 09c0 3c3d 3ccb 9bbb 8112 f7bc d88f 093c
000000e0: d7ca 7b3d 70c1 1dbd 926b 523d 8b4b cebc
000000f0: 4c74 483b ae52 c5bc b1b5 57bd 8aca 41bd
00000100: e3d5 28bb 5a7a 5cbd 0bf1 ab3d d789 70bd
00000110: 53f1 80bd 4c72 d73c f078 1b3d 3b4f d0bc
00000120: 72e8 febc f316 c7bc 6509 d6bc 80ba 35bd
00000130: b189 20bd f7d8 50bb 9da6 b33c 6ee0 a33d
00000140: 058f 67bc d7f7 333d 0197 98bc f976 c93b
00000150: 2a52 2ebc 0a52 83bd 897f 03bd e9a8 823d
00000160: 3106 60bd ec52 1c3c 2059 8bbc c726 7bbd
00000170: 713c 113b dd09 04bc 0626 6e3d 4a5f 723c

m_transform.0.9.running_mean f4 [48]
1.1851921 0.8717007 0.82460093 0.8392151 0.95966965 0.9832514 1.0231647 0.7606159
0.97896445 0.9274187 0.92659557 1.2248446 0.709808 0.82008344 0.8353177 0.9750805
0.93868506 0.91254526 0.82597715 0.967857 1.3306955 1.0376451 1.2160716 1.0581843
1.0862122 1.0947587 1.0948199 1.037535 1.0646892 0.9635874 0.9223633 1.0884546
0.9206755 0.79370576 0.88770807 1.0769908 0.84006 0.99278027 0.8956708 1.0488745
1.0371209 1.1385162 0.6943354 0.9851831 1.0339489 1.008669 1.2601703 1.282904
00000000: 60b4 973f c727 5f3f 0c19 533f cdd6 563f
00000010: e9ac 753f 5db6 7b3f 10f7 823f b9b7 423f
00000020: 6a9d 7a3f 506b 6d3f 5e35 6d3f b5c7 9c3f
00000030: fab5 353f fdf0 513f 61d7 553f e09e 793f
00000040: aa4d 703f 919c 693f 3d73 533f 7ac5 773f
00000050: 3b54 aa3f 8ed1 843f 3ca8 9b3f 9572 873f
00000060: 0009 8b3f 0e21 8c3f 0f23 8c3f f2cd 843f
00000070: bc47 883f aaad 763f 0020 6c3f 7b52 8b3f
00000080: 64b1 6b3f 4d30 4b3f d640 633f d6da 893f
00000090: 2c0e 573f d926 7e3f ae4a 653f 8541 863f
000000a0: 61c0 843f e6ba 913f f7bf 313f f634 7c3f
000000b0: 7058 843f 111c 813f 434d a13f 3336 a43f

m_transform.0.9.running_var f4 [48]
1.1966653 0.80639654 1.0593706 1.3460023 1.2697681 1.1861439 0.24517985 0.48520914
0.61372566 0.87999743 0.6984855 0.28764963 1.6096581 0.7408453 1.2697763 0.8312127
0.9160396 1.2489244 0.5079055 0.5438748 0.3911377 0.9562931 0.32610023 1.3120226
1.0332127 1.0673485 0.6717081 0.44333178 2.3858361 1.7488073 0.775641 0.85816234
1.3121942 1.2953681 1.4955817 0.5147246 0.35851413 0.8609826 0.29760176 1.1382287
1.606109 0.36018825 0.70555747 0.72472864 0.3460108 0.2966126 0.46092403 0.34512275
00000000: 542c 993f 0170 4e3f 7599 873f ce49 ac3f
00000010: c387 a23f 90d3 973f 6d10 7b3e 556d f83e
00000020: 201d 1d3f 8347 613f f2cf 323f d046 933e
00000030: 4709 ce3f 0aa8 3d3f 0888 a23f 5bca 543f
00000040: 9281 6a3f c1dc 9f3f 1806 023f 613b 0b3f
00000050: 3343 c83e a0cf 743f 9cf6 a63e 5bf0 a73f
00000060: 5040 843f e09e 883f 10f5 2b3f 62fc e23e
00000070: 8ab1 1840 ebd8 df3f 6990 463f 87b0 5b3f
00000080: fbf5 a73f 9fce a53f 396f bf3f fec4 033f
00000090: 2a8f b73e 5b69 5c3f 425f 983e 7ab1 913f
000000a0: fb94 cd3f 986a b83e 6a9f 343f d187 393f
000000b0: 5428 b13e 9bdd 973e 3cfe eb3e eeb3 b03e

m_transform.0.10.weight f4 [96, 48, 1, 1]
-0.14132139 0.050395224 -0.06604399 -0.009385314 0.016853292 -0.058165845 -0.12985907 0.06556811
-0.045226496 0.09350805 -0.0010761296 0.0070957374 0.033378746 -0.10286491 0.12743208 0.07536802
-0.05017974 0.08164324 0.02628399 0.07307416 0.06757859 -0.10556872 0.06671772 -0.047948766
0.11403386 0.12925121 -0.10518975 -0.08422071 -0.10071991 0.04134959 -0.024942266 0.059554353
0.058177974 0.11525589 -0.13112733 0.0991828 -0.024498174 0.13807483 -0.040660992 -0.12925406
0.04458929 0.040077288 0.1248828 0.12650308 -0.12308342 0.0681794 -0.1521752 0.02624163
-0.14586288 -0.003567295 -0.0053666956 -0.16259953 -0.073334366 -0.011234262 -0.10941382 -0.09170357
-0.06786746 -0.11756998 0.014745035 -0.07950063 -0.03932003 0.082602955 0.11565679 -0.1047748
-0.1226225 -0.13355929 -0.16464165 0.08796804 -0.01769944 -0.019901281 0.04109924 -0.00371368
0.00896947 0.019530559 -0.14935604 0.044197127 -0.11831227 -0.063775495 -0.01975868 -0.019685606
0.11293619 -0.063036315 -0.011450307 0.1092052 -0.089008115 -0.16361356 0.11879192 0.06853969
-0.06914216 -0.05328174 -0.12824622 -0.118495114 -0.110741355 0.016251909 -0.018938646 -0.096459195
-0.069961265 -0.03198028 -0.11149802 -0.16425107 -0.15300187 -0.001798814 0.12797047 0.04463231
-0.13633414 -0.11909512 0.019778393 -0.0005656074 -0.1263942 -0.1591213 -0.13419206 0.042555492
-0.045962077 -0.06803255 -0.046589695 -0.079457626 0.09525398 0.04037748 -0.029859291 -0.06378965
0.039552405 -0.11745195 -0.10343681 0.07560347 -0.11306249 0.08753428 -0.05572104 -0.019434253
0.07481999 0.085967466 -0.050733402 0.10390208 0.0077012014 -0.09600676 -0.09429589 -0.016674103
-0.152014 -0.06583849 -0.15255378 0.12622005 0.07781792 -0.04719126 -0.023094457 -0.07212007
-0.044364486 -0.11817959 -0.10152514 -0.0026246852 -0.14852099 0.046781875 -0.134521 0.16137017
-0.068907395 -0.033299956 0.05692566 0.018145634 0.055924654 0.046584964 -0.08792605 -0.11700563
0.095282406 -0.098510034 -0.14343114 0.040535558 -0.12378915 0.06859534 -0.083097175 -0.08630068
0.01748827 -0.07687307 0.061847795 0.027931744 -0.0292241 0.02036807 0.092518955 -0.12006085
-0.051548928 -0.12875156 0.12759534 -0.12671617 0.021039493 0.123378836 0.028175328 0.11328907
-0.16305485 -0.13119456 -0.03548236 0.070430204 0.119351655 -0.04982168 -0.020724118 0.07471318
-0.09301463 -0.1373507 0.0790306 0.12504518 0.015064212 0.029787788 -0.10288995 0.09314432
-0.0062935073 -0.053937033 -0.0035515204 -0.07011753 0.031899862 -0.1020416 0.14053623 -0.0048885187
0.1060612 0.051905498 -0.060763773 -0.0769219 -0.13446201 -0.029759308 0.0014592811 -0.013492893
0.06563832 -0.03945939 0.016137017 -0.061775777 0.09156216 -0.07729472 0.055456806 0.011453201
0.06041033 -0.12367971 -0.04038425 -0.009983601 0.07957252 -0.036455113 -0.09732842 -0.05361435
0.12648153 -0.024012832 0.12902139 0.036589578 0.095913425 -0.098288655 -0.03382682 0.056922927
0.025562445 -0.0145788025 -0.11190793 -0.06516795 0.14061345 -0.123435736 -0.06636388 0.044477228
-0.023621427 -0.11957544 0.12382773 -0.015052894 0.045315545 0.08238537 -0.016532088 0.066581786
00000000: 8eb6 10be 396b 4e3d 1242 87bd dcc4 19bc
00000010: ea0f 8a3c 4f3f 6ebd c7f9 04be 9348 863d
00000020: 6b3f 39bd 2681 bf3d eb0c 8dba 5c83 e83b
00000030: 27b8 083d d7aa d2bd 8e7d 023e 8c5a 9a3d
00000040: 4589 4dbd 9234 a73d 8651 d73c e8a7 953d
00000050: a566 8a3d 6a34 d8bd 4da3 883d ed65 44bd
00000060: 968a e93d 6e5a 043e b96d d7bd e87b acbd
00000070: 3d46 cebd 305e 293d b953 ccbc 44ef 733d
00000080: 074c 6e3d 480b ec3d 3e46 06be 5a20 cb3d
00000090: 65b0 c8bc 7d63 0d3e 248c 26bd 2d5b 04be
000000a0: 42a3 363d 1528 243d 8ec2 ff3d 068a 013e
000000b0: 2913 fcbd a4a1 8b3d d1d3 1bbe b0f8 d63c
000000c0: 145d 15be 47c9 69bb 1bdb afbb 7e80 26be
000000d0: 5430 96bd e90f 38bc 5a14 e0bd 15cf bbbd
000000e0: 18fe 8abd 88c8 f0bd 2995 713c 3ad1 a2bd
000000f0: 0a0e 21bd bd2b a93d 78dd ec3d 2c94 d6bd
00000100: 8121 fbbd c4c3 08be d297 28be 9628 b43d
00000110: 6afe 90bc 0308 a3bc ad57 283d 3661 73bb
00000120: aff4 123c 8dfe 9f3c caf0 18be 0c08 353d
00000130: b44d f2bd ba9c 82bd f5dc a1bc b543 a1bc
00000140: 174b e73d 2f19 81bd 129a 3bbc faa6 df3d
00000150: e349 b6bd 508a 27be 2e49 f33d 895e 8c3d
00000160: 689a 8dbd f43d 5abd fa52 03be 91ad f2bd
00000170: 5dcc e2bd b922 853c 3825 9bbc 668c c5bd
00000180: da47 8fbd c1fd 02bd 1359 e4bd 6f31 28be
00000190: 86ac 1cbe 2fc6 ebba b10a 033e 5ed0 363d
000001a0: 2d9b 0bbe 24e8 f3bd 4c06 a23c 4545 14ba
000001b0: 7b6d 01be b2f0 22be a569 09be ab4e 2e3d
000001c0: bb42 3cbd a654 8bbd d6d4 3ebd aeba a2bd
000001d0: 8514 c33d db62 253d 799b f4bc 26a4 82bd
000001e0: b401 223d a68a f0bd aed6 d3bd fed5 9a3d
000001f0: 4f8d e7bd 2c45 b33d bf3b 64bd 9534 9fbc
00000200: 393b 993d b60f b03d d4cd 4fbd 9dca d43d
00000210: 5c5a fc3b 319f c4bd 341e c1bd 2198 88bc
00000220: 8fa9 1bbe 55d6 86bd 0f37 1cbe d43f 013e
00000230: 005f 9f3d 9f4b 41bd 9630 bdbc b0b3 93bd
00000240: 89b7 35bd 2408 f2bd 6aec cfbd e902 2cbb
00000250: e315 18be 5a9e 3f3d dfbf 09be 393e 253e
00000260: 521f 8dbd 8965 08bd e22a 693d 27a6 943c
00000270: 4011 653d e0cf 3e3d 9312 b4bd a6a0 efbd
00000280: 6c23 c33d a1bf c9bd 9ddf 12be 9d08 263d
00000290: 2a85 fdbd b77b 8c3d da2e aabd 69be b0bd
000002a0: 8f43 8f3c a16f 9dbd 1d54 7d3d 1dd1 e43c
000002b0: 6167 efbc f0da a63c 947a bd3d 77e2 f5bd
000002c0: f824 53bd 73d7 03be 5aa8 023e e2c1 01be
000002d0: 045b ac3c 0bae fc3d f2cf e63c 1a04 e83d
000002e0: daf7 26be de57 06be f355 11bd b63d 903d
000002f0: a46e f43d d111 4cbd a0c5 a9bc 3903 993d
00000300: 747e bebd a9a5 0cbe ccda a13d d80b 003e
00000310: e2cf 763c 8505 f43c f7b7 d2bd 73c2 be3d
00000320: c439 cebb 14ed 5cbd a0c0 68bb c899 8fbd
00000330: 6ea9 023d 30fb d0bd bbe8 0f3e de2f a0bb
00000340: 9d36 d93d dc9a 543d 6fe3 78bd 3b89 9dbd
00000350: 69b0 09be cbc9 f3bc 5945 bf3a 4c11 5dbc
00000360: 626d 863d 2ba0 21bd c731 843c 9908 7dbd
00000370: f184 bb3d b24c 9ebd ad26 633d 35a6 3b3c
00000380: d270 773d ca4b fdbd f569 25bd 4292 23bc
00000390: ebf6 a23d f551 15bd 1f54 c7bd b89a 5bbd
000003a0: 6084 013e 8fb6 c4bc 2f1e 043e f4de 153d
000003b0: 426e c43d 904b c9bd fe8d 0abd 0428 693d
000003c0: 5568 d13c eedb 6ebc fc2f e5bd c676 85bd
000003d0: f9fc 0f3e e0cb fcbd c9e9 87bd c12d 363d
000003e0: b981 c1bc f8e3 f4bd 6599 fd3d 6aa0 76bc
000003f0: cb9c 393d a9b9 a83d 4d6e 87bc 085c 883d

m_transform.0.10.bias f4 [96]
-0.08033241 0.07872237 -0.021998147 0.06809729 0.04316843 -0.04175341 0.10278042 -0.024751473
0.088943034 0.009812163 -0.10357352 -0.05140993 0.027232302 -0.13082132 0.14602506 -0.0052832267
-0.15241468 0.06287013 0.10742565 0.04124893 -0.07440304 0.085398205 -0.11890102 0.04192595
-0.08022541 0.07103868 -0.034275636 -0.058570277 -0.037664358 -0.03657946 0.10757479 0.037955735
-0.08394784 0.1030837 -0.049700394 -0.14782165 0.076141626 -0.11591843 0.011485137 -0.0401734
0.032183155 0.01784906 -0.12742223 0.127966 -0.023394711 0.026434597 -0.08017125 0.0651845
-0.10033524 0.04515888 0.021178754 0.042103194 -0.16126134 0.054452535 0.06698977 -0.044514667
-0.12622075 0.016898934 0.013230687 0.09453096 0.14097469 0.095196515 -0.07275232 0.00987072
-0.03389546 0.0013319853 0.03868956 0.1436733 -0.12227632 0.040830012 0.12479855 0.1209046
-0.078559436 -0.07900592 -0.03235146 -0.06104152 0.1486488 0.079341695 -0.16615808 -0.04321596
0.037199557 0.09671868 -0.020306665 -0.039685138 -0.10909282 0.07653134 -0.067392476 0.10108033
0.01246823 -0.14312097 -0.052033123 0.040487684 0.10731391 -0.12639602 0.14127131 0.06736516
00000000: 5285 a4bd 3239 a13d 7535 b4bc 9876 8b3d
00000010: 61d1 303d a005 2bbd 8a7e d23d 9ac3 cabc
00000020: c427 b63d 32c3 203c 5b1e d4bd 3893 52bd
00000030: 4716 df3c 06f6 05be 9887 153e eb1e adbb
00000040: 9812 1cbe 0ec2 803d fb01 dc3d a3f4 283d
00000050: 9f60 98bd 41e5 ae3d 6182 f3bd 8cba 2b3d
00000060: 384d a4bd ba7c 913d 9c64 0cbd 63e7 6fbd
00000070: f145 1abd 58d4 15bd 2c50 dc3d 7977 1b3d
00000080: d8ec abbd 8c1d d33d a492 4bbd 8f5e 17be
00000090: 24f0 9b3d a466 edbd 282c 3c3c dd8c 24bd
000000a0: 7cd2 033d 3138 923c f97a 02be 8509 033e
000000b0: 44a6 bfbc 5e8d d83c d330 a4bd 737f 853d
000000c0: 907c cdbd 85f8 383d 117f ad3c 6674 2c3d
000000d0: b121 25be 9f09 5f3d ef31 893d 0355 36bd
000000e0: 0340 01be a26f 8a3c 86c5 583c 7399 c13d
000000f0: ab5b 103e 64f6 c23d 2bff 94bd cdb8 213c
00000100: f7d5 0abd 0396 ae3a f278 1e3d 181f 133e
00000110: 026c fabd 5f3d 273d 6296 ff3d d59c f73d
00000120: c5e3 a0bd dbcd a1bd f782 04bd ac06 7abd
00000130: 6437 183e e67d a23d 5825 2abe 3803 31bd
00000140: 905e 183d 7114 c63d 2a5a a6bc e28c 22bd
00000150: 0e6c dfbd 77bc 9c3d 1105 8abd 3403 cf3d
00000160: 8c47 4c3c 4e8e 12be af20 55bd 6ad6 253d
00000170: 65c7 db3d f56d 01be 6da9 103e bff6 893d

m_transform.0.12.running_mean f4 [48]
0.34855983 0.7245812 0.63558924 0.42661813 0.42018467 0.31282228 0.47013554 0.36593875
0.44770864 0.42543694 0.2417805 0.27193302 0.29528952 0.25901785 0.38024086 0.34973624
0.24033989 0.26902932 0.32833648 0.499337 0.12325288 0.36266258 0.2717403 0.578058
0.32841548 0.5026789 0.44568825 0.29779208 0.34503683 0.31783095 0.31361228 0.31663558
0.27508864 0.44531703 0.35150757 0.21935928 0.2551972 0.46106908 0.34686133 0.4945204
0.33756387 0.21015328 0.41842142 0.3690385 0.2782302 0.3583843 0.5585863 0.33437437
00000000: 6f76 b23e 277e 393f fab5 223f b16d da3e
00000010: 7222 d73e 3e2a a03e 9bb5 f03e 535c bb3e
00000020: 113a e53e dfd2 d93e 4f95 773e ce3a 8b3e
00000030: 3030 973e fd9d 843e eeae c23e a110 b33e
00000040: a91b 763e 36be 893e b81b a83e 19a9 ff3e
00000050: 026c fc3d e9ae b93e 8b21 8b3e 9cfb 133f
00000060: 1326 a83e 90af 003f 4031 e43e 3478 983e
00000070: aba8 b03e bdba a23e ca91 a03e 0f1e a23e
00000080: 6bd8 8c3e 9800 e43e cdf8 b33e b89f 603e
00000090: 35a9 823e 3f11 ec3e cf97 b13e c731 fd3e
000000a0: 2cd5 ac3e 6c32 573e 553b d63e 9df2 bc3e
000000b0: 3074 8e3e 267e b73e 83ff 0e3f 1e33 ab3e

m_transform.0.12.running_var f4 [48]
0.24316847 0.26605225 0.20823549 0.31754896 0.13526185 0.30555624 0.2565616 0.23828013
0.2194369 0.33164266 0.29099652 0.308547 0.25592184 0.23103598 0.15666123 0.18204634
0.13066372 0.13690035 0.14571834 0.2514602 0.2088823 0.24357198 0.23681577 0.20770854
0.18314534 0.17018588 0.38565576 0.3746616 0.15691587 0.44955435 0.22936979 0.12388372
0.22993505 0.1652899 0.19597703 0.15083933 0.19959994 0.24324654 0.19109236 0.26509526
0.27945864 0.18754865 0.43611395 0.1600303 0.17051427 0.56360275 0.16952388 0.21280725
00000000: 2801 793e 0038 883e af3b 553e c795 a23e
00000010: 1582 0a3e de71 9c3e 0b5c 833e b5ff 733e
00000020: 11b4 603e 11cd a93e 7ffd 943e dff9 9d3e
00000030: 3008 833e b294 6c3e cd6b 203e 5b6a 3a3e
00000040: b6cc 053e 9b2f 0c3e 3037 153e 64bf 803e
00000050: 3ee5 553e ef6a 793e d57f 723e 8cb1 543e
00000060: 748a 3b3e 3545 2e3e ac74 c53e a5d3 bf3e
00000070: 8eae 203e fd2b e63e eadf 6a3e bfb6 fd3d
00000080: 1874 6b3e c141 293e 34ae 483e a075 1a3e
00000090: ed63 4c3e 9f15 793e b7ad 433e 91ba 873e
000000a0: 3415 8f3e c10c 403e 544a df3e fcde 233e
000000b0: 4b9b 2e3e 4548 103f ab97 2d3e 25ea 593e

m_transform.0.13.weight f4 [128, 48, 3, 3]
-0.007259459 0.006929463 0.024329497 -0.011191245 0.018917449 -0.01061403 0.00032326372 0.016226556
-0.06746825 -0.0080225235 -0.024740621 -0.02616642 -0.014905112 0.049888775 -0.022599513 0.0071580117
0.045190096 0.023008272 -0.013119089 0.023232061 -0.04339663 -0.01148169 -0.014224079 -0.03148632
-0.06889281 0.015654437 0.046689544 0.05001256 0.025240617 -0.009651641 0.03498161 0.01370442
0.058298137 0.0065193363 -0.034233868 0.017545301 -0.013468351 0.041809604 0.015132776 0.017163394
-0.010791432 0.006955228 -0.046173904 0.016902354 0.003162326 -0.033420708 0.04615121 0.0006334372
0.004997665 0.06330223 0.04723481 -0.048039023 -0.016378775 -0.012779069 0.039790373 0.041170068
0.017800834 -0.024249315 0.010918296 0.026288427 -0.02315154 0.042854868 0.019690316 0.03315444
-0.00781931 0.041374322 0.018479958 -0.019939072 0.025078433 -0.020039115 0.038035195 0.038449693
0.005440822 -0.008880868 0.012772598 -0.05544861 -0.05319273 0.028640298 -0.059813663 0.03214773
0.0664958 -0.032820523 0.026355563 -0.01934901 0.054506976 -0.02116815 0.06729806 0.037087563
0.017309515 -0.016986668 -0.024432823 0.019118112 -0.05092403 -0.0005621479 -0.024277935 -0.036996532
-0.01961902 -0.029228965 0.00961232 0.018322269 -0.053525712 0.045486774 -0.05146068 -0.038180962
-0.018422805 -0.00045947873 -0.025639588 0.03596865 0.028137919 0.0077549303 -0.039848216 0.009476294
0.06813405 -0.034362562 0.03308718 0.059993405 -0.028903998 -0.030402666 0.0029509848 0.040538173
-0.064947784 -0.019278115 -0.027360622 -0.06537415 0.0032479041 -0.00028038988 0.001382691 0.018596366
0.037551627 -0.01219764 0.01593957 0.014057083 -0.04345283 0.0035655755 -0.019212035 0.048657395
0.015213786 -0.039839108 -0.018792046 0.0715838 0.0013576703 0.02474015 0.04002835 0.009869407
0.019071374 -0.024221841 -0.0037833469 -0.012042435 -0.008240301 0.0093624 -0.013547752 0.014519947
-0.019604417 0.0020807164 -0.024707928 0.0033182837 -0.004708689 0.032289192 0.026061868 0.029576827
0.018610898 -0.025192752 -0.00023883203 0.012748902 -0.044543084 0.054936428 0.06184855 -0.01151355
-0.026952025 -0.023980249 0.031856075 -0.00508024 -0.011087862 0.0056295674 0.024020784 -0.02770887
-0.0018432371 0.008137751 -0.012428547 0.028788729 0.010076996 0.027696677 0.017677976 0.006240541
-0.01474908 -0.0020203728 0.0065529766 0.060859583 0.04324562 -0.012108277 -0.009023727 0.028514724
-0.038203098 -0.068005025 0.0130811175 -0.03509935 -0.06418041 -0.0359289 0.03398914 -0.023491126
-0.0068357983 0.0021128112 0.00450878 -0.022067707 0.0036411628 0.042483818 0.03416989 -0.010009981
-0.051774703 0.040082052 0.055911224 -0.045686144 0.0030250158 0.047098596 -0.016104208 0.013886206
0.013046402 0.008851513 -0.024259884 0.006628641 0.026515171 -0.014614078 0.0035395636 0.03184992
-0.03684537 -0.03510077 0.03391769 0.01825151 -0.06431293 -0.018366689 -0.00507175 -0.021306619
-0.06083396 -0.021940742 0.0076337685 0.040840954 0.05340757 0.044634085 -0.023233667 0.0027908522
0.0038731785 0.016951144 0.045267045 0.045811817 0.014318709 0.05424183 0.010068704 -0.027939593
0.047833115 -0.005824172 -0.0044944664 0.0021816497 -0.017388938 0.041756477 -0.02772351 0.004666503
00000000: c1e0 edbb 8c10 e33b a74e c73c 7c5b 37bc
00000010: c4f8 9a3c 78e6 2dbc b97b a939 8eed 843c
00000020: cb2c 8abd e770 03bc d8ac cabc f65a d6bc
00000030: 9234 74bc 2c58 4c3d 9d22 b9bc c18d ea3b
00000040: 4019 393d d87b bc3c 73f1 56bc 2a51 be3c
00000050: aac0 31bd b31d 3cbc 1d0c 69bc cdf7 00bd
00000060: ac17 8dbd bc3d 803c 893d 3f3d f8d9 4c3d
00000070: 69c5 ce3c eb21 1ebc e048 0f3d 8188 603c
00000080: 07ca 6e3d 28a0 d53b d038 0cbd 2abb 8f3c
00000090: 5caa 5cbc 8c40 2b3d 77ef 773c 3f9a 8c3c
000000a0: 8cce 30bc aee8 e33b d920 3dbd ce76 8a3c
000000b0: 073f 4f3b 27e4 08bd 0d09 3d3d 400d 263a
000000c0: 74c3 a33b 99a4 813d 4a79 413d 91c4 44bd
000000d0: c82c 86bc 4d5f 51bc 3bfb 223d f2a1 283d
000000e0: 0ed3 913c 80a6 c6bc a7e2 323c d45a d73c
000000f0: 4ca8 bdbc 9688 2f3d 964d a13c f3cc 073d
00000100: 901c 00bc 1f78 293d 4863 973c 4457 a3bc
00000110: 4971 cd3c 1229 a4bc cbca 1b3d 6d7d 1d3d
00000120: ec48 b23b 0f81 11bc 2944 513c 151e 63bd
00000130: 9fe0 59bd 0f9f ea3c 2cff 74bd 57ad 033d
00000140: f32e 883d d06e 06bd 9fe7 d73c d181 9ebc
00000150: b542 5f3d d468 adbc 91d3 893d 21e9 173d
00000160: afcc 8d3c a027 8bbc 5827 c8bc 969d 9c3c
00000170: b795 50bd 1b5d 13ba 85e2 c6bc ad89 17bd
00000180: 11b8 a0bc 9571 efbc fe7c 1d3c 9518 963c
00000190: c73d 5bbd 5750 3a3d 6fc8 52bd a463 1cbd
000001a0: 6ceb 96bc 31e6 f0b9 1d0a d2bc dd53 133d
000001b0: 7e81 e63c 121d fe3b e237 23bd 7542 1b3c
000001c0: dd89 8b3d c2bf 0cbd 6c86 073d a5bb 753d
000001d0: 14c8 ecbc 030f f9bc 4f65 413b 5b0b 263d
000001e0: 5803 85bd 23ed 9dbc 6223 e0bc e2e2 85bd
000001f0: cada 543b 4b01 93b9 693b b53a 6857 983c
00000200: bccf 193d 9cd8 47bc b393 823c ae4f 663c
00000210: 98fb 31bd 6eac 693b 8f62 9dbc fa4c 473d
00000220: 3e43 793c 552e 23bd c7f1 99bc 879a 923d
00000230: dbf3 b13a dbab ca3c c4f4 233d 4bb3 213c
00000240: 923b 9c3c e26c c6bc 07f2 77bb a24d 45bc
00000250: 5402 07bc c064 193c 64f7 5dbc 12e5 6d3c
00000260: 7199 a0bc a15c 083b 4868 cabc 9077 593b
00000270: 594b 9abb ac41 043d b37f d53c 1a4b f23c
00000280: e275 983c 0861 cebc fc6e 7ab9 c5e0 503c
00000290: cf72 36bd 0505 613d e854 7d3d 54a3 3cbc
000002a0: 7eca dcbc 3a72 c4bc 847b 023d 2478 a6bb
000002b0: dda9 35bc 3c78 b83b 3cc7 c43c b6fd e2bc
000002c0: c698 f1ba 3454 053c 1ba1 4bbc 57d6 eb3c
000002d0: fc19 253c 24e4 e23c 67d1 903c 747d cc3b
000002e0: 20a6 71bc 3b68 04bb 5aba d63b e647 793d
000002f0: 5222 313d cb61 46bc 41d8 13bc b697 e93c
00000300: da7a 1cbd 3846 8bbd 2f52 563c 56c4 0fbd
00000310: 0571 83bd 2f2a 13bd 3238 0b3d 7670 c0bc
00000320: d5fe dfbb 1777 0a3b 63be 933b 56c7 b4bc
00000330: 93a0 6e3b 8303 2e3d baf5 0b3d e700 24bc
00000340: b611 54bd 142d 243d 2b03 653d 6521 3bbd
00000350: 583f 463b 75ea 403d f9ec 83bc f882 633c
00000360: 93c0 553c f005 113c aabc c6bc 1235 d93b
00000370: 5836 d93c e36f 6fbc 06f8 673b 1075 023d
00000380: 2ceb 16bd d3c5 0fbd 47ed 0a3d 3184 953c
00000390: 7fb6 83bd bd75 96bc ec30 a6bb 388b aebc
000003a0: 082d 79bd 12bd b3bc b124 fa3b d848 273d
000003b0: e5c1 5a3d 3bd2 363d 8854 bebc bbe6 363b
000003c0: 27d5 7d3b 20dd 8a3c f069 393d 2ca5 3b3d
000003d0: 0599 6a3c ae2c 5e3d 35f7 243c 93e1 e4bc
000003e0: a8ec 433d b2d8 bebb 5146 93bb 02fa 0e3b
000003f0: 3f73 8ebc d708 2b3d 6a1c e3bc 77e9 983b
