Auxillary Code/LCNN/project/03-asvspoof-mega/lfb-lcnn-attention-oc/05/__pretrained/trained_network.pt (torch, 774861 bytes, 35 tensors)

m_frontend.0.lfcc_fb f4 [257, 60]
0.0 0.0 0.0 0.0 0.0 0.0 0.0 0.0
0.0 0.0 0.0 0.0 0.0 0.0 0.0 0.0
0.0 0.0 0.0 0.0 0.0 0.0 0.0 0.0
0.0 0.0 0.0 0.0 0.0 0.0 0.0 0.0
0.0 0.0 0.0 0.0 0.0 0.0 0.0 0.0
0.0 0.0 0.0 0.0 0.0 0.0 0.0 0.0
0.0 0.0 0.0 0.0 0.0 0.0 0.0 0.0
0.0 0.0 0.0 0.0 0.23828125 0.0 0.0 0.0
0.0 0.0 0.0 0.0 0.0 0.0 0.0 0.0
0.0 0.0 0.0 0.0 0.0 0.0 0.0 0.0
0.0 0.0 0.0 0.0 0.0 0.0 0.0 0.0
0.0 0.0 0.0 0.0 0.0 0.0 0.0 0.0
0.0 0.0 0.0 0.0 0.0 0.0 0.0 0.0
0.0 0.0 0.0 0.0 0.0 0.0 0.0 0.0
0.0 0.0 0.0 0.0 0.0 0.0 0.0 0.0
0.4765625 0.0 0.0 0.0 0.0 0.0 0.0 0.0
0.0 0.0 0.0 0.0 0.0 0.0 0.0 0.0
0.0 0.0 0.0 0.0 0.0 0.0 0.0 0.0
0.0 0.0 0.0 0.0 0.0 0.0 0.0 0.0
0.0 0.0 0.0 0.0 0.0 0.0 0.0 0.0
0.0 0.0 0.0 0.0 0.0 0.0 0.0 0.0
0.0 0.0 0.0 0.0 0.0 0.0 0.0 0.0
0.0 0.0 0.0 0.0 0.71484375 0.0 0.0 0.0
0.0 0.0 0.0 0.0 0.0 0.0 0.0 0.0
0.0 0.0 0.0 0.0 0.0 0.0 0.0 0.0
0.0 0.0 0.0 0.0 0.0 0.0 0.0 0.0
0.0 0.0 0.0 0.0 0.0 0.0 0.0 0.0
0.0 0.0 0.0 0.0 0.0 0.0 0.0 0.0
0.0 0.0 0.0 0.0 0.0 0.0 0.0 0.0
0.0 0.0 0.0 0.0 0.0 0.0 0.0 0.0
0.953125 0.0 0.0 0.0 0.0 0.0 0.0 0.0
0.0 0.0 0.0 0.0 0.0 0.0 0.0 0.0
00000000: 0000 0000 0000 0000 0000 0000 0000 0000
00000010: 0000 0000 0000 0000 0000 0000 0000 0000
00000020: 0000 0000 0000 0000 0000 0000 0000 0000
00000030: 0000 0000 0000 0000 0000 0000 0000 0000
00000040: 0000 0000 0000 0000 0000 0000 0000 0000
00000050: 0000 0000 0000 0000 0000 0000 0000 0000
00000060: 0000 0000 0000 0000 0000 0000 0000 0000
00000070: 0000 0000 0000 0000 0000 0000 0000 0000
00000080: 0000 0000 0000 0000 0000 0000 0000 0000
00000090: 0000 0000 0000 0000 0000 0000 0000 0000
000000a0: 0000 0000 0000 0000 0000 0000 0000 0000
000000b0: 0000 0000 0000 0000 0000 0000 0000 0000
000000c0: 0000 0000 0000 0000 0000 0000 0000 0000
000000d0: 0000 0000 0000 0000 0000 0000 0000 0000
000000e0: 0000 0000 0000 0000 0000 0000 0000 0000
000000f0: 0000 743e 0000 0000 0000 0000 0000 0000
00000100: 0000 0000 0000 0000 0000 0000 0000 0000
00000110: 0000 0000 0000 0000 0000 0000 0000 0000
00000120: 0000 0000 0000 0000 0000 0000 0000 0000
00000130: 0000 0000 0000 0000 0000 0000 0000 0000
00000140: 0000 0000 0000 0000 0000 0000 0000 0000
00000150: 0000 0000 0000 0000 0000 0000 0000 0000
00000160: 0000 0000 0000 0000 0000 0000 0000 0000
00000170: 0000 0000 0000 0000 0000 0000 0000 0000
00000180: 0000 0000 0000 0000 0000 0000 0000 0000
00000190: 0000 0000 0000 0000 0000 0000 0000 0000
000001a0: 0000 0000 0000 0000 0000 0000 0000 0000
000001b0: 0000 0000 0000 0000 0000 0000 0000 0000
000001c0: 0000 0000 0000 0000 0000 0000 0000 0000
000001d0: 0000 0000 0000 0000 0000 0000 0000 0000
000001e0: 0000 f43e 0000 0000 0000 0000 0000 0000
000001f0: 0000 0000 0000 0000 0000 0000 0000 0000
00000200: 0000 0000 0000 0000 0000 0000 0000 0000
00000210: 0000 0000 0000 0000 0000 0000 0000 0000
00000220: 0000 0000 0000 0000 0000 0000 0000 0000
00000230: 0000 0000 0000 0000 0000 0000 0000 0000
00000240: 0000 0000 0000 0000 0000 0000 0000 0000
00000250: 0000 0000 0000 0000 0000 0000 0000 0000
00000260: 0000 0000 0000 0000 0000 0000 0000 0000
00000270: 0000 0000 0000 0000 0000 0000 0000 0000
00000280: 0000 0000 0000 0000 0000 0000 0000 0000
00000290: 0000 0000 0000 0000 0000 0000 0000 0000
000002a0: 0000 0000 0000 0000 0000 0000 0000 0000
000002b0: 0000 0000 0000 0000 0000 0000 0000 0000
000002c0: 0000 0000 0000 0000 0000 0000 0000 0000
000002d0: 0000 373f 0000 0000 0000 0000 0000 0000
000002e0: 0000 0000 0000 0000 0000 0000 0000 0000
000002f0: 0000 0000 0000 0000 0000 0000 0000 0000
00000300: 0000 0000 0000 0000 0000 0000 0000 0000
00000310: 0000 0000 0000 0000 0000 0000 0000 0000
00000320: 0000 0000 0000 0000 0000 0000 0000 0000
00000330: 0000 0000 0000 0000 0000 0000 0000 0000
00000340: 0000 0000 0000 0000 0000 0000 0000 0000
00000350: 0000 0000 0000 0000 0000 0000 0000 0000
00000360: 0000 0000 0000 0000 0000 0000 0000 0000
00000370: 0000 0000 0000 0000 0000 0000 0000 0000
00000380: 0000 0000 0000 0000 0000 0000 0000 0000
00000390: 0000 0000 0000 0000 0000 0000 0000 0000
000003a0: 0000 0000 0000 0000 0000 0000 0000 0000
000003b0: 0000 0000 0000 0000 0000 0000 0000 0000
000003c0: 0000 743f 0000 0000 0000 0000 0000 0000
000003d0: 0000 0000 0000 0000 0000 0000 0000 0000
000003e0: 0000 0000 0000 0000 0000 0000 0000 0000
000003f0: 0000 0000 0000 0000 0000 0000 0000 0000

m_transform.0.0.weight f4 [64, 1, 5, 5]
0.049893275 -0.16424683 0.20895877 -0.15733793 -0.040534087 0.05275873 -0.14234984 0.060690563
0.106774576 0.009017548 0.15193923 0.013101821 -0.20352183 0.17458615 0.21300027 0.064315245
-0.16213088 0.13036089 0.07942451 -0.028128276 -0.04256853 -0.09997542 -0.059437767 0.04262086
0.19117713 -0.051496003 0.1824502 0.040410887 -0.07810898 -0.028043477 -0.0766253 0.04919597
-0.09718555 0.16311158 -0.19504304 0.19422798 0.066088706 -0.16575259 0.09974628 0.024588753
0.12300679 -0.035871074 -0.16419059 0.06426519 0.040329006 0.008084024 -0.14963992 -0.0041998364
-0.09023768 -0.124066345 -0.0234105 0.10081649 0.21115994 0.20597601 0.15383846 -0.07782143
0.19027475 0.034618307 0.09464472 0.15275416 -0.104244344 -0.13603023 0.1992322 -0.14212964
-0.07721332 0.0046110163 0.2188855 0.14966507 -0.09652076 0.22549069 -0.14675286 -0.14529048
0.12945645 -0.040431004 -0.09270111 -0.10981135 -0.1874101 0.1541733 -0.1669319 0.02674151
0.10986123 0.13077688 0.16854967 0.058005646 0.120233364 -0.11115789 -0.1743182 -0.048333794
0.059466243 -0.11009275 0.0029608642 0.15998891 -0.09365265 -0.0016552467 -0.02171221 -0.04847809
0.13365081 -0.15932007 0.1523374 -0.14149593 -0.11953548 0.11366151 -0.099549994 0.18164752
-0.16352701 0.075861424 0.035714176 -0.21671772 0.07593524 -0.012971106 -0.03609858 -0.11539874
0.16113791 0.038747355 -0.10143266 0.14365625 -0.18071361 0.134001 0.12023265 -0.041819572
-0.1203199 -0.13764887 -0.18344626 0.07170798 0.08081893 -0.10065941 -0.14587167 0.20072082
-0.13717622 0.098350026 0.1495183 0.12608631 -0.1991609 -0.104933254 0.020974161 0.15337393
0.09058297 0.16592965 0.15377964 0.041222926 -0.07112889 0.02549743 0.0023319095 -0.007925546
0.14466923 0.063531704 -0.013912568 0.10412883 0.0669163 -0.1382025 -0.16096805 -0.03482641
-0.124455154 0.16419937 0.037681658 0.15997279 0.13156883 0.11888782 -0.047908705 0.17145136
-0.06589931 -0.01693195 0.14164014 0.08435898 -0.01967686 0.12752339 0.03876403 0.013503516
-0.04043145 0.02794895 0.052251827 -0.017669817 0.15293355 0.13620362 -0.07346492 -0.03988116
-0.0013186364 -0.19505988 0.12239208 -0.00896875 0.1913945 0.096867874 -0.18505886 -0.13890252
0.05503435 -0.004752151 -0.20553687 0.026128588 -0.014891619 -0.008181325 0.109250955 0.15034965
0.11648874 0.014223556 0.1368815 -0.16022305 0.16298756 -0.12648152 -0.040873777 -0.08990354
-0.08898315 -0.16271743 -0.06528479 -0.008766844 -0.072890766 0.19721757 0.15901408 -0.11733605
0.049935058 0.054892443 -0.04046173 0.19294423 -0.028159952 -0.18797314 -0.14697877 -0.16670766
-0.023381697 0.07115274 -0.1293243 -0.12395571 -0.12433398 0.05655953 -0.010023079 -0.053133707
-0.032315392 0.017696029 0.008340102 0.011474982 0.112552516 -0.0779525 0.04253245 0.12860098
0.04442795 -0.07886307 0.10645008 0.13683681 0.054466095 -0.058597352 0.11820939 0.007232781
0.016404316 -0.14569099 0.065507926 -0.02851677 0.09955628 0.13292332 0.14318691 0.03907616
-0.042046238 0.08768232 0.13175152 0.07462995 -0.026922345 0.09329685 -0.09055437 0.035719905
00000000: e45c 4c3d 5230 28be 4af9 553e 321d 21be
00000010: 1207 26bd 8a19 583d 28c4 11be ab96 783d
00000020: a1ac da3d 56be 133c f595 1b3e 05a9 563c
00000030: 0768 50be b6c6 323e be1c 5a3e b6b7 833d
00000040: a305 26be 537d 053e 51a9 a23d 456d e6bc
00000050: 575c 2ebd eabf ccbd 0475 73bd 3693 2e3d
00000060: f0c3 433e 79ed 52bd 3ad4 3a3e e385 253d
00000070: 9af7 9fbd 6fbb e5bc baed 9cbd b781 493d
00000080: 3809 c7bd b906 273e 5db9 47be b3e3 463e
00000090: 8459 873d 0cbb 29be c747 cc3d 5a6e c93c
000000a0: fcea fb3d 8ced 12bd 9421 28be 789d 833d
000000b0: 0730 253d db72 043c 353b 19be c89e 89bb
000000c0: 88ce b8bd 7f16 febd 60c7 bfbc e078 ce3d
000000d0: 503a 583e 60eb 523e d487 1d3e d860 9fbd
000000e0: 62d7 423e edcb 0d3d 17d5 c13d 966b 1c3e
000000f0: 0f7e d5bd 824b 0bbe 8703 4c3e 6f8a 11be
00000100: 0422 9ebd 0218 973b 8523 603e cd41 193e
00000110: adac c5bd 08e7 663e 6246 16be 07c7 14be
00000120: 3b90 043e fb9a 25bd 14da bdbd c6e4 e0bd
00000130: 6fe8 3fbe 9bdf 1d3e 32f0 2abe 0311 db3c
00000140: edfe e03d 60ea 053e 4998 2c3e 5497 6d3d
00000150: e93c f63d bfa6 e3bd 7880 32be a8f9 45bd
00000160: e092 733d 4f78 e1bd 0f0b 423b 22d4 233e
00000170: f6cc bfbd ddf4 d8ba cedd b1bc f690 46bd
00000180: c2db 083e cd24 23be 56fe 1b3e 4fe4 10be
00000190: 05cf f4bd 5ec7 e83d dee0 cbbd cf01 3a3e
000001a0: a073 27be 3c5d 9b3d 0749 123d 40eb 5dbe
000001b0: ef83 9b3d c384 54bc 1bdc 13bd 2d56 ecbd
000001c0: 5601 253e 8cb5 1e3d edbb cfbd a01a 133e
000001d0: fd0c 39be 8f37 093e 893c f63d 004b 2bbd
000001e0: 486a f6bd d3f3 0cbe 56d9 3bbe a2db 923d
000001f0: 6584 a53d 8526 cebd 625f 15be c289 4d3e
00000200: ec77 0cbe bd6b c93d 531b 193e c51c 013e
00000210: d6f0 4bbe 3fe7 d6bd 01d2 ab3c 0e0e 1d3e
00000220: 9083 b93d 76e9 293e 6978 1d3e 5fd9 283d
00000230: 06ac 91bd fcdf d03c f3d2 183b 26da 01bc
00000240: 2c24 143e e91c 823d 8af1 63bc 7f41 d53d
00000250: 6a0b 893d f584 0dbe cfd4 24be 23a6 0ebd
00000260: 58e2 febd e123 283e 1558 1a3d e8cf 233e
00000270: fbb9 063e 757b f33d eb3b 44bd f290 2f3e
00000280: 38f6 86bd dfb4 8abc 1d0a 113e 67c4 ac3d
00000290: 5e31 a1bc 7e95 023e 08c7 1e3d da3d 5d3c
000002a0: 739b 25bd 32f5 e43c 0306 563d 4bc0 90bc
000002b0: 9d9a 1c3e f678 0b3e c774 96bd 6d5a 23bd
000002c0: 18d6 acba c7bd 47be b3a8 fa3d aaf1 12bc
000002d0: ebfc 433e aa62 c63d 1280 3dbe 763c 0ebe
000002e0: b36b 613d efb7 9bbb 4278 52be 9f0b d63c
000002f0: fafb 73bc f70a 06bc f7be df3d 42f5 193e
00000300: a691 ee3d eb09 693c aa2a 0c3e 8311 24be
00000310: 36e6 263e 5f84 01be 436b 27bd 591f b8bd
00000320: cc3c b6bd 669f 26be 08b4 85bd cfa2 0fbc
00000330: c147 95bd 67f3 493e 96d4 223e e24d f0bd
00000340: b488 4c3d e6d6 603d 33bb 25bd 2c93 453e
00000350: b3af e6bc 087c 40be 9a81 16be 6ab5 2abe
00000360: f98a bfbc 87b8 913d 976d 04be 7edc fdbd
00000370: d0a2 febd f7aa 673d d737 24bc bba2 59bd
00000380: 255d 04bd 43f7 903c eca4 083c 9001 3c3c
00000390: ef81 e63d 8fa5 9fbd 8236 2e3d faaf 033e
000003a0: 15fa 353d f682 a1bd 8002 da3d f31e 0c3e
000003b0: d717 5f3d c703 70bd c417 f23d f700 ed3b
000003c0: 5862 863c 0530 15be 0529 863d 009c e9bc
000003d0: 2ae4 cb3d 0d1d 083e 979f 123e 530e 203d
000003e0: ad38 2cbd ca92 b33d dfe9 063e 96d7 983d
000003f0: 408c dcbc 6b12 bf3d 9274 b9bd 094f 123d

m_transform.0.0.bias f4 [64]
-0.022585025 0.001659419 -0.15192045 -0.13047834 -0.033634443 -0.040994234 0.17313035 0.11817696
0.14504305 0.010940167 0.1308258 -0.15943533 0.18051632 -0.05853028 0.21587794 -0.16262004
-0.17712344 0.06286096 -0.07517663 0.15414219 0.07243831 0.10820529 0.024985619 0.092620485
-0.077405885 0.11044514 -0.19986996 -0.1027635 0.16391362 -0.1652476 0.11705332 -0.09355876
0.056822725 0.12751822 0.19532405 0.15617965 -0.087722026 -0.094611794 0.048449334 0.092427865
0.17370947 -0.0256599 0.05043696 -0.115049236 0.012368451 -0.09666252 -0.17992195 0.13318627
-0.041723248 0.14835283 0.019592836 0.014821852 -0.012797165 0.17678535 0.16501306 -0.115596116
-0.097489126 -0.16700609 0.17306408 0.15940757 0.15302381 0.112337925 0.050467808 0.13168871
00000000: 3b04 b9bc dd80 d93a 0991 1bbe 1d9c 05be
00000010: 45c4 09bd 92e9 27bd 1549 313e c306 f23d
00000020: 2a86 143e 633e 333c 33f7 053e 0443 23be
00000030: 45d9 383e 72bd 6fbd 1b0f 5d3e de85 26be
00000040: d95f 35be 3fbd 803d 34f6 99bd 73d7 1d3e
00000050: 895a 943d bc9a dd3d a4ae cc3c cfaf bd3d
00000060: fa86 9ebd 1031 e23d b6aa 4cbe ab75 d2bd
00000070: f9d8 273e ab36 29be a7b9 ef3d bc9b bfbd
00000080: f2be 683d 2394 023e 0703 483e 8fed 1f3e
00000090: 9ba7 b3bd d4c3 c1bd cf72 463d d24a bd3d
000000a0: e5e0 313e b634 d2bc fc96 4e3d ef9e ebbd
000000b0: 0ba5 4a3c 00f7 c5bd 763d 38be fb61 083e
000000c0: ffe5 2abd cee9 173e 2881 a03c 5ad7 723c
000000d0: 33ab 51bc 3807 353e 2ff9 283e a8bd ecbd
000000e0: 61a8 c7bd a503 2bbe b637 313e bd3b 233e
000000f0: 46b2 1c3e 6d11 e63d 55b7 4e3d 68d9 063e

m_transform.0.3.weight f4 [64, 32, 1, 1]
0.20700331 -0.12519762 -0.0058591184 0.13332146 -0.12925145 0.11301787 -0.03169023 0.049689785
0.068935566 0.06287003 -0.064757764 -0.0068662637 -0.08206718 0.016436066 -0.097649895 0.13499646
-0.027914798 -0.08781316 -0.06780024 0.14032836 0.11507521 0.06338634 -0.121877864 0.17322385
0.017674934 0.12413214 0.033383626 0.12460326 -0.14082234 -0.0017001543 0.11363691 0.09634823
-0.16361286 -0.17368813 -0.0659486 0.13402067 -0.11843255 0.07198429 -0.18158852 0.035652336
-0.010907302 -0.12727384 -0.02011455 -0.06412637 -0.06761534 -0.14573176 0.10940386 0.1137377
-0.065508485 0.001756197 -0.12704332 -0.117261246 0.15793979 0.09015787 -0.0906213 0.01939339
0.05558527 -0.049813442 -0.13424455 -0.07434624 0.019705633 -0.12501644 0.09594277 -0.08944557
-0.017611187 -0.08477406 0.120471865 -0.1729683 0.008385197 -0.10385766 -0.09768317 0.09262656
-0.170416 0.15584704 -0.0016081596 -0.03798515 0.103681356 -0.088812165 -0.019680852 0.02277555
-0.1280023 0.1588657 -0.12858626 0.13233057 0.019178791 -0.19098487 0.051830325 -0.1410527
-0.20654121 -0.16589722 0.06536619 -0.028337117 0.10062668 -0.17505515 0.021627188 -0.040757235
0.17367183 0.12296959 -0.13515571 0.17067228 -0.09692638 0.010628952 0.15560512 0.1111069
0.16986866 -0.066256344 0.13522272 0.16133672 0.038925085 -0.13318506 0.0023307437 -0.08314564
0.0809233 0.076093316 -0.13783103 -0.038858578 0.045788027 -0.13469109 -0.1395718 0.14888138
0.11115477 0.14065103 0.097075745 0.013304154 -0.13686009 -0.013734228 0.16347013 -0.14083679
0.10546262 -0.08983059 -0.10851568 -0.17070325 0.073428124 -0.1676146 0.13645439 0.115044
0.041429803 0.13373435 0.012998294 -0.05078728 0.017762916 0.16896938 -0.123995766 0.023239667
0.0064650327 -0.052655462 0.15268995 0.07100216 -0.18021162 0.12096928 0.027962197 -0.03964243
-0.13333915 0.14169559 0.0029500388 0.044640377 -0.07672253 0.111418046 0.021279113 -0.053152908
0.020768743 0.025454318 -0.14765139 0.110902354 0.124623716 0.019304913 -0.099446215 0.09070868
-0.14194518 0.089696884 -0.078590825 0.046967015 -0.20058915 -0.1873765 -0.11013502 0.060303673
-0.05637597 -0.10039077 0.023351977 0.12290037 0.11456458 0.09102061 -0.057654742 0.05307019
-0.1941408 -0.0040222215 0.06780186 0.14109898 0.015919201 -0.067500316 -0.06610091 -0.084493294
-0.15254721 0.039171666 -0.0073422156 -0.100803524 -0.13908654 0.06647575 -0.13634495 -0.12032492
-0.11341129 -0.14256646 -0.06790557 0.17101668 0.0032729434 0.11333191 0.13329898 -0.11349904
-0.038788516 -0.070735246 0.083055615 -0.1423403 0.14066942 0.06881867 0.0004213283 -0.033997197
0.029592425 0.0693987 0.008494523 0.03294692 -0.048420485 -0.0020942609 -0.15350111 -0.08977914
0.1675811 -0.099466376 0.055991758 -0.13568692 -0.039254535 0.013105386 0.13846277 -0.15155856
0.023872478 -0.07699731 -0.04130052 0.018542219 -0.015645647 0.032448582 0.15686099 0.010900269
0.067984685 0.14654009 -0.13273172 0.0702284 -0.19288653 -0.07210284 0.18340279 -0.12760828
0.00818504 0.00015428755 -0.20933793 -0.00849864 0.09167826 0.053258765 -0.08766744 0.05894818
00000000: adf8 533e ce33 00be d9fd bfbb 6c85 083e
00000010: 7e5a 04be ea75 e73d 9dcd 01bd 8487 4b3d
00000020: 172e 8d3d 01c2 803d b89f 84bd 65fe e0bb
00000030: d612 a8bd eea4 863c abfc c7bd 833c 0a3e
00000040: 93ad e4bc 63d7 b3bd dada 8abd 3db2 0f3e
00000050: 8dac eb3d b3d0 813d 1a9b f9bd 9861 313e
00000060: 06cb 903c fe38 fe3d 45bd 083d fe2f ff3d
00000070: bb33 10be b6d7 deba 78ba e83d 3952 c53d
00000080: 218a 27be 4ddb 31be 0f10 87bd b73c 093e
00000090: c48c f2bd 806c 933d 57f2 39be 2f08 123d
000000a0: 8ab4 32bc 1354 02be 45c7 a4bc b054 83bd
000000b0: e979 8abd b53a 15be 220f e03d 50ef e83d
000000c0: 5029 86bd 3130 e63a a517 02be aa26 f0bd
000000d0: f8ba 213e b0a4 b83d a997 b9bd e3de 9e3c
000000e0: 61ad 633d 2e09 4cbd 6777 09be d742 98bd
000000f0: b56d a13c 4f04 00be a57d c43d 3d2f b7bd
00000100: 5645 90bc 069e adbd f4b9 f63d 9a1e 31be
00000110: 1162 093c 53b3 d4bd 1d0e c8bd feb2 bd3d
00000120: 8881 2ebe 5e96 1f3e e2c8 d2ba 5196 1bbd
00000130: e456 d43d 27e3 b5bd bd39 a1bc ca93 ba3c
00000140: 0913 03be b1ad 223e 1eac 03be aa81 073e
00000150: d71c 9d3c 8a91 43be 094c 543d 1e70 10be
00000160: 8a7f 53be f6e0 29be b6de 853d 3e23 e8bc
00000170: 5c15 ce3d a841 33be 802b b13c 0ff1 26bd
00000180: 07d7 313e 7bd7 fb3d 4266 0abe b7c4 2e3e
00000190: 5781 c6bd 0e25 2e3c f356 1f3e 048c e33d
000001a0: 0df2 2d3e 68b1 87bd d377 0a3e 7435 253e
000001b0: e96f 1f3d aa61 08be 64bf 183b 4348 aabd
000001c0: 1dbb a53d d0d6 9b3d 9423 0dbe 2c2a 1fbd
000001d0: 3a8c 3b3d 76ec 09be e9eb 0ebe 5c74 183e
000001e0: 1da5 e33d d306 103e a6cf c63d abf9 593c
000001f0: 0d25 0cbe 8705 61bc b764 273e 8537 10be
00000200: c9fc d73d 1af9 b7bd 783d debd d5cc 2ebe
00000210: 7c61 963d 29a3 2bbe b3ba 0b3e 309c eb3d
00000220: 4cb2 293d a8f1 083e ccf6 543c 5306 50bd
00000230: 8983 913c 4f06 2d3e 7ef1 fdbd 1d61 be3c
00000240: a0d8 d33b 41ad 57bd c15a 1c3e 9569 913d
00000250: 6589 38be bebe f73d fa10 e53c 1a60 22bd
00000260: 0f8a 08be a618 113e 7055 413b d4d8 363d
00000270: b420 9dbd 252f e43d 8951 ae3c ddb6 59bd
00000280: 3623 aa3c 9385 d03c ed31 17be c620 e33d
00000290: b83a ff3d 5625 9e3c 75aa cbbd 79c5 b93d
000002a0: 145a 11be 00b3 b73d 3af4 a0bd 7c60 403d
000002b0: 3e67 4dbe a0df 3fbe 788e e1bd fc00 773d
000002c0: 7dea 66bd ad99 cdbd a54c bf3c 30b3 fb3d
000002d0: d6a0 ea3d 0369 ba3d 6127 6cbd 2160 593d
000002e0: d9cc 46be d7cc 83bb b4db 8a3d 407c 103e
000002f0: fc68 823c 9b3d 8abd ea5f 87bd d20a adbd
00000300: 5635 1cbe 7872 203d f896 f0bb 1472 cebd
00000310: b46c 0ebe 7024 883d 039e 0bbe e96c f6bd
00000320: 2e44 e8bd f1fc 11be 1312 8bbd ff1e 2f3e
00000330: e17e 563b 8f1a e83d 877f 083e 2f72 e8bd
00000340: b5e0 1ebd a4dd 90bd 1019 aa3d a8c1 11be
00000350: a50b 103e cef0 8c3d bae5 dc39 a540 0bbd
00000360: d06b f23c e820 8e3d 9d2c 0b3c 59f3 063d
00000370: 8f54 46bd de3f 09bb 652f 1dbe 20de b7bd
00000380: 619a 2b3e 07b5 cbbd 9d57 653d 83f1 0abe
00000390: 5dc9 20bd f9b7 563c 2fc9 0d3e 2b32 1bbe
000003a0: 3790 c33c c4b0 9dbd bc2a 29bd dae5 973c
000003b0: 4d2b 80bc cee8 043d 2ba0 203e 0b97 323c
000003c0: 8e3b 8b3d 9b0e 163e d3ea 07be e8d3 8f3d
000003d0: 0c84 45be a7aa 93bd f1cd 3b3e bfab 02be
000003e0: 8c1a 063c 40c8 2139 af5c 56be e13d 0bbc
000003f0: d0c1 bb3d dd25 5a3d fd8a b3bd a673 713d

m_transform.0.3.bias f4 [64]
-0.054569293 0.052069087 -0.03850726 0.12647623 0.104281105 -0.09955412 -0.0033196558 -0.16311267
-0.107256226 -0.16408543 0.03235509 0.1147499 -0.032949034 0.011621098 -0.09258908 0.13795176
0.14374019 -0.05788923 -0.13550045 0.02639555 -0.07431569 0.013036386 0.12953931 0.15057327
-0.0687207 0.109556064 0.15497983 0.000639313 -0.14124553 -0.055780675 0.12721156 0.095216915
0.039156813 -0.083835825 0.076093525 0.13285428 -0.019484678 -0.09493296 0.04858821 -0.11329037
0.01149034 -0.05094317 -0.17715138 0.07940741 0.14045645 -0.045661733 -0.15175161 -0.14998998
0.16055842 -0.030882914 0.18030174 -0.012572844 -0.1473123 -0.012768299 0.17238833 -0.02185994
-0.054853912 -0.16096562 0.06476874 -0.057600398 -0.100057386 0.10920915 0.17602742 0.1443005
00000000: 0d84 5fbd 6546 553d cab9 1dbd fc82 013e
00000010: 5591 d53d 08e3 cbbd 958e 59bb 0207 27be
00000020: 27a9 dbbd 0306 28be c586 043d ff01 eb3d
00000030: 91f5 06bd 6b66 3e3c 589f bdbd 3a43 0d3e
00000040: a130 133e 421d 6dbd a1c0 0abe 7b3b d83c
00000050: d332 98bd 9196 553c f4a5 043e e12f 1a3e
00000060: 70bd 8cbd ee5e e03d 08b3 1e3e 9297 273a
00000070: aba2 10be 477a 64bd bf43 023e 1601 c33d
00000080: e562 203d 1eb2 abbd ecd6 9b3d f40a 083e
00000090: 559e 9fbc 366c c2bd 6e04 473d c804 e8bd
000000a0: fb41 3c3c c9a9 50bd 2c67 35be 5aa0 a23d
000000b0: d1d3 0f3e cc07 3bbd c664 1bbe f996 19be
000000c0: 6d69 243e 2afe fcbc 05a1 383e 54fe 4dbc
000000d0: 09d9 16be 2132 51bc 9186 303e 9e13 b3bc
000000e0: 7fae 60bd 2cd4 24be 79a5 843d 65ee 6bbd
000000f0: e3ea ccbd 0ca9 df3d 8840 343e 83c3 133e

m_transform.0.5.running_mean f4 [32]
0.76911485 0.3812387 0.36435232 0.4186276 1.0717467 -0.04620068 0.25464708 0.893407
0.46469268 0.93568784 0.53229606 0.26884001 0.19929497 0.3736568 0.14684823 -0.1478343
1.4308455 0.47367933 0.5326568 -0.0440917 -0.035596862 0.8936994 0.20566417 0.27094197
0.049179595 0.39452633 1.0147698 0.8816229 1.4103012 0.20574425 0.23872368 0.35874233
00000000: b6e4 443f b831 c33e 638c ba3e 5b56 d63e
00000010: ff2e 893f ed3c 3dbd 1a61 823e 52b6 643f
00000020: 33ec ed3e 3d89 6f3f 8e44 083f 66a5 893e
00000030: fb13 4c3e f24f bf3e 625f 163e e061 17be
00000040: f225 b73f 1986 f23e 325c 083f 8099 34bd
00000050: 04ce 11bd 7cc9 643f a199 523e e8b8 8a3e
00000060: 8b70 493d 5bff c93e fae3 813f 0ab2 613f
00000070: c084 b43f 9fae 523e fb73 743e 13ad b73e

m_transform.0.5.running_var f4 [32]
0.15100719 0.119330466 0.14086735 0.08298408 0.29516688 0.044749983 0.050661333 0.42265677
0.035007082 0.34539026 0.08240381 0.039083824 0.074151576 0.048835456 0.13629527 0.022260008
0.4116468 0.11208516 0.10642692 0.050258365 0.03153126 0.08567029 0.08366475 0.046736762
0.03655353 0.06883611 0.26132926 0.24608836 0.56848884 0.05849217 0.032300297 0.110344164
00000000: a1a1 1a3e 8863 f43d 883f 103e 8ff3 a93d
00000010: 1d20 973e c24b 373d 4282 4f3d 7866 d83e
00000020: 9663 0f3d fed6 b03e 54c3 a83d 5c16 203d
00000030: c8dc 973d b007 483d fd90 0b3e 9f5a b63c
00000040: 5fc3 d23e e88c e53d 5bf6 d93d b7db 4d3d
00000050: ec26 013d e873 af3d 6d58 ab3d 0c6f 3f3d
00000060: 27b9 153d f2f9 8c3d f3cc 853e 96fe 7b3e
00000070: 7c88 113f 7c95 6f3d 514d 043d 1ffc e13d

m_transform.0.6.weight f4 [96, 32, 3, 3]
-0.013122741 -0.0136122815 -0.06627988 -0.047979955 -0.005759775 -0.06235889 0.027680216 0.016323347
0.03610487 0.06559068 0.027293736 0.035680227 -0.03872977 0.008074388 0.053045396 -0.05945053
0.03992325 -0.037321083 -0.017532399 0.053673666 -0.018564565 -0.006658778 0.001441119 0.014633012
0.0068222736 -0.048090816 -0.031769667 0.018603025 0.0463606 -0.051714163 -0.029648062 0.045838386
-0.051718 0.012753542 0.06065187 -0.014555604 0.015585352 -0.011194503 0.022941964 0.028730258
-0.035172194 -0.017593145 -0.075460054 -0.056482665 -0.013831438 0.025606599 -0.007984808 -0.0032673208
-0.08300388 -0.015771506 -0.058375783 -0.014715302 -0.0063970336 -0.019336054 -0.03282428 -0.014255064
0.034966707 0.039440192 0.047897257 0.03144953 0.016655143 -0.016739527 0.07364171 -0.027850356
-0.029639117 -0.02607069 -0.073192164 0.031004995 0.009399881 -0.03208278 0.03544075 0.038418908
-0.00690145 -0.0039394842 0.03690352 -0.03881508 0.01559092 -0.016973035 -0.0013415519 0.04887062
0.033086054 -0.05582699 0.021285528 -0.058887057 -0.010666407 0.017290205 -0.05015622 0.018822594
-0.038709264 -0.013349628 0.00088131736 -0.007660171 -0.06020094 0.017920801 0.0131244315 -0.023136826
0.023992322 0.05104117 -0.051553044 0.02885918 -0.02784749 -0.020059934 0.036967643 0.013729817
-0.017277079 0.03203816 -0.02802745 -0.03680123 -0.039821547 -0.008136488 -0.025619505 -0.017249402
0.058060877 0.0067506908 0.015093702 -0.004665744 -0.061027225 -0.03656049 -0.030826993 -0.04700119
0.03560927 -0.050010663 -0.020325825 0.020609455 -0.023650054 0.0013559455 -0.017393041 0.06398355
-0.005916343 -0.00925266 0.03886998 -0.063806854 0.018598968 0.01577471 -0.033777874 -0.041957505
-0.102330424 -0.02016464 0.048376076 -0.033324204 -0.002347962 0.02363632 -0.08173268 0.029914485
-0.005226946 -0.022252789 -0.042902127 0.02503514 0.05295291 -0.024443341 0.032046825 -0.007121019
0.04045747 -0.059368804 -0.04312176 -0.021438204 0.015735146 -0.02561043 0.077379815 0.04411395
0.009416808 0.03678655 0.00809039 -0.026352188 0.044174183 -0.013576065 -0.050038476 -0.01328124
0.02488168 -0.017008102 0.03025699 -0.022229277 -0.0151683185 -0.031182852 -0.054692626 0.010794217
-0.008660753 -0.005221484 0.048004095 -0.0015164134 0.041939612 0.009862465 -0.006256319 -0.04653173
0.05175134 0.037957136 0.055170413 0.03976107 -0.016391082 -0.025576534 0.008614057 0.050419703
-0.04729825 0.091449395 -0.020718157 0.036871005 0.045265123 0.034207664 0.062198084 0.07551032
0.012847969 0.041188434 0.005659757 0.017750861 -0.038681768 0.06197397 0.00083701295 -0.03574784
0.02779847 0.0026873478 0.0257285 0.014229343 -0.027652692 -0.011538936 0.038785744 0.027558558
0.02258357 -0.024316033 0.023634505 -0.012383601 0.04180202 -0.036543477 -0.046944275 -0.015973557
0.045101088 0.0018548596 -0.013052783 -0.0098374 0.01214008 0.037440874 0.07692869 -0.050552733
-0.0032502299 0.06487646 0.03956287 -0.05998964 -0.02965594 -0.006735475 -0.021890815 -0.03600726
0.033920296 -0.0126522705 0.03422757 -0.012544782 0.0007282335 0.065487966 -0.034904454 0.05045962
0.024725253 -0.033318713 0.004658659 0.018818248 -0.018228598 -0.012723052 0.044216953 0.05343619
00000000: c400 57bc 0c06 5fbc bfbd 87bd a186 44bd
00000010: 7fbc bcbb 096c 7fbd 9fc1 e23c 8ab8 853c
00000020: b3e2 133d 6854 863d 1d97 df3c 6e25 123d
00000030: 1ba3 1ebd 704a 043c 2146 593d 6682 73bd
00000040: 9086 233d fedd 18bd 1ba0 8fbc ebd8 5b3d
00000050: b714 98bc e131 dabb eee3 bc3a 4dbf 6f3c
00000060: 618d df3b e0fa 44bd e920 02bd 5f65 983c
00000070: 9de4 3d3d 3bd2 53bd 7ee0 f2bc 08c1 3b3d
00000080: 41d6 53bd 3bf4 503c 186e 783d a17a 6ebc
00000090: b459 7f3c 2669 37bc c9f0 bb3c b85b eb3c
000000a0: b810 10bd 801f 90bc cd8a 9abd 5e5a 67bd
000000b0: 419d 62bc eec4 d13c b6d2 02bc 8c20 56bb
000000c0: f0fd a9bd 3f33 81bc 721b 6fbd 7318 71bc
000000d0: 359e d1bb a566 9ebc c172 06bd 128e 69bc
000000e0: 4039 0f3d 0a8c 213d ea2f 443d 39d1 003d
000000f0: 5e70 883c 5521 89bc 77d1 963d 6e26 e4bc
00000100: bccd f2bc 3392 d5bc c6e5 95bd 30fe fd3c
00000110: f501 1a3c 3c69 03bd 522a 113d 255d 1d3d
00000120: 8f25 e2bb ca16 81bb 2528 173d 90fc 1ebd
00000130: 0f71 7f3c 090b 8bbc 03d7 afba 8f2c 483d
00000140: 3e85 073d d8aa 64bd fd5e ae3c 8e33 71bd
00000150: 27c2 2ebc 30a4 8d3c 9c70 4dbd d731 9a3c
00000160: 9b8d 1ebd 66b8 5abc 3508 673a 2c02 fbbb
00000170: 4395 76bd a5ce 923c db07 573c 7189 bdbc
00000180: 8c8b c43c 8c10 513d 4929 53bd 166a ec3c
00000190: 6b20 e4bc bb54 a4bc 626b 173d 07f3 603c
000001a0: a988 8dbc 723a 033d d399 e5bc e3bc 16bd
000001b0: eb1b 23bd e74e 05bc ffdf d1bc 9e4e 8dbc
000001c0: 3ed1 6d3d e634 dd3b 934b 773c 19e3 98bb
000001d0: aff7 79bd 74c0 15bd e488 fcbc 5284 40bd
000001e0: 07db 113d fbd7 4cbd 5882 a6bc 29d5 a83c
000001f0: c2bd c1bc fbb9 b13a da7b 8ebc cf09 833d
00000200: e2dd c1bb 7898 17bc 2136 1f3d 2bad 82bd
00000210: dd5c 983c f739 813c ab5a 0abd a2db 2bbd
00000220: 9d92 d1bd 5130 a5bc fe25 463d f67e 08bd
00000230: 44e0 19bb f5a0 c13c 7763 a7bd 390f f53c
00000240: cd46 abbb 7b4b b6bc 24ba 2fbd 7e16 cd3c
00000250: 27e5 583d 673d c8bc 8843 033d 7057 e9bb
00000260: bbb6 253d b42c 73bd 71a0 30bd 2c9f afbc
00000270: fee6 803c f7cc d1bc 4f79 9e3d d4b0 343d
00000280: f548 1a3c 7ead 163d 8e8d 043c 8be0 d7bc
00000290: fdef 343d 256e 5ebc 25f5 4cbd 8f99 59bc
000002a0: aad4 cb3c 9354 8bbc 82dd f73c 2c1a b6bc
000002b0: 8a84 78bc 2e73 ffbc 6005 60bd 3ada 303c
000002c0: d5e5 0dbc fc18 abbb f19f 443d 64c2 c6ba
000002d0: dfc8 2b3d 2d96 213c cf01 cdbb 0e98 3ebd
000002e0: 37f9 533d f178 1b3d 5ffa 613d 81dc 223d
000002f0: 9746 86bc e185 d1bc f921 0d3c e484 4e3d
00000300: cfbb 41bd d249 bb3d 20b9 a9bc 0d06 173d
00000310: ec67 393d 561d 0c3d 6bc3 7e3d 28a5 9a3d
00000320: 4a80 523c 34b5 283d 7c75 b93b 416a 913c
00000330: c670 1ebd 6bd8 7d3d fd6a 5b3a 546c 12bd
00000340: 9eb9 e33c 371e 303b 93c4 d23c 3122 693c
00000350: e687 e2bc ce0d 3dbc cddd 1e3d 7cc2 e13c
00000360: 2e01 b93c 6b32 c7bc 269d c13c 96e4 4abc
00000370: 9838 2b3d 9dae 15bd a448 40bd fada 82bc
00000380: ebbb 383d c31e f33a 57db 55bc 0c2d 21bc
00000390: 30e7 463c 9a5b 193d ca8c 9d3d 6210 4fbd
000003a0: cf01 55bb f3dd 843d ad0c 223d b2b7 75bd
000003b0: 04f1 f2bc 42b5 dcbb 5e54 b3bc 597c 13bd
000003c0: 02f0 0a3d 784b 4fbc 3532 0c3d a188 4dbc
000003d0: ece6 3e3a 8e1e 863d f9f7 0ebd bfae 4e3d
000003e0: 9d8c ca3c 3479 08bd aaa7 983b ba28 9a3c
000003f0: 2454 95bc 5974 50bc d61c 353d e8df 5a3d

m_transform.0.6.bias f4 [96]
0.05219995 0.061267566 -0.026229855 0.017444532 -0.007994919 -0.050025225 0.0062086354 0.041212313
-0.027613912 0.045451615 -0.01956973 0.040909365 0.017020496 -0.0416391 -0.048302595 0.031597514
-0.0070853964 -0.049010474 -0.00424793 -0.049366187 -0.00726637 0.008661033 0.030488953 0.012095734
-0.021520287 0.013912778 0.023598067 -0.0019833455 -0.04184118 -0.04759793 -0.044102073 -0.04392509
0.034026515 -0.055214677 -0.039620962 0.05255481 0.011239757 -0.057621762 -0.06411437 -0.022299731
-0.06520199 0.041114688 -0.0009924474 0.039336342 0.0054357033 -0.03708088 -0.025654187 0.051653657
0.034940097 -0.04182082 0.01993903 0.031144295 0.0733915 0.015565391 -0.058066767 -0.045301702
0.0007029791 0.037775185 0.0563316 0.05173328 0.04386274 -0.050424412 0.00037521007 0.031291507
0.057946023 0.08489715 0.028303318 0.045795742 -0.03031003 -0.028863145 0.04528728 0.020105941
0.0038711128 -0.026887842 0.010262458 0.036948327 0.026259368 0.036295537 -0.023762465 -0.028465088
-0.048939157 0.06699659 0.003982449 -0.048279237 -0.024356103 0.014309935 -0.033654206 -0.046451263
0.04163747 -0.06178678 -0.013808718 -0.046097934 -0.0066666882 -0.024660181 0.00698495 0.014535978
00000000: 9dcf 553d b3f3 7a3d fedf d6bc d6e7 8e3c
00000010: 1ffd 02bc 40e7 4cbd cf71 cb3b 3ece 283d
00000020: 9236 e2bc 792b 3a3d b350 a0bc 9490 273d
00000030: 916e 8b3c c38d 2abd f1d8 45bd 656c 013d
00000040: 9d2c e8bb 35bf 48bd 3832 8bbb 3334 4abd
00000050: bb1a eebb 01e7 0d3c f8c3 f93c 2f2d 463c
00000060: 504b b0bc 6cf2 633c bc50 c13c 04fb 01bb
00000070: a861 2bbd 0cf6 42bd 60a4 34bd ccea 33bd
00000080: 635f 0b3d c928 62bd 9749 22bd b643 573d
00000090: f526 383c cc04 6cbd 654e 83bd edad b6bc
000000a0: 9f88 85bd e067 283d 0215 82ba 251f 213d
000000b0: fc1d b23b 1fe2 17bd bb28 d2bc c992 533d
000000c0: 591d 0f3d 4f4c 2bbd 2d57 a33c 5222 ff3c
000000d0: 484e 963d fb05 7f3c 6bd7 6dbd 478e 39bd
000000e0: 2148 383a 27ba 1a3d f7bb 663d 47e6 533d
000000f0: 6ba9 333d d489 4ebd d8b7 c439 862b 003d
00000100: cf58 6d3d 8fde ad3d 5cdc e73c 5194 3b3d
00000110: bd4c f8bc 6772 ecbc 287f 393d 37b5 a43c
00000120: 7fb2 7d3b e443 dcbc de23 283c 2157 173d
00000130: e31d d73c a1aa 143d 80a9 c2bc 9e2f e9bc
00000140: 6d74 48bd 8235 893d 347f 823b 73c0 45bd
00000150: 7386 c7bc 3874 6a3c fed8 09bd ae43 3ebd
00000160: 0d8c 2a3d 2214 7dbd f63d 62bc 30d1 3cbd
00000170: 3c74 dabb 2604 cabc 02e2 e43b 5028 6e3c

m_transform.0.9.running_mean f4 [48]
1.1230974 1.4997982 1.172326 1.9978541 1.3698772 1.23546 0.8314255 1.2650164
1.5349461 1.068689 2.4135003 1.3386916 1.0846014 1.0023837 1.5352926 1.8707066
1.3472446 1.1069175 1.2383482 0.9912675 1.1549677 1.2979033 1.6616479 2.0033624
2.1792 2.0083957 1.295336 1.3705873 1.833743 1.3649392 1.2015235 1.232289
1.7885557 0.9768791 1.6800187 1.000562 1.2282033 1.3913957 1.1095192 2.1973221
0.9440007 1.7810237 1.2798494 1.203213 1.0782117 1.154487 1.2469116 1.0905535
00000000: a8c1 8f3f 63f9 bf3f c70e 963f afb9 ff3f
00000010: 2358 af3f 8e23 9e3f 4dd8 543f 0fec a13f
00000020: 1d79 c43f cdca 883f ca76 1a40 3f5a ab3f
00000030: 38d4 8a3f 1c4e 803f 7884 c43f 5073 ef3f
00000040: 8372 ac3f 79af 8d3f 3282 9e3f b5c3 7d3f
00000050: fbd5 933f b221 a63f e1b0 d43f 1737 0040
00000060: 0378 0b40 8e89 0040 92cd a53f 686f af3f
00000070: 17b8 ea3f 54b6 ae3f 86cb 993f a5bb 9d3f
00000080: 65ef e43f c014 7a3f da0a d73f 6a12 803f
00000090: c435 9d3f 4119 b23f ba04 8e3f eda0 0c40
000000a0: 08aa 713f 96f8 e33f 1bd2 a33f e202 9a3f
000000b0: d702 8a3f 3bc6 933f cd9a 9f3f 4297 8b3f

m_transform.0.9.running_var f4 [48]
1.4605966 0.84296286 1.2187973 1.3674158 1.2042215 0.7157692 1.728693 1.0627555
1.3014715 1.2317039 1.7195503 1.1023823 0.6223624 2.2871644 1.2602245 1.3095622
1.9544473 1.1172727 1.1378375 0.30600867 2.4444292 0.57136005 3.3060427 2.8953865
1.3037429 2.64415 0.6604548 0.45031333 2.4470634 0.6773316 0.99512815 1.5352005
1.0376166 0.88440794 1.0660845 0.63978314 1.6256405 0.8853655 1.1813794 1.7555311
2.790938 1.989981 0.9936639 1.5384204 1.4997823 0.96635646 0.7584427 1.7229971
00000000: d4f4 ba3f 6acc 573f 8d01 9c3f 7b07 af3f
00000010: ee23 9a3f a63c 373f d045 dd3f 5f08 883f
00000020: 9e96 a63f 79a8 9d3f 391a dc3f dd1a 8d3f
00000030: 2453 1f3f e760 1240 094f a13f bc9f a73f
00000040: 542b fa3f cb02 8f3f a9a4 913f 2bad 9c3e
00000050: 8771 1c40 a744 123f 3496 5340 034e 3940
00000060: 0ce1 a63f c139 2940 9113 293f 788f e63e
00000070: b09c 1c40 9b65 2d3f b8c0 7e3f 7381 c43f
00000080: 9fd0 843f 8f68 623f 7575 883f d4c8 233f
00000090: fd14 d03f 50a7 623f 7137 973f 3eb5 e03f
000000a0: ba9e 3240 b3b7 fe3f c260 7e3f f6ea c43f
000000b0: def8 bf3f 2363 773f 4d29 423f 2b8b dc3f

m_transform.0.10.weight f4 [96, 48, 1, 1]
0.08449256 0.06960446 0.06015476 -0.07284316 -0.014803359 -0.036567453 0.124899656 -0.031222725
0.011358445 0.11939996 -0.07283269 -0.0350502 -0.06368721 0.1428191 0.030581264 0.077828325
0.12923957 0.0344083 0.1421378 -0.10236413 0.065878056 0.10834497 -0.030540364 -0.029578678
-0.05121975 -0.11242925 0.08525031 -0.059412062 0.11284207 0.0004479104 -0.04956742 -0.079587035
-0.07349786 0.06537813 0.090999894 0.07497954 0.1471856 -0.09151383 -0.0071878 -0.04991176
0.10769244 -0.028976092 0.13768995 0.10513149 -0.08406839 -0.04502487 0.047638077 0.059716582
0.015867593 0.1165199 0.1065859 -0.063000046 0.05718685 -0.015358438 0.0694681 -0.030333797
0.07889455 0.030436281 0.056778457 -0.07202347 0.13954206 -0.016782254 -0.02513617 0.051989783
0.0941079 -0.057936426 0.02972843 -0.0024806939 0.07231141 -0.0060326504 -0.0047445204 -0.037303545
0.080827765 0.063775115 0.05536137 -0.046404228 0.14060657 -0.10377696 -0.039771155 -0.1501484
-0.12836874 0.07178406 -0.0955772 -0.052638188 -0.028813107 0.1415354 -0.09079435 -0.03862492
0.085445575 -0.077563226 0.14795579 -0.13960162 0.06305247 -0.0024882255 0.14008057 0.054855436
-0.09646973 -0.14813647 -0.05699255 -0.1022965 0.0924486 -0.082223184 -0.046578865 -0.07039779
-0.09185041 0.012524547 -0.058335066 0.064111955 -0.04839596 -0.031120824 0.0066637546 -0.0006667817
0.04715566 0.112928785 0.0010280652 -0.08144788 -0.05006177 0.02499603 0.11109013 -0.11035589
-0.04554269 0.10418162 0.102330245 -0.096060574 0.010265233 -0.054821722 0.03590496 0.030375836
0.11928986 0.03127246 -0.10151057 0.080612265 0.16200449 0.106241174 0.13971104 0.010409428
0.011946179 -0.04883752 0.12128463 -0.017045941 0.0785041 -0.05680183 0.13833003 0.067015596
-0.1342936 -0.08876738 0.07725856 0.029595701 0.03651047 -0.09804963 0.12064415 0.021072425
-0.05604781 -0.11072318 -0.014607866 -0.014110171 -0.15572353 0.011851863 -0.12669945 -0.12131089
0.010148642 -0.048591085 -0.032981336 0.04448561 -0.086814664 0.081005976 -0.11265364 -0.1647184
-0.14693905 0.073114924 0.0046849926 -0.053499382 0.044543218 -0.013346666 -0.013144871 -0.028136035
-0.042423535 0.08597717 -0.14146039 -0.045496307 -0.062062368 -0.08135057 0.09046533 0.089238904
-0.14210394 0.048497602 0.1443427 -0.03788132 -0.084703244 0.14252518 0.12927642 -0.008042068
-0.05309418 -0.011573282 -0.1110857 0.10867338 0.081775 0.023112902 0.04336318 0.08539244
-0.04353476 0.015812052 -0.09680832 0.116096064 0.073424995 -0.07732779 -0.09155354 0.102967806
-0.0014668661 0.09910062 -0.03972082 0.0029707786 -0.1366691 -0.12170987 -0.114741035 0.096640185
-0.05693218 0.005721822 0.088609084 -0.054200478 -0.10664034 -0.046043593 0.044757433 0.06932796
0.099713355 0.0043978556 0.16895486 0.14376438 -0.08780957 -0.040006656 0.054320395 -0.09836782
0.07870886 -0.020684684 0.020569924 0.08521018 0.062098317 -0.026384551 -0.05961991 -0.08027373
-0.054316405 -0.06427153 -0.0021377238 -0.0749355 0.013639396 0.087482914 -0.0151343895 -0.08146615
0.07164679 -0.0051517454 -0.13695544 -0.040779006 0.16286284 0.0882251 0.04467925 0.06616467
00000000: 6f0a ad3d c88c 8e3d d664 763d cb2e 95bd
00000010: ca89 72bc c1c7 15bd 64cb ff3d cdc6 ffbc
00000020: c518 3a3c f787 f43d 4e29 95bd cc90 0fbd
00000030: 716e 82bd 2c3f 123e 8f85 fa3c 7564 9f3d
00000040: 6157 043e b8ef 0c3d 928c 113e 49a4 d1bd
00000050: 13eb 863d f8e3 dd3d c92f fabc fc4e f2bc
00000060: cdcb 51bd 4e41 e6bd b797 ae3d 105a 73bd
00000070: be19 e73d 84d5 ea39 3507 4bbd 87fe a2bd
00000080: 0c86 96bd f8e4 853d 275e ba3d e08e 993d
00000090: d2b7 163e 9a6b bbbd a387 ebbb 4670 4cbd
000000a0: db8d dc3d 455f edbc 98fe 0c3e 2e4f d73d
000000b0: 0c2c acbd 006c 38bd 2520 433d 6099 743d
000000c0: c1fc 813c fca1 ee3d b549 da3d 2b06 81bd
000000d0: c23c 6a3d f5a1 7bbc 4b45 8e3d 957e f8bc
000000e0: 7793 a13d 8255 f93c 8790 683d 0b81 93bd
000000f0: 1de4 0e3e f07a 89bc 5fea cdbc 3df3 543d
00000100: a5bb c03d bf4e 6dbd 0989 f33c 2393 22bb
00000110: 0118 943d 8aad c5bb ec77 9bbb 9acb 18bd
00000120: 0789 a53d 879c 823d 9bc2 623d 5c12 3ebd
00000130: 2bfb 0f3e 0489 d4bd 14e7 22bd 81c0 19be
00000140: 1873 03be 8503 933d fbbd c3bd 249b 57bd
00000150: 7709 ecbc a8ee 103e 63f2 b9bd 2a35 1ebd
00000160: 17fe ae3d 78d9 9ebd b981 173e baf3 0ebe
00000170: a721 813d 7f11 23bb 4871 0f3e 18b0 603d
00000180: ec91 c5bd 16b1 17be 0571 69bd d480 d1bd
00000190: b155 bd3d a164 a8bd 7bc9 3ebd b72c 90bd
000001a0: 111c bcbd c233 4d3c c0f0 6ebd 214d 833d
000001b0: d83a 46bd 19f1 febc a05b da3b f6ca 2eba
000001c0: 4b26 413d 3547 e73d 25c0 863a 25ce a6bd
000001d0: 920d 4dbd 79c4 cc3c 3983 e33d 4502 e2bd
000001e0: f98a 3abd 2c5d d53d 8592 d13d 68bb c4bd
000001f0: 822f 283c be8c 60bd 1411 133d bfd6 f83c
00000200: 3e4e f43d 8d17 003d c6e4 cfbd 0b18 a53d
00000210: 81e4 253e f994 d93d 6910 0f3e 4e8c 2a3c
00000220: e8b9 433c da09 48bd 1364 f83d eea3 8bbc
00000230: c2c6 a03d 09a9 68bd 63a6 0d3e 793f 893d
00000240: 4384 09be accb b5bd bc39 9e3d af72 f23c
00000250: 018c 153d 3fce c8bd 4814 f73d 14a0 ac3c
00000260: 6392 65bd d6c2 e2bd d555 6fbc 592e 67bc
00000270: fd75 1fbe 512e 423c 80bd 01be d871 f8bd
00000280: 7d46 263c 7207 47bd 7017 07bd 8b36 363d
00000290: e3cb b1bd 76e6 a53d f4b6 e6bd f1ab 28be
000002a0: 3177 16be 47bd 953d 9184 993b 2b22 5bbd
000002b0: f372 363d f9ab 5abc 965d 57bc 8b7d e6bc
000002c0: 4dc4 2dbd cc14 b03d feda 10be 565a 3abd
000002d0: 1c35 7ebd 219b a6bd e345 b93d e3c2 b63d
000002e0: b283 11be 6ca5 463d 93ce 133e 7129 1bbd
000002f0: e578 adbd 1ff2 113e 0a61 043e e1c2 03bc
00000300: 4879 59bd dd9d 3dbc e680 e3bd 2690 de3d
00000310: a779 a73d 4557 bd3c 979d 313d 3be2 ae3d
00000320: 8151 32bd 4788 813c 7143 c6bd c6c3 ed3d
00000330: d85f 963d 085e 9ebd 6c80 bbbd c9e0 d23d
00000340: dc43 c0ba 44f5 ca3d 4cb2 22bd 65b1 423b
00000350: fcf2 0bbe 0643 f9bd 59fd eabd 4aeb c53d
00000360: b831 69bd 1f7e bb3b ae78 b53d 5201 5ebd
00000370: 4066 dabd 3598 3cbd 9253 373d d1fb 8d3d
00000380: 8436 cc3d e31b 903b 8102 2d3e f836 133e
00000390: 81d5 b3bd 05de 23bd 107f 5e3d 1175 c9bd
000003a0: 1c32 a13d ed72 a9bc 4282 a83c ad82 ae3d
000003b0: ce5a 7e3d 6a24 d8bc 0234 74bd 8e66 a4bd
000003c0: e17a 5ebd cba0 83bd 0e19 0cbb c977 99bd
000003d0: c677 5f3c 3e2a b33d 3bf6 77bc bad7 a6bd
000003e0: 8dbb 923d f9cf a8bb 0c3e 0cbe e307 27bd
000003f0: 84c5 263e 5caf b43d 9701 373d 5881 873d

m_transform.0.10.bias f4 [96]
0.124142095 0.061731737 -0.024519654 0.08305232 0.0602053 -0.08046481 -0.077727884 -0.12929651
-0.13595118 -0.13886365 -0.08214947 0.11283872 -0.032974154 -0.13422146 0.014014553 0.0809754
0.019382996 0.07180897 -0.06605731 -0.025754156 0.105174564 -0.041187495 0.0814173 0.17065927
0.038622446 -0.11750029 -0.057969593 0.11597915 0.03706998 0.13501005 -0.103537336 0.13658705
-0.011717445 0.02226341 0.044581685 -0.047154997 0.09489622 0.113479145 0.032283243 0.07390391
-0.05746598 -0.07178138 -0.034651667 -0.12161135 0.018928342 -0.14706974 -0.026342245 0.12618782
-0.0735801 0.026476689 0.05426756 0.06465007 0.0630902 -0.07409659 -0.026002556 -0.010889268
0.11460722 -0.109761454 0.08796869 -0.12369494 0.109960996 0.088426426 0.08173228 0.038261123
-0.021848788 -0.082610615 -0.10710553 0.075018875 0.11223762 -0.11744592 0.13284601 -0.011721829
0.08076538 0.08468265 0.032721706 0.06278521 -0.10329508 0.10957374 0.10184723 -0.13693304
0.108542785 -0.07737996 0.018991457 0.048090696 -0.00060768717 0.10294039 0.110192254 0.026979165
-0.011064618 0.03279005 -0.11678503 -0.098645985 -0.065419585 0.009007964 0.11767002 -0.055952158
00000000: 363e fe3d 6bda 7c3d 71dd c8bc 5617 aa3d
00000010: d599 763d bcca a4bd cc2f 9fbd 4e66 04be
00000020: c936 0bbe 4632 0ebe fb3d a8bd fd17 e73d
00000030: e80f 07bd 5a71 09be 4c9d 653c 6ed6 a53d
00000040: 17c9 9e3c 9510 933d 0e49 87bd 61fa d2bc
00000050: c365 d73d 38b4 28bd 1dbe a63d 4ec1 2e3e
00000060: 9232 1e3d fea3 f0bd 8671 6dbd 7a86 ed3d
00000070: b1d6 173d 1340 0a3e 620b d4bd 7add 0b3e
00000080: 87fa 3fbc c161 b63c 499b 363d 9925 41bd
00000090: f358 c23d c167 e83d 6f3b 043d ef5a 973d
000000a0: 7361 6bbd 1e02 93bd e8ee 0dbd 5f0f f9bd
000000b0: 9c0f 9b3c 7399 16be b1cb d7bc 6137 013e
000000c0: 2ab1 96bd a4e5 d83c a947 5e3d 4267 843d
000000d0: 6f35 813d f4bf 97bd 5003 d5bc e668 32bc
000000e0: 31b7 ea3d 9dca e0bd ee28 b43d c653 fdbd
000000f0: 3b33 e13d ea18 b53d 4163 a73d b2b7 1c3d
00000100: 3bfc b2bc c12f a9bd 255a dbbd 7fa3 993d
00000110: d6dc e53d 7d87 f0bd c908 083e ea0c 40bc
00000120: 5268 a53d 196e ad3d 3207 063d 8895 803d
00000130: 5f8c d3bd 3268 e03d 4895 d03d 2d38 0cbe
00000140: ae4b de3d 6279 9ebd f993 9b3c c0fa 443d
00000150: 324d 1fba 69d2 d23d 7aac e13d 6903 dd3c
00000160: 5f48 35bc dc4e 063d fd2c efbd e806 cabd
00000170: b4fa 85bd 2496 133c fbfc f03d 172e 65bd

m_transform.0.12.running_mean f4 [48]
0.38104802 0.2851658 0.30589703 0.35695633 0.36356097 0.24745314 0.314307 0.5293424
0.22045265 0.28535658 0.32088265 0.40567484 0.5613563 0.36858547 0.3308058 0.3808531
0.3662359 0.65128964 0.33572242 0.31820118 0.62938577 0.30487716 0.54746056 0.31699368
0.33511913 0.17055361 0.24695532 0.6485053 0.55913234 0.5226844 0.2647678 0.49732402
0.31320888 0.31188866 0.510703 0.19701907 0.4761141 0.4689634 0.4481879 0.56557053
0.1971308 0.29429594 0.44281685 0.46689188 0.30094543 0.3101413 0.37501678 0.3040574
00000000: ba18 c33e 4001 923e 899e 9c3e fbc2 b63e
00000010: aa24 ba3e 5b64 7d3e d9ec a03e fc82 073f
00000020: 57be 613e 421a 923e bb4a a43e 9db4 cf3e
00000030: 0cb5 0f3f 3cb7 bc3e 615f a93e 2dff c23e
00000040: 4683 bb3e ebba 263f cfe3 ab3e 44eb a23e
00000050: 6d1f 213f dc18 9c3e 6026 0c3f ff4c a23e
00000060: bc94 ab3e 9ba5 2e3e dbe1 7c3e 7104 263f
00000070: 4c23 0f3f a5ce 053f a58f 873e 41a1 fe3e
00000080: ea5c a03e dfaf 9f3e 6fbd 023f 5ebf 493e
00000090: 3ac5 f33e f91b f03e e278 e53e 3bc9 103f
000000a0: a8dc 493e f5ad 963e e4b8 e23e 740c ef3e
000000b0: 8515 9a3e d7ca 9e3e 3302 c03e 69ad 9b3e

m_transform.0.12.running_var f4 [48]
0.22620991 0.25465074 0.17135786 0.24171941 0.18937194 0.2543903 0.17943156 0.41167808
0.19347998 0.20276001 0.36794993 0.16351135 0.20058283 0.21274333 0.12366887 0.35745192
0.30661884 0.3127153 0.329098 0.2951368 0.29023117 0.6250949 0.2728693 0.13033317
0.3684932 0.1951488 0.29931882 0.36776686 0.26842618 0.2004818 0.44258147 0.4109234
0.114497125 0.19414684 0.3320269 0.62800735 0.18742183 0.22219606 0.16362625 0.31293958
0.14242657 0.31645918 0.2161184 0.37001956 0.19066288 0.2949452 0.18081462 0.18700336
00000000: 92a3 673e 9561 823e 6f78 2f3e 4b85 773e
00000010: b8ea 413e 723f 823e e8bc 373e 78c7 d23e
00000020: 9e1f 463e 52a0 4f3e ef63 bc3e 856f 273e
00000030: 9665 4d3e 63d9 593e 1b46 fd3d f003 b73e
00000040: 25fd 9c3e 381c a03e 887f a83e 2c1c 973e
00000050: 2e99 943e 3806 203f 86b5 8b3e 0f76 053e
00000060: 24ab bc3e 16d5 473e 5140 993e f04b bc3e
00000070: 286f 893e 1a4b 4d3e 0a9a e23e 8d64 d23e
00000080: 787d ea3d 6ece 463e 6eff a93e 17c5 203f
00000090: 82eb 3f3e 5d87 633e a48d 273e 9e39 a03e
000000a0: 45d8 113e f006 a23e 244e 5d3e 3473 bd3e
000000b0: 213d 433e 0f03 973e 7827 393e cf7d 3f3e

m_transform.0.13.weight f4 [128, 48, 3, 3]
0.031949084 -0.046598718 -0.029287448 0.022751333 -0.05035455 -0.0020235432 -0.03548731 0.023841951
-0.055278 -0.004798132 0.05560348 0.026606828 0.026745657 0.03881443 0.0497892 0.0009677173
-0.004530847 0.024294864 -0.0104554575 0.009308759 -0.037016436 -0.027805094 0.020015525 -0.04406125
0.02764496 0.037734415 -0.007311161 -0.034718134 0.019073633 0.012025846 -0.030110594 -0.030287445
-0.030869104 0.012482689 0.016878447 -0.05411464 0.010823568 0.05081768 0.030159604 -0.031024702
0.011182644 -0.02949348 0.022905048 0.04284968 -0.03015849 0.014594855 0.050066166 0.045464396
0.036430236 0.049452048 0.03608645 -0.0259295 0.061721534 0.049709123 0.06715037 0.04620044
0.018751014 0.06164515 0.0040986375 0.018560898 0.03636046 -0.012937364 0.011040879 0.03272577
0.031761657 0.03565511 0.0219333 -0.011685451 0.0044389386 0.02132409 -0.017360874 0.025407804
0.011938399 0.04039808 -0.008668142 0.023419702 0.0049413266 0.020529492 0.003423535 -0.009799043
0.041001547 0.049480557 0.017613124 0.021986868 0.0056737172 0.0052071814 0.057108227 0.049134396
0.05971089 0.06314976 0.030233292 -0.03313131 -0.017128482 0.00610117 -0.01913454 0.017846113
-0.02788471 0.02151043 -0.03299464 -0.03764998 -0.027596567 0.04319796 -0.010235238 0.03918523
-0.03848625 -0.0042815264 -0.016610598 0.027602345 -0.056843247 -0.030001774 -0.037559804 -0.0213264
0.041022528 0.019368066 -0.06573944 0.022874912 0.014454386 -0.017785838 -0.00016947444 -0.03271664
0.05192076 -0.02459945 0.044106763 -0.026802154 0.032171875 0.037169024 -0.018569613 0.022176988
-0.019765234 0.026781017 -0.0064380686 -0.014607779 0.04331874 -0.03244854 0.025115808 0.030708488
-0.030622503 -0.025587821 0.030881822 0.021710832 -0.0002967792 -0.011749582 0.05160935 0.032312296
-0.00040545565 0.010582458 0.058937345 -0.035387337 0.020737728 -0.0013851027 -0.022598704 0.0092261685
-0.009217855 0.019529736 0.03423927 -0.02085282 -0.022886565 -0.015571249 -0.009830541 0.021881213
0.04791777 0.025922555 -0.01826164 0.012848504 0.00023562068 0.024148667 0.03028907 0.04693161
-0.011703493 0.0038262308 0.058620296 -0.005605558 0.038243826 -0.016024686 0.025829311 -0.010309529
0.054178555 -0.037234392 0.0057425434 0.013963802 0.05018106 0.040287625 0.017512625 0.026386049
-0.023443485 0.05106468 -0.015982607 -0.008641275 -0.008413052 0.060497254 -0.0051451493 0.02983981
-0.012018714 0.029325057 0.012654471 -0.019669231 -0.0041631777 -0.015672797 0.06866889 0.02605175
0.06190056 0.05246175 -0.010542224 -0.016629782 0.067415684 -0.0036340267 -0.0101922285 0.049735002
-0.033593707 0.017288068 -0.014064629 -0.028162595 -1.4797379e-05 -0.03266734 -0.048314307 -0.018882465
0.045135073 -0.025449155 -0.029031198 0.040842857 -0.014808588 0.029480439 -0.0047940416 0.0030017646
-0.01513943 0.021650046 -0.05389035 -0.000106894426 -0.008024328 -0.015917197 -0.034181226 0.0266083
-0.0061075515 0.026196918 -0.004530589 -0.007892284 -0.0135930525 0.0029080848 0.011880676 0.046458915
0.04850698 -0.0061795465 -0.009117502 -0.027995005 0.027773092 0.016209405 -0.0012836665 -0.027120978
-0.012331029 0.029113237 0.023912946 -0.0037565716 0.029137691 0.04520739 -0.03853818 -0.0028985676
00000000: 0bdd 023d 4cde 3ebd 3bec efbc 0161 ba3c
00000010: 9340 4ebd 6c9d 04bb 245b 11bd 3250 c33c
00000020: 2f6b 62bd a639 9dbb 7ac0 633d 90f6 d93c
00000030: b519 db3c e1fb 1e3d c3ef 4b3d 69ae 7d3a
00000040: 8077 94bb 0606 c73c 5e4d 2bbc c483 183c
00000050: 8c9e 17bd 82c7 e3bc 99f7 a33c 9279 34bd
00000060: af77 e23c 678f 1a3d 7792 efbb 9a34 0ebd
00000070: 4f40 9c3c 0e08 453c 7eaa f6bc 601d f8bc
00000080: 34e1 fcbc 3184 4c3c ab44 8a3c 50a7 5dbd
00000090: 5655 313c 3326 503d 4611 f73c 8427 febc
000000a0: 6937 373c 509c f1bc 5ea3 bb3c 2583 2f3d
000000b0: f00e f7bc 421f 6f3c 2e12 4d3d e038 3a3d
000000c0: df37 153d 3b8e 4a3d 63cf 133d 1a6a d4bc
000000d0: b8cf 7c3d cb9b 4b3d 2286 893d ac3c 3d3d
000000e0: ba9b 993c a07f 7c3d dd4d 863b 060d 983c
000000f0: b5ee 143d 3df7 53bc cee4 343c 750b 063d
00000100: 8318 023d 180b 123d 77ad b33c 5574 3fbc
00000110: 8474 913b dcaf ae3c 6438 8ebc 0724 d03c
00000120: 4699 433c 7578 253d d304 0ebc adda bf3c
00000130: daea a13b 772d a83c 635d 603b 2a8c 20bc
00000140: 3df1 273d 20ac 4a3d 6649 903c ce1d b43c
00000150: 97ea b93b 01a1 aa3b 51ea 693d 2641 493d
00000160: 6893 743d a954 813d cfab f73c b2b4 07bd
00000170: 0851 8cbc 53ec c73b 0ac0 9cbc 0332 923c
00000180: 7a6e e4bc a436 b03c 6325 07bd de36 1abd
00000190: 3212 e2bc 58f0 303d b3b1 27bc b180 203d
000001a0: c2a3 1dbd 0c4c 8cbb f312 88bc 501e e23c
000001b0: 77d4 68bd 48c6 f5bc 4fd8 19bd b4b4 aebc
000001c0: 3d07 283d c7a9 9e3c 66a2 86bd 2b64 bb3c
000001d0: 17d2 6c3c 9bb3 91bc f3b4 31b9 e201 06bd
000001e0: ddaa 543d c984 c9bc 4ba9 343d 3190 dbbc
000001f0: a8c6 033d 8c3e 183d 4d1f 98bc 84ac b53c
00000200: b3ea a1bc dd63 db3c 6ff6 d2bb 7755 6fbc
00000210: fe6e 313d c3e8 04bd abbf cd3c 5e90 fb3c
00000220: 0bdc fabc 8d9d d1bc e0fb fc3c eada b13c
00000230: 0899 9bb9 5281 40bc 5364 533d e659 043d
00000240: 5693 d4b9 0c62 2d3c 4968 713d 50f2 10bd
00000250: 2be2 a93c 568c b5ba eb20 b9bc 5b29 173c
00000260: 7c06 17bc d3fc 9f3c 7a3e 0c3d 88d3 aabc
00000270: 9b7c bbbc 8d1e 7fbc 4710 21bc 3b40 b33c
00000280: 6c45 443d 8a5b d43c 6f99 95bc 8882 523c
00000290: f210 7739 6dd3 c53c c920 f83c 5c3b 403d
000002a0: 02c0 3fbc 80c1 7a3b d61b 703d d4ae b7bb
000002b0: 8fa5 1c3d 3446 83bc fe97 d33c 4ce9 28bc
000002c0: 55ea 5d3d 1783 18bd f22b bc3b 6ec8 643c
000002d0: a88a 4d3d a304 253d a376 8f3c 8e27 d83c
000002e0: 8d0c c0bc 3329 513d f5ed 82bc 2294 0dbc
000002f0: e6d6 09bc f8cb 773d a498 a8bb 9e72 f43c
00000300: 24ea 44bc 1a3b f03c b354 4f3c 5e21 a1bc
00000310: 446b 88bb 3d64 80bc 46a2 8c3d 7b6a d53c
00000320: 718b 7d3d 22e2 563d 4bb9 2cbc 2e3b 88bc
00000330: 3c11 8a3d da28 6ebb 4efd 26bc eeb6 4b3d
00000340: 8e99 09bd b59f 8d3c 546f 66bc 3eb5 e6bc
00000350: 4242 78b7 30ce 05bd 39e5 45bd 66af 9abc
00000360: 8edf 383d bf7a d0bc d6d2 edbc d74a 273d
00000370: b89f 72bc f680 f13c 5617 9dbb 41b9 443b
00000380: 5f0b 78bc 705b b13c 21bc 5cbd 822c e0b8
00000390: 7978 03bc c864 82bc 9d01 0cbd a6f9 d93c
000003a0: db21 c8bb eb9a d63c 5675 94bb a34e 01bc
000003b0: 65b5 5ebc 9195 3e3b 2ba7 423c b44b 3e3d
000003c0: 41af 463d cb7d cabb 9361 15bc c855 e5bc
000003d0: 6584 e33c 96c9 843c b340 a8ba d02c debc
000003e0: 1608 4abc e27e ee3c 15e5 c33c d030 76bb
000003f0: 2bb2 ee3c 622b 393d 36da 1dbd e5f5 3dbb
