Auxillary_Code/LCNN/project/03-asvspoof-mega/lfcc-lcnn-attention-oc/03/__pretrained/trained_network.pt (torch, 720973 bytes, 35 tensors)

m_frontend.0.lfcc_fb f4 [257, 20]
00000000: 0000 0000 0000 0000 0000 0000 0000 0000
00000010: 0000 0000 0000 0000 0000 0000 0000 0000
00000020: 0000 0000 0000 0000 0000 0000 0000 0000
00000030: 0000 0000 0000 0000 0000 0000 0000 0000
00000040: 0000 0000 0000 0000 0000 0000 0000 0000
00000050: 0000 a83d 0000 0000 0000 0000 0000 0000
00000060: 0000 0000 0000 0000 0000 0000 0000 0000
00000070: 0000 0000 0000 0000 0000 0000 0000 0000
00000080: 0000 0000 0000 0000 0000 0000 0000 0000
00000090: 0000 0000 0000 0000 0000 0000 0000 0000
000000a0: 0000 283e 0000 0000 0000 0000 0000 0000
000000b0: 0000 0000 0000 0000 0000 0000 0000 0000
000000c0: 0000 0000 0000 0000 0000 0000 0000 0000
000000d0: 0000 0000 0000 0000 0000 0000 0000 0000
000000e0: 0000 0000 0000 0000 0000 0000 0000 0000
000000f0: ffff 7b3e 0000 0000 0000 0000 0000 0000
00000100: 0000 0000 0000 0000 0000 0000 0000 0000
00000110: 0000 0000 0000 0000 0000 0000 0000 0000
00000120: 0000 0000 0000 0000 0000 0000 0000 0000
00000130: 0000 0000 0000 0000 0000 0000 0000 0000
00000140: 0000 a83e 0000 0000 0000 0000 0000 0000
00000150: 0000 0000 0000 0000 0000 0000 0000 0000
00000160: 0000 0000 0000 0000 0000 0000 0000 0000
00000170: 0000 0000 0000 0000 0000 0000 0000 0000
00000180: 0000 0000 0000 0000 0000 0000 0000 0000
00000190: 0000 d23e 0000 0000 0000 0000 0000 0000
000001a0: 0000 0000 0000 0000 0000 0000 0000 0000
000001b0: 0000 0000 0000 0000 0000 0000 0000 0000
000001c0: 0000 0000 0000 0000 0000 0000 0000 0000
000001d0: 0000 0000 0000 0000 0000 0000 0000 0000
000001e0: ffff fb3e 0000 0000 0000 0000 0000 0000
000001f0: 0000 0000 0000 0000 0000 0000 0000 0000
00000200: 0000 0000 0000 0000 0000 0000 0000 0000
00000210: 0000 0000 0000 0000 0000 0000 0000 0000
00000220: 0000 0000 0000 0000 0000 0000 0000 0000
00000230: 0000 133f 0000 0000 0000 0000 0000 0000
00000240: 0000 0000 0000 0000 0000 0000 0000 0000
00000250: 0000 0000 0000 0000 0000 0000 0000 0000
00000260: 0000 0000 0000 0000 0000 0000 0000 0000
00000270: 0000 0000 0000 0000 0000 0000 0000 0000
00000280: 0000 283f 0000 0000 0000 0000 0000 0000
00000290: 0000 0000 0000 0000 0000 0000 0000 0000
000002a0: 0000 0000 0000 0000 0000 0000 0000 0000
000002b0: 0000 0000 0000 0000 0000 0000 0000 0000
000002c0: 0000 0000 0000 0000 0000 0000 0000 0000
000002d0: 0000 3d3f 0000 0000 0000 0000 0000 0000
000002e0: 0000 0000 0000 0000 0000 0000 0000 0000
000002f0: 0000 0000 0000 0000 0000 0000 0000 0000
00000300: 0000 0000 0000 0000 0000 0000 0000 0000
00000310: 0000 0000 0000 0000 0000 0000 0000 0000
00000320: 0000 523f 0000 0000 0000 0000 0000 0000
00000330: 0000 0000 0000 0000 0000 0000 0000 0000
00000340: 0000 0000 0000 0000 0000 0000 0000 0000
00000350: 0000 0000 0000 0000 0000 0000 0000 0000
00000360: 0000 0000 0000 0000 0000 0000 0000 0000
00000370: 0000 673f 0000 0000 0000 0000 0000 0000
00000380: 0000 0000 0000 0000 0000 0000 0000 0000
00000390: 0000 0000 0000 0000 0000 0000 0000 0000
000003a0: 0000 0000 0000 0000 0000 0000 0000 0000
000003b0: 0000 0000 0000 0000 0000 0000 0000 0000
000003c0: ffff 7b3f 0000 0000 0000 0000 0000 0000
000003d0: 0000 0000 0000 0000 0000 0000 0000 0000
000003e0: 0000 0000 0000 0000 0000 0000 0000 0000
000003f0: 0000 0000 0000 0000 0000 0000 0000 0000
0.0 0.0 0.0 0.0 0.0 0.0 0.0 0.0
0.0 0.0 0.0 0.0 0.0 0.0 0.0 0.0
0.0 0.0 0.0 0.0 0.08203125 0.0 0.0 0.0
0.0 0.0 0.0 0.0 0.0 0.0 0.0 0.0
0.0 0.0 0.0 0.0 0.0 0.0 0.0 0.0
0.1640625 0.0 0.0 0.0 0.0 0.0 0.0 0.0
0.0 0.0 0.0 0.0 0.0 0.0 0.0 0.0
0.0 0.0 0.0 0.0 0.24609374 0.0 0.0 0.0
0.0 0.0 0.0 0.0 0.0 0.0 0.0 0.0
0.0 0.0 0.0 0.0 0.0 0.0 0.0 0.0
0.328125 0.0 0.0 0.0 0.0 0.0 0.0 0.0
0.0 0.0 0.0 0.0 0.0 0.0 0.0 0.0
0.0 0.0 0.0 0.0 0.41015625 0.0 0.0 0.0
0.0 0.0 0.0 0.0 0.0 0.0 0.0 0.0
0.0 0.0 0.0 0.0 0.0 0.0 0.0 0.0
0.49218747 0.0 0.0 0.0 0.0 0.0 0.0 0.0
0.0 0.0 0.0 0.0 0.0 0.0 0.0 0.0
0.0 0.0 0.0 0.0 0.57421875 0.0 0.0 0.0
0.0 0.0 0.0 0.0 0.0 0.0 0.0 0.0
0.0 0.0 0.0 0.0 0.0 0.0 0.0 0.0
0.65625 0.0 0.0 0.0 0.0 0.0 0.0 0.0
0.0 0.0 0.0 0.0 0.0 0.0 0.0 0.0
0.0 0.0 0.0 0.0 0.73828125 0.0 0.0 0.0
0.0 0.0 0.0 0.0 0.0 0.0 0.0 0.0
0.0 0.0 0.0 0.0 0.0 0.0 0.0 0.0
0.8203125 0.0 0.0 0.0 0.0 0.0 0.0 0.0
0.0 0.0 0.0 0.0 0.0 0.0 0.0 0.0
0.0 0.0 0.0 0.0 0.90234375 0.0 0.0 0.0
0.0 0.0 0.0 0.0 0.0 0.0 0.0 0.0
0.0 0.0 0.0 0.0 0.0 0.0 0.0 0.0
0.98437494 0.0 0.0 0.0 0.0 0.0 0.0 0.0
0.0 0.0 0.0 0.0 0.0 0.0 0.0 0.0

m_transform.0.0.weight f4 [64, 1, 5, 5]
00000000: 7276 1cbe 838a 063e 9f7c 73bd 9003 82bc
00000010: d876 053d 778e d03d 6750 cbbd acc4 39be
00000020: 3cb3 02be 7e92 23be 192d 1bbe c758 ba3d
00000030: 310d 873d faa5 cc3d a639 dbbc 0d6e 253e
00000040: 8ed1 473e 1b88 903d 74c3 dfbd 54c5 9bbd
00000050: 3ee2 fabd 11cd 033e 9b6f bc3b 2aaf 443e
00000060: 62cf 53bd b81f 473e 4390 c93d b1dc 353d
00000070: 0fb1 78bd e039 193d 26db 473d 9df0 afbd
00000080: 5533 193e 5da6 8a3c 98ef 55be fe95 a6bd
00000090: ec27 5b3e f309 0d3e cf1b c2bd d030 1d3e
000000a0: ae56 193d 920d 03be 707c 9a3d 33dd b9bd
000000b0: 8133 b6bd ce07 1b3d 73a8 1abe b539 ddbc
000000c0: c37e 083e 2787 063c 248c 133c 3c62 b83d
000000d0: 8f4f ecbc 1083 92bd c9bc 8a3c 8b40 9d3c
000000e0: 4b7a a73d b647 74bd 2cfd 2f3e 1244 e23d
000000f0: 1e7e c6bd 31ed 8b3d e4b2 ec3c 5dc7 303e
00000100: dcac 0b3e d9c4 a03d 48fe ea3d fb20 623d
00000110: 5651 97bd f313 09be d2a9 1c3e 0b9f b93d
00000120: 9279 1dbe e99f 903d b4e6 04bd 30c2 28be
00000130: cea3 4f3e ae28 943c 00b5 1c3e a6ca 9dbc
00000140: 0cd4 15be 52f9 373e 0960 cabd 7f2e 0abe
00000150: 2ff3 393e 32bf 77bd 68ac 9ebd e9e1 2f3e
00000160: 88af ea3d a5de f1bd fb67 173c 2eac cebd
00000170: e34f 223e 265a 7dbe 97ec d6bd fbc1 65bd
00000180: fc8c f1bd 6cbc 363e 1e93 20be 45f9 253c
00000190: 0d71 0f3d 7080 19bd f9f6 fc3c ca59 32bd
000001a0: d41a 19be 572c 2c3e e15e b4bd 4d43 963d
000001b0: 840f 003e 5ec1 843d b70d 26be 5995 b23b
000001c0: 377a 6c3d 6cc1 db3d 08c3 0d3e 06dd 2e3e
000001d0: c96e c8bb 81d2 443e 6f14 dbbc e716 ffbd
000001e0: 0124 c1bd b205 453e 7b09 df3d 9194 683d
000001f0: b9a6 d2bd d090 04be 8a28 82bc 59b1 6f3c
00000200: 1c23 22be b41e 1c3e 834d ddbd 4ec2 88bd
00000210: 323b f9bd 3af4 273d ce10 ddbd 2ff5 493e
00000220: b9c6 6b3e 5217 603d eebc 64bd 11a4 563e
00000230: 90ca 1e3e f59c 683e 6b2f 12be 3600 163d
00000240: 92a3 c73c 316c a3bd 44c9 12bd f788 d83c
00000250: ef8a 4b3e 00b2 4cbe 38ab ffbd bef3 993c
00000260: 1a7a ecbd 82e2 01bb da36 2dbe f376 1dbe
00000270: 7f58 8f3d 5bfa 6cbd ab99 9a3d b4d6 b43d
00000280: f49f 97bd cdeb 083e 4c10 773d a95f 75bd
00000290: 5963 1cbe 7021 6fbd b251 603e bc98 d2bd
000002a0: 5334 20be e78a 10be 8730 3a3e 8394 c53d
000002b0: e1dc d3bd f125 423e 261e 16be f5f0 42be
000002c0: a529 1abe d00b b23d efca c9bd ab82 b6bd
000002d0: 12d6 7abd 82ab fabd ce39 223e 1666 bf3a
000002e0: f443 43bd 7b4f 3a3e c932 46be cf68 c6bd
000002f0: 9b6e 393e 4919 1ebe 5fb1 913d 4210 13be
00000300: 4bd6 2fbe dfbe 92bd 0a5b 2fbe e597 6dbd
00000310: 0417 febd fb69 f4bd bc36 52bd 6070 d1bd
00000320: ef57 d3bd 27e2 fdbc 9dd7 de3c 7321 3dbd
00000330: 0829 e7bd 50fd 1f3e 3226 34be 0d42 273e
00000340: 2375 533d 19ae 70bd 87cb 2bbe 8762 d43c
00000350: fcf2 37be 0539 143e 98a3 eabc 74c3 2ebe
00000360: 4d7b 3b3e b92c f43b 953f aa3d 04c1 05bd
00000370: 86cf 2d3e 5c32 d2bd 7454 2bbe e3ce e63d
00000380: d384 fabc 2e34 203d d43c 46be 6165 063d
00000390: f838 61be 83d8 05bd 7a57 93bd 4c8f 65be
000003a0: 9d25 963b 8256 b6bd 4e6c 0ebc b6b6 26be
000003b0: 57ae 013e 86ff 3dbe 65ea 22be 0e71 04be
000003c0: 59aa 1dbe f025 643c b552 5bbd da62 373d
000003d0: b3be 4d3d b1a5 3e3e 24ac a3bd 976c 57bd
000003e0: 494a 5dbe 7701 81bc 58ec 373e 66e8 0dbe
000003f0: 21f5 27be 3208 183e 3738 b53d df0b 0e3e
-0.15279558 0.13138776 -0.05944502 -0.01587084 0.03258404 0.10183423 -0.09927445 -0.1814143
-0.12763685 -0.15973851 -0.15153922 0.09098964 0.06594313 0.09992595 -0.026760887 0.16155262
0.19513533 0.0705721 -0.109259516 -0.07605997 -0.122501835 0.12871195 0.005750609 0.19207445
-0.051711448 0.19445693 0.09841969 0.04439992 -0.06071573 0.03740871 0.04879298 -0.08590815
0.14960988 0.016925031 -0.20892179 -0.081340775 0.21401948 0.13773327 -0.0947796 0.15350652
0.03743618 -0.12798145 0.07543266 -0.090753935 -0.08896542 0.03784924 -0.15103321 -0.027005056
0.13329606 0.008210934 0.00900558 0.09003112 -0.02884653 -0.071539044 0.016935723 0.019195816
0.081776224 -0.0596387 0.17186421 0.1104814 -0.09692024 0.0683235 0.028893895 0.17263551
0.1364016 0.07850046 0.114742815 0.055207234 -0.073885605 -0.13386516 0.15299156 0.09063538
-0.15378407 0.070617504 -0.03244658 -0.16480327 0.2027733 0.018085804 0.15303421 -0.01926167
-0.1463167 0.17966202 -0.098815985 -0.134943 0.18159173 -0.060485072 -0.07747728 0.17176022
0.11459261 -0.11810044 0.0092410995 -0.100914344 0.15850787 -0.2474142 -0.10494345 -0.056093197
-0.11794469 0.17845315 -0.15681121 0.010130231 0.035019923 -0.037476003 0.030879484 -0.04354266
-0.1495164 0.1681379 -0.08807159 0.07337055 0.12505919 0.06482194 -0.1621617 0.0054499325
0.05773374 0.10730252 0.1384393 0.17076501 -0.0061167222 0.19220926 -0.026743142 -0.1245554
-0.09430695 0.19240454 0.1089048 0.05678231 -0.10285706 -0.12945867 -0.015888471 0.014629685
-0.15833706 0.15246087 -0.108058 -0.06677686 -0.12169494 0.041004397 -0.10794221 0.19722436
0.23025025 0.05470974 -0.05584424 0.20961024 0.15506959 0.22716124 -0.14275901 0.036621295
0.024369989 -0.0797962 -0.035836473 0.026432497 0.19877218 -0.19989777 -0.12483829 0.018792983
-0.115467265 -0.0019818847 -0.16915455 -0.15377407 0.06999301 -0.057855945 0.07548841 0.08830014
-0.074035555 0.13371201 0.060318276 -0.05990568 -0.15272273 -0.058381498 0.21906164 -0.10283038
-0.1564496 -0.14115487 0.18182574 0.09647467 -0.10344864 0.18959786 -0.14659938 -0.1903723
-0.15054949 0.08693659 -0.0985316 -0.08911642 -0.06123931 -0.12239744 0.15842363 0.0014602568
-0.047672227 0.18194382 -0.1935531 -0.096879594 0.18108599 -0.15439333 0.07113909 -0.1436167
-0.1717159 -0.07165312 -0.17124572 -0.058006186 -0.12406734 -0.11934277 -0.05132173 -0.10226512
-0.103195064 -0.030991627 0.027202422 -0.046174478 -0.11287123 0.15623975 -0.17592695 0.1633379
0.051625382 -0.058759782 -0.16776858 0.025925888 -0.17963785 0.14474876 -0.02864246 -0.17066747
0.18308754 0.0074516204 0.083129086 -0.032654777 0.16973695 -0.102635115 -0.16731435 0.11269929
-0.030580914 0.039112262 -0.19359142 0.032811526 -0.21994388 -0.032677185 -0.07194419 -0.22417945
0.0045821206 -0.08903219 -0.008692814 -0.16280636 0.12664162 -0.18554506 -0.15909727 -0.12933752
-0.15397014 0.013925061 -0.053545672 0.044772007 0.050230693 0.18617894 -0.079918176 -0.052593794
-0.21610369 -0.015747769 0.17961252 -0.13858184 -0.16402103 0.14846876 0.08848613 0.13871716

m_transform.0.0.bias f4 [64]
00000000: 029a 72bd ffe3 0f3e a8e9 f6bd 4668 57bc
00000010: 1377 3a3d bd79 03be a410 b9bd d15a 22be
00000020: 4e0a edbd 344c 43bd 318b e2bd 2b5f 30bc
00000030: f79c 4cbe 1291 7fbd bdd0 1bbe 5e1b c83d
00000040: 6db0 5c3e da22 d03d f100 ae3d 7726 ae3d
00000050: 04f5 0e3e 2015 b33d 1502 a83d 95ad 03be
00000060: d985 1d3e f59a 41be d798 07be 12f8 0f3d
00000070: fc49 403e eb88 5bbd f444 e53d fdf2 2cbe
00000080: b460 643e e870 403e 598b 393e 79b9 823d
00000090: 38ce 41be 19d0 c13d 03b9 8e3d 1b13 c1bd
000000a0: 9fa0 193e f26c 513e 78d6 253e dfb8 40be
000000b0: ba62 1cbe 361c 59be 3ef7 213e 11e2 43be
000000c0: 5872 4abe cc9e c6bc 4792 0cbd 0406 7e3d
000000d0: 8368 54be 8706 023e aafb 2e3e 4f89 efbd
000000e0: 7378 0abe e98b 8fbd 349e a23d f05a 31be
000000f0: 2567 193e 30ea a83c be24 23be f05d 44be
-0.059228905 0.14051817 -0.12056285 -0.013147419 0.045523714 -0.12839408 -0.09036377 -0.15854956
-0.11574231 -0.047680095 -0.11061705 -0.010764877 -0.19981752 -0.06239421 -0.15216346 0.09770845
0.21551676 0.101628974 0.08496273 0.0850343 0.13960654 0.08744264 0.08203522 -0.12859185
0.1538309 -0.18906768 -0.13241898 0.035148688 0.18778223 -0.053597372 0.111947924 -0.16889568
0.22302514 0.1879307 0.18119563 0.06383032 -0.18926322 0.094635196 0.06968882 -0.09427472
0.15002678 0.20451716 0.16195095 -0.18820523 -0.15272036 -0.21202168 0.15816972 -0.19129206
-0.19770181 -0.024245642 -0.03431919 0.062017456 -0.20742993 0.12697802 0.1708819 -0.116961114
-0.1352251 -0.070091076 0.07940331 -0.17319846 0.14980753 0.020619482 -0.15931985 -0.1917646

m_transform.0.3.weight f4 [64, 32, 1, 1]
00000000: fe7f 5cbd 860a 42bd 432e 3dbb 227d 0fbe
00000010: 8a58 cd3d b9e6 2fbc f77c 1bbe ce03 ad3d
00000020: b487 a2bd 776d 123e 6d50 36bb 884c e33d
00000030: 965b 0c3e b523 35bc 183e 07be 44b4 34be
00000040: ee9b 37bd f466 67bd c3c8 11be a076 0e3e
00000050: 650a 063e 27b4 943c 0800 8a3c 743b 18be
00000060: 2cb6 49be 7720 573a 2221 883d a996 49be
00000070: 97ca 99bb 2aa9 19be b0ff 62bd f634 d23d
00000080: aba4 063e d4ec 12bd af79 04be 6929 09be
00000090: ee41 d5bd 41b6 fa3d fc4c fa3c fca3 e43d
000000a0: 09b4 223e fac4 26be a569 a5bc a27c f7bd
000000b0: 7897 3bbe ac8a 20be fd89 2a3d 7403 6d3d
000000c0: f0e8 353e a2c1 11be cf43 8a3d d34c 7abd
000000d0: 2df0 7dbc 9cc1 123d 2fa9 013e bb95 863d
000000e0: 6bdb 69bd 229e e1bc 8bc5 133e 4392 e43d
000000f0: f298 4abe 2b5a f53d 0022 2bbe 6cef 2bbe
00000100: 61bc a1bd 234c 08bb 4b38 563d 5e6c 093e
00000110: e3ad cabd e573 06be 94d6 0c3e 8bba 01be
00000120: 5192 1f3c f3ae af3c d944 9cbd 0254 90bd
00000130: a3be 00be f596 07be 063e 023e 87ed 213e
00000140: b89a 693d 0266 003e f7b1 92bd 3ed0 f5bd
00000150: 8c63 903d b887 1cbe bdb2 163e 826e 8cbc
00000160: 82b0 f73c 07ae 86bd de3d 8ebc f32a 0cbd
00000170: d587 af3c e097 663d 2ca6 4bbd 30f8 893d
00000180: fd6f 1f3d 3e94 a0bb 71ac 0a3d 2591 21bd
00000190: 1e07 bb3d 96bd 5fbd c04a 813d c272 6d3d
000001a0: 297d f23d b03f 43bc f8f9 ee3d 4964 09be
000001b0: 5e7b 88bd aad8 3abb f03b 45bd d238 ba3d
000001c0: 7b92 bcbd bf5a 05be 90a9 81bb 0d58 15bd
000001d0: 45c3 093e b8db a33d 6ab7 d73d 4572 89bd
000001e0: dc6a 0abe 1938 d63d ccba c53d 1768 3dbc
000001f0: 0692 afbd 6f97 bcbd e3a5 0b3e 4125 6cbd
00000200: aa49 2e3e 8ae6 eebb 57e8 51bd a3b6 0b3e
00000210: 5381 e83c 4d3d e5bd 8f8c d3bc fe1f 8f3d
00000220: 440c 4bbe f72d 2e3d f23f c23d 23d7 f0bd
00000230: aabd 35bd 46b9 9cbd 9b7f 09be 220e 8ebd
00000240: fa62 de3d 2bba 39bd 10d8 26be 0996 b03c
00000250: 5a90 c9bd 4042 e5bd 7186 7dbd f298 aebc
00000260: d44b a0bd 37b6 ff3d ce76 03bb d84c 323e
00000270: 97f6 e03d f15b bdbb db43 293e 7315 223e
00000280: 2cea 22be 219d 063d 81bf 99bd 7ce8 bb3c
00000290: 193d 113e 05f8 3c3d 5502 893d 6137 093e
000002a0: 112c 0d3e e6c0 6c3d c795 d9bc 78c3 fbbd
000002b0: 8586 20be 99ef fcbc 9fe7 243e 1219 a83d
000002c0: 346f bbbd c5e1 913c 6144 47be a546 d2bd
000002d0: 1316 203e 6d55 013e 02f0 cebd f8c7 06be
000002e0: 7dd0 063e c896 1b3e 526c d6bc 0587 16be
000002f0: 9ced e13d 35ec 88bd 88a2 ba3d a132 2bbd
00000300: 2c8e 98bd a75b f3bd 9901 92bd b0ad eebd
00000310: 4790 81bd d0d3 2ebe 0a69 9ebd 29b3 37bc
00000320: ff7c 1bbe 4572 db3a 7ebf 483d c9a5 29be
00000330: a3ab e23d 22e5 1b3d 510c 933d 37e5 b13d
00000340: 8e44 893d e493 d33d 97f4 19be 14cd 13be
00000350: 2500 10be ed08 f6bb a053 303d 9813 75be
00000360: dd52 823d fd40 75be 33c6 75bd 8898 90bd
00000370: b674 8c3d dcc9 cbbb 28b5 8dbd 05cd e8bd
00000380: 7d6b f5bd c635 fdbd f318 8abd bebf 4cbd
00000390: ddd7 bf3d 97d5 33be 5463 893d c9bc 823b
000003a0: 60e4 fa3c 5abd 1b3e 996d 2cbe 89aa 83bd
000003b0: f1fa 2bbd 1aab d5bb 82f6 173e 066d b33d
000003c0: b26e 08be b37e c2bc 4a91 9fbd 552a 13be
000003d0: a30d b03d c3f3 2dbe 1370 053e 70b7 d3bd
000003e0: d336 173e 3f7f 93bc cd34 3cbe 7360 a63d
000003f0: cee4 833c 67ec f03d 1622 f83c eba8 29be
-0.053833 -0.047373317 -0.0028866685 -0.14012578 0.10026653 -0.010736161 -0.15184389 0.08447991
-0.079360396 0.1429957 -0.0027818934 0.110985816 0.13706812 -0.0110558765 -0.1320728 -0.17646891
-0.04482644 -0.056494668 -0.14236741 0.1391244 0.13089903 0.01815231 0.016845718 -0.1486643
-0.196984 0.0008206437 0.066469446 -0.19686379 -0.00469334 -0.15005937 -0.055419624 0.10264008
0.13148753 -0.03587039 -0.12937044 -0.13394703 -0.10412966 0.122417934 0.030554287 0.1116409
0.1588899 -0.16286078 -0.020191977 -0.12084319 -0.183195 -0.15677899 0.041635502 0.05786462
0.1776464 -0.14234021 0.06751215 -0.06110842 -0.015499157 0.03582917 0.12662195 0.065715276
-0.05709402 -0.027541224 0.14430825 0.1116071 -0.19784907 0.11980089 -0.16712189 -0.16790551
-0.078972585 -0.0020797334 0.05229978 0.13420245 -0.098964475 -0.13130148 0.1375373 -0.12668817
0.009739474 0.021445727 -0.07630319 -0.07047273 -0.12572722 -0.1324118 0.12718973 0.15813266
0.057032317 0.12538913 -0.0716285 -0.1200261 0.07050237 -0.15286148 0.1471662 -0.017142538
0.030235533 -0.06576162 -0.017363485 -0.034220647 0.021427074 0.056297183 -0.04971902 0.06736791
0.03892516 -0.0049004843 0.03385586 -0.03944506 0.09132217 -0.054624163 0.063130856 0.05797077
0.11840279 -0.01191704 0.116687715 -0.13417162 -0.066641554 -0.002851049 -0.048152864 0.09092869
-0.092076264 -0.13022898 -0.003956981 -0.036460925 0.13453396 0.080008924 0.1053303 -0.06711248
-0.13517326 0.104599185 0.09654769 -0.0115604615 -0.08572774 -0.09208571 0.136375 -0.057652716
0.17020288 -0.007290666 -0.051246967 0.13643889 0.02838198 -0.11193333 -0.02582386 0.06988524
-0.19828898 0.042524304 0.09484853 -0.11759784 -0.04437033 -0.076525256 -0.13427584 -0.06936289
0.10858722 -0.04534356 -0.16293359 0.021555917 -0.09841986 -0.11194277 -0.06189579 -0.021313164
-0.07826963 0.124859266 -0.0020059827 0.17412126 0.10984533 -0.0057787825 0.16529791 0.15828495
-0.15909642 0.032864694 -0.075072296 0.022938006 0.14183463 0.046134967 0.06689898 0.13400032
0.13786341 0.05780115 -0.026560677 -0.12293142 -0.15676315 -0.030875968 0.16103981 0.08207907
-0.0915207 0.01780785 -0.19459678 -0.102673806 0.1563342 0.12630244 -0.101043716 -0.1316222
0.1316547 0.15194237 -0.026174698 -0.14699943 0.110316485 -0.06685678 0.091130316 -0.04179633
-0.07448992 -0.11882716 -0.07129211 -0.11654222 -0.06326347 -0.17072988 -0.07734878 -0.011212149
-0.15184401 0.0016742429 0.049010746 -0.16567148 0.11067893 0.038060315 0.071800835 0.086862974
0.06702529 0.10330942 -0.1503471 -0.144337 -0.14062555 -0.0075083883 0.0430485 -0.23933256
0.06363461 -0.23950572 -0.06000347 -0.07060343 0.06858198 -0.006219132 -0.069193184 -0.11367229
-0.119833924 -0.12363772 -0.0674304 -0.049987547 0.093673445 -0.17561947 0.067083985 0.00398979
0.030626476 0.1520895 -0.16838683 -0.064290114 -0.041987363 -0.006520641 0.14840129 0.08761029
-0.13323477 -0.023742056 -0.077913836 -0.14371617 0.08596351 -0.16987519 0.13031034 -0.10337722
0.14767008 -0.018005012 -0.18379517 0.08123865 0.016100314 0.1176384 0.030289691 -0.16568343

m_transform.0.3.bias f4 [64]
00000000: e27c 1f3c ac5e fdbd ae91 243e 651e dcbd
00000010: a196 c13d be6e bc3d 2d01 073d 125c 6ebd
00000020: abe6 ad3d 131b 04be bf33 fbbc 9e8c acba
00000030: fc5d c3bd a868 423e 11d5 0d3e c5e0 9d3d
00000040: ac40 613a 5c43 bfbd 3d1d 31be f1c1 27bb
00000050: 11df 9dbd 48d2 9abd 7e1d b33c 6bb8 4cbc
00000060: 0efd 9cbd bfa1 f3bd 0232 223e 9afd cd3d
00000070: b83b 86bd e463 e9bd ac80 f83d bcdd 0abd
00000080: ece4 213e 0ca5 77bd c313 f03d 2bda 233e
00000090: 866c 3ebd 2b95 60bd cdea 43be 2e43 ffbd
000000a0: ba82 c6bd 6819 0dbe d1af 393e 5c6b ccbd
000000b0: f2a7 963d 97df a6bd 37ed a23d 46ba 823b
000000c0: bf6d 09be b50e bbbb e0d7 123d 7a49 393e
000000d0: 1d69 4ebd e053 1b3e 4361 123d ac72 0cbd
000000e0: 8e64 293c 0aa3 03be 2787 12be 32b7 cbbd
000000f0: 357c 7abc 44a1 113e 65fe ffbb 17cd 1abe
0.009734364 -0.12371573 0.16071197 -0.10747985 0.09452558 0.0920081 0.032960106 -0.058193274
0.08491262 -0.12900953 -0.030664323 -0.0013164466 -0.095394105 0.18985236 0.1385081 0.07708887
0.00085927057 -0.0933902 -0.1729631 -0.0025597776 -0.07708562 -0.07559639 0.021864649 -0.012495141
-0.07665454 -0.11896085 0.15839389 0.10058136 -0.06554359 -0.11396006 0.12133917 -0.03390287
0.15809983 -0.060460135 0.11722519 0.16001193 -0.046490215 -0.054829758 -0.19132538 -0.124639854
-0.09692903 -0.13779223 0.18133475 -0.09981415 0.07356252 -0.08148115 0.079554014 0.0039894907
-0.13420771 -0.0057085403 0.035850406 0.18094435 -0.050393213 0.15168715 0.035737287 -0.034289047
0.0103389155 -0.12855163 -0.14309369 -0.09947051 -0.015288402 0.14221674 -0.0078123086 -0.15117298

m_transform.0.5.running_mean f4 [32]
00000000: 41f7 803e 0fb0 96bd bdfb 793e 0833 f63d
00000010: 8415 c83d e0b8 dd3e 0600 7cbe de01 85be
00000020: 8cee 3a3e 5b00 273e 2e75 503e bfd5 173e
00000030: d3d4 833b a4b0 3b3e b9d6 d43e a390 963d
00000040: 9ce1 e33e 4e35 0a3f 5a38 373e 6098 c73b
00000050: 873d 09bc 24e3 e03c 1df0 d03c 14f8 473e
00000060: a536 57bc 65bc 38be 11f8 8e3e 721d a03e
00000070: 6839 a63e 8396 f83d 9e81 c33d 2a7b 9ebd
0.2518864 -0.07357799 0.24412437 0.12021452 0.09769729 0.4330511 -0.24609384 -0.25977987
0.18255061 0.1630873 0.203572 0.14827631 0.0040231734 0.18329102 0.4157007 0.07351806
0.44508064 0.53987586 0.1789259 0.0060911626 -0.008376486 0.02745206 0.02550512 0.19528228
-0.013135587 -0.18040617 0.27923635 0.31272465 0.32465672 0.12138083 0.09546207 -0.077383354

m_transform.0.5.running_var f4 [32]
00000000: 2bcd 7b3d 6f0f c53c f774 953c aa88 b83c
00000010: de5e c13c 4f40 c33d 2cd5 af3c 3be7 2f3d
00000020: 116d ac3c 70f4 ae3d 5f49 4c3d 775d e03c
00000030: e61c 633d 4476 cd3c 055f 983d 19b8 f83c
00000040: 6376 523e 806c 903e 347f 6c3d 1757 063d
00000050: b2de ac3c 35aa 9b3c 1008 fb3c b085 143e
00000060: f609 0b3d 8b11 2e3d ec78 d03c aa44 893d
00000070: df47 503e 8fb9 da3c e3f3 903c b992 d13c
0.06147496 0.02405521 0.01824425 0.022526104 0.023604807 0.0953375 0.021463953 0.042945128
0.0210481 0.085427165 0.04987466 0.027388318 0.05544748 0.025080808 0.074399985 0.030361222
0.20552973 0.2820778 0.057738498 0.0327979 0.021102283 0.01900206 0.030643493 0.14504123
0.033945046 0.0424972 0.025448285 0.0670255 0.20339917 0.02669981 0.01769442 0.025582658

m_transform.0.6.weight f4 [96, 32, 3, 3]
00000000: fb0d 8f3c e43d 813d b26b 7c3d 5e2e 80bd
00000010: bb9d 963d 6072 5e3d 55a3 2a3d 3fa6 a83d
00000020: 4463 76bd 01ad 1f3c 0650 6e3c 6cad 9fbd
00000030: 1182 7fbd d0a4 5abd 67c2 febc 574c 25bd
00000040: e446 113d cba5 043d b154 2dbd de35 a3bc
00000050: 9f20 edbc e9ab 2b3c 2d77 f0bb 9ace 243d
00000060: f6e2 b53b c00b 6fbc d6ab f2bc 7a94 063d
00000070: c3b4 33bd 8b80 0d3d 1587 0fbb f84a e13c
00000080: 767b c63c 15be 393b f78d 0fbc 0b5a 9b3b
00000090: c6cd 6abd ca54 85bd b3e4 203d 2a5a 86bc
000000a0: e184 61bb fa12 febc 6fbc 033d 54d2 16bd
000000b0: 0e87 0b3b 76b7 143d 793a 433b 40ee 3c3d
000000c0: 45b9 4abc 8a35 493d 6c2c 0cbd e988 25bd
000000d0: d7ec d23c 0532 c03c 31f9 2c3c 9b3c 4abd
000000e0: c48c b8bc 7866 883c 8d06 023d 317f 61bc
000000f0: 681d 5abd 1c90 5e3d 7c6b fb3c 5643 3a3d
00000100: 9d46 b6bb 623a 153d d80b 5e3d 3905 cebc
00000110: 368f 9bbd c361 efbc 8fdf 623d 3407 36bd
00000120: 58cb fb3b e61d a33c 87fc 853d 0905 fb3a
00000130: b9b9 6d3d e320 6dbc 87b6 56bd 4b9f cf3d
00000140: b012 9d3c 79bb f3bb cd82 1f3d 1aca 903d
00000150: 2ed5 7fbd 33be 443d a7d9 823d 9d98 a5bc
00000160: 3105 9b3d 2be5 ddbc e3bb 3b3d 2c7c 593d
00000170: e4a8 48bc 16b3 e7bc 6323 39bd 26a6 5bbd
00000180: f79c 183d 305d 4abd 260a dabc 733e 23bd
00000190: bc8d 90bd 0105 b8bb ca86 b0bd d122 36bd
000001a0: 97f3 1dbd 26d0 be3c 5f57 7dbd 97b5 383c
000001b0: a4dc 053d 8604 8f3b bc67 95bc 7c04 d2bb
000001c0: a608 34bd cccf 15bd af3d 82bc 91da 153a
000001d0: a025 3fbc 4b85 903d 53fb 6cbd 3f2f 1e3d
000001e0: 4764 b63c 17ca 95bc 0f9f d4b9 c6fe a6bc
000001f0: 16d4 a93d c230 44bb bc2d e8bb 8400 83bc
00000200: 6776 273d 8e92 b1bb ccad 6e3d edcd 5f3d
00000210: e32d 62bc b2dd 523a 175e 193c fcdb 243c
00000220: d0c7 88bd 8307 063d 82bc 45bd 65bd 7dbd
00000230: a2ea 8abd b7e2 b23a 1dc9 743b 20f0 633c
00000240: 73c5 25bd 7c1f 50bd 50b0 253d a7ce a9ba
00000250: 7ac7 abbb 8c89 2fbd 7b7e 2ebd 7cfa 20bc
00000260: a77e ca3c 24df 99bd 7151 43bb 58c7 9ebc
00000270: bcad 7cbc 16fc 7d3d dcce 3bbd 8c9f bd3c
00000280: 5560 223d 0ecd 50bd 294d 08bd 3622 ba3c
00000290: f8a5 6ebb 9dda 143b 943d 5f3d 6f07 433d
000002a0: 7832 9e3d 7c3a 783d ee0d d0bc a143 07bb
000002b0: f4d1 72bc b06d 68bc a197 c83c 5458 823c
000002c0: cec6 3fbc ccc1 883d d1ba 55bc fb89 af3b
000002d0: 1bab abbd 25c7 24bd 220d 1e3d f984 a3bd
000002e0: 48f9 a3bc be74 0f3d 3607 d7bb 786f 86bd
000002f0: f5f9 e9bb 8ea8 8cbd cedf 2a3c 698d 3dbd
00000300: 8df5 b3bd e673 813c 5401 dd3c 5013 b0bd
00000310: ce76 70bc 35b8 833b 9459 903d 1f49 52ba
00000320: fd3d 98bc a9e6 a73b a16d b73c f33a 18bd
00000330: e9ae 15bc 5938 38bc 4413 88bb f639 a43c
00000340: 788e 7bbd b524 59bd bb1a 52bd 8362 323d
00000350: 3cad 5f3c f3d1 7fbd 1640 21bd 0ddb 29bd
00000360: 5225 423d 6696 98bd 88cf b6bd d2a9 133d
00000370: 65bd ccb9 c9dd bfbd b18b 82bd 8a1b 553d
00000380: 3d64 cd3a eaad cc3c ac7f b43d b1cf 823d
00000390: 492b 033d 852f 06bc 2392 c6bb 53e9 23bd
000003a0: 0dec 963d a537 b83c 67ca 34bd 5ebb c5bc
000003b0: 4878 853d 7ded 0cbd b3c5 e33b 8ce6 843d
000003c0: 80cf 363d e64a 873d ba0c 5dbc 2d84 e4bc
000003d0: 0793 86bd 977b 35bd 7887 68bd 2be9 08bd
000003e0: fc03 b9bc c4ec 633c d2f0 ef3b aa12 823d
000003f0: d534 dabb 9e34 8ebb 4418 a6bc 9fdd 49bd
0.017462721 0.06310633 0.061626144 -0.06258844 0.073543034 0.054308295 0.04165967 0.08234834
-0.06015326 0.009745837 0.014545446 -0.077967495 -0.0623799 -0.053379834 -0.031098558 -0.040356006
0.035467997 0.032384675 -0.042317096 -0.019923147 -0.028946219 0.010477998 -0.0073384256 0.040236093
0.0055507375 -0.014590204 -0.029622953 0.032856442 -0.04387356 0.034546416 -0.0021900584 0.027501568
0.024228793 0.0028342057 -0.008761874 0.0047409586 -0.057325147 -0.06510313 0.039280605 -0.016400415
-0.0034411477 -0.031014908 0.032162126 -0.03682168 0.0021290216 0.036307774 0.002978949 0.04612565
-0.012373273 0.049123324 -0.03422205 -0.04041377 0.0257477 0.023461351 0.010557459 -0.049374204
-0.02252806 0.016650423 0.03174453 -0.013763235 -0.0532507 0.054336652 0.030690901 0.045474373
-0.005562617 0.03643263 0.054210514 -0.025148975 -0.07595675 -0.029221421 0.055388983 -0.044440463
0.0076841526 0.019911718 0.065423064 0.0019151281 0.058038447 -0.014473173 -0.052420165 0.101378046
0.01917395 -0.00743812 0.0389431 0.07069798 -0.062459163 0.04803295 0.0638917 -0.020214373
0.075693496 -0.027086815 0.04583348 0.053096935 -0.012247298 -0.028283637 -0.045199763 -0.05362525
0.03725907 -0.049405277 -0.026616167 -0.039854478 -0.07058284 -0.005615831 -0.08619459 -0.044466797
-0.038562384 0.023292612 -0.0618509 0.011273763 0.032681122 0.004364553 -0.018237941 -0.006409226
-0.04395356 -0.036575124 -0.015898554 0.0005716468 -0.011666685 0.070566736 -0.05785687 0.038619276
0.022264613 -0.01828484 -0.000405543 -0.020385157 0.08292405 -0.0029936288 -0.00708553 -0.015991457
0.0408844 -0.005419082 0.058271214 0.054639746 -0.013804886 0.00080438994 0.009360812 0.010062214
-0.06678736 0.032722007 -0.04827548 -0.0619482 -0.06783034 0.0013647889 0.0037351318 0.013912231
-0.040471505 -0.050811276 0.040451348 -0.0012955264 -0.0052422853 -0.042855784 -0.04260109 -0.009825345
0.024718596 -0.07513264 -0.0029803182 -0.019382164 -0.015422281 0.062007986 -0.045851573 0.023147367
0.03964265 -0.050976805 -0.03327671 0.022721391 -0.0036414843 0.0022713311 0.054502085 0.04761451
0.0772447 0.06060265 -0.025397267 -0.0020639675 -0.014820565 -0.014186308 0.024486365 0.015911259
-0.011705114 0.06677589 -0.013045029 0.0053570247 -0.08382245 -0.04022898 0.038586743 -0.07984347
-0.020016328 0.035023443 -0.006562139 -0.0656423 -0.007140393 -0.06868087 0.010429336 -0.046277437
-0.087870695 0.015802335 0.026978172 -0.085974336 -0.014676763 0.004019762 0.07048336 -0.000802176
-0.018584246 0.0051239324 0.022391142 -0.037165593 -0.00913594 -0.011243903 -0.0041526873 0.02004717
-0.061415166 -0.053013522 -0.051295023 0.04355098 0.013652142 -0.062456083 -0.039367758 -0.04146867
0.047398873 -0.07450561 -0.08926302 0.036050625 -0.00039051022 -0.09368474 -0.063743 0.052028216
0.0015670132 0.024985272 0.08813414 0.0638727 0.0320237 -0.0081900405 -0.0060599013 -0.040017437
0.07369242 0.02248747 -0.04413834 -0.024137195 0.065170825 -0.034406174 0.006951058 0.06489286
0.04463148 0.066060826 -0.013491804 -0.027895058 -0.06571012 -0.044307318 -0.056769818 -0.03342549
-0.022584908 0.01391143 0.007322409 0.06351216 -0.00665913 -0.0043397686 -0.020275243 -0.04928362

m_transform.0.6.bias f4 [96]
00000000: c78d 853d a076 26bd b465 91ba ad86 89bc
00000010: 16a4 9bbc b260 21bd 8834 003d a935 45bd
00000020: 1ff8 2bbd 88c6 dd3c 7380 ffbc c2d1 b9bc
00000030: 2a67 053d 4a34 fb3c 2968 12bd bf45 1c3d
00000040: 8c1a 73bd 82ed 5a3d b136 b9bc 07f4 7fbd
00000050: 7b36 46bd 8c82 09bd 2906 843d 5910 4a3c
00000060: 9022 59bd d360 b43a f7b6 25bd 98a4 17bd
00000070: 7b40 213d e8b3 a53c 4a8e 223a 0e09 21bc
00000080: da74 9abc 65ad 6c3d c8fb 0f3d 0492 20bc
00000090: d211 843d 2b4e 8bbd a092 1dbc 8cfb 05bd
000000a0: 57e2 b4bc e542 b83b c7e6 31bd 08f6 4dbd
000000b0: a8e4 0d3b 4c50 88bd a558 f93c 6874 03bd
000000c0: 700f 79bd e338 463b 1fc0 e73c 43ed 3c3d
000000d0: 4a14 273d a718 3b3d 972e 1d3d 8b14 203d
000000e0: 82e1 1cbc 5241 a7bb 4b9e 033c cc4f 73bd
000000f0: 7211 4cbd ea5b 0cbd 2372 0fbc e95e 373c
00000100: d024 193d c398 2dbd 8a7c ee3c d653 763d
00000110: 6584 2a3d cbe6 4ebd f299 9cbc 0287 35bc
00000120: 091b c63c 4007 363c 1e23 133d 8211 ddba
00000130: 890b a1bc f112 c3bb b937 993d 79fa 01bc
00000140: f5aa e9bc 08e5 f7bc 14fb 203d aa37 00bc
00000150: 50b4 dfbc aa93 93bb 87f6 093d 2894 1f3d
00000160: 29f2 193d 175f 393d be54 e5bc 3f53 003d
00000170: 865c 8f3c 202c 9e3c 6aec 6bbc 57bc f7bc
0.065211825 -0.040640473 -0.0011092932 -0.016787851 -0.01899914 -0.039398856 0.031300098 -0.048146877
-0.041984674 0.027072206 -0.031189179 -0.022683028 0.032569088 0.030664582 -0.035743866 0.038152453
-0.05935149 0.05344916 -0.022609087 -0.062488582 -0.0483918 -0.033571765 0.064464875 0.012332999
-0.053011477 0.0013761766 -0.040457692 -0.037022203 0.039368134 0.020227388 0.00062010123 -0.009828819
-0.018854547 0.05778255 0.035152227 -0.009800438 0.064487115 -0.06802019 -0.009617478 -0.032710597
-0.022080583 0.005623209 -0.043432977 -0.05028346 0.0021651182 -0.066559404 0.030437777 -0.032093436
-0.060805738 0.003024631 0.028289853 0.046124708 0.040790834 0.045677807 0.03837451 0.03908209
-0.00957525 -0.0051042223 0.008033345 -0.059402272 -0.049821325 -0.034267344 -0.00875524 0.011192062
0.037388623 -0.042382013 0.02911212 0.060138546 0.041630168 -0.05051307 -0.019116376 -0.011079552
0.024182813 0.011110127 0.035922162 -0.001686618 -0.01965882 -0.0059531857 0.074813314 -0.0079332525
-0.028523901 -0.030260578 0.039301947 -0.007825771 -0.02730766 -0.004503687 0.033682372 0.038959652
0.037584458 0.0452567 -0.02799451 0.03132939 0.017500173 0.01930815 -0.014399627 -0.030241175

m_transform.0.9.running_mean f4 [48]
00000000: a092 803f 7fce b43f 4dc7 953f 7ee5 893f
00000010: d5ad a23f 1183 843f 589f a83f 17ba 7c3f
00000020: 7334 a43f 052d ad3f 035e dd3f 5a4d 993f
00000030: cec5 833f 8975 7b3f 1525 803f 0257 923f
00000040: e7e4 5f3f 45a3 a23f 6230 7d3f 9d5a 993f
00000050: 1079 973f a888 a73f af4d 783f fa4d a43f
00000060: 0210 9b3f 0a28 813f d1a1 9a3f 5e20 9a3f
00000070: 9c50 8b3f 7535 7e3f a3e3 8b3f 95ba be3f
00000080: 67ac 7c3f 9410 833f c4b3 983f 0681 6e3f
00000090: 358c d33f 81ff 503f cd15 a83f ce0a 9a3f
000000a0: aeb0 943f 2a2d 8e3f 660f dc3f 4a4b 4e3f
000000b0: 7c5a 8b3f 8f24 6f3f 4094 813f 70da 773f
1.0044746 1.4125518 1.1701447 1.077316 1.2709299 1.0352498 1.3173628 0.9872145
1.2828506 1.3529364 1.7294315 1.1976731 1.029474 0.9822622 1.0011317 1.1432803
0.8745865 1.2706076 0.9890195 1.1980778 1.183382 1.3088579 0.96993536 1.2836297
1.211426 1.0090344 1.2080632 1.2041128 1.0883975 0.9930032 1.0928844 1.490069
0.98700565 1.0239434 1.192986 0.93165624 1.6527163 0.8163987 1.3131653 1.2034547
1.1616418 1.1107533 1.7192199 0.8058363 1.0886989 0.9341516 1.0123367 0.96817684

m_transform.0.9.running_var f4 [48]
00000000: 96b9 343f 5b3f 8f3f 05e2 8d3e 5106 933e
00000010: dab3 0e3f 8349 933f ce68 143f 652d e33e
00000020: c2fa 123f 95cc f73e e533 0c3f f4c3 c43e
00000030: aeed 403f 5148 0340 9c01 243f 25ef ff3e
00000040: 54f8 253f e2a9 b13f ba57 d13e d286 d23f
00000050: a2c7 513f 0446 003f aa7f b73e c427 a83f
00000060: e3d4 b33e ee59 063f b1a3 293f 68c6 bf3e
00000070: 660f c23f 7504 7e3e 02d1 463f c75b 873f
00000080: dba1 053f 8b5b df3e 4242 093f d456 733f
00000090: 45bb f43e 261c e43e 23cd b43f 8cf5 983f
000000a0: f6a4 b63f 79f1 d23f 17d6 313f 6b8f af3e
000000b0: c7fd d53e 7775 303f e68b 9b3f fde2 4e3f
0.7059568 1.119121 0.27711502 0.28715757 0.5574318 1.1506809 0.5797242 0.4437057
0.57413876 0.4839827 0.54766685 0.3843075 0.7536267 2.0512888 0.64064956 0.4998714
0.64832044 1.3879969 0.40887243 1.6447394 0.8194524 0.50106835 0.35839587 1.3137136
0.35123357 0.5248097 0.662654 0.3745606 1.5160949 0.24806388 0.7766267 1.0574883
0.52200097 0.4362453 0.53616726 0.95054364 0.47799125 0.44552726 1.4125103 1.1949935
1.4269092 1.6479942 0.694673 0.34289107 0.4179518 0.6892924 1.2152069 0.80815107

m_transform.0.10.weight f4 [96, 48, 1, 1]
00000000: 94ea bb3d e551 1cbd 30ad 153d e427 fc3c
00000010: 3aa1 8cbc 7a53 08be 6ce3 fabc 7c17 fb3d
00000020: 8538 80bd f215 05bc b2ec 07bd a495 0a3e
00000030: 221e 9d3c a8c1 3abd 85b3 5abd d7e8 da3d
00000040: 8381 673d 6262 e63c 0fee 3abd 2ce7 ecbd
00000050: d5f8 733d 7aab 1abe 11be 5bbd 8e14 dfbb
00000060: 0772 1fbe 246c cebd 7ab6 bb3b e051 a5bc
00000070: 2fc8 cd3d be5f 6b3d 1a1c cc3d 94dd 243d
00000080: add9 adbd d15f 93bd c656 de3c fc68 ff3d
00000090: 9496 c23d 46f2 9f3b c682 bd38 235c 8f3d
000000a0: 53fa 843c de73 7f3b 4cab 48bd 8c77 eb3d
000000b0: 27f5 29bd 8c5c b2bc 21f4 b9bc dea8 073d
000000c0: 6cb7 893d d9b2 8b3d ec1a f93c 34b7 60bd
000000d0: 020e e53b 187a 993d 3b5b 16bd d34c 81bc
000000e0: 97c6 fbbd 23f3 ce3c 4e67 af3d 82c6 18bd
000000f0: 53f3 c63d 2eaf 8d3d 4511 c33c d155 cfbc
00000100: 5fc1 a8bd 8311 e13d d1fc 62bb f5cb 573d
00000110: 52a5 8a3c f017 893d 31de 77bc 2d6a 003e
00000120: 3b20 8ebd 10df 91bc 32a1 81bb 47b9 95bc
00000130: b81b a4bd e056 e83c 9d46 c3bc 25c4 e6bd
00000140: affd 0abd 3335 07be d7d3 acbd 924e b23d
00000150: 8cd4 5ebd 92ba 0a3e 0f45 d8bd d9c5 f8bd
00000160: ab19 f7bd c38c 743d 4d44 d13c 1a22 043d
00000170: e822 0e3e d0d3 05be 2147 ca3d 8a85 443d
00000180: cb8c 313b 780e da3d dba9 85bd 06b0 e13d
00000190: f520 cabd a5c5 b83d 71ae c7bc 5dd0 1abd
000001a0: d1e8 c23d 440e 683d 01bc e63d fb52 953d
000001b0: 1f0b 3fbd 40c0 fcbc 4fd2 d0ba bea1 92ba
000001c0: 78a3 ebbd afaa b33d 9e87 553d 1ee5 5e3d
000001d0: a344 c53c bf7c d83d 37f1 aa3d c895 c13d
000001e0: ea49 86bd 12ec 1b3e 8615 f4bd d3c3 59ba
000001f0: 754b 793d 8f75 773a d106 89bc d304 80bd
00000200: 8e9a ddbd 79b5 313d cf91 0b3e 314a 09bd
00000210: fa79 d8bd b5e9 8dbd a717 fe3d 648d 023e
00000220: e59e 213d 2f4f 33bc 1e68 923d e06a ffbd
00000230: 4f89 60bd a321 1dbe 12eb 8c3d 6c61 9bbd
00000240: 946d fbbc 3753 c03d 2d6c c3bc b9f8 debd
00000250: 4351 c43c 4441 e63c 0a6b dcbd 4481 87bd
00000260: 9879 e0bd 1174 14be cd20 82bd acba c1bd
00000270: cf20 c2bd fd18 a43d b431 833d c3ad 16be
00000280: 77ab 643d c043 65bd 8bbf 34bd eb89 a33d
00000290: 1d16 cbbd c3e2 56bd 16de 0cbd 8828 883d
000002a0: 2ea8 463d d7f5 e4bd d073 613d fdc5 5b3d
000002b0: 74cc 07be 1a4d 283d 232a 1ebe 95c3 e9ba
000002c0: fd56 fabd 9b62 a53c b6db ca3d 224a 003e
000002d0: 2dad 3ebc b8d4 e83d d35b d83d b706 843d
000002e0: 87ea ca3d 6817 b6bd 0c8b f0bd d487 e0bd
000002f0: 9abb 26bd 9a98 08be 8a4c d43d 267a e03d
00000300: ed7e 9d3d f15b 043d d155 603d 3887 973d
00000310: bc12 fd3d 8526 3abd bd34 a33c 0e0e 8f3d
00000320: 86ce 103e 134e 88bc 585a de3c 5ed7 87bd
00000330: 2333 833d dc3d 04be 784f 373d a83d 2abc
00000340: 5ea1 853d b070 ea3d 871f ddbb eab8 d7bb
00000350: fb0d 133d ac31 8abd fe0f 54bc 620a e93d
00000360: 0fa5 b73c b6a2 ac3d c25f 36bd 805c 7dbd
00000370: b84c 46bd 45c9 7e3d dd2c e43c 90f3 eb3c
00000380: dd10 403d 3a9f 2b3d b89d 7c3d 4200 b2bd
00000390: b99f 1ebc b1ea 11bd 0ade b03d d3e0 44bc
000003a0: b46b 05be 36d7 d3bc 111a 21bd 28e2 0b3c
000003b0: c467 edbc a118 f0bb ebda 7bbd d9cf 01be
000003c0: d06d f13d f0f3 85bc 513a e9bc c606 b33d
000003d0: 6af6 56bc 75db 013d f263 893d 2049 f2bd
000003e0: 7776 d03d cd90 50bd 0467 893d 569a 93bd
000003f0: d976 6ebd bfd0 10be b31f 99bd bea9 21bd
0.091756016 -0.03816404 0.036542118 0.03078074 -0.017166723 -0.13313094 -0.030626021 0.12260339
-0.0626078 -0.008122908 -0.033184715 0.13533646 0.019179408 -0.04559484 -0.05339386 0.10688942
0.056519996 0.028123084 -0.045637187 -0.1156753 0.059563477 -0.15104476 -0.05364806 -0.00680787
-0.15570842 -0.1007922 0.00572854 -0.020180643 0.100479476 0.057464354 0.099662974 0.040250376
-0.08488784 -0.0719601 0.027140986 0.12471196 0.09501377 0.004881176 9.036581e-05 0.069999956
0.016232645 0.0038978974 -0.048991486 0.11497411 -0.04149356 -0.021772645 -0.022699418 0.03312003
0.06724438 0.06821222 0.030408345 -0.054862216 0.0069901953 0.07493991 -0.036708098 -0.015783703
-0.122937374 0.025262421 0.08564626 -0.037298687 0.09714379 0.069181785 0.023811946 -0.025309475
-0.082400076 0.10989668 -0.0034635554 0.052684743 0.016924534 0.06694019 -0.015128658 0.12540503
-0.06939741 -0.01780656 -0.0039559836 -0.018276824 -0.080130994 0.028361738 -0.023837382 -0.1126788
-0.033933338 -0.13203888 -0.08438843 0.08706392 -0.05440192 0.13547733 -0.10560047 -0.121471114
-0.12065443 0.059704553 0.025545264 0.032259084 0.13880503 -0.13069081 0.09876848 0.047978915
0.0027091976 0.10647291 -0.06526538 0.11019902 -0.09869567 0.09022073 -0.024375172 -0.037796367
0.095170625 0.05665423 0.11266328 0.07291218 -0.046641465 -0.03085339 -0.0015931817 -0.0011187119
-0.115057886 0.0877279 0.052131288 0.054417722 0.02408058 0.105706684 0.08346789 0.09452397
-0.06557067 0.15226772 -0.11918168 -0.0008307073 0.060862977 0.000943982 -0.016726883 -0.0625092
-0.108204946 0.043385956 0.1362984 -0.03351802 -0.1057014 -0.06929342 0.12406855 0.12749249
0.039458174 -0.010944172 0.07148765 -0.12471557 -0.054818448 -0.15344863 0.068807736 -0.07586941
-0.0306919 0.09390872 -0.023855293 -0.10887284 0.02396453 0.028107293 -0.107626036 -0.06616452
-0.10960692 -0.14497401 -0.063539125 -0.09459433 -0.09478914 0.08012579 0.064059645 -0.14714722
0.055827584 -0.055972815 -0.044127982 0.0798529 -0.09916327 -0.05246235 -0.034391485 0.06648356
0.048500232 -0.11179703 0.055042088 0.053655613 -0.13261586 0.041089155 -0.15445761 -0.0017834777
-0.12223623 0.02018862 0.09905188 0.1252828 -0.011637968 0.11368698 0.10564389 0.06446593
0.09908014 -0.08891183 -0.11745271 -0.10963407 -0.040706255 -0.13339463 0.10366161 0.10960798
0.07690225 0.032314245 0.05476934 0.07398838 0.12357089 -0.04544689 0.019922609 0.069851026
0.14141282 -0.016638791 0.027142689 -0.06632875 0.06406238 -0.12914222 0.04475352 -0.010390677
0.06524919 0.11447275 -0.006748143 -0.006583323 0.035902005 -0.067477554 -0.012943266 0.113789335
0.022417573 0.08429472 -0.044524916 -0.061855793 -0.04841301 0.062203664 0.027853424 0.028802663
0.046891082 0.041899897 0.06167385 -0.086914554 -0.009681636 -0.03562421 0.086361006 -0.012016493
-0.13029367 -0.025859457 -0.0393315 0.008537807 -0.028980143 -0.0073271547 -0.061488073 -0.12676944
0.11788523 -0.01635167 -0.02847019 0.08741526 -0.013120273 0.03170343 0.06708516 -0.11830354
0.101788454 -0.050919343 0.06709102 -0.072071716 -0.05821881 -0.1414213 -0.07476749 -0.03946852

m_transform.0.10.bias f4 [96]
00000000: 9407 af3d ba4a 92bd eb91 eabd 18c0 353d
00000010: 5414 2f3d 35ab fd3d be99 97bd f4f4 30bd
00000020: 3798 64bc d7f5 043e 7525 fb3d 016f 683d
00000030: cd68 71bd 41c6 6ebc d24b 013c 1d4c 71bb
00000040: 5602 d23c df73 f63d 29f8 8abd 46fd a2bd
00000050: a25b 6e3d 239e 2c3c e21b d23d 52a4 073e
00000060: 2fb4 aa3c 818e 52bd c588 94bd a746 e73d
00000070: 2af4 69bd bdd3 ca3d cd2a 1a3d 9180 7ebd
00000080: 6755 613a 850b 983c cde6 c9bd c727 ac3c
00000090: 7443 77bd f087 eebd 317a c53c cb9d c3bd
000000a0: 34ea f53d aabd b3bd 5a50 bfbc b467 b8bd
000000b0: baed 563c ab21 4c3d 6071 ffbd 7f66 3c3e
000000c0: 2562 12be a286 6c3d d886 173e 182c ef3d
000000d0: 95c5 4bbd 24c2 893c 11c3 9fbd d516 5ebc
000000e0: 217b 0e3d 8077 143e 1ab0 27bb b9ad ca3d
000000f0: dfce 7a3d 5d49 dbbd 57e1 063d cc10 ab3d
00000100: 6f16 9bbd 9ca9 d3bd eec3 babd fe74 ea3d
00000110: d3a5 a13c 8462 a2bd 7c8e fd3c 43a5 fcbb
00000120: 9841 85bd 4da8 b73d 4911 2d3e 8e93 b93d
00000130: 6bbb 22bd f868 b13d efe9 c63d 50d2 f3bd
00000140: 6de5 f03d 4e8b 1bbe 95b5 8ebb 3320 923d
00000150: 1e11 3c3b c5a3 8cbd 7bc5 68bd 14c1 8fbd
00000160: ce1f aa3d c2a3 a03d 9193 9e3d a999 1b3d
00000170: ba03 23bd 0fce 0b3c 054b a4bc a4ea c7bd
0.08546367 -0.07143159 -0.11453613 0.044372648 0.042743996 0.12386171 -0.07402371 -0.043202356
-0.0139523065 0.12984405 0.12263004 0.056746487 -0.058937836 -0.014573635 0.007891612 -0.0036819049
0.02563588 0.120338194 -0.06785614 -0.07958464 0.058192857 0.01053575 0.102592245 0.13246277
0.020837871 -0.051405434 -0.07252649 0.11292773 -0.05711762 0.09903667 0.037638474 -0.06213433
0.0008595795 0.01856018 -0.09858475 0.021015061 -0.060367063 -0.11647022 0.024106117 -0.09551581
0.12007561 -0.0877641 -0.023353744 -0.09004155 0.013118202 0.049836796 -0.124727964 0.18398474
-0.14295252 0.057745583 0.14797533 0.11678332 -0.049748976 0.016816206 -0.07800878 -0.013555248
0.034785394 0.1449871 -0.0025587142 0.09896416 0.061232444 -0.10707352 0.032929745 0.08352813
-0.07572638 -0.10335085 -0.09119402 0.11448096 0.019732391 -0.079289466 0.03095173 -0.0077101304
-0.06506652 0.08967648 0.16901125 0.09061347 -0.039729517 0.08662599 0.09712588 -0.11905348
0.117625095 -0.1518986 -0.0043551424 0.07135048 0.0028696726 -0.06867174 -0.056828957 -0.070192486
0.083068475 0.07843734 0.0774299 0.03798834 -0.039798476 0.008533015 -0.020055303 -0.09761551

m_transform.0.12.running_mean f4 [48]
00000000: 0bcd 893e e9e0 e23e e73e ca3e 0274 ee3e
00000010: bbb6 b03e b5b7 c53e 6186 d23e ce07 823e
00000020: b2c7 ab3e 516a e93e 6a65 2a3f a40b 003f
00000030: 72e5 7a3e 1ed0 4d3e 659b ca3e 6eff e13e
00000040: dc46 5a3e 9cd3 da3e 6858 ca3e d3b2 823e
00000050: 45e6 c03e f752 843e 80e6 2c3f b669 c33e
00000060: 6085 993e 02eb d93e f980 ce3e 24a9 183f
00000070: cada b93e e937 cd3e 186e b13e 6b96 ac3e
00000080: 047c f53e 100f 5a3e 8645 df3e b674 c03e
00000090: 0623 b43e 5de9 bf3e 142b 603e e01e ee3e
000000a0: ec24 153f 62cb f63e 223b c83e ceac cf3e
000000b0: cb5d 823e 7455 a43e 9c22 a03e 5a0f e43e
0.26914248 0.44312218 0.39501116 0.46572882 0.34514412 0.3861672 0.41118148 0.2539658
0.33550793 0.45588925 0.66560996 0.5001776 0.24501589 0.20098922 0.39571682 0.4414019
0.21316093 0.4273957 0.39520574 0.25527057 0.37675682 0.25844547 0.67539215 0.3816659
0.2998457 0.4256211 0.40332773 0.5963309 0.36299735 0.4008172 0.34654307 0.3370851
0.4794618 0.21294808 0.4360773 0.37589043 0.3518297 0.3748273 0.21891433 0.4650793
0.58259463 0.48202044 0.39107615 0.40561527 0.25462183 0.32096446 0.31276405 0.44542962

m_transform.0.12.running_var f4 [48]
00000000: 486a e73e 01b3 753e 8939 f83e 00ed 633e
00000010: af6e 383e 2a45 503e 6fe2 8e3e 9e12 d93e
00000020: 26e6 4b3e 4270 183e d331 7f3e ebf7 853e
00000030: 315f 873e 611b c93e e4e7 4b3e 05c2 0c3f
00000040: db5c 863e acf1 763e 7100 ae3e 35c5 8e3e
00000050: c2e6 8a3e 77d5 a13e 1693 b33e 9c9b 7e3e
00000060: 3300 523e 8303 5e3e 3ecc 4e3e 07cc 5e3e
00000070: e94e 573e 8a43 283e afae 6b3e 8bc7 943e
00000080: 65eb 563e 7b8f 973e 3eaf 503e 8b65 b83e
00000090: 06d8 353e 67d8 ea3e d4a7 223e 99c8 7c3e
000000a0: e976 843e 53d6 7f3e cd9e 803e 081d 423e
000000b0: 59c1 ac3e 14eb 533e 9437 1a3e a41c 5d3e
0.45198274 0.23994066 0.48481396 0.22258377 0.18010972 0.20338884 0.2790713 0.42397016
0.19912013 0.14886573 0.2492135 0.2616571 0.26439813 0.392787 0.19912678 0.5498355
0.26242718 0.24115628 0.33984712 0.27884832 0.2712918 0.31608173 0.35073155 0.24864048
0.20507888 0.21681027 0.201951 0.21757518 0.21026196 0.16432014 0.23015855 0.2905849
0.20988233 0.29601654 0.2037935 0.3601497 0.17758188 0.45868227 0.15884334 0.24685897
0.2587197 0.24984102 0.25121155 0.18956387 0.33741263 0.20695144 0.15060264 0.21592957

m_transform.0.13.weight f4 [128, 48, 3, 3]
00000000: 9c04 8cba 908f 193d 227d b13b 918d f13c
00000010: 5260 48bc 2dcf 51bc 2d89 433d a09d cabb
00000020: 276b 15bd 760c c13b e3d1 7d3d 9693 833c
00000030: 2c5c fc3c 4c74 5a3d 54b1 fabc 3164 523d
00000040: a97a 843c f13b ba3c 719a b33c 5f88 4fbd
00000050: 2b16 523b 5d75 23bc 8928 a8bc 6ebe 1ebd
00000060: 3f44 26bd 2572 503d ccee 4f3d d557 91bc
00000070: 37fd f33c 2185 633d 3f61 78bc ecc2 39bd
00000080: abe9 d9bc 6969 033d f1ee 133d 8e00 d13c
00000090: cfe4 903d c5c4 5cbd 144b 663c 1ee9 19bd
000000a0: 4ccd 13bd 98f2 72bd 50b6 92bc 2070 bebc
000000b0: 98c3 4ebd 7893 d6bc f8de 393d 07c9 83bb
000000c0: 0c5a 0b3d 0a12 c0bc 4de1 5a3d 24bc c0bc
000000d0: 2cfa 7bbd 94de 4f3c ce1e 103c 9fd3 51bd
000000e0: 7fdf b0b9 fda0 debc b721 133c 4868 94bc
000000f0: edbb 90bd 14fb 623c 7f79 303d e7ca d33c
00000100: eeb0 093d 4855 d2ba 18e4 55bb 2a34 d9ba
00000110: 002e 9b3b 4148 31bd 5659 2cbc a2a9 a33b
00000120: 828e 01bd d9f6 883c dc77 f13c edfb 84bc
00000130: 3258 1d3c c6e6 2437 9650 a63c 6a14 83b9
00000140: d2cf 22bd c72b d5bc e8e7 9bbc 5670 fd3c
00000150: d3cb 46bd 9be9 0bbd 89ee 4e3c fdf4 263d
00000160: 4821 dc3c 764d 3bbd bd8d 183d b873 933c
00000170: 3a97 7d3b 2e55 0d3d 7379 0e3d 657a 183d
00000180: 164c 66bc efee bd3c 2dee 013d 5b60 503d
00000190: 32ae e83c 340a a83b f263 00bd 961a d8bc
000001a0: 97f7 593c e15c d7bc 87cb 0a3d cf34 37bb
000001b0: 4f3d 81bc ba9f 4ebc 9dcc 82bb fe9f 6abd
000001c0: f189 ff3c f6b1 db3c de60 dcbc b3fa 253d
000001d0: 783e 0d3d f09f 4cbc 4eb3 9abc ed08 66bb
000001e0: e993 babc 0844 c83b db63 dbbc cfec dc3c
000001f0: 2fdf 953c d4c3 19bd 6fe2 44bd b61a 8fbb
00000200: 2263 44bd 763d 27bd 592f 3f3c 7267 4bbc
00000210: d5cf dcbc a186 d63c 8a92 20bc 1664 333d
00000220: b35a 253d 60ba 543c 8242 5ebd 7056 933c
00000230: 0f12 f0bc 68c8 f4bb bc5f 3e3d bb31 343d
00000240: f14a d5bc 85eb 853c 7cf2 b83c 9ed9 45bd
00000250: 5df0 103d b67f 61bd bd61 9e3c 3a8f 31bd
00000260: d0f8 6fbc c413 1fbd 7632 6b3d 0c43 8f3d
00000270: d758 6dbd 85e8 abbc 824b 213c 76c7 023c
00000280: 3ed7 973d 3062 0cbd 025e c23b 4516 393d
00000290: 070f 8c3c 57af 1e3d f079 07bd 4057 23bd
000002a0: b7c1 99bd d5f9 07bd f05d 9c3c 752d 12bd
000002b0: 3df0 f0ba 32a7 63bc ca81 dd3c 803d 81bd
000002c0: 5c5c 98bc e39f d83b 9795 223c dd26 7bbb
000002d0: a888 9abd 35ab 26bd f63b 863d dcf4 35bd
000002e0: 33c6 f7bc 1d8f 9fbc 2d34 bf3c 2ce0 123b
000002f0: 4a3d ebbb 2609 823d 95c3 c9bb 9aa4 4bbb
00000300: 9e92 c1bc 6118 ce3b 7479 6d3c 357f 213c
00000310: 213b 33bc fb58 433d dcc2 a83d 1617 483d
00000320: 5773 6e3d 1858 d13c 5512 2d3b 6a86 2a3c
00000330: 3e1f 463d 3b9a f93a 2a9d 4e3c 86f7 493d
00000340: 63c8 9dbc 0ff7 5eba 5787 0bbd f1c6 2a3d
00000350: a0d4 4a3b bc7e 59bc 9b59 973c 0813 7bbd
00000360: 6be9 cebb e2aa 243c b1a1 97bb d9e5 bd3c
00000370: f8bb 2c3c 7ed6 67bd ad56 023c e20b ca3c
00000380: b680 733c 1d55 83bd b73a 193d 229f 7b3c
00000390: 25e0 24bd 9df5 d63c eef4 583d f4d2 0a3d
000003a0: 5684 4e3d 3e10 2ebc 8635 23bc d972 4d3d
000003b0: 0a05 693d 1d4e ac3b 8a20 9a3d 6135 67bc
000003c0: dedd 0d3d 6613 043d afb6 33bc ad50 413d
000003d0: 4feb b7bc 1847 ccbc 7a71 e6bc 5f9c 443d
000003e0: e7ca 193d 2c8d 5bbd 2011 a7bc db8a 1f3b
000003f0: c8c6 e63c 4eb6 6f3c 7f4e 893d 1a76 28bd
-0.0010682526 0.037490427 0.0054165283 0.02948645 -0.012229996 -0.012805742 0.047738243 -0.006183341
-0.03647914 0.005891378 0.06196774 0.016061585 0.03080567 0.053333566 -0.030602135 0.05136508
0.01617177 0.02273366 0.02192423 -0.050667163 0.003205667 -0.009976712 -0.020527141 -0.038755827
-0.04059243 0.050890107 0.050764844 -0.017742077 0.029783828 0.055546883 -0.015159904 -0.045351908
-0.02660068 0.03208295 0.036116544 0.02551296 0.07074892 -0.05389859 0.014055986 -0.037575833
-0.03608446 -0.059313387 -0.017909199 -0.023246825 -0.0504795 -0.026193365 0.045378655 -0.004021767
0.034021422 -0.023446102 0.05343752 -0.023527212 -0.06151788 0.012687344 0.008796407 -0.05122721
-0.00033735854 -0.027176375 0.008980206 -0.018116131 -0.07067094 0.013853807 0.043084618 0.025853587
0.033616 -0.0016047144 -0.0032637175 -0.0016571332 0.0047357082 -0.043281797 -0.010519346 0.004994587
-0.031630047 0.016719269 0.029476099 -0.016233409 0.009603547 9.828893e-06 0.020302098 -0.00025001477
-0.039748974 -0.026021851 -0.01903148 0.030937355 -0.048534226 -0.03415833 0.012630113 0.040760983
0.026871338 -0.04572817 0.037244547 0.017999515 0.0038694874 0.03450506 0.03478379 0.0372261
-0.014056226 0.023185221 0.031721283 0.05087314 0.028403375 0.0051281694 -0.031345315 -0.026379865
0.013303659 -0.026289405 0.033885505 -0.002795506 -0.015776305 -0.012611324 -0.003991677 -0.057281487
0.031193705 0.026818257 -0.026901659 0.04052229 0.034483403 -0.012489304 -0.018884327 -0.0035100535
-0.022775607 0.0061116256 -0.026781013 0.026968388 0.018294899 -0.037540272 -0.048067506 -0.004367198
-0.047946103 -0.040830098 0.011669003 -0.0124148 -0.02695457 0.026187243 -0.009800563 0.04379662
0.0403697 0.012983888 -0.054262646 0.017985553 -0.029305486 -0.0074701793 0.04647802 0.04399274
-0.026036711 0.016347656 0.022576563 -0.04830324 0.03538548 -0.055053435 0.019333715 -0.043349482
-0.014646724 -0.03883721 0.05742117 0.0699521 -0.057946052 -0.020984897 0.009844663 0.0079821255
0.07414101 -0.034273326 0.0059316168 0.045187254 0.01709701 0.038741436 -0.033075273 -0.03987813
-0.07507651 -0.033197243 0.019087762 -0.035687882 -0.0018382143 -0.013894843 0.027039427 -0.06310558
-0.018598728 0.006610857 0.00992336 -0.0038322725 -0.07545596 -0.04069062 0.065544054 -0.04442297
-0.030245876 -0.019477421 0.023340309 0.002241145 -0.007178937 0.06349401 -0.0061573484 -0.0031073452
-0.023629483 0.0062895273 0.014494289 0.009856989 -0.01093939 0.04769228 0.082402915 0.04885014
0.058215465 0.025554702 0.0026408632 0.010408023 0.04836964 0.0019043157 0.012610713 0.049308322
-0.01926059 -0.00085054425 -0.034064617 0.04169363 0.0030949488 -0.013274845 0.018475344 -0.061297446
-0.0063144467 0.010050507 -0.0046274294 0.023180889 0.010542862 -0.05660104 0.007955235 0.02466387
0.01486223 -0.064127184 0.03740951 0.015357764 -0.040252823 0.026240164 0.05296796 0.033892587
0.050419174 -0.01062399 -0.009961491 0.050158355 0.05688957 0.0052583353 0.075257376 -0.014111848
0.034635417 0.032245062 -0.010968848 0.04719608 -0.022451071 -0.024936244 -0.028130282 0.04800069
0.03754702 -0.05360143 -0.020393908 0.002434424 0.028170958 0.014630867 0.06704425 -0.041128255
