Auxillary Code/LCNN/project/03-asvspoof-mega/lfb-lcnn-attention-oc/01/__pretrained/trained_network.pt (torch, 774861 bytes, 35 tensors)

m_frontend.0.lfcc_fb f4 [257, 60]
0	0x00000000	0.0
1	0x00000000	0.0
2	0x00000000	0.0
3	0x00000000	0.0
4	0x00000000	0.0
5	0x00000000	0.0
6	0x00000000	0.0
7	0x00000000	0.0
8	0x00000000	0.0
9	0x00000000	0.0
10	0x00000000	0.0
11	0x00000000	0.0
12	0x00000000	0.0
13	0x00000000	0.0
14	0x00000000	0.0
15	0x00000000	0.0
16	0x00000000	0.0
17	0x00000000	0.0
18	0x00000000	0.0
19	0x00000000	0.0
20	0x00000000	0.0
21	0x00000000	0.0
22	0x00000000	0.0
23	0x00000000	0.0
24	0x00000000	0.0
25	0x00000000	0.0
26	0x00000000	0.0
27	0x00000000	0.0
28	0x00000000	0.0
29	0x00000000	0.0
30	0x00000000	0.0
31	0x00000000	0.0
32	0x00000000	0.0
33	0x00000000	0.0
34	0x00000000	0.0
35	0x00000000	0.0
36	0x00000000	0.0
37	0x00000000	0.0
38	0x00000000	0.0
39	0x00000000	0.0
40	0x00000000	0.0
41	0x00000000	0.0
42	0x00000000	0.0
43	0x00000000	0.0
44	0x00000000	0.0
45	0x00000000	0.0
46	0x00000000	0.0
47	0x00000000	0.0
48	0x00000000	0.0
49	0x00000000	0.0
50	0x00000000	0.0
51	0x00000000	0.0
52	0x00000000	0.0
53	0x00000000	0.0
54	0x00000000	0.0
55	0x00000000	0.0
56	0x00000000	0.0
57	0x00000000	0.0
58	0x00000000	0.0
59	0x00000000	0.0
60	0x3e740000	0.23828125
61	0x00000000	0.0
62	0x00000000	0.0
63	0x00000000	0.0
64	0x00000000	0.0
65	0x00000000	0.0
66	0x00000000	0.0
67	0x00000000	0.0
68	0x00000000	0.0
69	0x00000000	0.0
70	0x00000000	0.0
71	0x00000000	0.0
72	0x00000000	0.0
73	0x00000000	0.0
74	0x00000000	0.0
75	0x00000000	0.0
76	0x00000000	0.0
77	0x00000000	0.0
78	0x00000000	0.0
79	0x00000000	0.0
80	0x00000000	0.0
81	0x00000000	0.0
82	0x00000000	0.0
83	0x00000000	0.0
84	0x00000000	0.0
85	0x00000000	0.0
86	0x00000000	0.0
87	0x00000000	0.0
88	0x00000000	0.0
89	0x00000000	0.0
90	0x00000000	0.0
91	0x00000000	0.0
92	0x00000000	0.0
93	0x00000000	0.0
94	0x00000000	0.0
95	0x00000000	0.0
96	0x00000000	0.0
97	0x00000000	0.0
98	0x00000000	0.0
99	0x00000000	0.0
100	0x00000000	0.0
101	0x00000000	0.0
102	0x00000000	0.0
103	0x00000000	0.0
104	0x00000000	0.0
105	0x00000000	0.0
106	0x00000000	0.0
107	0x00000000	0.0
108	0x00000000	0.0
109	0x00000000	0.0
110	0x00000000	0.0
111	0x00000000	0.0
112	0x00000000	0.0
113	0x00000000	0.0
114	0x00000000	0.0
115	0x00000000	0.0
116	0x00000000	0.0
117	0x00000000	0.0
118	0x00000000	0.0
119	0x00000000	0.0
120	0x3ef40000	0.4765625
121	0x00000000	0.0
122	0x00000000	0.0
123	0x00000000	0.0
124	0x00000000	0.0
125	0x00000000	0.0
126	0x00000000	0.0
127	0x00000000	0.0
128	0x00000000	0.0
129	0x00000000	0.0
130	0x00000000	0.0
131	0x00000000	0.0
132	0x00000000	0.0
133	0x00000000	0.0
134	0x00000000	0.0
135	0x00000000	0.0
136	0x00000000	0.0
137	0x00000000	0.0
138	0x00000000	0.0
139	0x00000000	0.0
140	0x00000000	0.0
141	0x00000000	0.0
142	0x00000000	0.0
143	0x00000000	0.0
144	0x00000000	0.0
145	0x00000000	0.0
146	0x00000000	0.0
147	0x00000000	0.0
148	0x00000000	0.0
149	0x00000000	0.0
150	0x00000000	0.0
151	0x00000000	0.0
152	0x00000000	0.0
153	0x00000000	0.0
154	0x00000000	0.0
155	0x00000000	0.0
156	0x00000000	0.0
157	0x00000000	0.0
158	0x00000000	0.0
159	0x00000000	0.0
160	0x00000000	0.0
161	0x00000000	0.0
162	0x00000000	0.0
163	0x00000000	0.0
164	0x00000000	0.0
165	0x00000000	0.0
166	0x00000000	0.0
167	0x00000000	0.0
168	0x00000000	0.0
169	0x00000000	0.0
170	0x00000000	0.0
171	0x00000000	0.0
172	0x00000000	0.0
173	0x00000000	0.0
174	0x00000000	0.0
175	0x00000000	0.0
176	0x00000000	0.0
177	0x00000000	0.0
178	0x00000000	0.0
179	0x00000000	0.0
180	0x3f370000	0.71484375
181	0x00000000	0.0
182	0x00000000	0.0
183	0x00000000	0.0
184	0x00000000	0.0
185	0x00000000	0.0
186	0x00000000	0.0
187	0x00000000	0.0
188	0x00000000	0.0
189	0x00000000	0.0
190	0x00000000	0.0
191	0x00000000	0.0
192	0x00000000	0.0
193	0x00000000	0.0
194	0x00000000	0.0
195	0x00000000	0.0
196	0x00000000	0.0
197	0x00000000	0.0
198	0x00000000	0.0
199	0x00000000	0.0
200	0x00000000	0.0
201	0x00000000	0.0
202	0x00000000	0.0
203	0x00000000	0.0
204	0x00000000	0.0
205	0x00000000	0.0
206	0x00000000	0.0
207	0x00000000	0.0
208	0x00000000	0.0
209	0x00000000	0.0
210	0x00000000	0.0
211	0x00000000	0.0
212	0x00000000	0.0
213	0x00000000	0.0
214	0x00000000	0.0
215	0x00000000	0.0
216	0x00000000	0.0
217	0x00000000	0.0
218	0x00000000	0.0
219	0x00000000	0.0
220	0x00000000	0.0
221	0x00000000	0.0
222	0x00000000	0.0
223	0x00000000	0.0
224	0x00000000	0.0
225	0x00000000	0.0
226	0x00000000	0.0
227	0x00000000	0.0
228	0x00000000	0.0
229	0x00000000	0.0
230	0x00000000	0.0
231	0x00000000	0.0
232	0x00000000	0.0
233	0x00000000	0.0
234	0x00000000	0.0
235	0x00000000	0.0
236	0x00000000	0.0
237	0x00000000	0.0
238	0x00000000	0.0
239	0x00000000	0.0
240	0x3f740000	0.953125
241	0x00000000	0.0
242	0x00000000	0.0
243	0x00000000	0.0
244	0x00000000	0.0
245	0x00000000	0.0
246	0x00000000	0.0
247	0x00000000	0.0
248	0x00000000	0.0
249	0x00000000	0.0
250	0x00000000	0.0
251	0x00000000	0.0
252	0x00000000	0.0
253	0x00000000	0.0
254	0x00000000	0.0
255	0x00000000	0.0

m_transform.0.0.weight f4 [64, 1, 5, 5]
0	0x3dbb3747	0.09141403
1	0xbdbd0f56	-0.09231441
2	0xbc0d5db0	-0.008628294
3	0x3dc73374	0.09726611
4	0xbe454371	-0.19264008
5	0x3dd8db77	0.105887346
6	0xbd4657a4	-0.048423424
7	0x3e02c788	0.12771428
8	0x3cec0aa9	0.028813677
9	0xbce93c4b	-0.028471133
10	0x3d23e56e	0.040013723
11	0xba3f7304	-0.00073032104
12	0x3dc940fb	0.09826847
13	0xbd9c35b2	-0.07627429
14	0xbca02945	-0.019550929
15	0xbd04b46c	-0.032398626
16	0x3ca88402	0.020570759
17	0x3cc8c505	0.024508009
18	0x3e313a44	0.17307383
19	0x3d59dff7	0.053192105
20	0xbdb23b84	-0.08702758
21	0xbe06367a	-0.13106719
22	0xbc6466cf	-0.013940527
23	0xbdbd8dae	-0.09255539
24	0xbd9e1aaf	-0.07719933
25	0xbc8c6ced	-0.017141784
26	0x3de022c1	0.10944129
27	0x3e0cb008	0.13739026
28	0xbe3a5a52	-0.18198517
29	0x3dfcac06	0.12337498
30	0x3cfe0606	0.031008732
31	0x3e3755fa	0.17903891
32	0x3e26ad39	0.16277017
33	0xbe35837f	-0.17725943
34	0xbe4ab7ba	-0.19796649
35	0xbdf6df10	-0.120542645
36	0x3e2549b0	0.16141391
37	0xbbf09933	-0.0073424815
38	0x3da1ce4d	0.07900677
39	0xbdd89fb2	-0.105773345
40	0x3e302e10	0.17205071
41	0xbddb63bf	-0.107123844
42	0x3e227397	0.15864407
43	0xbc12fe17	-0.008971713
44	0xbdf288f6	-0.118425295
45	0x3da17e62	0.07885434
46	0xbe0cae7f	-0.1373844
47	0x3d4e1122	0.050309308
48	0xbd892493	-0.06696429
49	0xbcfb7c46	-0.030698907
50	0xbe58fb3f	-0.21189593
51	0xbdba2dfa	-0.090908006
52	0x3ddab598	0.106791675
53	0xbd49ce6d	-0.04926913
54	0x3e400d7a	0.18755141
55	0x3e253f9b	0.16137545
56	0x3b121032	0.0022287485
57	0xbe0db3fe	-0.13838193
58	0x3de3dc0a	0.111259535
59	0x3d0dc8bb	0.03461526
60	0xbdf35701	-0.11881829
61	0x3e1bad65	0.15202864
62	0x3dfe8215	0.12427155
63	0x3e2828e3	0.16421847
64	0xbe1d2c25	-0.15348871
65	0xbc2b708a	-0.010463843
66	0x3cb8087e	0.022464987
67	0x3d079279	0.03309867
68	0xbe2e2dbe	-0.17009637
69	0xbe42146c	-0.18953103
70	0x3e0992ac	0.13434857
71	0xbc814cd3	-0.015783703
72	0x3dddd53e	0.10831688
73	0xbaecc4dd	-0.0018064041
74	0x3cd4a93c	0.025959603
75	0x3d5ea4ad	0.054356266
76	0x3d492c88	0.049114734
77	0x3dc3313a	0.095308736
78	0xbe3d475d	-0.18484254
79	0x3dd110d2	0.10208286
80	0xbe05dfd9	-0.13073672
81	0xbe341335	-0.17585452
82	0x3b59d0fb	0.0033236134
83	0xbd23d6a5	-0.039999623
84	0x3dd244fc	0.10267064
85	0xbdc9d8f5	-0.098558344
86	0xbe4a76b1	-0.1977184
87	0x3e169bea	0.14707914
88	0xbcca7879	-0.024715649
89	0x3dd6db1f	0.10491013
90	0x3d9fc4b5	0.07801191
91	0xbe339d3e	-0.17540452
92	0x3d195fa7	0.037444737
93	0x3d41d626	0.04732337
94	0xbe136130	-0.14392543
95	0xbda74e0c	-0.08169183
96	0x3d37364d	0.04472952
97	0x3d0906a2	0.03345359
98	0xbdb60b96	-0.088889286
99	0xbd859b6a	-0.065237835
100	0x3e13c52a	0.14430681
101	0xbd9e4b6c	-0.07729229
102	0x3de81032	0.11331214
103	0x3db1da13	0.086841725
104	0xbe00670d	-0.12539311
105	0xbe57703a	-0.21038905
106	0x3e19efbd	0.15032859
107	0x3c2e6ddb	0.010646309
108	0x3e107422	0.14106801
109	0x3d449e8f	0.048002776
110	0x3cdd7911	0.027035268
111	0x3df86660	0.121289015
112	0x3e3d8cd7	0.18510757
113	0xbe077f18	-0.13232076
114	0x3cea1a51	0.028577002
115	0x3e02034d	0.12696572
116	0x3e0741d4	0.13208705
117	0x3dfcbdc7	0.12340885
118	0xbe0fd970	-0.1404779
119	0xbe0f4390	-0.13990617
120	0xbdfa574e	-0.12223683
121	0x3d0132b7	0.031542506
122	0x3e533158	0.20624292
123	0xbdf03c42	-0.11730243
124	0x3de5c6fd	0.11219595
125	0xbdef8582	-0.116953865
126	0xbe4bfd0e	-0.19920751
127	0xbd6fab03	-0.0585127
128	0x3dc902a5	0.098149575
129	0x3e39fd48	0.18163025
130	0xbe07be9e	-0.13256308
131	0x3d0f333e	0.034960978
132	0x3e20ace7	0.15690957
133	0x3de30826	0.110855386
134	0x3df29ca7	0.11846285
135	0x3e08de2b	0.13366
136	0x3df38c62	0.1189201
137	0x3d14483e	0.036201708
138	0xbe280965	-0.16409834
139	0xbe384d94	-0.17998344
140	0xbdd3b663	-0.10337522
141	0xbd0e0f70	-0.03468269
142	0xbe11db70	-0.14243865
143	0x3d44d74b	0.048056882
144	0x3d58795a	0.052850105
145	0xbd5cb7ee	-0.053886347
146	0x3d86b891	0.06578172
147	0x3d390514	0.04517086
148	0x3dcdd7da	0.10050936
149	0x3e015dcc	0.12633437
150	0xbda1785e	-0.07884286
151	0x3e472243	0.19446664
152	0xbca5f248	-0.02025713
153	0xba6e9a83	-0.00091020035
154	0xbe48aa72	-0.1959627
155	0xbe0ca07b	-0.13733093
156	0xbdeead51	-0.11654151
157	0xbdb46778	-0.088087976
158	0x3e159ff9	0.14611806
159	0xbd90ca38	-0.0706982
160	0xbe2553b6	-0.16145214
161	0x3d93dd53	0.072199486
162	0x3d5ccaec	0.05390446
163	0x3e01ad79	0.12663831
164	0xbdead798	-0.114669025
165	0x3d0aa26a	0.033846296
166	0xbd9c13cd	-0.07620964
167	0xbd3f84b1	-0.046757404
168	0xbe1e41cc	-0.15454787
169	0xbdc74d50	-0.09731543
170	0xbda11915	-0.07866112
171	0x3d946189	0.07245166
172	0x3cc669bc	0.02422034
173	0x3d240dd8	0.040052265
174	0x3e3711fe	0.17877957
175	0x3e4fa8e6	0.20279273
176	0x3e1530d3	0.14569406
177	0xbbfed717	-0.0077771056
178	0xbe041421	-0.12898304
179	0x3e20ad6f	0.1569116
180	0xbd3ac900	-0.045601845
181	0xbc3cef43	-0.011531654
182	0xbe418e50	-0.18901944
183	0xbd099b05	-0.033595104
184	0xbe029a19	-0.12754096
185	0x3e44e08e	0.19226286
186	0xbe27e41c	-0.1639561
187	0xbe2ae94d	-0.1669056
188	0x3c22596c	0.009909015
189	0xbdcc6e74	-0.09982005
190	0x3d88c926	0.06678991
191	0xbd9a9f5d	-0.075499274
192	0xbdd845ac	-0.10560164
193	0x3cb6e86f	0.02232763
194	0x3e180b8f	0.14848159
195	0xbe2200d6	-0.15820631
196	0x3db16a27	0.08662825
197	0x3dee21d9	0.1162755
198	0x3e4f5d2e	0.20250389
199	0xbe0ff04c	-0.1405651
200	0x3d48e901	0.049050335
201	0xbe0deabe	-0.13859078
202	0x3e2fd31b	0.17170374
203	0xbda0bbfe	-0.07848357
204	0x3dcd11ba	0.10013147
205	0xbb66f673	-0.003524211
206	0xbcb6924b	-0.022286555
207	0xbcba18fe	-0.022716995
208	0x3c9b4270	0.018952578
209	0x3d82a0e0	0.06378341
210	0x3cda103d	0.026619071
211	0x3d5e0396	0.05420264
212	0xbe4a66bb	-0.19765751
213	0x3e043a73	0.12912922
214	0x3e172edb	0.14763968
215	0x3e2ec958	0.17068994
216	0x3e1c81d5	0.15283902
217	0xbe18eac3	-0.14933304
218	0xbdb1d817	-0.08683794
219	0x3e20749b	0.15669481
220	0xbe075c04	-0.13218695
221	0x3e4661f8	0.1937331
222	0xbe1beb68	-0.15226519
223	0xbe17d2ef	-0.14826559
224	0x3db69d9a	0.08916779
225	0xbe168c00	-0.14701843
226	0xbd9ac2b9	-0.07556672
227	0x3e1d0485	0.15333755
228	0x3e248c83	0.16069226
229	0x3e3fc887	0.18728839
230	0xbd38f49c	-0.045155153
231	0xbe433846	-0.19064435
232	0x3e50ce28	0.20391142
233	0xbd2a7059	-0.04161105
234	0xbdb61388	-0.08890444
235	0x3d425870	0.04744762
236	0xbe28fb9e	-0.16502234
237	0x3e1c9f67	0.15295182
238	0x3e0cde13	0.1375659
239	0xbe1f2751	-0.15542342
240	0xbe2344d8	-0.1594423
241	0xbd1d9981	-0.03847647
242	0x3dd6f477	0.10495847
243	0x3bf6521b	0.007517112
244	0xbdc60c15	-0.09670273
245	0x3c350866	0.011049366
246	0xbe56628d	-0.20936032
247	0xbe03edf8	-0.12883747
248	0xbe0362fe	-0.12830731
249	0x3e2b53c3	0.16731171
250	0x3e36e773	0.17861728
251	0xbd8278d1	-0.063707
252	0x3aae7ba4	0.0013311994
253	0x3d9fb481	0.077981
254	0x3c222467	0.009896374
255	0xbddf34ff	-0.1089878

m_transform.0.0.bias f4 [64]
0	0xba704702	-0.00091658544
1	0xbc919e3f	-0.017775653
2	0xbdd7fbbc	-0.105460614
3	0x3e30ae6f	0.17254041
4	0x3e0af8c9	0.13571467
5	0xbdbde4db	-0.09272166
6	0x3e33c1ec	0.17554444
7	0x3e5f8166	0.21826705
8	0xbe04d943	-0.12973504
9	0x3b3ca9be	0.0028787698
10	0x3e3df565	0.18550642
11	0xbe0528b2	-0.13003805
12	0xbc67a425	-0.014138256
13	0xbe075565	-0.13216169
14	0x3e23bd09	0.1599008
15	0x3d0e7868	0.034782797
16	0x3dcd6ea5	0.100308694
17	0x3df30fce	0.11868249
18	0xbcc3af91	-0.023887428
19	0xbe50ee6a	-0.20403448
20	0x3c566921	0.013086588
21	0x3b7df3e1	0.00387501
22	0x3dbbf552	0.091776505
23	0x3dac8a55	0.08424822
24	0xbdde0a84	-0.108418494
25	0xbda4b170	-0.08041656
26	0x3dd4ce09	0.103908606
27	0x3ced5068	0.028969005
28	0x3d61afca	0.055099286
29	0x3d99239c	0.07477495
30	0x3de0c54f	0.10975134
31	0xbe21ceba	-0.15801516
32	0x3ac3d9c9	0.0014942224
33	0x3c8ea913	0.017414605
34	0xbe612230	-0.21985698
35	0x3c11c104	0.008896116
36	0xbc28b43c	-0.0102968775
37	0x3e19ec87	0.15031634
38	0xbe3b7764	-0.18307263
39	0x3e22b9e5	0.15891226
40	0xbdbc1201	-0.091831215
41	0x3d99523a	0.074863866
42	0x3e032bf1	0.12809731
43	0xbd6e014e	-0.058106713
44	0xbde74f3b	-0.11294409
45	0xbd474f0a	-0.048659362
46	0xbdfd4834	-0.12367287
47	0x3ca6eff3	0.020378089
48	0x3d848449	0.06470544
49	0x3d51ac12	0.05118949
50	0xbe171126	-0.14752635
51	0x3dcfe12c	0.1015037
52	0x3e49d096	0.19708475
53	0xbd2b3770	-0.041800916
54	0x3da4e86d	0.08052144
55	0x3b8c21b1	0.0042764773
56	0x3da67989	0.0812865
57	0xbe2f35c4	-0.17110354
58	0xbe23b75e	-0.15987918
59	0x3b6655ba	0.0035146312
60	0xbe44fc13	-0.19236784
61	0x3d9f53bc	0.07779643
62	0x3e2f28a2	0.17105344
63	0xbd39c9f9	-0.04535863

m_transform.0.3.weight f4 [64, 32, 1, 1]
0	0x3c33eaff	0.01098132
1	0x3d2fb72b	0.042899292
2	0xbdaa881f	-0.08326744
3	0x3bb6fa3c	0.0055840295
4	0x3d74dbf8	0.05978009
5	0x3e1b5b23	0.15171485
6	0xbe16cadd	-0.14725824
7	0xbc2f9ed2	-0.010719018
8	0xbe0c1ad0	-0.13682103
9	0xbbe1c1dd	-0.0068895654
10	0x3b9c5ec0	0.0047720373
11	0xbd8b3d0e	-0.06798755
12	0x3def03ea	0.116706684
13	0x3e042ee9	0.1290852
14	0xbd907c11	-0.07054914
15	0xbc3bf165	-0.011471127
16	0xbd51c43a	-0.051212527
17	0x3c375b42	0.011191191
18	0x3d7cd3ef	0.061725553
19	0x3e35054f	0.17677806
20	0xbe1d5c77	-0.15367304
21	0x3dbae053	0.09124818
22	0xbdc7f7a1	-0.09764028
23	0xbe096ced	-0.13420458
24	0x3e14355e	0.14473483
25	0xbd5c7aa8	-0.05382791
26	0xbd915a31	-0.07097281
27	0x3d6f14b4	0.058369353
28	0xbc53c9ce	-0.012926532
29	0xbe218315	-0.1577266
30	0xbda2e519	-0.07953853
31	0xbd8c0cab	-0.06838354
32	0xbcceb50b	-0.025232812
33	0xbe0ebc35	-0.13938983
34	0xbe428770	-0.18996978
35	0x3dadac61	0.08480144
36	0xbe370380	-0.17872429
37	0xbcaec032	-0.02133188
38	0x3e146d3d	0.14494796
39	0xbd5ce235	-0.053926665
40	0xbdffaaa3	-0.12483718
41	0x3d392644	0.04520251
42	0x3e28f41a	0.16499367
43	0xbd12d01b	-0.035842996
44	0xbc9a390a	-0.018826026
45	0x3d965c57	0.07341831
46	0x3c5cab5e	0.0134685915
47	0x3d23aeb6	0.03996154
48	0x3d93a373	0.0720891
49	0x3da0f264	0.07858732
50	0xbdc44408	-0.095832884
51	0xbdb43917	-0.087999515
52	0x3dd2a7c1	0.10285903
53	0x3c990dff	0.018683432
54	0x3d12ae57	0.035810795
55	0x3e386232	0.18006209
56	0x3dcb8e5f	0.099392645
57	0x3db117bc	0.08647105
58	0x3e2d6ced	0.16936083
59	0xbe2acd57	-0.16679893
60	0x3d1a726b	0.037706774
61	0x3d974f5e	0.07388185
62	0xbd2aebb8	-0.041728705
63	0xbdd8bf8b	-0.10583409
64	0x3cba56be	0.02274644
65	0xbe180611	-0.14846064
66	0xbd93d94b	-0.0721918
67	0x3de18e8e	0.11013518
68	0xbd8c6668	-0.0685547
69	0xbd6e77df	-0.058219787
70	0x3d82e997	0.0639221
71	0xbdaeb1d6	-0.08530013
72	0x3d04386c	0.03228037
73	0xbe53897e	-0.20657918
74	0x3da05a6d	0.07829747
75	0xbe229a86	-0.15879259
76	0xbab42531	-0.0013743994
77	0xbe34f963	-0.17673258
78	0xbe142afd	-0.14469524
79	0x3e12964c	0.14315146
80	0xbdc9bdaf	-0.098506324
81	0xbcaefd55	-0.021361033
82	0xbd117273	-0.035509538
83	0x3e05ed8e	0.13078901
84	0x3db128af	0.08650338
85	0x3dacee6a	0.084439114
86	0xbd964f2b	-0.07339319
87	0xbd8134d1	-0.06308902
88	0x3e03f4d6	0.12886366
89	0x3cc2b796	0.023769181
90	0x3cc2e826	0.023792338
91	0xbe0c483e	-0.13699433
92	0xbe2ed7b8	-0.17074478
93	0xbaf48d28	-0.001865779
94	0xbdec9f9e	-0.11553882
95	0x3e1237ad	0.14279051
96	0x3e16411d	0.14673276
97	0xbdb1d6a6	-0.08683519
98	0xbdea8b98	-0.11452407
99	0x3e2951d9	0.16535129
100	0xbd89b780	-0.06724453
101	0xbe07aee7	-0.13250314
102	0xbe003c83	-0.12523083
103	0x3c27a1b3	0.010231423
104	0x3ca35acd	0.019940758
105	0x3dd5e157	0.10443371
106	0x3e055a77	0.13022791
107	0x3d92ece9	0.07174093
108	0x3c7d0a84	0.015444402
109	0x3e14668c	0.14492244
110	0xbdc28ec8	-0.094998896
111	0xbc48f4d2	-0.012265401
112	0x3e17dc47	0.14830123
113	0xbdb822eb	-0.08991035
114	0x3e03cd29	0.12871231
115	0x3dae506d	0.08511434
116	0x3d5dca89	0.05414823
117	0xbd4a25f9	-0.04935262
118	0xbe2c70fd	-0.16839977
119	0x3dfd6c0d	0.12374125
120	0x3e11fea0	0.14257288
121	0xbdea47cd	-0.11439476
122	0xbdb801f0	-0.089847445
123	0x3bbaaf10	0.0056971386
124	0x3d3542ba	0.04425309
125	0xbbf49cfa	-0.007465002
126	0xbdf8f58f	-0.121562116
127	0x3e07cc6b	0.13261573
128	0xbdcae4d4	-0.09906927
129	0x3e2fc46b	0.17164771
130	0x3bfc9e49	0.0077092987
131	0x3db2427c	0.08704087
132	0x3cf72d75	0.030173043
133	0x3cecb2ca	0.028893847
134	0x3e034942	0.12820914
135	0xbba4429a	-0.0050128223
136	0x3dfeb082	0.1243601
137	0x3d21d170	0.039506376
138	0xbdd896be	-0.10575627
139	0x3dd81d82	0.10552503
140	0xbe049efe	-0.12951276
141	0x3da27327	0.0793212
142	0xbd320eb0	-0.04347104
143	0x3d253878	0.040337056
144	0xbca1e68c	-0.019763254
145	0x3d1222fb	0.03567789
146	0xbd86b9a5	-0.06578378
147	0x3d7c3d25	0.06158175
148	0x3db0c417	0.08631151
149	0xbe2994a8	-0.16560614
150	0x3e1438d0	0.14474797
151	0xbe222045	-0.15832622
152	0xbdbbd7b3	-0.09172001
153	0x3d80cf4a	0.06289537
154	0x3e3d01ac	0.18457669
155	0x3d2f3464	0.042774573
156	0xbde490e9	-0.11160452
157	0x3cea61b2	0.028611038
158	0xbddcba4f	-0.10777723
159	0x3d9a6f10	0.07540715
160	0x3cecf753	0.028926527
161	0xbae84e19	-0.001772347
162	0xbdf0a803	-0.11750796
163	0x3dd78214	0.10522857
164	0x3e4295fd	0.19002528
165	0xbdca7736	-0.09886019
166	0x3d8a56a1	0.067548044
167	0xbdd8b6e7	-0.10581761
168	0xbd6a165f	-0.05715024
169	0x3e27874a	0.16360202
170	0xbe168f30	-0.14703059
171	0xbd32844c	-0.0435832
172	0x3da48f76	0.080351755
173	0x3d31a93d	0.04337429
174	0xbd9da763	-0.07697942
175	0xbd4ccce5	-0.05000009
176	0x3d740a3f	0.059580084
177	0xbe43055f	-0.19045018
178	0x3d48c47b	0.049015503
179	0xbd734ede	-0.059401385
180	0xbcf37db2	-0.029723022
181	0x3e1a12d0	0.15046239
182	0xbe102fbd	-0.1408071
183	0xbd4ae3d8	-0.049533695
184	0xbde6be06	-0.11266713
185	0x3db3e9d1	0.08784831
186	0x3df792c1	0.12088538
187	0xbe057df0	-0.13036323
188	0x3db5d0b7	0.088777
189	0x3de2c445	0.11072592
190	0xbe3b124b	-0.18268697
191	0x3dc19ef5	0.09454147
192	0x3d4e524c	0.050371453
193	0xbd22a445	-0.03970744
194	0x3de76118	0.11297816
195	0xbd1319f5	-0.035913426
196	0xbd076fe1	-0.03306568
197	0x3dc65d30	0.09685743
198	0xbe380ac3	-0.17972855
199	0xbe3cc7b4	-0.18435556
200	0x3c3c1c7b	0.0114814
201	0xbc4e7ce3	-0.0126030175
202	0x3a98b32b	0.0011650076
203	0xbe074197	-0.13208614
204	0x3df95c5c	0.12175819
205	0xbe00f942	-0.12595084
206	0xbdbf4f0a	-0.093412474
207	0xbe132dfd	-0.14373012
208	0xbe41196a	-0.18857351
209	0x3cd80026	0.026367258
210	0xbd80f93d	-0.062975384
211	0x3dea793c	0.11448905
212	0x3e1ea321	0.15491916
213	0x3d2d30ae	0.042282753
214	0x3e0ea138	0.13928688
215	0xbddf0b64	-0.108908445
216	0x3da5e605	0.08100513
217	0x3de603a7	0.112311654
218	0xbda75ddd	-0.081722
219	0xbce9157d	-0.02845263
220	0xbe4903b0	-0.19630313
221	0x3c88f4eb	0.016718348
222	0xbe4d43e7	-0.20045434
223	0xbdfe68b9	-0.12422318
224	0xbe130461	-0.14357139
225	0xbcc12401	-0.023576738
226	0x3ce5c050	0.028045803
227	0xbe13e03f	-0.14441012
228	0xbd1353b0	-0.035968482
229	0x3e039b4f	0.12852214
230	0x3bbfb034	0.0058498625
231	0x3c2a5dfd	0.010398385
232	0xbd887581	-0.06663037
233	0xbd88151c	-0.06644651
234	0xbe32df79	-0.1746806
235	0x3e2584cf	0.16163944
236	0x3c36d432	0.01115899
237	0x3d957104	0.07296947
238	0x3dc8b234	0.097996145
239	0x3e4a2b77	0.19743143
240	0xbdedc143	-0.11609127
241	0x3d5a9f9b	0.053374868
242	0xbe118e8e	-0.14214537
243	0x3de3f371	0.11130417
244	0xbdc1b4bc	-0.094583005
245	0x3d86b708	0.06577879
246	0xbe0c97ac	-0.13729733
247	0x3df867f5	0.12129203
248	0x3e0919a0	0.13388681
249	0x3da8fdbc	0.08251521
250	0xbe1516fc	-0.14559549
251	0x3de1a889	0.11018474
252	0xbdc18f2d	-0.09451137
253	0xbe08d88e	-0.13363859
254	0x3dd58089	0.10424907
255	0x3d13c7eb	0.03607933

m_transform.0.3.bias f4 [64]
0	0x3d55978e	0.052146487
1	0x3e12273b	0.14272778
2	0x3dea69d2	0.11445965
3	0xbe1a683a	-0.15078822
4	0xbdc96488	-0.09833628
5	0x3db16035	0.08660928
6	0xbd8c5962	-0.06852986
7	0xbd57328d	-0.052538443
8	0xbd95f2dc	-0.073217124
9	0xbe0cf403	-0.13764958
10	0xbbb63c02	-0.0055613527
11	0x3d12030f	0.03564745
12	0xbd573e84	-0.052549854
13	0xbdc82e20	-0.09774423
14	0xbdfd3b6a	-0.12364848
15	0x3e3174d7	0.17329727
16	0x3e23adbc	0.15984243
17	0xbdbfabdb	-0.09358951
18	0xbe15cc06	-0.1462861
19	0xbd1b0a84	-0.037851825
20	0xbdc0ea40	-0.0941968
21	0xbe234ee1	-0.15948059
22	0xbe0d37ed	-0.13790865
23	0x3dd46386	0.10370545
24	0xbcaf99b6	-0.0214356
25	0x3df007ef	0.11720263
26	0x3d922422	0.07135798
27	0xbd06bd33	-0.03289528
28	0xbcfcbb61	-0.030851068
29	0x3ddfd181	0.109286316
30	0xbd32ad38	-0.043622226
31	0xbe0425c1	-0.12905027
32	0x3d7188d7	0.05896839
33	0xbda1e418	-0.079048336
34	0x3d7c4193	0.061585974
35	0x3d327933	0.043572616
36	0xbe272b13	-0.16325025
37	0xbdd17b62	-0.102286115
38	0x3ce6a39d	0.028154189
39	0x3b86044e	0.0040898686
40	0x3d67fda9	0.056638394
41	0xbc8beb50	-0.01707998
42	0xbd33baab	-0.043879192
43	0xbcedd3d5	-0.029031673
44	0x3ddf052e	0.1088966
45	0xbdb2cd30	-0.08730543
46	0xbd682f8b	-0.056685966
47	0x3e0a9230	0.13532329
48	0x3e204d42	0.15654472
49	0x3e0d16d0	0.13778234
50	0x3e35a9b2	0.17740515
51	0xbdecef86	-0.11569123
52	0xbd657852	-0.05602295
53	0xbe1229e6	-0.14273795
54	0xbd8b2d29	-0.06795723
55	0x3e0f7d9d	0.14012761
56	0x3e11c97a	0.14237013
57	0xbe1ac401	-0.15113832
58	0x3df7809d	0.12085078
59	0xbd4e52c8	-0.050371915
60	0x3ddbd28c	0.10733518
61	0x3d4ab476	0.049488507
62	0xbde5e1d9	-0.11224718
63	0x3e034329	0.12818588

m_transform.0.5.running_mean f4 [32]
0	0x4013b67a	2.3080125
1	0x3fe22b3c	1.7669444
2	0xbfa93741	-1.3219987
3	0x3cb343b2	0.021882866
4	0x3fac574e	1.3464143
5	0x3d385750	0.045005143
6	0xbe241ad3	-0.16025858
7	0x3e83f946	0.25776118
8	0xbf67f5ef	-0.9060964
9	0x3ee62efa	0.44957715
10	0xbe042674	-0.12905294
11	0x3e3f0baf	0.186568
12	0x3e1f5165	0.15558393
13	0xbdb52496	-0.08844869
14	0x3f27341a	0.65313876
15	0x3ffea893	1.9895195
16	0x3dfc89d0	0.12330973
17	0x3e84bab7	0.25923702
18	0x3e17771f	0.14791535
19	0xbf145e91	-0.57956797
20	0x3d8406b6	0.064465925
21	0x3ffd115c	1.9770923
22	0x3da4c649	0.080456324
23	0x3f4bb375	0.79570705
24	0xbf3e1f45	-0.74266464
25	0x3efa0762	0.48833758
26	0xbdbd7bbb	-0.09252115
27	0xbe48ee77	-0.19622217
28	0x3fde5219	1.7368804
29	0x3e17db19	0.14829673
30	0x3d69a114	0.05703838
31	0x40460b20	3.094429

m_transform.0.5.running_var f4 [32]
0	0x3fcfcedd	1.6235005
1	0x3f52b54a	0.82307875
2	0x3f14f1cc	0.5818145
3	0x3dab6e4a	0.08370645
4	0x3f1f605d	0.62256414
5	0x3de8fbbf	0.11376142
6	0x3d7ed504	0.062214866
7	0x3d30b8df	0.043145057
8	0x3e0a9f60	0.13537359
9	0x3d89206c	0.06695637
10	0x3cecbe97	0.028899474
11	0x3cd674dc	0.02617877
12	0x3d64abd7	0.05582794
13	0x3c97f92b	0.01855143
14	0x3e3d453a	0.18483439
15	0x3f867c03	1.0506595
16	0x3d59274a	0.053015985
17	0x3d07e6d0	0.033179104
18	0x3d3aebd8	0.045635074
19	0x3dfe90cf	0.12429964
20	0x3d38c4fe	0.04510974
21	0x3fc4a6fd	1.5363461
22	0x3cf9ac86	0.030477773
23	0x3de7e24f	0.11322462
24	0x3e21554d	0.15755196
25	0x3dbcf42d	0.0922626
26	0x3d23feec	0.040038034
27	0x3d281975	0.041039903
28	0x3fb096c6	1.3796012
29	0x3d7599b0	0.05996102
30	0x3cdf170d	0.027232671
31	0x4011d251	2.2784617

m_transform.0.6.weight f4 [96, 32, 3, 3]
0	0xbd21a20e	-0.039461188
1	0xbce8a30e	-0.028398063
2	0xbd065cb4	-0.032803252
3	0x3cfa66ef	0.03056666
4	0x3cbfd071	0.023414822
5	0xbcbb4f6d	-0.022865022
6	0xbccd2719	-0.025043057
7	0x3c44e8d6	0.012018403
8	0x3d18f2ff	0.037341114
9	0x3d05640b	0.03256611
10	0xbd695bc1	-0.05697227
11	0x3cd11e39	0.025527107
12	0xbd42ae56	-0.04752954
13	0xbcada561	-0.021197023
14	0xbac8da52	-0.0015323854
15	0xbd1bdb3e	-0.038050883
16	0x3ceab9ca	0.028653044
17	0xbd38fa7b	-0.04516075
18	0x3b8ec00b	0.0043563894
19	0xbcf65438	-0.030069456
20	0x3cf004e6	0.02929921
21	0x3ba44989	0.005013649
22	0x3c4ccdb0	0.012500212
23	0xbc14a33a	-0.009072119
24	0xbd44e4b3	-0.048069667
25	0xbd1d69a8	-0.03843084
26	0x3d2f7ff9	0.042846654
27	0x3d583e0e	0.052793555
28	0xbd86b722	-0.065778986
29	0xbd6e8cb2	-0.058239646
30	0x3c771e9e	0.015082983
31	0xbd937d31	-0.07201613
32	0xbd59806a	-0.05310098
33	0x3d782166	0.060578726
34	0xbd9e888d	-0.07740889
35	0x3ca258be	0.019817706
36	0x3d6356bc	0.05550264
37	0xbd82678a	-0.06367405
38	0x3c5b5da2	0.013389023
39	0xbd252f5f	-0.04032838
40	0xbc826aba	-0.015920032
41	0xbd2fad64	-0.042889968
42	0xbc9ac735	-0.018893817
43	0xb9e38960	-0.00043399166
44	0x3cab73ff	0.020929335
45	0xbafa6b9e	-0.0019105559
46	0xbc6594bb	-0.014012511
47	0x3a745130	0.0009319959
48	0xbd18da1f	-0.03731739
49	0x3944e003	0.00018775467
50	0xbd8fe72b	-0.07026514
51	0xbc289e35	-0.010291626
52	0x3d55ee85	0.052229423
53	0xbd265561	-0.040608767
54	0xbc6e5e0b	-0.014548789
55	0xbd9531cb	-0.07284888
56	0x3b13a7db	0.002253047
57	0x3d0ddd03	0.0346346
58	0xbd894c70	-0.067040324
59	0xbd306faa	-0.04307524
60	0x3d36518b	0.04451136
61	0xbda5cee2	-0.080961004
62	0xbcf35e5f	-0.029708086
63	0xbd835553	-0.06412759
64	0xbceeeeae	-0.029166546
65	0x3ba918ec	0.0051604416
66	0x3bf81a99	0.00757153
67	0xbcdc04c2	-0.026857737
68	0xbc899d80	-0.016798735
69	0xbd5a357c	-0.053273663
70	0x3c55e6a8	0.013055481
71	0xbcc85e67	-0.024459077
72	0x3cc2a8b9	0.023762094
73	0x3c476722	0.012170585
74	0xbd0ee637	-0.03488752
75	0xbd7a4229	-0.06109825
76	0x3c341f43	0.0109937815
77	0xbdb00393	-0.08594432
78	0xbda09ac5	-0.0784202
79	0x3d0184db	0.03162084
80	0xbd9f3a89	-0.077748366
81	0xbb6b423c	-0.0035897633
82	0x3c5c875d	0.0134600075
83	0xbd1528e0	-0.036415935
84	0x3d0fb102	0.035080917
85	0xbc5b5379	-0.013386601
86	0x3cc9dbf4	0.024641015
87	0xbd0abdca	-0.033872403
88	0xbd4d4d93	-0.05012281
89	0xbd640329	-0.055667076
90	0x3d87f244	0.066380054
91	0xbcdff0d1	-0.02733651
92	0xbcea6fd2	-0.028617773
93	0x3d00eadb	0.031473976
94	0xbd90fb31	-0.07079161
95	0x3b670fa2	0.003525712
96	0x3cac5266	0.021035384
97	0xbd354eb6	-0.044264518
98	0xbc98ffc9	-0.018676655
99	0xbcfbbd2a	-0.030729849
100	0xbb09381d	-0.0020937987
101	0x3c7866ea	0.015161255
102	0xbd345b6f	-0.04403251
103	0x3d795fa7	0.060882237
104	0x3d3718c8	0.044701368
105	0x3d465ad9	0.048426483
106	0x3d095a4e	0.033533387
107	0x3c0d765d	0.008634177
108	0x3d5e058b	0.054204505
109	0x3d61ed9d	0.055158246
110	0x3b546fe9	0.0032415336
111	0x3c37ab20	0.011210233
112	0x3b099817	0.0020995194
113	0xbd1eb25c	-0.038744316
114	0x3d9d1538	0.07670063
115	0xbc991672	-0.01868746
116	0xbd6337ca	-0.055473126
117	0xbcfe8a1c	-0.031071715
118	0xbb9be553	-0.004757562
119	0x3c9ea49e	0.019365605
120	0xbc9189d8	-0.017765924
121	0x3d612662	0.054968245
122	0x3d3112c5	0.04323079
123	0x38b1daac	8.4807485e-05
124	0x3dbde39e	0.0927193
125	0xbacbcf30	-0.0015549418
126	0xbc78b87f	-0.015180706
127	0x3d1261a2	0.03573764
128	0x3cab6ee1	0.020926895
129	0xbc59fc3c	-0.013304766
130	0x3c94b3a3	0.018152064
131	0xbce2873d	-0.027652377
132	0xbb4d2f3c	-0.0031308671
133	0x3d5f48a3	0.05451263
134	0x3d659d0d	0.05605798
135	0x3d7be8db	0.061501365
136	0xbd51660d	-0.051122714
137	0xbc264a5d	-0.0101495655
138	0x3cfd1f8a	0.030898828
139	0x3d12159a	0.035665132
140	0xbd21c390	-0.039493144
141	0xbd0625c4	-0.03275086
142	0x3c92b744	0.017909653
143	0xbd385129	-0.044999275
144	0x3c0d1b90	0.008612528
145	0xbce4c185	-0.027924309
146	0x3c9f9774	0.019481398
147	0xbd51eb82	-0.05124999
148	0xbced7cf5	-0.028990248
149	0xbd8063ce	-0.06269036
150	0xbbfcdbba	-0.007716623
151	0xbc1cd205	-0.009571557
152	0xbd67e2cd	-0.05661278
153	0x3dd08831	0.101822264
154	0x3c8c8432	0.01715288
155	0x3d4367ae	0.0477063
156	0x3cf804e7	0.030275775
157	0xbc86b5b7	-0.01644407
158	0x3c92f4c4	0.017938979
159	0x3d4cf0fb	0.050034504
160	0x3b6e4d79	0.0036362095
161	0xbc40ef2a	-0.011775771
162	0xbc8f8001	-0.017517092
163	0xbbce815e	-0.006302043
164	0xbd199d1c	-0.037503347
165	0xbd3d4cf4	-0.046215966
166	0xbc2c6f86	-0.010524636
167	0xbcd6d154	-0.026222862
168	0xbd11f897	-0.035637464
169	0xbce5cdfc	-0.028052323
170	0x3cf3f951	0.02978197
171	0xbbed5dcb	-0.007243847
172	0x3d3d5467	0.04622307
173	0x3d005c48	0.031338006
174	0xbc49eb15	-0.012324114
175	0x3d912e9a	0.07088967
176	0xbc92a06d	-0.017898763
177	0xbd523162	-0.051316626
178	0x3d62d643	0.055380117
179	0xbcef3166	-0.02919836
180	0x3d23d016	0.039993368
181	0x3d1f662e	0.038915806
182	0x3900a102	0.00012267011
183	0xbca9a7d8	-0.020709917
184	0x3c14aaa5	0.009073888
185	0x3d56ba78	0.052423924
186	0x3d63869f	0.055548307
187	0x3c41c0b6	0.011825731
188	0x3caa1295	0.020760814
189	0x3d5b6834	0.053566173
190	0x3c561d50	0.013068512
191	0xbd64068e	-0.055670314
192	0xbc51ed50	-0.012812927
193	0x3b15f630	0.0022882335
194	0x3c6687b9	0.014070445
195	0xbd416372	-0.04721398
196	0xbd5315a1	-0.0515343
197	0xbd1d7419	-0.038440797
198	0x3c7074e4	0.014676306
199	0x3d1baa04	0.038003936
200	0xbd108e73	-0.0352921
201	0x3ce6367d	0.028102154
202	0xbd2a4ae0	-0.041575313
203	0x3d27eb72	0.040996023
204	0xbcbdca53	-0.023167765
205	0xbd6b5741	-0.05745626
206	0x3cad6bdf	0.021169601
207	0xbd63a873	-0.055580568
208	0x3cebe3f4	0.02879522
209	0xbcadda92	-0.021222387
210	0x3cc89786	0.024486315
211	0xbd476e7e	-0.048689358
212	0x3d49a443	0.049228918
213	0x3d0cd8e3	0.034386527
214	0xbbc706ac	-0.0060737934
215	0xbce3bc7c	-0.027799837
216	0xbd37f1d1	-0.04490835
217	0xba72ce01	-0.00092622644
218	0xbd7b36b1	-0.061331455
219	0xbc855a4f	-0.016278414
220	0x3ce685f1	0.02814004
221	0xbc88ead0	-0.01671353
222	0xbd311993	-0.04323728
223	0xbd2608fc	-0.040535912
224	0xba1e4ef8	-0.0006038989
225	0xbd3b551e	-0.04573547
226	0xbd5aed7c	-0.05344914
227	0xbc5c4135	-0.013443281
228	0x3d1b1c99	0.03786907
229	0xbcf22c73	-0.02956221
230	0xbc1df94e	-0.009641958
231	0xbc9ade59	-0.018904852
232	0x3d3e9095	0.046524603
233	0xbce07694	-0.027400292
234	0xbcff9317	-0.031198068
235	0x3d82c268	0.06384736
236	0xbcd6fc4d	-0.026243353
237	0x3cce79a6	0.02520449
238	0x3b031ac9	0.002000498
239	0xbd43bf97	-0.047790136
240	0xbc85f0ab	-0.016350111
241	0xba02d325	-0.00049905694
242	0xbda206e9	-0.07911474
243	0xbd5eb0b0	-0.05436772
244	0xbd88cfa1	-0.06680227
245	0xbd147ad8	-0.036249965
246	0xbc087221	-0.008327992
247	0xbd448278	-0.047975987
248	0xbd22eb7c	-0.039775357
249	0xbb7e2f1a	-0.00387854
250	0xbd10c1a5	-0.035340924
251	0x3bc56a6d	0.00602465
252	0xbd2dbdca	-0.042417325
253	0xbd63b2d9	-0.055590484
254	0x3d1e1a99	0.038599584
255	0x3cee97ae	0.02912506

m_transform.0.6.bias f4 [96]
0	0xbcc5c17a	-0.024140108
1	0x3d897868	0.06712419
2	0xbcb3e274	-0.021958567
3	0xbd3c4f63	-0.045974147
4	0xba962aad	-0.001145681
5	0x3ccef64c	0.025263928
6	0x3ca2066e	0.019778457
7	0xbc0e6441	-0.008690895
8	0xbbfc2bdd	-0.0076956586
9	0xbd124dc6	-0.0357187
10	0xbd45bb7d	-0.048274506
11	0xbd43754b	-0.04771928
12	0x3d82fff6	0.06396477
13	0x3d120f7f	0.03565931
14	0x3d1d2ebc	0.038374647
15	0xbd67106c	-0.056412145
16	0x3d03cbb2	0.03217668
17	0xbc7631b0	-0.015026495
18	0x3cc1c2d9	0.02365248
19	0x3af7773d	0.001888014
20	0xbd2c137a	-0.04201076
21	0x3d216d55	0.039410908
22	0x3d62b35b	0.055346828
23	0x3c0358c8	0.008016773
24	0x3ca5f813	0.020259893
25	0xbc91b043	-0.017784243
26	0x3c9d3cda	0.019194055
27	0x3c1d0340	0.009583294
28	0xbd6399b8	-0.05556652
29	0xbd35193a	-0.04421351
30	0xbc48b54d	-0.012250257
31	0xbc4d7283	-0.012539509
32	0x3d65fa4a	0.056146897
33	0x3d0e395c	0.03472267
34	0x3cbdc0ac	0.023163162
35	0x3b50f58f	0.0031884646
36	0x3c9eae04	0.019370086
37	0xbcd2b4a2	-0.025720898
38	0xbc99d1ee	-0.01877686
39	0xbcd44521	-0.02591187
40	0x3cd9d242	0.026589517
41	0xbccad24f	-0.024758486
42	0xbcb89261	-0.022530736
43	0x3cfeaf9c	0.031089596
44	0x3c63a42e	0.013894124
45	0xbd315c89	-0.04330114
46	0xbc88aaf2	-0.016683076
47	0xbc86d4f8	-0.016458973
48	0x3d5d1b9a	0.0539814
49	0x3ca14be8	0.019689515
50	0x3ce7b9f0	0.028286904
51	0x3d626ae4	0.05527772
52	0xbd1bdd1a	-0.038052656
53	0xbc858924	-0.016300745
54	0xbb1ff6b6	-0.0024408526
55	0x3d453d2b	0.048154037
56	0x3c2935a2	0.010327728
57	0x3ce2c23c	0.027680509
58	0x3ba873e8	0.00514077
59	0x3d6bf7e2	0.057609446
60	0x3c9febcb	0.019521615
61	0xbd46cdb5	-0.04853602
62	0x3d53773b	0.05162738
63	0xbb9c65d7	-0.0047728824
64	0x3c9bb7ad	0.019008482
65	0xbc9256c5	-0.01786364
66	0xbd5087f9	-0.050910924
67	0xbce49611	-0.027903588
68	0xbd36a39a	-0.044589616
69	0xbd6340a6	-0.055481575
70	0xbba81a34	-0.005130077
71	0x3d98a895	0.074540295
72	0xbcb01569	-0.021494584
73	0x3abb9c64	0.0014313576
74	0x3c6b7271	0.014370547
75	0xbd2214e3	-0.0395707
76	0x3d216b63	0.039409053
77	0xb988bc90	-0.0002608043
78	0xbd62a3d9	-0.05533204
79	0x3c656053	0.014000016
80	0xbd8ca52a	-0.0686744
81	0xbc1a7af2	-0.0094287265
82	0x3c9708af	0.018436758
83	0xbc8e6fba	-0.01738726
84	0xbd0d4462	-0.034489043
85	0x3d1abd03	0.037777912
86	0xbd15f0da	-0.036606647
87	0xbc4d3e76	-0.012527099
88	0x3d6f80f7	0.0584726
89	0x3ad9ff63	0.0016631897
90	0xbd62b259	-0.055345867
91	0xbd9352de	-0.0719354
92	0xbd30f1fa	-0.043199517
93	0x3d80979f	0.062789194
94	0xbcdbb93b	-0.026821723
95	0x3d428004	0.047485366

m_transform.0.9.running_mean f4 [48]
0	0x3f816161	1.0107843
1	0x3fde47ab	1.7365621
2	0x3f7fb014	0.9987805
3	0x3fd1f898	1.640399
4	0x3f8aaea6	1.0834548
5	0x3f6346a9	0.88779694
6	0x400e1139	2.2198012
7	0x3f653eb9	0.8954883
8	0x3fa656b5	1.2995211
9	0x3fde128e	1.7349412
10	0x3f81ecfe	1.0150449
11	0x3fb8ad4a	1.4427884
12	0x3fc0b5cc	1.505548
13	0x3f77a9f5	0.9674371
14	0x3fa32866	1.2746704
15	0x3f46cd7d	0.776573
16	0x3fac8963	1.3479427
17	0x3f9be457	1.2179059
18	0x40194240	2.3946686
19	0x3fcf91e0	1.6216393
20	0x3f451dd8	0.7699866
21	0x3f611a83	0.8793108
22	0x3fc4ae6e	1.5365732
23	0x3f3fcfc6	0.7492641
24	0x3fb6c4c4	1.4278798
25	0x3fab833e	1.3399427
26	0x3fa3b804	1.2790532
27	0x3f650f41	0.894764
28	0x3fd4dc0d	1.6629654
29	0x3f454bc1	0.77068716
30	0x3fc222e0	1.5166893
31	0x3f873db1	1.0565702
32	0x3f7ab962	0.9793912
33	0x3f8f003b	1.1171945
34	0x3f7fe40d	0.9995735
35	0x3fa6e14e	1.3037508
36	0x3ff551d9	1.9165603
37	0x4008c640	2.1371002
38	0x3faebd64	1.3651547
39	0x3f91e91d	1.1399266
40	0x3fa8907d	1.3169094
41	0x3f9dfb36	1.2342288
42	0x3fdba549	1.7159816
43	0x3f573c63	0.8407652
44	0x3f882e73	1.0639175
45	0x3f8daac4	1.1067739
46	0x3f9baaae	1.2161462
47	0x3f6bfca4	0.92182374

m_transform.0.9.running_var f4 [48]
0	0x3f310a74	0.69156575
1	0x3f5132b7	0.8171801
2	0x3fc7a729	1.5597888
3	0x400fcc2b	2.2468364
4	0x3f2958c0	0.66151047
5	0x3ede4787	0.43413946
6	0x40304542	2.7542272
7	0x3fe09065	1.7544066
8	0x3f97d89b	1.1862978
9	0x3fd636b5	1.6735445
10	0x3f2d9bbd	0.6781576
11	0x3fb19344	1.3873067
12	0x3f7762fe	0.96635425
13	0x3fac5443	1.3463215
14	0x3ed0cf2c	0.4078306
15	0x3f869c2f	1.0516413
16	0x3f50e185	0.81594115
17	0x3f03bef5	0.5146325
18	0x40821a0d	4.06568
19	0x403ce8d0	2.9517097
20	0x3f35e64d	0.71054536
21	0x3ed3f413	0.4139715
22	0x3f4de0b0	0.8042097
23	0x3fb89ec0	1.4423447
24	0x3f9aa492	1.2081473
25	0x3f72cad0	0.9484072
26	0x3f12b3ab	0.573054
27	0x3fcc3787	1.5954446
28	0x3fbbbfb1	1.4667875
29	0x3f1a369b	0.6023957
30	0x3fcfb511	1.6227132
31	0x409bd07e	4.8692007
32	0x3f30948f	0.6897668
33	0x3f65aff4	0.8972161
34	0x3f5b8957	0.8575644
35	0x3f86532e	1.0494134
36	0x3f7b81d3	0.9824497
37	0x400a385b	2.1596897
38	0x3f327f02	0.6972505
39	0x3f9a7945	1.2068259
40	0x3f90b3b7	1.1304845
41	0x3eb8c63e	0.36088747
42	0x3faf2d48	1.3685694
43	0x3f2f75b2	0.68538964
44	0x3fef827b	1.8711694
45	0x3f6030a4	0.8757422
46	0x3edc9499	0.4308212
47	0x3fe0dc67	1.7567261

m_transform.0.10.weight f4 [96, 48, 1, 1]
0	0xbd08c3bb	-0.033389788
1	0xbdde9791	-0.10868753
2	0xbd34f620	-0.044180036
3	0xbd122459	-0.035679195
4	0x3e4116d9	0.18856372
5	0xbc4461ae	-0.011986179
6	0xbcad436d	-0.021150315
7	0x3dfa058d	0.1220809
8	0x3c93c878	0.018039927
9	0xbe075b30	-0.13218379
10	0x3e13da9d	0.14438863
11	0xbca2a7c1	-0.019855382
12	0xbd89a308	-0.06720549
13	0x3e015880	0.12631416
14	0xbbcba964	-0.0062152613
15	0xbde31d0c	-0.110895246
16	0x3da6df89	0.08148105
17	0x3d819ef2	0.063291445
18	0x3d9982fd	0.07495687
19	0x3d7088f5	0.058724362
20	0xbb149d82	-0.002267689
21	0xbd632643	-0.05545641
22	0x3cd4d30a	0.025979538
23	0x3de4064a	0.11134012
24	0x3d498cb5	0.049206454
25	0x3d93401d	0.07189963
26	0xbbcf62c5	-0.006328913
27	0x3d311205	0.043230075
28	0x3dfb85cd	0.1228138
29	0x3d979bb9	0.074027486
30	0x3d103951	0.03521091
31	0x3cc67174	0.02422402
32	0xbdd857f2	-0.10563649
33	0x3d1d6b27	0.038432267
34	0xbdfd6ab3	-0.12373867
35	0xbda45611	-0.08024228
36	0xbe0ac679	-0.13552274
37	0xbdbe23a0	-0.09284139
38	0x3c8ceda6	0.017203163
39	0x3a82a3e5	0.0009967057
40	0x3e0c0e4d	0.1367733
41	0x3e2e1c8c	0.17003077
42	0xbe03d686	-0.12874803
43	0x3d87e6c9	0.06635816
44	0x3e07ebdd	0.13273568
45	0xbc0d8f61	-0.008640141
46	0x3e04dbf7	0.12974535
47	0xbe0572d6	-0.13032088
48	0x3d6c313a	0.057664134
49	0x3d786941	0.060647253
50	0xbd9917de	-0.074752554
51	0xbdec0cc2	-0.11525871
52	0x3dab26fd	0.08357046
53	0xbe228598	-0.15871274
54	0xbd4b63b2	-0.049655624
55	0xbd973bd6	-0.0738446
56	0xbd019b67	-0.031642344
57	0x3cd8d509	0.02646877
58	0x3d98a35a	0.07453032
59	0x3dd89ac2	0.10576393
60	0x3d1889ab	0.037240665
61	0xbd893cb4	-0.06701031
62	0x3aeff5f5	0.0018307554
63	0x3cdf84c5	0.02728499
64	0x3dedcb30	0.116110206
65	0xbdea44df	-0.11438917
66	0xbda9bb29	-0.08287651
67	0xbd25c209	-0.04046825
68	0xbdb1ce0b	-0.08681878
69	0xbda7a035	-0.08184854
70	0x3d7e90ad	0.062149692
71	0xbd2bd116	-0.041947447
72	0x3dfa877a	0.12232871
73	0x3d946bdb	0.07247134
74	0x3d2b0ab1	0.041758243
75	0x3e23ca9a	0.15995255
76	0xbdef4f74	-0.11685076
77	0x3ccb0c01	0.024785997
78	0xbdc321cb	-0.0952793
79	0x3d705193	0.058671545
80	0x3d35f1d5	0.044420082
81	0x3da26e50	0.07931197
82	0xbda343fe	-0.07971953
83	0xbd174777	-0.03693339
84	0xbc79a542	-0.015237154
85	0xbd757d97	-0.059934225
86	0xbd45cb80	-0.048289776
87	0x3d336ba1	0.043803815
88	0x3da4d186	0.08047776
89	0xbdbc18ba	-0.09184404
90	0xbe0c1fae	-0.1368396
91	0xbdf11ce3	-0.11773088
92	0x3d1ed4a8	0.038777024
93	0x3d1b1792	0.037864275
94	0x3e13fa1d	0.1445088
95	0xbc14dc7b	-0.00908577
96	0x3da9b0a0	0.08285642
97	0xbe121389	-0.14265265
98	0xbd887726	-0.06663351
99	0xbd2edac4	-0.0426891
100	0xbab9efa7	-0.0014185802
101	0x3ddef150	0.108858705
102	0xbdd8c724	-0.10584858
103	0xbe1119a0	-0.14169931
104	0xbdba8ed4	-0.091092736
105	0xbddca363	-0.10773351
106	0xbb998e45	-0.0046861493
107	0xbbb54d48	-0.0055328943
108	0xbde984dc	-0.11402294
109	0x3da1b8a7	0.07896548
110	0x3cc80b0b	0.024419328
111	0x3e160224	0.14649254
112	0xbdb45777	-0.08805745
113	0x3d0b6bbf	0.0340383
114	0x3c591043	0.013248506
115	0xbd73dcf6	-0.059536897
116	0x3d9da12d	0.076967575
117	0xbdb0d714	-0.08634773
118	0xbb835c98	-0.004008841
119	0xbd649e49	-0.055815015
120	0xbde3fba0	-0.11131978
121	0x3df0f420	0.11765313
122	0x3dd1f02e	0.10250889
123	0xbc6c381f	-0.014417677
124	0x3cee16d6	0.029063623
125	0xbd837cfe	-0.06420325
126	0x3c2bf619	0.010495686
127	0xbde42a0a	-0.11140831
128	0x3dc5894d	0.09645329
129	0x3d05ef98	0.032699198
130	0x3d92dd27	0.07171088
131	0xbd82ca78	-0.06386274
132	0xbdd4062b	-0.10352739
133	0xbc2dacd2	-0.010600286
134	0xbdfd292b	-0.12361368
135	0x3de2735b	0.110571586
136	0xbd883eb8	-0.06652588
137	0x3e10843b	0.14112942
138	0x3cf84bbf	0.030309556
139	0xbd6adab9	-0.057337496
140	0x3dbce606	0.09223561
141	0x3cc40274	0.023926951
142	0xbdd918d5	-0.106004395
143	0x3d2f2958	0.042764038
144	0x3db68d21	0.08913637
145	0xbdcbfa11	-0.09959806
146	0x3daad6e2	0.08341767
147	0x3e17eef2	0.14837244
148	0xbe10dc89	-0.14146627
149	0xbdc59888	-0.09648234
150	0xbcbd03f6	-0.023073178
151	0x3db90868	0.090348065
152	0xbdb6c3ce	-0.089240655
153	0x3dc253f0	0.09488666
154	0xbe078a3d	-0.13236327
155	0x3d450c9c	0.04810773
156	0x3b8aa4c9	0.0042310697
157	0x3cb0e120	0.021591723
158	0x3d293333	0.041308593
159	0x3b63de22	0.0034769853
160	0xbcd34e35	-0.025794128
161	0xbb679b60	-0.0035340413
162	0x3b0bdfa6	0.0021343022
163	0xbdd17e34	-0.102291495
164	0x3d7b190e	0.06130319
165	0xbe02e82a	-0.12783876
166	0xbca33314	-0.019921817
167	0xbd85b565	-0.06528739
168	0xbe0b07df	-0.13577221
169	0xbd822b4d	-0.06355915
170	0x3d58d9a5	0.052941937
171	0xbdc45f42	-0.095884815
172	0xbd54f003	-0.051986706
173	0x3dfb0d10	0.12258351
174	0x3d544558	0.051823944
175	0x3bbb2f1d	0.0057124035
176	0xbd5fbf2c	-0.054625675
177	0x3dc07a10	0.093982816
178	0xbe045b5a	-0.12925473
179	0x3a6b09be	0.000896599
180	0xbdcfd65d	-0.101483084
181	0x3cba7c62	0.022764388
182	0x3d47fdd3	0.04882605
183	0xbe14246e	-0.14467022
184	0xbb6bb965	-0.0035968658
185	0x3d49abfb	0.04923628
186	0x3e041bb4	0.12901193
187	0xbd33c4a4	-0.043888703
188	0x3d4f6dab	0.050641697
189	0xbdddd5aa	-0.10831769
190	0x3d7921b6	0.060823165
191	0x3e07b4c6	0.13252553
192	0x3d40c33d	0.047061194
193	0xbd464174	-0.048402265
194	0xbd454c7f	-0.048168655
195	0x3de367a1	0.1110375
196	0xbe1cf0b8	-0.15326202
197	0xbab73130	-0.0013976451
198	0xbc28f4a4	-0.010312233
199	0x3db1142d	0.08646426
200	0xbd757dae	-0.05993431
201	0x3dd595bb	0.104289494
202	0x3d1534c7	0.036427286
203	0xbc15bf4b	-0.009139846
204	0xbd138ed2	-0.036024876
205	0xbe1c6cd4	-0.1527589
206	0xbda5ea7d	-0.08101366
207	0xbd87f9b8	-0.06639427
208	0x3ce0f884	0.027462251
209	0xbd86e73e	-0.06587075
210	0xbd9afaaf	-0.07567345
211	0xbde79e61	-0.11309505
212	0xbe1bc650	-0.15212369
213	0xbda3c0b8	-0.079957426
214	0xbd935e91	-0.071957715
215	0x3d881e20	0.06646371
216	0x3d111b0f	0.035426196
217	0xbd4a91f7	-0.04945561
218	0x3d8cbaef	0.06871592
219	0x3d45433f	0.048159834
220	0x3e041024	0.12896782
221	0x3a38e23e	0.00070527557
222	0xbb657551	-0.0035012553
223	0x3e000d2d	0.12505026
224	0xbcf8fee0	-0.030394971
225	0x3da79c8e	0.08184157
226	0xbd6be07a	-0.057587124
227	0x3c0cf6c0	0.008603752
228	0xbdb33e6c	-0.087521404
229	0x3dddf2c7	0.10837322
230	0x3d968c59	0.07350988
231	0xbd841947	-0.06450134
232	0xbe18a8b9	-0.14908113
233	0x3ddd6bdf	0.108115904
234	0xbb96b1dc	-0.004598839
235	0x3db5fcda	0.08886118
236	0x3d4974d4	0.04918368
237	0x3cab6aab	0.020924887
238	0xbd393e3f	-0.045225378
239	0xbe20a81f	-0.15689133
240	0x3d2d0c02	0.04224778
241	0xbd70cee1	-0.058791045
242	0xbd993c1d	-0.07482169
243	0x3dc7dcf6	0.09758942
244	0xbd82e883	-0.06392004
245	0x3db8fba1	0.090323694
246	0x3d712bba	0.05887959
247	0x3d9e1982	0.07719709
248	0x3d8210ba	0.063508466
249	0xbc8d9c7d	-0.017286533
250	0x3bfe62e5	0.007763254
251	0xbdfd3752	-0.12364067
252	0x3de896ad	0.11356864
253	0x3ce66475	0.028124074
254	0xbd84b2a1	-0.06479383
255	0x3d4b6cdf	0.049664374

m_transform.0.10.bias f4 [96]
0	0xbc99ce76	-0.018775206
1	0xbd7d85b0	-0.061895072
2	0x3dc5357c	0.09629342
3	0xbc21399b	-0.009840394
4	0x3e07af41	0.13250448
5	0xbd923544	-0.07139066
6	0x3d7902f4	0.060793832
7	0xbe096c06	-0.13420114
8	0x3c8646a3	0.016391104
9	0x3da02427	0.078193955
10	0xbd5493d0	-0.051898777
11	0x3dd56672	0.104199305
12	0x3e13bf6c	0.1442849
13	0x3db4ea7b	0.08833786
14	0xbdcae8f3	-0.09907713
15	0x3e2152ce	0.15754244
16	0xbd882b60	-0.06648898
17	0xbd7989f3	-0.060922574
18	0x3d396520	0.045262456
19	0x3d6fbb5c	0.05852829
20	0xbe0ac5c5	-0.13552006
21	0x3e0ece1e	0.13945815
22	0x3e08e8a8	0.13370001
23	0x3ddf28b3	0.10896435
24	0xbbc2b260	-0.005941674
25	0xbd8d7eb3	-0.069089316
26	0x3d293323	0.041308533
27	0x3c8e2801	0.01735306
28	0x3d86e6b5	0.065869726
29	0x3ddfcca0	0.10927701
30	0x3d96595a	0.07341261
31	0xbdf58de4	-0.11989954
32	0x3e0726de	0.1319842
33	0x3b90c212	0.0044176662
34	0x3d632690	0.055456698
35	0xbdefb702	-0.11704828
36	0x3d6ffa7a	0.058588482
37	0xbccbb7ac	-0.024867855
38	0x3d840942	0.06447078
39	0xbe103505	-0.14082725
40	0x3dbaff80	0.09130764
41	0xbdbaf1bc	-0.091281384
42	0x3d67c5e3	0.056585204
43	0xbd6c4d00	-0.05769062
44	0x3daa5d1a	0.08318539
45	0x3e143291	0.14472415
46	0xbdb37c93	-0.08763995
47	0x3e08a0bf	0.1334257
48	0x3daf86e6	0.08570652
49	0x3de2e702	0.110792175
50	0xbdd835d0	-0.10557139
51	0x3d000f88	0.03126481
52	0xbdccc066	-0.099976346
53	0x3e08f664	0.1337524
54	0x3da1bd6e	0.07897459
55	0xbd5ff9d5	-0.054681618
56	0x3d207a9d	0.039179433
57	0x3bdd0607	0.0067451033
58	0x3d675548	0.056477815
59	0xbdc8d730	-0.09806669
60	0xbe004382	-0.12525752
61	0xbdd667b7	-0.10469001
62	0xbbb65377	-0.005564149
63	0xbd799a9f	-0.060938474
64	0xbd77a6a6	-0.060461663
65	0x3dce69fe	0.1007881
66	0xbc9598c9	-0.01826133
67	0x3de1f1ea	0.110324696
68	0xbd05672c	-0.032569095
69	0xbc763cdf	-0.015029161
70	0x3e0cc1be	0.13745782
71	0x3b048a61	0.0020224082
72	0x3d878a39	0.06618161
73	0x3d993797	0.07481306
74	0x3dc9c907	0.09852796
75	0x3dc10296	0.09424321
76	0x3d596bcc	0.05308132
77	0xbe1fa592	-0.15590504
78	0xbdd6e929	-0.104936905
79	0x3df3de3b	0.119076215
80	0xbd7887c0	-0.060676336
81	0x3daab78d	0.08335791
82	0x3c1794ec	0.009251814
83	0xbdd3044a	-0.103035524
84	0x3d73f0db	0.05955587
85	0x3d9afc05	0.075676
86	0x3c0cf77e	0.008603929
87	0x3dc91612	0.09818663
88	0xbddf0bab	-0.10890897
89	0xbda37ff0	-0.079833865
90	0xbc881b61	-0.016614618
91	0x3c1bd65e	0.009511558
92	0xbd9fdc4c	-0.0780569
93	0x3dedd10e	0.1161214
94	0x3d61bac4	0.055109754
95	0x3dcc6b23	0.09981372

m_transform.0.12.running_mean f4 [48]
0	0x3e9b587e	0.30340952
1	0x3e93023c	0.28712642
2	0x3f06f145	0.527119
3	0x3ebaf970	0.3651843
4	0x3eb177db	0.34661755
5	0x3ef2fc14	0.47457945
6	0x3e8c7b08	0.27437615
7	0x3ed56e32	0.41685635
8	0x3ede20e8	0.4338448
9	0x3e8f70d0	0.28015757
10	0x3ea2b265	0.3177673
11	0x3ed150ce	0.40881962
12	0x3f0b422f	0.54397863
13	0x3ea5d294	0.3238722
14	0x3ebdd778	0.37078452
15	0x3f1043ae	0.5635327
16	0x3ebc222f	0.3674483
17	0x3ed1d4fa	0.409828
18	0x3eb2095c	0.34772766
19	0x3ece34c8	0.40274644
20	0x3e9bea3d	0.30452147
21	0x3eb414f4	0.35172236
22	0x3f208008	0.6269536
23	0x3ecf43a8	0.40481305
24	0x3eb3d3f6	0.3512265
25	0x3f08bc60	0.5341244
26	0x3ec7540f	0.3893132
27	0x3ea81736	0.3283021
28	0x3ed7aeb0	0.42125463
29	0x3e8b35ff	0.27189633
30	0x3eef2478	0.4670751
31	0x3efd6077	0.4948766
32	0x3eb24b8c	0.34823263
33	0x3ecc34d3	0.39884052
34	0x3f0941f0	0.5361624
35	0x3ee10e9f	0.43956468
36	0x3f0e8160	0.5566616
37	0x3ea5473f	0.3228092
38	0x3eb45444	0.3522054
39	0x3ed9aca9	0.42514542
40	0x3ee59b00	0.44844818
41	0x3e1ea91c	0.15494198
42	0x3f1bf724	0.6092398
43	0x3e8cbd40	0.27488136
44	0x3ef82583	0.4846612
45	0x3efb7d26	0.49118918
46	0x3ee3c4ec	0.44486177
47	0x3f19ec92	0.601266

m_transform.0.12.running_var f4 [48]
0	0x3ea6c246	0.32570094
1	0x3e5a4128	0.21313918
2	0x3e27d2c8	0.16389
3	0x3e3c9497	0.18416058
4	0x3e757b70	0.23972869
5	0x3e95bd5b	0.2924603
6	0x3edbbab0	0.4291587
7	0x3e50a81b	0.20376627
8	0x3e52d34b	0.20588414
9	0x3e01ced2	0.12676552
10	0x3e388f40	0.18023396
11	0x3eb405c5	0.35160652
12	0x3eed2236	0.46315163
13	0x3e69ddb4	0.2283848
14	0x3e916e61	0.28404525
15	0x3e9afaba	0.30269414
16	0x3ebe288b	0.37140307
17	0x3f0fb276	0.56131685
18	0x3e6cfda6	0.23143634
19	0x3e8ab0db	0.27088055
20	0x3e9d59f6	0.30732697
21	0x3e73a962	0.23795083
22	0x3e81ab17	0.25325844
23	0x3efc13c7	0.4923384
24	0x3eb2233e	0.34792513
25	0x3e791b9e	0.24326941
26	0x3e3713eb	0.17878692
27	0x3e12371a	0.14278832
28	0x3eaad620	0.3336649
29	0x3e1bcb30	0.15214229
30	0x3ebe71b6	0.3719613
31	0x3e851467	0.25992128
32	0x3e3a87cc	0.18215865
33	0x3e8e74e1	0.27823547
34	0x3edf194e	0.43573993
35	0x3eb2307f	0.34802625
36	0x3ee5560e	0.44792217
37	0x3dff6f45	0.12472395
38	0x3e97dc3d	0.29660216
39	0x3ea3093b	0.3184298
40	0x3f00c8dd	0.50306493
41	0x3e4d3585	0.20039947
42	0x3ebdf3e2	0.3710013
43	0x3e76371d	0.24044462
44	0x3e91b746	0.2846014
45	0x3e92e6c6	0.2869169
46	0x3eca9e41	0.39573863
47	0x3e857ac0	0.26070213
