Auxillary_Code/LCNN/project/03-asvspoof-mega/spec2-lcnn-attention-p2s/06/__pretrained/trained_network.pt (torch, 760388 bytes, 35 tensors)

m_transform.0.0.weight f4 [257, 60]
0.03034681 0.06020996 -0.0033534253 0.028690608 -0.020892752 -0.02118763 -0.006404676 -0.020077754
0.003934726 0.03338731 0.021810789 0.040614847 -0.015023831 -3.339772e-05 5.2587187e-05 0.026644386
0.02515496 -0.0027121396 0.014332911 0.006543696 -0.0130717615 0.03447533 -0.015414263 -0.0075622723
0.025308913 0.035931416 0.053278096 -0.009403347 -0.019704994 -0.012805504 0.010892293 -0.0052404464
0.02230486 0.027660796 0.0046717217 0.013392246 -0.010703942 -0.008194271 -0.016831595 0.0075102327
0.0128687015 0.017372245 0.020764653 -0.025577005 -0.017581053 -0.008711147 -0.024364384 0.0058159186
0.002162343 -0.040795866 -0.0036964742 0.014137753 -0.01436815 0.016836723 -0.03719084 0.014630121
0.006590691 0.04676856 0.0129464315 0.04401779 0.32608995 0.1175826 0.0014899323 0.0148704965
-0.016360557 0.016197821 -0.0028537682 0.020997321 0.022056166 0.007849934 0.01858799 0.05966418
0.011007133 0.01674615 0.016890395 0.033806626 0.0012547487 -0.041622072 0.011023227 0.01883296
-0.0016087501 0.02404409 -0.006069669 -0.00021018568 0.028915612 0.06398819 0.06272488 -0.007036006
-0.0083421515 -0.00071871013 0.030821385 0.016714038 0.019158388 0.032456942 -0.02302534 0.011615463
-0.0019241481 0.0065245163 -0.009904043 0.033240132 -0.011390598 0.0073308847 0.031057807 -0.017109983
0.002580824 -0.024514964 -0.05801784 0.0031423988 -0.01194879 -0.014589249 -0.0009090514 0.017892066
0.01166716 0.010935142 -0.017718978 0.004680487 0.026773952 0.023477132 0.016988011 0.020290533
0.5473958 0.12754339 -0.013056408 0.009458968 -0.005510857 0.010487921 -0.0034592059 0.012460387
0.016305806 0.008484289 0.016291665 0.053281188 0.024841046 0.032177843 0.009078775 0.032459598
-0.010738825 -0.030281832 0.005231117 0.0061808717 -0.0006064751 0.02485486 -0.010509489 0.00209132
0.015199413 0.042802412 0.047063675 -0.011061808 0.005685548 0.00024286042 0.019403283 -0.014079082
0.017949142 0.024055313 -0.0156567 0.005963248 -0.006171343 0.00581214 -0.014881953 0.02605604
-0.015568951 0.009712175 0.016253889 -0.0038594436 0.0016299298 -0.020522153 -0.039533034 0.007970103
-0.001092372 -0.012183771 0.005525083 0.023015784 0.0109650055 -0.012880132 -0.025381953 -0.007628756
0.02859863 0.024855439 0.00751089 0.0064065615 0.7630979 0.12260721 -0.025432838 0.0028276686
-0.00040947672 0.0024563472 0.006123056 0.0009146284 0.0049558813 0.008497838 0.008618127 0.03329184
0.032234002 0.043888524 0.005776456 0.032648813 -0.0043144524 -0.017696936 -0.0043537524 0.0035675361
-0.0018530334 0.029497445 -0.011586666 0.005382946 0.015824938 0.029888725 0.036241565 -0.010141451
0.016579924 0.004267682 0.0015910973 -0.027668497 0.015605446 0.023010055 -0.008345637 0.0017424765
-0.0019766935 0.0034747424 -0.022614993 0.016678037 -0.018015357 0.010622163 0.0053120377 0.0035162899
0.0043006116 -0.012739689 -0.023328042 0.008893957 0.007984009 -0.008053395 0.0034818116 0.024974972
-0.000413121 -0.022599958 -0.025794728 -0.017261114 0.022789154 0.03752226 0.011281603 0.0037379074
0.9829122 0.08845073 -0.01847649 0.006041275 -0.0031896878 -0.019901598 0.013357623 -0.013700311
-0.00970664 0.014016183 -0.00435982 0.010784977 0.013759292 0.025589962 0.00038417973 0.024183081
00000000: e099 f83c b89e 763d 24c5 5bbb 9108 eb3c
00000010: 4727 abbc ae91 adbc 51de d1bb 1a7a a4bc
00000020: e0ee 803b 22c1 083d 8aac b23c c15b 263d
00000030: 8426 76bc 8714 0cb8 1091 5c38 5445 da3c
00000040: c611 ce3c 27be 31bb 96d4 6a3c 806c d63b
00000050: f12a 56bc 0136 0d3d 1b8c 7cbc f0cc f7bb
00000060: a354 cf3c d22c 133d 223a 5a3d 7f10 1abc
00000070: 5e6c a1bc 2dce 51bc 9775 323c 0db8 abbb
00000080: afb8 b63c e598 e23c 3e15 993b 276b 5b3c
00000090: 965f 2fbc 4341 06bc 6ae2 89bc 6618 f63b
000000a0: 3fd7 523c 3d50 8e3c a21a aa3c de86 d1bc
000000b0: 2406 90bc 33b9 0ebc d197 c7bc 7693 be3b
000000c0: 18b6 0d3b 9119 27bd 8c40 72bb 09a2 673c
000000d0: 6468 6bbc 2bed 893c 6c55 18bd 2db3 6f3c
000000e0: b9f6 d73b 6490 3f3d 451d 543c 004c 343d
000000f0: 43f5 a63e 25cf f03d d549 c33a 62a3 733c
00000100: 9306 86bc 4bb1 843c 4906 3bbb 9302 ac3c
00000110: 22af b43c 029d 003c d745 983c 6d62 743d
00000120: 4357 343c 392f 893c ba5d 8a3c d178 0a3d
00000130: 6176 a43a e87b 2abd c49a 343c 9447 9a3c
00000140: b2dc d2ba 1df8 c43c 13e4 c6bb 4a65 5cb9
00000150: 6fe0 ec3c 3d0c 833d e775 803d 4c8e e6bb
00000160: 85ad 08bc d267 3cba 217d fc3c e1eb 883c
00000170: 0df2 9c3c 92f1 043d a39f bcbc c84e 3e3c
00000180: b233 fcba 9ccb d53b 9144 22bc ce26 083d
00000190: a19f 3abc eb37 f03b f16c fe3c 3c2a 8cbc
000001a0: 0b23 293b 9bd3 c8bc 1da4 6dbd b4f0 4d3b
000001b0: dcc4 43bc bf07 6fbc 684d 6eba 6292 923c
000001c0: 9e27 3f3c 4f29 333c 6427 91bc c55e 993b
000001d0: 0c55 db3c 1d53 c03c 712a 8b3c 5538 a63c
000001e0: 2222 0c3f bc9a 023e 8bea 55bc caf9 1a3c
000001f0: 6b94 b4bb 87d5 2b3c d8b3 62bb a726 4c3c
00000200: c193 853c b001 0b3c 1976 853c 603d 5a3d
00000210: 737f cb3c eacc 033d 24bf 143c 5bf4 043d
00000220: e6f1 2fbc 9b11 f8bc ca69 ab3b e988 ca3b
00000230: dbfb 1eba 6b9c cb3c fe2f 2cbc 870e 093b
00000240: f506 793c 9551 2f3d d7c5 403d 963c 35bc
00000250: d54d ba3b 59a8 7e39 a2f3 9e3c f3ab 66bc
00000260: 140a 933c a60f c53c 7b42 80bc 5a67 c33b
00000270: fa38 cabb c473 be3b 6fd3 73bc 7a73 d53c
00000280: ea14 7fbc d01f 1f3c e026 853c b8ee 7cbb
00000290: 5ea3 d53a 131e a8bc 64ed 21bd 0995 023c
000002a0: ec2d 8fba 709e 47bc c10b b53b 998b bc3c
000002b0: 91a6 333c 3007 53bc d0ed cfbc a5fa f9bb
000002c0: ad47 ea3c a29d cb3c e91d f63b 22ee d13b
000002d0: 625a 433f 7d19 fb3d 8758 d0bc 6850 393b
000002e0: 09af d6b9 abfa 203b eba3 c83b acc3 6f3a
000002f0: f264 a23b 843a 0b3c 0b33 0d3c 065d 083d
00000300: cd07 043d 74c4 333d 6d48 bd3b c3ba 053d
00000310: 4060 8dbb 2af9 90bc eca9 8ebb 53cd 693b
00000320: 7ce1 f2ba a0a4 f13c 00d6 3dbc 6d63 b03b
00000330: 4da3 813c 33d9 f43c 0972 143d 5428 26bc
00000340: 9fd2 873c e9d7 8b3b 5e8c d03a 0ba9 e2bc
00000350: fcad 7f3c 957f bc3c 23bc 08bc cf63 e43a
00000360: 6a8b 01bb 81b8 633b 1443 b9bc 61a0 883c
00000370: f194 93bc 9508 2e3c 9a10 ae3b 8e71 663b
00000380: 25ec 8c3b 21ba 50bc 731a bfbc f6b7 113c
00000390: 5ccf 023c 63f2 03bc 1b2f 643b 5098 cc3c
000003a0: 2998 d8b9 8c23 b9bc 774f d3bc 2e67 8dbc
000003b0: 52b0 ba3c f1b0 193d 79d6 383c aef7 743b
000003c0: 22a0 7b3f a825 b53d 025c 97bc e3f5 c53b
000003d0: 150a 51bb ad08 a3bc eed9 5a3c 4577 60bc
000003e0: 9908 1fbc 22a4 653c d2dc 8ebb 79b3 303c
000003f0: a76e 613c 0aa2 d13c bb6b c939 991b c63c

m_transform.0.1.weight f4 [64, 1, 5, 5]
0.05194147 -0.013753892 -0.1568477 -0.0082418285 -0.018749295 0.16800429 -0.16462837 0.21398044
-0.074594565 0.11112217 -0.048507992 0.092183076 0.23704167 0.06515272 -0.08865328 0.1869618
0.1681424 -0.105973564 -0.1158766 -0.03405885 -0.010762165 -0.031215677 -0.061414592 0.077702515
0.15608428 -0.01758483 -0.07675059 -0.20355757 0.07570876 -0.057994436 -0.011745958 0.0049163233
0.04845184 -0.102824636 -0.10523646 -0.15017933 -0.095850825 0.08359189 0.11859257 -0.033159025
0.10621006 0.058327872 0.17547874 0.060020495 0.104261875 0.102047205 -0.05207344 -0.12235402
0.12260896 0.050525043 -0.007251788 0.04170597 0.051783945 0.0044995905 0.052343722 0.06271541
0.062232353 -0.1564851 -0.0154437255 0.039468728 0.09601258 -0.12069384 -0.05973581 0.17434163
0.06743505 0.09684455 0.16405351 0.052969087 0.10380451 0.14743169 0.1334906 -0.00898969
0.16262905 -0.15516225 0.06520826 0.07870579 0.1744939 -0.09281118 -0.16389947 -0.010440464
-0.014785157 -0.19588535 -0.007794532 -0.1617829 -0.026154924 -0.0408541 0.058461823 -0.18287557
-0.052614357 -0.17004946 0.12642516 -0.14462239 -0.0062986044 0.1036349 -0.06789282 -0.023030574
0.19581231 -0.117706195 -0.16278328 -0.029251762 0.10109704 0.020004276 0.028143326 -0.13301961
-0.12578991 -0.03457782 -0.14702854 0.14223313 0.1253718 0.08116046 -0.007561827 0.17717348
0.15158957 -0.109519176 -0.09976834 0.046738606 0.08233302 0.105123945 -0.017730912 -0.17388603
0.06443037 0.18217444 0.037793636 -0.10462871 -0.15655176 0.024256386 0.12126495 -0.19914715
0.09540729 -0.19381173 0.08901664 -0.16619204 0.001482046 0.011623783 0.017392809 -0.16553664
-0.03588022 -0.15540491 0.038491424 0.043930996 -0.060859926 0.048174486 0.098850414 0.13679394
-0.026812917 0.0067544696 -0.01795779 0.0027470868 -0.014170079 -0.06362377 0.22343516 0.0721476
-0.21421152 -0.18560997 -0.09297516 0.16190742 -0.05436294 0.044614505 -0.0008335921 0.0027143052
-0.006726251 0.055193383 -0.0022796926 -0.032954525 0.013496651 0.041227087 -0.040875893 -0.005570917
-0.033409692 0.07746205 0.118351035 0.18944882 -0.056882963 0.16171895 0.09407257 0.12632386
-0.10790041 -0.1669092 -0.14418827 -0.028288584 0.116811104 0.12572403 -0.116896905 -0.0091624465
0.0661728 0.15264086 -0.085361786 -0.068729 0.053171497 0.120094426 -0.12547503 -0.15082042
0.0056821005 -0.16107453 0.16685008 0.16951568 0.09900097 -0.11974441 -0.16683541 0.16934308
0.10030337 -0.15133919 -0.1387725 -0.085243545 0.14409804 0.086523816 -0.060513243 -0.007153783
0.21065554 -0.12331557 0.033671815 0.08552843 -0.04755006 -0.077350006 0.06585165 0.120331936
0.0059298677 -0.17860462 0.11321479 -0.128334 -0.04606147 0.08331208 -0.05026185 0.03570569
0.07478761 0.19778718 0.039791454 0.1439552 -0.22502571 -0.003498652 0.17477 -0.026480284
0.04600266 -0.17735966 0.13191405 0.19803734 0.019066818 -0.056504004 -0.028717935 -0.13492283
0.07619777 0.09950961 0.15366578 -0.0027071317 -0.12364415 0.055784598 -0.047743846 -0.08298545
-0.08370195 -0.1968324 -0.16169845 0.21856321 0.036138244 -0.16489753 -0.1583634 0.091555096
00000000: 94c0 543d 0158 61bc af9c 20be bc08 07bc
00000010: 1f98 99bc 5109 2c3e 5794 28be b01d 5b3e
00000020: 09c5 98bd 0594 e33d 51b0 46bd 7bca bc3d
00000030: 0dbb 723e ca6e 853d da8f b5bd ea72 3f3e
00000040: 852d 2c3e ab08 d9bd b650 edbd 4b81 0bbd
00000050: cb53 30bc 05b8 ffbc de8d 7bbd 7f22 9f3d
00000060: 8fd4 1f3e 100e 90bc 6a2f 9dbd 6571 50be
00000070: 320d 9b3d 938b 6dbd 1e72 40bc 1c19 a13b
00000080: 7075 463d b995 d2bd 3786 d7bd 9cc8 19be
00000090: 704d c4bd 3a32 ab3d a9e0 f23d c2d1 07bd
000000a0: a984 d93d 35e9 6e3d b3b0 333e 0dd8 753d
000000b0: 4087 d53d 20fe d03d f64a 55bd bf94 fabd
000000c0: 681a fb3d 59f3 4e3d 68a0 edbb e1d3 2a3d
000000d0: 671b 543d 4d71 933b 5f66 563d f070 803d
000000e0: 5ae7 7e3d a13d 20be ae07 7dbc f6a9 213d
000000f0: 3ea2 c43d 552e f7bd 89ad 74bd 9d86 323e
00000100: 631b 8a3d 6f56 c63d a5fd 273e 1df6 583d
00000110: 7597 d43d 55f8 163e c3b1 083e 7e49 13bc
00000120: 3b88 263e dae2 1ebe e98b 853d 8030 a13d
00000130: 87ae 323e ca13 bebd 43d5 27be 7b0e 2bbc
00000140: 713d 72bc 2b96 48be 4669 ffbb 6baa 25be
00000150: da42 d6bc a156 27bd aa75 6f3d bc43 3bbe
00000160: 2782 57bd 7221 2ebe 9975 013e e417 14be
00000170: 8664 cebb 893e d43d 640b 8bbd 9daa bcbc
00000180: 0683 483e f20f f1bd a9b0 26be 64a1 efbc
00000190: f70b cf3d 02e0 a33c d58c e63c 4b36 08be
000001a0: 12cf 00be 79a1 0dbd a68e 16be 90a5 113e
000001b0: 7761 003e 7537 a63d 34c9 f7bb f76c 353e
000001c0: 4c3a 1b3e 974b e0bd 5853 ccbd fb70 3f3d
000001d0: 379e a83d 394b d73d 6b40 91bc 2e0f 32be
000001e0: 12f4 833d f08b 3a3e 80cd 1a3d 9447 d6bd
000001f0: 1b4f 20be 54b5 c63c c259 f83d 3bed 4bbe
00000200: e664 c33d 9576 46be 5b4e b63d 3f2e 2abe
00000210: 3641 c23a ae71 3e3c 5d7b 8e3c 7082 29be
00000220: 23f7 12bd 7722 1fbe 2fa9 1d3d fdf0 333d
00000230: 4248 79bd 9c52 453d 1672 ca3d b613 0c3e
00000240: c3a6 dbbc 9954 dd3b 371c 93bc 7808 343b
00000250: 9e29 68bc 2e4d 82bd 30cc 643e 1fc2 933d
00000260: 445a 5bbe 8a10 3ebe c369 bebd 0fcb 253e
00000270: adab 5ebd b3bd 363d 6b85 5aba 7ce2 313b
00000280: e267 dcbb 7512 623d e566 15bb 53fb 06bd
00000290: 0f21 5d3c bcdd 283d 7b6d 27bd 3d8c b6bb
000002a0: 9ad8 08bd 6ca4 9e3d 0762 f23d dffe 413e
000002b0: 1cfe 68bd a799 253e 1fa9 c03d 0b5b 013e
000002c0: e4fa dcbd 3fea 2abe 17a6 13be 76bd e7bc
000002d0: a93a ef3d cdbd 003e a567 efbd 161e 16bc
000002e0: 9b85 873d e34d 1c3e 29d2 aebd cac1 8cbd
000002f0: 5bca 593d 11f4 f53d 877c 00be ab70 1abe
00000300: ea30 ba3b b9f0 24be bfda 2a3e 8595 2d3e
00000310: 05c1 ca3d 8f3c f5bd e7d6 2abe 4668 2d3e
00000320: da6b cd3d a9f8 1abe 611a 0ebe 2b94 aebd
00000330: 708e 133e 6633 b13d bcdc 77bd 486a eabb
00000340: 16b6 573e e08c fcbd 75eb 093d 8829 af3d
00000350: dac3 42bd ae69 9ebd 3bdd 863d 9770 f63d
00000360: 564f c23b 21e4 36be 28dd e73d fd69 03be
00000370: f4aa 3cbd 869f aa3d 5fdf 4dbd 2140 123d
00000380: 3f2a 993d b988 4a3e 5dfc 223d fe68 133e
00000390: 246d 66be a449 65bb e8f6 323e 2eed d8bc
000003a0: 496d 3c3d c59d 35be 7a14 073e 4dca 4a3e
000003b0: 0432 9c3c be70 67bd e041 ebbc 3629 0abe
000003c0: 940d 9c3d b2cb cb3d 905a 1d3e 226a 31bb
000003d0: 2539 fdbd 647e 643d 0d8f 43bd 47f4 a9bd
000003e0: ee6b abbd 6f8e 49be 4794 25be 09cf 5f3e
000003f0: b205 143d e6da 28be 042a 22be 3d81 bb3d

m_transform.0.1.bias f4 [64]
0.091489166 -0.19591144 0.005373212 -0.09303744 -0.11151313 -0.028802313 -0.1334567 0.011407104
0.09207326 0.010651467 -0.09268644 -0.055169452 -0.013164668 0.008283698 -0.15831374 -0.12884355
0.06816912 -0.021041874 0.05480847 0.1671012 0.004685548 -0.07195182 0.021465572 -0.10956804
-0.1118844 -0.17715025 0.030728118 -0.1008043 -0.14776146 0.18221773 -0.0020748533 -0.18768294
-0.18389101 -0.108994156 0.19151668 -0.21217492 -0.05295593 -0.031167017 -0.030758714 0.0074416236
0.0017136818 0.039905116 -0.09400702 0.08797837 0.151239 -0.20592627 0.16842669 0.14590701
-0.17093113 0.046922404 -0.13638897 -0.0035070886 0.122078136 -0.14886254 -0.19303943 -0.036074467
-0.088682525 -0.0941644 -0.057608627 0.0048696743 0.10578602 0.06803478 -0.18544671 -0.03638227
00000000: ac5e bb3d 029d 48be c511 b03b 6a8a bebd
00000010: ff60 e4bd d4f2 ebbc e0a8 08be dde4 3a3c
00000020: e890 bc3d 7e83 2e3c 63d2 bdbd 5df9 61bd
00000030: 9fb0 57bc 59b8 073c ff1c 22be 90ef 03be
00000040: 409c 8b3d 0260 acbc d97e 603d 941c 2b3e
00000050: 3a89 993b 7a5b 93bd 91d8 af3c 3565 e0bd
00000060: a623 e5bd e066 35be 89b9 fb3c 7c72 cebd
00000070: c84e 17be 4997 3a3e 43fa 07bb f52f 40be
00000080: ed4d 3cbe 5438 dfbd f31c 443e 6244 59be
00000090: 51e8 58bd f951 ffbc b3f9 fbbc ddd8 f33b
000000a0: 9f9d e03a 8c73 233d c186 c0bd 012e b43d
000000b0: 65de 1a3e 56de 52be 0c78 2c3e a668 153e
000000c0: 9208 2fbe b531 403d 8da9 0bbe 2fd7 65bb
000000d0: 1a04 fa3d 6c6f 18be 21ac 45be d2c2 13bd
000000e0: 2f9f b5bd 44d9 c0bd 06f7 6bbd ca91 9f3b
000000f0: 57a6 d83d d255 8b3d bee5 3dbe 9305 15bd

m_transform.0.4.weight f4 [64, 32, 1, 1]
0.16018648 -0.07373102 0.07449161 0.10751433 -0.17887746 0.13100958 0.06590129 -0.056508236
-0.18209231 -0.017078718 -0.0655864 -0.12652278 0.15840001 0.14664854 -0.029851975 -0.023576679
-0.15251864 -0.03808229 0.14634767 -0.05714838 0.17578803 -0.038473394 0.10377054 -0.18194643
0.16279759 -0.0905518 -0.042482406 -0.09905795 0.069701865 0.011757337 -0.02616348 0.08729305
-0.11552733 -0.06358764 0.14343698 0.13672501 0.09632271 0.053492703 0.046838757 0.14084372
-0.12744123 -0.14882731 0.0063896603 -0.03701658 -0.13549995 -0.0667031 0.0770433 0.08436774
-0.16446254 -0.1553581 -0.049783714 -0.12512809 -0.18766062 0.16561513 -0.12844965 0.00932028
0.06542211 0.0070316754 -0.018997015 -0.18764202 -0.010558891 -0.21602646 0.15376279 0.03064524
-0.12056762 0.15690856 -0.0181967 0.1104128 0.0881807 0.1530713 0.14008641 -0.10946021
0.1453456 -0.13861664 0.054216605 0.04118828 0.13302034 -0.12274035 0.12833162 -0.14614742
0.15383476 0.12779558 -0.18120204 -0.08861962 -0.15771191 0.117388524 0.07842127 -0.011273504
-0.09862883 0.032645497 0.02250075 0.010853432 -0.026333814 -0.15533562 -0.0985935 -0.07785161
0.091916084 0.14215453 0.09384854 -0.02436251 0.062237643 0.020389227 -0.15620129 -0.039452348
-0.12008598 0.025205784 0.154576 0.12676692 0.104718715 -0.12638742 -0.023118539 0.03448224
0.09924653 0.13590898 0.010598651 0.14996551 -0.08190045 -0.08682649 -0.018820992 -0.11845776
-0.021030964 -0.15981346 0.06433405 0.060999658 0.06791772 0.018980592 -0.08078767 -0.039890602
-0.082924075 0.085294835 -0.013194458 0.025585718 -0.060062025 -0.111637 -0.021177508 0.13876541
-0.15087272 0.12501109 -0.117747486 -0.14207467 -0.018065609 -0.11176809 0.090663366 -0.17321879
-0.012822444 0.13223407 -0.013403852 -0.09097653 -0.116313785 0.10266794 -0.023869902 -0.06501012
0.047425162 0.09435601 0.054583743 0.13121198 0.14272688 0.050118852 -0.06293024 0.11855087
0.025179574 -0.1717498 0.05534255 -0.16476162 -0.15478025 0.0039523835 -0.054961476 -0.046413478
0.007908294 -0.1428528 0.038467437 0.13373399 -0.120119244 0.003795733 -0.0038127305 0.021640124
0.04437235 0.11816288 0.10177262 -0.1424781 -0.16225374 -0.11424277 -0.0382311 0.06885637
0.15546007 -0.0788279 0.159262 0.06310503 -0.14272451 0.049062464 0.039365746 -0.026405856
-0.107785106 0.07800096 -0.103307046 0.115021855 0.04943736 0.010353815 -0.10321543 -0.18329251
-0.14586936 0.10699108 0.010713307 0.09987041 -0.005177583 0.026207376 -0.050374996 -0.119463935
-0.010088065 0.052605752 0.07317633 0.06225962 0.16959463 0.09140726 0.012791331 -0.01412512
-0.09402484 0.21729465 -0.021279773 0.04498498 0.15327421 0.09496904 0.0021443376 0.098650865
-0.020149179 0.09829249 0.17155802 -0.10447402 -0.044284165 -0.09903119 0.1648883 0.19053484
0.08489765 -0.14395681 0.10867709 -0.13973801 -0.030313896 -0.13057733 -0.15214367 0.09306471
-0.03830632 -0.032590132 -0.06043558 0.16077425 -0.0823323 -0.010381472 0.026661912 -0.030762615
0.05075446 0.17544195 0.0026585027 -0.15617026 -0.029284706 -0.033004843 -0.08820868 0.18395652
00000000: ed07 243e 4a00 97bd 0f8f 983d 7930 dc3d
00000010: a72b 37be 6027 063e 41f7 863d 2e75 67bd
00000020: 6876 3abe abe8 8bbc 2a52 86bd 308f 01be
00000030: 9d33 223e 092b 163e 218c f4bc e123 c1bc
00000040: d92d 1cbe 2dfc 1bbd 2adc 153e 6b14 6abd
00000050: c701 343e 4796 1dbd a685 d43d 2a50 3abe
00000060: 69b4 263e 3973 b9bd 0802 2ebd e5de cabd
00000070: dabf 8e3d d8a1 403c cb54 d6bc b3c6 b23d
00000080: 9899 ecbd 3d3a 82bd 25e1 123e a401 0c3e
00000090: d744 c53d 2a1b 5b3d ffd9 3f3d 5639 103e
000000a0: f47f 02be 3066 18be 5b60 d13b b39e 17bd
000000b0: 80c0 0abe a39b 88bd e1c8 9d3d fec8 ac3d
000000c0: de68 28be 3216 1fbe 02ea 4bbd 9421 00be
000000d0: 1b2a 40be 0397 293e 4e88 03be 16b4 183c
000000e0: 07fc 853d f869 e63b a19f 9bbc 3b25 40be
000000f0: 33ff 2cbc 0a36 5dbe fe73 1d3e ba0b fb3c
00000100: 28ec f6bd a3ac 203e 3f11 95bc 1b20 e23d
00000110: 1598 b43d b9be 1c3e d072 0f3e ad2c e0bd
00000120: 7ad5 143e 85f1 0dbe 3b12 5e3d 0bb5 283d
00000130: 7c36 083e 4b5f fbbd 5d69 033e aba7 15be
00000140: dc86 1d3e d8dc 023e 078d 39be 347e b5bd
00000150: 3b7f 21be 6569 f03d 559b a03d 81b4 38bc
00000160: e9fd c9bd 49b7 053d 7e53 b83c 98d2 313c
00000170: 03ba d7bc 4d10 1fbe 64eb c9bd aa70 9fbd
00000180: 803e bc3d f590 113e aa33 c03d e393 c7bc
00000190: e6ec 7e3d 4f07 a73c 3bf3 1fbe c998 21bd
000001a0: a3ef f5bd 5c7c ce3c 2c49 1e3e 30cf 013e
000001b0: c476 d63d b46b 01be 1763 bdbc 403d 0d3d
000001c0: c441 cb3d b92b 0b3e f7a5 2d3c 8f90 193e
000001d0: 6cbb a7bd 16d2 b1bd 7b2e 9abc fb99 f2bd
000001e0: 2149 acbc 24a6 23be 92c1 833d c7da 793d
000001f0: 7218 8b3d 307d 9b3c 0274 a5bd 5464 23bd
00000200: 19d4 a9bd 0faf ae3d 912d 58bc 2499 d13c
00000210: 9903 76bd f1a1 e4bd 747c adbc 8518 0e3e
00000220: 617e 1abe e802 003e 9825 f1bd 067c 11be
00000230: 54fe 93bc abe6 e4bd b7ad b93d 4460 31be
00000240: 3a15 52bc 5e68 073e d49b 5bbc e751 babd
00000250: ec35 eebd 9243 d23d d08a c3bc 0724 85bd
00000260: e340 423d b93d c13d 3493 5f3d 6f5c 063e
00000270: ff26 123e 6d49 4d3d 92e1 80bd ccca f23d
00000280: 6545 ce3c 2edf 2fbe dfae 623d 45b7 28be
00000290: b77e 1ebe ff82 813b 491f 61bd 0f1c 3ebd
000002a0: ca91 013c 0148 12be 0890 1d3d 90f1 083e
000002b0: 1401 f6bd d5c1 783b 01df 79bb a146 b13c
000002c0: c8bf 353d 61ff f13d 2a6e d03d c7e5 11be
000002d0: d825 26be 1df8 e9bd 3798 1cbd 9204 8d3d
000002e0: ed30 1f3e 8670 a1bd 9415 233e 363d 813d
000002f0: 6026 12be b9f5 483d fa3d 213d 1851 d8bc
00000300: 70be dcbd f8be 9f3d a592 d3bd 9490 eb3d
00000310: d47e 4a3d 0ca3 293c 9d62 d3bd 08b1 3bbe
00000320: c75e 15be 241e db3d de86 2f3c dc88 cc3d
00000330: b7a8 a9bb dab0 d63c 0356 4ebd 82a9 f4bd
00000340: 6948 25bc 2179 573d 79dd 953d f103 7f3d
00000350: 37aa 2d3e bb33 bb3d bb92 513c 0c6d 67bc
00000360: 1890 c0bd 7d82 5e3e eb52 aebc 2c42 383d
00000370: eaf3 1c3e 217f c23d 0488 0c3b 7709 ca3d
00000380: e40f a5bc 934d c93d e8ac 2f3e 7af6 d5bd
00000390: 5063 35bd ddd0 cabd 7ad8 283e 911b 433e
000003a0: d2de ad3d 6a69 13be 1892 de3d 7b17 0fbe
000003b0: d954 f8bc 10b6 05be 8dcb 1bbe b698 be3d
000003c0: 16e7 1cbd 3b7d 05bd 4c8b 77bd 01a2 243e
000003d0: d69d a8bd 0d17 2abc 156a da3c e101 fcbc
000003e0: e9e3 4f3d 0ea7 333e 463a 2e3b 19eb 1fbe
000003f0: 7be6 efbc 1630 07bd c1a6 b4bd 195f 3c3e

m_transform.0.4.bias f4 [64]
-0.031509727 -0.1579379 -0.1018932 -0.124696806 -0.01361408 -0.017367892 -0.05040842 -0.15638508
0.020689066 0.08116949 -0.1264827 0.06648502 0.06876642 -0.008707701 -0.04081595 0.022849295
0.11495732 -0.13302639 0.14665963 0.00044764264 0.11626424 -0.13355483 0.1155703 -0.011972504
0.2057062 0.1464826 -0.13274604 0.037078075 0.17624927 0.09310605 0.08135465 0.17355521
0.10206101 -0.023672892 -0.117829606 -0.008798705 -0.15355673 0.14405258 -0.00049347064 -0.032482956
0.10338476 0.1610472 -0.022046193 0.04179422 0.17590487 -0.049320042 0.027722066 0.06378545
0.10221279 -0.07180105 0.055490762 -0.00013627959 0.015419183 -0.18772438 0.047840428 0.0703622
-0.15178682 -0.11373434 -0.017721789 -0.12545586 -0.02424553 -0.030809585 0.15551314 -0.13746543
00000000: 5810 01bd 79ba 21be 62ad d0bd 0a61 ffbd
00000010: 970d 5fbc 1c47 8ebc 0f79 4ebd 6923 20be
00000020: 1e7c a93c 313c a63d ae84 01be 4c29 883d
00000030: 69d5 8c3d bfaa 0ebc a02e 27bd 722e bb3c
00000040: be6e eb3d 1238 08be f12d 163e 94b1 ea39
00000050: f21b ee3d 99c2 08be 1fb0 ec3d 5228 44bc
00000060: a5a4 523e 89ff 153e 94ee 07be 2edf 173d
00000070: b07a 343e 62ae be3d 449d a63d 75b8 313e
00000080: 5d05 d13d a7ed c1bc a650 f1bd 7228 10bc
00000090: fa3d 1dbe 8582 133e 415c 01ba d90c 05bd
000000a0: 64bb d33d 8fe9 243e 389a b4bc 6b30 2b3d
000000b0: 6820 343e d003 4abd 6319 e33c f2a1 823d
000000c0: f054 d13d 6e0c 93bd 484a 633d 46e6 0eb9
000000d0: bea0 7c3c d23a 40be 53f4 433d 0f1a 903d
000000e0: 016e 1bbe 8ded e8bd 492d 91bc 8077 00be
000000f0: 909e c6bc 6264 fcbc d63e 1f3e bdc3 0cbe

m_transform.0.6.running_mean f4 [32]
1.3769442 -0.17479976 0.5477771 1.7113386 0.15220614 0.24993333 0.016733095 0.41415143
0.24274334 1.5084455 -0.36315206 -0.10251953 0.23221554 0.7636841 0.92064714 0.8789109
0.65783674 -0.93338203 0.79102147 0.61667746 -0.16991031 -0.1600156 0.7916337 0.496886
0.023269054 0.9696919 0.1128649 0.24018784 2.1135187 0.7337128 0.4298359 0.58808196
00000000: b53f b03f b5fe 32be 1f3b 0c3f 250d db3f
00000010: eddb 1b3e 86ee 7f3e d813 893c a80b d43e
00000020: b691 783e be14 c13f 11ef b9be c2f5 d1bd
00000030: e9c9 6d3e cd80 433f 88af 6b3f 4e00 613f
00000040: fd67 283f 20f2 6ebf 6280 4a3f 93de 1d3f
00000050: f8fc 2dbe 21db 23be 82a8 4a3f d767 fe3e
00000060: be9e be3c ba3d 783f b625 e73d cdf3 753e
00000070: e443 0740 9ad4 3b3f 7313 dc3e 8a8c 163f

m_transform.0.6.running_var f4 [32]
1.1778525 0.08826557 0.42400712 0.3039072 0.18895729 0.33937868 0.1556209 0.07448887
0.18208367 0.4889835 0.18882826 0.13325743 0.041859966 0.19424663 0.1696604 0.17774326
0.46591586 0.26944572 0.20657729 0.15163174 0.069195345 0.09760861 0.16543347 0.077498
0.058239076 0.5142139 0.10087916 0.07569821 1.191819 0.10050365 0.051771607 0.07444566
00000000: dfc3 963f 94c4 b43d 7617 d93e b999 9b3e
00000010: 057e 413e 0bc3 ad3e 165b 1f3e 9f8d 983d
00000020: 2474 3a3e 0c5c fa3e 325c 413e a374 083e
00000030: 5b75 2b3d 97e8 463e 75bb 2d3e 5402 363e
00000040: 868c ee3e caf4 893e ff88 533e 5a45 1b3e
00000050: 4ab6 8d3d 06e7 c73d 6467 293e 45b7 9e3d
00000060: 198c 6e3d 86a3 033f bc99 ce3d aa07 9b3d
00000070: 868d 983f dcd4 cd3d 770e 543d f776 983d

m_transform.0.7.weight f4 [96, 32, 3, 3]
-0.03930551 0.0027590822 -0.038358267 -0.024225723 0.01959063 0.056720242 0.06858443 0.017603237
0.02177454 0.032403443 0.056054045 0.040320378 0.04581817 0.009337725 -0.02849623 0.007446144
-0.0117561305 0.052592535 -0.0339511 -0.042726055 -0.033810172 -0.025804587 -0.051823363 -0.005268012
-0.04119729 0.0016934534 0.024795271 0.015043774 -0.07806253 -0.043316487 -0.06248809 -0.03233306
-0.02730393 -0.050303515 -0.04869494 0.073750794 0.073099464 -0.0073566474 -0.018545318 -0.020217683
-0.03057842 -0.05114841 -0.04329776 0.059973385 0.050502863 0.044577375 0.022500781 0.056650016
0.012180096 0.034508325 0.058765013 -0.023823632 0.035985474 0.05881796 -0.0074035823 -0.06482376
-0.0077078305 -0.059435192 -0.018754497 -0.05539658 0.02191116 -0.063372634 -0.06629897 -0.051515326
0.0011703399 -0.006542182 -0.0009675488 0.038574204 0.031179823 0.01776741 0.03981468 0.06899441
-0.044706326 0.029492795 -0.034407683 -0.015429276 0.038292397 -0.018384494 0.053767458 -0.0037708262
0.060216404 -0.042262558 -0.00024656765 -0.050843384 -0.019914025 -0.03342891 0.0028474783 -0.012405939
-0.0074745915 0.059326604 -0.0008789769 -0.014189886 -0.020517103 0.0006809835 0.018588787 -0.023402601
-0.02755835 0.029645192 -0.011342574 -0.016971286 0.0040823733 0.0068042604 0.014961731 0.0220778
0.009454448 -0.027844299 0.042866092 -0.03908674 0.074299894 -0.054246623 -0.012239887 0.07269909
0.06352396 -0.048972942 -0.003355588 0.043039028 0.011000969 -0.0067635663 0.024873441 0.06369099
-0.043875013 -0.037491426 -0.006348267 0.02894877 -0.006926479 0.015329268 0.029478714 -0.042208638
0.014329136 -0.04493066 -0.0029449598 -0.008993512 -0.053377617 -0.01742365 0.053604513 0.017497744
-0.0050260485 -0.02773764 -0.019648762 0.02099442 -0.04194668 -0.043033704 -0.0067612766 -0.026879292
0.057884477 0.018532095 -0.013475982 0.0734323 -0.016585551 0.00850717 0.064024724 0.022721343
-0.03280427 -0.020065363 -0.019177737 -0.035054777 -0.024202991 -0.025141027 -0.058929447 -0.063072085
-0.010986706 0.004273152 0.05746081 0.026788581 0.057109416 -0.032014903 -0.045807015 -0.010652206
0.00010787221 0.065820634 0.041449063 -0.046723407 0.030729957 0.023953905 -0.02798916 0.043008227
0.093401186 -0.017778924 -0.0028005417 0.0259655 0.017563028 -0.034487948 0.0126328645 0.038885012
-0.035965312 0.001216574 -0.021301689 0.026212148 0.011374535 0.017469598 0.06779986 0.04321244
-0.005460185 0.06720713 0.018740792 -0.00041267977 0.022453746 -0.031670034 -0.026058683 -0.0581222
0.028293928 -0.013573974 -0.07249738 0.029238109 -0.0012093609 -0.027315862 0.0022211971 -0.07352154
-0.03655083 -0.023734482 -0.0214131 -0.005703257 -0.034475803 0.010922064 -0.028511439 0.083912864
-0.0048964364 -0.0044277785 -0.020411205 0.020428129 0.051886443 -0.071117446 0.022862893 0.011337785
0.0041156565 0.035011724 -0.007358037 -0.036191046 0.032319166 0.023579411 0.030163143 0.07017336
0.04728197 0.06808933 -0.04003113 -0.05010432 0.02452861 0.0006548903 0.041690208 0.05692922
0.011332484 0.071071416 0.025603075 -0.010770003 -0.040291682 0.008115143 0.0009344245 0.011569998
-0.053157527 -0.0016955187 0.009689965 0.015398233 -0.012344928 0.039723266 -0.037553143 0.049316287
00000000: d1fe 20bd b8d1 343b 8f1d 1dbd 0675 c6bc
00000010: 877c a03c 7c53 683d fe75 8c3d aa34 903c
00000020: 8560 b23c 79b9 043d ed98 653d fb26 253d
00000030: d5ab 3b3d 42fd 183c ed70 e9bc c8fe f33b
00000040: c99c 40bc 456b 573d 4f10 0bbd 8401 2fbd
00000050: 897c 0abd 2464 d3bc bc44 54bd 4a9f acbb
00000060: 7dbe 28bd def6 dd3a 741f cb3c 297a 763c
00000070: 3fdf 9fbd a16c 31bd 83f3 7fbd ac6f 04bd
00000080: 7eac dfbc 0f0b 4ebd 5874 47bd a80a 973d
00000090: 2cb5 953d 0810 f1bb 5aec 97bc 8e9f a5bc
000000a0: 987f fabc ff80 51bd fe58 31bd a7a6 753d
000000b0: 17dc 4e3d c496 363d 8f53 b83c d909 683d
000000c0: 068f 473c 9a58 0d3d 95b3 703d c729 c3bc
000000d0: 8165 133d 1aeb 703d c099 f2bb 52c2 84bd
000000e0: f891 fcbb 5172 73bd 08a3 99bc 86e7 62bd
000000f0: 087f b33c 83c9 81bd c1c7 87bd bc01 53bd
00000100: 1766 993a cd5f d6bb 1aa3 7dba fcff 1d3d
00000110: d46c ff3c f68c 913c b814 233d f14c 8d3d
00000120: fb1d 37bd e09a f13c 12ef 0cbd 13cb 7cbc
00000130: 7dd8 1c3d 149b 96bc 443b 5c3d f71f 77bb
00000140: 7aa5 763d 811b 2dbd c045 81b9 2741 50bd
00000150: bd22 a3bc c1ec 08bd c29c 3a3b 4842 4bbc
00000160: 6bed f4bb 7400 733d 246b 66ba b27c 68bc
00000170: 7c13 a8bc 0784 323a 8347 983c d0b6 bfbc
00000180: 0cc2 e1bc 79da f23c 34d6 39bc 5e07 8bbc
00000190: 6ec5 853b 46f6 de3b 0c22 753c 81dc b43c
000001a0: d4e6 1a3c ba19 e4bc 5b94 2f3d 6b19 20bd
000001b0: 8b2a 983d b531 5ebd cf89 48bc 43e3 943d
000001c0: da18 823d da97 48bd 6de9 5bbb b149 303d
000001d0: 693d 343c e8a0 ddbb 63c3 cb3c 6c70 823d
000001e0: 49b6 33bd 9c90 19bd 2005 d0bb f925 ed3c
000001f0: 84f7 e2bb 9c27 7b3c 587d f13c f7e2 2cbd
00000200: c1c4 6a3c 3609 38bd 3a00 41bb 8659 13bc
00000210: 7da2 5abd 0bbc 8ebc 6890 5b3d 6e57 8f3c
00000220: 8db1 a4bb 0c3a e3bc 71f6 a0bc 7dfc ab3c
00000230: 48d0 2bbd 1c44 30bd b38d ddbb f631 dcbc
00000240: 4618 6d3d 9fd0 973c 5dca 5cbc ac63 963d
00000250: 6cde 87bc a861 0b3c 651f 833d 1c22 ba3c
00000260: c55d 06bd 1e60 a4bc a11a 9dbc 9995 0fbd
00000270: 5a45 c6bc 8ef4 cdbc 0160 71bd f02b 81bd
00000280: 9601 34bc cc05 8c3b 075c 6b3d ba73 db3c
00000290: 90eb 693d 0f22 03bd 23a0 3bbd 9786 2ebc
000002a0: 7439 e238 f8cc 863d 7ec6 293d 0b61 3fbd
000002b0: 64bd fb3c fb3a c43c 8649 e5bc 6529 303d
000002c0: 1f49 bf3d 1ba5 91bc 4b89 37bb 9ab5 d43c
000002d0: 57e0 8f3c 3c43 0dbd 13fa 4e3c e445 1f3d
000002e0: 5d50 13bd 7375 9f3a e180 aebc dcba d63c
000002f0: 425c 3a3c 671c 8f3c a7da 8a3d 87ff 303d
00000300: 5aeb b2bb e4a3 893d 4a86 993c f15c d8b9
00000310: ebf0 b73c 70b8 01bd 0579 d5bc 8b11 6ebd
00000320: abc8 e73c 6065 5ebc 8279 94bd c284 ef3c
00000330: 6b83 9eba 84c5 dfbc 8191 113b 7692 96bd
00000340: 53b6 15bd d16e c2bc 876a afbc 63e2 babb
00000350: 8036 0dbd 75f2 323c d290 e9bc 82da ab3d
00000360: 4972 a0bb e616 91bb 6635 a7bc e458 a73c
00000370: e186 543d 06a6 91bd f64a bb3c 1ec2 393c
00000380: a1dc 863b 7468 0f3d b01b f1bb 103d 14bd
00000390: 1a61 043d 9c29 c13c b218 f73c 0db7 8f3d
000003a0: bdaa 413d 6b72 8b3d aff7 23bd 303a 4dbd
000003b0: 39f0 c83c f2ac 2b3a 5ac3 2a3d 9d2e 693d
000003c0: e2ab 393c e48d 913d 8abd d13c ab74 30bc
000003d0: e408 25bd 60f5 043c 2bf4 743a 1790 3d3c
000003e0: b5bb 59bd 2b3c deba a9c2 1e3c df48 7c3c
000003f0: 6242 4abc ddb4 223d 53d1 19bd e0ff 493d

m_transform.0.7.bias f4 [96]
0.048011307 0.058038436 -0.021616776 -0.040247604 0.021522053 0.0216979 0.037725013 -0.017655745
0.0032815365 -0.048372112 -0.037858848 -0.022858793 -0.04116515 -0.037427887 -0.03895644 0.045747887
-0.048470348 0.033241175 -0.07254646 0.017420406 0.00186685 -0.013349656 -0.033286605 -0.004517465
-0.03721394 0.02030194 0.039833467 -0.04993834 0.048813634 0.014778235 -0.05839324 -0.03166597
-0.0014707616 -0.057040595 -0.011741146 -0.040902298 -0.02753945 -0.03254035 -0.0107589355 0.037324145
-0.03138507 0.04319652 0.029542245 0.02630659 -0.029103786 -0.06688579 -0.02206084 0.044510633
0.031121774 -0.07953505 -0.06543856 -0.05031897 -0.032023005 -0.013617394 -0.04999157 -0.026330218
-0.036578357 0.022364587 -0.053881597 -0.034106843 0.081473365 0.0013320297 0.06263951 -0.025699155
2.035928e-05 -0.03750493 -0.038275838 -0.018403519 0.06606365 -0.048249397 -0.011755625 -0.038617793
-0.012394516 -0.052463863 -0.03549505 0.010231653 -0.05405679 -0.044851057 0.015694186 -0.0025536106
-0.06744096 0.06952183 -0.060809247 -0.041230164 -0.016906748 -0.06753801 -0.04872969 -0.012388813
-0.008989024 -0.023067323 -0.024511881 -0.005646946 -0.049014967 -0.007914397 -0.027674474 0.055347178
00000000: 81a7 443d b6b9 6d3d aa15 b1bc acda 24bd
00000010: 044f b03c cbbf b13c 8b85 1a3d c8a2 90bc
00000020: 0c0f 573b d621 46bd e111 1bbd 5d42 bbbc
00000030: ca9c 28bd fc4d 19bd ca90 1fbd 2362 3b3d
00000040: d888 46bd e627 083d 3d93 94bd 3db5 8e3c
00000050: 17b1 f43a 84b8 5abc 8957 08bd 3e07 94bb
00000060: a56d 18bd 4150 a63c 6b28 233d 258c 4cbd
00000070: cef0 473d 6920 723c c02d 6fbd 2db4 01bd
00000080: 92c6 c0ba 66a3 69bd f05d 40bc 2b89 27bd
00000090: 6a9a e1bc 0849 05bd 3f46 30bc 34e1 183d
000000a0: a28d 00bd d6ee 303d 9402 f23c eb80 d73c
000000b0: 106b eebc 6bfb 88bd efb8 b4bc c850 363d
000000c0: 17f3 fe3c 46e3 a2bd a704 86bd 441b 4ebd
000000d0: 8e2a 03bd 7d1b 5fbc f6c3 4cbd 78b2 d7bc
000000e0: 30d3 15bd f035 b73c f3b2 5cbd 9eb3 0bbd
000000f0: 82db a63d 8097 ae3a 2549 803d 0987 d2bc
00000100: 39c9 aa37 c59e 19bd 20c7 1cbd fac2 96bc
00000110: 614c 873d 29a1 45bd aa9a 40bc b12d 1ebd
00000120: 5e12 4bbc 59e4 56bd 4263 11bd aaa2 273c
00000130: a76a 5dbd beb5 37bd 1891 803c 7a5a 27bb
00000140: 7c1e 8abd 7661 8e3d 1e13 79bd f6e0 28bd
00000150: 0580 8abc 5e51 8abd c998 47bd 73fa 4abc
00000160: b346 13bc aff7 bcbc 24cd c8bc 040a b9bb
00000170: ebc3 48bd 63ab 01bc 94b5 e2bc b9b3 623d

m_transform.0.10.running_mean f4 [48]
1.1690301 1.5431252 0.97756916 0.83792067 1.5113498 1.3265982 1.5080038 1.342747
1.0068172 1.4239227 1.4947426 1.4838017 0.97455585 1.2299802 1.8073441 1.0992687
1.3532786 1.2417105 1.1724705 1.0575459 1.601324 1.0670229 0.96806896 1.2393533
1.1619424 1.2778168 0.812866 0.87963885 1.3432705 1.1086768 1.5945132 1.4174656
0.88118845 0.8921145 1.3496215 1.5645033 0.98204106 1.2942897 1.6075437 1.1230973
0.86371946 1.2648107 1.062022 1.2302289 1.4632733 0.9257254 0.8122704 1.2954634
00000000: c7a2 953f 2085 c53f f941 7a3f f881 563f
00000010: e973 c13f f8cd a93f 4506 c13f 22df ab3f
00000020: 63df 803f 1943 b63f ba53 bf3f 37ed bd3f
00000030: 7e7c 793f fe6f 9d3f 0d57 e73f d6b4 8c3f
00000040: 3c38 ad3f 5ff0 9e3f 8313 963f aa5d 873f
00000050: 2ff8 cc3f 3594 883f 5ed3 773f 21a3 9e3f
00000060: 87ba 943f 808f a33f fc17 503f 0330 613f
00000070: 4af0 ab3f 1fe9 8d3f 0219 cc3f 836f b53f
00000080: 9195 613f 9e61 643f 66c0 ac3f a541 c83f
00000090: 0b67 7b3f 49ab a53f fec3 cd3f a7c1 8f3f
000000a0: b81c 5d3f 51e5 a13f 56f0 873f 2478 9d3f
000000b0: 8a4c bb3f 57fc 6c3f f4f0 4f3f bfd1 a53f

m_transform.0.10.running_var f4 [48]
0.86939937 0.69802743 0.8337539 0.42000005 0.9158437 0.46150032 0.8739437 0.47986183
0.48001885 0.99232227 0.346087 0.5376492 0.40220365 0.5132301 0.6696548 1.0237414
0.6846041 1.187264 1.7066833 0.65300006 0.8359812 1.0970733 0.5158133 1.044009
0.46316478 0.62242883 0.33425465 0.66439277 0.5334554 1.1196145 0.3870216 1.1672431
0.64015913 0.65940744 0.31428748 0.5329479 1.194011 0.43662268 0.6423932 1.8442751
0.85063845 0.56730646 1.1573848 0.746956 0.6223543 0.3636536 0.9707699 0.5078472
00000000: f590 5e3f edb1 323f e570 553f 3f0a d73e
00000010: bc74 6a3f c549 ec3e c6ba 5f3f 73b0 f53e
00000020: 08c5 f53e d508 7e3f 5132 b13e 61a3 093f
00000030: a3ed cd3e 0c63 033f 7f6e 2b3f f509 833f
00000040: 3742 2f3f 44f8 973f 9974 da3f 032b 273f
00000050: dd02 563f e66c 8c3f 570c 043f 16a2 853f
00000060: ef23 ed3e 7f57 1f3f 6d23 ab3e a515 2a3f
00000070: 8890 083f 874f 8f3f b227 c63e 3968 953f
00000080: 78e1 233f edce 283f 4aea a03e 466f 083f
00000090: 5ad5 983f 028d df3e e173 243f 3511 ec3f
000000a0: 71c3 593f ff3a 113f 2f25 943f 8238 3f3f
000000b0: 9d52 1f3f ce30 ba3e 6084 783f 4602 023f

m_transform.0.11.weight f4 [96, 48, 1, 1]
0.09353887 0.161284 -0.055778187 -0.112275906 -0.10307078 0.10131641 0.0826598 -0.028398432
0.03982603 -0.04196073 -0.06269545 0.12852213 0.102822386 0.1107108 -0.06578236 0.0014095369
0.051666737 0.061891034 0.05851515 -0.010360574 0.12041796 0.06521268 0.08242789 0.04782283
-0.05487815 0.10140345 0.14770935 0.0518061 -0.12464276 0.0063220663 0.16958669 0.13255997
-0.09060297 0.13803463 -0.064584404 -0.027944397 0.049035195 -0.13534386 0.10986467 0.11662806
0.010638747 -0.07785079 -0.075440824 0.08005838 -0.12967187 0.060942173 0.12091147 0.023617059
0.020469425 -0.10433375 -0.10676498 -0.037780635 -0.036761824 0.12557712 0.0029698906 -0.077559754
-0.08401534 0.082706355 0.12066037 0.1007859 0.061828017 -0.09040005 0.027780475 -0.12397424
-0.046173252 -0.038219295 0.051205914 -0.060342588 0.13280553 0.011390453 0.06873478 -0.07209997
-0.081638604 0.0717903 -0.02889712 0.04566216 0.043774158 0.007812752 0.021603486 -0.06505248
-0.032614436 -0.13361083 0.009813045 0.012977746 -0.106502615 0.0021814515 0.0200537 -0.110843554
-0.057017792 0.06572197 0.022839045 -0.03585143 0.013192787 -0.105429314 -0.100672744 0.076835595
0.05949995 0.101937585 -0.053759087 -0.0111205205 -0.011837966 -0.08787453 0.1489397 0.026063895
0.031124523 0.023482947 0.077216215 -0.080417804 -0.13979852 0.101763174 0.0031437334 -0.0051433956
0.08050977 -0.11816527 0.054136775 -0.017532054 0.077016465 0.101126924 0.123191066 -0.10417622
-0.0029206027 -0.09798901 -0.032258708 0.10737447 0.07388219 -0.1106462 0.028058542 0.015299202
-0.068061255 -0.040072065 -0.13422522 -0.05626562 0.04272044 -0.083685875 -0.054963335 0.103197746
-0.14814992 -0.051924817 -0.09724183 0.06788516 0.0067482614 -0.0041723545 0.124004856 -0.11182022
-0.012678687 0.0677498 -0.041858792 0.100841515 -0.04867885 -0.03580193 0.1466826 0.12723494
-0.032786034 0.14172387 -0.08157283 0.16728696 -0.0015045715 0.006893092 0.09446833 0.06146351
-0.029485326 -0.1006676 0.10845832 -0.05713597 -0.072889246 0.09301108 0.07731255 0.018559624
-0.10973732 -0.1272093 0.12584803 0.058830768 0.15806508 0.078007884 -0.043604795 0.009484705
0.124724284 0.13761686 -0.13693981 -0.06710283 -0.012731699 0.06263284 0.10062596 -0.0066444753
0.0075016846 -0.044077408 -0.063871786 0.04899893 0.11045439 -0.00567614 0.058596432 -0.12579876
-0.024343599 -0.13507085 -0.11524373 -0.051614627 0.02732266 -0.11706772 -0.045333616 -0.0046102935
0.0077116727 0.13572839 -0.0898456 0.033813 0.02459434 0.12960292 0.08938919 -0.03612927
0.052324615 -0.059465624 0.13463786 -0.04801339 0.15166695 -0.057988476 0.08041567 0.06595432
0.06395734 -0.0760692 0.02395184 0.06385211 0.12986967 -0.06062035 0.0082582375 -0.08944171
-0.051835835 -0.08403486 -0.004883247 0.043666523 -0.06478176 -0.11262201 -0.09608469 0.13272691
0.07904516 -3.127449e-05 -0.09385247 -0.074455865 -0.09807576 0.019760361 0.13574427 0.083635874
-0.051257145 0.10048097 0.011074524 0.10205922 -0.09164095 0.061104044 0.020390084 -0.14875801
0.017506331 0.070849895 0.065443926 -0.14137422 -0.053383723 0.09900965 0.14072573 -0.12557034
00000000: 4f91 bf3d a227 253e ab77 64bd e9f0 e5bd
00000010: c616 d3bd fa7e cf3d 8b49 a93d d4a3 e8bc
00000020: 9f20 233d 04df 2bbd 7966 80bd 4e9b 033e
00000030: 8b94 d23d 58bc e23d e7b8 86bd 36c0 b83a
00000040: 80a0 533d 7481 7d3d 95ad 6f3d 66bf 29bc
00000050: b19d f63d 3a8e 853d f4cf a83d dfe1 433d
00000060: e9c7 60bd 9dac cf3d 1f41 173e a232 543d
00000070: b444 ffbd 5629 cf3b 22a8 2d3e cdbd 073e
00000080: 0d8e b9bd f358 0d3e d444 84bd a6eb e4bc
00000090: 21d9 483d 9597 0abe ba00 e13d b1da ee3d
000000a0: 244e 2e3c 3c70 9fbd b880 9abd a6f5 a33d
000000b0: b4c8 04be 809e 793d 6fa0 f73d 9078 c13c
000000c0: 7faf a73c efac d5bd 99a7 dabd debf 1abd
000000d0: 9193 16bd 4a97 003e 7fa2 423b a6d7 9ebd
000000e0: 3c10 acbd f361 a93d c91c f73d d768 ce3d
000000f0: 603f 7d3d a923 b9bd e193 e33c 35e6 fdbd
00000100: 2a20 3dbd d68b 1cbd 4bbd 513d ca29 77bd
00000110: 2cfe 073e 069f 3a3c d2c4 8c3d 26a9 93bd
00000120: 2432 a7bd cb06 933d a7b9 ecbc 3f08 3b3d
00000130: 884c 333d 0f01 003c cbf9 b03c 3c3a 85bd
00000140: b796 05bd 47d1 08be e5c6 203c 9da0 543c
00000150: 0b1e dabd aff6 0e3b a847 a43c f201 e3bd
00000160: 7d8b 69bd 3d99 863d f318 bb3c f3d8 12bd
00000170: 8f26 583c 53eb d7bd 832d cebd fb5b 9d3d
00000180: 38b6 733d a7c4 d03d 7d32 5cbd d832 36bc
00000190: 07f4 41bc 90f7 b3bd a683 183e f383 d53c
000001a0: dbf8 fe3c 4f5f c03c 8923 9e3d 17b2 a4bd
000001b0: 5827 0fbe 3669 d03d 1807 4e3b ee89 a8bb
000001c0: 4ee2 a43d a200 f2bd 86be 5d3d 629f 8fbc
000001d0: cfba 9d3d a21b cf3d 994b fc3d 585a d5bd
000001e0: 9567 3fbb 76ae c8bd b521 04bd 25e7 db3d
000001f0: 8c4f 973d 7a9a e2bd 07db e53c 81a9 7a3c
00000200: b363 8bbd 9b22 24bd 5672 09be c776 66bd
00000210: a1fb 2e3d 8063 abbd 3c21 61bd 5759 d33d
00000220: 9db4 17be 1eaf 54bd b926 c7bd 6007 8b3d
00000230: 8520 dd3b 3fb8 88bb 42f6 fd3d 0002 e5bd
00000240: 45ba 4fbc 68c0 8a3d 2074 2bbd ff85 ce3d
00000250: 7963 47bd 0ba5 12bd f733 163e e049 023e
00000260: a64a 06bd 1020 113e a80f a7bd 464d 2b3e
00000270: 0b35 c5ba 72df e13b 9d78 c13d 29c1 7b3d
00000280: 368b f1bc d12a cebd 651f de3d 6807 6abd
00000290: f546 95bd 987c be3d 0b56 9e3d 5a0a 983c
000002a0: f6bd e0bd 2843 02be 4ede 003e 88f8 703d
000002b0: d0db 213e 99c2 9f3d f19a 32bd bc65 1b3c
000002c0: 726f ff3d 6feb 0c3e f339 0cbe 356d 89bd
000002d0: 9e98 50bc a545 803d fc14 ce3d e6b9 d9bb
000002e0: b1d0 f53b 838a 34bd 36cf 82bd 1ab3 483d
000002f0: e935 e23d eafe b9bb d002 703d 64d1 00be
00000300: 3a6c c7bc 0350 0abe e804 ecbd dc69 53bd
00000310: c5d3 df3c 33c1 efbd beaf 39bd f211 97bb
00000320: 33b2 fc3b 62fc 0a3e f800 b8bd 807f 0a3d
00000330: 127a c93c a1b6 043e ae11 b73d 49fc 13bd
00000340: 5652 563d 3a92 73bd 82de 093e b0a9 44bd
00000350: 954e 1b3e 5385 6dbd f9b0 a43d 0f13 873d
00000360: 11fc 823d 2bca 9bbd a636 c43c e5c4 823d
00000370: 8efc 043e 0b4d 78bd 8f4d 073c 372d b7bd
00000380: d051 54bd 781a acbd a503 a0bb abdb 323d
00000390: 4dac 84bd 5ea6 e6bd 0dc8 c4bd 90e9 073e
000003a0: 6ee2 a13d ba2c 03b8 b935 c0bd 517c 98bd
000003b0: f2db c8bd 7be0 a13c 8c00 0b3e 4949 ab3d
000003c0: 03f3 51bd f8c8 cd3d ec71 353c 6d04 d13d
000003d0: 40ae bbbd 3c48 7a3d 1b09 a73c 0554 18be
000003e0: 7069 8f3c c019 913d 7707 863d 67c4 10be
000003f0: e4a8 5abd 92c5 ca3d 681a 103e 8395 00be

m_transform.0.11.bias f4 [96]
-0.019877793 0.08782512 0.07131914 0.049450345 -0.13777284 -0.106358364 -0.058096282 -0.1053509
0.08652262 0.12381373 0.10580956 -0.09527024 0.033936497 -0.032185752 -0.0890855 0.033817895
-0.0828106 -0.120662265 -0.009553721 -0.05662219 0.014030722 0.0055638836 0.14395918 0.08129917
-0.08701694 -0.12216886 0.075082555 0.030218683 -0.12199756 -0.0872036 -0.12574622 -0.038895823
-0.0019038209 -0.095819116 0.056753643 -0.048954386 0.03903743 -0.0108485995 -0.028175578 -0.025953915
-0.13066703 -0.09373173 -0.017716847 0.078415684 0.006046067 0.021261489 -0.09164414 -0.0905755
-0.1203459 -0.08076499 0.08136785 -0.078651 -0.096457206 0.06056072 -0.07700967 0.035761815
0.117404625 -0.015255726 0.10027632 0.010550747 0.013262813 -0.1252352 -0.0009317972 -0.120951235
-0.062373724 0.05504426 -0.07605581 0.1161331 -0.016819939 -0.022785822 -0.105272904 -0.09175717
-0.084284954 -0.15651245 -0.033387776 0.081128344 0.074813984 0.14303377 0.11116053 -0.16423129
0.13691443 0.0009977402 -0.071120456 0.004081518 0.05096805 0.0698954 0.17669854 -0.07495419
-0.014430875 0.19650929 0.072379805 -0.06783356 -0.06765314 0.032741953 0.044346094 0.016616898
00000000: c1d6 a2bc a8dd b33d c50f 923d 728c 4a3d
00000010: 5314 0dbe 6ad2 d9bd 5ef6 6dbd 36c2 d7bd
00000020: c532 b13d 0e92 fd3d afb2 d83d 0b1d c3bd
00000030: ff00 0b3d 35d5 03bd 7572 b6bd a284 0a3d
00000040: 9b98 a9bd c71d f7bd 3687 1cbc abec 67bd
00000050: 1de1 653c 3d51 b63b 096a 133e 2e80 a63d
00000060: f035 b2bd ab33 fabd e2c4 993d 2c8d f73c
00000070: dbd9 f9bd cd97 b2bd 9ec3 00be 3a51 1fbd
00000080: a189 f9ba d03c c4bd 8276 683d 6584 48bd
00000090: b6e5 1f3d 53be 31bc 78d0 e6bc 4e9d d4bc
000000a0: 94cd 05be 6cf6 bfbd ec22 91bc 6798 a03d
000000b0: 161e c63b 932c ae3c ecaf bbbd a67f b9bd
000000c0: e977 f6bd 1d68 a5bd 30a4 a63d c713 a1bd
000000d0: 5b8b c5bd 840e 783d 3fb7 9dbd fb7a 123d
000000e0: d671 f03d 27f3 79bc ac5d cd3d 0add 2c3c
000000f0: 454c 593c a83d 00be da43 74ba 48b5 f7bd
00000100: 977b 7fbd 1776 613d 26c3 9bbd 31d7 ed3d
00000110: f8c9 89bc 55a9 babc 5299 d7bd 2feb bbbd
00000120: 979d acbd cd44 20be 9fc1 08bd 9e26 a63d
00000130: 1338 993d 7277 123e 22a8 e33d 3f2c 28be
00000140: 4c33 0c3e 9bc6 823a 9aa7 91bd 41be 853b
00000150: e0c3 503d 5225 8f3d 76f0 343e 9581 99bd
00000160: 7a6f 6cbc bb39 493e dd3b 943d 52ec 8abd
00000170: bb8d 8abd 6d1c 063d 40a4 353d 2920 883c

m_transform.0.13.running_mean f4 [48]
0.33123413 0.41181633 0.27055886 0.29623485 0.2138233 0.44056076 0.40001747 0.48154888
0.5462628 0.5197923 0.46537286 0.44868603 0.5512269 0.21873766 0.46718502 0.22450893
0.31614506 0.62016904 0.27639356 0.4879978 0.28972378 0.2813109 0.37461194 0.3602322
0.29383478 0.3621137 0.43068588 0.5690931 0.46715862 0.35804507 0.66673255 0.11305876
0.47393718 0.42198277 0.5812627 0.28640738 0.30253053 0.49368155 0.4709741 0.54902756
0.3964197 0.42347124 0.38861793 0.60765153 0.55025524 0.44188598 0.45353535 0.33818573
00000000: 8597 a93e 97d9 d23e b186 8a3e 18ac 973e
00000010: 7ff4 5a3e 2e91 e13e 17cf cc3e 938d f63e
00000020: e1d7 0b3f 1c11 053f 5a45 ee3e 2dba e53e
00000030: 351d 0d3f c4fc 5f3e e032 ef3e abe5 653e
00000040: c4dd a13e 66c3 1e3f 7583 8d3e d9da f93e
00000050: ad56 943e fb07 903e 23cd bf3e 5b70 b83e
00000060: 8371 963e f866 b93e dc82 dc3e 16b0 113f
00000070: 6a2f ef3e af51 b73e fcae 2a3f 5a8b e73d
00000080: e5a7 f23e 200e d83e a2cd 143f fda3 923e
00000090: 48e5 9a3e d4c3 fc3e 8423 f13e 128d 0c3f
000000a0: 86f7 ca3e 39d1 d83e eef8 c63e 0d8f 1b3f
000000b0: 87dd 0c3f e13e e23e c935 e83e ae26 ad3e

m_transform.0.13.running_var f4 [48]
0.34950492 0.21656913 0.15848409 0.4362731 0.15382259 0.2289095 0.22338505 0.17439137
0.27926362 0.19645646 0.22837113 0.26905203 0.1881631 0.17654051 0.16738285 0.2097303
0.14313033 0.15394205 0.38947782 0.13142166 0.1582379 0.33050102 0.26819414 0.19465545
0.17458805 0.20786333 0.21936452 0.24522336 0.31565416 0.22662315 0.25051346 0.21329185
0.20295736 0.25335896 0.31995532 0.167214 0.12252386 0.15334073 0.15213099 0.23518607
0.21941435 0.16622661 0.29706126 0.21377543 0.21164468 0.15930489 0.2495778 0.1976245
00000000: 4ff2 b23e 4cc4 5d3e a749 223e 305f df3e
00000010: ab83 1d3e 4167 6a3e 0dbf 643e a793 323e
00000020: a4fb 8e3e e22b 493e 1fda 693e 30c1 893e
00000030: d4ad 403e 09c7 343e 6966 2b3e 8ac3 563e
00000040: c290 123e fca2 1d3e a369 c73e 6693 063e
00000050: 1e09 223e 6e37 a93e be50 893e c253 473e
00000060: 36c7 323e 20da 543e 18a1 603e d51b 7b3e
00000070: 6c9d a13e e60f 683e 4d43 803e 2e69 5a3e
00000080: 0ed4 4f3e 44b8 813e 2fd1 a33e 263a 2b3e
00000090: caed fa3d 5a05 1d3e 3ac8 1b3e 9ed4 703e
000000a0: 28ae 603e 4f37 2a3e 6a18 983e f2e7 5a3e
000000b0: 62b9 583e d220 233e 5391 7f3e 145e 4a3e
